runs/checkpoint_critic_2566_192021_tau1_1840.pth (torch, 356559 bytes, 7 tensors)

head.weight f4 [256, 22]
00000000: c5a3 f83a 7a61 bbbe 9c48 4bbe 6039 e2be
00000010: 8da4 223f 6e40 183f 45f5 7b3d 69c3 533f
00000020: 5f4e e83e 4a35 c23e a3cc 88be a70f 2fbd
00000030: 7565 17be e2aa 06bf c31b 23bf 4feb 963e
00000040: f32b a53d dcf9 1b3f 632f f2bb a5d1 693f
00000050: 93b9 2440 fa43 3ac0 c6b5 6e3c cfc5 6bbe
00000060: 6e91 243e 7e66 9d3d 1306 db3f 6982 b43e
00000070: 3839 8f3f a54b 963e ff02 27bd cd98 77be
00000080: b492 3cbe 7da3 35be 1428 47be 2493 e1be
00000090: a491 65be 385e 02bf 7aa2 663f ea8c 6bbd
000000a0: ca02 12bc a8ae 0dbf d937 bebf be0e 373f
000000b0: 7f5c 813b a44f 3abe 1959 a4be bb83 93bd
000000c0: b66e 253e 99e6 aabd 39a4 3f3f 0f00 95c0
000000d0: 3522 94c0 63e3 93c0 325a c43e ee3a cd3e
000000e0: 7484 0c3e ae15 49be 15fd dc3e 19a2 92be
000000f0: 0cd3 d73e 7f8e 8f3d 533a d5be d736 fa3d
00000100: 7112 83be 2a49 35bf e9c8 e4bb 2b84 edbe
00000110: 5d69 103f fd51 b33d 5b27 dabe 3300 e13c
00000120: 346b 8abf 62ea 243e a1d9 c43e fd19 113f
00000130: 8e2e 913d 11d9 653e 195f ef3d 7fc9 5e3e
00000140: 53e5 4dbe 1149 a1bd b3ec 05bd 47a0 16bd
00000150: bd49 403e af18 df3d 61a2 3a40 977a 6b40
00000160: 586c 12b9 3819 113d 8a24 2fbf 6822 8c3e
00000170: e100 6b3d 8313 063e 5d6a 1abe a001 d2be
00000180: 605e 3cbf b43f 7dbf cd47 30be 5789 94be
00000190: 7a6a cbbd c42c 233f a20c d8be 6d52 08be
000001a0: d11b 8b3e ec90 143e 43c9 9cbf 1c0e e3bd
000001b0: 1541 593f 9b2f e43c 479e 93bb 6cee 873e
000001c0: 9003 10bf e31f 55be db94 a4bf 4757 3e3d
000001d0: d2d6 9bbf e73f 4ec0 fa3c 37c0 0b1b 08c0
000001e0: c9d1 8c3c 0b02 5abe 0b5a 53be a311 0dbf
000001f0: b9a6 bcbe b0ea a1be 60f9 b73e 8dea 1fbe
00000200: 7f84 fdbd 6d8e 9cbf 2b4d f93f 3570 79be
00000210: b197 afba 89cd 86be f7f6 4ebe dfca eb3c
00000220: 9a7b 46be d16c a3bd c0c0 39be 80d7 27bf
00000230: 81bc 6dbf e866 06bf ab69 c53e d800 033f
00000240: 88ce 7a3e 71a4 14be 3539 c93e c0de 07bf
00000250: 73da fc3e ca8b 3a3f 854a bcbe 6204 033e
00000260: a706 32bf 3ff6 a5be 14d3 ab3b 1616 9fbe
00000270: 92ed 7d3f eec4 c63d ac4d 6f3f 0cc5 8abe
00000280: 68bc 2b3f 3dae e9be d978 12bf 760d e7be
00000290: 49a9 12bf 9594 f8be eb38 1ebe 50ee dbbc
000002a0: bfb1 223e 0ca3 f63b 01d3 7b3e 7a28 813e
000002b0: 5050 d2be afab 13bf f40f 25c0 5304 fdc0
000002c0: eee6 a939 048b 633e b514 913e a19d 4bbe
000002d0: ae8a 183f dc4c 2f3e 24ef ad3e 720f 69be
000002e0: c02b cebe 4292 0dbf 463e 273e ce2d bd3e
000002f0: dbe3 62be fbf2 f1be 30f6 423f 35eb 04bf
00000300: 8af9 05c0 f73c 92bf f360 06c0 deb3 36bf
00000310: 4e91 dc3e f4e8 0440 4f81 34bb 1c2c c03e
00000320: 0a28 0cbf 68c9 4d3c 674a 843f e7d2 423e
00000330: 0281 bf3f dcf2 24ba 7f44 5a3e 18ac 86be
00000340: 27f3 6bbd 9dfd 9dbe 13cc acbe bca5 1bbd
00000350: 61fe fd3d 8b90 c9bd 9ffe 14be 9a77 243d
00000360: 371a 453e 6f92 3cbf c831 ddbe 82b6 54be
00000370: 0447 3dba 5948 4dbe e39b 353e dd73 ebbd
00000380: 3136 95bd 3f7f a63d f9c1 4a3f 9ba8 523e
00000390: b113 5c3e 4d21 0cbf 819e 9f3e 4546 ef3e
000003a0: 4650 0a3f d589 8a3b 00c5 143f 4a09 a83d
000003b0: 8ef0 c5be c57f 0ebd c971 1bbf 60e4 16bf
000003c0: 9889 9fbf 6df0 a73f 67cc 363b 5171 9bbd
000003d0: 5faa 373e 0819 373e a33f cbbd 5c90 c4be
000003e0: 83f9 6f3f ccf0 30bf 1ffa e3be d479 c8be
000003f0: 3048 babc b4ae cfbe 19ad 34be 255f 8ebe
0.0018969706 -0.36597806 -0.19851917 -0.441844 0.63532335 0.5947331 0.061513204 0.8272005
0.45372292 0.3793128 -0.26718625 -0.042739537 -0.14784797 -0.52604496 -0.63714236 0.294764
0.08065023 0.6092813 -0.007390903 0.9133552 2.5738266 -2.910399 0.014569705 -0.23024677
0.16071102 0.076855645 1.7111229 0.35255745 1.1189337 0.29354587 -0.04077434 -0.24179383
-0.18415338 -0.17738147 -0.19448882 -0.44057572 -0.22418839 -0.50925016 0.9009167 -0.057507433
-0.008911798 -0.5534463 -1.4860793 0.7150687 0.003947794 -0.18194443 -0.32099226 -0.0720286
0.16155514 -0.08344764 0.7485996 -4.656257 -4.6291757 -4.621507 0.38350064 0.40084022
0.13722402 -0.19637176 0.43161836 -0.28639296 0.42153203 0.07009601 -0.4164606 0.12217491
-0.25600007 -0.70814764 -0.006981958 -0.463899 0.5641077 0.087558724 -0.4260815 0.027465915
-1.0813966 0.16105035 0.38447288 0.5668028 0.07088958 0.22446086 0.1168806 0.21756552
-0.20107011 -0.078752644 -0.032696437 -0.036773946 0.18778129 0.1089338 2.9161608 3.6793573
-0.00013964006 0.03542444 -0.6841513 0.2737 0.057373885 0.1309338 -0.15079637 -0.41016865
-0.73581505 -0.9892533 -0.1721489 -0.29011032 -0.09932418 0.6374018 -0.42197138 -0.13312693
0.2716966 0.14508408 -1.224892 -0.110866755 0.8486493 0.027854731 -0.004504952 0.2654909
-0.56255436 -0.20812945 -1.2857927 0.046469953 -1.2174933 -3.2226503 -2.8630967 -2.1266506
0.017189877 -0.21289842 -0.20639817 -0.55105036 -0.3684595 -0.31624365 0.35932446 -0.15616818
-0.12378787 -1.2230965 1.9476675 -0.2435921 -0.0013396648 -0.26328686 -0.20211397 0.02878326
-0.19383088 -0.079797395 -0.18139935 -0.655632 -0.9286576 -0.5250077 0.3855718 0.5117316
0.24492848 -0.14515854 0.39301458 -0.53074265 0.49385414 0.7286955 -0.36775604 0.1279464
-0.695414 -0.32414433 0.0052436683 -0.31071538 0.9919063 0.0970553 0.9347789 -0.2710346
0.6708436 -0.45640746 -0.5721565 -0.45127457 -0.5728956 -0.4855086 -0.154514 -0.026847035
0.15888117 0.007526761 0.2459221 0.25226194 -0.410769 -0.57683843 -2.5790987 -7.906778
0.00032406248 0.22220999 0.2833611 -0.1988435 0.5958661 0.17119163 0.33971512 -0.22759798
-0.40267754 -0.55301297 0.16332349 0.3694901 -0.22157232 -0.47255692 0.761569 -0.519214
-2.0933557 -1.1424855 -2.0996673 -0.71368206 0.4307961 2.0767183 -0.0027542894 0.37533653
-0.54748595 0.012560226 1.0335206 0.19025765 1.4961245 -0.00062922924 0.21315192 -0.26303172
-0.057604935 -0.30857554 -0.33749446 -0.037999853 0.124020346 -0.098420225 -0.14550255 0.040153123
0.19248281 -0.7366094 -0.43202043 -0.20772746 -0.000722036 -0.2004713 0.17735247 -0.114967085
-0.07285727 0.08129739 0.7920223 0.2057213 0.21491887 -0.5473831 0.31175616 0.467333
0.5402874 0.0042278566 0.581131 0.08204897 -0.3866009 -0.03478982 -0.607205 -0.5894222
-1.2463865 1.3120247 0.002789283 -0.07589973 0.17936085 0.17880642 -0.09924247 -0.38391387
0.937401 -0.69117427 -0.44526765 -0.39155447 -0.0227395 -0.40562975 -0.17644157 -0.27806965

head.bias f4 [256]
00000000: 2c9b dd3d f6c4 8dbe b787 373f 8a6e 22be
00000010: 9890 0fbe 54b7 b93d 2a0f c43e 19fb 23bf
00000020: c9fe 90bd fa47 14bf 5424 493f 64ac 44bf
00000030: e540 0a3f b7ca 183d cf1a 90bf c7af 3abf
00000040: 97d3 8e3e a2bb 71bd 6c56 743e 2fc9 07bf
00000050: 5d16 803f bdf0 be3e 5aa3 98bc e98a 6d3d
00000060: 3790 b0be 4197 8bbf aec9 3d3e d392 b7be
00000070: 4d75 b0be f71f e33e d201 fabe e254 7bbf
00000080: 3e45 0abf 2f70 b7bd 2ba3 1cbe ce73 963e
00000090: 583b 37bf a512 c9be b5d0 653f b832 373f
000000a0: 228d b3be 1d00 843e 1915 0ebd ca59 5ebf
000000b0: 2af9 b0be 0f2c 70bf bc48 7dbd 034c 823f
000000c0: 32ee 24bf 192e 103f 4dfc 0c3f b666 a7be
000000d0: 9767 54bd 53df d03d 4e4d 84be e4cf 08bf
000000e0: 60c0 4abf b63a 40be b03c 0abf d88b 15bc
000000f0: 5f53 cf3d f177 cbbd ce3c ecbc fb49 c3be
00000100: 14f4 2a3e 4581 72be c1b9 33be 6a60 f53d
00000110: 483d ca3e 9cef ad3c f21a 70bd b3e9 35be
00000120: fd4d 40bf 6f70 8ebd 89ad a53e 3ac0 1ebf
00000130: 1a24 183e 09be 1d3f db97 5ebf a8db ec3d
00000140: 8428 343e 15ea 1d3e c3aa ed3c 4962 64bf
00000150: e218 70bf 9139 733e 0d7d a9be ed01 b4bc
00000160: 46af 11bf 494d 18bf a628 98be a8d6 6fbf
00000170: 0477 8a3e 05b2 6e3f aa1f f23d 3336 98be
00000180: c673 4b3f bd9b 22bf 05f4 553f 7d56 37bd
00000190: 34df 6c3e f77d 91be 1844 d33e e5a6 8cbe
000001a0: eb0c 383f e629 6cbd afa5 7fbf 8d67 83be
000001b0: cb9d fb3d e35e 6dbe 9986 94bd bf32 c9be
000001c0: 5e40 2dbf 7390 923f 2ecf 0cbe 6cc1 afbe
000001d0: c0fe d53d e02c 15bf 1c81 cb3e fc86 c03d
000001e0: 32a3 89bf 8d6b 33be 2d5b e63b 57c4 8cbe
000001f0: 87d5 0dbe 426e 1ebf 3b6d 2f3d e707 583f
00000200: daf8 62bf f63f eabe 5600 2bbe 4333 033f
00000210: 0624 8e3e 6755 c63d afca 6abf e138 523e
00000220: 4ef1 ccbe 9ce6 41be d9fc 99bd 1db9 923d
00000230: 4631 493f e730 69be 137d 593e 5549 71bf
00000240: 95ab b53f d1e8 1f3f 0305 07be 8a01 2e3e
00000250: fdb9 323f 0011 06be 0ea3 a03d a93f 083f
00000260: 7697 c8be 144e 8d3f 7a80 19bf 67b3 cf3e
00000270: 56ae 92bf 70c5 29bd 6afb 24bf a28f 8c3d
00000280: 028e 40bf 2f7a 47bf 4e13 53bf 8b6d 05bf
00000290: f9a1 8b3e 4242 003f 6947 483f a730 1a3f
000002a0: 2719 09bf 78f1 88bf 36d1 12bf d1bc c6bd
000002b0: 29ec 1bbf 1be8 25bf 64f1 073f b477 b8be
000002c0: 48a9 0a3d 4c9d 8e3d 69fb aabf 1de7 0b3f
000002d0: 6553 783f ef61 36bf a54e 81be 5d28 c3be
000002e0: f266 cabd bafd 043f 1b89 f8bd a1a8 17bf
000002f0: 9e58 29bf d35d 983e 1c96 95be dd41 44bf
00000300: 95bd 4bbd 4169 a83e 63ba f13e cf96 57bf
00000310: e4da 41bf 406b 1bbf 4fa7 bfbd f08c 07bf
00000320: 2933 2fbc 8667 febe 161a c4be c855 35bf
00000330: 7e6a c63d 67ce 053f 7e18 cf3d 8605 57be
00000340: 4f45 26bc cc7b 02bf 3514 a03f 151a ab3e
00000350: c52e 4d3f d24b 093e 87e7 e2be 9890 a9be
00000360: 4227 31be a234 373e a54c 4abf 5422 f3be
00000370: 991d ba3d a54f cfbe 7bb4 803f 6108 623c
00000380: 5b4e 7bbe ebc2 973f be24 b63e a27e 0dbf
00000390: ec8f 6b3f 5212 00bf 4115 683f ad58 cbbe
000003a0: 616d 06bf b769 c93d 379a 43bf 627b 273c
000003b0: 8e96 9abe 9305 8fbe 8de2 6abf fb29 cfbe
000003c0: 6cc5 f43e 7181 6d3d 526c 1d3f 8786 a93d
000003d0: f826 a6be 458c 693f 5785 6d3d 71d7 8fbe
000003e0: 758b 42bf ccd6 203d f947 ff3e 98f4 ac3d
000003f0: 32c6 9cbe bd86 11bf a956 adbe 3d18 5bbe
0.10820612 -0.27689332 0.7169146 -0.1586248 -0.14020002 0.0906817 0.3829282 -0.6405502
-0.070798464 -0.5792233 0.7857106 -0.7682555 0.5400527 0.0373027 -1.1258181 -0.72924465
0.27895805 -0.05901683 0.23861092 -0.53041357 1.0006825 0.37293044 -0.01863258 0.057993803
-0.34485027 -1.0905534 0.18533966 -0.35854205 -0.34464493 0.44360325 -0.48829514 -0.98176396
-0.54011905 -0.08956944 -0.15296619 0.29385227 -0.71574926 -0.39272037 0.89771587 0.71561766
-0.35068613 0.25781336 -0.03468809 -0.8685576 -0.34565097 -0.9381723 -0.061836943 1.0179447
-0.6442596 0.5632034 0.5507248 -0.3269555 -0.051856603 0.10198846 -0.2584023 -0.53442216
-0.7919979 -0.18772396 -0.5399885 -0.00912758 0.10123324 -0.099349864 -0.028837588 -0.3814238
0.16694671 -0.23682125 -0.17551328 0.1198128 0.3949988 0.021232419 -0.058619447 -0.1776493
-0.75119 -0.06955039 0.3235896 -0.62012064 0.14857522 0.61618096 -0.86950463 0.115653336
0.1759358 0.15421326 0.02901209 -0.8921247 -0.9378797 0.23752429 -0.3310322 -0.021973575
-0.5690807 -0.5949293 -0.29718512 -0.93686914 0.27043927 0.93240386 0.11822446 -0.2972885
0.7947353 -0.6351889 0.8357547 -0.044760216 0.2313202 -0.28416416 0.4126289 -0.2747108
0.7189471 -0.057657145 -0.9986219 -0.2566494 0.12285956 -0.23180728 -0.07252235 -0.3929653
-0.6767634 1.1450332 -0.13750908 -0.34327257 0.1044898 -0.582716 0.3974694 0.09400746
-1.0752928 -0.17521496 0.007029912 -0.27493545 -0.13850985 -0.6188699 0.04282878 0.8438706
-0.8866097 -0.45751923 -0.16699347 0.51250094 0.2776186 0.09684258 -0.9171552 0.2052951
-0.4002785 -0.18935627 -0.0751893 0.07164214 0.7859081 -0.22772561 0.21239118 -0.9425252
1.4192988 0.62464625 -0.13185506 0.16992775 0.69815046 -0.13092422 0.078436 0.5322214
-0.39178056 1.1039453 -0.59961665 0.4056656 -1.1459453 -0.041448057 -0.6444613 0.06863333
-0.75216687 -0.7792081 -0.8245133 -0.52120274 0.27272013 0.501011 0.78233963 0.6023049
-0.53554004 -1.069869 -0.5735048 -0.097039826 -0.60907227 -0.6480729 0.5310271 -0.36028826
0.033852845 0.06963596 -1.3357974 0.54649526 0.9700225 -0.71243185 -0.25255314 -0.38116732
-0.098829165 0.51949656 -0.12135526 -0.5924168 -0.66150844 0.29759082 -0.29216087 -0.76663
-0.049741346 0.32892802 0.47212514 -0.8421449 -0.75724626 -0.60710526 -0.093580835 -0.5294943
-0.01069335 -0.49688357 -0.38301152 -0.70834017 0.096882805 0.5226807 0.101120934 -0.20998201
-0.01014836 -0.5097015 1.2506167 0.33418337 0.8014949 0.1340783 -0.44317266 -0.3311813
-0.17300132 0.17891172 -0.790232 -0.47487128 0.090876766 -0.4049045 1.0055078 0.013795943
-0.24541609 1.1856359 0.35574907 -0.5527135 0.9201648 -0.50027955 0.9065743 -0.39716092
-0.5251065 0.09834617 -0.7640719 0.010222288 -0.3019299 -0.2793394 -0.9175194 -0.40461716
0.4780687 0.057984773 0.6149341 0.08277612 -0.32451606 0.9122966 0.05798849 -0.28094056
-0.75994045 0.039267346 0.49859598 0.0844509 -0.3061996 -0.5684622 -0.3385518 -0.21395965

cos_embedding.weight f4 [256, 64]
00000000: eea7 a6be a213 1e3e 0e60 36be 9013 103e
00000010: a2e8 21be 5c35 bc3d b18f 21be 9ce0 723d
00000020: b983 fdbd 9ff2 4f3d c776 babd 1d4b f53c
00000030: 4ef0 c3bc 9991 153d 5247 b73c 54c6 8f3d
00000040: 2208 8f3d 396a a23d 6c0c b93d d371 913d
00000050: 5995 cc3d 07be 4b3d 4ee1 e53d 5b36 8d3c
00000060: 4bc0 be3d f853 53bc 3a34 f13d fbf8 93bc
00000070: f64e cd3d 4c38 31bd d889 9f3d a4a9 3abd
00000080: 9d08 7b3d 6101 79bd 0503 c73c 24ce 65bd
00000090: 69cc 6f3c 53e1 9ebd 1065 523c a54d 49bd
000000a0: 79bd 4b3c 0eab 90bd 5048 41bc b8c7 77bd
000000b0: f630 d8bc 8664 6cbd 780c 34bd 0e08 0fbd
000000c0: 98ad dfbc a013 cdbb ac46 92bc 24c6 ac3c
000000d0: dad7 c1bb 36ad ab3c b8fb 653a 4453 f73c
000000e0: df2b 9e3c 7f8f 4e3d f286 3f3b 3317 373d
000000f0: 1d39 813c 88e1 d03c 2571 043d a9e6 a23c
00000100: 89e8 073e 4d88 cc3e c7a7 da3d 29a0 d23e
00000110: 1fb1 9c3d f01b 863e 7ebd f43d 19ea 863e
00000120: 83c3 d1bb c63a 893e 673b 7d3d f87d 7b3e
00000130: 45cb 843c 28f4 2b3e d091 83bd 217b 633e
00000140: e983 d33b 4185 d03d 4ed1 e2bc 9bfd 603d
00000150: a620 57bd d27c 5a3d 71a5 c8bb b771 acbc
00000160: 967f 5cbd eb25 883c 682e 6dbd 50ab 843c
00000170: e646 18bd 47d9 7fbd 0c36 583b 7492 16bd
00000180: 1a64 9abb 9ca7 f9bc 33a7 0fbd 2d06 26ba
00000190: 7811 dd3c 5462 1bbd 765e 0fbd 9f65 09bd
000001a0: b3b1 ea3c 3ced 053c c34b 1e3b e0cb 21bd
000001b0: 597c a53a 33f9 13bc 7da3 093c 30f8 24bb
000001c0: e211 aebc 04e6 f13c d148 123c 8c75 12bc
000001d0: 0438 d0bc daed c43c fa62 0b3b 9119 473d
000001e0: 5184 d0bc 3e45 bc3c 072c dabc 9722 1c3d
000001f0: 63a6 ebbc 72e1 e23c 7726 e33a e8ad 1d3d
00000200: abbc e0be 2e1e 17bf deac 99be 0d4a 1bbf
00000210: 5c72 84be 41da 09bf 4f10 83be 87da febe
00000220: 40e6 4bbe 2596 fbbe 1683 44be 4b7e e8be
00000230: 113f 20be 05ca d3be 4adc dabd cabf bebe
00000240: 6fda 82bd 94b6 9fbe fb59 3cbd 3533 84be
00000250: 5ada 5fbc a57c 56be a6ec 033d adb3 12be
00000260: 7416 4d3d 3501 dbbd 9846 9f3d 0e6d 90bd
00000270: bda0 b83d 12f6 e2bc 4fb7 ca3d d13e 893b
00000280: 28b0 c33d 41d3 073d 82ba e83d 58e5 533d
00000290: 4c9c e83d c075 ab3d 92d4 dd3d 69ba cc3d
000002a0: 0bd7 ef3d 1a40 c03d 9e17 e33d af75 b53d
000002b0: 0605 d53d 1e77 c43d 1976 c83d e74d a33d
000002c0: b2c9 aa3d 2751 a53d bb8a 983d 75bc 883d
000002d0: 7e51 843d d0e8 833d 4964 8b3d 6259 3b3d
000002e0: 4f0c 883d c362 1f3d e685 243d 182c b43c
000002f0: 26ba 2f3d 5f9d 363c fc4b b63c b64f bf3b
00000300: 4427 7c3e f39e 54be 6f06 3f3e 14fd 77be
00000310: 07b7 293e 0641 7abe 8781 2d3e 5ed7 38be
00000320: 0dc2 143e 98f1 33be 10d2 093e 265f 1ebe
00000330: 743c ec3d d6eb 02be 2557 bd3d aa12 dbbd
00000340: f26d 993d a0ff 9cbd 9e9e 7d3d 6955 84bd
00000350: 0e01 223d 4306 10bd 5a77 a13c 72c5 f4bc
00000360: 38de 513c 5eb3 0dbb d59d 023b 0bde 703c
00000370: ea8d 5abc 7087 ed3c 0430 b5bc e33c 143d
00000380: df2f e3bc fcbd fd3c 925a 0dbd cc9e 323d
00000390: 1732 1dbd 7e76 6b3d cd4c 11bd 0302 493d
000003a0: 46ae 09bd bc67 483d 5b5a fcbc 832f 173d
000003b0: bb2d c4bc e235 6d3d b874 c9bc 430f 4f3d
000003c0: 3062 eebc e0ec 3e3d 9088 72bc 4efc 4a3d
000003d0: 78f6 b5bc 4236 2e3d 3a45 7cbc c44e e03c
000003e0: abf6 eebb b9f3 c43c c7ca aabb d264 963c
000003f0: 440e 923a 57f0 603c 70e0 4ebb 1b34 203c
-0.32549995 0.15437177 -0.1781008 0.14069963 -0.15811399 0.09189865 -0.1577747 0.059296235
-0.1237864 0.05076849 -0.09104686 0.029943043 -0.023918297 0.036515806 0.022372875 0.0702025
0.06983973 0.079304166 0.090355724 0.07101788 0.09989423 0.04974177 0.11224614 0.017237833
0.09314021 -0.012898438 0.117775396 -0.01806306 0.10024826 -0.04326658 0.077899635 -0.04557194
0.06128751 -0.06079233 0.024293432 -0.056104794 0.0146361375 -0.07757821 0.012841478 -0.049146313
0.0124353105 -0.07063876 -0.011797026 -0.0604932 -0.026390534 -0.057713054 -0.043957204 -0.03491979
-0.027304456 -0.006258443 -0.017855965 0.021090575 -0.005915624 0.020956617 0.0008773166 0.030191071
0.019308029 0.050429817 0.002922472 0.04469986 0.015774304 0.025498167 0.032334466 0.019885378
0.13272299 0.3994774 0.10676532 0.41137818 0.07650971 0.2619319 0.11950205 0.26350477
-0.0064014806 0.26802653 0.06182423 0.24559772 0.016210208 0.16792357 -0.06424296 0.22214939
0.006454934 0.10181666 -0.027687695 0.054929357 -0.05252137 0.053341694 -0.006123238 -0.021050317
-0.053832613 0.016619643 -0.057905585 0.01619497 -0.03717699 -0.06246307 0.0032991199 -0.036760762
-0.00471164 -0.03047543 -0.035071563 -0.0006333318 0.026985869 -0.03793557 -0.035002194 -0.03354418
0.028649187 0.008174237 0.0024154044 -0.03950107 0.001262556 -0.009031582 0.008400795 -0.0025172345
-0.021248762 0.029528625 0.008928494 -0.008939158 -0.025417335 0.024039198 0.0021268711 0.048608366
-0.025453718 0.022982236 -0.026632322 0.038118925 -0.028765863 0.027695391 0.0017330189 0.038495928
-0.43893942 -0.59030426 -0.300147 -0.6065987 -0.258685 -0.53848654 -0.2559838 -0.49776098
-0.19912052 -0.4913799 -0.1919063 -0.45408854 -0.15649058 -0.41365066 -0.10686548 -0.37255698
-0.06389319 -0.31193984 -0.04598425 -0.25820318 -0.013662899 -0.20945986 0.032208107 -0.14326353
0.05007024 -0.106935896 0.077771366 -0.070520505 0.090150334 -0.027705226 0.098982446 0.0041883965
0.095550835 0.03316045 0.113636985 0.05173239 0.11357936 0.083720684 0.1083156 0.099964924
0.11710938 0.093872264 0.11088489 0.08860337 0.10401349 0.09593032 0.0978815 0.07973843
0.083392516 0.08072119 0.07448336 0.0667657 0.06460856 0.0644089 0.06806237 0.04573954
0.06642973 0.038912546 0.040166758 0.021993682 0.042902134 0.011145919 0.022253029 0.0058383597
0.24624354 -0.2076376 0.18654798 -0.24217635 0.16573726 -0.24438867 0.16943942 -0.18050906
0.1452715 -0.1757263 0.13459039 -0.15465984 0.11534968 -0.12785277 0.09245137 -0.10696919
0.074916735 -0.07665944 0.061918847 -0.06461603 0.039551787 -0.03516222 0.019710232 -0.029879306
0.012809329 -0.0021621804 0.00199305 0.014701377 -0.013339499 0.028995246 -0.022117622 0.03619088
-0.027732788 0.03097438 -0.034510203 0.04360847 -0.038377848 0.05748605 -0.035473634 0.049074184
-0.033613466 0.048927054 -0.030804804 0.036910545 -0.023947587 0.057912715 -0.024591789 0.050551664
-0.029099554 0.04661262 -0.014803067 0.049557023 -0.022212252 0.042532213 -0.015397364 0.027381308
-0.0072925887 0.024041997 -0.005212161 0.018358622 0.0011143168 0.0137291765 -0.003156688 0.009778048

cos_embedding.bias f4 [256]
00000000: aaf9 e23f 3685 eabd a927 2540 63f4 8c3f
00000010: 12a4 2140 8e8d b83f 08da 4f3e ec98 3b3f
00000020: f948 3040 84d3 af3e 642e 59be 7f14 4c3f
00000030: 0e22 e53f 3f74 3fbe e405 713d 73c5 cb3f
00000040: 54fb 4740 4096 943f 47f6 d73f a0d6 563f
00000050: f8df f43f 6607 5040 c66f 453f 8900 3d40
00000060: 2c40 913e 3b70 b23f 1b6e 573f 7051 bb3f
00000070: 5368 e03e 3d6a 2a40 fcad dc3f 0743 383f
00000080: 12d2 af3f 24c2 a13f e74f fd3f efce 8d3f
00000090: 4784 b53e 7600 b83f 8d40 fe3f 0fc6 c83f
000000a0: 3831 143e 0b83 3a3e 60b8 0b40 a66b cf3d
000000b0: 8bc3 4abd 3778 ed3f ed6a 6440 70c9 8e40
000000c0: 47fc 2340 d144 1640 8c1e b53f 0dfc 053f
000000d0: 6ffd a13e 7435 f23f 35a0 1340 98fe 0840
000000e0: 1aee bb3f e51b df3d d76e d83f 03f0 2640
000000f0: 6e57 423c 2a1e 633d e817 923f 4c9a 2240
00000100: 3cf9 8c3f a711 0b3e 4776 ba3f dae6 b63f
00000110: 1f49 b13f 2851 e53f 9a3b 0040 bf0b 6a3f
00000120: 0290 3040 6017 a43f a5a8 b63f 1476 debc
00000130: 3806 0c3d 3696 2240 4ce1 5d3f 5b43 ae3f
00000140: 0fba 0b40 907b 8e3c 66ad f23f c0c7 603e
00000150: dc72 e7bd fb45 c43f 114c f53f 1eaf 123f
00000160: 2243 0b40 de9c f63f 06ca 673e 8cb7 9e3f
00000170: 2c50 3e40 3474 943f 2b9e 4fbd 70a8 1940
00000180: eec6 423f 3dcb dd3f 6dd8 89be 0951 533e
00000190: 5e8b 8e3f a1ee a43e ba87 c83f f9f5 153f
000001a0: 62d6 2340 76d8 f3bd b53a 593f e5fe 803f
000001b0: 962e 183f f405 853f 2c5f ad3f f0b6 f93f
000001c0: e05f 833f 7657 c03f 9770 1440 0a7f fd3e
000001d0: a9c2 e23f 2e8b 4a3e 1982 4c3f a5d5 ba3e
000001e0: 891f 61ba d869 d93e dda9 3340 7934 0240
000001f0: dbd2 3040 799d dd3f f3bf 083f 2d02 a43f
00000200: 01fa 383e 91c8 b13f 0004 4439 0c5d 2e3f
00000210: 7ee6 583f 12b9 8a3f fdf0 3d40 83e8 223f
00000220: 43ab 1440 e4dc 323f c2c7 953f 90ac 503f
00000230: 668f 8340 8c15 af3f e0c9 1b3f 86ba 2940
00000240: 6002 1d40 4b83 3c40 1b8a e33f cefd ff3f
00000250: 032f 3540 30d4 2cbc b107 2440 3192 f03f
00000260: ea87 b23e afc5 2940 6be0 753f 9427 af3f
00000270: e8b8 913e de2c 0b40 b390 b83f e90b f93f
00000280: ef46 b33f bd37 353e 9f30 0a3f d0c3 313f
00000290: 13e5 e13f 7b0e ae3f 977a 3b40 d71e a03f
000002a0: 3ae0 4f40 9eea 843f 05a8 983d 4f27 0c3f
000002b0: 0ffe 1440 7649 073f 0f37 7240 8346 c73f
000002c0: 9405 973d b1a8 c83f 8b1c d63f 2339 c93f
000002d0: c7bf 0640 921a cc3f 8949 bf3f 2c06 2a40
000002e0: 2af2 d93f 664b 483f e81c c33f 02de d13f
000002f0: ea5d 32be 1496 633f 015d da3f 49fd e93f
00000300: c26a f13f 80cc 143f 9459 c63f 61c7 ec3f
00000310: eaaa 553f 3be3 0c3f cc47 153d 3db3 55bc
00000320: cac6 2c40 3e80 113f c3d9 963f f5bb c13f
00000330: 886b ef3f 00d4 113f f34a 2040 1bce 1040
00000340: 20ce 6c3c 8f7a 0240 4ea1 9440 563a 8f3f
00000350: 0972 6640 b655 fa3f 1eae 8cbd 35d5 4c3f
00000360: 8325 aa3e 782c 283f 90eb d03f 85be 3c40
00000370: 0093 2840 dd82 803f 540a eb3f 92b7 d9bd
00000380: 9a7c 8a3e bdaf fb3f 3b38 f43f b41b c03f
00000390: 404a 4440 df4f d93f 82de b23f be6a 1a40
000003a0: 4dd7 c8bd a8e6 b23f 76ac 0940 f4d4 94bc
000003b0: 1c54 693f 0ae2 23bd bcd6 2340 896a 213f
000003c0: af93 0740 6433 0a40 f7e4 0a40 ed83 903f
000003d0: 980a a03f c1a1 3d3f 1f59 c73f 7d38 0640
000003e0: 8f1e 5b3f c878 d63f f74f ea3f bc92 4140
000003f0: 86ae 583f 81ee 813d de4a 0a40 df50 af3f
1.7732441 -0.11451189 2.5805457 1.1012081 2.525639 1.4418199 0.20298016 0.73280215
2.754454 0.3434106 -0.21209103 0.79718775 1.7901018 -0.18696688 0.05884351 1.5919632
3.1247149 1.1608353 1.6872033 0.8392124 1.913085 3.2504516 0.7712368 2.9531577
0.28369272 1.39405 0.8415238 1.4634228 0.43829593 2.6627343 1.7240596 0.71977276
1.3735983 1.2637372 1.9790009 1.1078776 0.35452482 1.4375141 1.9863449 1.5685443
0.144719 0.18214051 2.1831284 0.10127954 -0.04950289 1.8552312 3.5690262 4.4620895
2.5622728 2.3479502 1.4149947 0.52337724 0.31638667 1.8922563 2.3066533 2.1405392
1.4682038 0.10893992 1.6908826 2.6083992 0.011861665 0.05544869 1.1413546 2.5406675
1.101356 0.13580953 1.4567345 1.42892 1.385044 1.7915392 2.0036378 0.91424173
2.7587895 1.2819633 1.4270216 -0.027155913 0.03418562 2.5404181 0.866719 1.3614305
2.183231 0.017392904 1.8959167 0.21951199 -0.113012046 1.5333856 1.9163839 0.5729846
2.1759725 1.9266622 0.2263566 1.2399764 2.9736433 1.1597962 -0.05068795 2.4009056
0.7608479 1.7327648 -0.26922932 0.20636381 1.1136281 0.3221331 1.566642 0.5857845
2.55996 -0.11906521 0.84855205 1.0077788 0.59446084 1.0392442 1.3544669 1.9508953
1.0263634 1.5026691 2.319372 0.49510986 1.7715656 0.19779655 0.79886013 0.36491123
-0.0008587768 0.42463565 2.8072426 2.0344527 2.7628696 1.7313682 0.5341789 1.2813164
0.18064119 1.3889333 0.00018693507 0.6811073 0.84726703 1.0837729 2.9678338 0.63636035
2.322953 0.698683 1.1701586 0.8151331 4.1112547 1.367845 0.6085491 2.6520095
2.45327 2.9455135 1.7776521 1.999933 2.8309944 -0.010548636 2.5629694 1.8794614
0.3486932 2.6526906 0.9604556 1.3683953 0.28461385 2.1746135 1.4419159 1.945676
1.4006022 0.17697044 0.5398044 0.6943941 1.7648033 1.3598169 2.9293573 1.2509412
3.2480607 1.03841 0.07453922 0.5474748 2.3280065 0.5284647 3.7846105 1.5568393
0.07374111 1.567648 1.6727461 1.5720562 2.1054552 1.5945609 1.4944316 2.6566267
1.7027028 0.7824005 1.5243196 1.6395876 -0.17418638 0.88900876 1.7059633 1.8280421
1.8860705 0.5812454 1.5496087 1.8498346 0.8346392 0.55034226 0.036445424 -0.013043222
2.6996331 0.5683631 1.1785206 1.5135485 1.8704691 0.5696411 2.5045745 2.2625797
0.014453441 2.0387304 4.6446905 1.1189678 3.6007102 1.9557407 -0.06869148 0.8001283
0.33231744 0.65692854 1.6321888 2.9491284 2.6339722 1.0039936 1.8362527 -0.106307164
0.27048188 1.9663006 1.907966 1.5008454 3.0670319 1.69775 1.3974154 2.412765
-0.0980669 1.3976641 2.1511512 -0.01816795 0.91143966 -0.04001049 2.5599813 0.63053185
2.118389 2.1593866 2.170225 1.129026 1.2503233 0.7407494 1.5574073 2.0971978
0.85593504 1.675561 1.8305653 3.024581 0.846413 0.06344319 2.1608195 1.3696555

ff_1.weight f4 [256, 256]
00000000: 37a0 77be 1bf8 013d bdfc 43bf ce4b 87be
00000010: 11b4 e2bd 960b 9cbf aaf8 bdbd abba b9bd
00000020: 0506 b13e 56ae 353e 1de0 b73d cb13 873d
00000030: a07b 903e d5eb 96be b70e 3d3d dc1a 3b3e
00000040: 7fb0 b63e 3005 3f3e e3fc 20be b7f1 f73d
00000050: 8083 85bd 22e5 98bf fe97 b0bd cc32 b8be
00000060: d144 0abe e6dd 2fbe b5d0 38bf cf99 573e
00000070: 6a47 dd3d 8d7c c2bd b7fe 15bf ece1 263e
00000080: 07f0 45be e3a4 193d 8f46 4fbe c3d6 b1be
00000090: c642 cf3c 0527 10bc a01d 12bf c980 98be
000000a0: f609 57be dede 50be 684b 613e cc9e 4cbd
000000b0: b63a a5be c7bc 9bbe 5a40 d8be 5a43 05bf
000000c0: 077e 4fbf 73dc 02be 6125 00bf 9e54 aabd
000000d0: fdb6 0e3e 7290 c0be 384a 293e 50f5 033d
000000e0: 9add ee3e 8b93 38bd 3951 82be f75f 02bf
000000f0: c58d 223d bb46 db3c efb2 b3bc cd9b 0dbf
00000100: 31af 12be 3438 bf3d 4497 7fbe 4ac5 9e3d
00000110: 9a64 7ebf 5d2c 01bf 793b 923e c408 a23c
00000120: 32df edbe 5a29 2b3f 5d4d 31bf 59c0 dbbd
00000130: b016 dd3c 12a8 0ec0 1ed5 173e 4295 96be
00000140: fe4c 42bf 2cec ce3c ba52 003e a087 f83d
00000150: 618e 29be 8b69 863f a388 1fbf 0dad 53be
00000160: 1174 94be 3abb 3cbe 8a55 1dbe d73a 3d3e
00000170: 7f3a 933e bde1 76bf c863 903e af0b ea3d
00000180: e8a0 dfbe aa59 e53e 04c6 6bbd af28 e2be
00000190: 48d1 34bf 8949 e0bd 0462 f4bd b9f4 d8bf
000001a0: 4166 1fbf 2633 99bc 2abc 3c3e 2e14 a0be
000001b0: 091f 51be b22f bdbe 7d30 d3bd 8f3f 553e
000001c0: 147f d03e 49bf 273e 1369 7bbe 0928 2dbe
000001d0: 45ca 7c3d fdd5 263e 53bb 9abe 0dd6 01bf
000001e0: 2e74 82be 7a30 d43d b14a 13bf 35a6 fdbd
000001f0: e361 05be bd44 af3e 5146 27bd edf0 23be
00000200: 23b2 41bf 6f5f bdbe b02c d63b 13d9 38be
00000210: ec7e 6e3f 2181 09be 7e79 263d b523 bb3c
00000220: 0259 993d d645 7fbe 8684 c63d 7afa 7bbd
00000230: 4a25 e2be 2990 61bd 5450 79be 0ee4 143e
00000240: 42fc 0b3e d908 33bf bce0 d53d c55c 3a3c
00000250: 66fb b9bd 9a33 763d 0b85 3d3d 9cac eebe
00000260: 14ac 933d cca6 11bf b584 ee3e 7aa0 89be
00000270: 180a 1a3e 6069 9abf 2718 debf 4820 a53e
00000280: 034e 0c3f 6f8d b13d 0bee 693e 113b a23e
00000290: 6108 5dbe 1660 653e 93f8 17be 0069 b8bd
000002a0: de9a 1d3f a58c 9cbc 42c2 bd3e 01b7 c9be
000002b0: b586 a63e 2099 173e 71c6 72bd 5f02 92bf
000002c0: 1694 073d 21d2 243e 2a9c 903e a02f b6be
000002d0: d9b6 713d e6e8 cabe d94b 8cbd 8a43 0cbf
000002e0: c3db 27bf 1877 083e b654 523e 6339 943d
000002f0: 4cce b73d 46ab 5abf 0a13 7cbe 8287 853e
00000300: 017b d9be 5c99 693e 9e48 44be 59d6 2c3d
00000310: 0e58 38bc db54 753a b0f5 7cbd a8ba 043e
00000320: b2b1 923f 0abe 2b3e 0d2b e83e 95d1 c33d
00000330: 338b dabd 60c6 8d3d f047 9ebe 9b3d 3d3d
00000340: 1894 573d 084e acbe 340f 13bf 3202 68be
00000350: 3fa3 563d 293d a0bd a680 a13e f445 5a3d
00000360: 76b0 5fbd d21c 97bd 1b85 bfbe 564b 26be
00000370: cc19 dd3e 8610 dd3d ddec f5be a080 20bd
00000380: 7dc3 fc3d feef 3ebe 6fad c4be 1f90 8e3e
00000390: a944 513d eaff 983e 9a58 843e b139 eebf
000003a0: 9c3d e23d eb02 403e 38d6 64be dbf5 60bd
000003b0: 4a63 9dbf 74db 66bd 73d2 e0bd e733 0d3e
000003c0: 189f 33bf 0484 17be ea89 e9bf 3b1e a43e
000003d0: 5242 53bf 9c4e 1dbe 9e82 a83c c308 b03e
000003e0: f3ad d53c 94f4 c9bd 4d0d a3bd 09a5 80be
000003f0: a2ed acbd 9ea2 a43d f96f 85bd 7365 a2be
-0.24182211 0.031730752 -0.76557523 -0.26425022 -0.11069501 -1.2191036 -0.092759445 -0.09068807
0.34574905 0.17742285 0.08978293 0.06595572 0.28219318 -0.294768 0.04615661 0.18271965
0.3568153 0.18654323 -0.15721469 0.1210665 -0.06519222 -1.1944926 -0.0862274 -0.35976255
-0.13502814 -0.17174491 -0.7219346 0.21054767 0.10804637 -0.094964124 -0.5859179 0.1629712
-0.19329844 0.037510764 -0.2024176 -0.34734163 0.025300395 -0.0087983655 -0.57076454 -0.29785755
-0.20999894 -0.20397517 0.22001421 -0.049956128 -0.32271355 -0.30417463 -0.42236596 -0.52055895
-0.8105168 -0.12779407 -0.50057036 -0.08316921 0.13936992 -0.37610203 0.16532218 0.03221637
0.46653444 -0.045062583 -0.25452593 -0.5092768 0.039685983 0.026767125 -0.021935908 -0.5531586
-0.14324643 0.09336892 -0.24960047 0.07752474 -0.99372256 -0.5045832 0.28561 0.01977957
-0.46459347 0.6685997 -0.6925867 -0.10730047 0.026988357 -2.2290082 0.14827392 -0.2941075
-0.7589873 0.0252591 0.12531558 0.121352434 -0.1655822 1.0500959 -0.62317866 -0.20671482
-0.28994802 -0.18430796 -0.15364662 0.18479477 0.28755566 -0.964382 0.28201127 0.1142801
-0.4367745 0.4479497 -0.05756189 -0.44171664 -0.7063184 -0.10951526 -0.119327575 -1.6949683
-0.622654 -0.018701147 0.18431154 -0.31265396 -0.20421995 -0.3695045 -0.10311983 0.20825027
0.40721953 0.16381563 -0.24551801 -0.16909803 0.061716337 0.16292568 -0.30221042 -0.5071724
-0.25479263 0.10360809 -0.57535845 -0.12385217 -0.13025622 0.3423213 -0.040838543 -0.16009875
-0.7566244 -0.36986873 0.006536089 -0.18051557 0.9316242 -0.13428165 0.040643208 0.022844175
0.0748768 -0.24928984 0.096932456 -0.06151817 -0.44169074 -0.055069122 -0.24347049 0.14540121
0.13670447 -0.69935375 0.10443255 0.011374657 -0.090811536 0.060107805 0.046269458 -0.46616066
0.07210556 -0.56895137 0.46585622 -0.26880246 0.15042913 -1.2063408 -1.7351121 0.3225119
0.54806536 0.086695544 0.22844712 0.3168569 -0.21585228 0.22399935 -0.14840917 -0.09004402
0.61564434 -0.019110033 0.3706227 -0.39397433 0.32524648 0.14804506 -0.05927128 -1.1406974
0.03310021 0.16095783 0.28244144 -0.3558321 0.059012268 -0.39630812 -0.06850404 -0.54790556
-0.65569705 0.1332668 0.20540127 0.07237508 0.08974895 -0.8541759 -0.24616638 0.26079947
-0.42476657 0.22812408 -0.19168326 0.042196605 -0.011251463 0.0009358653 -0.061757743 0.12961829
1.1460478 0.16771713 0.45345345 0.09561459 -0.106710814 0.06922603 -0.3091426 0.04620133
0.052631468 -0.33653283 -0.57445073 -0.22657087 0.052401777 -0.078241654 0.31543463 0.05328937
-0.054611646 -0.07378544 -0.3740624 -0.16239676 0.43183744 0.10794167 -0.48032275 -0.039185166
0.12341974 -0.18646237 -0.3841357 0.2784433 0.05109087 0.29882747 0.25848848 -1.8611356
0.11046907 0.18751113 -0.22347343 -0.054921966 -1.2295926 -0.05636163 -0.1097764 0.1378933
-0.7016463 -0.14796454 -1.8245213 0.32054314 -0.8252307 -0.15362018 0.020570096 0.34381685
0.026083922 -0.09861103 -0.07961521 -0.25125912 -0.08443762 0.08038829 -0.06515498 -0.31718025

ff_1.bias f4 [256]
00000000: 7f23 c63d cebd 11bd 9d7a 32be 589d bc3d
00000010: b26e 27bf 2fc0 54bf fea7 933e d2e1 ef3d
00000020: 8b7e 083c afb9 e3bc 8d4a b9be 26cb a7be
00000030: 9b7c ba3d 2403 403e 955e 87bd 4768 8ebe
00000040: c4d2 e2be 6401 063e fd29 ab3e 24d1 08be
00000050: 5439 6cbe ca7a 963e 7363 8b3e ab42 15bf
00000060: 3aa8 83bd 1bf8 363d a332 edbe ccf3 86be
00000070: 00fc 9e3e 5488 153d 314a ba3d 5548 893d
00000080: a5ee 343d a4c4 3fbd 805f 343d 7ff1 15bf
00000090: b642 973e e05d 513f 7ad4 89be 3e36 0fbf
000000a0: f196 933b 744f c7be 5ff2 13bf e50f c8be
000000b0: 52e0 35bd b5d7 6f3d 7f00 133e 1bc4 92be
000000c0: ab08 ee3c ad14 e43c fea5 0e3f eac7 08bf
000000d0: 782a a9be 16e0 f93d 64fa 4c3d 03f3 01bf
000000e0: 25e0 0abe 5b23 d53e 4fc4 74bc 6dd1 493e
000000f0: 0d4c 85bd 9910 433e d3fb bcbd be86 313e
00000100: f6e7 f03d 6d86 c13e 789a 97be fcae 063f
00000110: 07ce a53e 37e6 ecbd 584c 263e 8f2c 993e
00000120: c315 08bf 314f 5fbe fc73 21bf cf0c 8fbe
00000130: fd71 8cbe 1ebc c93e d06e e8bd d391 01bf
00000140: fb32 e2bd fb73 3dbd d61e 31bd 5d4f 62bf
00000150: 00a8 79be 7f7c 1a3e 9851 b3bd c7d3 4a3e
00000160: 8241 843d 0609 a0bd a571 0d3e 959d cebd
00000170: 6d32 603e 6fb4 f3be ff6b 40be f9f1 bebc
00000180: 1def adbe 37b2 d9be 8dd5 f7be eebb 9cbe
00000190: ac2f a53d 7f5f b2be c4e1 8d3e 1909 3dbe
000001a0: 541f 86be 2492 d8bd 191c b93d 8364 b9bd
000001b0: 1135 17bf 01da 1ebf 0a81 443e 9b28 f5be
000001c0: e5f3 afbe 543e d23e 420d 8c3d 7c8e 74bd
000001d0: 665b b23e d550 a0be 7723 d63d 4e0e 15be
000001e0: 26aa 7e3d 327e 57bd 5a3b d43e f39e 6abe
000001f0: 5141 3abf 654e 45be 4d2d a73e a522 1e3e
00000200: 3a65 e0bd 3f57 be3d ab40 ffbe f23d 76be
00000210: 790f cbbe 071d 05be c054 903e d662 81be
00000220: 81a1 5fbe 3595 0cbe 0477 833e cdb1 52be
00000230: e8cb babe 8baf 80be b73d bf3d 48c8 99be
00000240: 3a7e 5b3e 5cd0 6c3e b379 c43e e292 febe
00000250: 342c d9be 2cbe 15bd 3b9f 35bd 2bea 8c3e
00000260: 5771 58be 31c6 1bbf 5f5b b43e d233 363e
00000270: ecd4 a0be 16b6 2f3f 4044 b8be 9909 da3d
00000280: d524 e73d 849b 923e c8ef 233d 07fb e7bd
00000290: 00c8 4e3e b016 013d aafd 023e f521 06be
000002a0: b4e9 9fbe 64f5 953e b46e afbd 757a 8dbe
000002b0: 5a0c b8be fa70 5a3d c069 9e3c f720 6f3e
000002c0: 46df b43d ab66 a53e 26ac 053d ee29 923d
000002d0: e4a6 c5be a968 10be 0df7 e43d 4f04 693a
000002e0: a5ce b53d cce4 ad3e b0ec 88be c3fe 2abe
000002f0: 2374 813e 2150 0d3e 9a31 8c3d 4b85 a7bc
00000300: f932 413f 4440 2b3f c89e 02bc fe26 783d
00000310: b8fd b83e aa05 40be c7c6 163e cb7b a3be
00000320: 40c8 433d 61f5 2a3e a6ed 19be 614c 1b3f
00000330: e4e4 7fbe ede4 3e3e 56ee d23d 7264 2ebf
00000340: 1422 06bc e007 393e 94bb 2f3f b74f 1ebe
00000350: 661f 4b3f 56ef c3be de97 193d e810 21be
00000360: 0d76 be3e b390 52bd 922e 1b3e b880 bf3e
00000370: 31b8 a93e b84b 4e3e b56c 1dbe 418c 6dbe
00000380: 27c1 c0be 36bd 343e 7924 3c3e 7ac6 9dbe
00000390: c4b8 34be daf0 1c3e fcfa 56be a39d 43bf
000003a0: 5c19 403e 4c3b ca3e dbcb 463e afed 0d3f
000003b0: f2a3 563c 21df 4dbe ac24 3f3d 9646 ccbd
000003c0: 6d35 353f 9bc3 c43d dd9d 87be 3e68 c2be
000003d0: d035 3a3e 05d3 b0be 1be0 99be 84ca 183e
000003e0: 8c70 8ebe f238 d5be e81d aebe 163f 12be
000003f0: ca87 1fbd fc3e 9fbd 295b 983e 6176 0abe
0.09674739 -0.035581402 -0.17429586 0.092096984 -0.6540328 -0.8310575 0.28839105 0.11712994
0.008330951 -0.027798502 -0.3618969 -0.32772177 0.09105798 0.18751198 -0.06609837 -0.27813932
-0.44301426 0.13086468 0.33430472 -0.13361031 -0.23068744 0.29390556 0.2722431 -0.5830485
-0.06428571 0.044670206 -0.46327695 -0.26357877 0.31051636 0.036506966 0.09096182 0.06703249
0.0441729 -0.04681839 0.04403639 -0.5857162 0.29543084 0.81783867 -0.2691992 -0.5594214
0.0045040776 -0.38927805 -0.57791704 -0.39074627 -0.04440338 0.058555324 0.14355658 -0.28665242
0.029056868 0.02784189 0.55722034 -0.53430045 -0.33040214 0.12200944 0.05004348 -0.5076143
-0.13562067 0.41628537 -0.014939382 0.19708796 -0.06508646 0.190493 -0.09227719 0.17336556
0.11762993 0.3779787 -0.29610038 0.52610755 0.3238375 -0.115673475 0.1624006 0.29916808
-0.53158206 -0.21807553 -0.63067603 -0.2793946 -0.27430716 0.39401335 -0.11349261 -0.50613135
-0.1104488 -0.046253186 -0.043242298 -0.8840235 -0.24380493 0.15086554 -0.08755797 0.19807349
0.06457807 -0.07814221 0.13812883 -0.1008865 0.21894236 -0.47598597 -0.18791197 -0.02330874
-0.3397149 -0.4251878 -0.48405114 -0.3061213 0.08065733 -0.34838483 0.27711308 -0.18460502
-0.26195776 -0.10574749 0.09038562 -0.09052374 -0.5906535 -0.620514 0.1918985 -0.47882542
-0.34365764 0.41063178 0.06838466 -0.059706196 0.34835356 -0.3131167 0.10455983 -0.14556238
0.062173985 -0.052610584 0.41451532 -0.22912197 -0.72755915 -0.19268186 0.3265175 0.15442903
-0.109568074 0.092939846 -0.49854025 -0.24047068 -0.39660242 -0.12999354 0.2818966 -0.25270718
-0.21838953 -0.13728793 0.2567674 -0.20575638 -0.36483693 -0.2513393 0.09337943 -0.30035615
0.2143487 0.23126358 0.383741 -0.49721438 -0.42416537 -0.036558315 -0.044341307 0.27522406
-0.21136986 -0.6084929 0.3522596 0.17793205 -0.31412446 0.68637216 -0.3598957 0.10646362
0.11286322 0.28634274 0.040023595 -0.113271765 0.20193481 0.031515777 0.12792078 -0.13098891
-0.3123299 0.2928878 -0.08566037 -0.2763249 -0.35946923 0.0533304 0.019337535 0.23352419
0.088316485 0.32304892 0.032634877 0.07136904 -0.3860389 -0.14102425 0.11179934 0.00088888867
0.08877305 0.3396362 -0.26743078 -0.16698746 0.25283918 0.13800098 0.06845398 -0.020449301
0.75468403 0.66894937 -0.007972427 0.06058406 0.36131072 -0.1875216 0.14724265 -0.31930384
0.047798395 0.16695167 -0.15032062 0.6066342 -0.24989659 0.18642016 0.10299365 -0.6812202
-0.008186836 0.1806941 0.68645597 -0.15460096 0.79344785 -0.38268536 0.037498347 -0.15729105
0.3719944 -0.051407527 0.15154484 0.37402892 0.3314834 0.20146072 -0.153735 -0.23198034
-0.37647364 0.17650303 0.18373288 -0.30815488 -0.17648607 0.15326253 -0.2099418 -0.7641241
0.18759674 0.39498365 0.19413702 0.554408 0.013100611 -0.20104648 0.046665832 -0.09974401
0.70784646 0.09607621 -0.26487628 -0.37970155 0.1818459 -0.34535995 -0.3005379 0.14921004
-0.2782024 -0.41645008 -0.34007192 -0.14281878 -0.038947858 -0.07775685 0.2975705 -0.1352172

ff_2.weight f4 [1, 256]
00000000: 776f 0b3f 6d0a df3f c500 81bf be78 893f
00000010: 2f4f c1bf 579b a8bf 1117 993f 310d e03f
00000020: 236b de3f 329d ec3f 6de4 1a40 e828 bd3f
00000030: c0d3 0040 3680 c33f b080 3dbf 1d4c 833f
00000040: 4eb2 acbf ca49 6f3f a8b4 8f3f ab21 e83f
00000050: e377 433f 3968 9cbf 65cd 0fc0 ff42 36bf
00000060: 9b60 5ebf 8131 223f 13e0 10bf ed4c 49bf
00000070: 06c8 5a3f 6ab3 4cbf f21e d5bf cfe1 4a3f
00000080: 74eb 833f a392 7f3f 22d8 823f 9685 4fbf
00000090: 3d7a e43f fb86 e73e 02d5 c03f 440f a4bf
000000a0: ff29 b43f 4b39 87bf fb99 39bf efb6 85bf
000000b0: 0fb6 a53f 47be 333f 6c87 803f d4a4 87bf
000000c0: 7086 30bf 3f02 bd3f c43d 393f af78 19bf
000000d0: 8c12 493f bc49 893f 73c8 aa3f 51d8 a9bf
000000e0: ac7e 0f40 06ed 3a3f 9ed3 863f c962 363f
000000f0: 078b 0840 475f 9d3f 3ffb 6bbf 847f c03f
00000100: 5b43 283f 4eb7 6f3f f2cb f0be 1a09 4e3f
00000110: a76a 553f b131 7ebf 012b 1a3f 9714 a1bf
00000120: fd5d 0040 72ea 17bf 76fa 3bbf dac3 1cbf
00000130: 6315 1ebf 6c70 94bf 024d bfbf 0710 a73f
00000140: 17e7 66bf e41c 483f 5333 da3e ef4c 1fc0
00000150: b8d3 31bf bb5b 9fbf 91bc 0340 e201 52bf
00000160: afd5 a63f 0570 4dbf 0699 863f b2c6 aabf
00000170: b1c0 963f 1e1b b2bf ba5d 9e3f 5c6c 8cbf
00000180: 21f5 67bf 3235 dbbf 81f8 0abf 415a 1fbf
00000190: 8801 a03f 84b7 84bf ec18 2cbf eab3 8c3f
000001a0: b500 7bbf 763d 34bf 3f1c a2bf 0186 e2bf
000001b0: 50df 49bf 605a 83bf 6f92 583f fbda b9bf
000001c0: 3512 1abf 7dc5 503f eb31 9c3f 6cde ce3f
000001d0: 0d73 983f a6e8 efbe 1820 463f b444 ebbe
000001e0: 5465 79bf c631 893f 4836 dc3f bfd6 3fbf
000001f0: 2f34 3ebf 8648 47bf bde6 e93e a47f 57bf
00000200: bc81 60bf bbb9 583f 2114 9f3f 41e4 05bf
00000210: b2a4 e83f 3037 25bf 4dc6 683f 3070 82bf
00000220: c150 c9bf 326c a83f 6153 0240 5ae9 9ebf
00000230: 3faf 27bf 6458 15bf 013b 313f 638e ab3f
00000240: ff20 3f3f a904 a83f c213 e23f 584d 50bf
00000250: 9e54 6bbf 656a 1e3f 4c51 7dbf 0c3d ae3f
00000260: d467 0040 f856 04c0 6b03 793f aebc f5be
00000270: 13d3 4ebf 4579 f53e 7eb8 30bf 18fc 1b40
00000280: 1663 adbf f2ed e0bf cda3 4ebf 9e8b c33f
00000290: b3bf 9f3f 4505 13bf c299 0a3f dd12 6bbf
000002a0: 5517 53bf 3c94 773f f9b5 d83e bb26 b8bf
000002b0: 15bc 1e40 1a4d 5cbf 5a65 93bf 0625 333f
000002c0: f6c9 363f 52c5 873f 48b5 6a3f 01b6 e33f
000002d0: 090b db3f 06b3 863f 3e2c 433f ea95 813f
000002e0: 4dea 5abf 091f d6bf 9b45 11bf 660c c63f
000002f0: 2e14 293f bf8d 6c3f 2a3a 473f 3778 583f
00000300: b952 e53e e20d e23e 2978 6a3f aacc e9bf
00000310: 664b a83f a456 5fbf a43b 743f 410a 73bf
00000320: f1dc 17bf 284c 9dbf ad11 c9bf 1d60 273f
00000330: b89a 4dbf c4c3 4f3f 3f94 49bf b6f9 0c40
00000340: dcab 01bf f6eb 5bbf dbd6 e63e d07b 863f
00000350: f560 f73e 4878 c23f 983b 88bf ae42 623f
00000360: 3a8a 4f3f 461f 4cbf 1866 9e3f 27fe 423f
00000370: 6a08 0f3f 9148 25bf 174b a5bf 8622 4fbf
00000380: e92a 0840 5128 fe3e a3b8 ec3f 8f17 b53f
00000390: fafe 4b3f 194b 5fbf 055a 5ebf 4b8a 1a40
000003a0: 9bb4 983f 99f6 b7bf 861b 4a3f ae45 823f
000003b0: c504 5c3f 481b 0940 1108 4d3f 18ff 2840
000003c0: 6787 e23e 6204 413f 736c bdbe d942 14bf
000003d0: b69a b13f 511e 1cbf 13c1 b4bf a55a b23f
000003e0: edc7 65bf 7ca2 2abf e9f9 3cbf 92a7 6cbf
000003f0: 4a35 8e3f 7504 18bf 60be bb3f dafb 763f
0.54466957 1.7425057 -1.007836 1.0739973 -1.510229 -1.3172406 1.1960164 1.7504026
1.7376446 1.8485472 2.420192 1.4778109 2.0129242 1.5273502 -0.74024487 1.0257603
-1.3491914 0.9347197 1.1227007 1.8135275 0.7635481 -1.2219306 -2.2469113 -0.7119598
-0.8686616 0.63356787 -0.5659191 -0.78633004 0.8546146 -0.79961264 -1.6650069 0.79250807
1.030623 0.99833125 1.0222208 -0.8106321 1.7849804 0.4522017 1.5065005 -1.2817159
1.4075316 -1.056436 -0.7250058 -1.0446452 1.2946185 0.70212215 1.0041327 -1.0597177
-0.68955135 1.476631 0.7235987 -0.59949774 0.78543925 1.0725627 1.3342422 -1.326914
2.2421064 0.7301792 1.053333 0.71244484 2.1334856 1.2294701 -0.92180246 1.5038915
0.65727776 0.93639076 -0.47030598 0.8048264 0.83365864 -0.99294573 0.6022187 -1.2584409
2.0057366 -0.5934211 -0.7342905 -0.61236346 -0.61751384 -1.1596808 -1.4945376 1.3051766
-0.90196365 0.78169084 0.42617282 -2.4890707 -0.6946368 -1.2449869 2.0583842 -0.8203412
1.3033961 -0.80249053 1.0515449 -1.3341887 1.1777555 -1.3914526 1.2372353 -1.0970569
-0.9060841 -1.7125609 -0.54285437 -0.6224709 1.2500467 -1.0368505 -0.6722553 1.0992405
-0.98047954 -0.7040628 -1.266487 -1.7697145 -0.7885637 -1.0261955 0.8459844 -1.4519953
-0.6018403 0.81551343 1.2202734 1.6161628 1.1910111 -0.46857184 0.7739272 -0.45950854
-0.9742024 1.0718315 1.7204065 -0.7493705 -0.74298376 -0.77845037 0.45683852 -0.8417914
-0.8769796 0.846584 1.2428018 -0.5230141 1.8175261 -0.64537334 0.9092758 -1.0190487
-1.5727769 1.3158019 2.036339 -1.2414963 -0.6550178 -0.58338 0.6923066 1.3402828
0.74659723 1.3126422 1.766228 -0.8136802 -0.9192599 0.61881095 -0.98952174 1.361238
2.0063372 -2.0678082 0.9727084 -0.47995514 -0.80790824 0.47944084 -0.6903151 2.4372616
-1.3545864 -1.7572615 -0.8071869 1.5276983 1.2480377 -0.57429916 0.54140866 -0.9182566
-0.82457477 0.9671056 0.42326334 -1.438682 2.4802296 -0.8605515 -1.1515305 0.6997837
0.7140192 1.0607092 0.91682863 1.7789918 1.7112743 1.0523384 0.76239383 1.0123875
-0.85513765 -1.6728221 -0.56746835 1.5472534 0.66046417 0.9240379 0.77823126 0.84558433
0.44789675 0.44151217 0.915896 -1.8265584 1.314801 -0.8724158 0.95403504 -0.9493752
-0.59321505 -1.2288866 -1.5708519 0.6538103 -0.8031421 0.8115809 -0.7874183 2.2027411
-0.5065286 -0.8590692 0.45085797 1.0506535 0.4831616 1.5192957 -1.0643187 0.88382995
0.8107029 -0.7973522 1.2374907 0.76169056 0.55872214 -0.6456385 -1.2913541 -0.80912054
2.127619 0.49640134 1.8493847 1.4147815 0.7968594 -0.87223965 -0.8685611 2.4146907
1.1930116 -1.4372131 0.7894825 1.0177515 0.8594478 2.14229 0.80090433 2.6405697
0.4424393 0.7539731 -0.36996803 -0.579145 1.3875339 -0.6098376 -1.4121422 1.3933913
-0.8975819 -0.6665418 -0.7381883 -0.9244319 1.1110013 -0.593818 1.4667473 0.96478045
