runs/checkpoint_critic_2566_192021_tau1_990.pth (torch, 356559 bytes, 7 tensors)

head.weight f4 [256, 22]
-0.0034991477 -0.31634274 -0.17138036 -0.33951065 0.9099421 0.44828352 0.2896793 1.1529341
0.6293707 0.5612028 -0.23005909 0.008462005 -0.16001505 -0.3470769 -0.46277803 0.256259
0.017803319 0.43309626 -0.014483604 0.70975816 0.35464418 -2.2553928 0.065812066 -0.1954315
-0.103828855 -0.05992657 1.2782921 0.622324 0.6945561 0.12459659 -0.18937439 -0.23322089
-0.19818956 -0.26169768 -0.29100522 -0.20700392 -0.107808255 -0.70153666 0.5459588 -0.144404
-0.019165149 -1.7764468 -2.0350745 0.035597056 -0.002171891 -0.1243494 -0.22392075 0.03788652
-0.15726724 0.17849036 -0.224577 -3.5689325 -3.4551814 -3.2830036 0.3391095 0.32382634
0.108284906 -0.13658525 0.2929589 -0.14210795 0.5917227 0.24695258 -0.47109827 0.26526302
0.34824628 -0.6513218 -0.05754492 -0.39070302 0.49408552 0.10897159 -0.23490669 -0.055732243
-0.5023974 0.29902637 0.5443481 0.7160003 0.05627942 0.21861006 0.095063 0.1461584
-0.2037465 -0.08325867 -0.13537642 -0.06392661 0.10325235 -0.17958003 1.4758391 4.463112
-0.02943111 -0.065465264 -0.44146508 0.1548442 0.01441031 0.21452011 0.028717041 -0.39579266
-0.85866505 -0.8717485 -0.16166301 -0.28643906 -0.09171031 0.54167515 -0.35899007 -0.10899384
0.4941274 0.12892589 -0.8608553 0.5135364 0.1678494 0.107797936 0.0012037301 0.18035409
-0.35596377 -0.18472019 -1.012301 0.101217575 -0.501837 -2.4068484 -2.2493548 -1.8342694
0.025889857 -0.19933851 -0.14683568 -0.39918697 -0.45113978 -0.24476546 0.10577617 -0.040427204
-0.19194816 -0.569706 1.7007476 -0.801698 -0.04401982 -0.2032326 -0.01660798 -0.0064124037
-0.18395242 -0.006422532 0.38070878 -0.63752866 -0.9213651 -0.6088925 0.3170471 0.40610996
0.21208176 -0.08086105 0.31643668 -0.49043623 0.49954763 0.6048736 -0.2412597 0.682319
-0.90711915 0.13162068 0.039078593 -0.2013643 0.73077416 0.09003969 1.1929566 -0.6044091
0.6145496 -0.28783834 -0.35602814 -0.29552916 -0.3886062 -0.35761595 -0.03743113 0.07848549
0.26805893 -0.17776798 -0.08290617 0.14733288 -0.5193208 -2.24429 -2.901367 -5.8991556
-0.01619986 0.19812562 0.3130115 -0.1647568 0.55870914 0.31867695 0.68749195 0.24221678
0.03964394 -0.040483024 0.05686242 0.21581495 -0.30517888 -0.14705303 0.52153766 -0.33112386
-1.0889288 -1.17922 -1.7659315 -0.20948371 -0.14219894 0.52984625 0.018960606 0.33316958
-0.4022841 0.051044546 0.43829748 0.37067705 1.1326325 0.100811176 0.2728627 -0.23068267
0.035153188 -0.24460909 -0.2580576 -0.061542407 0.1319159 -0.07006002 -0.19910102 -0.03308247
0.043085422 -0.40953428 -0.08289417 0.13512339 0.03818563 -0.287219 -0.09068368 0.048121743
0.1640301 -0.07672157 0.5289586 0.5768887 0.676644 0.12573911 0.11153301 0.30249575
0.3503172 0.07645771 0.50003994 0.15481055 -0.56481767 -0.122138985 -0.51806223 -0.9090338
-1.1113868 -0.24484791 -0.12462795 -0.0850221 0.08281272 0.19913852 0.05002697 0.013976599
1.1902528 -0.26441985 -0.0044185305 0.042378962 0.016561683 -0.3737716 -0.18014888 -0.27204517
00000000: f551 65bb adf7 a1be 557e 2fbe 57d4 adbe
00000010: f7f1 683f 6b85 e53e d850 943e 5893 933f
00000020: 701e 213f fdaa 0f3f 9c94 6bbe 39a4 0a3c
00000030: fcda 23be 10b4 b1be 3ef1 ecbe 6134 833e
00000040: 44d8 913c cbbe dd3e a34c 6dbc b6b2 353f
00000050: ec93 b53e 5b58 10c0 7ac8 863d 321f 48be
00000060: 39a4 d4bd 9075 75bd 139f a33f a050 1f3f
00000070: 6ece 313f 7f2c ff3d 5ceb 41be 75d1 6ebe
00000080: 34f2 4abe 3dfd 85be a3fe 94be d6f8 53be
00000090: 93ca dcbd e897 33bf f5c3 0b3f a4de 13be
000000a0: 3b00 9dbc 9c62 e3bf a93e 02c0 38ce 113d
000000b0: 4956 0ebb e6aa febd 7b4b 65be e52e 1b3d
000000c0: aa0a 21be 2dc6 363e 83f7 65be 6469 64c0
000000d0: b121 5dc0 bb1c 52c0 c39f ad3e 91cc a53e
000000e0: 7ac4 dd3d 01dd 0bbe b5fe 953e bf84 11be
000000f0: 247b 173f 23e1 7c3e cb33 f1be 8ed0 873e
00000100: 564d b23e 07bd 26bf 39b4 6bbd 3a0a c8be
00000110: c7f8 fc3e 7f2c df3d 618b 70be 7e47 64bd
00000120: 1e9d 00bf fc19 993e 665a 0b3f cc4b 373f
00000130: 4085 663d 51db 5f3e 64b0 c23d 8caa 153e
00000140: eca2 50be 8683 aabd 1ea0 0abe f4eb 82bd
00000150: f875 d33d d4e3 37be 4ce8 bc3f d0d1 8e40
00000160: 8319 f1bc a712 86bd b607 e2be 7a8f 1e3e
00000170: 3919 6c3c 29ab 5b3e 0040 eb3c 56a5 cabe
00000180: 79d1 5bbf e92a 5fbf fd8a 25be 24a8 92be
00000190: 9dd2 bbbd 39ab 0a3f 8ccd b7be 2a38 dfbd
000001a0: 44fe fc3e 2605 043e 0361 5cbf 1f77 033f
000001b0: b7e0 2b3e 2ac5 dc3d 7bc6 9d3a beae 383e
000001c0: e240 b6be 4a27 3dbe 1493 81bf 294b cf3d
000001d0: 6478 00bf ce09 1ac0 6ef5 0fc0 57c9 eabf
000001e0: f716 d43c 651f 4cbe 185c 16be 3c62 ccbe
000001f0: cbfb e6be cca3 7abe 2da1 d83d ff96 25bd
00000200: 0f8e 44be 41d8 11bf 19b2 d93f 153c 4dbf
00000210: 204e 34bd 351c 50be 750d 88bc 241f d2bb
00000220: 065e 3cbe 1a74 d2bb 43ec c23e 1435 23bf
00000230: 95de 6bbf 61e0 1bbf ff53 a23e a5ed cf3e
00000240: f62b 593e 7a9a a5bd fd03 a23e 751a fbbe
00000250: b5c4 ff3e ffd8 1a3f c80c 77be 75ac 2e3f
00000260: f638 68bf 92c7 063e e010 203d 7132 4ebe
00000270: 0414 3b3f bb66 b83d cdb2 983f 8eba 1abf
00000280: 1f53 1d3f 8c5f 93be 5249 b6be 994f 97be
00000290: 64f7 c6be 7019 b7be 6251 19bd 00bd a03d
000002a0: 053f 893e cf08 36be b6ca a9bd 6ede 163e
000002b0: 35f2 04bf 73a2 0fc0 ffaf 39c0 e2c5 bcc0
000002c0: 92b5 84bc 71e1 4a3e 0b43 a03e 02b6 28be
000002d0: 9007 0f3f a029 a33e 79ff 2f3f ad07 783e
000002e0: af61 223d 87d1 25bd 92e8 683d 98fe 5c3e
000002f0: 6840 9cbe 1295 16be 7e83 053f 1189 a9be
00000300: 0562 8bbf aef0 96bf 0b0a e2bf e682 56be
00000310: 999c 11be 01a4 073f 4653 9b3c 3495 aa3e
00000320: 2ef8 cdbe 1614 513d 8768 e03e 62c9 bd3e
00000330: 1afa 903f 1776 ce3d a9b4 8b3e 1438 6cbe
00000340: cafc 0f3d ce7a 7abe 2020 84be e413 7cbd
00000350: f614 073e a17b 8fbd 23e1 4bbe 7c81 07bd
00000360: 577a 303d 7aae d1be 6bc4 a9bd c95d 0a3e
00000370: 8968 1c3d 5e0e 93be 5db8 b9bd 4e1b 453d
00000380: 82f7 273e 3320 9dbd d569 073f faae 133f
00000390: 8b38 2d3f c1c1 003e 6b6b e43d b9e0 9a3e
000003a0: c75c b33e dc95 9c3d 9e02 003f a886 1e3e
000003b0: e497 10bf 0124 fabd ba9f 04bf 70b6 68bf
000003c0: ec41 8ebf 69b9 7abe f03c ffbd 1120 aebd
000003d0: b799 a93d f8ea 4b3e 15e9 4c3d 1bfe 643c
000003e0: 345a 983f 0a62 87be 52c9 90bb 9095 2d3d
000003f0: 5eac 873c fe5e bfbe f378 38be 8149 8bbe

head.bias f4 [256]
0.109648705 -0.34581453 0.6291594 -0.17897019 -0.18336904 -0.04439179 0.4690849 -0.43374217
-0.16105814 -0.40410557 0.3230246 -0.8242111 0.4370573 -0.15575032 -1.0107142 -0.80313575
0.26243773 -0.16704309 0.27553442 -0.49359164 0.7718044 0.37373838 -0.014639408 0.07963721
-0.22646907 -0.78219676 0.153824 -0.32388088 -0.25899455 0.30629888 -0.6743325 -0.86368644
-0.398086 -0.0073868865 -0.059370566 0.35523677 -0.5874964 -0.28382188 0.63189965 0.7946843
-0.19765146 0.17605811 -0.11669048 -0.7980226 -0.364297 -0.610805 -0.03936942 0.83261704
-0.5106061 0.3991102 0.38815317 -0.081681855 0.01038035 0.07909407 -0.14891298 -0.37931317
-0.62806356 -0.18772396 -0.31690052 -0.101371735 0.10123324 -0.11401906 0.0066557443 -0.2638092
0.13852893 -0.15955365 -0.15518716 0.19207619 0.43588325 0.02500208 -0.08754813 -0.12720093
-0.60406834 -0.07543606 0.27105284 -0.74446803 0.14857522 0.4632979 -0.81253356 0.13656364
0.24012087 0.15421326 0.25481182 -0.79592913 -0.60255784 0.22869095 -0.34393513 0.04761177
-0.44787076 -0.47621173 -0.18875971 -0.79128325 0.29539654 0.7903265 -0.03554788 -0.18252379
0.6132308 -0.44458836 0.3783887 -0.17081243 0.21105714 -0.157066 0.31722245 -0.24222592
0.58003014 -0.057657145 -0.8534912 -0.27856433 -0.12324132 -0.15242864 0.115847506 -0.4198005
-0.55015314 0.85060453 -0.13942184 -0.40268105 -0.1155563 -0.59063417 0.23960058 0.18835314
-0.7662179 -0.101659164 0.15726192 -0.27474704 -0.06741136 -0.707242 0.004063965 0.6503913
-0.5628328 -0.3199674 -0.16699347 0.34740716 -0.002107202 -0.039485477 -0.7279744 0.24931496
-0.32349616 -0.22698498 -0.0751893 0.10421022 0.6168941 -0.031151645 0.14104857 -0.6629733
1.1307168 0.6200929 0.0115917 0.30641186 0.6529047 -0.13092422 0.062242072 0.2912945
-0.3261574 0.73123604 -0.51807505 0.2609667 -0.83426595 0.068779975 -0.59902906 0.2382082
-0.5521335 -0.4079162 -0.7490679 -0.3661651 0.23611805 0.38365635 0.6288129 0.4568916
-0.41963705 -0.86492103 -0.044833116 -0.090420865 -0.6703198 -0.31189403 0.39467973 -0.29680142
0.033852845 -0.01090278 -1.1627188 0.3519619 0.9389822 -0.68624914 -0.15366884 -0.27403882
-0.030486688 0.49924114 0.0020759979 -0.56533885 -0.50088555 0.32729515 -0.25717995 -0.5519218
-0.0055704997 0.26137194 0.3900713 -0.667131 -0.6933788 -0.46844044 -0.093580835 -0.38871098
0.0015150945 -0.42900524 -0.36747652 -0.5891533 0.20338419 0.39834127 0.0768792 -0.26406014
-0.01014836 -0.367753 0.9943329 0.17520896 0.72531706 0.0609138 -0.49664867 -0.19043136
-0.13488866 0.22309884 -0.62562525 -0.41330746 -0.1192341 -0.24012977 0.82293886 0.013795943
-0.17770031 0.86350787 0.2533095 -0.6304722 0.7524924 -0.1700316 0.7816378 -0.23565264
-0.39188248 0.002827202 -0.6249813 0.010222288 -0.2576277 -0.16313405 -0.8598792 -0.4461226
0.39885738 -0.01157658 0.42660305 0.07088843 -0.16725923 0.5741674 0.110006854 -0.3302427
-0.88987267 0.065655515 0.51663435 0.1656619 -0.26185897 -0.48995143 -0.3866626 -0.12825121
00000000: 808f e03d 9a0e b1be 9710 213f f643 37be
00000010: 18c5 3bbe 2ad4 35bd e52b f03e 7413 debe
00000020: 6dec 24be ede6 cebe 7b63 a53e 80ff 52bf
00000030: f9c5 df3e 037d 1fbe 155f 81bf 4e9a 4dbf
00000040: 3d5e 863e 580d 2bbe d912 8d3e 0bb8 fcbe
00000050: f994 453f a35a bf3e 21da 6fbc d518 a33d
00000060: 82e7 67be 0c3e 48bf 0a84 1d3e b7d3 a5be
00000070: ef9a 84be 35d3 9c3e 0ea1 2cbf 8e1a 5dbf
00000080: eed1 cbbe b20d f2bb 8d2e 73bd 98e1 b53e
00000090: 2a66 16bf 1a51 91be 2dc4 213f 6e70 4b3f
000000a0: 2565 4abe 9448 343e 6bfb eebd 364b 4cbf
000000b0: 2385 babe b75d 1cbf d441 21bd 6426 553f
000000c0: 15b7 02bf 2c58 cc3e 03bc c63e d148 a7bd
000000d0: 5812 2a3c 12fc a13d a57c 18be 5635 c2be
000000e0: c6c8 20bf b63a 40be c940 a2be fc9b cfbd
000000f0: 5f53 cf3d d382 e9bd 6e18 da3b 0012 87be
00000100: 87da 0d3e 0862 23be 62e9 1ebe 9faf 443e
00000110: 172c df3e 29d1 cc3c 6f4c b3bd f640 02be
00000120: 39a4 1abf 397e 9abd 70c7 8a3e 7595 3ebf
00000130: 1a24 183e 6235 ed3e 3302 50bf 57d7 0b3e
00000140: 3fe2 753e 15ea 1d3e b276 823e 03c2 4bbf
00000150: 3b41 1abf f62d 6a3e 4418 b0be 8f04 433d
00000160: 514f e5be 06d2 f3be 3a4a 41be 8a91 4abf
00000170: 373e 973e d652 4a3f a79a 11bd 84e7 3abe
00000180: b2fc 1c3f 16a1 e3be 2abc c13e 74e9 2ebe
00000190: 5d1f 583e e9d5 20be fb6a a23e 120a 78be
000001a0: db7c 143f e629 6cbd 667e 5abf fc9f 8ebe
000001b0: f265 fcbd 4116 1cbe 7541 ed3d 17f0 d6be
000001c0: d6d6 0cbf 38c1 593f 99c4 0ebe 362c cebe
000001d0: c8a8 ecbd cd33 17bf db59 753e a5df 403e
000001e0: db26 44bf ae32 d0bd 4509 213e a5ab 8cbe
000001f0: f80e 8abd d00d 35bf 022b 853b 0b80 263f
00000200: cf15 10bf c4d2 a3be 5600 2bbe 5adf b13e
00000210: fc18 0abb 86bb 21bd 885c 3abf 6c4c 7f3e
00000220: 4aa1 a5be c06e 68be d9fc 99bd 2b6c d53d
00000230: c6ec 1d3f bc31 ffbc 096f 103e 9eb8 29bf
00000240: 54bb 903f 69be 1e3f 1deb 3d3c 04e2 9c3e
00000250: c324 273f 0011 06be 8bf1 7e3d 8d24 953e
00000260: 1afe a6be 4932 3b3f 91a0 04bf 6d9d 853e
00000270: 7492 55bf 84dc 8c3d f859 19bf daec 733e
00000280: 9f58 0dbf 64da d0be eac2 3fbf fe79 bbbe
00000290: eec8 713e 9b6e c43e e2f9 203f b2ed e93e
000002a0: abda d6be 776b 5dbf eea2 37bd 932e b9bd
000002b0: 149a 2bbf 93b0 9fbe 7613 ca3e 5bf6 97be
000002c0: 48a9 0a3d 93a1 32bc f8d3 94bf 5a34 b43e
000002d0: 2361 703f 06ae 2fbf 5d5b 1dbe d14e 8cbe
000002e0: 38bf f9bc 899c ff3e 770d 083b 0cba 10bf
000002f0: 093a 00bf 3b93 a73e 17ad 83be bf4a 0dbf
00000300: bd88 b6bb 8bd2 853e 6db7 c73e 19c9 2abf
00000310: 4681 31bf 6dd7 efbe 4fa7 bfbd 2005 c7be
00000320: 2396 c63a 93a6 dbbe e225 bcbe c0d2 16bf
00000330: f243 503e 63f3 cb3e d872 9d3d e432 87be
00000340: 4f45 26bc 1f4a bcbe 9a8c 7e3f fa69 333e
00000350: 61ae 393f c080 793d bc48 febe 7000 43be
00000360: 4120 0abe 0674 643e fa28 20bf 099d d3be
00000370: 0231 f4bd 94e4 75be 1fac 523f 6108 623c
00000380: 12f7 35be da0e 5d3f c8b1 813e a066 21bf
00000390: 58a3 403f c41c 2ebe 6a19 483f ed4e 71be
000003a0: d2a4 c8be 9448 393b c6fe 1fbf 627b 273c
000003b0: c7e7 83be 9d0c 27be 0b21 5cbf 2e6a e4be
000003c0: 0937 cc3e b2ab 3dbc b76b da3e f42d 913d
000003d0: 0146 2bbe a2fc 123f 464b e13d 9215 a9be
000003e0: b2ce 63bf 6676 863d 2642 043f 46a3 293e
000003f0: 6112 86be eada fabe a4f8 c5be 4954 03be

cos_embedding.weight f4 [256, 64]
-0.4907067 -0.120336235 -0.06780574 0.34952614 -0.05353039 -0.030710336 -0.33967876 -0.14388433
-0.07466905 0.19849558 0.24207109 0.2287189 0.05801989 0.014406105 0.022013279 0.12169677
0.16202867 0.31693608 0.22575828 0.21148324 -0.0026961938 -0.04950676 -0.08141603 0.065993726
0.07195048 0.10457047 -0.036072366 -0.088050544 -0.23084068 -0.14513713 -0.15422508 -0.056714375
-0.01163022 -0.0060869404 -0.11793198 -0.16637059 -0.22075948 -0.14240724 -0.06535031 0.008552361
0.0006396403 -0.04311783 -0.07551524 -0.14050967 -0.10202644 -0.01340384 0.059055556 0.0717959
0.040412538 -0.0051755193 -0.04774225 0.00066110585 0.011020388 0.050022673 0.06472893 0.0625159
0.03841534 0.02393319 -0.009878949 -0.0007121313 0.019535884 0.02579693 0.0612471 0.04917312
0.20245856 0.5970342 0.15090445 0.58786356 0.045862187 0.36900517 0.046461526 0.28888887
-0.080594584 0.22685423 -0.02544646 0.15763322 -0.06826103 0.07147324 -0.12766322 0.12916352
-0.035647362 0.01399893 -0.05658938 -0.02870166 -0.068236485 -0.023004938 -0.013040132 -0.08189386
-0.061661117 -0.026887018 -0.07360781 -0.00858863 -0.058358207 -0.0714781 -0.024932316 -0.03506838
-0.03801676 -0.020024667 -0.07434579 0.01776802 -0.0223086 -0.01181435 -0.09259713 -0.0044172797
-0.030840658 0.037788145 -0.054260537 -0.012067232 -0.045042444 0.01597932 -0.020458682 0.019340212
-0.03495352 0.045603327 0.0046659745 -0.0037650294 -0.0229766 0.0152078 0.0141125675 0.028363846
0.0007758905 -0.001920277 0.011561211 0.016747514 -0.0005036002 0.009949729 -0.030784529 0.017345754
-0.33784637 -0.524278 -0.21674193 -0.51413745 -0.17310755 -0.5077795 -0.1666522 -0.46880695
-0.1469026 -0.40660778 -0.14214914 -0.37951386 -0.11985629 -0.3002738 -0.06518297 -0.25055343
-0.042478222 -0.19586876 -0.01613162 -0.13874951 0.014053722 -0.08137143 0.049060374 -0.034922533
0.06430827 -0.0031769292 0.08627679 0.008572462 0.10606669 0.028658232 0.12858465 0.04858084
0.14388108 0.06115023 0.14486685 0.07125813 0.15177639 0.07449014 0.14314146 0.06775276
0.14743158 0.05769276 0.14597723 0.047040865 0.13524842 0.044911288 0.12893361 0.04837772
0.1135787 0.030618124 0.093791194 0.023116339 0.07640882 0.015387978 0.05754084 0.01897419
0.05190203 0.01253498 0.035293248 0.010597206 0.024577487 0.0050337403 0.0060864426 0.0022674038
0.43531117 -0.46403262 0.33525047 -0.41841698 0.21728759 -0.32357988 0.07563871 -0.220094
0.034677204 -0.082774766 -0.028164746 -0.010824816 -0.10266543 0.038272038 -0.12891328 0.049402755
-0.10734355 0.033224467 -0.10428749 0.010607645 -0.06709962 -0.029867072 -0.02588716 -0.05512619
0.0019024248 -0.06605104 0.007792308 -0.06315492 0.030456752 -0.04190114 0.033857696 -0.02279974
0.043549612 0.010217167 0.03016023 0.023272363 -0.008486995 0.048830133 -0.035097223 0.049654555
-0.033178028 0.058264036 -0.036570072 0.05066428 -0.024646105 0.028787497 -0.01452728 0.015473663
0.0049826945 -0.0018761569 0.014324597 -0.024955893 0.01887887 -0.026412614 0.035179473 -0.025476787
0.033464212 -0.026814125 0.019205175 -0.0176898 0.009200761 0.0021165046 0.0046894243 0.0009944922
00000000: e93d fbbe d872 f6bd bcdd 8abd 17f5 b23e
00000010: af42 5bbd 3e94 fbbc 60ea adbe 6a56 13be
00000020: 16ec 98bd 6d42 4b3e 7ce1 773e 4a35 6a3e
00000030: 44a6 6d3d 9507 6c3c 3155 b43c 283c f93d
00000040: d8ea 253e 7245 a23e 2e2d 673e 108f 583e
00000050: a0b2 30bb 9ac7 4abd 73bd a6bd b827 873d
00000060: c65a 933d 0b29 d63d 9ec0 13bd d853 b4bd
00000070: 8061 6cbe d49e 14be 2eed 1dbe 554d 68bd
00000080: ae8c 3ebc f574 c7bb 5286 f1bd 0d5d 2abe
00000090: c60e 62be 34d3 11be 62d6 85bd 341f 0c3c
000000a0: 89ad 273a 529c 30bd bca7 9abd c4e1 0fbe
000000b0: 3df3 d0bd c89b 5bbc 3de4 713d bb09 933d
000000c0: 9e87 253d 6797 a9bb 618d 43bd 104e 2d3a
000000d0: dc8e 343c 93e4 4c3d 9a90 843d 5608 803d
000000e0: 6759 1d3d 8a0f c43c 51db 21bc 53ae 3aba
000000f0: b809 a03c 1554 d33c 3dde 7a3d c169 493d
00000100: 4c51 4f3e 3cd7 183f b286 1a3e 3a7e 163f
00000110: fdd9 3b3d 3fee bc3e 714e 3e3d 3ee9 933e
00000120: c60e a5bd 7a4c 683e 1875 d0bc 9a6a 213e
00000130: 70cc 8bbd 9060 923d 26ba 02be 7143 043e
00000140: f802 12bd c55b 653c 44ca 67bd be1f ebbc
00000150: 92bf 8bbd da74 bcbc 47a6 55bc f8b7 a7bd
00000160: 5e90 7cbd 2a42 dcbc b1bf 96bd 53b7 0cbc
00000170: 0409 6fbd 1c63 92bd db3e ccbc dda3 0fbd
00000180: 76b7 1bbd c50a a4bc 9b42 98bd 3d8e 913c
00000190: 86c0 b6bc fa90 41bc 90a3 bdbd d4be 90bb
000001a0: 8ca5 fcbc bec7 1a3d 4c40 5ebd a4b5 45bc
000001b0: 6d7e 38bd 10e7 823c f798 a7bc 5d6f 9e3c
000001c0: 6c2b 0fbd 8eca 3a3d 08e5 983b b6be 76bb
000001d0: 6c39 bcbc 232a 793c 6638 673c 4c5b e83c
000001e0: 2165 4b3a ceb1 fbba 3c6b 3d3c 1532 893c
000001f0: 0a04 04ba 3004 233c d62f fcbc af18 8e3c
00000200: 33fa acbe 1537 06bf 99f1 5dbe 839e 03bf
00000210: 1b43 31be d6fd 01bf e0a6 2abe 7707 f0be
00000220: a36d 16be e52e d0be 8b8f 11be a44f c2be
00000230: 3777 f5bd 7dbd 99be a67e 85bd 8a48 80be
00000240: a5fd 2dbd d291 48be 7626 84bc 5a14 0ebe
00000250: 9541 663c 10a6 a6bd 88f3 483d ee0a 0fbd
00000260: 0eb4 833d 0734 50bb e3b1 b03d 8373 0c3c
00000270: 7e39 d93d abc4 ea3c b2ab 033e b4fc 463d
00000280: 9055 133e aa78 7a3d fa57 143e c8ef 913d
00000290: 456b 1b3e 498e 983d ad93 123e f6c1 8a3d
000002a0: 4ef8 163e 3e4f 6c3d 0e7b 153e ecad 403d
000002b0: 907e 0a3e e6f4 373d 2c07 043e b727 463d
000002c0: f39b e83d dcd2 fa3c 9915 c03d 7a5e bd3c
000002d0: 3a7c 9c3d dc1d 7c3c f2af 6b3d c36f 9b3c
000002e0: 3997 543d 845f 4d3c a78f 103d e79f 2d3c
000002f0: ba56 c93c 13f2 a43b c870 c73b b998 143b
00000300: 1be1 de3e af95 edbe f3a5 ab3e c03a d6be
00000310: a380 5e3e 43ac a5be 78e8 9a3d 5260 61be
00000320: af09 0e3d d185 a9bd c1b9 e6bc 925a 31bc
00000330: 4142 d2bd 24c3 1c3d d801 04be 8b5a 4a3d
00000340: efd6 dbbd 6116 083d ae94 d5bd b0cb 2d3c
00000350: 876b 89bd caab f4bc 4f11 d4bc 00cc 61bd
00000360: c95a f93a c545 87bd 9e56 ff3b 5e57 81bd
00000370: 7080 f93c 88a0 2bbd 5eae 0a3d 85c6 babc
00000380: 1461 323d e865 273c 9612 f73c afa5 be3c
00000390: 090d 0bbc 1b02 483d 1bc2 0fbd 9362 4b3d
000003a0: afe5 07bd 45a6 6e3d 80ca 15bd 5985 4f3d
000003b0: a1e6 c9bc c2d3 eb3c d403 6ebc 3f85 7d3c
000003c0: df45 a33b 61e9 f5ba b7b1 6a3c 4d70 ccbc
000003d0: dca7 9a3c 445f d8bc 5a18 103d b2b4 d0bc
000003e0: c511 093d 4ca9 dbbc 2c54 9d3c 33ea 90bc
000003f0: cabe 163c 0eb5 0a3b bea9 993b 9f59 823a

cos_embedding.bias f4 [256]
1.3614237 0.08653132 1.958934 1.1693035 2.7081223 1.2363769 0.39856446 0.73720384
2.1589584 0.19819057 -0.074775755 0.5858864 1.9003487 -0.11690398 0.21764278 1.6578425
2.6548944 0.99898994 2.036547 0.6857497 1.8093821 2.6724324 0.54064447 2.4791148
0.28574452 1.3407394 0.23628852 1.302981 0.33695394 2.2001615 1.2826157 0.66162086
1.4676652 1.3584635 1.9398214 0.71027607 0.226134 1.2873998 1.9002901 1.4936347
0.20484835 0.27862284 1.9053048 0.16787325 -0.12005525 1.4383721 2.9858613 3.1288164
2.2397728 2.0854592 0.92798436 0.5592504 -0.03315247 1.9335362 1.8378787 1.0036943
1.1366405 0.10893992 1.5258281 1.6318597 0.011861665 0.25260097 0.9045035 2.2374134
1.0366335 0.118776664 1.2905725 1.5074614 1.5176874 1.5605477 1.6279789 0.9093619
2.4299824 1.0808991 1.5242602 0.17245796 0.03418562 2.1155994 0.66970223 1.3569077
1.874954 0.017392904 2.4729717 0.16043708 0.087045014 1.2372001 1.6219364 0.43068796
1.2408239 1.6138289 0.1843214 1.1721065 1.6119922 1.005232 -0.031362336 2.143673
0.576138 1.3436697 -0.10844717 0.19961709 1.0058459 0.27970687 1.5046407 0.7282344
2.2090883 -0.11906521 0.76233304 0.72931623 0.4690096 1.0846905 0.7257551 1.3214709
0.5717202 1.2058369 2.1434228 0.7957401 1.6191156 0.13395874 0.5472814 0.47233322
-0.060496956 0.36836717 2.217001 2.2976174 2.3721154 1.8448192 0.5082466 1.2662941
0.43012896 1.5089742 0.00018693507 0.8380966 1.1970348 1.0448543 2.6508646 0.11607383
1.9447465 0.30153286 1.1701586 0.8820664 3.7831092 1.3837196 0.6365437 2.1652327
1.9486406 2.5274255 1.9412544 1.7930937 2.7418888 -0.010548636 2.8822992 1.1519048
0.24707137 2.0799325 1.0520531 0.87301916 0.39966324 1.653612 1.3149872 2.3336864
1.2809885 0.14931145 0.53803736 0.7782872 1.5877647 1.167331 2.1403224 1.1790133
2.114046 0.53125393 0.08254907 0.77810824 1.6464684 0.59358203 3.1524339 1.2379384
0.07374111 1.8360412 1.2731737 1.3633317 1.8287827 1.2990532 1.4956456 2.1122224
1.3548759 0.80309147 1.6359152 1.6169003 -0.045745548 0.8683106 1.5851785 1.2451229
1.8398945 0.55572 1.5463152 1.6755974 0.08815149 0.49310037 0.036445424 -0.0070187836
2.9052057 0.4248001 1.1983495 1.605929 1.8888726 0.3287062 2.1105623 2.0829806
0.014453441 1.2557212 3.950503 0.80253583 3.4606671 1.6133674 0.08810129 0.6737054
0.49516892 0.54303974 1.0320942 2.2788315 2.1461136 0.48700577 1.4230777 -0.106307164
0.19067718 1.4614178 2.0216067 1.3407227 2.1899521 1.5236303 1.0822992 2.0941513
-0.096575886 1.1290766 1.8424481 -0.01816795 0.94355583 -0.07241909 1.7365571 0.32010674
1.9680216 1.8869233 2.244936 0.7887923 1.1296968 0.62499934 1.5297254 1.6596309
0.66527283 1.7976248 1.537464 2.3568313 0.8111213 0.06160867 1.1347142 1.372348
00000000: 2243 ae3f 5537 b13d 59be fa3f bdab 953f
00000010: e051 2d40 9941 9e3f a410 cc3e 64b9 3c3f
00000020: 602c 0a40 78f2 4a3e 0824 99bd a7fc 153f
00000030: a03e f33f 5b6b efbd c0dd 5e3e 2f34 d43f
00000040: cae9 2940 cebd 7f3f c956 0240 4b8d 2f3f
00000050: d599 e73f 2209 2b40 ad67 0a3f d1a9 1e40
00000060: 1b4d 923e 599d ab3f 9ef5 713e 15c8 a63f
00000070: 3a85 ac3e 72cf 0c40 c02c a43f fc5f 293f
00000080: 74dc bb3f 22e2 ad3f 114c f83f a7d4 353f
00000090: ac8f 673e 84c9 a43f b53c f33f 6c2f bf3f
000000a0: c4c3 513e a7a7 8e3e 07e1 f33f f7e6 2b3e
000000b0: 87df f5bd 941c b83f 5a18 3f40 873e 4840
000000c0: 7058 0f40 2a78 0540 6290 6d3f 092b 0f3f
000000d0: e2ca 07bd 1d7e f73f 9c3f eb3f 0e79 803f
000000e0: 707d 913f e51b df3d 564e c33f c7e0 d03f
000000f0: 6e57 423c ea54 813e 8b8d 673f c831 0f40
00000100: 68b0 843f 2e41 f33d 7b31 a53f 7ff4 c03f
00000110: 9543 c23f 07c0 c73f 9d61 d03f f1cb 683f
00000120: d584 1b40 e75a 8a3f f51a c33f d298 303e
00000130: 3806 0c3d fb65 0740 9b71 2b3f 27af ad3f
00000140: 7efe ef3f 907b 8e3c 2b45 1e40 9e49 243e
00000150: a844 b23d 935c 9e3f 9d9b cf3f 2283 dc3e
00000160: 51d3 9e3f f291 ce3f c0be 3c3e 9607 963f
00000170: c355 ce3f 71ab 803f cb75 00bd f031 0940
00000180: c87d 133f 5efd ab3f 8d19 debd 6c68 4c3e
00000190: 8fbf 803f bd35 8f3e 1198 c03f 926d 3a3f
000001a0: b461 0d40 76d8 f3bd 4228 433f 78b4 3a3f
000001b0: 0722 f03e 23d7 8a3f 16cb 393f f525 a93f
000001c0: 415c 123f dd58 9a3f d72d 0940 a0b5 4b3f
000001d0: 2e3f cf3f 7b2c 093e a21a 0c3f a9d5 f13e
000001e0: a8cb 77bd 9f9a bc3e 58e3 0d40 2a0c 1340
000001f0: bdd0 1740 0923 ec3f 731c 023f ed15 a23f
00000200: dd39 dc3e 1126 c13f 0004 4439 808d 563f
00000210: 7038 993f c9bd 853f c4a7 2940 1eb8 ed3d
00000220: 74ed f83f 8462 9a3e c2c7 953f 1bcf 613f
00000230: 761e 7240 b91d b13f 87f4 223f 2c93 0a40
00000240: 0e6d f93f 57c1 2140 067b f83f 1884 e53f
00000250: 1b7b 2f40 30d4 2cbc 9777 3840 9e71 933f
00000260: 4700 7d3e 9d1d 0540 ada9 863f 2f7e 5f3f
00000270: a9a0 cc3e 8fa9 d33f 8051 a83f 1e5b 1540
00000280: 6ef7 a33f 1ae5 183e d1bc 093f d43d 473f
00000290: e03b cb3f 1a6b 953f 0bfb 0840 e8e9 963f
000002a0: 884c 0740 4200 083f 7d0f a93d 1a32 473f
000002b0: 7abf d23f fef4 173f 7ac1 4940 c474 9e3f
000002c0: 9405 973d 6603 eb3f 5bf7 a23f a781 ae3f
000002d0: 8d15 ea3f 6047 a63f 5171 bf3f a72e 0740
000002e0: 936c ad3f 6797 4d3f ab65 d13f 97f6 ce3f
000002f0: af5f 3bbd 9a49 5e3f 21e7 ca3f 3060 9f3f
00000300: aa81 eb3f aa43 0e3f a8ed c53f fa79 d63f
00000310: c588 b43d a777 fc3e cc47 153d d3fd e5bb
00000320: e4ee 3940 667f d93e 8463 993f 158f cd3f
00000330: 94c6 f13f 2e4c a83e 7413 0740 8e4f 0540
00000340: 20ce 6c3c 79bb a03f 0bd5 7c40 fd72 4d3f
00000350: 927b 5d40 d382 ce3f 736e b43d f577 2c3f
00000360: c886 fd3e a704 0b3f aa1b 843f 60d8 1140
00000370: ed59 0940 d258 f93e 6927 b63f 92b7 d9bd
00000380: e140 433e bd0f bb3f 0162 0140 cd9c ab3f
00000390: 2d28 0c40 5106 c33f c888 8a3f 9306 0640
000003a0: 94c9 c5bd 9585 903f 57d5 eb3f f4d4 94bc
000003b0: e08c 713f 7650 94bd 8147 de3f 08e5 a33e
000003c0: 22e8 fb3f b486 f13f 08ad 0f40 4bee 493f
000003d0: e899 903f f5ff 1f3f 0bce c33f c96e d43f
000003e0: 524f 2a3f 9218 e63f 9fcb c43f 53d6 1640
000003f0: a5a5 4f3f 5f59 7c3d 513e 913f 19a9 af3f

ff_1.weight f4 [256, 256]
-0.23325785 -0.37482545 -0.23096506 -0.16618972 -0.22984216 -0.6222565 -0.17615128 -0.103703134
0.3683571 0.1257797 -0.048748355 0.0048109754 -0.028964749 -0.019303732 0.13386025 0.21604955
0.39708376 -0.10189229 0.10091293 0.17638253 -0.0904092 -1.0272169 -0.2937618 -0.25894612
0.027402844 -0.36628973 -0.02625531 0.2475688 0.083775215 -0.070105344 -0.48694566 0.14660186
-0.08340428 0.095459655 -0.1677113 0.21368508 0.08348185 -0.13960056 -0.28352338 0.05377468
0.045127004 0.04460392 0.44457942 0.054284554 0.013710267 -0.2441024 -0.23533702 -0.4539761
-0.0031315107 -0.020223424 0.026322197 -0.08156912 0.018568074 -0.8233243 -0.09194067 0.14957793
0.068925686 -0.045062583 -0.4010795 0.066332154 0.039685983 0.123844944 0.14212644 -0.4586426
0.06608365 0.04293553 0.239845 0.0145596005 -0.7725064 -0.42336985 0.075294875 0.1379182
-0.1628393 0.04392965 -0.8061079 -0.0321894 0.026988357 -2.3795364 0.17029418 -0.17628987
-0.26241875 0.0252591 -0.16647671 0.0735605 -0.045678556 0.7624873 -0.46642393 0.05636521
-0.022118937 -0.40868115 0.10043964 0.28995895 0.14640401 -0.5434991 -0.06117388 0.16382846
-0.038221266 0.7882752 0.087617755 0.15754847 -0.320786 -0.039227054 0.069214046 0.103103615
-0.32393157 -0.018701147 0.170476 -0.16456847 -0.2379347 0.16442421 0.10468545 0.2675279
0.18771817 0.09130631 -0.3050505 -0.36479837 -0.2299534 0.1348909 -0.22649226 0.009064582
-0.21460551 0.11655624 -0.38773814 -0.24322043 -0.018944308 0.19451983 0.08902656 -0.17008933
0.009035836 -0.06854973 0.006536089 -0.5385028 0.15660238 -0.09582398 0.11800368 0.22577696
0.13192058 -0.11448064 0.096932456 0.3257306 -0.2762664 0.00510138 -0.09499613 0.2333455
0.05861187 -0.25652924 0.32951316 -0.12246678 -0.23184143 0.060107805 0.13995458 -0.41999573
0.05813874 -0.21680155 0.3513418 -0.30371225 -0.115216084 -0.48006704 -1.7351121 0.24157387
-0.04389006 0.14975323 0.14214624 0.006037218 0.03350534 -0.3016951 -0.4532406 0.17507404
0.3952949 0.0831765 0.044170503 -0.38533399 0.31049305 -0.027849384 -0.052521955 -0.8017493
0.03310021 -0.19426136 0.10180308 -0.23421286 0.020907281 -0.47848853 -0.5492168 -0.31814724
-0.035837717 0.33675313 -0.02711517 0.07893407 0.1187822 -0.1437388 -0.29223627 0.15847023
-0.5868197 0.30923927 -0.06276027 0.19524056 -0.0505142 -0.098212205 -0.061757743 0.22332141
-0.16768001 0.16100764 0.06655576 -0.15106358 0.31316483 -0.334373 -0.22544149 -0.45765758
0.052631468 -0.028269574 -0.37215546 0.016985293 0.13688381 0.01197411 0.03815707 0.14837903
0.17718804 -0.00021004755 0.033159938 -0.075123265 -0.079527445 0.02307233 -0.24393527 -0.039185166
0.06340979 0.11827749 -0.45809397 -0.12458717 0.15693803 0.10534157 0.18540938 -2.0902524
0.09797946 0.06128093 -0.23578636 -0.054921966 0.07750538 0.05133719 -0.047134355 -0.14703214
-0.3470076 -0.31568342 -1.2893991 0.22405575 -0.50455475 0.15076494 -0.10536526 0.21830092
0.11552023 0.04217447 0.15185185 -0.264771 0.3364242 0.038507044 0.22510767 -0.3052062
00000000: 25db 6ebe 1fe9 bfbe 1b82 6cbe a32d 2abe
00000010: be5b 6bbe 344c 1fbf 0061 34be 4f62 d4bd
00000020: 4d99 bc3e 65cc 003e 5bac 47bd 63a5 9d3b
00000030: 7b47 edbc dc22 9ebc a912 093e 183c 5d3e
00000040: 904e cb3e e8ac d0bd 70ab ce3d 9f9d 343e
00000050: 7528 b9bd d87b 83bf f267 96be 9694 84be
00000060: ee7b e03c 548a bbbe 6015 d7bc ad82 7d3e
00000070: 5792 ab3d 6493 8fbd f150 f9be cc1e 163e
00000080: ddcf aabd 5a80 c33d 83bc 2bbe 43d0 5a3e
00000090: 88f8 aa3d 73f3 0ebe fa29 91be d742 5c3d
000000a0: 18d7 383d 9ab2 363d ea9f e33e 7b59 5e3d
000000b0: 07a1 603c fbf5 79be 30fc 70be 8e6f e8be
000000c0: 083a 4dbb 98ab a5bc a6a1 d73c b60d a7bd
000000d0: 131c 983c 62c5 52bf 644b bcbd f52a 193e
000000e0: e928 8d3d 8b93 38bd 4b5a cdbe 27d9 873d
000000f0: c58d 223d 6ba2 fd3d 9889 113e 34d3 eabe
00000100: dd56 873d 2bdd 2f3d ed99 753e 648b 6e3c
00000110: fbc2 45bf efc3 d8be 3334 9a3d 6e3a 0d3e
00000120: 58bf 26be 94ef 333d 165d 4ebf 08d9 03bd
00000130: b016 dd3c 534a 18c0 9961 2e3e 5585 34be
00000140: c05b 86be 2cec ce3c df78 2abe e3a6 963d
00000150: 7019 3bbd 5e32 433f 1ecf eebe 35df 663d
00000160: c632 b5bc a83e d1be 4cb3 cd3d 8075 943e
00000170: efea 153e c222 0bbf 7691 7abd a6c2 273e
00000180: e78d 1cbd 67cc 493f f070 b33d 6354 213e
00000190: 103e a4be 8cac 20bd 18c0 8d3d fd27 d33d
000001a0: 5cda a5be 2633 99bc 4391 2e3e a384 28be
000001b0: 27a5 73be d25e 283e 5365 d63d 6bf9 883e
000001c0: 3139 403e cdfe ba3d 942f 9cbe dac6 babe
000001d0: e778 6bbe d720 0a3e 96ed 67be 9d83 143c
000001e0: 8cc1 5bbe 0ab5 ee3d 9d85 c6be c70e 79be
000001f0: 1831 9bbc 3530 473e 8f53 b63d e62b 2ebe
00000200: 0b0b 143c cd63 8cbd b02c d63b 52db 09bf
00000210: 605c 203e 5d3f c4bd eaab f13d 1332 673e
00000220: 3016 073e d374 eabd 8684 c63d 29c6 a63e
00000230: ca72 8dbe 7a29 a73b 558d c2bd 1ff2 6e3e
00000240: 0013 703d cd57 83be f3b5 a83e ddcf fabd
00000250: d767 6dbe 9a33 763d 4150 0f3e ae09 d7be
00000260: e322 6e3d 3a01 5ebe 13e3 b33e 2c80 9bbe
00000270: 69f6 ebbd 59cb f5be 2718 debf 245f 773e
00000280: 10c6 33bd e958 193e c98e 113e dbd3 c53b
00000290: e53c 093d c877 9abe 270f e8be 9c46 333e
000002a0: 1864 ca3e 7158 aa3d 21ec 343d 7f4a c5be
000002b0: f2f8 9e3e 6424 e4bc 4321 57bd 713f 4dbf
000002c0: 1694 073d 73ec 46be 227e d03d 7fd5 6fbe
000002d0: bf45 ab3c 73fc f4be 7999 0cbf 32e4 a2be
000002e0: 92ca 12bd e86a ac3e a220 debc 30a8 a13d
000002f0: 1544 f33d 4430 13be fe9f 95be 0546 223e
00000300: d139 16bf 9c54 9e3e 7588 80bd 24ed 473e
00000310: fae7 4ebd 7b23 c9bd b0f5 7cbd 5eae 643e
00000320: 4fb4 2bbe 30df 243e 634e 883d 69b0 1abe
00000330: 2457 a03e f032 abbe 22da 66be 1852 eabe
00000340: 1894 573d 9895 e7bc 298b bebe be24 8b3c
00000350: 452b 0c3e 0f2f 443c 964a 1c3d acf0 173e
00000360: c870 353e 3640 5cb9 b7d2 073d 3ada 99bd
00000370: 49df a2bd 2f02 bd3c 2bca 79be a080 20bd
00000380: fedc 813d 783b f23d 4b8b eabe 8f27 ffbd
00000390: 5db4 203e 52bd d73d f5db 3d3e b2c6 05c0
000003a0: 75a9 c83d b601 7b3d fb71 71be dbf5 60bd
000003b0: 24bb 9e3d f246 523d f40f 41bd 988f 16be
000003c0: fbaa b1be 42a1 a1be 080b a5bf df6e 653e
000003d0: 802a 01bf 2062 1a3e bec9 d7bd 478a 5f3e
000003e0: df95 ec3d 23bf 2c3d 0d7f 1b3e 1190 87be
000003f0: cb3f ac3e 90b9 1d3d a082 663e fd43 9cbe

ff_1.bias f4 [256]
0.15823643 -0.0687469 -0.08200274 0.16323431 -0.6339662 -0.7446997 0.06369035 0.008648726
0.08066849 -0.16997702 -0.29482445 -0.2423345 0.082532145 0.088531636 0.01318698 -0.19123988
-0.2713379 0.1319569 0.1022361 -0.15291457 -0.3548096 0.33794618 0.29765812 -0.29615793
-0.11114249 0.075996876 -0.41938642 -0.10628795 0.16928573 0.054435663 0.027855594 0.10917012
0.05032345 -0.08273701 0.09820586 -0.37527463 0.27880913 0.5084647 -0.13586034 -0.444519
-0.031105602 -0.33829036 -0.47990212 -0.3099081 -0.021589957 0.062110912 0.163763 -0.2355623
0.11226915 0.025214158 0.27387524 -0.17305149 -0.27968642 0.10861893 -0.1375124 -0.34596294
0.07317691 0.21067056 0.0960834 0.065344445 -0.036770362 0.15850233 0.011328087 0.032453187
0.08448291 0.32885537 -0.18208808 0.19691764 0.2058326 0.04063551 0.22164145 0.31165847
-0.53158206 0.023029769 -0.44918856 -0.21984398 -0.14596274 0.3103956 -0.055912346 -0.29052708
-0.0558988 -0.0012153933 -0.01658734 -0.6360643 -0.15111561 0.25167277 0.005205512 0.2736122
0.04351389 0.024455635 0.040697906 -0.016608562 0.20391242 -0.37626114 -0.18228489 0.00077158824
-0.16622306 -0.3339558 -0.29535088 -0.18270676 0.15069933 -0.17710982 0.18642913 -0.06153774
-0.083511405 0.013587472 0.118640624 -0.111104175 -0.3970113 -0.40994567 0.25188768 -0.35886785
-0.20425136 0.3421857 0.03930977 -0.08050461 0.24566314 -0.20021838 0.0376098 -0.046664167
0.028252978 0.040231694 0.18421115 -0.15650967 -0.52893054 -0.17344362 0.16133788 0.17869349
0.053504862 0.08308939 -0.3403289 -0.10147831 -0.27253297 -0.060520105 0.21243547 -0.062980756
-0.08827082 0.00046894822 0.117820896 -0.12317957 -0.20894891 -0.10369201 0.031575006 -0.17534152
0.104157604 0.17628895 0.18232842 -0.3690502 -0.26501516 -0.03731925 -0.14029366 0.1415134
-0.21784021 -0.39887732 0.29450166 0.11841868 -0.22997375 0.41018584 -0.060503744 0.08843055
0.2630416 0.21917549 0.14705817 -0.34871995 0.0488104 0.122805975 0.14687948 0.06454399
-0.14342839 0.14607733 -0.026402436 -0.21539739 -0.3667795 0.10312531 0.16860788 0.16730373
0.08231681 0.110266 0.0527143 -0.030474467 -0.30271435 -0.052542426 0.06435171 0.0001772366
0.10979025 0.29247913 -0.13023877 -0.22416228 0.1933417 0.13225286 0.055430118 -0.010705621
0.4454716 0.35791892 -0.124629624 0.01379008 0.13702182 0.029671347 0.19701809 -0.2106597
-0.0050821756 0.102678895 -0.040310822 0.36130586 -0.11402425 -0.004112406 0.15700191 -0.48273802
0.050032347 0.209543 0.37736264 -0.08080231 0.48332745 -0.41621852 0.08120786 -0.12745295
0.26862878 0.098944016 0.1745966 0.1424247 0.23935062 0.10872008 -0.17945692 -0.25384283
-0.3050983 0.04099413 0.12805475 -0.156801 -0.0983751 0.1795712 -0.048197433 -0.6386547
0.1729927 0.24772197 0.19281901 0.25043622 0.18977788 -0.18958989 -0.032232217 -0.24125029
0.39840075 0.03482766 -0.046256926 -0.31754836 0.18879113 -0.14956482 -0.08738441 0.027776605
-0.11832792 -0.19011454 -0.093386166 -0.13432182 -0.039019242 0.02986871 0.17477684 -0.008802457
00000000: bb08 223e 2dcb 8cbd 0df1 a7bd e526 273e
00000010: 9c4b 22bf a4a4 3ebf 1670 823d 63b3 0d3c
00000020: 8535 a53d 750e 2ebe 3bf3 96be 8926 78be
00000030: 9d06 a93d 1350 b53d 340e 583c 63d4 43be
00000040: cdec 8abe b61f 073e 2961 d13d a395 1cbe
00000050: 9ba9 b5be 4807 ad3e a566 983e 03a2 97be
00000060: ac9e e3bd 40a4 9b3d d1b9 d6be 7fad d9bd
00000070: 3d59 2d3e eef7 5e3d 6a31 e43c 9594 df3d
00000080: f61f 4e3d 0672 a9bd 2720 c93d ff23 c0be
00000090: 12c0 8e3e be2a 023f f91e 0bbe ff97 e3be
000000a0: 2dd1 febc 6534 adbe bbb5 f5be 46ac 9ebe
000000b0: 6cdd b0bc 0368 7e3d 7db1 273e 3e37 71be
000000c0: 5eed e53d ec8d ce3c 6039 8c3e 6934 31be
000000d0: 0f33 8fbe 9a73 de3d 0dd0 0cbe 0e22 b1be
000000e0: c7dd 953d 06ba 573e 60c7 c43d 4fd3 853d
000000f0: 859c 16bd 6f4e 223e 7199 393c a2ed 043d
00000100: 6005 ad3d bb5f a83e 4c75 3abe c7a4 493e
00000110: c8c5 523e 6c71 263d faf5 623e b391 9f3e
00000120: c315 08bf eda8 bc3c 0bfc e5be c81e 61be
00000130: 4277 15be 2cec 9e3e 5804 65bd f7bf 94be
00000140: 24f6 64bd d54d 9fba 2ce2 87bc 1cd5 22bf
00000150: 0dbe 1abe 41db 803e 0093 aa3b e616 8c3e
00000160: 9f3b 323d 2f57 c83c d9b2 263d ae0e 88bc
00000170: 6bce 503e 4da5 c0be e4a8 3abe 6944 4a3a
00000180: 6136 2abe 41fc aabe 3b38 97be 7b17 3bbe
00000190: ed50 1a3e 475c 35be 47e7 3e3e ff0e 7cbd
000001a0: 0708 abbd fd9d 5e3c dbf9 f23d 968a e3bd
000001b0: 1145 cbbe 66e4 d1be 6cf7 803e 87bd b7be
000001c0: 4527 51be f732 af3e 4803 213d 9adf a4bd
000001d0: 1e8f 7b3e 0c06 4dbe bc0c 1a3d ed22 3fbd
000001e0: ca72 e73c fdc9 243d d9a1 3c3e 1244 20be
000001f0: fe67 07bf 349b 31be c235 253e 6dfb 363e
00000200: ea27 5b3d c52a aa3d 973f aebe dcd3 cfbd
00000210: 7189 8bbe eee3 77bd af88 593e 0efc 80bd
00000220: 55c7 b4bd 2add f539 154c f13d 9245 fcbd
00000230: b4f6 55be 7a5c d4bd cb54 013d ba8c 33be
00000240: 9550 d53d 1785 343e 4db4 3a3e 26f4 bcbe
00000250: 11b0 87be 12dc 18bd 24a9 0fbe e4e8 103e
00000260: 8111 5fbe a639 ccbe ecc8 963e 7e85 f23d
00000270: 3d7e 6bbe e103 d23e c6d2 77bd 141b b53d
00000280: 63ad 863e 8a6f 603e 6b96 163e 6c8b b2be
00000290: 6aed 473d b381 fb3d 9367 163e a42f 843d
000002a0: e4de 12be 4c95 153e ec49 d8bc 2291 5cbe
000002b0: 86ca bbbe 5d33 d33d 8ba7 2c3e ab51 2b3e
000002c0: b795 a83d 24d3 e13d f3ea 573d 97a5 f9bc
000002d0: 60fd 9abe ba36 57bd d4ca 833d 96d8 3939
000002e0: b6d9 e03d d3bf 953e 505d 05be cc8a 65be
000002f0: 5efb 453e 4b6d 073e b10a 633d a166 2fbc
00000300: db14 e43e 2641 b73e d13d ffbd caef 613c
00000310: 734f 0c3e 5311 f33c 1cbf 493e 2db7 57be
00000320: 6188 a6bb 5049 d23d f61c 25bd 15fd b83e
00000330: 8c85 e9bd 5dc1 86bb 1cc5 203e 7029 f7be
00000340: b8ee 4c3d 7192 563e ad35 c13e ae7b a5bd
00000350: b276 f73e 981a d5be 4e50 a63d 0783 02be
00000360: b689 893e 29a3 ca3d 73c9 323e c8d7 113e
00000370: 5418 753e a2a8 de3d 8ec3 37be b0f7 81be
00000380: d835 9cbe 76e9 273d c920 033e 7190 20be
00000390: e278 c9bd 83e1 373e ac6a 45bd e07e 23bf
000003a0: 0025 313e d4aa 7d3e 5972 453e 2d39 803e
000003b0: 2255 423e da23 42be ee05 04bd 510a 77be
000003c0: 2ffb cb3e 73a7 0e3d e777 3dbd b395 a2be
000003d0: 7652 413e 8527 19be 99f6 b2bd c38b e33c
000003e0: e955 f2bd 63ad 42be 3f41 bfbd a98b 09be
000003f0: a4d2 1fbd 3aaf f43c b3f8 323e 2e38 10bc

ff_2.weight f4 [1, 256]
0.6460328 1.2035365 -0.9522389 0.6545127 -1.6336181 -1.8630862 0.95884275 1.8389661
1.1502827 2.2285793 2.3937814 1.6122965 1.50679 0.428125 -1.1566691 0.7770322
-1.1294583 0.80024874 0.8523855 2.1423743 1.1779519 -1.3788644 -1.9843446 -1.0600715
-0.9739602 0.421053 -1.093961 -0.8370312 0.386976 -0.698678 -1.664114 0.68263096
1.2579728 0.9320954 0.72173446 -0.9719681 1.776641 0.31010693 1.2197748 -1.01749
1.170544 -0.7381293 -0.8611816 -1.5848994 0.7387218 0.36973566 0.8196732 -0.7539152
-0.70589197 1.6670045 0.29381934 -0.5373263 1.8763437 0.718137 1.3628727 -1.41954
2.4627314 0.75340337 0.8616751 0.72731495 1.4805887 1.2725807 -0.8273888 1.8587383
0.54333293 0.6230201 -0.5967026 0.2556063 0.5502824 -0.9364192 0.4925132 -1.0518883
2.0057366 -0.8137069 -0.6515798 -0.34363258 -0.81414545 -1.659802 -1.6774203 1.7491919
-0.893744 0.9179502 0.5893591 -2.6621835 -0.76172936 -1.4217353 1.5569905 -1.0325508
1.1545415 -1.0020252 1.2703085 -1.2884675 0.95860577 -1.318957 1.2069039 -1.570664
-1.1535746 -1.7854205 -0.81753683 -0.6652174 1.4817127 -0.90640444 -1.1851789 0.92259634
-0.78875077 -1.1167176 -1.0665274 -1.6400229 -0.8580969 -1.4156998 0.65801245 -1.7245921
-0.37463742 0.63701767 0.8993169 2.0815868 1.2431151 -0.41897726 0.69413954 -0.3888071
-0.80262977 0.8497408 1.0121858 -0.7377626 -0.9451409 -1.0985324 0.6024058 -0.6721458
-0.92102164 0.8189102 1.8478208 -0.63945085 1.8981243 -0.53632087 0.6148358 -1.1465752
-1.6454253 0.886394 1.5648514 -1.303607 -0.9650331 -0.6675458 0.63796365 1.3501776
0.33648098 0.72037894 0.80017626 -0.67995787 -0.8233189 1.402073 -0.6387808 1.3293725
2.0394473 -2.0147967 1.248963 -0.66032463 -0.85808253 0.28369406 -0.9500424 2.2296865
-1.6399491 -0.85604817 -0.9039484 1.218885 0.7752146 -0.61684066 0.5001435 -0.8930005
-0.75017864 0.6853551 0.50504357 -1.6997057 1.6724422 -1.0089732 -0.69843113 0.46733314
0.61250573 0.7662304 0.8932414 1.7943333 1.592053 1.0868648 0.68516374 0.85474616
-0.74580973 -1.6772267 -0.7832611 1.6127058 0.6854282 1.1311808 0.7023103 1.0116678
0.294773 0.28885442 0.7222345 -1.0682412 0.78566474 -0.78863704 0.53639245 -1.1906466
-0.45346048 -1.164634 -1.1218722 0.3484275 -1.0243918 0.6155261 -0.79258764 2.8769522
-0.7111779 -0.9595036 0.2834368 1.2100676 0.33552098 1.4149971 -0.8506264 1.4736773
0.5650978 -1.1803 1.3555219 0.59578735 0.41645056 -0.41537052 -1.271792 -0.96204716
2.1833582 0.48303115 1.6333636 1.6149819 1.154996 -1.3207456 -0.87305653 2.5912151
1.0743818 -1.9141016 0.81139493 1.0062166 0.90497667 2.534358 0.70409226 2.1020894
0.29560047 1.040547 -1.0223321 -0.70982224 1.7516743 -1.0186551 -0.9311652 1.0687455
-1.3514322 -0.6241347 -0.70682466 -1.3233851 1.0849046 -0.7011105 0.62009776 1.1653582
00000000: 6862 253f 7c0d 9a3f eec5 73bf 258e 273f
00000010: 661a d1bf 9c79 eebf b876 753f 3e63 eb3f
00000020: 773c 933f 0ba1 0e40 b733 1940 bb5f ce3f
00000030: 7fde c03f 3333 db3e bc0d 94bf 95eb 463f
00000040: 1792 90bf 1add 4c3f f035 5a3f a91c 0940
00000050: 21c7 963f a17e b0bf 01ff fdbf 6cb0 87bf
00000060: 7555 79bf 4294 d73e ea06 8cbf ad47 56bf
00000070: b821 c63e 90dc 32bf b001 d5bf e7c0 2e3f
00000080: 4105 a13f ce9d 6e3f 97c3 383f e7d2 78bf
00000090: f968 e33f 56c6 9e3e 9521 9c3f 1d3d 82bf
000000a0: 63d4 953f 0bf6 3cbf 6676 5cbf fcdd cabf
000000b0: df1c 3d3f fe4d bd3e 1ad6 513f 9600 41bf
000000c0: 56b5 34bf 6760 d53f 7d6f 963e 378e 09bf
000000d0: 082c f03f d4d7 373f 9d72 ae3f 7db3 b5bf
000000e0: 649d 1d40 0bdf 403f bd96 5c3f 5031 3a3f
000000f0: ee83 bd3f ede3 a23f c1cf 53bf 23eb ed3f
00000100: de17 0b3f 3f7e 1f3f 80c1 18bf d4de 823e
00000110: 4fdf 0c3f 2bb9 6fbf b12a fc3e 47a4 86bf
00000120: fd5d 0040 184f 50bf efcd 26bf 9cf0 afbe
00000130: d66b 50bf 6474 d4bf b5b5 d6bf 85e5 df3f
00000140: 68cc 64bf c9fe 6a3f 3de0 163f 3761 2ac0
00000150: b200 43bf 6cfb b5bf 774b c73f a02a 84bf
00000160: 04c8 933f 5d42 80bf 7899 a23f 81ec a4bf
00000170: 3067 753f 95d3 a8bf d47b 9a3f 850b c9bf
00000180: 55a8 93bf a988 e4bf 184a 51bf b04b 2abf
00000190: c3a8 bd3f 1f0a 68bf f1b3 97bf 462f 6c3f
000001a0: 92eb 49bf 9af0 8ebf f883 88bf 45ec d1bf
000001b0: 3dac 5bbf a735 b5bf 8173 283f 6fbf dcbf
000001c0: 7ad0 bfbe 9713 233f a239 663f b838 0540
000001d0: 651e 9f3f 3084 d6be 21b3 313f b911 c7be
000001e0: 2579 4dbf 9d88 593f 4e8f 813f 02de 3cbf
000001f0: c1f4 71bf b69c 8cbf 4437 1a3f bf11 2cbf
00000200: 13c8 6bbf 19a4 513f 6485 ec3f 0db3 23bf
00000210: bdf5 f23f 534c 09bf e165 1d3f fac2 92bf
00000220: 4c9d d2bf b8ea 623f 0d4d c83f 98dc a6bf
00000230: 690c 77bf 48e4 2abf 9651 233f 9fd2 ac3f
00000240: 3c47 ac3e c16a 383f 5ad8 4c3f b811 2ebf
00000250: 07c5 52bf 2177 b33f 2387 23bf e128 aa3f
00000260: 4e86 0240 6ef2 00c0 05de 9f3f 090b 29bf
00000270: 4cab 5bbf 5940 913e fb35 73bf 2fb3 0e40
00000280: dae9 d1bf f925 5bbf 2a69 67bf 6c04 9c3f
00000290: 7774 463f 45e9 1dbf 6809 003f ae9b 64bf
000002a0: b50b 40bf 6f73 2f3f 894a 013f f58f d9bf
000002b0: 9612 d63f 0926 81bf 62cc 32bf 4a46 ef3e
000002c0: 2dcd 1c3f ad27 443f 78ab 643f b7ac e53f
000002d0: 65c8 cb3f 631e 8b3f e466 2f3f a5d0 5a3f
000002e0: 63ed 3ebf 5daf d6bf cd83 48bf 256d ce3f
000002f0: 3978 2f3f 88ca 903f 9cca 333f 557e 813f
00000300: 7dec 963e bae4 933e 5ce4 383f 21bc 88bf
00000310: 5321 493f 1ee4 49bf 0451 093f 1c67 98bf
00000320: f92b e8be ba12 95bf 8299 8fbf 1765 b23e
00000330: 451f 83bf 1e93 1d3f 06e7 4abf fc1f 3840
00000340: c10f 36bf 07a2 75bf a11e 913e 7fe3 9a3f
00000350: 68c9 ab3e a01e b53f a7c2 59bf 75a1 bc3f
00000360: 40aa 103f 1214 97bf be81 ad3f 8585 183f
00000370: 0239 d53e 72ab d4be 15ca a2bf b948 76bf
00000380: 24bc 0b40 dc4f f73e 0f12 d13f bab7 ce3f
00000390: e9d6 933f 310e a9bf a280 5fbf 78d6 2540
000003a0: 5885 893f 4801 f5bf 94b7 4f3f b5cb 803f
000003b0: 8dac 673f ec32 2240 643f 343f a288 0640
000003c0: f258 973e a530 853f c7db 82bf e9b6 35bf
000003d0: dd36 e03f 4a63 82bf d860 6ebf a7cc 883f
000003e0: bbfb acbf 4bc7 1fbf 76f2 34bf af64 a9bf
000003f0: 27de 8a3f fa7b 33bf babe 1e3f 752a 953f
