runs/checkpoint_actor_256_192021_tau1_1780.pth (torch, 288535 bytes, 6 tensors)

fc1.weight f4 [256, 19]
000000 0a e0 49 bd 60 0e f1 3b 5c bd 6b bd 0e 33 4f bd
       -0.049285926 0.00735645 -0.057553634 -0.0505858
000010 30 24 b9 bc 50 3e 61 bd 70 7f 58 bc 78 9c 70 bc
       -0.022600263 -0.054991066 -0.013213977 -0.014685743
000020 86 1b 54 bd 68 50 06 bd 70 01 bd 3b 98 fa be 3c
       -0.05178406 -0.032791525 0.0057679936 0.023312852
000030 84 69 2b bd 28 2b 2f 3c 00 32 60 3d 98 ce 6a bc
       -0.041848674 0.010691442 0.054735184 -0.014331482
000040 2c 79 9b 3c d8 41 4d 3c 00 67 13 bb 6d e2 e9 ba
       0.018978678 0.012527905 -0.0022491813 -0.0017843969
000050 c0 8d 63 be 02 ad 10 3e 72 8e 7f be d6 a4 8a be
       -0.22222042 0.14128497 -0.24956682 -0.27078885
000060 fe b2 8e 3d f8 09 d6 3e 38 ce 07 bd 22 43 7d be
       0.06967734 0.4180448 -0.03315565 -0.2473264
000070 85 67 a5 be 9b b1 8a be 66 7a 80 be 6a 08 47 be
       -0.32305542 -0.27088627 -0.25093383 -0.19436803
000080 dc bc 9c 3d 7b b3 01 3e 25 77 e9 be 48 a3 44 be
       0.076532096 0.12666123 -0.45598713 -0.19202912
000090 a6 87 e6 be 53 fb d8 be 29 84 11 bc af 68 40 3e
       -0.45025367 -0.42379245 -0.008881607 0.18789934
0000a0 5d 1f d4 3d ef 04 5d 3e 64 45 08 3d 49 8f a9 bd
       0.103575446 0.21583913 0.0332693 -0.082792826
0000b0 9d 3c 92 3f 36 f2 d0 bf 14 7b 9e bf ec cf 63 bf
       1.1424748 -1.6323917 -1.238131 -0.8898914
0000c0 ed 8e 9a be 7a e9 a5 be e4 3d 52 be e1 4e c9 3e
       -0.3018717 -0.3240469 -0.20531422 0.39317992
0000d0 f8 3d 3d be ca 26 c8 3e 94 8f c0 bf 94 27 a0 bf
       -0.1848067 0.39092094 -1.5043817 -1.2512078
0000e0 7e 27 d5 be 1d a2 bf bd fc e8 94 be df 77 8c be
       -0.41631693 -0.093570925 -0.29084003 -0.27435204
0000f0 95 3a a6 be 50 89 18 bf 00 46 b1 3e 94 a3 7a 3e
       -0.3246657 -0.5958452 0.34623718 0.24476463
000100 24 d7 b8 bf 07 79 c0 bf 4e 13 ba bf 34 44 f6 be
       -1.4440656 -1.5036935 -1.4537141 -0.4809891
000110 0f 8c e5 be 09 94 e5 be 42 a6 84 bd 85 ce 99 bd
       -0.4483342 -0.44839504 -0.06477024 -0.075100936
000120 a4 dd 92 be 96 b9 65 3e c3 b4 96 3d 0f f9 94 3e
       -0.28684723 0.22434077 0.07358696 0.29096267
000130 e3 01 83 3b 7f dc dc 3e 66 ca 13 bd c0 71 1f be
       0.0039980276 0.43136975 -0.036081694 -0.15570736
000140 c5 28 45 3e ce ef 83 bf 00 2d 0d bf 22 20 e6 bd
       0.19253834 -1.0307558 -0.5514679 -0.112365976
000150 e6 b0 87 bc 2e a7 58 bd af a6 1b 3e 89 39 de 3d
       -0.016563844 -0.05289381 0.15200303 0.10850818
000160 2a b7 ca 3d 97 97 d7 3e 25 0e 09 3f 82 fa d4 bd
       0.09898217 0.4210784 0.5353721 -0.10399343
000170 6b 50 f8 be a4 09 3c be b9 c2 f1 be c0 22 a0 3b
       -0.48498854 -0.18363053 -0.47218874 0.004886955
000180 df 94 dd bc f4 16 4d be 6f 7b 8c be df 26 34 3f
       -0.027048526 -0.20028287 -0.27437922 0.7037181
000190 5c 2b 3a bf 94 3a f2 3f 5a 3a 91 3f 4a a2 90 3f
       -0.7272241 1.8924127 1.1345932 1.1299527
0001a0 47 74 a4 3f 07 f0 5a be fb 80 83 be a4 af 53 be
       1.2847985 -0.21380626 -0.25684342 -0.2067247
0001b0 dd dc 83 3d 42 d1 a8 be be fe a5 be a8 0d 08 bf
       0.06438611 -0.3297215 -0.32420915 -0.5314584
0001c0 15 32 a2 bc 8e a5 8c 3d 9f be a7 bd fd 27 a3 bd
       -0.019799272 0.068675146 -0.08190655 -0.079666115
0001d0 8a ad 2f bd 25 8a 80 3c c9 d2 ab 3c 11 7e aa bd
       -0.04289011 0.015690872 0.020974534 -0.083248265
0001e0 9c 40 85 3c 4d 15 e5 bc 11 10 fe bc 37 d1 97 3d
       0.01626616 -0.027964259 -0.03101352 0.074129514
0001f0 80 eb 52 bd f5 66 8b bd 5b 45 0c bc cd 09 13 bd
       -0.05149412 -0.06806747 -0.0085614575 -0.03589802
000200 7a 6c a1 bc 4d ec 63 3d 90 2d be bc c7 e0 9a bd
       -0.019705046 0.055645276 -0.023215085 -0.07562404
000210 3f f2 78 bd 79 03 83 b9 92 b1 80 3e 5a 37 90 bd
       -0.0607779 -0.00024988854 0.25135475 -0.070418075
000220 9d dc a3 be fd 3a 97 bf 03 80 c1 be 5e d1 40 bf
       -0.32004252 -1.1814877 -0.37792978 -0.7531947
000230 b7 55 78 bf 79 d4 a1 bf 57 04 aa bf 35 b7 86 3e
       -0.9700579 -1.2642967 -1.3282574 0.2631165
000240 2d e9 47 3e 4d 12 21 3e f9 22 37 3e 51 6f c4 3c
       0.19522543 0.15729637 0.17884435 0.023978861
000250 3d 52 a9 3e 73 47 a7 bf 9f b3 c8 bf 6e 98 5a bf
       0.33070555 -1.306868 -1.5679816 -0.8538884
000260 7d 03 d8 3a 9a 46 09 3e 61 03 de bd cc 8b a4 3e
       0.0016480532 0.13405839 -0.10840488 0.32137907
000270 8e 1f ac 3e ec 3b 78 bc 6c 5d d1 bd d2 83 48 3f
       0.33617824 -0.015151005 -0.10222897 0.7832614
000280 0a 29 7c 3f 01 49 ba 3f 3e 81 8f be a2 1d 86 be
       0.9850012 1.4553529 -0.2802829 -0.26194483
000290 3b 5a 61 be 4d a8 5d bf 74 02 1e bf b0 8e 7e 3e
       -0.22007076 -0.8658493 -0.61722493 0.24859118
0002a0 c0 03 ee bf 86 18 9a bf 6c e0 5b bf 6e 24 8f 3b
       -1.8594894 -1.2038734 -0.85889316 0.0043683564
0002b0 04 39 46 bd 54 5c f5 3e 02 ae bf 3d 80 52 f1 3e
       -0.048394218 0.47922003 0.09359361 0.47133255
0002c0 75 2e 94 3c 1b 4a 6a 3f ac f1 88 bc eb 47 08 be
       0.018088559 0.91519326 -0.0167168 -0.13308685
0002d0 bc ae 60 be 29 21 31 be e8 4c a7 be ce 75 77 be
       -0.21941656 -0.17297806 -0.32675862 -0.24166033
0002e0 7f 90 66 3f be c4 38 bf 6b 94 8e be f9 10 93 be
       0.90064234 -0.72175205 -0.2784761 -0.28723887
0002f0 66 0d 22 bf 03 84 bb bd f8 04 a9 3c bc 63 3a be
       -0.63301694 -0.091560386 0.020632252 -0.18202108
000300 97 a1 fd be 41 ae cb 3b 2c d7 a7 be 3c a9 54 bf
       -0.49537346 0.006215841 -0.3278135 -0.8307073
000310 f6 46 14 bf ae 24 d7 3f d2 84 bd 3f d6 3e b1 3f
       -0.5792078 1.6808069 1.4806159 1.3847301
000320 6c 2c e6 3d d3 12 b1 3d b6 8f f7 3d 1a 4b 23 be
       0.112389416 0.086461686 0.120879576 -0.15946618
000330 6f 91 9c be 7a ac f8 be df a2 bf be 46 ea 1a be
       -0.30579707 -0.4856909 -0.37428948 -0.1512843
000340 ef 1b 99 be 71 e0 86 bd 33 17 83 3c e8 c8 46 bd
       -0.29904124 -0.065857776 0.016002273 -0.048531443
000350 a5 3c 84 bc ec 19 26 3d 47 2c ea 3c 4a 8d 6a bd
       -0.016142199 0.040552065 0.028585566 -0.05726365
000360 de e6 af bc 7a d0 31 bd ce 8f 52 3d d8 19 a8 bc
       -0.02147239 -0.04341171 0.051406674 -0.020520136
000370 79 e3 53 3c 54 c3 44 bd d2 3e d4 3c cc 14 e9 bc
       0.012932652 -0.048037842 0.025908861 -0.0284523
000380 9a 7e 1c 3c a5 e4 5f bd d0 65 bc bc f3 c3 66 bd
       0.009551669 -0.05466141 -0.022997767 -0.056339215
000390 fe 5e ff 3b 55 92 e6 bd 77 b8 c6 bc 5a 55 ba 3d
       0.0077933064 -0.11258379 -0.024257882 0.09098311
0003a0 89 29 e9 bf 99 83 93 be 7d 0e 35 bf 36 69 0a 3f
       -1.82158 -0.2881134 -0.7072523 0.5406679
0003b0 f0 9e 23 3f 31 32 29 3f 91 0b d4 bd 97 ee 68 be
       0.63914394 0.6609221 -0.103537686 -0.22747265
0003c0 96 6d 0a be 6f 32 c6 3e c1 5b 9b be 16 35 fd 3e
       -0.13518366 0.38710353 -0.3034344 0.49454564
0003d0 5c 5d e9 be 7b 4d a5 bf 9e 0c a3 be 7f e3 bc bc
       -0.4557904 -1.291427 -0.31845564 -0.023057697
0003e0 25 9e 0b bd af 10 b1 3d 5b 99 b7 be b6 c3 6c bf
       -0.034086365 0.0864576 -0.35859188 -0.9248613
0003f0 14 9c 03 bf 2d 6a 7a 3f 05 b4 ad 3d 81 6e ed 3c
       -0.5141003 0.9781826 0.084816016 0.028983356

fc1.bias f4 [256]
000000 05 19 8d 3d 7d d8 c0 be 39 5a cc 3d 4a e2 bb be
       0.06889538 -0.37665167 0.09978146 -0.36696082
000010 24 06 85 3e b0 9e a2 bd 7c 5f 26 3e a0 d2 72 3e
       0.25981247 -0.079404235 0.16247362 0.2371316
000020 ac 8d cc be bb da 4e be 36 9f 93 3d 50 03 3f 3e
       -0.39951837 -0.20200627 0.072081015 0.18653607
000030 cf ec b1 bd 63 25 b1 3d 85 c3 10 3c 35 98 e5 3d
       -0.08687746 0.08649709 0.008835678 0.11210672
000040 00 a8 03 bf 55 4d cc 3e b8 7d 6f be 52 33 60 bd
       -0.5142822 0.3990275 -0.23387802 -0.054736443
000050 2c 25 e8 3d 39 1d 03 bf 17 f1 0f be ef e9 b2 be
       0.11335215 -0.51216465 -0.14056812 -0.34944102
000060 d2 fb f1 bd 04 ed e2 be 1b ed fc bd 74 ef 3b be
       -0.11815609 -0.44321454 -0.12349912 -0.18353063
000070 55 fe b6 3d 8f 86 25 be 43 cd 95 39 2c 72 db 3d
       0.08935229 -0.16164611 0.00028572427 0.10715136
000080 4d 03 ce 3d 81 b8 93 bd 03 3f 5a 3e ce 20 12 3c
       0.10059223 -0.07212926 0.213131 0.008918954
000090 56 2d 4d bd 42 3f 3a 3d 60 3a 42 be c6 fb 81 be
       -0.050092064 0.045470484 -0.18967581 -0.253874
0000a0 8f cf c8 bc 20 f5 36 3d 35 f2 b4 be 55 cd 41 bc
       -0.024513034 0.044667363 -0.3534104 -0.01182874
0000b0 66 00 47 3e 2f 5d 39 3e 85 1c b4 3d 90 39 30 bd
       0.19433746 0.18101953 0.08794502 -0.043023646
0000c0 6c 36 27 3e d2 72 62 3e ad 51 3b 3e b9 52 7c 3e
       0.16329354 0.22114113 0.18292876 0.24640931
0000d0 9c b7 59 be 92 64 2b be 7b 1e 21 be 5b 67 8c 3a
       -0.21261448 -0.16737583 -0.15734284 0.0010711955
0000e0 7e 1c 0b 3f a5 8c 02 be aa f5 f6 3c f5 eb 1f be
       0.5434035 -0.12748964 0.030146439 -0.15617354
0000f0 64 70 61 be 94 ad 09 be bd 8c 5a be 21 e9 6c 3e
       -0.2201553 -0.13445121 -0.2134275 0.23135807
000100 37 5e 66 bd 64 20 ef 3e 10 57 ff bc 72 ef d5 bc
       -0.056242194 0.467044 -0.031169444 -0.026115153
000110 1f c0 3b be c7 07 fc be 65 60 58 be 49 49 d2 3c
       -0.18335007 -0.49224684 -0.21130522 0.02566971
000120 a7 e5 5b 3d ba d7 8c bd 4f 4e 9d bd f2 af 33 bc
       0.05368581 -0.06877084 -0.07680952 -0.010967242
000130 f5 00 be bd 9f 20 a6 be dc 4b 42 3d b3 ae fd 3c
       -0.09277526 -0.32446763 0.047435626 0.030967092
000140 22 35 53 be 6e c1 13 3c 74 90 90 be b0 50 4c bd
       -0.20625737 0.009018285 -0.2823521 -0.049881637
000150 08 52 a9 3e d9 f3 1c bf 95 75 b3 bc 9a 2f 37 bd
       0.33070397 -0.6130958 -0.021906653 -0.04472313
000160 6e 08 ca be 4b 41 ee 3d 8d 15 7d 3b 84 90 06 bf
       -0.39459556 0.116335474 0.0038617582 -0.52564263
000170 03 f7 19 be 83 d6 1b 3e 5d 55 24 be 1e e2 57 be
       -0.15035634 0.15218548 -0.16048189 -0.2108235
000180 ad c8 e1 3d 14 9c 71 3e 98 ee a3 bd 85 29 08 be
       0.11024604 0.23594695 -0.080044925 -0.13297088
000190 f5 26 49 bd f7 41 69 3f 09 ec 00 bf ca 27 1e be
       -0.049109418 0.9111628 -0.5036016 -0.15444866
0001a0 2c fd 35 3e 6e a4 56 3d fb 9a 6f bd 9c fd be 3e
       0.17772359 0.052402906 -0.05849741 0.37302864
0001b0 7e 7d 8c be 52 ea e7 3e a6 5d 4c 3e 08 66 f6 be
       -0.27439493 0.4529596 0.19957599 -0.4812472
0001c0 8c dd e6 be 23 52 17 3d ea cb 75 3d d2 a7 7d 3e
       -0.45090902 0.036943566 0.06000892 0.2477105
0001d0 b9 09 fa be 0b a1 86 be 4b c1 4e 3e 22 43 4d be
       -0.48835543 -0.2629474 0.20190923 -0.2004514
0001e0 e7 aa 3c 3c f6 45 83 be d0 e5 10 3e 47 b0 bc 3d
       0.011515356 -0.25639313 0.14150167 0.0921331
0001f0 55 42 9c be 40 c7 85 be 34 81 2a be 4c b0 e1 3e
       -0.30519357 -0.26128578 -0.1665085 0.44079816
000200 3a b8 1f be f6 f7 be be d7 00 0c be b2 ba 8d be
       -0.1559762 -0.37298554 -0.13672195 -0.276815
000210 a8 4d 66 bd 69 e3 39 be 7d f7 99 bc 13 93 ab bc
       -0.056226403 -0.18153156 -0.01879477 -0.020944154
000220 29 99 57 be 57 be f2 be 30 59 33 bd 87 65 db 3e
       -0.2105452 -0.47410843 -0.043786228 0.42850897
000230 85 fd 23 3d 51 ba 80 be 43 27 87 be ae 81 73 be
       0.040036697 -0.25142148 -0.26397142 -0.23779938
000240 e1 9d b6 3d 5e ea e4 bd 64 39 10 be 8c f9 99 be
       0.08916832 -0.111775145 -0.14084393 -0.30073202
000250 40 c3 93 be d1 02 bc bd df 5c 95 bc 3b 26 a0 3d
       -0.288599 -0.09180225 -0.018232761 0.07819792
000260 de 05 2f be ac b0 f8 3d 33 a9 22 be 84 6c 43 bf
       -0.17092082 0.121430725 -0.15884857 -0.76337457
000270 62 54 32 3e b6 78 2f 3d cc f4 6b be e4 0d a3 bd
       0.17415002 0.04283973 -0.23042601 -0.07961634
000280 93 03 7e be 43 5a f9 bd e7 bb c4 3b 79 54 c6 3e
       -0.24806051 -0.12175419 0.006003845 0.38736323
000290 80 64 91 be 5b f4 34 bf 83 41 2b 3e 4e ca d8 3c
       -0.28396988 -0.70685357 0.1672421 0.026463654
0002a0 9a ae ce bd 22 37 13 be 14 b1 47 bf 06 2b 03 bf
       -0.10091896 -0.143765 -0.78004575 -0.51237524
0002b0 1c 6a 7e 3e 41 00 27 3e b6 a6 2f be 16 e6 b0 be
       0.24845165 0.1630869 -0.17153439 -0.34550542
0002c0 92 1c a5 3d 3f f0 5a 3e 2e f8 ab bd c5 ec 11 bd
       0.0806209 0.21380709 -0.08396946 -0.03562619
0002d0 d5 25 f0 be cf ff a4 bd 94 f2 8f 3e 05 7b be bd
       -0.46903864 -0.08056604 0.2811476 -0.09300808
0002e0 92 d1 5b bc f3 bf f5 be 7d b1 2a be 3f 2b 91 3c
       -0.013416665 -0.47998008 -0.16669269 0.017720817
0002f0 87 98 0b be 61 c2 b4 be 91 09 d9 bd 09 97 44 bd
       -0.13632403 -0.3530455 -0.10597528 -0.0479956
000300 27 af 06 bf fa d6 12 3e 01 0b 90 be 71 98 b5 be
       -0.5261101 0.1433982 -0.28133395 -0.35467866
000310 c1 dc 94 bd c7 7a 8d be 8f c2 85 be e3 46 fe be
       -0.07268668 -0.27632734 -0.26125 -0.49663457
000320 d5 d2 57 bd 4d c6 4e be 8b a2 1d 3e 8f 05 6d 3d
       -0.0526913 -0.20192833 0.15394036 0.05786663
000330 6f 2a 41 bd 05 6d 2f 3e b7 7f b4 3d 91 2d 8e bd
       -0.04715961 0.17131431 0.08813422 -0.06942285
000340 bf 68 2d be 09 df 7a be 6f 43 1a 3e 05 81 bc be
       -0.16934489 -0.24499144 0.15064786 -0.36817184
000350 d0 a2 38 be af 65 05 bf 57 9f e3 3d c4 62 b0 3d
       -0.18030858 -0.5210828 0.11114376 0.08612588
000360 25 4e 80 3e 9f 54 9a 3e 6f 9a 41 be f2 5c 04 bf
       0.2505962 0.30142686 -0.18906568 -0.51704323
000370 6e 84 23 be 4e f6 86 3d 8c b6 42 be 9f f4 d5 be
       -0.15968487 0.06589948 -0.19014949 -0.41788194
000380 04 eb bc bc 60 23 42 bd 0c 1d 9f bc 23 46 04 3f
       -0.023061283 -0.047397017 -0.01942303 0.5166952
000390 1e 42 ab bd 38 d6 74 be 5c a2 f6 bc 8f 31 0c bd
       -0.0836222 -0.23909843 -0.030106716 -0.03422695
0003a0 11 35 8b be d9 58 2d be 0a 71 6d be 22 da 95 be
       -0.27188924 -0.16928424 -0.23187652 -0.29267985
0003b0 fd f7 91 be a6 ef 31 3e 14 fa 39 3d 68 9a 12 3c
       -0.28509513 0.17376575 0.04540451 0.008947946
0003c0 14 07 9f bb 7a e8 0e 3e de 6e 8c be 29 c8 41 3d
       -0.0048531387 0.1395587 -0.27428335 0.04731003
0003d0 6b d8 91 3e 54 4f 12 b9 26 20 fa 3e 41 e8 e0 be
       0.28485426 -0.00013953197 0.48852652 -0.43927196
0003e0 b6 08 8a 3e eb 20 30 3e 3b 61 5c be 94 e1 49 be
       0.2695977 0.17200057 -0.21521465 -0.19714957
0003f0 9a 77 d3 3d 01 80 0a be 6e b7 93 be 17 49 66 be
       0.103255466 -0.13525392 -0.28850883 -0.22488819

fc2.weight f4 [256, 256]
000000 f4 05 58 3d 7e 18 97 3e bc ea 08 3e 57 7a 26 be
       0.052740052 0.29510874 0.13370794 -0.16257606
000010 ac 28 27 3e 5c 1f 0e 3e 1b c6 43 bd 07 46 8b 3e
       0.16324109 0.1387915 -0.04779635 0.27201864
000020 c9 96 28 bf 6a 07 56 bf 61 0d 06 bf f8 9d b6 bc
       -0.6585508 -0.8360506 -0.52364165 -0.022292122
000030 e0 61 99 3d 26 43 56 bf 51 f5 bf 3d 9a c7 80 be
       0.07489371 -0.8369621 0.09372962 -0.25152284
000040 8b 6b d6 bd ec 7e 21 bf e2 7f 0d bd e7 33 59 3e
       -0.10469731 -0.6308429 -0.034545787 0.21211205
000050 a1 db 30 bd 8b c2 9e 3e 54 a9 e5 3c e0 45 a3 3d
       -0.043178204 0.310078 0.028034844 0.07972312
000060 c0 9b 7a bd 93 94 2d 3e 98 48 73 3d c9 04 38 be
       -0.06118369 0.16951208 0.059395403 -0.17970575
000070 48 c2 aa 3c 79 af a6 3d 80 f4 e7 bd 4e 34 65 be
       0.020844594 0.081389375 -0.113259315 -0.22383234
000080 2e 9b 06 3d 65 1a 97 3c 08 9a 79 3d f0 6e c3 be
       0.032862835 0.018445203 0.06093791 -0.38170576
000090 42 56 c7 bc b8 a7 8f 3c b7 5c 57 bd dc 21 98 bc
       -0.024333123 0.01753603 -0.052578654 -0.018570833
0000a0 1b 11 ab bc 85 12 27 3e f0 d3 08 bf a0 5e 3d 3b
       -0.02088218 0.16315658 -0.5344839 0.0028895512
0000b0 ed ea de bc 83 cd ab 3e a5 2a ac bd 3d 41 5e 3d
       -0.02721163 0.3355523 -0.08406571 0.054261435
0000c0 d5 c0 83 bc 11 28 2c 3d 18 d2 31 bd ac a3 ee be
       -0.01608316 0.042030398 -0.04341325 -0.46609247
0000d0 6e 6d 9e 3d c6 d7 2e bd 19 8b 39 3d 5c 9b 72 3d
       0.07735716 -0.042686246 0.04529867 0.059230193
0000e0 8c 39 95 3c c0 5f 06 3c 00 f9 22 bb ec 62 24 3f
       0.018215917 0.0082015395 -0.0024867654 0.6421344
0000f0 35 c5 3a 3d 2f 67 33 3d 40 16 7c 3c 36 26 09 bf
       0.045598228 0.043799575 0.015386164 -0.5357393
000100 84 7c 26 3f ce 61 8a bf 6e bc 9d 3e 3f 7f a5 bc
       0.65033746 -1.0811098 0.30807823 -0.020202277
000110 81 17 c6 3c cd 27 8f bd c4 b6 81 3e db 8a 45 3d
       0.02418113 -0.06990013 0.25334752 0.048228126
000120 a7 45 a0 be c0 1e 9a 3c 85 ec a2 be 5a 95 80 bd
       -0.3130314 0.01881349 -0.31821075 -0.062784865
000130 ea 77 65 bf b1 dc 9f 3e 7a 4b 6f be 65 38 97 3b
       -0.896361 0.31223062 -0.23368636 0.004614877
000140 d0 b4 1e 3f 90 60 46 be 8d fc 35 3f 33 04 9c bd
       0.6199465 -0.19372773 0.71088487 -0.076179884
000150 ab 4e c5 bf 19 24 5e be 52 ca 09 3d 44 f6 16 3e
       -1.5414633 -0.21693458 0.033640213 0.1474238
000160 e2 3e dc be a9 8f 04 3d 8e 96 43 3d 16 81 d0 bc
       -0.43016726 0.032363568 0.047751002 -0.025452178
000170 74 6a 5d bd 85 ee 59 bd cb 5b 8c 3e e7 89 28 3c
       -0.0540566 -0.053205986 0.27413782 0.010286785
000180 a2 d9 5e bd c9 b0 9b bd 67 e0 a1 bd 45 d5 bc 3d
       -0.05440677 -0.076020785 -0.079041295 0.092203654
000190 bc 70 a3 3c 7e bb aa 3d 26 d2 82 3d b4 f4 06 bd
       0.019951217 0.083365425 0.06387739 -0.03294821
0001a0 28 af 96 bc ad 84 55 3e 2f 36 37 be 1f c6 5c be
       -0.018394068 0.20851393 -0.17891763 -0.21559952
0001b0 fb d0 1f be 1a b0 1c bf cd 7a 3f be b6 5d 9f be
       -0.15607063 -0.6120621 -0.18699189 -0.31126183
0001c0 ad 00 84 be fd 99 d7 be 0e 65 0d 3b 8d 79 c2 bc
       -0.25781766 -0.4210967 0.0021575126 -0.0237396
0001d0 2d 51 05 3e 39 52 85 be d0 06 fe be a0 6b 34 3e
       0.13019247 -0.26039293 -0.49614573 0.1761918
0001e0 7a 22 20 bf 7b 2c 5c bd 48 d8 55 3c 78 e9 fe 3e
       -0.6255261 -0.053753357 0.013052054 0.49787498
0001f0 30 a0 f3 be 2c ec 77 bc dd a1 09 be 83 a2 e2 bc
       -0.4758315 -0.015131991 -0.13440652 -0.027665382
000200 ee 78 08 be bb a5 c2 3d c1 21 27 be 6c 7b 56 3e
       -0.13327381 0.09504267 -0.1632147 0.20945519
000210 d0 69 1d 3c 03 59 9e be 28 f4 44 3d 05 9a c7 be
       0.009607747 -0.30927286 0.048084408 -0.38984695
000220 54 74 28 3e 89 d9 95 bc 39 3d f7 bc f3 8e f1 3d
       0.16450626 -0.018292205 -0.03018056 0.117948435
000230 d3 25 1f be 50 25 31 be 38 7c 97 3c db 00 7c 3e
       -0.15541773 -0.1729939 0.01849185 0.24609701
000240 82 8c 40 3d b1 5d e5 bd bc d1 8d 3d 42 91 d6 bd
       0.047009 -0.11199511 0.06924769 -0.104769245
000250 34 e1 f3 3e c2 7a 19 bd 95 45 0f 3e e2 67 d2 bd
       0.47632754 -0.037470587 0.13991387 -0.1027372
000260 cf 6c e8 bb 16 c9 25 bf 9c 94 aa bd 64 da b1 3d
       -0.007093049 -0.6475996 -0.08329126 0.08684233
000270 74 71 be 3c 9d 98 1f bd 54 44 b6 be 2f 67 5e bc
       0.023247458 -0.038963903 -0.35599005 -0.013574406
000280 36 65 3f bd 15 90 74 bd 5f b9 ef bd 06 28 47 3e
       -0.04672738 -0.05970772 -0.117052786 0.19448861
000290 17 78 f6 bc c0 20 85 3d b9 8d f0 bd 20 e3 fc bb
       -0.03008656 0.06500387 -0.117457815 -0.007717505
0002a0 0c 70 c1 bd 5f a3 6a 3d 9d 1a 85 3e 4d 6e ba 3d
       -0.09445199 0.05728471 0.25996867 0.091030695
0002b0 76 2a 59 3f 7c 0f 88 bc 05 2f 35 3d bc 2b 8a be
       0.84830415 -0.016608946 0.044234294 -0.26986492
0002c0 c2 8f ac 3d 5a 94 6f 3e 14 21 9b bd 30 04 d7 3d
       0.08425857 0.23396435 -0.075746685 0.104988456
0002d0 bf 4f 42 be 3e 00 b3 3e f4 04 f0 3d e1 8d 15 3d
       -0.18975733 0.34961122 0.11719695 0.03651226
0002e0 31 4b 17 bd ef 51 3e be 08 1a b5 be 20 8a be 3e
       -0.036936942 -0.18585943 -0.35371423 0.37214756
0002f0 39 da 37 3d b7 e8 c4 3d 6d 18 80 3e 33 3a f8 bd
       0.044885848 0.09614699 0.25018635 -0.121204756
000300 a3 89 e5 3d 65 b6 55 3e 08 e8 70 3e 50 40 71 bd
       0.11207893 0.20870359 0.23526013 -0.058899224
000310 97 e0 29 3e 06 55 34 be 5f 27 7b 3e 6c 7f 18 3e
       0.1658958 -0.17610559 0.24526738 0.14892358
000320 8e 8f ca be 2a 5b 7c 3d d0 b1 7f bd 6a 61 b6 3c
       -0.3956265 0.06161038 -0.062425435 0.022263248
000330 30 f5 a2 bd fd e9 09 3f 8e d8 6c 3d 08 15 50 3d
       -0.07956922 0.5387266 0.05782371 0.050801307
000340 aa 56 59 3e 37 1a 8f bc 93 a3 02 3e e7 17 3a be
       0.21224466 -0.017468555 0.12757711 -0.1817318
000350 53 06 52 3e f2 e2 63 be ee 9b 8f be 5c d7 50 bd
       0.20510225 -0.22254542 -0.28048652 -0.050986633
000360 05 8f bb 3d 08 df f5 3d 5a db 22 be 99 4f cb bd
       0.09158138 0.120054305 -0.15903988 -0.099272914
000370 36 78 be 3d 8a 6c 20 be d2 e8 82 3d c0 66 7c 3e
       0.09300272 -0.15666404 0.06392063 0.24648571
000380 6b d6 bd 3e 35 54 d4 bd a4 12 23 bd 26 da 5d be
       0.3707765 -0.10367624 -0.0398127 -0.21665248
000390 0c cb 8a 3d a7 82 2c 3d 44 37 cc ba 97 c3 23 3c
       0.06777009 0.042116787 -0.0015580435 0.009995363
0003a0 e1 65 93 bc 97 80 03 bc de 43 95 be 76 e4 ea bc
       -0.017992916 -0.008026264 -0.2915334 -0.028673392
0003b0 9d 77 54 be 29 c2 39 bd 89 75 3c 3d 80 4c 71 bc
       -0.20748754 -0.04535118 0.046010528 -0.014727712
0003c0 57 c0 33 3d f2 63 c2 3d f9 ca e6 3c f1 38 f8 bd
       0.0438846 0.09491719 0.028172957 -0.12120236
0003d0 b9 1e cf 3e 60 6d 5f bb 27 98 f9 3c 8a 61 6e be
       0.40453127 -0.0034092292 0.03046806 -0.23279396
0003e0 05 84 95 3e cf 58 ff bb ff 98 8e 3e 08 a4 02 be
       0.29202285 -0.007792569 0.27851102 -0.12757885
0003f0 7f 0d 91 3e a2 21 58 3c 07 e0 06 bc 40 b7 cd bb
       0.2833061 0.013191612 -0.008232123 -0.0062779486

fc2.bias f4 [256]
000000 b0 35 08 3e 5b 51 d8 3d f9 43 bf 3c c5 ab a4 be
       0.1330173 0.10562392 0.023347842 -0.321623
000010 1a 1e fc 3e 3d b3 91 be cf 3b 74 3e 3f 0b 26 3e
       0.49241716 -0.2845706 0.2385094 0.16215228
000020 b8 b0 00 bd 84 1c e5 3c e0 1b 7c bd de 9b 6c be
       -0.031418532 0.027967699 -0.06155002 -0.23106334
000030 26 fb 06 bf 5e 1c f6 be c7 da b9 bd bc 51 46 be
       -0.5272697 -0.48068517 -0.090749316 -0.19367117
000040 bf cf 8c be eb 7a 05 bd 18 c5 88 3e 9c 17 8a 3d
       -0.27502248 -0.032587927 0.2671287 0.067427844
000050 79 ec 40 bd 1e dd be bb 5a 19 1b 3c 3b bd b1 bd
       -0.047100518 -0.005824699 0.0094664935 -0.08678671
000060 aa 1f f1 bb cc 1f 9e bd 41 9c 8b be 0f 8a 54 be
       -0.007358511 -0.077209085 -0.2726765 -0.2075579
000070 17 ac 47 3d a6 e7 f5 bd 67 64 a3 bd a1 5b b4 bd
       0.048748102 -0.12007074 -0.079781346 -0.08806539
000080 28 e8 ef be b4 b8 5c bc 50 38 23 bd 51 39 dd be
       -0.4685681 -0.013471771 -0.039848626 -0.4320779
000090 76 1b cf bc ad 2d 02 ba 8e ca d4 be 7a 17 fb be
       -0.02528165 -0.00049659127 -0.41560787 -0.4904135
0000a0 f4 b0 b6 bc 62 53 6b 3e e4 4b da 3d 68 7d 1f be
       -0.022301175 0.22981027 0.10659006 -0.15575182
0000b0 5c 49 b2 bd f8 ad dd bc a8 89 28 bc fb 82 03 be
       -0.087053984 -0.027060494 -0.010286726 -0.12842934
0000c0 fb 21 40 3c 26 45 f0 bc 3a 23 3b 3e 3a 34 9b be
       0.011726852 -0.029329848 0.18275157 -0.30313283
0000d0 44 2b 8f bc 4d 97 b5 bc 37 41 2b bc 99 72 92 bd
       -0.017476685 -0.022166872 -0.01045256 -0.07150764
0000e0 39 eb 38 be 96 02 1e bf 4d 4b e4 bd b9 36 18 3c
       -0.1805848 -0.61722696 -0.11147175 0.009290391
0000f0 f8 cc 88 3b c8 5d c7 3e 3d 56 f5 3d c3 16 9c bb
       0.004174825 0.38938737 0.11979339 -0.0047634556
000100 20 68 1e 3e 77 29 6c bc 5c 8b ce bd 85 fa 31 3e
       0.15469408 -0.014414183 -0.100851744 0.17380722
000110 ec a8 9e be 2a 9b 0a be a6 20 12 be b4 00 91 be
       -0.30988252 -0.13535753 -0.14270267 -0.2832085
000120 1b 84 8e be 3b 43 14 be 62 71 dd be 97 0e 1b bd
       -0.27835163 -0.14478771 -0.43250567 -0.03785571
000130 2f d1 65 3d 55 d3 80 3d b3 47 1e bc 13 68 d5 bc
       0.056107696 0.062903084 -0.009660649 -0.026050603
000140 7b e4 b0 bd b4 a1 89 be 0b ec cc be 7b ed 1f bd
       -0.08637329 -0.26881182 -0.40023836 -0.03904484
000150 c9 5a 05 3e b2 81 ad be 54 40 e3 bd ba 19 05 3e
       0.13022913 -0.33888012 -0.11096254 0.12998095
000160 e0 78 17 bf c0 64 f0 bd 2e bd 72 bd e4 58 7b bd
       -0.59168816 -0.117379665 -0.059262447 -0.06136407
000170 f5 43 2e bc 6e e2 0a bf 3e 68 17 bd 79 1e 86 bd
       -0.010636319 -0.54251754 -0.036964647 -0.06548781
000180 f2 5f 65 be e2 8a a9 be f4 f5 c4 bc 52 af 88 bd
       -0.22399881 -0.33113772 -0.02404306 -0.06674065
000190 5b b1 43 bc 0d 63 08 be 39 a1 ea bd 37 17 25 3e
       -0.01194414 -0.13319035 -0.11456532 0.16122137
0001a0 f9 cc bd bd 03 1f 1b be 02 49 11 3e 38 4e 9f bd
       -0.09267611 -0.15148549 0.14188007 -0.07778591
0001b0 97 9d 25 bf 6a 54 51 bd d6 2c 53 bd 40 5e 69 bc
       -0.6469359 -0.051105894 -0.05155643 -0.014243662
0001c0 9d 2e 5e bd 11 46 68 be 80 b6 bc bd bc 53 bf bb
       -0.054243673 -0.22682978 -0.092144966 -0.0058388393
0001d0 3e 2f 73 bd bf 6c a5 bd e0 f7 36 3b e5 cd 25 bb
       -0.059371226 -0.08077382 0.002791874 -0.0025299725
0001e0 35 e0 8c bd 73 66 a4 3d 78 dd 84 bd fd ef 5d be
       -0.068787016 0.08027353 -0.06487554 -0.2167358
0001f0 c7 fe 78 bd 27 a7 00 bc a5 5e 5a bd 08 d7 9d 3d
       -0.06078985 -0.007852352 -0.053312916 0.077070296
000200 fa a2 83 be 2a 46 56 bc 1c 15 31 be a9 4f e2 bd
       -0.2571028 -0.013078252 -0.17293209 -0.1105035
000210 c1 d5 93 bd ac 44 31 3d 51 5c b4 3e 9b ac 25 3e
       -0.07218505 0.04327838 0.35226682 0.16179125
000220 90 9e aa be 34 50 f9 bc 2a cb af bd bf d0 04 bc
       -0.333241 -0.030433752 -0.08583672 -0.00810641
000230 2b 81 3e bd 75 fc 49 bd d9 ab a7 3c d7 73 e2 bc
       -0.046509903 -0.049313027 0.020467686 -0.027643127
000240 73 92 c2 bc f0 69 23 3d 9f 28 55 bd 06 ca 25 3d
       -0.023751473 0.03989595 -0.052040692 0.040475868
000250 d1 d6 80 be 9e 6c 98 be 00 4d e2 3e b0 58 a5 be
       -0.25163892 -0.29770368 0.4419937 -0.32294226
000260 9a df 98 bd 9b db 26 bd 5e 08 f7 bd 14 78 a6 3b
       -0.074645236 -0.040736776 -0.12062143 0.0050802324
000270 a8 d5 c2 bd a2 3b cc 3b 99 51 90 be 2c 60 23 be
       -0.09513408 0.0062326947 -0.28187254 -0.15954655
000280 c1 cc b3 be 9e af 1c bf 39 bb 88 bd 48 83 6e bd
       -0.35117152 -0.6120547 -0.06676335 -0.05823067
000290 aa 51 28 3d 6f fe 8a bd f0 17 70 be 21 7a f9 bc
       0.041093506 -0.067868106 -0.23446631 -0.030453743
0002a0 22 fc 42 bd 9b 0d 89 3e 8d 7a c5 bd 7c 88 7e bd
       -0.047603734 0.26768193 -0.09642515 -0.06214188
0002b0 56 4a 38 bd 70 f2 ac be b9 13 0b be cb 05 9d be
       -0.044992767 -0.33778715 -0.13581742 -0.30668482
0002c0 cd e5 0a 3c c5 b7 7a bd 38 40 e3 bc d4 89 32 3e
       0.00847764 -0.061210413 -0.027740583 0.1743539
0002d0 bc f3 f7 bd fb 2f 82 be 6c 25 82 be 66 5b ad bd
       -0.121070355 -0.2542723 -0.25419176 -0.084646985
0002e0 ec 9d 91 bc bc 24 3b bc be 3e 01 3c 92 e0 aa bc
       -0.017775498 -0.011422332 0.007888494 -0.020859037
0002f0 7e cd 1d 3e a9 cb 8e bd 9e a2 01 be 61 ce 55 bc
       0.1541042 -0.06972439 -0.1265969 -0.013049693
000300 4c e3 db 3c af e5 7d bd b5 85 0f 3e 68 d1 aa bd
       0.026841782 -0.06198662 0.14015849 -0.08340722
000310 d1 15 c5 3d df 66 fc be af 0f 71 bd 7d b3 ea bd
       0.09623302 -0.49297234 -0.058852848 -0.11460016
000320 b2 7f 5d 3c b6 7b 18 bf 73 56 8f bd 94 8d 69 3c
       0.0135192145 -0.5956377 -0.06998911 0.014254946
000330 25 6a 93 bd 5f 99 ac 3d 85 d0 37 be 2e 01 86 3c
       -0.0719798 0.08427691 -0.17950638 0.016357984
000340 9e 3f 16 3c 78 47 12 3d e2 23 23 bf 4e 77 f9 bc
       0.009170441 0.03571269 -0.6372663 -0.030452397
000350 bf 03 5a 3e c3 11 6b bd ad ea be 3c b9 55 cb be
       0.21290492 -0.057389986 0.023305262 -0.3971384
000360 08 85 48 3e 65 d0 27 be a4 28 8a bd c4 73 cb bb
       0.19581997 -0.1638809 -0.06746033 -0.0062088687
000370 63 1f 46 bf 05 53 99 bd 98 f2 0d 3e a9 b8 24 be
       -0.7739164 -0.07486538 0.13862073 -0.16086067
000380 69 a6 d0 bd 42 5d 32 be 77 3b 09 3c dc 24 41 be
       -0.1018799 -0.17418388 0.008375994 -0.18861717
000390 93 b6 b8 3c 42 0c d0 bc da 18 60 bd 98 92 47 bc
       0.022547996 -0.02539647 -0.0547112 -0.012180947
0003a0 25 04 01 3e a4 69 78 3e 6f 11 a5 3b c1 e5 db bd
       0.12599237 0.24259049 0.0050374786 -0.107371815
0003b0 fe ba 10 3d 9d 99 8e 3d ee c8 dc be 5c 48 7a bd
       0.03533458 0.06962893 -0.43122047 -0.061104164
0003c0 0f 37 8d be 4d 37 4e bc f8 27 c0 3c 10 49 7e be
       -0.2758107 -0.012586427 0.023456559 -0.24832559
0003d0 4f ff 0c be da ca ac bd e1 0b b4 3c 25 27 55 be
       -0.13769267 -0.08437128 0.02197832 -0.20815714
0003e0 ba 7e f4 3a e2 9f 07 be dc da fb bd 8b 36 09 3e
       0.001865349 -0.13244584 -0.122976035 0.13399713
0003f0 04 6c c3 3d 07 24 aa bd 3f 1a ca be 8a bd ca be
       0.09542087 -0.08307653 -0.3947315 -0.39597732

fc3.weight f4 [3, 256]
000000 2c 5f 8a be 41 08 1c be 9c 60 65 3b dc 86 99 be
       -0.27025735 -0.15237524 0.003500021 -0.29985702
000010 01 62 47 3e 3b bf f1 be 92 f0 3e bf 50 ed 0f 3d
       0.1947098 -0.4721621 -0.7458583 0.03513843
000020 3e 0d 25 3c 0e d4 32 3c 9e a8 39 3e 2c be 19 bf
       0.010073958 0.010914816 0.18130729 -0.60055804
000030 30 af 69 3e ad d9 8b be 03 e4 b1 bb e6 45 f2 bd
       0.22820735 -0.2731451 -0.0054287924 -0.11829738
000040 e5 8c 23 bf 7c 49 68 bc 96 91 fe bd e1 29 44 bf
       -0.63886863 -0.014177676 -0.12430112 -0.766264
000050 ee 7a e5 be 0f a3 5e 3b b7 21 74 bf 50 f3 22 bc
       -0.4482035 0.0033971702 -0.95363945 -0.0099457055
000060 52 59 08 bc ce 95 c1 3f ef 06 c6 3e 43 49 a8 be
       -0.008322077 1.5123842 0.38677165 -0.32868394
000070 40 15 62 bc ba fd d7 3e df 6a 0a 3c 08 cf 5c 3b
       -0.013799012 0.42185766 0.008448332 0.0033692736
000080 46 73 a4 3e a2 dd ad be d5 52 dc 39 87 f7 8e be
       0.32119197 -0.33958155 0.00042023385 -0.27923223
000090 c5 2a bf bb b3 0f 7e 3a 37 93 f6 be 2f 4a 82 bf
       -0.005833956 0.00096916704 -0.4815919 -1.0178889
0000a0 95 30 2a 3c f4 a6 81 3e ef a6 4d 3d a7 8e 80 3e
       0.010387559 0.25322688 0.05020803 0.25108835
0000b0 e3 1d aa be f1 4a 24 bf 7f af e1 bb 73 08 06 3c
       -0.33225927 -0.6417685 -0.006887376 0.008180725
0000c0 8f b1 36 bc 99 df 0f bc 50 40 34 bf 8e 3e 05 bf
       -0.011150732 -0.008781337 -0.70410633 -0.52048576
0000d0 55 91 23 bf 54 32 0a 3c 11 79 ea be 8a 41 b7 3b
       -0.63893634 0.008434851 -0.4579549 0.0055925297
0000e0 92 bf 09 3f 5f 20 1b 3e 02 3c ce 3b 78 7f c0 bb
       0.5380794 0.15149067 0.0062937746 -0.0058745705
0000f0 b9 99 8b 3b 07 07 1a be 47 3b d7 be 6e 61 24 3c
       0.0042602685 -0.15041743 -0.42037413 0.010032995
000100 82 05 8c bf 96 49 02 bc 44 7f 09 3f ea 78 93 bc
       -1.0939181 -0.007952115 0.53709817 -0.018001992
000110 51 96 6f be 60 5b 93 3d 97 9e ce 3e da db 1a 3f
       -0.23397185 0.07195163 0.4035537 0.60491717
000120 cc 98 a1 3e c1 7b 5c bf db 01 6f bd de 18 2f bd
       0.31561887 -0.86126333 -0.05835138 -0.042748325
000130 61 f0 fc 3e b4 2f a2 be 88 aa 43 b9 9a 49 73 ba
       0.49402145 -0.3167702 -0.00018660177 -0.0009280682
000140 db 23 b9 bd fb 4d ee 3e 83 b0 30 3f 51 36 32 3c
       -0.09040042 0.4654387 0.69019336 0.010877208
000150 16 19 54 3f 56 1e 04 3f 16 67 55 3f fc 21 0b bf
       0.8285078 0.5160879 0.8336042 -0.5434873
000160 2a 94 eb bd 6d 49 d0 bc 77 4a 15 bb b2 ba 0a bf
       -0.115028694 -0.025425637 -0.002277998 -0.54191124
000170 08 56 4d bd 9b e7 22 3f 0f c2 c6 3b 32 f9 ce 3e
       -0.050130874 0.6363465 0.006065614 0.40424496
000180 44 7b f2 be 35 8a fd 3e 14 1b f8 3c 74 ba 0e bf
       -0.4735967 0.49519506 0.03028635 -0.55753255
000190 d9 e0 60 3b d7 d8 9b 3e c3 f0 ba 3e 8b b5 e6 be
       0.0034313707 0.30438873 0.36511812 -0.4506038
0001a0 2b aa 58 be ff 30 be be 0b de ea be c9 cc 64 bc
       -0.21158664 -0.37146756 -0.4587253 -0.01396484
0001b0 05 05 3d 3d 3a 23 77 3a 3e 01 3c 3a 29 e1 05 bf
       0.046147365 0.00094275514 0.0007171816 -0.5229669
0001c0 d1 c9 da 3e 7b 4a 23 3f c8 2b dc 3a f3 4d 0b 3b
       0.427321 0.63785523 0.0016797716 0.0021256178
0001d0 82 57 4d bc b1 b5 3a 3b ac 9e c6 bb 99 f2 64 bc
       -0.0125330705 0.0028489644 -0.0060613956 -0.013973855
0001e0 51 a6 bb 3b 91 88 7f be 97 35 23 3d 1f 13 1f bf
       0.0057266136 -0.2495444 0.03984603 -0.6213855
0001f0 76 3d c9 be d3 b7 a2 3e 91 2f c7 bc 4b 63 0e bf
       -0.39304703 0.31780872 -0.024314674 -0.5562026
000200 4e c8 cb 3e 2f 2a de 3e dc 48 65 bc 2e 4b 10 bc
       0.39801258 0.4339156 -0.013994422 -0.008806987
000210 e9 0c f1 b8 30 e4 55 bf 37 91 da be 49 e1 d2 3e
       -0.0001149418 -0.8355131 -0.42688915 0.41187504
000220 ed fc 92 bd 25 59 e1 bc 9c 73 b6 bb d7 f7 d7 be
       -0.07177148 -0.027508328 -0.005567981 -0.42181274
000230 2f 58 1d 3c 3b 60 8d 3e e8 19 51 bf 18 69 08 b9
       0.009603544 0.2761248 -0.81680155 -0.00013009121
000240 17 e3 fe b9 fc 66 bd bc 7f 37 2c 3b 88 cf a7 3e
       -0.0004861585 -0.023120396 0.0026278195 0.3277552
000250 ba e4 cd 3d 88 5d d5 be e7 e8 04 3e 1a c0 f7 be
       0.10053392 -0.4167292 0.1297947 -0.4838875
000260 98 ec 24 ba 06 a5 d4 be 8e 71 a2 3e ea 3c f6 bb
       -0.0006291359 -0.41532153 0.3172726 -0.0075145857
000270 03 79 97 bb 9e c1 86 bb b2 4f d1 be 78 84 bf 3e
       -0.00462258 -0.0041124364 -0.40881115 0.37405753
000280 f9 d4 7b bf bf 00 09 be 8e 31 90 3d f2 ff d7 bb
       -0.98371845 -0.13379191 0.07040702 -0.0065917904
000290 57 8d 0a 3f fd 37 3d ba 74 84 e5 3e aa 18 19 3e
       0.5412192 -0.0007218121 0.44827616 0.14950815
0002a0 e4 27 12 bf 11 9f 88 3e b1 50 ae 3e cb fd 96 b9
       -0.5709212 0.26683858 0.34045938 -0.0002879932
0002b0 17 64 30 bf 26 61 29 3d e7 04 9b 3e 03 02 a3 be
       -0.68902725 0.041352414 0.30277178 -0.31837472
0002c0 f7 84 2e ba 8b 16 61 3e 2b 2d ba 3b 09 43 46 bf
       -0.00066573865 0.21981256 0.005681654 -0.7744604
0002d0 fd ce f6 3e 22 25 90 bf 4a 05 2a be 45 66 90 bf
       0.48204795 -1.1261332 -0.1660358 -1.128121
0002e0 55 d7 ad ba 30 5c 11 bc 16 ac cf bb eb 12 68 3d
       -0.0013263026 -0.008872077 -0.006337653 0.056658667
0002f0 20 5e 8b 3f 21 cc 6b 3f e1 26 58 bf 85 c8 98 bb
       1.08881 0.9210835 -0.84434325 -0.0046625757
000300 d0 4d 2f 3b fc a3 fa be eb 5a 91 bd 0f a2 38 bc
       0.002674926 -0.48953235 -0.07097419 -0.0112691065
000310 24 e3 05 be b1 ec 04 3f 21 fc 47 bf dc 63 17 3c
       -0.13074929 0.5192366 -0.78119093 0.009240117
000320 0b bc 6c 3b 92 4c 78 bf ea ec e4 bc 0e 38 65 ba
       0.0036122825 -0.9699184 -0.027945 -0.00087440095
000330 c0 a3 2b bf 29 00 f0 be e2 bc ae be 0c 2c 82 be
       -0.6704674 -0.46875122 -0.3412848 -0.2542423
000340 8b 8d 21 3f 44 a6 cf 3d e7 bd 34 3f c9 68 99 bc
       0.631066 0.101391345 0.7060227 -0.018726723
000350 0a 6e 97 3e 73 45 a5 bb 49 59 3b bb 84 de ca 3e
       0.2957614 -0.0050436794 -0.0028587154 0.3962289
000360 6c e1 45 3f 8e dd 0e 3f be 63 4d bb 74 0c 94 bc
       0.7729709 0.55806816 -0.0031339969 -0.018072344
000370 37 b2 1c bf 08 35 9e bb bc c1 0d bf 6a ba 90 bd
       -0.61209434 -0.004828099 -0.5537374 -0.07066806
000380 db af 85 be 06 09 2e 3e 59 b1 be bb e6 28 97 be
       -0.2611073 0.1699563 -0.0058194813 -0.2952339
000390 44 2d 04 bf f7 8e 9f be 4a e7 bd be 28 1e ec be
       -0.5163157 -0.3116376 -0.37090522 -0.46116757
0003a0 d5 ed ec bd 22 26 8d 3d ee b8 7e 3e c7 08 58 bc
       -0.115688 0.06892039 0.24875233 -0.013185686
0003b0 06 57 4d 3c 8c 58 6d be 28 84 d4 3e a2 f6 12 bd
       0.012532955 -0.23178309 0.41507077 -0.03587974
0003c0 35 46 97 3e 4e ef 52 bc ff 2c 4f 3e 01 10 cc 3d
       0.2954575 -0.0128744375 0.20232008 0.0996399
0003d0 aa b0 ce be 0a 7e ee bb f1 33 2e 3c be 19 a5 be
       -0.4036916 -0.0072782086 0.010632501 -0.32246202
0003e0 e3 f1 6f bc 67 64 03 bf 93 1b 56 3e 82 ac a7 bd
       -0.014645073 -0.51325077 0.20908956 -0.081872
0003f0 3d 8c 4c 3e e1 b1 2b 3b 47 9c 95 3e 31 22 33 3f
       0.19975372 0.0026198553 0.29220793 0.69974047

fc3.bias f4 [3]
000000 ec dd f2 be cd b2 25 3e 72 59 ab 3d
       -0.47434938 0.16181488 0.0836667
