runs/checkpoint_critic_2566_192021_tau1_1970.pth (torch, 356559 bytes, 7 tensors)

head.weight f4 [256, 22]
00000000: 6a61 49bb e9f1 d2be 5745 56be e338 dfbe
00000010: 8e97 f53e 5a02 cc3e 1ffe 483c 4714 3d3f
00000020: a7ba be3e f847 9d3e 88c3 8ebe 2ada 24bd
00000030: 10d1 09be 7752 15bf 0b28 2cbf db44 9c3e
00000040: 0355 8f3d ee07 213f 7df9 90bd 1431 033f
00000050: 7474 2740 422f 4cc0 438a 8f3c b7f7 84be
00000060: 27b5 053e 7722 ad3d f9ab cf3f ea1a b23e
00000070: 8847 8f3f 017b 1e3f 1339 493e 8b0a 43bd
00000080: a5b0 25be 71ac 40be c8a6 4dbe f38b b3be
00000090: dbf5 7bbe d3c7 21bf d1d0 763f 875b c1bd
000000a0: 5307 92bd a0c0 72bd 96f3 d5bf bd0f 493e
000000b0: 84e0 a13b 9dce 11be 1a32 92be 2b44 99bd
000000c0: 0d0e a23c 7416 79bd 0c06 7b3f eda7 9bc0
000000d0: 326b 99c0 c994 98c0 4366 c33e b46b cc3e
000000e0: eb1c 153e fed2 60be 9efc e53e d9d3 85be
000000f0: 0d89 b63e f754 8abc 9d3b 09bf d90b 79be
00000100: 7eb3 29be 8380 cfbe 641c f6bb 3353 f9be
00000110: 0516 153f fe46 b53d 1fbd d5be 9d48 403d
00000120: fc74 9bbf 32c2 c03d 85b4 8c3e 450a e93e
00000130: f73f a73d 6371 693e 2577 013e 75ac 5a3e
00000140: 227f 50be cd6e a4bd 6023 61bd 8d79 76bd
00000150: 176d 223e cd98 f1bc 00f6 3b40 2e52 7e40
00000160: 145c 76b8 3025 5c3d c50b 3bbf 68e1 8f3e
00000170: bc0a 9fbb fede 1f3e 8f11 34be dc09 a6be
00000180: 2afb 10bf a330 75bf b473 3abe a1d5 91be
00000190: d476 d5bd f1a9 273f b11e d7be bc05 fabd
000001a0: 385d a73e d928 af3d 04af b1bf ba86 7cbc
000001b0: 1830 4c3f 6fe0 443e 7155 90bb ca3b 843e
000001c0: 2c87 15bf 2eed 64be 106c 94bf c5c0 453e
000001d0: 72a1 9cbf a0f2 5bc0 43ad 43c0 330b 12c0
000001e0: afae c73c 95da 5fbe bc5d 52be ee88 09bf
000001f0: 7494 b0be 69ed bbbe bbc3 a83e cb0e 3bbe
00000200: c949 ecbd 2f6b 75bf 5107 b93f 4278 363d
00000210: 4319 79ba 2b51 85be a445 8dbe ec1e 6b3d
00000220: d93b 55bd bb54 ddbd bdd6 57be d268 47bf
00000230: 0997 85bf 7592 1fbf 9b10 d03e c3d8 0a3f
00000240: e28e 8c3e 5ef6 0cbe 5105 ce3e e978 0cbf
00000250: 23bc 033f 3bd5 1e3f b696 e9be bd92 a3be
00000260: a9b4 0ebf a8fd 88be 2936 6f3b 1722 a4be
00000270: 11f7 863f 1726 bd3d 4a95 543f 6ebc 9abe
00000280: 139f 313f 33d8 e4be ca85 10bf b64d d5be
00000290: dade 17bf 6196 fbbe 00b3 24be e79d 6fbc
000002a0: 574c 063e e248 093c 96d4 843e 4e83 6a3e
000002b0: 9820 bfbe c3a1 e6bd 65e2 10c0 a193 01c1
000002c0: 74e4 9438 dbb3 813e 3972 a63e c5e3 52be
000002d0: 6373 eb3e 78a8 fe3d 305e 433e d826 83be
000002e0: 997d debe c946 17bf 43c8 373e 5684 cb3e
000002f0: 02ec 47be e894 13bf 900e 523f ae75 f9be
00000300: ff55 14c0 d0d9 a5bf 718a 0dc0 d6ce 9dbe
00000310: bca3 9a3e 8007 0e40 f054 60bc 7ae5 d93e
00000320: b243 0dbf 3169 133d f217 6a3f f670 3a3d
00000330: 0504 bc3f 94b0 c1bd 9d67 f23d fd1a bebe
00000340: aac8 73bd 5922 a4be 2339 b3be 9bd2 d9bc
00000350: efbb f13d cc19 b0bd f0cb 26be 7639 3f3d
00000360: 46f0 4f3e 5b13 35bf cbe1 4dbf 1473 bbbe
00000370: 6d61 0fba 6b03 75be 0cb4 5f3e c4ac 14be
00000380: 0274 fcbd d494 283d f040 273f 007b 72bd
00000390: 1af3 67bd 8657 59bf 0d2d af3e 31fc fc3e
000003a0: cc49 123f cd7f 1e3d aca2 153f af6f 113e
000003b0: cdf4 d7be a115 bbbd aec3 13bf 2c24 ddbe
000003c0: 0466 a6bf 37e3 823f 9bcb 033a 6549 adbd
000003d0: f59d 523e 1a30 433e 3b20 89be f3b9 fbbe
000003e0: 8aa6 613f d413 54bf 1120 1abf 68ed 06bf
000003f0: 4544 c93a 5d90 c7be 2140 23be 32d1 68be
-0.003072823 -0.41200188 -0.20924889 -0.4359809 0.4796719 0.39845544 0.012267618 0.73859066
0.3725178 0.3071897 -0.27883554 -0.04024712 -0.13458657 -0.58328956 -0.672486 0.30521283
0.069986366 0.62902725 -0.07078836 0.5124676 2.6164827 -3.1903844 0.017521983 -0.2597024
0.13057385 0.08453839 1.6224357 0.3478616 1.1193705 0.6190644 0.19650678 -0.047617476
-0.16180666 -0.18815781 -0.20083153 -0.3506771 -0.24605505 -0.6319553 0.9641238 -0.094412856
-0.07130303 -0.059265733 -1.6714962 0.1963491 0.0049400944 -0.14238973 -0.2855385 -0.07483705
0.01978209 -0.06081243 0.980561 -4.8642488 -4.7943354 -4.7681623 0.38163957 0.3992592
0.14561813 -0.21955487 0.44919294 -0.2613819 0.35651436 -0.016886218 -0.5360659 -0.24320926
-0.16572377 -0.40527734 -0.0075107086 -0.48696288 0.58236724 0.08851431 -0.4174585 0.04694425
-1.2145076 0.0941204 0.27481475 0.45515648 0.08166497 0.2279716 0.12643106 0.2135485
-0.20360997 -0.08028946 -0.054965377 -0.060174514 0.15861927 -0.029491806 2.9368896 3.9737659
-5.8736725e-05 0.053746402 -0.73064834 0.2810166 -0.0048535746 0.15612409 -0.17584823 -0.32429397
-0.56633246 -0.9577734 -0.182082 -0.28483298 -0.10423055 0.65493685 -0.42015603 -0.12208125
0.32688308 0.08552713 -1.3881536 -0.015412981 0.79760885 0.1922624 -0.0044047167 0.25826865
-0.5840938 -0.22356102 -1.1595478 0.19311817 -1.2236769 -3.4366837 -3.05745 -2.2819335
0.024375288 -0.21860726 -0.2054357 -0.53724563 -0.3448826 -0.36704567 0.3296183 -0.18267362
-0.11537511 -0.95866674 1.4455358 0.04454828 -0.00095023605 -0.2603849 -0.27592194 0.057402536
-0.05205903 -0.10807177 -0.2107801 -0.7789432 -1.0436717 -0.6233285 0.4063767 0.54237
0.2745276 -0.13765857 0.4023843 -0.54871994 0.5145895 0.62044114 -0.45622796 -0.3194789
-0.55744416 -0.26756024 0.0036500788 -0.32057258 1.0544149 0.09235781 0.830403 -0.30221885
0.69383353 -0.44696197 -0.56454146 -0.4166085 -0.5932442 -0.49138168 -0.16083908 -0.014625049
0.13115059 0.008379193 0.2594344 0.22901651 -0.37329555 -0.11261322 -2.263818 -8.098542
7.099743e-05 0.2533253 0.3250902 -0.205947 0.4598647 0.124344766 0.19078898 -0.25615573
-0.43455198 -0.59092385 0.17947488 0.39749402 -0.19523624 -0.5764909 0.8205347 -0.48722595
-2.3177488 -1.2957096 -2.2115748 -0.30821866 0.30203044 2.2192078 -0.013692126 0.4255789
-0.5518142 0.03598899 0.9144279 0.045517884 1.4688727 -0.09457508 0.11836169 -0.37129965
-0.05951754 -0.32057455 -0.3500453 -0.026589682 0.118034236 -0.0859867 -0.16288733 0.04668566
0.20306501 -0.7073266 -0.8042266 -0.36611235 -0.00054695347 -0.23927085 0.21846026 -0.1451903
-0.12326814 0.04115756 0.6533346 -0.059199333 -0.056628324 -0.84899175 0.3421406 0.49411157
0.57143855 0.0386961 0.5845134 0.1420276 -0.42178956 -0.09134985 -0.5772046 -0.4319166
-1.2999883 1.022559 0.0005027593 -0.084612645 0.20568068 0.19061318 -0.26782402 -0.49165305
0.88144743 -0.82842755 -0.6020518 -0.52706003 0.0015355429 -0.38977328 -0.15942432 -0.22736052

head.bias f4 [256]
00000000: 9974 d73d f861 9fbe fe28 3c3f bb83 15be
00000010: 11f0 26be 8645 b43d 0c71 d83e db56 23bf
00000020: 07f3 2bbd ed32 26bf 780b 523f e8b2 3cbf
00000030: f18b 083f 7c8d 083e ab7d 8fbf d4cf 3dbf
00000040: 71da 923e 6631 b4bd c003 7a3e dd51 06bf
00000050: 701a 833f 2434 bf3e 9e1f afbb 0194 923d
00000060: 1b43 bcbe 2359 94bf 326e 453e b096 bcbe
00000070: 3cc9 afbe 7755 fb3e e420 f8be e5ee 7cbf
00000080: a0bf 14bf 0905 10be 7970 38be d47a 963e
00000090: cca6 36bf f82f d2be 580d 763f c6cf 3a3f
000000a0: d6c3 b3be bfea 913e dae4 87bb 83ac 59bf
000000b0: 8ada 96be c055 80bf a285 4fbd 5bc0 863f
000000c0: 5c01 32bf 6d56 1b3f 83a7 0f3f 1015 bbbe
000000d0: c24f 97bd fab6 b73d d4f3 81be 6d16 12bf
000000e0: d152 57bf b63a 40be 7c5a 0abf ee3f af3a
000000f0: 5f53 cf3d 524d e3bd 501c f7bc 1716 e3be
00000100: a890 1d3e 639f 7bbe ee6c 3ebe b2a1 e63d
00000110: c447 e23e fa15 d93c 17d7 8abd bcc4 43be
00000120: f899 4abf b727 9abd 48a8 bd3e 6522 1ebf
00000130: 1a24 183e 23f8 233f efc2 5dbf feb5 143e
00000140: e9a8 2e3e 15ea 1d3e f6b2 41ba d8e1 65bf
00000150: a5f4 71bf a262 773e 84b0 a0be a613 03bc
00000160: b849 10bf 3ab9 22bf 775c 9ebe 733a 75bf
00000170: b5e4 893e b022 7f3f 4f88 103e f37e 9abe
00000180: c5cf 463f 3376 2abf 0861 603f f9a3 803c
00000190: cba9 993e 4c9f 8fbe 9027 e33e c7f4 7bbe
000001a0: eaf3 3e3f e629 6cbd 2a77 7cbf 2262 82be
000001b0: 6934 f63d 4a2a 78be 5922 b3bd 6f72 b8be
000001c0: 287f 35bf 43ca 973f 6d1c 06be 5d8c aabe
000001d0: 643f b73d e33f 14bf 4602 da3e 3663 993d
000001e0: df59 8cbf b7b8 30be a01b c8bc 9cd3 90be
000001f0: 0d26 38be 4d02 19bf 003b 513d dfaa 683f
00000200: 4d45 76bf e26e f4be 5600 2bbe 8fd2 103f
00000210: eed3 853e d24e cd3d 1e54 76bf f36e 403e
00000220: 51d6 c8be 1fa3 30be d9fc 99bd 30b7 b03d
00000230: c004 503f 9258 5bbe 811b 3b3e 37a9 7abf
00000240: 1609 bb3f 4cd4 213f 3347 f4bd 962b 4b3e
00000250: c91e 313f 0011 06be 4b41 bf3d e271 0a3f
00000260: dfaa cabe 69ea 943f 912f 1dbf 94a2 de3e
00000270: 5b62 95bf 73f4 2abd f4c7 25bf d560 9b3d
00000280: e7c5 44bf d0fa 56bf 24b7 53bf 8b6d 05bf
00000290: 9358 993e ec81 063f 42f3 4b3f 3552 273f
000002a0: 3ec4 05bf b7bd 8bbf 005b 1ebf 2ca4 b5bd
000002b0: 5d48 1abf a038 2abf e437 143f c960 a9be
000002c0: 48a9 0a3d 23a3 1a3d 29a1 acbf c8c1 113f
000002d0: 903b 7e3f 74a2 32bf 1453 94be 3b33 cabe
000002e0: c41b d6bd 1b4e 073f 3fda bfbd a1a8 17bf
000002f0: b19e 2fbf 89dd aa3e e719 a1be 41cf 3abf
00000300: 6ad6 87bd 9f1d ae3e ce77 fe3e 9d09 5ebf
00000310: a53b 42bf cc37 17bf 4fa7 bfbd ccbc 0ebf
00000320: 1503 f1bb 20fa fdbe a80c c7be 456f 3fbf
00000330: 91eb e63d afb0 113f 6852 d53d b7d7 4dbe
00000340: 4f45 26bc ad31 0ebf e2aa a53f d204 b43e
00000350: 4e6b 4f3f 8eff 033e 4340 cbbe 1794 b5be
00000360: 8ced 37be 4b35 3b3e 801a 4abf 0e53 e0be
00000370: e56b e93d fdb8 e1be f75c 863f 6108 623c
00000380: beb9 78be 68aa a13f 238a b83e 3fa2 0ebf
00000390: bbad 753f 0f38 06bf 1336 713f 2814 d7be
000003a0: 7ad5 0abf f885 c23d b93b 47bf 627b 273c
000003b0: 7f9f 8bbe 46c6 88be 30c5 66bf a569 d4be
000003c0: 3e66 f53e b8b5 e93c 006f 293f 05c7 df3d
000003d0: 3790 acbe 139e 6e3f 5411 483d d6f2 92be
000003e0: 9d7e 43bf 506e 3b3d 3e4c f53e 8477 c13d
000003f0: 5532 a4be 1f9f 12bf b628 b9be 7c23 5abe
0.10520286 -0.31129432 0.7350005 -0.14601032 -0.16302516 0.08802323 0.42273748 -0.63804406
-0.041979816 -0.64921457 0.8204875 -0.7371049 0.53338534 0.13335222 -1.1210226 -0.74145246
0.28682283 -0.087984845 0.24415493 -0.52468663 1.0242443 0.37344468 -0.0053443452 0.07157136
-0.36769947 -1.1589702 0.19280317 -0.36833715 -0.34333217 0.49088642 -0.48462594 -0.98802024
-0.58104897 -0.14064421 -0.18011655 0.29390585 -0.7134826 -0.41052222 0.9611411 0.7297329
-0.35110348 0.2849941 -0.0041471543 -0.85028857 -0.29463607 -1.0026169 -0.05066455 1.0527452
-0.69533324 0.6067875 0.5611498 -0.36539507 -0.073882595 0.08970447 -0.2538134 -0.5706547
-0.8411074 -0.18772396 -0.5404432 0.0013370493 0.10123324 -0.11098732 -0.030164868 -0.4435279
0.15387213 -0.2457252 -0.18596241 0.1126131 0.44195378 0.026499737 -0.067793064 -0.19118017
-0.7914119 -0.07527106 0.3704245 -0.6177123 0.14857522 0.640505 -0.8662557 0.1452255
0.17056622 0.15421326 -0.0007389033 -0.89797735 -0.9451392 0.24158719 -0.3138467 -0.00800029
-0.56362486 -0.63563883 -0.3092992 -0.9579231 0.26932302 0.99662304 0.14114498 -0.3017498
0.7766078 -0.6658661 0.8764806 0.015703188 0.30012354 -0.2805122 0.4436612 -0.24605094
0.74590933 -0.057657145 -0.9861933 -0.25465494 0.12021715 -0.24234882 -0.08746786 -0.36024806
-0.7089715 1.18586 -0.13096781 -0.33310214 0.08947638 -0.57909983 0.4257986 0.07489626
-1.0964926 -0.17257963 -0.024427235 -0.28286445 -0.17983265 -0.59769136 0.051081657 0.9088573
-0.96199495 -0.47740847 -0.16699347 0.56571287 0.26138252 0.100247994 -0.962221 0.18792324
-0.3922601 -0.17249726 -0.0751893 0.0862869 0.8125725 -0.21420506 0.1827221 -0.9791445
1.4612148 0.63214564 -0.11927643 0.19840845 0.691876 -0.13092422 0.093386255 0.5408002
-0.3958349 1.1634036 -0.61400706 0.43483412 -1.1670641 -0.04173703 -0.6475823 0.075868286
-0.76864475 -0.8397646 -0.82701325 -0.52120274 0.2995039 0.52541995 0.79668057 0.6535981
-0.52252567 -1.0917271 -0.61857605 -0.08869204 -0.6026667 -0.6649265 0.5789778 -0.33081654
0.033852845 0.037753236 -1.3486682 0.5693631 0.99309635 -0.69779134 -0.28969634 -0.3949221
-0.104545146 0.52853554 -0.09367799 -0.5924168 -0.6860152 0.33372143 -0.31465074 -0.72972494
-0.06632693 0.34006974 0.4970078 -0.8673342 -0.7587226 -0.59069514 -0.093580835 -0.5575683
-0.0073551037 -0.49604893 -0.38876843 -0.7477916 0.112753995 0.5691022 0.10416108 -0.2010182
-0.01014836 -0.5554455 1.2942774 0.35159928 0.8102311 0.12890455 -0.39697465 -0.35464546
-0.1796171 0.18282048 -0.78946686 -0.43813366 0.113975324 -0.44086447 1.0497121 0.013795943
-0.24289605 1.2630129 0.3604289 -0.5571632 0.95968217 -0.5242929 0.94223136 -0.42007565
-0.5423199 0.09498209 -0.77825505 0.010222288 -0.27270123 -0.2671377 -0.90144634 -0.4148685
0.47929567 0.028529033 0.66185 0.10926632 -0.33703777 0.9320995 0.04884465 -0.28700894
-0.7636507 0.0457595 0.4790973 0.09446624 -0.3206965 -0.5727405 -0.36163872 -0.21302599

cos_embedding.weight f4 [256, 64]
00000000: 5771 b4be a055 563d 4b6c 06be 02fd 963d
00000010: 8cb9 cebd 31c7 9d3d 29df b5bd e919 633d
00000020: 874b 06bd 7d69 4f3d 8169 fdbc f674 0f3d
00000030: 7cc6 edbc 698f b33c b871 99bc db49 1f3d
00000040: 5f4e 81bb 3794 193d b0e5 d03c 251f 313a
00000050: b4f3 403d b435 64ba 2877 903d 1fba 63bc
00000060: ced1 8c3d 448a 38bd dda0 3f3d 5ccb 6dbd
00000070: 1532 543d b963 04bd 159c 263d 5f12 1ebd
00000080: b98c 363d 651e 4cbd 2c8f 143d 2035 40bd
00000090: 5802 243d adef 28bd 74dd 033d 56d9 45bd
000000a0: b282 a33c a657 65bd f4ab 973c 8bd3 31bd
000000b0: 0c62 cb3c 498b 00bd 6c13 283b 1930 77bc
000000c0: 69c8 563c 1d1a 2ebb e93a 833c c7a0 cd3b
000000d0: 03f9 ed3b f7db 183c 6cb0 8f3c 6412 8bbb
000000e0: b703 7a3c 77c9 2bbc a545 0f3d 0132 da3a
000000f0: c92b bb3b 7fbe f53b 6b4c 053c a0cf 463c
00000100: 2781 283e 61b2 c53e 395e 0e3e 04b9 cb3e
00000110: 8b11 e13d 5097 7e3e d190 1e3e 92d2 803e
00000120: 894d f03c f141 843e 4422 b93d 078d 733e
00000130: 4536 0e3d 95d4 273e 8ff7 55bd 3c78 643e
00000140: 9715 743c 8bb0 dd3d 555a b0bc 8680 883d
00000150: bd6c 46bd cf75 8d3d 9892 7abb 0047 5abb
00000160: 5488 51bd 78f7 0d3d 1ec8 58bd 645f 043d
00000170: ea7f fbbc 823b 4fbd c28b 203c dcba f9bc
00000180: 6fda 9a3a 3840 f9bc 1de2 f1bc a213 f1bb
00000190: b611 063d 95ba 55bd 8bb4 edbc cc98 63bd
000001a0: 455e 0e3d f7c2 a4bc 9a3d 193c 7bcd 91bd
000001b0: 4532 233c 6b08 2abd 9bef 9a3c 0629 0bbd
000001c0: bcf7 22bc 29a0 373a 7cc4 a03c 8fe6 06bd
000001d0: 5989 84bc 8a38 f03b 8fe3 183c ecb2 253d
000001e0: 7b83 b2bc 1684 bd3c e795 efbc 0d02 3c3d
000001f0: e4b8 27bd 63a7 2e3d fa62 bdbc b86b 743d
00000200: 5b50 e7be c043 14bf 76b3 90be 8a1e 0abf
00000210: 2e17 7cbe 28b4 04bf 3ab7 83be 6ad9 01bf
00000220: 5124 74be ceec fdbe cb14 6abe 4e8c efbe
00000230: 57ba 43be 6184 d1be 72fa 24be 9b21 bebe
00000240: 07e8 cabd 0bf9 9cbe 54df 86bd f828 85be
00000250: f0c1 08bd bb81 4bbe 038f 66bb 4533 1bbe
00000260: f33f 023d 0f57 dfbd ad0d 703d bf30 92bd
00000270: 4198 b83d 10be c9bc a92c c73d ee33 a23c
00000280: 2163 ce3d 0189 0f3d 1490 e23d 3408 753d
00000290: 50f5 033e 44e7 9d3d 7986 f93d d056 b83d
000002a0: 925e f93d 991f ba3d eb18 ef3d 2f7d ba3d
000002b0: b2cc da3d 5794 c03d 466c bd3d 5a9b bf3d
000002c0: c67b c43d aebb c43d 4d7b 9a3d b5b0 a73d
000002d0: 14b4 843d 3966 883d d7b3 5e3d a4d7 4a3d
000002e0: 8aae 403d 451a 4a3d 02e1 263d a0a2 de3c
000002f0: 36c8 e53c b5ce 943c 399a 3e3c 3146 cb3b
00000300: 132d 4f3e cec2 7bbe 749d 183e 7650 93be
00000310: f930 163e afd7 88be b93a 353e c0bf 57be
00000320: 0862 2c3e e38c 52be f1eb 273e d3fb 2bbe
00000330: 9432 163e 59e8 13be 2df2 f63d 1c62 cdbd
00000340: c20e d83d e6e8 92bd d07a a83d 2825 5bbd
00000350: 0f56 863d 5686 19bd aac0 5a3d 2de0 e0bc
00000360: 042b 2a3d a57f 90bb 2291 943c 204a 4c3c
00000370: fed1 d33b a915 a23c e737 80bb fbcc 163d
00000380: 48d7 4ebc 4b58 3e3d c1c3 d2bc 35b2 2f3d
00000390: a611 dbbc 3571 413d bfb6 1fbd d733 2f3d
000003a0: 2ef8 44bd e8e7 5d3d 8c16 30bd 2efb 583d
000003b0: 70df 2bbd abbb 123d ee49 28bd 0cc8 113d
000003c0: 272f 10bd 16e0 1e3d 4d92 00bd b245 263d
000003d0: 6e98 0cbd b4ad 0b3d 66af bfbc 6fe0 043d
000003e0: 83e4 07bc b78c e23c 3c4e 74bb 7895 c53c
000003f0: 3bfa 993a 1186 633c 4d00 113b 573a 6d3c
-0.3524272 0.052327752 -0.13127248 0.07372476 -0.10093984 0.07704008 -0.08880455 0.05544463
-0.032786872 0.05063771 -0.030934097 0.035023652 -0.029025309 0.02191897 -0.018730983 0.038888793
-0.00394611 0.037494864 0.025500149 0.0006756655 0.047107413 -0.0008705512 0.07053977 -0.013899355
0.068759546 -0.045053735 0.04678427 -0.058055267 0.051805574 -0.032321665 0.040676195 -0.03859174
0.044567797 -0.049833674 0.03626935 -0.046925664 0.040041298 -0.041244198 0.032193616 -0.04830297
0.019959781 -0.05599179 0.01851461 -0.043414634 0.024827026 -0.031382833 0.0025646342 -0.015087151
0.013109305 -0.0026565858 0.016019301 0.0062752697 0.0072623505 0.009329787 0.01754018 -0.0042441357
0.015259675 -0.010485045 0.034978528 0.0016646982 0.0057120067 0.0074995155 0.008135895 0.012134463
0.16455518 0.38612655 0.1390313 0.39789593 0.10989674 0.24862409 0.1548493 0.25160652
0.029333847 0.2583156 0.09039739 0.23784266 0.034719724 0.16389687 -0.052238043 0.22311491
0.014897726 0.108246885 -0.021527449 0.06665139 -0.048443545 0.06907236 -0.003823435 -0.003330648
-0.051155403 0.034659833 -0.05292522 0.032317534 -0.030700643 -0.05059386 0.009798946 -0.03048461
0.0011814366 -0.03042613 -0.029526765 -0.0073570767 0.032731734 -0.05217989 -0.029016754 -0.05556564
0.03475787 -0.020112498 0.009353066 -0.071192704 0.009960716 -0.041511934 0.01891308 -0.03397467
-0.00994676 0.0007004762 0.019624941 -0.03293472 -0.016178774 0.0073309587 0.009331598 0.040453836
-0.02179121 0.023134273 -0.029246284 0.045900393 -0.04094781 0.0426401 -0.023118485 0.05967304
-0.45178494 -0.5791588 -0.28261918 -0.5395285 -0.24618217 -0.51837397 -0.25725728 -0.5072237
-0.23841979 -0.4959473 -0.22859494 -0.4678673 -0.19114052 -0.4092131 -0.16111162 -0.37135014
-0.09907537 -0.30658755 -0.06585565 -0.2600782 -0.03338808 -0.19873707 -0.0035180456 -0.15156277
0.031799268 -0.10905277 0.058606792 -0.07138204 0.09013415 -0.024626762 0.09725315 0.019800153
0.10077501 0.035042766 0.11062637 0.059822276 0.12886548 0.07710126 0.12183852 0.09000933
0.12176241 0.09088058 0.116746746 0.09105908 0.10683574 0.094032936 0.09249167 0.09355803
0.095939204 0.096061096 0.07543049 0.08188001 0.0647966 0.066601224 0.054370727 0.049522057
0.047041453 0.04934146 0.040741928 0.027177155 0.02804957 0.018164972 0.011633449 0.006203436
0.20232038 -0.24586031 0.14903814 -0.28772324 0.14667119 -0.26727054 0.17698182 -0.2106924
0.16834271 -0.20561557 0.16398598 -0.16795282 0.14667732 -0.14444102 0.1205791 -0.100284785
0.1054969 -0.07173328 0.082265496 -0.05350223 0.06559383 -0.03748163 0.053406395 -0.027450645
0.04154493 -0.0044097477 0.018135611 0.012468845 0.006464242 0.019785719 -0.003912914 0.03681658
-0.012624569 0.04647092 -0.025728108 0.04289456 -0.026741814 0.047227103 -0.03899264 0.042774048
-0.048088245 0.05417624 -0.042990252 0.05297392 -0.041961133 0.035823505 -0.04108613 0.03559117
-0.035201218 0.038787924 -0.031389523 0.04059381 -0.034325056 0.034101203 -0.023399066 0.0324406
-0.0082942275 0.027654989 -0.0037278077 0.024119124 0.0011747548 0.013886944 0.0022125423 0.014479241

cos_embedding.bias f4 [256]
00000000: cec6 ef3f a4dc 02be b30e 2740 8bba 983f
00000010: 9577 2b40 a853 b93f baa7 3f3e a4c7 463f
00000020: a672 4140 9153 e03e 39a7 6bbe fdc1 5c3f
00000030: 13e9 e23f c7d0 43be 6628 853d 3dce e63f
00000040: 2b4e 4e40 adb2 9b3f cfc0 da3f 11dd 5f3f
00000050: af15 fa3f 641e 5740 6afc 583f 797e 4140
00000060: 4302 963e aed9 b73f 0e6a 4b3f a6ee ba3f
00000070: 3899 ec3e 8d8c 3140 977b f93f 430e 3c3f
00000080: fabc b63f bf4a a53f d4ad 0340 3a42 ab3f
00000090: 3ed5 8b3e eb80 bb3f 144c 0b40 da10 bc3f
000000a0: bd2b 103e 4aaf 4f3e 0f8c 0c40 cf9b c73d
000000b0: 5171 22bc d3e4 fb3f 1716 6c40 fcb2 9940
000000c0: 47f6 2240 0c6b 2140 e8c2 c23f 744b 073f
000000d0: 629f d73e 6bef f03f d7ed 1c40 7c59 1140
000000e0: 39b5 d03f e51b df3d 46af c43f 9f6b 2a40
000000f0: 6e57 423c 1410 2e3d dd11 963f d332 2940
00000100: a49b 933f 0d2d 123e 99d4 9a3f e41d ba3f
00000110: 81f7 b33f e9f8 f13f 3767 f83f 678f 683f
00000120: 5ac1 3940 41da ad3f 7007 b83f a30a 31bd
00000130: 3806 0c3d cdbb 2640 1a4a 683f 76c7 b83f
00000140: dcd3 1340 907b 8e3c 8853 ea3f 8877 6f3e
00000150: db7a 05be f05e d83f 8b77 0140 6d1c 1d3f
00000160: 3211 ef3f 062b fe3f a765 333e e84c a53f
00000170: 8af9 5040 7519 a43f f160 56bd c283 1740
00000180: 0068 433f 6a71 ea3f 3a96 98be 0fb4 7d3e
00000190: 4f53 993f 466a ae3e bd70 d03f 3734 1f3f
000001a0: 4ce4 2c40 76d8 f3bd ba8b 5b3f 4eb1 8c3f
000001b0: 735b 313f 6465 8a3f c510 b43f a670 0040
000001c0: 8417 903f e586 c53f de9b 1240 9c72 dd3e
000001d0: 7b75 e73f 5061 623e c641 553f df78 c63e
000001e0: 1e48 76bb c9cf e83e b5bd 3d40 eede 0640
000001f0: 9961 3740 7895 eb3f 2214 143f d0bd a43f
00000200: 7c44 893e 5870 b03f 0004 4439 a826 473f
00000210: a06d 5f3f 1522 8b3f 234a 4840 9085 043f
00000220: ff3e 2040 e919 5e3f c2c7 953f f87c 483f
00000230: 8c1a 8840 cd0c a93f 0024 083f ca45 3640
00000240: 560a 2940 af78 4640 aff1 e33f 5740 0840
00000250: 05f7 3a40 30d4 2cbc 06c6 2540 3671 f93f
00000260: 11db bd3e 4ce0 3240 499c 793f fa01 b33f
00000270: ee50 9b3e 427f 1340 19be b63f 2f53 f63f
00000280: db75 bd3f 89a9 573e f931 063f d0c3 313f
00000290: f461 e53f 58f5 b63f 831e 4540 571a ab3f
000002a0: 79ba 6240 ec7e 953f ec72 1e3e 04d2 013f
000002b0: df86 1f40 62c0 0d3f 99e7 7740 015e cd3f
000002c0: 9405 973d 3bd6 ca3f 13f4 d13f 490a c83f
000002d0: 6292 0d40 3234 da3f b18c c23f be9e 2e40
000002e0: d6db e63f 9c1a 3c3f 4cfc cd3f 02de d13f
000002f0: d73c efbd ca9b 843f b24c e23f 1482 ef3f
00000300: c537 f83f 98bc 1a3f 0a81 c63f 214a f83f
00000310: 06b2 413f 2d8f 173f cc47 153d 5e2b d6bb
00000320: 120b 3140 e3c8 193f db76 923f cdbc d23f
00000330: 34ee f93f 98e7 103f 6e16 2540 5c18 1440
00000340: 20ce 6c3c b4ca 1540 f968 9940 409a 9a3f
00000350: 1df4 6740 bc14 fc3f c039 d4bd 8b3b 5c3f
00000360: 0e57 a13e d5c1 2f3f d1ac dc3f c63c 4840
00000370: db43 2a40 9404 813f 54bb fb3f 92b7 d9bd
00000380: 4398 983e 03b6 0740 7c0b f23f 132c b23f
00000390: 1976 4e40 b9b4 c83f d4ff b93f 2d4c 2440
000003a0: 3c92 cbbd 45b0 aa3f eabe 0940 f4d4 94bc
000003b0: 3718 753f 022b a6bd c05a 1940 3eec 403f
000003c0: 6263 1440 251b 0b40 7e61 0e40 a58b 9c3f
000003d0: c4f4 a43f e738 383f 4d70 d13f 1c2e 0c40
000003e0: 7c2d 853f 75a2 d83f 2494 f83f 1f23 4740
000003f0: 30a7 5a3f c03e 483d 93dc 1a40 b4a3 bc3f
1.8732545 -0.1277948 2.6102722 1.1931928 2.6791737 1.4478655 0.18716326 0.7764838
3.0226226 0.43813756 -0.23013009 0.862335 1.7727379 -0.19122611 0.06501846 1.8031689
3.223521 1.2163903 1.709009 0.87446696 1.9537867 3.36123 0.84760153 3.0233443
0.292986 1.4363306 0.794587 1.460408 0.46210647 2.7742035 1.9490842 0.7345926
1.4276421 1.2913436 2.0574846 1.3379586 0.27311128 1.4648718 2.1765184 1.4692643
0.14079185 0.20281711 2.1960485 0.09746515 -0.009914712 1.9679207 3.6888483 4.8030987
2.5462816 2.5221586 1.5215731 0.5284951 0.42113787 1.8823065 2.4520166 2.2710867
1.6305305 0.10893992 1.5365989 2.6628187 0.011861665 0.042495802 1.1724201 2.643727
1.1531873 0.14274998 1.209613 1.4540372 1.4059907 1.8904086 1.9406499 0.90843815
2.9024262 1.3582231 1.437727 -0.043223035 0.03418562 2.6052125 0.9073807 1.4435871
2.3098059 0.017392904 1.8306742 0.23385441 -0.13035147 1.6903973 2.0229213 0.613715
1.8677123 1.985688 0.17519246 1.2914095 3.2652307 1.2820269 -0.052338544 2.3674169
0.76330566 1.8315861 -0.29802114 0.24775718 1.1978549 0.34065455 1.6284405 0.6218905
2.7014341 -0.11906521 0.8576008 1.0991609 0.69280165 1.0812192 1.4067618 2.0068755
1.1257176 1.5431792 2.2907634 0.43251503 1.8082727 0.22107434 0.8330349 0.38764092
-0.0037579606 0.45471027 2.9647038 2.1073565 2.865332 1.8404989 0.5784322 1.2870426
0.26810062 1.3784285 0.00018693507 0.7779336 0.8727665 1.0869776 3.129525 0.517663
2.503845 0.86758286 1.1701586 0.7831569 4.2532406 1.3207031 0.5317993 2.8480096
2.6412559 3.101116 1.7808131 2.128927 2.9213269 -0.010548636 2.5902114 1.9487674
0.37081197 2.79494 0.975041 1.3984978 0.30335182 2.3046422 1.4276763 1.9244136
1.4801592 0.21060766 0.5242 0.6943941 1.7920518 1.4293623 3.0799873 1.3367413
3.5426314 1.1679358 0.15473527 0.50711083 2.4926069 0.5537168 3.8735106 1.6044313
0.07374111 1.5846628 1.640261 1.5628139 2.2120595 1.7047179 1.5199186 2.7284389
1.8035839 0.734781 1.609262 1.6395876 -0.11681526 1.0360043 1.7679656 1.8711572
1.939202 0.6044402 1.550813 1.9397622 0.7566227 0.59202844 0.036445424 -0.0065359315
2.7663007 0.60072154 1.1442522 1.6463867 1.9525819 0.56603384 2.579494 2.3139868
0.014453441 2.340497 4.794064 1.2078323 3.6242745 1.9693828 -0.103625774 0.86028355
0.3151173 0.6865514 1.7240239 3.1287093 2.6603916 1.0079522 1.9666543 -0.106307164
0.29803666 2.120484 1.8909755 1.39197 3.225958 1.5680152 1.4531198 2.5671494
-0.09940001 1.3335043 2.1522775 -0.01816795 0.95740074 -0.08113672 2.396164 0.75360477
2.3185658 2.1735318 2.2247005 1.2230116 1.2887197 0.71961826 1.6362396 2.1903143
1.0404506 1.6924578 1.9420209 3.1115186 0.8541136 0.048887968 2.4197128 1.4737458

ff_1.weight f4 [256, 256]
00000000: 8288 7dbe 55db fbba 72f4 4fbf a613 d9be
00000010: 4028 0c3d 18dd 8cbf 82a0 3ebe 47e0 b6bd
00000020: 71e2 ae3e 6823 2b3e af8b 873e c373 ba3d
00000030: c64b 9a3e 9c21 b6be 9f79 6c3d 366b 013c
00000040: 9e42 c43e 9def 273e d9bf 30bf 2b54 e53d
00000050: d3db 86bd 61f0 7ebf faee 8abe e6ad b2be
00000060: 3a3f 3abe 01a8 36be 55ce 40bf 3cbd 5d3e
00000070: 582b d63d 6a30 92bd a37f 17bf 543b 0d3e
00000080: f7ae 64be 9227 5e3d b266 93be ba96 98be
00000090: 4368 323d bd8b 2dbd f9cb 11bf 5141 e2be
000000a0: 1f6c 6ebe 9b46 19be 09aa 263e ff1e a8bd
000000b0: 6ab8 aebe ac01 b6be 1328 d7be 1d8e 83be
000000c0: 16cf 64bf 1fad eabd ecda 19bf f22c e3bd
000000d0: 5acb 2a3e 00f3 69be 9c2e 393e 57d8 c83d
000000e0: db0e 8f3e 8b93 38bd 7a1f 7abe 0403 53bf
000000f0: c58d 223d 2b58 c63c 24ad ae3b 0f94 0abf
00000100: d810 60be be68 b93d 8965 60be 8b8a e13d
00000110: 4e84 74bf d978 03bf 80ed ff3d f6b1 c2ba
00000120: a144 febe e659 353f 71c0 50bf 6359 43be
00000130: b016 dd3c 32d1 1ec0 0c77 0e3e 574b 9bbe
00000140: 16f0 2bbf 2cec ce3c cd0f 22be 28f4 d63d
00000150: afb1 59be 8b69 863f c2c5 42bf ef44 65be
00000160: 741c 0bbe 0c01 3cbe 6794 0cbe 8156 3e3e
00000170: a285 403f d1a2 78bf f2a5 03bc af0b ea3d
00000180: 2952 e9be f5c9 db3e 16bf ce3c f90f 40bf
00000190: dc8c 60bf b143 ecbd 21d2 dabd 2e7e d9bf
000001a0: c3cc 5bbf 2633 99bc 472a 113e 9bd5 c3be
000001b0: 308c 39be dd5c d1be 8536 27bd 725a 933e
000001c0: 1e26 c43e 451f 293e 2be1 6fbe ed2d 5cbe
000001d0: 0ba5 1b3d d628 2d3e 3675 93be 051e 06bf
000001e0: 0045 a6be f0ef be3d dfdb 1cbf 7347 f3bd
000001f0: cbe2 2fbe 0f1d de3d c6e0 2bbd dbef 21be
00000200: 8865 98bf 50f7 a5be b02c d63b 9dc3 54be
00000210: 9063 8c3f d9be 99be ce6f 613d 667f 8abd
00000220: 8c4c 873d 13b3 23be 8684 c63d d467 f2bd
00000230: 7cda 13bf 7eb4 863b 3b54 11be 801c ca3d
00000240: e4c0 9cbd 9def 2fbf 7219 f23d dad9 423d
00000250: a6ef 5bbd 9a33 763d 8cf4 a23c 41f9 87be
00000260: 6c2f 963d a6ff 27bf d8c1 013f 131b c6be
00000270: ae4a 7b3e 9364 9dbf 2718 debf 330b b23e
00000280: 1076 143f 540f 773e aa24 603e 113b a23e
00000290: e8f4 38be 7d01 ea3d 1fa6 1dbe 8641 a4bd
000002a0: b0d1 193f 4593 f9bc 899c bb3e 8b39 cfbe
000002b0: 8070 8e3e cbba ff3d 61bc 5abc f69a a5bf
000002c0: 1694 073d e1c5 4b3d 81af 923e f7cf bdbe
000002d0: 4fea ccbc c345 a23d 7914 aabe 7503 65bf
000002e0: 7060 2cbf c28f 043e e84c 423e 6339 943d
000002f0: e0ea dcbb f6f7 5abf 3b73 583c 27ef 673e
00000300: be99 4cbe 19b8 343e 9d80 44be 9ced 00bc
00000310: dcc5 21bc d038 9cbd b0f5 7cbd 8d27 413e
00000320: 1699 703f 8983 1a3e b775 e83e 796e 8e3d
00000330: c58f 08bd 380c 083d e0ca ebbd eacd eebc
00000340: 1894 573d 0659 d3be f2ff 0bbf 6480 89be
00000350: be3e 32be bdc2 a0bd 9207 9d3e 3aaf 1e3d
00000360: 990d debd 1d34 a6bd ae74 c1be f8d7 48be
00000370: 5ed4 d13e 070d 743d 0327 0cbf a080 20bd
00000380: 8eae dc3d 7b3c 67be 3dd8 aabe 7c4e 943e
00000390: 90ab 6c3d e6d0 c23c 895c c23e d304 edbf
000003a0: 69bb e63d ba74 4d3e 7f56 8abe dbf5 60bd
000003b0: 81eb b7bf d022 a5bd 4ea6 6fbd 3695 1c3e
000003c0: 1b2b 6ebf 6345 00be 6d77 f4bf 6edb 9a3e
000003d0: c173 2bbf 35c0 30be 676d c13c 32ae d53e
000003e0: 008d e8bd 928e 37bd f540 b9bd a52f 81be
000003f0: bda1 0bbe 7c67 853d 97d8 2f3d 9e1b a4be
-0.24759105 -0.0019215146 -0.8123237 -0.42397803 0.034218073 -1.1004972 -0.18615916 -0.08929496
0.34157136 0.16712725 0.26473758 0.09104111 0.30135936 -0.35572517 0.057733174 0.007899096
0.38332075 0.16399999 -0.69042736 0.111976944 -0.06584897 -0.9958554 -0.2713545 -0.348983
-0.18188182 -0.17837526 -0.7531484 0.21654218 0.10457486 -0.071381405 -0.59179133 0.13792163
-0.22332369 0.054236956 -0.28789288 -0.29802495 0.043556463 -0.042369593 -0.5695186 -0.44190457
-0.23283432 -0.1496834 0.16275801 -0.08209037 -0.34125072 -0.3554815 -0.42022762 -0.2569436
-0.8937849 -0.114588015 -0.60099673 -0.11092557 0.16679135 -0.22846603 0.18084186 0.098068886
0.2794102 -0.045062583 -0.2442607 -0.82426476 0.039685983 0.024211964 0.0053306986 -0.5413217
-0.21881425 0.09053181 -0.21913733 0.11012753 -0.9551438 -0.51356274 0.124964714 -0.0014854062
-0.49661735 0.708403 -0.8154364 -0.19077067 0.026988357 -2.4815183 0.139126 -0.30330917
-0.6716322 0.0252591 -0.1582634 0.10495788 -0.21259187 1.0500959 -0.76083004 -0.22389577
-0.13585073 -0.18359774 -0.13728486 0.18587686 0.7520391 -0.9712344 -0.00803517 0.1142801
-0.45570496 0.42927518 0.025237601 -0.7502437 -0.87714934 -0.115363486 -0.1068461 -1.6991632
-0.85859317 -0.018701147 0.14176284 -0.38248906 -0.18119884 -0.40891162 -0.04082348 0.28779942
0.3831033 0.16515835 -0.23425739 -0.21501894 0.037999194 0.16910109 -0.28800362 -0.52389556
-0.32474518 0.09323108 -0.61272997 -0.11878862 -0.17176358 0.10845386 -0.041962408 -0.15814154
-1.1905985 -0.32415247 0.006536089 -0.20777746 1.0967884 -0.30028418 0.055038266 -0.067625806
0.06606397 -0.1598628 0.096932456 -0.1183621 -0.57755256 0.004110872 -0.14192288 0.09868717
-0.076539785 -0.68724996 0.118212596 0.04757104 -0.053695343 0.060107805 0.019892 -0.26557353
0.07333264 -0.65624464 0.5068641 -0.3869253 0.24540207 -1.2296318 -1.7351121 0.3477417
0.5799265 0.24126941 0.21888986 0.3168569 -0.18062174 0.11426065 -0.15395401 -0.0802031
0.6008558 -0.030465731 0.36642864 -0.4047359 0.27820206 0.124868 -0.013350577 -1.2937915
0.03310021 0.04974926 0.28649524 -0.37072727 -0.02501407 0.07923462 -0.33218744 -0.894584
-0.6733465 0.12945464 0.1897465 0.07237508 -0.0067418665 -0.8553461 0.013211067 0.22649823
-0.19980523 0.17648353 -0.19189687 -0.0078691505 -0.0098738335 -0.076280236 -0.061757743 0.18862744
0.9398359 0.15089239 0.4540231 0.06954665 -0.033340234 0.033214778 -0.11513305 -0.029150922
0.052631468 -0.41278857 -0.54687417 -0.26855767 -0.17406747 -0.078496434 0.30669838 0.038741328
-0.10842437 -0.081154086 -0.37784332 -0.19613636 0.40982336 0.059582736 -0.5474703 -0.039185166
0.10775481 -0.22581665 -0.33368102 0.2896613 0.057780802 0.023781251 0.37961224 -1.8517097
0.112662144 0.20064059 -0.27019116 -0.054921966 -1.4368745 -0.080632806 -0.05850821 0.15291294
-0.93034524 -0.12526469 -1.9098946 0.30245537 -0.669735 -0.17260821 0.023611737 0.41734463
-0.113550186 -0.0448137 -0.09045593 -0.25231662 -0.13635917 0.06513879 0.042931166 -0.3205232

ff_1.bias f4 [256]
00000000: 7102 ea3d 3e65 863b 1790 26be 05b9 ab3d
00000010: 6355 32bf 5ffb 52bf 7435 913e a622 003e
00000020: 4c03 2fbb 7d0b c4bc 9992 bcbe 5842 a8be
00000030: 9627 d43d 1d53 363e beea c3bd dbe9 94be
00000040: 21a7 febe e6dd 0e3e eb35 bb3e 9a40 e2bd
00000050: 37cf 72be 2952 923e d94c 843e 94eb 1cbf
00000060: 591d afbd 2dc2 acbb ba1f fabe bee5 8cbe
00000070: 845e b63e 2d90 a83d 480f b73d 493c 8f3d
00000080: 1af2 1f3d ffbb 30bd b3e7 ba3c 315d 20bf
00000090: f715 9d3e dc84 5f3f 7ad4 89be 8f21 15bf
000000a0: 577d 803c 5c90 c3be eb17 25bf a1f5 c5be
000000b0: d803 92bd 7adb 0f3d b826 023e ad8c 92be
000000c0: 2b40 983a bcc2 013d 1c49 133f 7ac6 0cbf
000000d0: edab 9ebe 95fb 133e 8917 513c 0521 0abf
000000e0: 185e 1fbe d745 de3e 1d05 c3bc cb3e 583e
000000f0: 88b1 6fbd 4387 573e 9dd1 d7bd a723 373e
00000100: b711 1e3e 901d b23e d0d0 aebe 9979 023f
00000110: d5f3 a53e bc76 03be 26c1 0e3e c0d7 8c3e
00000120: c315 08bf cba0 82be 5bf8 2bbf 6669 8abe
00000130: 5141 a2be 64b2 c63e 413a cdbd c71a f6be
00000140: 16b3 04be a0ea 27bd 9b03 34bd 6033 6abf
00000150: 6fe9 83be e0a6 023e da69 d7bd d4ec 553e
00000160: aefd 383d e06e eabd df71 273e 69e6 c9bd
00000170: 42be 603e b9b9 ebbe 3853 3cbe e31c cebc
00000180: 31f3 b8be b0c7 e2be 084a febe 8528 abbe
00000190: 913f eb3d 1326 b7be ddeb 8e3e 32f1 27be
000001a0: f98e 81be 235c cfbd c21b a43d 20b4 94bd
000001b0: 6562 16bf df14 26bf ac91 5c3e 07a7 f9be
000001c0: 2f98 c1be d0e1 dd3e 5653 ac3d fd5b 74bd
000001d0: c883 c13e c6cf a5be e501 d03d 71f7 21be
000001e0: 08f4 773d 19af 87bd 734e d33e 46a1 7abe
000001f0: d7e4 47bf e6a2 35be 6160 af3e c6db 2e3e
00000200: 334f 03be 40ea db3d 5b2e 01bf 9c16 8abe
00000210: 667f cebe d259 1ebe 00d3 a53e f1a2 81be
00000220: d049 6fbe 6239 04be ab1f 8b3e ff5c 5fbe
00000230: d166 d6be 4b49 9cbe a5bd b63d 31f6 99be
00000240: 007e 663e 045b 833e 59df d03e d3b6 00bf
00000250: b9be debe a845 27bd f335 95bc f1e1 7f3e
00000260: 76ec 3abe 2c90 10bf 2de7 bc3e 60a7 213e
00000270: 2880 b5be dcf8 3c3f 2192 bfbe b3be a23d
00000280: 629d a73d 7d85 843e b017 c13b c484 b8bd
00000290: 1480 503e a26f ce3c 03ea 103e 58e4 19be
000002a0: f66c a9be 7a41 a03e b46e afbd 2183 a1be
000002b0: 5048 b9be d836 ebbb 03fa 89bc 5146 713e
000002c0: 4373 bc3d 98c8 b73e 1c95 e23c 5d02 c53d
000002d0: e0ff c8be 6379 0fbe 790c e03d 503a a1bd
000002e0: c3cd 713d 7296 ae3e 0a9e 7ebe 4824 37be
000002f0: 7457 863e 90ee 123e bc6e 873d 06fa 5abc
00000300: ab59 4f3f 7f66 393f f9d9 7fbb a09f 833d
00000310: a702 cc3e 2a6c 64be 0292 193e 5f54 a8be
00000320: 8742 9c3c bf62 3a3e a6ed 19be 1923 1e3f
00000330: 1971 8bbe 9e81 723e 8d2e a33d d710 34bf
00000340: 84f1 8bbb 1379 2b3e 7de3 3d3f 89a5 2ebe
00000350: 4f4c 593f dc1e b7be 0cd4 cb3c 88bf 14be
00000360: 1b95 cb3e be54 b5bd 9eb5 2e3e 324e d53e
00000370: 3398 a83e f577 3b3e 9936 31be d60d 56be
00000380: 6e85 bcbe 9f7e 6a3e 7bad 4a3e f069 a6be
00000390: c4b8 34be 83e3 033e 3211 6dbe 51aa 43bf
000003a0: 54e8 4f3e 7a3a be3e 9208 3a3e a46c 163f
000003b0: e982 3fbd e916 54be baab f73d 6b37 0abe
000003c0: e55a 433f 6475 d23d f547 91be 14bb d2be
000003d0: 5e28 473e 8f7e c2be 9efd afbe 0675 343e
000003e0: f801 98be 52cc e9be b98a bebe 5001 26be
000003f0: cf49 54bc cc72 b1bd 7cf4 943e c235 0ebe
0.11426247 0.0041014245 -0.16265903 0.08384899 -0.6966154 -0.8241481 0.28361094 0.12513217
-0.0026704846 -0.02393126 -0.36830595 -0.32863116 0.10359113 0.17805143 -0.09566258 -0.29084668
-0.49736884 0.13951835 0.36564574 -0.11047478 -0.23711859 0.28578308 0.2583988 -0.61296964
-0.085505195 -0.005272171 -0.4885233 -0.2751903 0.35618985 0.08230624 0.089384615 0.0699392
0.039049245 -0.043148037 0.02281556 -0.626422 0.3068082 0.873121 -0.2691992 -0.5825433
0.015684767 -0.38196075 -0.6448962 -0.38663962 -0.071296394 0.03512142 0.12710083 -0.28622952
0.0011615803 0.031679854 0.5753343 -0.5499035 -0.30990544 0.1445144 0.012761959 -0.53956634
-0.15563238 0.4341266 -0.02380615 0.21117704 -0.058518916 0.21047692 -0.105380274 0.17884694
0.15436445 0.3478818 -0.34143686 0.50966793 0.32412592 -0.12838262 0.13940868 0.27508354
-0.53158206 -0.255133 -0.67175835 -0.27033538 -0.31690457 0.38807976 -0.10020877 -0.48067304
-0.12958941 -0.04099524 -0.04394875 -0.9148464 -0.25764033 0.1275897 -0.105182365 0.20891124
0.045163803 -0.11446929 0.16352032 -0.098584004 0.21947578 -0.46040133 -0.1839112 -0.025160259
-0.3612304 -0.44292974 -0.49665856 -0.3342935 0.11486734 -0.35771236 0.27914324 -0.16400602
-0.25304392 -0.101249956 0.08013107 -0.072609186 -0.5874389 -0.64875597 0.21539944 -0.48760244
-0.3781142 0.43336344 0.084143326 -0.05965804 0.37795854 -0.3238508 0.10156611 -0.15817048
0.06053546 -0.06625194 0.4127079 -0.24475583 -0.78083557 -0.17737922 0.3425322 0.17076024
-0.12823181 0.10738039 -0.5046136 -0.26970375 -0.40331572 -0.15463951 0.32387543 -0.25319627
-0.23368001 -0.12912515 0.27172598 -0.21812819 -0.41875318 -0.30524668 0.089228906 -0.30070642
0.22509003 0.25655377 0.407954 -0.5027897 -0.43504885 -0.040837914 -0.018214202 0.24988534
-0.18254265 -0.5646999 0.36895123 0.15786505 -0.35449338 0.7381723 -0.37416175 0.07946529
0.08184315 0.25883093 0.0058927163 -0.09009698 0.20361358 0.025199715 0.14151768 -0.15028512
-0.33090943 0.31299955 -0.08566037 -0.31545356 -0.36187983 -0.0071781687 -0.016842848 0.2356198
0.09201672 0.35895228 0.027658992 0.096195914 -0.39257717 -0.14011149 0.10939879 -0.0787245
0.05903412 0.34099156 -0.24864975 -0.17884934 0.26238596 0.14348817 0.06612918 -0.013365274
0.809962 0.7242202 -0.0039039834 0.064269304 0.39845774 -0.22306886 0.14997104 -0.3287687
0.019074691 0.18201731 -0.15032062 0.61772305 -0.27234724 0.23682258 0.07967863 -0.70338196
-0.0042707343 0.16745405 0.74175245 -0.17055334 0.8488206 -0.3576573 0.024881385 -0.14526188
0.39762196 -0.08854054 0.17061469 0.4166122 0.3292862 0.18307479 -0.17305984 -0.20903715
-0.3682055 0.22899865 0.1979274 -0.325027 -0.17648607 0.12879758 -0.2315109 -0.7643176
0.2030347 0.3715399 0.18167332 0.5875952 -0.046755705 -0.20711865 0.12093301 -0.13497703
0.7631057 0.10276297 -0.2837521 -0.41158354 0.19448993 -0.37987182 -0.34373182 0.17622766
-0.29689002 -0.45663697 -0.37215212 -0.16211438 -0.01295705 -0.08664474 0.29092777 -0.13887694

ff_2.weight f4 [1, 256]
00000000: 8836 043f 3334 e03f 7a1e 81bf ec89 9b3f
00000010: 1314 b2bf 6f70 a1bf 3b1d 9c3f cdc0 e53f
00000020: dc28 d73f c300 e53f dfbf 1940 d335 c03f
00000030: ea6b 0740 0e29 d93f 2c00 51bf 48de 8e3f
00000040: 53cf bebf 1ee7 4f3f 0aac 903f b456 df3f
00000050: f767 433f 5c00 a3bf 9e61 29c0 55a5 2dbf
00000060: 361f 80bf 2e62 843f b7f5 0dbf e632 47bf
00000070: a249 723f 1a04 57bf 9844 dcbf d309 433f
00000080: a872 8e3f c71e 863f d856 8e3f 1465 62bf
00000090: d06e e23f fc76 f53e 02d5 c03f 6935 a8bf
000000a0: 7edf d83f 36a4 84bf 81ae 44bf e116 99bf
000000b0: 98bd ab3f 4625 453f 7d00 823f 7636 6ebf
000000c0: 92ad 47bf b14a ad3f 0f72 263f b4b0 08bf
000000d0: 5c0e 3a3f 7e4d 863f 3760 a63f 4172 bdbf
000000e0: 708c 1440 8459 223f ec47 7a3f 8e7d 1d3f
000000f0: edf1 1e40 4dba 8f3f 89c6 5fbf 828e c03f
00000100: f406 363f 2ded 803f a730 f3be 022b 463f
00000110: 8a40 6c3f 3c77 5cbf bccd 2d3f 6858 a7bf
00000120: fd5d 0040 c9a1 1abf 8b4b 45bf ab27 2ebf
00000130: 2271 0fbf 6202 84bf 92d8 ccbf 8b73 ac3f
00000140: 405f 6dbf 7452 433f 7433 ee3e 07e7 20c0
00000150: a8c8 2dbf f0b8 b2bf 9aeb 0640 3bb1 5fbf
00000160: 35c8 bc3f afdf 2cbf 3fae 873f 0a96 aebf
00000170: c7a7 a73f 43b4 abbf 44ff 9f3f 7393 7cbf
00000180: aa0a 5ebf 7c4e d0bf 3ee7 17bf a9ea 1ebf
00000190: 16c9 823f 934b 84bf bf89 16bf 13fc 7b3f
000001a0: 34fc 89bf e893 7bbf bb9d b2bf b7f5 e3bf
000001b0: a819 41bf c71a 73bf dbbf 683f 0fa4 b5bf
000001c0: c589 23bf 40d5 663f edf2 933f 9fcd d43f
000001d0: d157 9a3f 3960 10bf c102 433f 0af5 febe
000001e0: f871 8abf f064 933f d577 de3f 6fa4 4cbf
000001f0: 8467 49bf 33f0 5bbf 0147 c83e 2c48 74bf
00000200: 1f48 5dbf 2653 573f b357 a33f 4ca7 11bf
00000210: bfd0 ce3f bbd4 2bbf 2fd0 6f3f df53 91bf
00000220: 4565 c9bf 59ff a73f ee00 1040 a5e8 96bf
00000230: 4710 3cbf de5d 17bf 24d8 3a3f ff38 ac3f
00000240: 795c 5a3f db2a b83f 3fc4 f53f 0670 5cbf
00000250: a432 80bf ff1f 073f a361 8cbf 538c a43f
00000260: d6bc 0340 6459 04c0 75b4 6a3f 8922 e1be
00000270: bf3d 65bf 30c1 053f b059 21bf 6767 1940
00000280: 6fb0 b5bf 43cf f2bf 408d 59bf 3615 d83f
00000290: dd71 b13f 7f90 27bf 2625 0f3f 1f9e 5dbf
000002a0: c8dd 48bf a203 573f f9b5 d83e b138 c1bf
000002b0: 5b9e 1e40 fe1c 68bf c326 96bf 8600 123f
000002c0: 81b9 3b3f 35c8 913f a705 823f 08d1 dd3f
000002d0: 1e50 f73f 857a 943f 9f83 4e3f e8ff 993f
000002e0: 52ea 62bf f190 e6bf 5f81 2ebf 1d8f bc3f
000002f0: 1787 483f 9935 513f f21f 393f 3c1b 4d3f
00000300: eb12 f43e 6840 f13e 5ecc 783f da8c f6bf
00000310: 4b69 af3f dfd9 56bf 2788 7f3f 5b20 78bf
00000320: d469 1cbf 4487 c5bf ad11 c9bf 5058 343f
00000330: 808d 44bf 25e8 3c3f 2520 6ebf 22a6 0940
00000340: 49ce 04bf d54a 80bf b10c f73e dc8d 953f
00000350: 9907 033f 29e4 da3f 1e67 92bf bcf8 7e3f
00000360: 21ab 633f e71f 4cbf 6bc2 913f c9bc 543f
00000370: 81f9 0a3f 8b89 29bf 1eb4 a9bf b48b 68bf
00000380: 5eae 0240 b859 f73e 7a89 eb3f e2d2 be3f
00000390: fafe 4b3f ad7d 66bf 8684 5ebf ae70 1a40
000003a0: c392 893f 06e0 a1bf 7886 463f a92d 823f
000003b0: a686 5c3f 1a6b 0840 3bdd 5b3f 9563 2540
000003c0: 63f7 f03e 4ab1 143f 0b67 c2be 50f9 13bf
000003d0: 341f a13f 17c7 30bf b8f2 dbbf 7b0d ae3f
000003e0: efdc 35bf 29b5 30bf 946e 43bf 3f21 6bbf
000003f0: 8a7e 7e3f e076 1ebf 61cb ca3f bfc0 733f
0.5164571 1.751593 -1.0087426 1.2151465 -1.3912376 -1.2612437 1.219642 1.7949463
1.6809344 1.7890857 2.402336 1.5016426 2.1159616 1.6965654 -0.8164089 1.1161585
-1.490702 0.8121203 1.1302502 1.7448335 0.7633051 -1.2734485 -2.646583 -0.678304
-1.0009525 1.0342462 -0.55453056 -0.7781204 0.94643605 -0.83990633 -1.7208433 0.76186866
1.112874 1.0478142 1.1120253 -0.8843548 1.7690067 0.4794234 1.5065005 -1.31413
1.6943204 -1.0362613 -0.7682877 -1.1960107 1.3417234 0.7701 1.0156399 -0.9305185
-0.7799922 1.3538419 0.6501779 -0.5339463 0.7267816 1.0492399 1.2998112 -1.4800493
2.3210716 0.6341784 0.97765994 0.61519706 2.483516 1.122873 -0.87412316 1.504349
0.7110436 1.007238 -0.47498056 0.77409375 0.9228598 -0.8611944 0.6789205 -1.3073854
2.0057366 -0.60403115 -0.77068394 -0.6802928 -0.56032 -1.0313227 -1.6003592 1.3472761
-0.92723465 0.7629769 0.4652363 -2.5141008 -0.678843 -1.3962688 2.10813 -0.8737981
1.4748598 -0.67528814 1.0600051 -1.3639538 1.3098077 -1.3414387 1.2499776 -0.9866249
-0.8673502 -1.6273952 -0.5933722 -0.62076813 1.0217617 -1.0335563 -0.58803934 0.9843151
-1.0780091 -0.9827256 -1.3954386 -1.7809361 -0.75429773 -0.94962734 0.9091775 -1.4190692
-0.63882095 0.90169144 1.155851 1.662525 1.205805 -0.56396824 0.7617608 -0.49796325
-1.081603 1.1515179 1.738032 -0.79938406 -0.7867358 -0.8591339 0.39116672 -0.95422626
-0.86438173 0.8411125 1.2761139 -0.568959 1.6157454 -0.67121476 0.9367704 -1.135372
-1.573403 1.3124801 2.2500567 -1.1789747 -0.7346234 -0.59127605 0.72986054 1.3454894
0.8529735 1.4388078 1.9200515 -0.86108434 -1.0015454 0.527832 -1.0967296 1.2855324
2.0584006 -2.067956 0.91681606 -0.4397166 -0.8954734 0.52247906 -0.6302748 2.3969362
-1.4194468 -1.8969501 -0.84981155 1.6881473 1.3862873 -0.6545486 0.5591606 -0.865694
-0.7846341 0.8398992 0.42326334 -1.5095426 2.4784153 -0.9066924 -1.1730579 0.5703205
0.7332993 1.1389223 1.0157975 1.7329416 1.9321325 1.159989 0.8066959 1.2031221
-0.88638794 -1.8012983 -0.68166155 1.4731175 0.7833113 0.8172241 0.7231437 0.8011968
0.47670683 0.4711945 0.9718684 -1.9261734 1.3704008 -0.83926195 0.99817127 -0.9692437
-0.6109898 -1.5431905 -1.5708519 0.70447254 -0.7677841 0.73791724 -0.930178 2.150765
-0.51877266 -1.0022837 0.4825187 1.1683917 0.5118347 1.7100879 -1.1437719 0.9959829
0.88932997 -0.7973618 1.1387457 0.83100563 0.5428696 -0.662255 -1.3258092 -0.9083817
2.0418925 0.48310637 1.840133 1.4908106 0.7968594 -0.90035516 -0.86920965 2.4131274
1.0747913 -1.2646492 0.77548933 1.0170184 0.8614296 2.131537 0.85884446 2.584203
0.4706374 0.5808302 -0.3796924 -0.57802296 1.2587647 -0.69053787 -1.7183447 1.3597864
-0.7104024 -0.6902643 -0.76340604 -0.91847605 0.99411833 -0.6190014 1.5843316 0.9521598
