runs/checkpoint_actor_256_192021_tau1_40.pth (torch, 288535 bytes, 6 tensors)

fc1.weight f4 [256, 19]
000000 0a e0 49 bd 60 0e f1 3b 5c bd 6b bd 0e 33 4f bd
       -0.049285926 0.00735645 -0.057553634 -0.0505858
000010 30 24 b9 bc 50 3e 61 bd 70 7f 58 bc 78 9c 70 bc
       -0.022600263 -0.054991066 -0.013213977 -0.014685743
000020 86 1b 54 bd 68 50 06 bd 70 01 bd 3b 98 fa be 3c
       -0.05178406 -0.032791525 0.0057679936 0.023312852
000030 84 69 2b bd 28 2b 2f 3c 00 32 60 3d 98 ce 6a bc
       -0.041848674 0.010691442 0.054735184 -0.014331482
000040 2c 79 9b 3c d8 41 4d 3c 00 67 13 bb 32 bf 79 3b
       0.018978678 0.012527905 -0.0022491813 0.0038108346
000050 05 4a 79 bc 37 d6 03 3e 46 64 a2 3b 10 98 4f be
       -0.015215402 0.12874685 0.004955801 -0.20272851
000060 99 be 9b 3c 61 0b fb 3d 06 89 ed 3c 6a 2d a8 bd
       0.019011782 0.1225803 0.028996002 -0.08211787
000070 96 53 b2 3a 2a 27 bd bc d3 41 df bc e9 db 91 3d
       0.0013605233 -0.023089964 -0.027253067 0.07122023
000080 24 db 97 3d 98 bf 93 bb 67 33 ca bd 0c c7 5d bd
       0.07414845 -0.0045089237 -0.098730855 -0.054144904
000090 ce a3 a7 bd c4 85 41 bc 26 b4 09 be 35 e4 c9 3c
       -0.0818554 -0.011811677 -0.13447627 0.02464495
0000a0 ce 73 70 3d cb 5e af 3c 3a b1 98 bd fd 77 d7 3a
       0.05870419 0.021407505 -0.07455678 0.0016438958
0000b0 b5 0d 20 3e 27 b6 14 be de a8 e9 bd 01 38 4c be
       0.15630229 -0.1452261 -0.11409162 -0.19943239
0000c0 8f 22 31 bd b8 5d 25 bc 4a 70 16 3d 0d 39 c9 3d
       -0.04324585 -0.010093145 0.03672818 0.09825335
0000d0 dd 54 84 bd 01 f4 33 3d 7f fa 3e be 92 44 c0 bd
       -0.06461499 0.043933872 -0.18650244 -0.09388079
0000e0 3b e6 6c bd 9f 7b 26 3d 46 55 f3 bb bf 2f 7f bd
       -0.057836752 0.040645238 -0.007425937 -0.062301394
0000f0 4c 35 ae bd 68 4f fa 3d 4d b2 55 3a c5 a2 ac be
       -0.08506259 0.12222177 0.0008151874 -0.33717933
000100 8c 10 c3 be 44 c5 ca be 5e 1d a2 be 67 20 3d bd
       -0.38098562 -0.39603627 -0.3166303 -0.04617348
000110 a8 e9 9e bc 24 dc c1 3c 0d db ab bc 51 fb 7a bd
       -0.019398525 0.023664542 -0.020978475 -0.06127483
000120 59 0c 26 be fd a6 0c 3d bc 81 8d bd 4b 6d 46 3d
       -0.16215648 0.03433894 -0.069095105 0.048444074
000130 19 73 63 bb 18 24 9c 3d 53 35 04 bc 0e 55 1f bd
       -0.0034706055 0.07624072 -0.008069354 -0.038899474
000140 84 3b 9c 3e 63 e5 23 be 70 43 43 be 44 2f 57 bd
       0.30514157 -0.16005473 -0.19068694 -0.05253531
000150 d6 5b 14 3c 17 aa 7c bc cb 47 6c 3d 3a 51 9b bc
       0.0090550985 -0.015421412 0.057685655 -0.01895963
000160 8d 05 f7 3c 69 63 ea 3d 46 29 bf 3d 24 95 f9 bd
       0.030154014 0.11444742 0.09334044 -0.121866494
000170 f1 d3 cb bb ea 8f c1 3b 93 bd 9f bd 1d c1 74 be
       -0.0062203337 0.0059070485 -0.0779983 -0.23901792
000180 c6 b1 10 3d fd 35 10 3b 84 02 eb 3c 53 ef 56 be
       0.035325788 0.0022004836 0.028687723 -0.20989732
000190 7a cb 1e bd 66 c4 d2 3e 21 85 a0 3e 17 91 95 3e
       -0.03876827 0.41165465 0.3135157 0.29212257
0001a0 e8 9a 91 3e 1e e3 d5 bc 32 f6 bd 3a 89 f7 7f 3d
       0.28438497 -0.026109274 0.0014492928 0.062491927
0001b0 8d 64 59 bc a9 4e f0 bd 93 98 8c bc f9 fa 17 be
       -0.013268602 -0.11733753 -0.017162597 -0.14841832
0001c0 1a 10 0f 3d 75 cd fc 3c f7 4b a4 bd 26 96 8f bd
       0.034927465 0.030859688 -0.08022302 -0.070110604
0001d0 8c 3f 09 bd d7 3a d0 3c a5 cd c8 3c 11 7e aa bd
       -0.03350787 0.025418682 0.024512121 -0.083248265
0001e0 aa ce bb 3c 4d 15 e5 bc 11 10 fe bc 37 d1 97 3d
       0.022925694 -0.027964259 -0.03101352 0.074129514
0001f0 c2 3e 2d bd bc 28 71 bd 80 d6 2d 3a 77 9a 39 bd
       -0.04229618 -0.058876738 0.0006631389 -0.045313325
000200 ac 41 ee bc 45 4b 85 3d a1 5f 7c bc 5c e1 8a bd
       -0.02908405 0.06508497 -0.015403659 -0.06781265
000210 8f 32 55 bd 89 62 00 3c b8 84 4b 3d 31 93 64 bd
       -0.05205017 0.007835993 0.049687117 -0.055804435
000220 2f 3a ad bd 90 bb 96 3e 14 30 23 bc 81 78 fa 3c
       -0.08458363 0.29439974 -0.009960193 0.030575039
000230 7e e6 da ba a9 f9 02 3d 9e 32 ea 3c b2 f5 87 3d
       -0.0016700772 0.031976376 0.02858859 0.066386595
000240 d1 09 4f 3d c3 c2 dc 3c 09 73 78 3c 0b 83 b4 3d
       0.05054647 0.026948338 0.015164145 0.08814057
000250 4d 58 1b 3e fc 2f 84 bd 7f 88 54 bd 2b 8e b2 bd
       0.15170403 -0.06454465 -0.051887985 -0.08718523
000260 7d e3 9a 3a 88 a4 f6 b9 20 f5 0b bd b6 e9 75 3d
       0.0011817064 -0.00047043362 -0.034169316 0.060037337
000270 e6 b2 b0 bd 64 5d 41 bd 88 c7 45 3d fc 5a 49 3e
       -0.08627872 -0.047208205 0.04828599 0.19663614
000280 da d3 7d 3e b5 fe 3d 3e f8 c1 7e bc 96 ab f1 bc
       0.24787846 0.18554194 -0.015549175 -0.029500764
000290 9d 84 ae 3c 9a 00 9f bd ef 5c 56 bc ff be 9d 3d
       0.02130347 -0.077637866 -0.0130836805 0.07702445
0002a0 a2 42 2d be 71 33 ad 3c bb 62 8a bd 49 55 a9 bb
       -0.1691995 0.021142693 -0.067571126 -0.0051676375
0002b0 7a 75 f5 bc 4b 62 73 3d ee 2c 91 3d c2 3b 96 bd
       -0.029963244 0.05941991 0.07088648 -0.07335617
0002c0 9e 72 42 bc b5 60 89 3d c7 7e 03 bc 33 86 7f bd
       -0.011868147 0.067078985 -0.008025832 -0.06238384
0002d0 ee 31 95 bd 98 82 88 3c 4a 84 66 bd 1b bf 7c bd
       -0.07284914 0.016663834 -0.056278504 -0.06170569
0002e0 16 c0 1b 3e 99 45 0a be 3c 4e 98 bc 58 4a b9 3b
       0.15209994 -0.13503112 -0.018591993 0.0056546144
0002f0 4d dd bc bd 77 f1 8f bd 82 0b 81 bd 57 71 37 3d
       -0.09221897 -0.07028478 -0.06301023 0.044785824
000300 67 f8 e6 bd 55 d8 77 3c 21 20 6f 3d f8 0f 90 3c
       -0.11277848 0.015127261 0.05838025 0.01758574
000310 1f ee 94 be 3e ee 4d 3e 7e 06 1e 3e 4a e8 35 3e
       -0.29087922 0.20110413 0.15432164 0.17764392
000320 b1 dd 47 bc 8c 4f c7 3c 43 54 4c 3d 56 3c b7 bc
       -0.012198851 0.024329923 0.049885046 -0.022367638
000330 e5 0d 2d 3d fd b8 97 bd 03 c7 6c bb fa f8 d8 bd
       0.04224958 -0.074083306 -0.0036129362 -0.105943635
000340 7c 7a 92 3b a6 09 85 bd 74 b9 b8 3c ec 28 2e bd
       0.0044701677 -0.06495981 0.022549368 -0.042519495
000350 a5 8e 0d bc ec 19 26 3d 4f cb 10 3d 4a 8d 6a bd
       -0.008639966 0.040552065 0.03535014 -0.05726365
000360 5a b2 ae bc 7a d0 31 bd ce 8f 52 3d b7 2e 86 bc
       -0.021325279 -0.04341171 0.051406674 -0.016379697
000370 e3 dc 8b 3c 4a 6b 33 bd 3c e6 dd 3c 32 6b fc bc
       0.0170731 -0.04380349 0.027087323 -0.030812833
000380 f3 54 40 3c d6 b4 5e bd 5f af b5 bc 84 ed 63 bd
       0.0117390035 -0.054371677 -0.02217835 -0.055646434
000390 68 ff 8e ba 86 87 21 3c c6 4a 9d 3d 50 8c 68 3d
       -0.0010909857 0.009858971 0.076802775 0.056774437
0003a0 6d 2a d4 bd 52 a3 ca 3c 7f 51 9d 3e 7f d7 28 bd
       -0.103596546 0.02473608 0.3072624 -0.041221138
0003b0 16 c3 fb bc cd 0d 17 be ea 4f a4 3c c1 78 a6 bc
       -0.030732673 -0.14751358 0.020057637 -0.020321252
0003c0 f1 ab b1 bb af f8 a8 3d 2b 20 2d bd 8b 59 93 3d
       -0.0054221083 0.08250558 -0.042267006 0.07194813
0003d0 83 14 10 be 6e 54 a1 bd cd 26 08 3c 9e 39 23 bd
       -0.14070325 -0.07877432 0.008310032 -0.03984987
0003e0 e2 ab 59 3d 69 42 92 3d 60 9f 5e bd d9 72 96 be
       0.053142436 0.07141573 -0.05435121 -0.29384497
0003f0 40 06 e1 bd 16 17 79 3e ab 19 a0 3d 60 44 82 3b
       -0.1098752 0.24325213 0.07817396 0.003975436

fc1.bias f4 [256]
000000 05 19 8d 3d a6 ac 09 be ba c8 38 3e e4 0d 77 bd
       0.06889538 -0.13444766 0.18045321 -0.06031598
000010 d6 2f 0f bc 3c 4d 0f 3e d6 fe 29 3e 99 5c fb bd
       -0.008739432 0.13994306 0.16601118 -0.12273521
000020 e9 03 56 bd 4c 20 09 be 2b aa 31 3e e1 29 3f 3e
       -0.052249823 -0.13391227 0.1735007 0.1866832
000030 9d ec 2d 3e ad cc c9 3d ea 7b ed bd 29 c2 35 3d
       0.16984792 0.09853492 -0.115959 0.04437462
000040 76 bd e5 bd f5 33 e1 3d f2 90 20 be 04 9d 21 bc
       -0.112177774 0.10996238 -0.15680292 -0.009864096
000050 3b 92 75 3e 59 9f c8 3d fe 6b 0e be 3b 95 3b bc
       0.23981564 0.09796018 -0.13908383 -0.011449154
000060 12 5d da bc 96 34 55 be 1b ed fc bd 16 25 03 be
       -0.026655708 -0.20820841 -0.12349912 -0.12807116
000070 55 fe b6 3d 77 2b 98 bd c1 40 97 3d 5f e2 79 3e
       0.08935229 -0.07430165 0.07385398 0.2440276
000080 28 f7 51 3e 81 b8 93 bd 03 3f 5a 3e f5 a9 a8 bd
       0.20504439 -0.07212926 0.213131 -0.08235542
000090 5a f8 cd 3b 42 3f 3a 3d 08 44 04 be c6 fb 81 be
       0.0062857093 0.045470484 -0.12916577 -0.253874
0000a0 8f cf c8 bc f7 c0 10 3e 65 04 86 be 55 cd 41 bc
       -0.024513034 0.1413611 -0.26175228 -0.01182874
0000b0 13 fb cd bc cb ff cf bc 5a 25 1b 3d c7 ed 20 be
       -0.025144136 -0.025390526 0.037877418 -0.15715705
0000c0 f7 98 1c 3e d2 72 62 3e 83 62 3b 3e 6d 28 c8 3d
       0.15292726 0.22114113 0.18299298 0.097733356
0000d0 52 d1 26 be 92 64 2b be 7b 1e 21 be 6e c0 24 3c
       -0.16290787 -0.16737583 -0.15734284 0.010055644
0000e0 e8 45 11 3e a5 8c 02 be aa f5 f6 3c 4b bd 58 bd
       0.14186823 -0.12748964 0.030146439 -0.0529149
0000f0 65 3d 98 bd 9d 3f 00 be 0a f3 53 be 4f 95 0a 3e
       -0.07433585 -0.12524267 -0.20698181 0.13533519
000100 7a a7 86 bd 89 e3 86 3e 7e 57 9d bd e7 6c 2b 3d
       -0.06574912 0.2634547 -0.076827034 0.041851904
000110 c5 65 1d be 90 dd 55 be 40 46 0f 3e 49 49 d2 3c
       -0.15370853 -0.208853 0.13991642 0.02566971
000120 a0 c1 0a 3e ba d7 8c bd 26 fd 17 bc 78 bc 23 bc
       0.13550425 -0.06877084 -0.009276664 -0.009993665
000130 94 e4 5d bc b7 39 59 bd 7b b6 6f 3e 6a 7a 83 bb
       -0.013543267 -0.053033557 0.23409455 -0.0040123956
000140 e4 d3 c6 3d de f7 33 be a4 86 47 be d4 82 59 3d
       0.09708384 -0.17575023 -0.19484955 0.053103283
000150 1e a3 4c 3e aa 8d 6d be 95 75 b3 bc 1a 8b 13 3e
       0.199841 -0.23198572 -0.021906653 0.14408532
000160 00 b0 55 be 4b 41 ee 3d 9e 3d 1e 3c 03 b1 95 bd
       -0.2086792 0.116335474 0.009658245 -0.07309153
000170 4b 93 11 be 0e dc 1b 3e af 08 b1 bd 54 e0 57 be
       -0.14216344 0.15220663 -0.086442344 -0.21081668
000180 ad c8 e1 3d 89 91 45 3e 78 30 80 3e b7 3e 2d be
       0.11024604 0.19293799 0.2503698 -0.16918455
000190 f5 26 49 bd 2a 7b 64 3e 2f 83 bd bd ca 27 1e be
       -0.049109418 0.22312608 -0.09253537 -0.15444866
0001a0 2c fd 35 3e 51 d5 c9 3d a9 ae 9d bd 1f 44 f1 3d
       0.17772359 0.0985514 -0.076993294 0.11780571
0001b0 61 f8 40 bd e8 e6 d6 3d 1e 97 a6 3d 0e 78 5e be
       -0.047111873 0.104932606 0.08134292 -0.21725485
0001c0 f7 f3 bf bd cf 16 b4 bd 5e 7c 82 3d f5 e9 48 3e
       -0.093727045 -0.08793413 0.063713774 0.19620498
0001d0 79 79 aa bd 32 f8 83 3d 5e e5 b8 3d a6 0a 4e 3e
       -0.0832395 0.06443824 0.09028123 0.2012125
0001e0 1d 1a ea bc f6 45 83 be d0 e5 10 3e f7 fd 6c 3e
       -0.028576905 -0.25639313 0.14150167 0.23143755
0001f0 a8 38 84 3d a2 3c 85 be dc bc 8d bc d2 ee fa 3d
       0.06456119 -0.26022822 -0.01730197 0.122525826
000200 6b bc 10 bd 35 b9 d9 bc 02 d1 9c bd 31 49 c3 bc
       -0.03533594 -0.026577571 -0.076570526 -0.023838611
000210 a8 4d 66 bd aa de bf bc 7d f7 99 bc 0c 31 f8 3b
       -0.056226403 -0.023421604 -0.01879477 0.007574206
000220 5c 1b 1a bb 14 79 57 be e7 3b 0f be e0 9f 4f 3e
       -0.0023514843 -0.21042281 -0.13987695 0.20275831
000230 48 08 bb 3c b7 98 25 bd 43 27 87 be 74 34 13 be
       0.022831097 -0.040428843 -0.26397142 -0.14375478
000240 e1 9d b6 3d 97 e9 ae 3d 25 3d 5b bd 24 d8 05 3e
       0.08916832 0.085406475 -0.05352511 0.13070732
000250 f8 93 06 3d d1 02 bc bd 3e be 0a be 1a bb bc 3c
       0.032855958 -0.09180225 -0.13549134 0.023038436
000260 0d 20 8f bb 47 d5 05 3e 83 5d 17 be fe ad 59 be
       -0.0043678344 0.1306964 -0.14781766 -0.21257779
000270 62 54 32 3e be be 7f 3d 14 40 aa bd e4 0d a3 bd
       0.17415002 0.062437765 -0.08313003 -0.07961634
000280 93 03 7e be 43 5a f9 bd 6c 32 59 3e df e3 06 3e
       -0.24806051 -0.12175419 0.2121064 0.13172863
000290 04 1e e5 3a 3f 3a 94 bd 4f 00 d3 3d 4e ca d8 3c
       0.0017480259 -0.07237672 0.10302793 0.026463654
0002a0 6b c0 c5 bd 22 37 13 be 20 0f 39 be 91 e5 0c be
       -0.096558414 -0.143765 -0.18072176 -0.13759448
0002b0 7d f6 e3 3d 41 00 27 3e c5 a5 5c 3d 24 dc 5f be
       0.11130998 0.1630869 0.053869028 -0.2186132
0002c0 bb 51 6b 3e 86 37 4e be 10 21 94 bb 7c aa 2a 3e
       0.22980396 -0.20138368 -0.004520543 0.16666597
0002d0 85 e2 0c bd 7e 40 29 be 64 21 44 3e 05 7b be bd
       -0.034395713 -0.16528508 0.19153363 -0.09300808
0002e0 e7 38 67 bd 2f f7 80 be 1d 6b 54 bc 5c fc 00 3e
       -0.05645075 -0.25188586 -0.012964991 0.12596267
0002f0 31 98 37 3d ac 6c 1a bd 53 9f 71 be 50 2e 8c 3e
       0.044822875 -0.037701294 -0.23595934 0.27379084
000300 ea 12 2d bd e9 79 be 3d 5d 18 bf bd 16 f8 f5 bd
       -0.042254366 0.09300596 -0.09330819 -0.12010209
000310 91 09 3c 3c 02 2c 26 bc 66 05 d7 bd e9 c7 03 be
       0.01147689 -0.010142328 -0.104990765 -0.12869228
000320 d8 36 3d 3c fb 6b 4b be 8b a2 1d 3e 46 5c 6d 3d
       0.01154872 -0.1986541 0.15394036 0.057949327
000330 97 c6 2c 3e db 60 4c 3e 7d 01 c8 3d 65 27 c0 bc
       0.16872631 0.19958822 0.09765909 -0.023456285
000340 52 d2 65 be 43 7a 75 be f8 39 b7 bd c4 57 1f be
       -0.22443512 -0.2397242 -0.089466035 -0.15560824
000350 30 6e 8f 3d 26 7b 86 be 6e 52 0c 3e c4 62 b0 3d
       0.070034385 -0.2626583 0.1370332 0.08612588
000360 70 d5 f0 3d 2b 9a ff bc a5 83 90 3d 6b ce 46 be
       0.1175946 -0.031201443 0.07056359 -0.1941468
000370 aa 98 0b be 22 a0 2b be d3 22 05 3d 6a f6 4f be
       -0.13632455 -0.16760305 0.032503914 -0.20308843
000380 1c a2 6e 3e d5 fd c2 3d 0c 1d 9f bc c8 c1 05 be
       0.23304027 0.09521071 -0.01942303 -0.13062203
000390 22 35 f5 3c 75 f6 37 be 69 9a 8d bc c2 2e 70 bc
       0.029932562 -0.1796511 -0.017285543 -0.014659585
0003a0 49 fd 74 be d9 58 2d be 49 f3 e6 bd d3 8e 4a be
       -0.23924746 -0.16928424 -0.11276872 -0.19781046
0003b0 6e 19 9a 3d a6 ef 31 3e 14 fa 39 3d 12 92 9d 3c
       0.075243816 0.17376575 0.04540451 0.01923469
0003c0 14 07 9f bb f7 73 39 3e 03 e8 bb 3c 5f da 40 3e
       -0.0048531387 0.18110643 0.02293778 0.18833302
0003d0 e2 be 65 3e 54 4f 12 b9 04 08 09 bd 38 f1 6b 3d
       0.22436097 -0.00013953197 -0.03345491 0.05760309
0003e0 d9 65 dc 3c 67 8f 37 3e 05 4d f1 3c 43 10 3c be
       0.026904033 0.17925797 0.029455671 -0.18365578
0003f0 78 22 fc 3d 01 80 0a be 86 27 94 3d 13 87 5c be
       0.12311262 -0.13525392 0.07234101 -0.21535902

fc2.weight f4 [256, 256]
000000 f4 05 58 3d e8 e6 b2 3a b5 0e f1 bc bf 7c f0 bd
       0.052740052 0.0013649138 -0.029425958 -0.117425434
000010 33 64 9b bd f0 47 d9 3b 22 bb 41 bd 64 b8 a0 3d
       -0.07587471 0.00663089 -0.047297604 0.0784767
000020 4d f9 83 3d 8b 66 9c 3c d2 07 0e bd f8 9d b6 bc
       0.06444035 0.019091865 -0.034675427 -0.022292122
000030 8c 02 87 3d 49 70 1d 3d 8f b7 4f 3c 83 46 1e 3c
       0.06592283 0.03843716 0.012678041 0.009660366
000040 17 90 1b 3c 2c e2 b4 3c 38 eb 02 bc c7 ca b7 3c
       0.009494803 0.022080503 -0.007990651 0.022435559
000050 76 4b 00 3d bc ea 2a bd e7 6a f8 3c 4f 77 ac bc
       0.031321965 -0.041727766 0.030324413 -0.021052985
000060 86 7d 8b 3c cf 0c b1 bd 98 48 73 3d b0 20 04 be
       0.017027628 -0.08645021 0.059395403 -0.12903094
000070 48 c2 aa 3c 8a d2 28 bd e3 dd 28 3d af 46 3a 3d
       0.020844594 -0.04121641 0.041227233 0.045477565
000080 7d 8b e0 bd 65 1a 97 3c 08 9a 79 3d f1 c8 78 bd
       -0.10964105 0.018445203 0.06093791 -0.060738508
000090 d7 d1 c8 bb b8 a7 8f 3c bd 6a c0 3d dc 21 98 bc
       -0.0061285305 0.01753603 0.09395359 -0.018570833
0000a0 1b 11 ab bc 0c b2 95 3d 65 b6 47 bd a0 5e 3d 3b
       -0.02088218 0.0730935 -0.04875793 0.0028895512
0000b0 ed 2e 42 3d 7d e3 2f 3c 99 c6 c8 3c 8d db 1b 3e
       0.047408033 0.01073539 0.024508761 0.1522047
0000c0 e1 fa ba 3d 11 28 2c 3d 18 d2 31 bd ac 13 81 3d
       0.091298826 0.042030398 -0.04341325 0.0630258
0000d0 94 dd 1f 3d c6 d7 2e bd 19 8b 39 3d 96 cd 63 3d
       0.039029673 -0.042686246 0.04529867 0.055615984
0000e0 b7 f1 27 3c c0 5f 06 3c 00 f9 22 bb 91 f4 59 3c
       0.0102505 0.0082015395 -0.0024867654 0.013302938
0000f0 54 3a 90 3c 2f 67 33 3d 40 16 7c 3c f0 41 7b 3c
       0.017605938 0.043799575 0.015386164 0.015335545
000100 f0 a3 63 3d 54 07 0e be 5f 8e c1 3c c5 77 21 bc
       0.055576265 -0.13869983 0.023627458 -0.009855215
000110 14 2b d7 3c 60 4f 1a be a5 90 0e 3d db 8a 45 3d
       0.026265658 -0.15069342 0.034805913 0.048228126
000120 c5 3f 11 be c0 1e 9a 3c 4b 3c e1 bb 04 5e 6a bd
       -0.14184482 0.01881349 -0.0068736426 -0.057218567
000130 19 67 3a bd 87 03 f6 3d 22 00 ac bc c1 27 f9 3c
       -0.045508478 0.120123915 -0.020996157 0.030414464
000140 66 86 6a bd f1 c8 a2 3d 22 ff 33 be 58 5b 41 bd
       -0.05725708 0.07948483 -0.17577794 -0.047206253
000150 15 9e 89 bd 98 63 b1 3d 52 ca 09 3d 31 a7 71 bb
       -0.06719605 0.08661574 0.033640213 -0.0036873335
000160 00 30 e2 bc a9 8f 04 3d bb 94 1b 3d 3c 18 ba bd
       -0.027610779 0.032363568 0.037983637 -0.090866536
000170 d2 01 4e bd 85 ee 59 bd d7 dd 2a 3e 60 87 28 3c
       -0.050294705 -0.053205986 0.16686188 0.010286182
000180 a2 d9 5e bd 6c cf a6 bd 67 b9 da bc b2 5d 76 3d
       -0.05440677 -0.08145031 -0.026699735 0.06014795
000190 bc 70 a3 3c 4b 2c 4d 3c 7f 2d 8a 3d b4 f4 06 bd
       0.019951217 0.012522767 0.06746959 -0.03294821
0001a0 28 af 96 bc 10 62 30 3c 17 08 6e bd b7 a5 ad bd
       -0.018394068 0.010765567 -0.058113184 -0.08478873
0001b0 43 0a af bd d3 26 5a bd df 1d 8a 3d f2 55 61 3c
       -0.08546879 -0.053259682 0.06743979 0.013753401
0001c0 b4 e3 19 bd 98 89 e7 3c 0e 65 0d 3b a7 75 bd 3d
       -0.03757067 0.028263852 0.0021575126 0.09250956
0001d0 4f b3 2f be d5 16 9e bc 34 a8 a9 bd d5 80 53 bd
       -0.17158245 -0.019297997 -0.08284035 -0.051636536
0001e0 66 1f ca 3c 7b 2c 5c bd 48 d8 55 3c 96 18 f1 bd
       0.024673175 -0.053753357 0.013052054 -0.117722675
0001f0 1b 4e 23 be 2c ec 77 bc 40 5a 4f 3d 01 8e 27 3e
       -0.15947764 -0.015131991 0.05062318 0.16362764
000200 fb 15 35 be 61 71 b4 bc f9 ba 53 bd 33 66 ab 3d
       -0.17684166 -0.02202672 -0.051691983 0.08369102
000210 d0 69 1d 3c 20 b2 44 bd 28 f4 44 3d eb 00 26 be
       0.009607747 -0.048021436 0.048084408 -0.16211288
000220 1f 87 42 3c 74 1d a6 bc 3a ea 8e bc 0e 70 bc bc
       0.011873036 -0.020277716 -0.017445672 -0.02300265
000230 19 84 70 3d 57 cd 0d be 38 7c 97 3c 80 25 e1 3d
       0.05871973 -0.13847862 0.01849185 0.10993481
000240 82 8c 40 3d 30 74 df bd 2d c1 c5 3d e1 e8 a1 bd
       0.047009 -0.10910833 0.09655986 -0.07905746
000250 8b 43 02 be c2 7a 19 bd ce 78 4e bc 5a 64 18 be
       -0.12721078 -0.037470587 -0.012602044 -0.14882031
000260 fd 6b c4 bc 8f 8d 0b 3d 2c ee a8 bd 98 58 ce 3c
       -0.023977274 0.034070548 -0.08248553 0.02518873
000270 74 71 be 3c f6 d1 7b bd 3d c9 9e bd 2f 67 5e bc
       0.023247458 -0.06147953 -0.07753227 -0.013574406
000280 36 65 3f bd 15 90 74 bd 92 d2 53 bd e9 9e 10 bd
       -0.04672738 -0.05970772 -0.051714487 -0.0353078
000290 be 31 4b 3d a5 76 ff 3b 56 cd b6 3d 20 e3 fc bb
       0.049607985 0.007796126 0.089258835 -0.007717505
0002a0 aa a8 62 bd 5f a3 6a 3d cb 31 96 bd 5d a9 f4 bd
       -0.05533663 0.05728471 -0.07333716 -0.11946366
0002b0 1b 29 ad 3c 7c 0f 88 bc 84 92 b0 3b 6f 4c 85 bd
       0.021137765 -0.016608946 0.00538856 -0.06508719
0002c0 11 e5 5a 3d c1 ca 45 bd 2b 1f 16 bd 60 4b f0 3d
       0.05344111 -0.048289064 -0.036650818 0.11733127
0002d0 0a 71 f1 bd e8 de 70 3d 25 e3 af bc e1 8d 15 3d
       -0.117891386 0.05880633 -0.021470616 0.03651226
0002e0 22 11 0d bd 06 dd ef bd 35 68 f5 bb 75 bd c4 3d
       -0.034440167 -0.11712079 -0.007489229 0.096064486
0002f0 00 4a 74 bc 6b 98 82 3d 05 c0 96 bd 14 41 03 3d
       -0.014910221 0.06376728 -0.073608436 0.032044485
000300 24 35 84 3c 49 24 bc bd 6d ce 01 bc fe 24 d6 bc
       0.01613862 -0.09186608 -0.007922751 -0.026140686
000310 f7 12 86 bd f5 eb 5c bd 75 c8 21 be 8e 4d 01 bd
       -0.06546586 -0.053935964 -0.15799125 -0.031568103
000320 95 64 05 3e 2a 5b 7c 3d d0 b1 7f bd 6a 61 b6 3c
       0.1302665 0.06161038 -0.062425435 0.022263248
000330 d8 be e8 3b b1 87 9b 3d 8e d8 6c 3d 80 71 c3 3d
       0.0071028285 0.075942405 0.05782371 0.09543133
000340 88 c3 54 bd 58 43 e2 bc f5 fd 35 3d 67 f9 77 bd
       -0.051944286 -0.027620003 0.044431645 -0.060540583
000350 05 65 de 3d 46 f3 c3 bc 7b c3 31 bd 5c d7 50 bd
       0.10859112 -0.023919713 -0.043399315 -0.050986633
000360 b6 49 08 3a 11 48 4c 3d a7 12 19 bd b1 bd 60 3b
       0.0005198972 0.049873415 -0.037371304 0.0034292752
000370 47 ec 2c 3d a1 41 c0 3d 08 5b 05 3e 89 18 a4 bd
       0.04221752 0.09387518 0.13023007 -0.08012492
000380 ec 34 24 bd 63 44 c0 3c a4 12 23 bd 4a a1 b6 3d
       -0.040089533 0.02347011 -0.0398127 0.08917482
000390 23 a1 b4 3c f8 a6 50 3d 1b b5 14 3c ad ca be 3b
       0.022049492 0.050940484 0.009076382 0.0058225007
0003a0 56 29 49 be 97 80 03 bc 65 b9 9e 3c 5e 75 8a bd
       -0.19644675 -0.008026264 0.019375512 -0.06760667
0003b0 db 23 34 3d 29 c2 39 bd 89 75 3c 3d 80 4c 71 bc
       0.043979507 -0.04535118 0.046010528 -0.014727712
0003c0 57 c0 33 3d 0a e2 20 bd cb 24 21 bd 6a 13 49 3d
       0.0438846 -0.039278068 -0.03934173 0.04909078
0003d0 fa 3c 88 3d 60 6d 5f bb c8 c1 1c 3d 45 30 d3 3b
       0.06652255 -0.0034092292 0.03827074 0.006444963
0003e0 ba 0c 5f 3c 00 4a e0 3a dd b9 42 3d 6f 30 18 bd
       0.013613874 0.0017111897 0.047540534 -0.037155565
0003f0 2e c3 80 3c a2 21 58 3c 83 2c cf 3c 40 b7 cd bb
       0.015718069 0.013191612 0.02528978 -0.0062779486

fc2.bias f4 [256]
000000 66 b3 24 3d ed 2e fb bb ae 67 25 3d 2b c6 8e 3c
       0.04021015 -0.007665506 0.04038208 0.017428478
000010 7f b6 0a 3d 71 7a 12 bd da df 8c bd 5d 37 ef 3c
       0.033865448 -0.0357613 -0.06878634 0.029201204
000020 1c 6a 95 bc 75 02 13 3d 0a c0 40 3d 64 05 26 3c
       -0.018239073 0.035891015 0.047058143 0.010133121
000030 45 7d da bc 27 7b 57 bc 59 81 a2 bd 6f a9 15 3d
       -0.026671061 -0.01315192 -0.07934827 0.036538538
000040 7c 9e f1 bc 72 54 5d bc 84 23 b9 3d 91 e8 23 bd
       -0.029494517 -0.013508903 0.09039977 -0.040016714
000050 07 32 9b 3d f2 e5 8e 3c b2 41 5f bd 85 83 4d bd
       0.07577901 0.01744363 -0.05450601 -0.050174255
000060 2d 54 89 3c 6d ed 33 3c f8 02 5d bb f4 12 69 bb
       0.016763771 0.0109819 -0.0033723693 -0.0035564275
000070 89 75 6f 3c b5 15 c5 bc d1 ca 84 bd ca ad 8e bd
       0.014615425 -0.024058202 -0.06483997 -0.069667414
000080 56 c6 80 bd bc 57 f9 3c 93 f5 1b bc 53 5e 2d bd
       -0.062878296 0.030437343 -0.009518999 -0.042326283
000090 6c e7 0e bb 7b 41 74 3c c0 84 a2 3b f9 43 92 bd
       -0.0021805419 0.01490819 0.0049596727 -0.07141871
0000a0 5c ee 86 bb cd d9 21 bd 90 66 8b bd 64 30 08 bd
       -0.00411777 -0.03951435 -0.068066716 -0.033249274
0000b0 a0 45 f5 3c b1 50 38 bd 74 b5 03 3c 0c 40 fb bc
       0.029940426 -0.04499883 0.008038867 -0.030670188
0000c0 e5 6e ad 3c c2 cd 72 bc 7a a9 56 bd ca 28 08 3c
       0.021171043 -0.014819564 -0.05240772 0.008310506
0000d0 00 a6 2b ba 6e f6 64 bc a9 17 66 bd 5e 72 5b bd
       -0.0006547868 -0.013974769 -0.056174908 -0.053575866
0000e0 e9 42 62 bd 4d 8a 65 bd d4 df 9c bd fe 9e cd 3c
       -0.05523959 -0.056040097 -0.07659879 0.025100227
0000f0 3b 5a 1e 3d 0e 0f 2c bc d0 48 31 bc 4b 57 ae 3c
       0.03866027 -0.010501636 -0.0108205825 0.021281859
000100 86 37 a1 bc 48 d4 dc 3a a2 99 94 bb d8 0f 20 bd
       -0.019679796 0.0016847933 -0.004534916 -0.03907761
000110 5d c8 31 bd cb fd ec 3c cd 90 16 bc a1 46 43 bc
       -0.043403972 0.028929612 -0.009189797 -0.011918695
000120 48 6f 9f bc cc 8d a4 bb 62 4b 8a bd 29 53 75 bc
       -0.019462243 -0.0050217863 -0.067526594 -0.01497344
000130 98 28 c0 bc 94 26 82 bd 26 c4 3a 3c 24 62 83 bc
       -0.023456857 -0.063550144 0.0113993045 -0.016038008
000140 a4 91 4e bd 94 54 b0 bb 62 5e 0a 3c 24 2b e4 bc
       -0.050431862 -0.0053811762 0.008445354 -0.027852602
000150 0c 0b 78 3d 26 a1 95 bc f0 8b 21 3d f0 03 87 bd
       0.06055741 -0.018265318 0.039440095 -0.06592548
000160 6b 1e 74 bd ea 96 dd bd 6f d2 3a bd 43 7e 1e 3c
       -0.05959932 -0.108198 -0.04561084 0.009673658
000170 38 6b 84 3c 94 92 d8 bd 0e d5 9d 3b ed 57 a3 bd
       0.016164407 -0.105748326 0.004816658 -0.07975755
000180 42 e2 92 bd 94 f3 d9 bc 15 23 1f bc 10 18 2e 3d
       -0.071720615 -0.026605405 -0.009712954 0.042503417
000190 3e 8e 1a bb 39 d1 4a 3d c8 00 b5 bc 4e 3e 1c bd
       -0.0023583318 0.049515937 -0.0220951 -0.038145356
0001a0 ef fc c7 bb 6b 16 81 3c f0 ca 5a 3d 96 6c 39 bd
       -0.00610315 0.01575776 0.053416193 -0.04526957
0001b0 ba 94 f4 bc 80 23 02 bd 88 5e ed bc 85 06 26 3d
       -0.029856075 -0.031772137 -0.02897574 0.04053356
0001c0 f0 91 af bc 9b 49 5e 3c e2 f7 9e bd 47 a2 06 3c
       -0.021431893 0.013567354 -0.07762124 0.008217401
0001d0 71 53 f8 bc 8b 09 6e bd a2 e8 01 3d 06 69 f0 3c
       -0.030313225 -0.05811457 0.031715997 0.029346954
0001e0 f6 49 62 bd d7 7d d0 3d 06 b1 50 3c af a0 28 bd
       -0.055246316 0.10180252 0.012737518 -0.041168865
0001f0 da 1a 1a ba 05 d3 5f bd 7c ca 93 bc 5e 9b d4 bc
       -0.0005878635 -0.054644603 -0.018040888 -0.025952991
000200 f0 20 40 3d d6 a4 7b bd ed 6f de 3c 0f 7d 4b bd
       0.04690641 -0.061436497 0.02715298 -0.049679812
000210 f1 06 22 bd 49 5c 66 bd 0d 4e e7 bc 1a 25 6f bc
       -0.0395574 -0.056240354 -0.02823546 -0.014596248
000220 53 6e f1 bc 51 d7 19 3d 8c a8 5a bd c8 01 f9 3d
       -0.029471552 0.037558857 -0.053383395 0.12158543
000230 06 6b cc bc 7a 16 22 3d 4e 61 1d bc 47 a3 a3 bc
       -0.024953377 0.039572217 -0.009605719 -0.019975318
000240 ce a4 a4 3c cc a7 5e 3d f2 25 3b bd 8f f4 e4 bc
       0.020098116 0.054359242 -0.045690484 -0.027948646
000250 77 c5 b1 3c e2 2e 0e bd 61 7e ab 3d 85 ec 7e bd
       0.021700604 -0.03471268 0.08373714 -0.06223728
000260 c8 27 82 bd 93 80 34 3d 40 fc 85 3a dd 20 ac 3c
       -0.06355244 0.04406793 0.0010222271 0.021011764
000270 6d bc a3 bd a5 49 9c 3c 67 53 d6 bc ca 9a 4d 3d
       -0.07994924 0.019078085 -0.026162816 0.050196446
000280 e0 10 05 bd 58 28 1e 3c 2e 37 08 3d 92 22 3f bd
       -0.032486796 0.009653173 0.03325575 -0.04666383
000290 a1 ef 9f 3c 44 02 4a bd 6b a8 9b bc 98 c2 ce bc
       0.019523444 -0.049318567 -0.019001206 -0.025239274
0002a0 dc 22 50 bc c3 8a 48 3d 53 aa 8f bd 2e 8f 26 bd
       -0.012703624 0.04896046 -0.07014909 -0.04066389
0002b0 c8 5e c0 bc d8 ba ac bd 4b e7 f0 bc 51 dd e0 bd
       -0.023482695 -0.08434075 -0.029407164 -0.10979713
0002c0 8a 07 e9 3c 91 21 a6 bc e9 62 23 bc 1c 54 dd bc
       0.028445978 -0.020279678 -0.0099723125 -0.027017646
0002d0 6d ec e2 3a d9 de 62 bd f0 cc 9b bc 70 30 28 bc
       0.0017312892 -0.055388305 -0.01901862 -0.010265455
0002e0 2f 3a e5 3c cb e6 50 3c 8f 92 01 3d 0a e5 36 3d
       0.027981846 0.012750338 0.03163391 0.044652022
0002f0 b0 56 c6 bb 9a 78 71 bc 18 7e 0d bd 64 94 c3 3c
       -0.0060528144 -0.014738226 -0.03454408 0.02387447
000300 9c 46 3a 3d 36 1f 1f bb 84 8f 62 3c a3 ba 8b bd
       0.045477495 -0.0024280078 0.013828162 -0.068227075
000310 8a 4b 42 bd 26 8a 77 3b 4f 16 d9 bb 43 4e 84 bd
       -0.04743532 0.0037771552 -0.006624974 -0.0646024
000320 97 c2 01 3d 8c 88 c8 bd fb 1b 9d bc 3c cb f6 3c
       0.031679716 -0.09791669 -0.019178381 0.030126207
000330 e0 3d c1 bc f7 98 a4 3c 1d 53 01 3d f4 e9 c7 3c
       -0.023589075 0.02009247 0.031573404 0.02440355
000340 d3 ab ab 3c 7c d6 10 3d bc 5a 0f 3d 99 32 1b bc
       0.020955956 0.0353608 0.03499864 -0.009472513
000350 d9 07 4f bd 51 ab 04 bd 82 d1 40 3d fc a6 40 bd
       -0.050544593 -0.032389943 0.047074802 -0.04703425
000360 e1 e6 87 3c ea 3e 21 bd 2d 80 36 bd 0c 6e 1e 3c
       0.016589584 -0.03936664 -0.04455583 0.009669792
000370 f9 19 ab bd 51 f6 86 bd 27 32 dc 39 d6 d9 d9 bc
       -0.08354563 -0.0658995 0.00041999036 -0.02659313
000380 ae 80 34 3d 80 2d 4d 3d f3 4b c2 3c b3 1a 4d bd
       0.04406803 0.05009222 0.023717856 -0.05007429
000390 8a c8 3f 3d a2 3d 26 bd f8 d2 22 bd d1 c9 64 bc
       0.04682211 -0.04058612 -0.039751977 -0.013964132
0003a0 96 36 3c 3d e2 4e 3e bd 11 39 ee bc cd 77 c7 bd
       0.045950495 -0.046461947 -0.029079946 -0.09739647
0003b0 3e 34 31 3d d5 b8 10 3d 38 bb 0b bd 22 19 24 bd
       0.043262713 0.03533252 -0.034114093 -0.04006303
0003c0 21 08 63 bd d0 e4 1c 3c 15 92 98 3c d0 27 1f bc
       -0.055427674 0.0095760375 0.018624345 -0.009714082
0003d0 05 db 8d bc d7 2f 67 bd ed e4 2f 3d 4f 89 db bc
       -0.01731635 -0.056442108 0.04294293 -0.026798872
0003e0 82 ff 54 3d d6 b6 d0 bc 84 2e 07 bd 94 c3 06 bd
       0.052001484 -0.025477808 -0.033003345 -0.03290136
0003f0 6d 43 79 3c 6d d4 87 bd 93 9a a6 bd 17 b9 12 bd
       0.015213829 -0.06632314 -0.081349514 -0.035821047

fc3.weight f4 [3, 256]
000000 7e b6 96 bd 39 09 12 3c 0e 8b c5 bb a4 0d 58 3b
       -0.07359026 0.008913332 -0.0060285395 0.0032967115
000010 db a7 a3 bb cc a8 8b 3c bf cc d2 bb 3a ff bc 3c
       -0.004994375 0.017048262 -0.006433099 0.02307092
000020 61 db 75 bb 0e d4 32 3c 97 3b 2d bb 3c f0 3f be
       -0.0037514793 0.010914816 -0.0026433223 -0.18743986
000030 ae f3 d9 3d 82 c4 a6 3d 89 be b0 bb 0d 56 12 3d
       0.10642181 0.0814295 -0.0053938073 0.035726596
000040 61 1d 2f be 84 e7 57 b9 cd de eb bc 54 93 c4 ba
       -0.17101051 -0.00020590244 -0.028792763 -0.001499752
000050 c8 01 eb 3d 43 73 37 bb 90 51 dc bb f8 0a 17 bb
       0.11474949 -0.0027992285 -0.00672359 -0.002304731
000060 a4 43 ab ba 2e 43 a4 3c 90 8d 08 ba a1 3f 8c 3b
       -0.0013066423 0.020051565 -0.0005209083 0.004280046
000070 47 45 49 3a 49 2d 94 bc f3 9f e6 3b d8 e1 74 3b
       0.00076778646 -0.018088 0.0070381104 0.0037366059
000080 68 c0 c7 3c 3d 81 63 bb 0b 7d 03 bc 65 c8 07 bb
       0.024383739 -0.0034714483 -0.008025418 -0.002071881
000090 81 32 e7 3a 99 9e 4d bb ec 29 78 bd 74 69 84 3b
       0.0017638953 -0.003137505 -0.060586855 0.0040408913
0000a0 7a e1 8a 3b 22 01 44 bc ae be 55 3b 12 37 e7 3d
       0.0042383047 -0.011963161 0.0032614875 0.11289801
0000b0 08 e9 5d bc 50 13 c1 bb a7 48 f3 3a 67 60 98 bb
       -0.0135443285 -0.005892195 0.0018561081 -0.004650164
0000c0 6e 35 d7 ba da 81 11 bc 98 70 ba 3b e0 89 6c be
       -0.0016419122 -0.008881057 0.0056896918 -0.2309947
0000d0 98 2c 43 3a 54 32 0a 3c 77 18 08 3c 11 97 b8 3b
       0.00074453047 0.008434851 0.008306614 0.005633243
0000e0 b9 86 51 bb aa 9d a8 3c df 41 96 b9 f2 a8 66 bb
       -0.003197117 0.020582993 -0.00028659307 -0.0035195914
0000f0 3d 40 4d bc ab 04 f0 bd 21 77 c0 bb 0d e4 9d 3a
       -0.012527523 -0.1171964 -0.0058735763 0.0012046114
000100 a5 77 88 3b 56 fc cf 3a fc f3 0b 3c 24 53 a1 3d
       0.0041646534 0.0015868049 0.008542057 0.07877186
000110 2e 5c e9 3d 28 e1 3f 3d 9a 37 54 3b d9 8d dd bb
       0.11394535 0.046845585 0.0032381774 -0.0067612943
000120 a0 01 e1 3d 5e c0 91 bc e7 fa f0 bd 2f a6 e8 bb
       0.10986638 -0.017791923 -0.11766606 -0.0070998888
000130 58 b0 91 bb e7 81 21 bc a6 a4 8a 3b b6 90 0d 3c
       -0.0044460706 -0.009857631 0.0042310534 0.008640459
000140 7a 16 9a 3b 7d 33 25 3e 18 f9 13 be 7b a2 3e 3a
       0.0047023864 0.16132922 -0.1445049 0.0007272136
000150 f2 c4 20 be 2d 72 06 bd e4 55 f3 3d f1 f3 16 bc
       -0.15700129 -0.03282373 0.11881617 -0.009213434
000160 0d 99 74 bb 3e b8 db bc d8 f9 ac bb 68 b5 a1 bb
       -0.003732267 -0.026821252 -0.005278807 -0.0049349554
000170 56 3b 76 3d 04 08 a3 3d 15 2e 46 ba 41 94 1b 3c
       0.06011518 0.07960513 -0.00075599673 0.009495796
000180 49 fc a6 b9 38 d9 96 3d f5 6e 9f ba 16 95 9b bc
       -0.00031849954 0.0736565 -0.0012163805 -0.018991988
000190 7f 4f 0b 3b 57 ab 45 bc e1 74 b1 bd ea 96 bb 3d
       0.00212571 -0.012064776 -0.08664871 0.09159644
0001a0 55 22 be bb d5 85 f5 3b 4e d4 33 3b b1 65 38 bb
       -0.0058024325 0.0074927607 0.0027439776 -0.0028136785
0001b0 ce f1 2d 3d d0 1a db 3a 79 cf 32 bb b3 a5 23 bd
       0.04246693 0.0016716365 -0.0027284308 -0.039952945
0001c0 72 b5 79 bb eb be 8a 3b 0f 20 ee bb 0b 81 c5 b9
       -0.0038102535 0.004234185 -0.0072670053 -0.00037670913
0001d0 f6 d9 90 bb df 79 aa bb b9 21 69 3b db bf 0e bd
       -0.004420514 -0.0052025164 0.0035573079 -0.034850936
0001e0 f3 88 a1 ba 73 0f 23 be 58 67 d6 bc d0 88 c6 bb
       -0.0012324139 -0.15923862 -0.026172325 -0.00605879
0001f0 f4 dd 4f bb 50 d0 1d 3e cd 1b a1 bc 8b f4 50 bc
       -0.0031717988 0.15411496 -0.019666577 -0.012753616
000200 11 2f 4a bd 1b 2f 0e ba 9a 5e a1 bd 65 39 08 bb
       -0.049361292 -0.00054238894 -0.07879372 -0.0020786163
000210 34 8b b5 bb eb a8 a6 bb e9 cf 37 bb 39 fb ee bb
       -0.005540276 -0.0050860546 -0.0028047508 -0.0072931317
000220 e1 38 9e bb a0 dc c4 3d 49 07 bb bb 05 e5 dd 3b
       -0.004828558 0.096123934 -0.0057076556 0.006771686
000230 c5 db f1 3a c5 56 b7 bb 4f f4 13 bc 18 69 08 b9
       0.0018452337 -0.0055950605 -0.009030416 -0.00013009121
000240 65 50 ad 3c a1 78 61 bc 79 cf 2c 3b ba 97 bf bb
       0.0211565 -0.01376167 0.002636878 -0.0058469446
000250 97 bf e7 3b ae 31 b5 ba 17 1c 3d be 97 bf c7 bd
       0.0070724 -0.001382401 -0.18467747 -0.0975334
000260 51 59 a2 ba b3 29 ad bc 32 bc 8b ba af b5 03 3b
       -0.0012386238 -0.021138048 -0.0010660945 0.0020097306
000270 c7 dc 66 bc ee a0 b1 3b f0 4c 0f be 23 9c 55 ba
       -0.014090723 0.0054207956 -0.13994193 -0.00081485714
000280 b4 0c 10 3e 43 db 93 bd 45 c6 e2 ba 82 5f 83 ba
       0.14067346 -0.07219555 -0.001730152 -0.001002297
000290 5b 44 39 3c 51 69 bd bb c3 3a b8 3d 84 33 ed 3a
       0.011307801 -0.005780377 0.08995583 0.0018097018
0002a0 29 af 51 be dd cd 03 3c 52 11 98 39 22 a9 39 b9
       -0.20476975 0.008044687 0.00029004604 -0.00017705982
0002b0 16 c5 cd 3a b0 33 b7 3c 56 9d 28 bb cb 48 09 3d
       0.0015698995 0.022363514 -0.0025728545 0.033516686
0002c0 3f 4e fa ba 95 06 a3 b8 d3 75 48 bb 01 18 95 3b
       -0.0019096805 -7.773672e-05 -0.0030587807 0.0045499806
0002d0 a8 45 6f bc 22 cc ab bd 9c 90 bc bd 3d 9a d7 ba
       -0.01460401 -0.083885446 -0.092072695 -0.0016449165
0002e0 cd c7 f8 ba e4 3e 11 bc 50 73 15 bb 4c 38 1e bb
       -0.0018980444 -0.008865092 -0.0022804327 -0.0024142442
0002f0 57 7a 26 bb 26 27 a6 bc d8 6f 3e bc 8c 65 63 bb
       -0.002540251 -0.02028234 -0.011623345 -0.0034697978
000300 69 cd 3d 3b c8 9c da bd 2b 44 e8 b7 78 9e 2c bb
       0.0028961545 -0.10674435 -2.7688298e-05 -0.0026339572
000310 1d 17 29 bc 53 82 be 3b 44 1d 53 bc 08 74 85 ba
       -0.010320452 0.0058138757 -0.012885395 -0.0010181675
000320 da 82 c1 bb b3 30 15 be 34 b1 c9 3a 4d e6 e6 ba
       -0.0059054913 -0.14569359 0.0015387894 -0.0017616242
000330 b2 2c 11 bb 89 85 be 3a 5a 4c 4a 3d b7 3b a2 3b
       -0.0022151885 0.0014535646 0.04938922 0.004950966
000340 03 3c a0 ba dc 99 02 bb 57 48 07 bc 4d 66 0a 3c
       -0.0012224916 -0.0019928133 -0.008256993 0.008447242
000350 71 25 3d bb 67 ab cc bb 03 d6 8c 3a 8b 96 05 bd
       -0.0028861428 -0.0062460187 0.0010744933 -0.032614272
000360 fa 64 15 3b f3 d0 7c bb c9 8c 9c 3a 12 f4 da 3a
       0.0022795782 -0.0038576692 0.0011943813 0.0016704819
000370 b9 3c be bc 50 87 29 3a ff c9 3a 3b 39 e1 6d 3a
       -0.023222314 0.00064670015 0.0028501747 0.00090743933
000380 7f 9d f5 bb a1 e5 c8 3c b0 8d c5 bb ae f4 b0 bd
       -0.0074955816 0.024523558 -0.0060288534 -0.08640419
000390 ec a1 9d be 7e 9c 8f 38 ad 13 bf 3c 0b 27 61 be
       -0.307876 6.84792e-05 0.023324812 -0.2198755
0003a0 94 66 e8 38 97 bf dd 3a c7 6f 9e 3b 4a f8 3a bc
       0.00011081729 0.001691806 0.0048351022 -0.011411736
0003b0 98 f9 50 3c 00 4c ad bd 10 51 00 3e c7 8c f8 bb
       0.01275482 -0.084617615 0.12530923 -0.0075851413
0003c0 54 7b 1e bc 3b c1 fb 3a 87 93 3e bb 0c 60 cf bb
       -0.009672958 0.0019207367 -0.0029079632 -0.0063285884
0003d0 75 66 4d bb c1 b9 f4 b9 53 c8 b0 bb 03 96 a5 3d
       -0.0031341587 -0.00046677704 -0.0053949743 0.08085253
0003e0 6e 9f cc bb 56 8f d6 bc 67 eb 9e 3d 05 a9 48 be
       -0.0062445914 -0.026191395 0.07759743 -0.19595726
0003f0 a1 1e 24 bd f4 c9 d0 bb d9 7e d0 3a 30 50 ec 3a
       -0.040068273 -0.006371731 0.0015906944 0.0018029269

fc3.bias f4 [3]
000000 a2 03 a8 bd 65 21 fe 3c 8a a3 f5 3c
       -0.08203818 0.031021783 0.029985208
