runs/checkpoint_critic6.pth (torch, 356559 bytes, 7 tensors)

head.weight f4 [256, 22]
000000 97 31 34 bc 24 42 16 3e ff 18 bb bd 6c 81 53 be
       -0.010998151 0.14673668 -0.09135627 -0.2065484
000010 71 93 e6 3c b8 66 f0 3d 89 c9 88 bc 16 76 2f 3f
       0.028146477 0.11738342 -0.016697662 0.6853956
000020 93 5b 60 be b1 9b cc 3d 89 81 28 bd 38 c2 ba bd
       -0.21909933 0.09990633 -0.04113916 -0.091190755
000030 c7 05 89 be 7b a5 0c be 08 39 fe bd 52 84 2e bd
       -0.2676222 -0.13735001 -0.124132216 -0.04260666
000040 e5 95 cf bc c4 34 d0 3d e2 89 b0 bd dc 28 24 be
       -0.02534003 0.10166314 -0.08620049 -0.16031212
000050 89 a4 ba bd 67 a1 4c 3e 77 53 47 bd 15 a8 08 3e
       -0.09113414 0.19983445 -0.048663583 0.13345368
000060 8e ab 62 bd 78 ef 68 3c e7 7e 98 3e b0 da 05 be
       -0.05533939 0.01421725 0.2978432 -0.13071704
000070 0f dd 46 be 2f a7 eb be 91 78 e0 3d 13 50 24 3e
       -0.19420265 -0.46025988 0.10960496 0.16046171
000080 ce a6 f7 bd 84 91 8e bd 01 dc 0a be a2 79 7b be
       -0.12092362 -0.06961349 -0.13560487 -0.24558118
000090 aa 72 0d be 24 1c 40 3e 39 3c a2 bd 5c 44 06 3e
       -0.13813272 0.18760735 -0.07921643 0.13112015
0000a0 1c 7e b4 3d 40 07 30 3c 3f 27 34 bc 4c d5 80 be
       0.08813116 0.010743916 -0.010995685 -0.25162733
0000b0 da 3f 13 be 28 bd c9 bd 75 23 25 3e 45 0e 3c 3e
       -0.14379826 -0.09850532 0.16126807 0.18364818
0000c0 28 b7 cc bd c6 b0 90 3d f3 4f cf bc 45 8e 71 be
       -0.09995872 0.07064967 -0.025306677 -0.23589428
0000d0 65 ca 23 3e 85 52 1c be d4 bb 0e 3e 8c 6a e3 bd
       0.15995176 -0.15265854 0.13938838 -0.111043066
0000e0 83 bc 4c 3c a2 85 f9 bd b4 a5 0d be f7 31 0f be
       0.012496117 -0.121836916 -0.13832742 -0.13983904
0000f0 6f a0 19 3d 4a a7 28 3e 16 12 2d be 1b cf 17 3d
       0.037506517 0.16470066 -0.1690143 0.037062746
000100 b4 dc b9 3d d1 51 b7 3d a7 8f fe 3a 7d d4 63 3d
       0.09075299 0.08951152 0.0019421474 0.055622566
000110 b9 8a eb 3d 5a ff 26 3e db 31 60 be d2 35 a7 bc
       0.115010686 0.16308346 -0.21894018 -0.020411406
000120 91 58 02 bd 3f 17 a3 be 65 c0 ea 3e cb 34 c6 3e
       -0.031822745 -0.31853673 0.4584991 0.38712153
000130 8a 87 65 3c b6 02 11 be 91 9a f7 3c e3 c5 3b be
       0.014009366 -0.1416119 0.03022507 -0.18337207
000140 35 a1 73 be bd 1f 53 3e be 07 b5 bd 86 41 ac be
       -0.23791964 0.20617576 -0.08839367 -0.3364374
000150 f8 12 ce 3d a3 4d ff 3d 65 c9 86 bd d1 81 f8 3d
       0.10062212 0.1246598 -0.06581382 0.121341355
000160 c0 96 23 3d c1 27 c1 bd 7c bb 92 3d 67 82 00 3e
       0.03993869 -0.094314106 0.07164666 0.12549745
000170 b6 dd b4 3e 42 85 c8 bd 84 50 e6 bd b0 53 83 bf
       0.35325402 -0.09791042 -0.11245826 -1.0259914
000180 39 5d 04 3d 7c 17 09 bf a8 c2 69 be 29 d1 d2 bd
       0.032315467 -0.5355146 -0.22828162 -0.102938004
000190 18 5b 12 3e 47 4e 40 3e 2f 3f 24 be 50 28 b3 bc
       0.14292562 0.1877986 -0.16039728 -0.021869808
0001a0 3a 22 c0 bc e9 fe 26 3e c5 82 a7 be fc 69 31 be
       -0.02345382 0.16308178 -0.32716957 -0.17325586
0001b0 e9 56 97 bd fe 03 13 3e 55 2f 94 bd 22 12 0c 3e
       -0.07389624 0.14356992 -0.0723559 0.13678792
0001c0 e9 5e 2c be b9 d9 ee 3d 35 75 03 3e 82 6a 2e be
       -0.1683308 0.11662621 0.1283768 -0.17032817
0001d0 ba 66 3f bd 86 e3 08 3f 6d 31 9e be d1 b9 54 3d
       -0.046728827 0.53472173 -0.30897084 0.05193502
0001e0 02 52 ae 3d 6b 7c a9 bd f7 cc 15 be c4 85 97 3d
       0.085117355 -0.08275684 -0.14628969 0.07398561
0001f0 bf ba 97 be 02 19 25 be ea f7 2e be 4a fe 41 bd
       -0.29634663 -0.16122821 -0.17086759 -0.04736165
000200 20 13 8b bc 50 67 f1 bd ac 37 2f be 93 d4 4b be
       -0.016976893 -0.117872834 -0.17111081 -0.1990531
000210 b2 0c 46 be d7 2d 94 3d 43 59 5f 3e b4 8a 39 bb
       -0.1934078 0.07235306 0.21811394 -0.0028311433
000220 7b ff 30 be ed 08 c1 3d ac e0 75 bb 2a 8e 5f bd
       -0.17284958 0.094255306 -0.0037517948 -0.054578938
000230 c7 7b 5e 3f e2 49 2d 3f 96 20 63 3e ca 49 75 3d
       0.8690762 0.6769086 0.221804 0.059884824
000240 9b 04 33 be cb 00 6e bd 17 7b da 3d 3e 03 51 bc
       -0.17482226 -0.058106225 0.10668009 -0.012757121
000250 c9 b9 04 be 74 d5 4a be 7b 4b 1a be ed c5 41 be
       -0.12961496 -0.19807988 -0.15067856 -0.18923159
000260 53 d0 f1 3d 2b 87 8b 3e dc f8 74 3d 30 63 77 be
       0.11807313 0.27251562 0.059807643 -0.24158931
000270 c0 29 b7 3d 20 34 28 be fc 49 ae 3d d1 c6 ca bc
       0.0894351 -0.16426134 0.08510205 -0.024753006
000280 74 ed 43 3c 68 a0 06 bf 5f 63 7e be d2 07 21 bf
       0.011958469 -0.5258851 -0.24842595 -0.6290256
000290 b7 39 b4 3b 82 e5 6f 3d 91 03 de bd b7 2d 2b 3d
       0.005500044 0.058568485 -0.10840524 0.041791644
0002a0 cd 4e 82 be 85 1a 40 3d 77 21 87 3e 4c 46 81 3c
       -0.25450745 0.04690029 0.2639272 0.01578059
0002b0 1c c8 4b 3e ee f6 a2 bc 60 7f 03 be d6 7d 0f 3f
       0.19900554 -0.019893136 -0.12841558 0.56051385
0002c0 12 cb 0c bd ad 0a 3b bd dd 48 db 3d 60 87 0d be
       -0.03437335 -0.045664478 0.10707257 -0.13821173
0002d0 45 b7 91 be e2 12 22 be b3 9d 9d 3d 91 af 06 3f
       -0.28460136 -0.15827516 0.07696094 0.52611643
0002e0 e7 16 e8 bd 9d 82 a3 bc ae 76 df bd 96 bf e6 bd
       -0.11332493 -0.019959742 -0.10911308 -0.11267011
0002f0 a8 de 4e be 65 e7 a1 3d 28 d1 98 3e 25 d7 4c 3d
       -0.20202124 0.07905463 0.29847074 0.050009865
000300 99 f3 b9 bd 14 80 a8 3c 32 0d 82 bd ca cf d7 3c
       -0.09079666 0.020568885 -0.06350173 0.026344199
000310 c8 9b f4 be ad fe ee bd 57 23 5c be 87 47 9a ba
       -0.47775102 -0.11669669 -0.21497856 -0.0011770584
000320 4d fc 96 3c da 23 0f 3e bf 48 da bd 3c 80 c5 bd
       0.018430853 0.1397852 -0.106584065 -0.096435994
000330 98 2f 2d be 55 cf ad be 08 f4 97 3e 60 a4 9c 3e
       -0.16912687 -0.33947244 0.2967837 0.30594158
000340 36 a0 c5 3d 23 ff fc 3d 7c fa 0d 3d 04 9a d3 bd
       0.096496984 0.12353351 0.03466271 -0.103321105
000350 b2 2d 36 3c 01 dc ef bc 7d 6c a4 3c 55 21 d3 3d
       0.011119293 -0.02927971 0.020071262 0.10309092
000360 fc 86 07 be 7b 4b ea bd 42 b0 86 3e 09 a0 75 3c
       -0.13235086 -0.11440178 0.2630635 0.014991769
000370 9c f9 2e bd e2 0e 73 3e 6f 73 c5 3d a9 66 a3 3b
       -0.042718515 0.23736146 0.09641158 0.0049866033
000380 4e 52 5a be f1 21 9d 3d 4a a0 b7 bd 08 43 a5 be
       -0.21320459 0.076724894 -0.089661196 -0.32277703
000390 b7 66 99 3e 94 c3 9a 3d 70 86 0e 3d 8b 93 82 3e
       0.29961178 0.07556835 0.03479618 0.2550319
0003a0 64 e8 11 3d 95 ec 0a 3e d4 50 64 3d f9 b6 1e be
       0.035622016 0.13566811 0.055741146 -0.15499486
0003b0 fa 4d 42 3c 98 4e 26 be a0 d8 20 be e9 7b 7d 3c
       0.011859411 -0.16240919 -0.15707636 0.015471437
0003c0 03 98 00 3c 69 21 c7 3d c3 25 3b bd c6 ec 70 3c
       0.007848742 0.09723169 -0.04569031 0.014704889
0003d0 8e a7 47 3e 6c 28 10 be 04 87 5d 3e c5 8e 6a bd
       0.19497511 -0.1407792 0.21633536 -0.057265062
0003e0 ee 84 99 bd d4 5d 05 3f cc 03 4e bf 0b eb 99 3d
       -0.074960575 0.52096295 -0.80474544 0.07515534
0003f0 77 24 28 3e 78 d2 1c be 83 a4 09 be 9a 25 e0 bd
       0.1642016 -0.15314662 -0.13441662 -0.10944672

head.bias f4 [256]
000000 f0 41 17 3e 0a 46 93 3d 36 bf 20 bc b7 02 0e 3c
       0.14771247 0.07191093 -0.009811213 0.008667639
000010 8f 0a 19 be 8a f9 29 bd 47 5f 7e 3c ee 38 07 be
       -0.14945434 -0.041497745 0.015525646 -0.1320531
000020 68 9b b4 bd ba 68 4d bb 7e 11 57 bd 3f f6 91 bd
       -0.08818704 -0.003134294 -0.052506916 -0.07127046
000030 e3 f6 36 be bc 14 61 3e c3 b6 10 3e 0e a6 50 3e
       -0.17867617 0.21980566 0.14132218 0.20375845
000040 68 e8 01 be fb 08 48 be d9 42 34 3e f1 af 49 bd
       -0.12686312 -0.19534676 0.17603625 -0.049240056
000050 4e fe 98 3d fc ba 27 3e 85 34 8f 3d d4 1a ad 3a
       0.0747038 0.16379923 0.06992439 0.0013206848
000060 78 49 10 3e 74 d3 3c 3e ae 76 3d bd 89 0b e7 bd
       0.14090526 0.18440038 -0.04625576 -0.11281497
000070 69 39 f7 bd 67 98 43 3e 28 aa 0b bc 60 85 43 3e
       -0.12071497 0.19101106 -0.008524455 0.19093847
000080 cc f2 b3 bd 66 f1 5d be 6c cd 11 3e 97 0a 61 bc
       -0.08786544 -0.21674117 0.14238518 -0.013735435
000090 98 06 b0 bd 3c a2 2d 3e e1 40 9e 3c e7 31 69 bd
       -0.08595008 0.16956419 0.019318046 -0.056932356
0000a0 e9 05 3d 3e 97 7f 46 3e ee 12 ed bd f6 03 43 be
       0.18459286 0.19384609 -0.11575876 -0.1904448
0000b0 e2 45 ba bc 49 f2 45 be 23 a5 f5 bd 6a 06 39 3e
       -0.0227384 -0.19330706 -0.11994388 0.18068853
0000c0 0e 28 ce bd 56 23 77 3e 86 61 e6 3d cb c0 b1 3d
       -0.100662336 0.24134573 0.1124907 0.086793505
0000d0 61 b1 8e 3d 84 0c d8 3c 78 26 2b 3c d9 ba 86 be
       0.06967426 0.026373155 0.010446183 -0.26314428
0000e0 1c 5e 35 bd 98 86 d8 3d da 42 c9 3d 41 54 75 bd
       -0.044279203 0.10572547 0.09827204 -0.059894804
0000f0 4c ae ce bd 07 ea 3a 3e 50 2d 46 be 95 57 8c 3e
       -0.10091838 0.18253337 -0.19353223 0.2741057
000100 3f ca da 3d f2 8b 81 3d 93 e6 f1 bc 00 53 bf 3d
       0.10683107 0.063255206 -0.029528892 0.09342003
000110 04 f5 33 bc 1f 2e 03 be 04 f4 15 be 96 2f 56 3e
       -0.010983709 -0.12810563 -0.14643866 0.2091659
000120 e3 c1 13 bd a1 4a 47 be 22 bd b8 3b 14 a2 03 be
       -0.036073577 -0.19462062 0.0056377808 -0.12854797
000130 b1 af ad bc d1 31 85 be cb 27 ab 3d 18 51 a5 bd
       -0.02120194 -0.2601457 0.08357199 -0.08072108
000140 67 62 00 3d a1 a3 2a 3e 4a 70 e1 bd d3 21 a6 bd
       0.031343844 0.16663982 -0.110077456 -0.0811192
000150 5f 26 d5 bd 02 17 27 3e 12 f3 ff bd 21 00 f3 3d
       -0.10407709 0.1631737 -0.12497534 0.11865259
000160 20 20 9c 3d 87 02 70 be d5 59 13 be 14 04 24 3d
       0.07623315 -0.23438464 -0.14389737 0.04004295
000170 e2 3d 45 be ba d7 39 3e f8 6a b6 3d 0b 0d 04 bd
       -0.19261888 0.181487 0.089071214 -0.032239
000180 19 53 9e 3b d0 bf 2a 3a 89 13 2c 3e 79 01 5e bd
       0.0048316834 0.00065135676 0.16804327 -0.054200623
000190 34 74 7b bd bd 6e 55 be af 59 20 3d f1 b4 49 3e
       -0.061390117 -0.20843025 0.03914803 0.1969793
0001a0 36 a2 98 bd be cd 70 3e b4 78 9b 3d 66 ed dc bd
       -0.07452814 0.23515984 0.07591382 -0.10787468
0001b0 e9 6f 07 3d 9b 70 09 3e 07 f5 32 be 4c b0 7e 3d
       0.03306571 0.13421862 -0.17476283 0.06217985
0001c0 de 08 0d 3d de b3 64 3d 70 bb 1a 3e ad b0 8a bd
       0.034432285 0.055835597 0.15110564 -0.067719795
0001d0 9f 7d 1d 3e b4 4c 2b 3e 0f 7d 5b be cf 2a f1 3d
       0.15379952 0.16728479 -0.21434425 0.11775743
0001e0 fa c6 4a bd 4b d0 16 3e ea 7f ed 3d fc 47 82 be
       -0.049506165 0.14727895 0.11596663 -0.25445545
0001f0 eb ee 60 be 64 21 95 3c 9c fa 97 3d 3a 95 06 3d
       -0.2196614 0.018204398 0.07420847 0.032857157
000200 95 fb 01 be 71 11 1f 3e 6f 72 41 bd 57 3b 32 3d
       -0.12693627 0.15533997 -0.047228273 0.043513622
000210 be fe 20 3e f3 34 28 bd 05 67 aa 3d 5d 39 17 3d
       0.15722176 -0.04106612 0.08320431 0.03691994
000220 da 3a 92 bc c3 1b 00 3d c8 43 b6 3d 18 d9 1d 3e
       -0.017850328 0.031276476 0.08899647 0.15414846
000230 b8 12 95 bd 8f e2 57 3e 76 96 5b bd 27 54 24 be
       -0.07278961 0.21082519 -0.053610288 -0.16047727
000240 55 ca 80 bd d3 69 57 be 8c ef d8 3d a1 6d 0c bd
       -0.06288592 -0.21036462 0.10592565 -0.034284238
000250 d0 19 2a bc fc ae ea bd 1a a5 d0 3d 43 08 a6 3b
       -0.010382131 -0.11459157 0.101877406 0.005066903
000260 0b f5 9f bd 32 4e 6c 3d 01 ce cd bc 8a 8c 1a be
       -0.0781041 0.05769176 -0.025122644 -0.15092674
000270 7a 43 bf bc 7a 07 b8 bd ed fe 86 3e aa 86 04 3e
       -0.023347605 -0.08985801 0.26366368 0.12941995
000280 89 83 70 be a6 42 db 3d 28 f5 f0 bc c1 e7 5d bc
       -0.23487677 0.107060716 -0.029413775 -0.013544024
000290 cb 20 5a 3d e3 e9 8b 3d d3 8f 2c 3e bc 69 35 3e
       0.05325393 0.0683172 0.1685174 0.17716116
0002a0 81 b0 68 3d d0 c8 96 bd 84 ec 0b 3e a6 3c 3c be
       0.056808952 -0.07362521 0.13664442 -0.1838251
0002b0 00 2f 96 bd 04 75 d6 3d 34 ad 4c be f7 77 31 3d
       -0.07333183 0.10471538 -0.19987947 0.043327298
0002c0 69 80 da bd 51 70 0f 3e 7f b7 00 be 39 be da 3d
       -0.106690235 0.14007689 -0.12569998 0.10680813
0002d0 75 fe 9b bd 95 12 2d 3e 6f 5b 5f 3d 11 4f 1c be
       -0.07616893 0.1690162 0.054530557 -0.15264536
0002e0 ec 42 2d bb 8d dc e9 3d 9c 6d 46 3e 37 e7 5d 3d
       -0.0026437594 0.1141902 0.1937775 0.05417558
0002f0 f0 e1 fe 3d 91 c3 55 3c ad 0a 4c bd 75 3a 0a be
       0.12445438 0.013047115 -0.04981487 -0.13498862
000300 48 41 99 be 44 7b 2c 3e fe 73 08 3e ab 2c 1b be
       -0.29932618 0.16843897 0.13325498 -0.15153758
000310 96 b4 85 bd cd 55 a3 bd 09 74 d9 bd d5 70 05 3e
       -0.06528585 -0.079753496 -0.10617835 0.13031323
000320 cf c5 4c bb ad e2 4a bd 27 ed 0d be 92 1d dd 3c
       -0.0031245833 -0.04953258 -0.13859998 0.02699164
000330 85 c1 14 bd d4 b5 15 3b 75 ef 12 3e 3b d1 b9 3b
       -0.036317367 0.0022843974 0.14349158 0.005670694
000340 39 24 63 3d 60 a1 ab 3d 0d 52 15 bd c4 91 1f 3e
       0.055454466 0.08380389 -0.036455203 0.15582949
000350 2b 79 34 3e eb 97 ba 3c 95 4d 51 3e 58 96 33 3e
       0.17624347 0.022777518 0.20439751 0.1753782
000360 37 3f 1d 3e b8 fb 00 3e d2 99 a0 3d 8d b4 6c 3b
       0.15356146 0.12596023 0.07841839 0.003611836
000370 40 8d 15 3d ee 29 4e 3e fc 09 51 bd b2 62 c1 3d
       0.03651166 0.20133182 -0.051034912 0.09442653
000380 60 56 b3 bd 89 4a 06 3d 1a 7f ec 3d 79 98 31 3e
       -0.08756709 0.032785926 0.1154768 0.1734332
000390 13 fd a6 3d ce ea b7 3d 51 84 d3 bd 43 4e a2 3e
       0.08153739 0.08980332 -0.10327972 0.31700334
0003a0 c3 b7 b8 3d 6c 2a 87 3e 87 e8 d0 bd 50 3b 68 3c
       0.09019425 0.26399553 -0.10200601 0.014174297
0003b0 b5 ce 7f bd aa 65 1e bd 18 b0 39 3e d7 e4 24 be
       -0.06245299 -0.038671173 0.1813358 -0.1610292
0003c0 96 8f 40 3d ba 08 af 3c 2c 55 2c be 49 af 62 bd
       0.047011934 0.021366466 -0.16829365 -0.055342946
0003d0 bc b0 b5 bc a2 ee ce bd 2f fa 2a be 4a b3 34 3e
       -0.022179 -0.10104109 -0.16697 0.17646518
0003e0 6c 2d ad bd df 05 04 bd 36 bf bc bc e2 e1 dd 3c
       -0.08455929 -0.03223216 -0.023040395 0.027085248
0003f0 db e0 29 bd 5b 77 fb bd aa 75 67 3d 71 de b1 3d
       -0.041474205 -0.122786246 0.056508698 0.086850055

cos_embedding.weight f4 [256, 64]
000000 d3 26 24 3e b1 e0 da bd 08 a7 ac bd d3 cb f5 bc
       0.16030435 -0.10687388 -0.08430296 -0.030004418
000010 67 64 14 3d d1 ea 80 3d af 06 21 bd 22 cf 99 3d
       0.036228564 0.06294788 -0.039313015 0.075102106
000020 9a 0a 1b 3d 55 4a 9b bd 68 2a 9d bd 4e f4 4f bd
       0.037851907 -0.07582537 -0.07674104 -0.050770096
000030 01 61 ee bc 3f 09 87 3d c5 f3 44 3c d7 30 e0 bd
       -0.02909899 0.065935604 0.01202101 -0.109468155
000040 94 23 44 be 22 e6 79 bc 81 df 89 ba c8 17 65 bd
       -0.19154197 -0.015252622 -0.001051888 -0.055930883
000050 1a 4e 0f 3d 65 30 e7 3c 04 32 6a be fb 99 55 be
       0.034986593 0.028221318 -0.22870642 -0.2085952
000060 10 c8 06 be d5 c1 89 be 9d 81 1c be 5e 41 33 be
       -0.13162255 -0.26905695 -0.15283819 -0.17505404
000070 8a c9 6e be 35 73 90 bd 5b 2e 83 3e 58 de 6d 3e
       -0.23319069 -0.07053224 0.25621304 0.23229349
000080 33 e7 2e 3e 34 c1 2b 3d 19 7d 7f 3d db d2 12 3d
       0.17080383 0.0419323 0.06237516 0.03584562
000090 93 ae 8b bd 8d 35 bb bb 4d 92 2e 3e b4 08 f7 3d
       -0.06820407 -0.005713171 0.17047997 0.12062207
0000a0 d6 00 48 3d db 44 b2 3c 14 5a 0c 3e 87 21 59 3d
       0.048828922 0.021761348 0.13706237 0.05301049
0000b0 15 74 c5 bd 67 d1 7a 3d a7 fd 02 3e b0 f3 e0 bc
       -0.096412815 0.061234858 0.12792073 -0.02745995
0000c0 91 cf b5 3b 2a 9f 18 3e 92 80 8f 3d 75 e8 a1 bc
       0.0055484255 0.14904466 0.07006945 -0.019764164
0000d0 de 83 55 3d 97 7e 91 3d c1 17 36 3e c9 93 0d 3c
       0.05212771 0.07104223 0.17782499 0.008641192
0000e0 8a f9 b2 bb 63 7e 0b 3b 40 4b 17 bd 2f 95 c8 bd
       -0.0054618763 0.002128505 -0.036937 -0.097940795
0000f0 78 a3 e5 3c 3b 55 72 bd fb 18 e8 3c e7 3c b0 bc
       0.02803205 -0.059163313 0.028332224 -0.021513416
000100 b9 98 c6 3c bb e3 17 be ef d3 a5 bd 14 cf b8 3d
       0.024242746 -0.14832966 -0.08097064 0.09023872
000110 8b ac 86 3d 82 39 86 bd 73 40 c7 3d c1 3e b6 bd
       0.06575879 -0.065539375 0.097290896 -0.08898688
000120 f8 12 e8 bc 67 17 d2 bc c9 5f b6 bd c9 e7 94 3c
       -0.028329358 -0.025645925 -0.08904988 0.01817693
000130 6d 7b e0 bc b7 25 bc bd 90 51 f6 ba 1c b7 81 3d
       -0.027402604 -0.09186881 -0.0018792618 0.063337535
000140 7f a3 1f 3e 1e 91 8b 3d b6 5f a8 3d ef 88 cc bd
       0.15589713 0.06814788 0.082213804 -0.099870555
000150 85 d4 10 3e 42 ad 8f 3d 10 64 ad bb 10 0d b8 bd
       0.1414357 0.07015468 -0.0052914694 -0.089868665
000160 54 0b 04 be e6 96 88 3d 33 4b 3f 3c c5 38 b8 bd
       -0.12894946 0.066694066 0.011675644 -0.08995203
000170 9e a7 fe bd 31 f9 e5 3d e4 1c 8a 3d 2f 58 01 3d
       -0.12434314 0.1122917 0.06743792 0.03157824
000180 01 90 f4 3c a1 0b d6 3d c8 d3 80 bd a8 5f 87 bc
       0.029853823 0.10451437 -0.06290394 -0.016525105
000190 a0 ef b5 3d f0 2c 58 bd 1a 4d 0f be 84 37 70 bd
       0.088835955 -0.05277723 -0.13994256 -0.058646694
0001a0 6d 79 00 3e 87 2e d1 3d be f8 54 3c a6 b9 2d be
       0.1254632 0.102139525 0.012998758 -0.1696535
0001b0 23 7c 36 3d e7 21 1d be 55 b0 7b bc 08 b3 ff 3c
       0.04455198 -0.15344964 -0.015361865 0.031213298
0001c0 11 2b 2b 3e 7d 53 55 3c 7f 2d 2b be e8 06 ee 3d
       0.16715647 0.013020393 -0.16716574 0.11622411
0001d0 00 ac 31 bd ef 06 3f bc f6 9c 3b 3e 42 8f 0f 3d
       -0.043376923 -0.011659368 0.18321595 0.03504873
0001e0 fa 1d 9c bd b6 48 39 3c 90 4e b6 bc d2 86 64 3d
       -0.07622905 0.01130884 -0.022254258 0.055792637
0001f0 0a 0c 11 be 2f 80 16 3e 1d 8e d6 bd 7f fe f3 bd
       -0.14164749 0.14697336 -0.10476325 -0.11913776
000200 9d be 3c bd 4f 1c c8 bd b1 e1 17 3d cf f7 d5 3d
       -0.04608022 -0.097710244 0.03708047 0.10447656
000210 36 4c b8 bd 13 e5 ed bd ce 2b a1 bc 5d 33 09 be
       -0.08998911 -0.11615958 -0.019674208 -0.133985
000220 0d 1f 14 3e a3 49 fe 3c ea 8e 7f 3d cd 5b c5 3d
       0.1446497 0.031040972 0.062392153 0.0963665
000230 9f fd 92 3d b5 1d 05 3d 2b 91 fa 3d 78 bb 4c bd
       0.07177281 0.032499034 0.1223472 -0.04998347
000240 ca 01 9f bd e8 04 c3 3d 5b 39 b0 3c 43 73 01 3e
       -0.07764013 0.0952242 0.021511724 0.12641625
000250 1f c5 55 3d 06 14 b6 bc e1 67 45 3d b9 72 a4 3d
       0.052189942 -0.022226345 0.04819477 0.08029694
000260 b8 66 c5 3d 73 70 e2 bd 14 a8 ec 3c 67 c0 01 be
       0.09638733 -0.11056604 0.02888874 -0.12671052
000270 fa c3 97 3d 38 9f 95 3d 92 df 6d bd 7b 96 8e 3d
       0.074104264 0.07305759 -0.05807454 0.069622956
000280 3e e0 1b 3e 32 98 5a 3d 08 f4 b5 bd c2 64 0d 3d
       0.1522226 0.0533678 -0.08884436 0.03451992
000290 e5 d4 f0 3d d0 41 54 bd 95 7f 9c 3d 38 63 cd bc
       0.117593564 -0.051820576 0.07641522 -0.025071725
0002a0 e5 dc cb 3c 80 82 cb 3c fe 16 29 bd e0 18 96 3c
       0.024885604 0.0248425 -0.041281693 0.018322408
0002b0 e0 d0 9b bd ff d8 1a bd ba 63 8d 3d 3d 24 07 3c
       -0.07608199 -0.0378046 0.06903787 0.008248386
0002c0 0b 9a 07 3e 9d ff aa bd 28 c8 26 bd fc 00 c7 bb
       0.13242356 -0.083495356 -0.040718228 -0.0060731154
0002d0 54 d4 88 bd 3b 6b e9 3d e5 83 94 3d ec 8b bc 3d
       -0.066811234 0.11397406 0.072517194 0.092063755
0002e0 b8 5d 6b bd b0 7e 78 bd 6a d1 3d bd ae e6 65 bd
       -0.057462424 -0.060667694 -0.04634229 -0.056128196
0002f0 09 7a ae bd 45 96 6b 3c e1 67 c1 bd 62 95 c9 3d
       -0.0851937 0.014379089 -0.094436415 0.09842946
000300 58 ca da 3d 11 d0 af 3d b9 53 92 bd 96 22 fc bd
       0.10683125 0.085846074 -0.07144875 -0.12311284
000310 e9 e2 83 bc 73 43 70 bc 42 5f 1b 3d 46 3c a3 bd
       -0.01609941 -0.014664519 0.03793264 -0.079704806
000320 c0 07 ca 3c 1b 8d c2 bc 78 35 bc bd 86 3b b2 3d
       0.024661899 -0.023748925 -0.09189886 0.087027594
000330 de ab 41 3d fb 16 c7 3c d2 a2 60 bc 84 b3 89 3b
       0.047283046 0.02430295 -0.013710694 0.004202308
000340 96 ae c2 3d d8 fb ed 3c 3b 72 ea bd 34 69 a0 3d
       0.09505956 0.029050753 -0.11447569 0.07832566
000350 02 15 80 bd 40 6c 26 3e da bc a4 bd 2a 4d 72 3d
       -0.06254007 0.16252232 -0.08043833 0.05915562
000360 45 bd d3 3d c5 0e 6f 3c c4 76 0b 3e aa 50 27 3e
       0.10338835 0.014590924 0.13619524 0.16339365
000370 0e 01 3b be 68 92 02 bd b8 9f 0d 3e 06 60 3d 3c
       -0.18262121 -0.031877905 0.13830459 0.011558538
000380 fa a9 ac 3d 35 21 4b 3d b7 ab 35 be 9f 2c b3 3d
       0.08430858 0.049592216 -0.17741285 0.08748745
000390 e1 e5 9b bc 85 e1 bf 3d ce 50 aa bd 88 62 26 bd
       -0.019030513 0.09369186 -0.083161935 -0.04062131
0003a0 31 b1 72 3d 30 a6 7e bd 1a 4f 21 bd 4b 45 0a bd
       0.059251014 -0.062170208 -0.039382078 -0.03375749
0003b0 13 29 13 3d dd a8 1a bd 24 4e 38 be 13 01 aa 3c
       0.035927843 -0.037758697 -0.17998558 0.020752465
0003c0 6b 91 f8 3b bd 0a 24 3d d0 4a 79 bd 07 e7 93 bd
       0.0075856945 0.040049303 -0.060862362 -0.07221799
0003d0 30 52 ec 3d fa 4d b6 ba 75 b1 07 bd cc c6 10 be
       0.115391135 -0.0013908737 -0.03312822 -0.14138335
0003e0 da a5 60 3d 6a 7b aa bd 46 d4 d4 3d 02 7c 24 3d
       0.05484567 -0.083243206 0.103920504 0.040157326
0003f0 65 10 ca 3d 7a 91 21 be c8 da 02 3e 31 c3 44 bd
       0.09866408 -0.15778151 0.12778771 -0.04803771

cos_embedding.bias f4 [256]
000000 8a 18 75 3c a4 34 e1 bc 96 86 11 3e a3 fd cc 3d
       0.014959464 -0.027490921 0.14211497 0.10009315
000010 f7 47 84 3d 3a 31 93 ba d7 08 c1 3d e1 b1 87 3e
       0.06459039 -0.0011229881 0.09425514 0.26502898
000020 8b 35 2e 3e 67 f2 13 3e 6f f1 a1 3d 0d 01 75 3d
       0.17012613 0.14447938 0.07907378 0.059815455
000030 0f f5 0f 3e a5 f5 37 bc 72 58 55 3e 4b 08 00 3e
       0.14058326 -0.011228 0.2083452 0.12503164
000040 dc 99 46 3d b3 4d 08 bd f1 d0 98 3d 40 df f1 3d
       0.048486575 -0.033277225 0.074617274 0.1181016
000050 67 46 12 3e bf d7 25 3e 0d e8 99 bd 2b 33 33 3d
       0.14284669 0.16195582 -0.07514963 0.04374997
000060 e2 0d 02 3e be 3c 92 3e 03 4b 41 3d 26 aa 61 bd
       0.12700608 0.28561968 0.047190677 -0.055093907
000070 49 7a db 3d 92 0c ab 3d 6d cc 95 3e 08 1e ef 3d
       0.107166834 0.08352007 0.29257527 0.1167565
000080 2a 6d 1e 3e e8 07 0c 3e 0e b9 4e 3e 42 38 ec 3d
       0.1547133 0.13674891 0.2018778 0.11534168
000090 47 31 ad bc 45 79 b8 bd d8 d4 a7 3d 46 b2 8c 3d
       -0.021141661 -0.09007505 0.081948936 0.068699405
0000a0 4e fe 24 3e df 7a 72 bd 53 2d e0 3c ec 68 bf 3e
       0.16112635 -0.05919921 0.027365362 0.37384737
0000b0 1e a9 60 bd 50 6f 55 3e 22 c0 d8 bd cf 70 c7 3d
       -0.054848783 0.20843244 -0.105835214 0.097383134
0000c0 85 d5 95 bd 2d 1b 41 3e e3 39 f4 3d 38 3c be 3e
       -0.07316116 0.18858023 0.119251035 0.37155318
0000d0 3b ed 1a 3e b6 15 a8 3e 4d c1 d8 3d 65 f7 a9 3e
       0.15129559 0.32829064 0.10583744 0.3319656
0000e0 63 34 e9 3d b9 5e aa bd 74 7a 2b bd e2 22 56 bc
       0.11386945 -0.08318848 -0.041864827 -0.01306984
0000f0 6e b3 de 3d 18 2b 4c 3d 73 10 7b 3d cf e4 f1 3c
       0.10874067 0.049845785 0.061294984 0.02952805
000100 27 fa 24 3e dd 30 cc 3e 71 bd 95 3e 64 63 a4 3d
       0.1611105 0.3988103 0.29246095 0.0802677
000110 d5 92 e4 3d 38 d2 67 3d 74 4b 81 3c 81 88 44 3e
       0.111608185 0.056596965 0.01578305 0.19192697
000120 26 10 22 3e 93 cf c2 3b 63 c4 79 bd 0f 61 ce bb
       0.15826473 0.005945155 -0.060978305 -0.0062981914
000130 38 72 4c 3e da 32 06 3e f4 de d4 3d 39 19 a4 3d
       0.19965446 0.13105336 0.103940874 0.08012623
000140 a6 39 45 3e 8e 70 0d 3e 68 da c3 3a f7 fa 9b bb
       0.19260272 0.13812467 0.001494241 -0.004760142
000150 55 d0 13 bd 32 7a f8 3d 7b b5 22 3e dd 26 e1 3d
       -0.036087353 0.12132682 0.15889542 0.10993741
000160 27 e2 19 3e 8a 2d 4a 3e 28 b3 0a 3e 80 47 7c 3c
       0.15027677 0.19743934 0.13544905 0.015397906
000170 2e b9 5a 3e ed ff d1 3d 0c 7a 3a 3e 75 9d 95 3e
       0.21359703 0.10253892 0.1821062 0.29221693
000180 2f a1 3c 3e f7 c6 02 3e 8d 1a fc 3d 16 04 5a 3e
       0.18420862 0.12771212 0.12309752 0.21290621
000190 ca d5 34 3c 05 5a a4 3d 92 3c d7 3b 68 2b 9d 3e
       0.011037299 0.08024982 0.0065685 0.3069718
0001a0 93 fb a2 3e cd 14 60 bd 6e f9 4f bd 88 b5 44 3e
       0.3183256 -0.054707337 -0.050774984 0.19209874
0001b0 f5 ab 6c 3d 5c 49 b0 3e 0b b3 20 3e b2 6c 00 3b
       0.05778118 0.3443097 0.156933 0.0019596037
0001c0 0a a6 f7 3d f9 78 d9 3d d7 37 ee 3c 09 57 b3 bc
       0.12092216 0.10618777 0.02907936 -0.021892088
0001d0 18 1e b0 3d a6 a0 9c 3c 65 f8 c2 3c 04 ef c9 bc
       0.0859949 0.019119572 0.023800084 -0.024650104
0001e0 b8 b5 58 3e 09 92 ec 3d 59 55 e3 3d bc 15 cc 3d
       0.2116307 0.115512915 0.11100263 0.09965083
0001f0 16 ef cd 3d 9b 5b 1e 3b 7f 74 b0 3d e7 71 d2 bd
       0.10055368 0.0024163488 0.0861597 -0.102756314
000200 49 25 10 3e d6 42 06 3e 86 50 de 3d ab 47 0e 3d
       0.14076723 0.13111433 0.108552024 0.034736317
000210 00 af 55 3e 74 59 59 3c d0 eb ae 3d c9 5a d3 3d
       0.20867538 0.013265956 0.085410714 0.1032005
000220 ea 97 d2 bc 0d cb 92 bc 5e 88 96 3e 4c 22 96 bb
       -0.025707204 -0.017919088 0.29400915 -0.004581725
000230 22 9d 9a bd 8d 2f 1a 3e e3 f7 e0 3d ba ce 08 3f
       -0.07549502 0.15057202 0.10984781 0.5344044
000240 43 ed 3a 3e c6 f9 1e 3e bd fb 7f 3e f9 08 a3 3c
       0.1825457 0.15524969 0.24998374 0.01990174
000250 a8 f0 f8 3d d9 42 82 3d 67 ec 52 3e 7b 7a 16 3d
       0.121552765 0.063604064 0.20597993 0.0367379
000260 44 09 31 3e 63 50 d3 3e 17 3c d2 3d c9 f2 2f bd
       0.17288691 0.41272268 0.102653675 -0.042956147
000270 54 a4 89 3e 41 1c b3 3c 22 b3 e7 3e f5 80 13 3e
       0.26883185 0.021864058 0.45253855 0.14404662
000280 a2 4c 39 3c 99 dd e4 3e ee f0 77 3e a0 78 82 bd
       0.011309775 0.44700316 0.24213001 -0.06370664
000290 f5 34 38 3e a3 38 b3 3d 56 e6 22 3d 16 e5 a1 3d
       0.17988952 0.08751037 0.039770447 0.07905023
0002a0 ed 96 ae 3e 45 9c e0 3b 09 ba b5 bc be 03 43 3e
       0.34099522 0.0068545663 -0.022183435 0.19044396
0002b0 94 00 3a 3e 79 df ce 3d eb 09 8d 3d 6f aa ed 3b
       0.18164283 0.10101218 0.06886657 0.0072529833
0002c0 3c 57 85 b8 5d 4b 0b bd 93 71 06 3d 44 29 d4 ba
       -6.358183e-05 -0.03400742 0.032823157 -0.0016186615
0002d0 11 7e fb 3d e9 19 89 bc f1 62 59 bd ae 45 8a 3d
       0.12279905 -0.016735988 -0.053072874 0.067515716
0002e0 fb b9 08 3f b4 30 38 3e a2 e9 15 3e a4 e4 b5 3d
       0.53408784 0.17987329 0.14639905 0.088815
0002f0 dd 15 17 3c e7 b3 60 3e 4f 57 70 3d 26 82 04 3e
       0.009221521 0.21943627 0.058677014 0.12940273
000300 39 32 03 3e 53 25 85 3d 88 0e 13 bd 39 20 ae 3d
       0.12812127 0.0650126 -0.03590253 0.0850224
000310 e6 e2 86 3c c6 e0 94 3d 5b 14 dc 3e c4 0a 62 3e
       0.016465615 0.07269435 0.4298428 0.2207442
000320 41 ce 2d 3e 57 9a c3 3d 12 d5 22 3e f2 1b e6 3c
       0.16973211 0.09550922 0.15901592 0.028089497
000330 bb 96 15 3e 96 9a 3d 3e c5 2f 5a 3d 7e b8 3e 3e
       0.1460828 0.18516001 0.053268213 0.18625066
000340 cc d0 26 3e 55 db aa 3d 6e 8e b8 bd 0f e1 c6 3d
       0.16290587 0.083426155 -0.09011541 0.09710895
000350 0b 5f 72 3e 91 61 5a 3e a2 07 02 3b c8 bd 75 3e
       0.23669069 0.21326281 0.0019840975 0.23998177
000360 74 bd 88 bd 9e f2 f8 3d 10 92 04 3e ac fe 48 3e
       -0.0667676 0.121556506 0.12946343 0.196284
000370 68 c1 29 3e fb 63 3a 3e ca 2b 20 bd 47 fa 8d 3d
       0.16577685 0.18202202 -0.03910426 0.06932502
000380 17 90 c7 3c 1c 5e 10 3e 4a c5 ca bc 54 55 64 3e
       0.0243607 0.140984 -0.024752278 0.22298175
000390 2f 72 92 3c ca c9 cc 3d 02 51 3e 3e 60 49 1b 3e
       0.017876713 0.09999426 0.1858559 0.15164709
0003a0 42 e5 85 3e 6e 60 89 3d 40 4e 45 3e ec 8e 7b 3e
       0.26151472 0.06707846 0.19268131 0.24566239
0003b0 8e 95 e8 3d 26 0a 23 3e ee 5d 6c 3e 83 3b 59 3d
       0.1135665 0.1592184 0.23082706 0.05303527
0003c0 bc df 36 3e b7 36 ce 3d b2 d4 93 3d 5e 26 56 3e
       0.17858785 0.1006903 0.07218303 0.20913073
0003d0 ba c0 11 3e cd 74 94 3e e3 3d ff 3d 33 ba ab 3c
       0.14233676 0.28995362 0.12462976 0.02096281
0003e0 37 38 b1 3e c0 93 6e 3c ea a3 91 3d 51 6c 94 bd
       0.346132 0.0145615935 0.07111342 -0.07247222
0003f0 f3 3e 09 3d 6e 98 8f 3d cc 3d 38 3e e4 02 08 3e
       0.0335073 0.070114955 0.17992324 0.13282353

ff_1.weight f4 [256, 256]
000000 32 cb 9e 3c 28 c7 dd bb c3 56 43 3d 38 ae 8e bc
       0.019384 -0.006768126 0.047690164 -0.017417058
000010 fd 8e 50 3d 49 94 98 bd 59 5a d0 3c 25 e4 94 bd
       0.050917614 -0.07450158 0.025433706 -0.072700776
000020 e5 47 1b ba 59 b1 90 3b 81 65 a2 3d d7 b1 56 be
       -0.0005923494 0.0044156727 0.079295166 -0.20966278
000030 46 4d b3 bb 80 2c 0d bd 42 e3 86 bd 59 3f 90 3d
       -0.005471858 -0.034466267 -0.06586315 0.070433326
000040 0f 8e 87 3c 62 8b 89 3d ed 9f 30 bb cd 59 c4 3d
       0.016547231 0.06716038 -0.0026950792 0.09587441
000050 ab d2 8b bd 07 fe a3 3d 58 df ee 3c 43 1b 01 3d
       -0.06827291 0.08007436 0.029159233 0.03152014
000060 7f eb 97 3d d6 57 b2 bc de 9f 56 3c b2 13 b1 3b
       0.07417964 -0.021770399 0.013099639 0.005403959
000070 a7 2d 93 bb ed 69 52 3c 9b 60 e9 3a dd f9 18 3d
       -0.004491526 0.0128426375 0.001780528 0.037347663
000080 59 4c 40 3d 5f 86 c4 bd e1 22 f5 bd a9 35 a6 bc
       0.04694781 -0.09595942 -0.11969543 -0.020289259
000090 da cb d1 bc d5 87 80 bd 56 af 2c 3c a1 65 3c 3d
       -0.0256099 -0.06275908 0.01053985 0.04599536
0000a0 b0 57 3c bd 89 ff 54 3d 66 a3 2d 3d 0f 79 ab be
       -0.045982063 0.05200151 0.042392157 -0.33490798
0000b0 f3 ca 62 bd 6b e2 11 bc 90 de 30 3d a7 c4 f9 bd
       -0.05536933 -0.00890408 0.043181002 -0.121957116
0000c0 c1 c1 62 3d d4 d4 50 bd 1c 59 0d bd 26 5e cf bb
       0.05536056 -0.05098422 -0.03450881 -0.006328362
0000d0 ae a3 c7 3b 95 3b 1c be 70 12 8c 3d 2a cc a1 bd
       0.00609251 -0.15257104 0.06839454 -0.07900269
0000e0 f2 14 56 3d 2d ea 6e 3d 31 90 85 3d 64 aa 9e bc
       0.05226607 0.058328796 0.06521643 -0.019368358
0000f0 7c b7 c7 bc b0 ee 31 bc 02 20 45 3d eb 06 86 bd
       -0.024379484 -0.01086013 0.04812623 -0.06544288
000100 2c 0e 6e bd c2 1b f6 bd 98 62 8e bd 42 36 d0 3c
       -0.058118984 -0.12017013 -0.06952399 0.025416497
000110 e6 d2 c4 bc c1 05 46 3d 0c 41 d5 ba 7c e9 04 be
       -0.024026345 0.04834533 -0.0016269996 -0.12979692
000120 a6 bb 6f 3d 7a d8 86 bb 87 4c 94 3d c3 08 3a bd
       0.058528565 -0.0041151615 0.07241159 -0.045418512
000130 44 a4 60 bd 5a 29 cb 3b 4e b4 a2 3d 78 b7 90 bc
       -0.054844156 0.006199998 0.07944547 -0.01766561
000140 36 ae 0f 3e aa 93 2b 3d 19 ae 85 3d 87 72 0f 3b
       0.140313 0.04188887 0.06527347 0.0021888332
000150 20 bd 0e 3c 16 2e 29 3d 53 6a 30 bd d0 2c 0a 3d
       0.008712083 0.041303717 -0.04307015 0.033734143
000160 68 87 60 3d 06 3d 9d 3d 68 d2 9f bd 2c 96 2f 3b
       0.054816633 0.07677655 -0.07803804 0.002679239
000170 c5 40 93 3d 55 0f 20 3d 8e 53 22 bc b3 b9 77 bd
       0.07190088 0.03907712 -0.009907616 -0.06047983
000180 a9 ce 01 bc 8c 40 97 3d 23 32 ec bd bf 80 df 3d
       -0.007922807 0.07385358 -0.11533 0.10913228
000190 5b 42 64 bc ae 0d 34 3c 18 3f 44 bb e5 d6 32 bd
       -0.013931836 0.01098959 -0.0029944833 -0.04366197
0001a0 1c 45 76 3d 74 1e 7a 3d 76 9b 72 3d 79 37 85 bb
       0.0601245 0.0610642 0.05923029 -0.0040654507
0001b0 d7 c2 0c bc 89 9b 28 bd 9e e3 c1 bc 91 66 62 bd
       -0.008591375 -0.041163955 -0.023668107 -0.055273596
0001c0 11 0d fd bc 0a fc c6 3c 81 a7 a7 bc 01 17 84 3d
       -0.03089002 0.024290103 -0.020465614 0.064497
0001d0 30 90 63 3d 1e 35 83 bc 04 6e fc bc 45 4a 0a 3d
       0.05555743 -0.01601654 -0.030814178 0.033762235
0001e0 71 78 9e bb 2e ec a2 3d c2 b0 f4 bc 7a b8 7f bd
       -0.004836135 0.07955204 -0.029869441 -0.06243179
0001f0 75 e1 6d bc 2a d9 a8 bd 0b 9d c4 3c e4 6b 87 bd
       -0.014519085 -0.08244546 0.024000665 -0.066123754
000200 1b 83 07 3d ef 71 78 be 50 0c 04 be 4c 52 b4 bc
       0.033084016 -0.24262212 -0.12895322 -0.022011898
000210 a0 04 36 3c 75 bb 0d bd 0a e0 7c 3c d1 97 0e 3d
       0.011109501 -0.0346026 0.015434274 0.034812752
000220 36 ab ba 3a 27 e4 da 3d 7d 59 98 bd 74 18 50 3d
       0.0014241699 0.10688048 -0.074389435 0.05080457
000230 92 c7 29 3c 17 73 21 bd cb 21 7e 3d 64 6d 1d bd
       0.010362523 -0.0394164 0.062043946 -0.0384344
000240 62 50 e7 bc 9e 99 42 3d 5a 04 f6 3d 58 7c 89 bd
       -0.028236572 0.047509782 0.12012549 -0.0671317
000250 20 89 75 bc 27 a4 13 bc 5a 76 82 3d 05 16 d9 3c
       -0.014986306 -0.009011305 0.0637023 0.026499758
000260 04 7a 94 3b 81 a4 c4 3c a6 2a f5 3a 60 d0 26 bc
       0.004531147 0.024004223 0.0018704727 -0.010181516
000270 8e 15 53 3d dc 8c 11 3d 6b 85 5c be d8 17 a0 bd
       0.051534228 0.035534725 -0.2153527 -0.07817048
000280 80 94 4e bd d3 e8 95 3a a3 c3 d1 3c d4 a5 80 bc
       -0.05043459 0.0011437185 0.025605982 -0.015704073
000290 1d b9 f3 3b 42 53 f5 bc c1 97 1e bd 25 c2 07 3d
       0.0074378387 -0.029946927 -0.038718943 0.033144135
0002a0 78 1f 10 3d 5f 81 d7 3c 1e 0a 17 bd 7c f7 a6 bd
       0.03518626 0.026306806 -0.036874883 -0.08152673
0002b0 6a 1a 1e 3d 77 7d 57 bb c8 e0 98 bb 28 45 22 3d
       0.03859941 -0.003288118 -0.004665468 0.039616734
0002c0 be 24 23 bc 93 05 dd 3c 34 d9 c9 3d 51 61 a7 bd
       -0.0099574905 0.026980197 0.09855881 -0.081728585
0002d0 16 bd f8 39 0a 6e 0c 3c 27 c0 4f 3d 8f 49 4b 3d
       0.00047443126 0.008571157 0.05072036 0.049630698
0002e0 d1 4e 27 3e 5a c8 b9 3d 10 0d 52 3d 8f 2c 3e 3d
       0.1633866 0.09071417 0.05128199 0.046429213
0002f0 13 4f 9f bd 6b c6 f9 3b d8 c0 93 3c 62 b3 07 3d
       -0.07778754 0.00762253 0.018036291 0.033130057
000300 f8 7b 23 3d 7c fe 5f bd c4 62 b9 3d 25 34 6c 3d
       0.039913148 -0.054686055 0.09052041 0.057666916
000310 76 fe c5 3d bc a2 5c bd 44 43 18 3e 8b b2 be 3c
       0.09667675 -0.053866133 0.1486941 0.023278495
000320 33 ab 14 bc 00 07 8c 3d 51 00 77 3d 2e d9 ab 3c
       -0.00907402 0.06837273 0.060303036 0.020977583
000330 d6 1b d5 3c 18 25 4a 3d 1e 5f b3 bc 8f 1b 22 3d
       0.02601425 0.04935178 -0.021895941 0.039577063
000340 88 55 e3 3d 2f 75 40 bd ed 1c a5 bc d5 1d 56 bd
       0.11100298 -0.046986755 -0.020155394 -0.052274544
000350 0c 80 29 3d e5 65 df bc f4 32 92 bc ae 99 a0 3d
       0.04138188 -0.027270267 -0.017846562 0.07841812
000360 cd 92 03 3d 24 48 67 3d f1 80 56 3d 1d 07 c1 bc
       0.032122422 0.056465283 0.05236906 -0.023562962
000370 1a 87 98 3d c0 33 b2 bd b4 b2 c4 3c 4b 94 f8 3c
       0.074476436 -0.08701277 0.024010994 0.03034415
000380 79 d8 9e 3c c6 cd 06 ba 77 43 28 3d 96 9b 08 3e
       0.019390332 -0.0005142357 0.041079964 0.13340601
000390 ec 94 e7 bc bc 15 b4 bb 63 34 20 bd 8f 55 91 bb
       -0.028269254 -0.005495755 -0.03911246 -0.004435248
0003a0 94 5c 98 3d c6 e9 05 3d c4 0e 4f bd f2 2a 96 3d
       0.07439533 0.032693647 -0.05055119 0.0733241
0003b0 61 1b 0c bd 7c 69 a9 bc 90 01 2f bc 69 7b b3 bc
       -0.034205798 -0.020680182 -0.010681525 -0.021909432
0003c0 77 89 c1 3d b5 1b 8a 3d c9 98 7b bd 7c 20 84 3d
       0.094500475 0.06743566 -0.061425004 0.064515084
0003d0 1c 78 ca 3d a4 58 93 3d 2f c0 67 bb f1 10 74 3c
       0.0988619 0.07194641 -0.0035362353 0.014896617
0003e0 24 ba d3 bd 36 04 80 bd 5c 84 9b 3c f9 ff 64 3d
       -0.10338238 -0.06250803 0.018984012 0.055908177
0003f0 ba 66 90 3a f0 1a 4d 3d 07 47 ff bd 94 0a c9 bd
       0.0011016943 0.050074518 -0.12464719 -0.09816471

ff_1.bias f4 [256]
000000 d1 ab d9 3c e4 c7 c4 3d a3 8e 29 bd 37 13 9d 3d
       0.026571186 0.096084386 -0.041395795 0.076696806
000010 ba e5 55 3d 97 f5 e2 3d 87 63 48 3c a8 1e e2 3b
       0.052221037 0.11081999 0.01223076 0.006900627
000020 32 86 ab 3c 1b 02 ab 3d 50 b8 f6 3b 69 9a dd bc
       0.020938013 0.08350011 0.007529296 -0.027051168
000030 d0 37 cf 3c 93 3e 80 3d 77 0b 85 3d 36 fe 67 bc
       0.025295168 0.06261935 0.06496327 -0.01415973
000040 a3 fa b1 b9 d8 b4 87 3d a1 59 24 3d 7d f4 e5 3c
       -0.0003394681 0.0662629 0.04012454 0.028070683
000050 9a 31 97 3c 27 74 fb 3c 18 07 c9 3b 2f be 2d bc
       0.018456269 0.030695034 0.006134879 -0.010604425
000060 64 32 a5 3d a5 49 b5 3d e2 d6 a2 bc 4e af 8e 3c
       0.08066252 0.08851937 -0.019877855 0.017417576
000070 f1 b1 02 3d 34 54 cf 3d e6 2a 23 3b 68 a3 6f 3c
       0.03190798 0.10123482 0.0024897396 0.014626361
000080 3c 84 77 3d ab 0f 99 3d 39 79 0e 3d 56 e8 01 bd
       0.060428843 0.074736916 0.034783576 -0.031715713
000090 82 3a c6 3d ad 1c cd 3d 22 6a 0f 3d ea e6 da 3d
       0.09679128 0.10015235 0.035013326 0.106885746
0000a0 22 b0 1f 3c 35 de 64 3c 78 3f cc 3d b1 e7 85 3d
       0.009746583 0.013968994 0.09973043 0.06538332
0000b0 de 47 63 3b 7f 4e 04 3d 73 ce bf 3d 41 1a 96 bc
       0.0034680287 0.032301422 0.09365549 -0.018323066
0000c0 a6 c0 8e 3d 75 cf a4 bc 45 88 bc bb b6 e8 77 3d
       0.069703385 -0.020118454 -0.0057535493 0.060524665
0000d0 be d2 c8 3c 77 f2 01 3e 06 99 a0 3b bc 30 af bd
       0.024514552 0.12690149 0.0049010543 -0.08554217
0000e0 cb 6b c5 3c 15 09 9a 3d 6f c5 a5 3d be 2e d2 3a
       0.024099251 0.075212635 0.08094298 0.0016035659
0000f0 73 01 e8 3b 8a d7 25 3d c2 79 95 3c b3 c0 53 bc
       0.007080251 0.040488757 0.018246535 -0.012924361
000100 d0 50 07 bb 8c ba 95 3d 62 8e 7d bc 0a 33 8f 3d
       -0.0020647533 0.073109716 -0.015475841 0.06992157
000110 56 5e a8 3d f4 14 71 bc 72 37 05 bd ec 86 25 3d
       0.08221118 -0.014714468 -0.03252358 0.040411875
000120 ab 27 ce bc f2 9a c1 bb a2 40 b5 3d dc f7 d4 3d
       -0.0251654 -0.0059083635 0.08850218 0.10398838
000130 aa b6 a9 bc dc 7e 8d 3d e7 7a 9d bc e5 da c8 3c
       -0.020716984 0.06908962 -0.019223643 0.02451844
000140 e5 1f d3 3c 6f e2 09 bc 45 19 5c 3d 19 f2 ab 3d
       0.025772044 -0.008415802 0.053735036 0.08395786
000150 c1 bf 7f 3d 9c 3b fb 3a 4c 94 15 3d 23 55 11 3d
       0.06243873 0.0019167545 0.03651838 0.035481583
000160 3c 79 65 3d 7f bf 64 3b 27 5a b4 3d 94 88 b8 3c
       0.05602382 0.003490418 0.08806258 0.022526063
000170 e2 a0 37 3d f7 07 a9 3c 80 d8 c9 3c 1c dd 66 bd
       0.044831164 0.02063368 0.024639368 -0.05636321
000180 6b 73 ea bb fd a0 b6 3d 52 59 ae 3d 8c dc e1 3c
       -0.007154872 0.08917425 0.0851313 0.027570985
000190 9d 2a 58 3d 9a 02 b3 3d 54 bc b5 3d 42 07 04 3c
       0.052775014 0.087407306 0.08873811 0.008058371
0001a0 70 db 89 3d 65 6c 88 3c 53 f7 8c 3c 22 c5 2c bb
       0.067313075 0.016653249 0.017207777 -0.0026362618
0001b0 e6 ef 94 bd 23 3b fd bc f1 5f 39 3c 5d e7 85 bd
       -0.072723195 -0.030911988 0.011314378 -0.0653827
0001c0 4e f9 1c bd 15 be a6 3c cc a9 78 bc 3d 8f 8d 3d
       -0.038323693 0.02035431 -0.0151772015 0.06912086
0001d0 ed 71 85 3d bc 4f a0 bc 2d 2a b2 3c 74 54 fb 3d
       0.0651587 -0.01956927 0.021748627 0.122719675
0001e0 b5 24 b0 bb 90 ac d8 3c 04 39 6d 3d e5 06 a0 3c
       -0.0053754696 0.026449472 0.057915702 0.019534538
0001f0 07 f5 30 3d 2c e1 26 3d 21 2d 0b 3d 8b c6 65 bc
       0.043202426 0.040742084 0.033978585 -0.014024387
000200 15 30 db 3d 87 0a 0e bd 55 83 5f 3c 03 43 21 bc
       0.1070253 -0.03467801 0.013642152 -0.009842637
000210 ab 37 c6 bc f7 2a d5 3d 08 fc 14 3d 3d 45 5f 3d
       -0.024196466 0.104085855 0.03637317 0.05450939
000220 cd 3a e1 3d a1 78 ed 3c 93 bc c2 3d 98 5e 05 3d
       0.109975435 0.028988184 0.09508624 0.032560915
000230 f6 ad 4a bc 1f b8 bc 3d fc 18 56 3b 3c 14 06 3d
       -0.012370577 0.09214806 0.00326687 0.03273414
000240 0e 3a 98 3d e9 24 1d 3d b5 81 0f 3d 3a f7 41 3b
       0.07432948 0.03836528 0.035035808 0.0029596821
000250 ca 69 a4 3d 95 9d 10 3c c8 07 a5 3b e8 f3 90 3b
       0.0802799 0.008826633 0.005036328 0.004423607
000260 64 bb 49 3c d7 56 f7 3a 0e 90 98 3d e5 0b c3 3d
       0.012312744 0.0018870485 0.07449351 0.09523753
000270 f4 dd 8c 3d 7e e1 21 bd a8 84 ec bc f5 33 8c 3b
       0.06878272 -0.039521687 -0.02887185 0.0042786547
000280 65 5c f6 3b f3 bb 8b bc 8e ce 9e bb e9 79 b4 bc
       0.0075183385 -0.017057395 -0.0048464006 -0.022030788
000290 34 89 96 3d ea e7 69 3d 5c de cb bc f5 e3 86 3d
       0.07350388 0.057105936 -0.024886303 0.06586448
0002a0 29 38 a6 bc 45 37 24 bd 2b ec b7 3d e2 96 c7 3c
       -0.020290451 -0.04009177 0.08980592 0.024363939
0002b0 3b 4b 57 3c 4b 9d 5c 3d b5 ac 79 3d 56 30 be bd
       0.013140495 0.053860944 0.060955722 -0.09286563
0002c0 10 bb 40 3d 6b 18 fc 3c ef 2f 8b 3d 95 ba 42 bc
       0.047053397 0.030773362 0.06796252 -0.011885305
0002d0 ec bd 71 bc b1 1f 09 3d 29 4c 82 bb f9 91 da 3d
       -0.014754754 0.03347749 -0.003976364 0.10672373
0002e0 b5 c4 1d 3d 27 7a 00 3d bc 0a 7a bb 87 08 b2 3d
       0.038517673 0.031366494 -0.003815337 0.08693033
0002f0 b5 7d d8 3c 5e 98 8e 3c 01 ad 0f 3d a9 fa c4 3d
       0.02642713 0.017406639 0.0350771 0.09618122
000300 ea 45 30 3d e1 52 2b bc e8 27 34 3d 22 bc e2 3c
       0.043035425 -0.010456772 0.04398337 0.0276776
000310 f8 59 e1 3c 82 42 20 3c 7b b8 88 3d e3 9d 90 3c
       0.02750872 0.009781482 0.06675812 0.017653411
000320 d2 de b5 3d 38 d9 e9 3c 47 07 81 3a 69 e0 06 3b
       0.0888039 0.02854596 0.0009844088 0.0020580536
000330 71 e0 3e bd c3 73 01 3e fa 8b ba 3c 24 7c 83 3d
       -0.046600763 0.12641816 0.022771824 0.06420162
000340 17 1f 48 3d 3f c7 2d 3d d6 ab 14 bd 5a 7f 61 3d
       0.048857775 0.042426344 -0.036296688 0.055053093
000350 84 40 2e 3a 15 ce 29 3d 33 7d b7 bc db 73 9a bc
       0.0006647187 0.0414563 -0.022398567 -0.018854072
000360 ad 72 ac 3d 81 cf 76 3c c4 c5 a1 3c a5 e7 c9 bb
       0.0842031 0.015064121 0.019747622 -0.0061616474
000370 0e 11 92 3d 7a 3e 91 bd b4 c1 8e 3d 58 b1 91 3d
       0.07132159 -0.070919946 0.0697054 0.07113904
000380 a7 ec c9 ba a1 c3 10 3d 56 2a 2b 3d ec dd d2 bc
       -0.0015405611 0.035342816 0.04178842 -0.025740586
000390 e1 12 e0 3d e0 7b d0 3c 3b 62 71 3d b7 96 36 3d
       0.10941101 0.025449693 0.05893157 0.044577327
0003a0 0d 7c 9a 3d 5f 98 b8 bb 54 c3 4f 3d 79 92 c0 3c
       0.07543192 -0.0056333984 0.05072339 0.023507344
0003b0 3e 74 13 3b 7a ed 2f 3d 4f c3 9b 3d ea 79 03 3e
       0.0022499706 0.042951085 0.076056115 0.12839475
0003c0 7c 25 b1 3d 2e 40 92 bd 43 88 9c 3d 3f 0c 46 bc
       0.08649728 -0.071411476 0.07643177 -0.012087881
0003d0 03 31 05 3d 2c 7a 88 3d 0d 03 68 3d 7c 06 01 bd
       0.032517444 0.066639274 0.056643534 -0.031500325
0003e0 44 7a 3c 3d 65 de 5b 3c 11 92 a6 3d 71 df 79 3d
       0.04601504 0.013419722 0.08133329 0.061004106
0003f0 92 dd e3 bc 75 9a 51 3d 3f ef c5 bd e0 fd 9b 3d
       -0.027815614 0.051172692 -0.09664773 0.07616782

ff_2.weight f4 [1, 256]
000000 0b d2 b9 bd 3d ff f6 3d 99 51 a2 bd 94 56 cb 3d
       -0.09073266 0.120604016 -0.0792572 0.09928623
000010 53 c8 e1 3d e2 2d a1 3d 8e f0 07 3e 30 08 a1 3d
       0.11024537 0.078700796 0.13275358 0.0786289
000020 58 49 f1 bd fb f7 6c 3d e2 e6 1e 3e 25 8f 37 bd
       -0.11781567 0.05785368 0.15517762 -0.044814248
000030 4d 48 9c bd 61 67 3c bd 55 8c 20 be 89 5e 8a 3d
       -0.07630978 -0.045997027 -0.15678532 0.067563124
000040 42 41 1a 3e 98 d2 fb 3d 0f 1d c2 bd 4c 2b 24 3e
       0.15063956 0.12296027 -0.09478199 0.16032141
000050 bc b6 d1 3d 49 1a e3 3c 7e e6 06 3e 84 22 06 be
       0.10239932 0.027722495 0.13173863 -0.13099104
000060 32 97 19 3e 62 7c 2c be 82 15 aa 3d 9a 9c 44 3e
       0.14999083 -0.16844323 0.083048835 0.19200364
000070 55 d9 cc bd 0f 1a 69 3e a9 73 12 3e a1 42 d9 bd
       -0.1000239 0.22763847 0.14301933 -0.106084116
000080 24 60 d7 3d b3 8e 3d be 13 8f f7 bd 56 14 a1 bd
       0.10516384 -0.18511467 -0.12087836 -0.07865207
000090 fb 01 11 3e 66 d2 71 3e 97 fa 0f 3e 07 84 e0 3d
       0.14160912 0.23615417 0.14060436 0.10962682
0000a0 31 86 d9 3d 7f 40 08 be b0 19 a4 3d fb 81 23 be
       0.10621298 -0.13305853 0.08012712 -0.15967552
0000b0 b3 59 e0 bd 97 24 09 3e 4d 12 15 be ff ab ee bd
       -0.10954609 0.13392864 -0.14557762 -0.116538994
0000c0 13 e6 41 3e 16 09 d3 bd 81 e7 44 3e 24 15 ed 3d
       0.18935423 -0.103044674 0.19228937 0.11576298
0000d0 34 9b 13 3e a4 80 4f 3e 54 11 bd bd 1e 7c 07 3e
       0.14414674 0.20263916 -0.09231821 0.1323094
0000e0 df e4 97 3d 40 00 49 3e 95 44 f6 3d bf 0c ca bd
       0.074167006 0.19629002 0.120248 -0.098657124
0000f0 5a f8 aa 3d 3d 94 32 3e 14 36 a5 bd 6c 12 e6 bd
       0.083481506 0.17439361 -0.08066955 -0.112339824
000100 be f1 b8 3d a7 86 d3 3d 96 d5 6f 3d bd 44 df bd
       0.09030484 0.10328417 0.0585533 -0.10901783
000110 06 e9 aa bd cb 99 e5 bd a3 5e 05 3e 0b d2 5b be
       -0.08345227 -0.11210974 0.13024382 -0.21466844
000120 4f 3f e7 bd 33 a2 31 be 19 d3 0b 3e 05 ea 1e 3e
       -0.11291372 -0.1734703 0.13654746 0.15518959
000130 f7 10 05 be 67 8d fd 3d 1f 33 91 bd 44 a2 fe bd
       -0.12994753 0.12380486 -0.07089829 -0.124332935
000140 1b 06 a8 bd e0 d9 40 be 28 47 a4 bd 48 3a 10 3e
       -0.082042895 -0.18833113 -0.080213845 0.14084733
000150 89 15 f5 bd 57 9a 3a 3e 30 d9 1e be 6e e8 fa 3d
       -0.11966998 0.18222938 -0.15512538 0.12251364
000160 63 75 65 3e 3d e7 18 be d2 4f ba 3d fa 7f 11 be
       0.2240806 -0.1493196 0.09097256 -0.14208975
000170 a6 59 b3 3d e3 9e 1e be bb ec 1f 3e b2 d4 33 be
       0.087573335 -0.15490298 0.1561765 -0.17561606
000180 eb 39 fb bd 3c 1b 35 3e 1e 67 d6 3d 8d 4c c9 3d
       -0.12266906 0.1768617 0.10468887 0.09829054
000190 73 c6 7e bd 21 e8 5a be d0 b2 12 3e a8 c3 0c 3e
       -0.062200975 -0.21377613 0.14326024 0.13746512
0001a0 57 c6 2e 3e ed 23 11 be 2a 4a eb bd c5 61 33 3e
       0.17067848 -0.14173861 -0.11488755 0.17517765
0001b0 52 8c bb 3e 66 4d cb bd ae 3a d7 bd b1 24 84 be
       0.36630493 -0.09926872 -0.10509239 -0.25809243
0001c0 bd e6 29 be 94 d7 76 3e 93 8c b5 bd c3 c3 98 bd
       -0.16591926 0.24105674 -0.08864703 -0.074592136
0001d0 64 bb a8 3d 99 a6 04 be 5b e3 a3 3d 98 49 82 3e
       0.08238867 -0.12954177 0.08002349 0.25446773
0001e0 d9 57 f9 3d 16 4f ac bd 15 52 bc bd 14 b5 10 3e
       0.12174959 -0.08413522 -0.091953434 0.14131576
0001f0 73 d6 a8 bd 11 20 5b 3e 84 8d 51 3e 15 2a 98 3d
       -0.08244028 0.21398951 0.2046414 0.074299015
000200 19 58 12 3e c4 8d 02 3e 83 a5 84 3d 46 9c f7 bd
       0.14291419 0.12749392 0.06476881 -0.12090354
000210 ec f9 26 be e2 a9 14 3e d9 af bc bd 13 fb d6 bd
       -0.16306275 0.1451793 -0.09213228 -0.10497107
000220 b2 14 42 3e 28 6f 15 be e7 59 57 3e 51 3e a8 bd
       0.18953207 -0.14593184 0.21030389 -0.08215011
000230 4a 10 ac bd 52 a6 f8 3d 5e a6 17 be 49 2a 2c 3e
       -0.084015444 0.12141098 -0.14809558 0.16813006
000240 08 67 47 3e 31 3f 7b bd 47 6f e0 bd e6 97 bb 3d
       0.19472897 -0.06133956 -0.109587245 0.09159832
000250 4c 95 c1 bd c0 8b 10 be 76 8a 89 bd 15 ab 28 3e
       -0.09452304 -0.1411581 -0.067158625 0.16471513
000260 c5 5e de bd 82 69 ed bd 27 ce 03 be b7 a6 3b be
       -0.108579196 -0.1159239 -0.1287161 -0.18325315
000270 09 6d da bd 81 17 17 be 2f 07 28 be 6c 14 20 be
       -0.10665328 -0.1475506 -0.1640899 -0.1563279
000280 0f 07 8f 3d 1b 8f e3 bd 04 02 46 be b5 dd c4 bd
       0.06983768 -0.111112796 -0.19336706 -0.096126
000290 0b 66 1b be b1 5c a1 3d 18 9b da bd 9b 4b 82 bd
       -0.15175645 0.078790076 -0.10674113 -0.06362077
0002a0 b9 0d ca 3d 71 04 9c 3d cb 5a 7a 3e da 07 95 3e
       0.09865899 0.07618035 0.24448697 0.29107553
0002b0 31 11 0d 3d 1a 99 a2 3d 01 2e 09 3e d7 e6 a9 3d
       0.034440223 0.07939358 0.13396455 0.08295982
0002c0 6c 7e 01 3e 9e 15 ae be 9a 3c a8 3d 1e 52 a3 bd
       0.12645882 -0.34000868 0.08214684 -0.07974647
0002d0 80 e1 2f be 1c e8 f3 3d c9 6c d1 bd 70 a8 92 be
       -0.17175865 0.11909506 -0.10225827 -0.28644133
0002e0 2e 0b 17 3e fa 9d de 3d 15 ae f7 bd de 17 00 be
       0.14750358 0.108699754 -0.120937504 -0.12509105
0002f0 f1 49 e9 bd 32 04 96 bd 67 c7 7d be 0e b1 f9 3d
       -0.11391056 -0.07325019 -0.24783097 0.121919736
000300 58 b1 4d 3e a9 6e 8e bd c6 2a 27 3e dc 7e fb 3d
       0.20087183 -0.069547005 0.1632491 0.12280056
000310 1a 5b dd 3d 34 3a 00 3e 53 aa 17 3e b1 7a fc 3d
       0.10808392 0.12522203 0.14811067 0.12328089
000320 de 46 d3 3d f8 41 c6 bd 04 cf 9f 3d cc ec d7 3d
       0.10316251 -0.09680551 0.07803157 0.10543212
000330 69 df 93 3e 17 b2 47 3e 84 0f e3 3d cd 57 81 3d
       0.28881386 0.1950153 0.11086944 0.06315575
000340 35 5c 05 3e e5 83 4b 3e 4f 9d c9 3d 3a 57 2a 3e
       0.13023455 0.19874533 0.09844457 0.16634837
000350 ff 52 f8 3d 72 9e 04 3e c0 32 d3 bd e6 62 47 bd
       0.12125205 0.12951067 -0.10312414 -0.0486783
000360 b5 38 d3 3d b0 b2 4e be 68 b4 73 be b1 76 8c 3d
       0.103135504 -0.20185351 -0.23799288 0.06858576
000370 8c 95 fe 3d 82 c5 81 3d d7 7c e2 3d 90 73 29 3e
       0.124308676 0.063365 0.110589676 0.1654799
000380 bd 2d f4 bd 82 2d ba bd e0 c2 e7 bd 7b b8 75 bd
       -0.119227864 -0.09090711 -0.11316466 -0.059990387
000390 97 a2 e8 3d d8 4c c0 bd e0 bc 81 3d 7a 2c d7 bd
       0.113591366 -0.09389657 0.06334853 -0.1050653
0003a0 82 22 98 bd ea f8 2a be a5 b7 12 3e e8 ed 11 3e
       -0.07428457 -0.16696516 0.14327867 0.1425091
0003b0 28 e1 f0 bd 21 08 d0 3d b9 01 07 3e 81 53 92 3e
       -0.11761695 0.101578005 0.13184251 0.28579333
0003c0 39 dc 58 be 3f ef 69 3e 0d a4 94 3d 3c 4b f6 bd
       -0.21177758 0.22845171 0.07257853 -0.120260686
0003d0 a8 e6 0c 3e 4c ef de 3d 6e 36 29 3e a9 30 aa bd
       0.13759863 0.10885486 0.1652467 -0.083100624
0003e0 f0 35 04 3e 43 d6 41 3e 56 25 3e bd 34 aa f6 bd
       0.129112 0.1892939 -0.046422325 -0.120441824
0003f0 cf e7 9b bd ee 15 93 3d dc 91 19 3e f4 7c cc 3d
       -0.07612573 0.07181917 0.14997047 0.099847704
