runs/checkpoint_actor_256_192021_tau1_1480.pth (torch, 288535 bytes, 6 tensors)

fc1.weight f4 [256, 19]
000000 0a e0 49 bd 60 0e f1 3b 5c bd 6b bd 0e 33 4f bd
       -0.049285926 0.00735645 -0.057553634 -0.0505858
000010 30 24 b9 bc 50 3e 61 bd 70 7f 58 bc 78 9c 70 bc
       -0.022600263 -0.054991066 -0.013213977 -0.014685743
000020 86 1b 54 bd 68 50 06 bd 70 01 bd 3b 98 fa be 3c
       -0.05178406 -0.032791525 0.0057679936 0.023312852
000030 84 69 2b bd 28 2b 2f 3c 00 32 60 3d 98 ce 6a bc
       -0.041848674 0.010691442 0.054735184 -0.014331482
000040 2c 79 9b 3c d8 41 4d 3c 00 67 13 bb 6d e2 e9 ba
       0.018978678 0.012527905 -0.0022491813 -0.0017843969
000050 c0 8d 63 be 02 ad 10 3e 72 8e 7f be d6 a4 8a be
       -0.22222042 0.14128497 -0.24956682 -0.27078885
000060 fe b2 8e 3d f8 09 d6 3e 38 ce 07 bd 22 43 7d be
       0.06967734 0.4180448 -0.03315565 -0.2473264
000070 85 67 a5 be 9b b1 8a be 66 7a 80 be 6a 08 47 be
       -0.32305542 -0.27088627 -0.25093383 -0.19436803
000080 dc bc 9c 3d 7b b3 01 3e 25 77 e9 be 48 a3 44 be
       0.076532096 0.12666123 -0.45598713 -0.19202912
000090 a6 87 e6 be 53 fb d8 be 2a 08 f8 3b 1e 2f 2c 3e
       -0.45025367 -0.42379245 0.0075693326 0.16814849
0000a0 60 2e 88 3d 56 58 20 3e 1b a8 0c bd a6 b3 d4 bc
       0.0664947 0.15658697 -0.034340005 -0.02596457
0000b0 55 75 65 3f 77 bf af bf 89 34 75 bf 53 c7 18 bf
       0.8963216 -1.3730305 -0.9578329 -0.59679145
0000c0 80 90 88 be eb b0 8c be 44 8e 22 be cb 39 d9 3e
       -0.26672745 -0.27478728 -0.15874583 0.42426905
0000d0 75 39 e9 bd 2c b1 ed 3e 31 dc a7 bf bc e8 8b bf
       -0.11387912 0.46424234 -1.3114072 -1.09304
0000e0 fa 04 c4 be 1d a2 bf bd fc e8 94 be df 77 8c be
       -0.38285047 -0.093570925 -0.29084003 -0.27435204
0000f0 95 3a a6 be 50 89 18 bf 00 46 b1 3e 94 a3 7a 3e
       -0.3246657 -0.5958452 0.34623718 0.24476463
000100 24 d7 b8 bf 07 79 c0 bf 4e 13 ba bf 34 44 f6 be
       -1.4440656 -1.5036935 -1.4537141 -0.4809891
000110 0f 8c e5 be 09 94 e5 be 42 a6 84 bd 85 ce 99 bd
       -0.4483342 -0.44839504 -0.06477024 -0.075100936
000120 a4 dd 92 be 96 b9 65 3e c3 b4 96 3d 0f f9 94 3e
       -0.28684723 0.22434077 0.07358696 0.29096267
000130 53 3e fe 39 c7 f6 b8 3e a3 18 9a bd eb ba 30 be
       0.0004849309 0.36125776 -0.0752423 -0.17258804
000140 48 ea ad 3e c9 0a 82 bf f5 54 eb be 28 47 27 be
       0.33967805 -1.0159541 -0.45963255 -0.16335738
000150 16 c2 56 bd c3 12 e2 bd eb c1 c7 3d 7a db 75 3d
       -0.05243119 -0.11038735 0.09753784 0.060023762
000160 96 ac 51 3d b2 5c 98 3e b4 15 fa 3e 33 ec 34 be
       0.05118998 0.2975822 0.48844683 -0.17668228
000170 f9 b5 00 bf ee 1f 27 be 0a 7b ba be 74 54 99 3c
       -0.5027767 -0.16320774 -0.36421996 0.018717028
000180 5a 71 20 3d 21 39 01 be ef 18 51 be 6f 4a 01 3f
       0.0391706 -0.12619449 -0.20419668 0.505042
000190 00 df 21 bf 55 46 f0 3f 5c 34 9a 3f 69 05 9a 3f
       -0.63230896 1.8771464 1.2047229 1.2032901
0001a0 04 ba ab 3f 62 c4 1b be 9a 54 4c be 5b dd 16 be
       1.3416142 -0.15211633 -0.19954148 -0.14732878
0001b0 8c f5 fd 3d d9 5d 8d be ec d0 8e be d4 85 d1 be
       0.1240035 -0.27610663 -0.2789377 -0.40922415
0001c0 be 7b 26 3d c4 39 fe 3d 9f be a7 bd fd 27 a3 bd
       0.040645353 0.12413362 -0.08190655 -0.079666115
0001d0 8a ad 2f bd 25 8a 80 3c c9 d2 ab 3c 11 7e aa bd
       -0.04289011 0.015690872 0.020974534 -0.083248265
0001e0 9c 40 85 3c 4d 15 e5 bc 11 10 fe bc 37 d1 97 3d
       0.01626616 -0.027964259 -0.03101352 0.074129514
0001f0 80 eb 52 bd f5 66 8b bd 5b 45 0c bc cd 09 13 bd
       -0.05149412 -0.06806747 -0.0085614575 -0.03589802
000200 7a 6c a1 bc 4d ec 63 3d 90 2d be bc c7 e0 9a bd
       -0.019705046 0.055645276 -0.023215085 -0.07562404
000210 3f f2 78 bd 59 6e b6 3c 2f e8 49 3e 37 7a a3 bd
       -0.0607779 0.022269415 0.19717477 -0.07982295
000220 29 91 9d be 7c c4 89 bf e7 ad 63 be 88 63 4d bf
       -0.3077481 -1.0763087 -0.22234307 -0.8023
000230 ea a4 6e bf 40 10 97 bf 68 da a0 bf 0f e2 6a 3e
       -0.9322039 -1.1801834 -1.2566652 0.22937797
000240 1c 05 36 3e 60 54 fd 3d 76 8e 73 3e d8 b2 06 3e
       0.17775387 0.12369609 0.23784813 0.13154161
000250 e0 29 db 3e 1a 2e 71 bf c5 d5 a6 bf be 20 32 bf
       0.42805386 -0.9421097 -1.3033987 -0.6958121
000260 78 ef 5d 3b ab 7a d3 3d 05 f0 07 be 39 17 74 3e
       0.0033864658 0.103261314 -0.13275154 0.23836984
000270 7f c3 a3 3e eb 76 81 bd 53 e8 d2 3d 80 c2 69 3f
       0.3198509 -0.0632151 0.102982186 0.9131241
000280 ec 7e 86 3f b3 6e b1 3f a3 8d 89 be 90 15 82 be
       1.0507483 1.3861908 -0.26865873 -0.25407076
000290 3a 31 63 be fb a9 2a bf 56 04 e2 be 61 67 9b 3e
       -0.22186747 -0.6666562 -0.44143933 0.3035231
0002a0 49 5e f8 bf b1 e3 99 bf a3 5a 5b bf 8d 47 0c 3c
       -1.9403774 -1.2022611 -0.85685176 0.008561981
0002b0 2a 75 b0 bd ba 32 bf 3e 17 b0 a3 3d bd b2 22 3f
       -0.08616097 0.3734339 0.07992571 0.6355398
0002c0 63 b9 22 38 be 70 45 3f 3b 1c 15 bd 63 3d 2c be
       3.8796465e-05 0.77125156 -0.036403876 -0.16820292
0002d0 de 64 73 be 4e 81 2d be 3b f2 a3 be 9c c5 75 be
       -0.23768947 -0.16943857 -0.32020745 -0.24001163
0002e0 b9 87 4e 3f 8f 6f 2a bf 61 63 8b be 5e 63 8a be
       0.80675846 -0.66576475 -0.27224258 -0.27028936
0002f0 24 5e 0b bf 71 7c 81 bd 95 c9 15 3c df 54 fc bd
       -0.5444052 -0.063225634 0.009142299 -0.123208754
000300 c4 9b db be b2 89 11 3d 3d ba 9c 3c 6a 1b 3b bf
       -0.42892277 0.035531707 0.019131774 -0.73088706
000310 bd 05 00 bf 9a d3 d0 3f 70 ef bf 3f ee 17 b5 3f
       -0.50008756 1.6314576 1.4994946 1.4147928
000320 7c 2e ef 3d ba 8c 96 3d 75 49 e8 3d a3 3c 1d bd
       0.11678788 0.0735106 0.11342136 -0.038387906
000330 65 44 85 be 79 c4 db be 7e ac 8d be a3 81 95 bd
       -0.26028743 -0.42923334 -0.27670664 -0.07300117
000340 94 38 72 be 71 e0 86 bd 33 17 83 3c e8 c8 46 bd
       -0.23654395 -0.065857776 0.016002273 -0.048531443
000350 a5 3c 84 bc ec 19 26 3d 47 2c ea 3c 4a 8d 6a bd
       -0.016142199 0.040552065 0.028585566 -0.05726365
000360 de e6 af bc 7a d0 31 bd ce 8f 52 3d d8 19 a8 bc
       -0.02147239 -0.04341171 0.051406674 -0.020520136
000370 79 e3 53 3c 54 c3 44 bd d2 3e d4 3c cc 14 e9 bc
       0.012932652 -0.048037842 0.025908861 -0.0284523
000380 9a 7e 1c 3c a5 e4 5f bd d0 65 bc bc f3 c3 66 bd
       0.009551669 -0.05466141 -0.022997767 -0.056339215
000390 7d 73 cf 3b 2e c4 76 bd da a3 47 3d 6a e7 ec 3d
       0.006330906 -0.060245685 0.048740245 0.11567576
0003a0 3f b1 b1 bf ff 7e 28 be de 36 2d bf 8d 09 c1 3e
       -1.3882216 -0.16454695 -0.67661846 0.377026
0003b0 b2 05 f1 3e db 92 f6 3e a1 80 71 bd e5 d6 35 be
       0.47074658 0.48158917 -0.05896056 -0.17757757
0003c0 25 21 cf bd ad dc c8 3e db 70 83 be 99 9a f3 3e
       -0.10113744 0.39230862 -0.2567204 0.47578886
0003d0 61 63 a8 be 08 73 8c bf 7e b4 3b be c8 e1 39 bc
       -0.3288832 -1.0972605 -0.18330571 -0.011345334
0003e0 d1 e0 50 bd 78 48 87 3d ae d0 bf be ef 31 55 bf
       -0.05099565 0.06605619 -0.37463897 -0.8327932
0003f0 81 1c 00 bf b5 d5 69 3f e5 31 08 3d 11 a0 b9 bc
       -0.50043494 0.91341716 0.033250708 -0.022659333

fc1.bias f4 [256]
000000 05 19 8d 3d 7d d8 c0 be 70 d8 de 3d 4a e2 bb be
       0.06889538 -0.37665167 0.10881126 -0.36696082
000010 6f bb 4a 3e d7 08 cc bc 7c 5f 26 3e 7a 14 24 3e
       0.19798063 -0.024906559 0.16247362 0.16023436
000020 f8 ec ca be 0b 27 5f be 86 31 f0 3d 50 03 3f 3e
       -0.39633918 -0.21792237 0.11728196 0.18653607
000030 15 59 7d bc c0 1e 97 3d 53 31 a9 3c 3c 3a c9 3d
       -0.015463133 0.07378912 0.020653402 0.098255605
000040 50 6b ce be 0b 03 d1 3e b8 7d 6f be df 0a 1c be
       -0.40316248 0.40822634 -0.23387802 -0.15238522
000050 de c6 a9 3d 6f 24 c1 be 17 f1 0f be 7e 2d 89 be
       0.08289884 -0.3772311 -0.14056812 -0.2679252
000060 86 8f 1f be 0b 7c e9 be 1b ed fc bd db 37 8d be
       -0.15582094 -0.4560245 -0.12349912 -0.27581677
000070 55 fe b6 3d 8f 86 25 be c2 96 7b 3b 6c 83 d3 3d
       0.08935229 -0.16164611 0.003838942 0.10327801
000080 4d 03 ce 3d 81 b8 93 bd 03 3f 5a 3e 5c 67 d0 3c
       0.10059223 -0.07212926 0.213131 0.02543991
000090 56 2d 4d bd 42 3f 3a 3d 60 3a 42 be c6 fb 81 be
       -0.050092064 0.045470484 -0.18967581 -0.253874
0000a0 8f cf c8 bc a6 0a 52 bc fb 81 cf be 55 cd 41 bc
       -0.024513034 -0.012819922 -0.40528855 -0.01182874
0000b0 ef d1 0d 3e 07 85 6a 3e f6 3a a0 3d 65 30 cd bd
       0.13849615 0.22902308 0.07823746 -0.10018996
0000c0 9e 26 5e 3e d2 72 62 3e ad 51 3b 3e c3 79 8b 3e
       0.21694419 0.22114113 0.18292876 0.27241334
0000d0 9c b7 59 be 92 64 2b be 7b 1e 21 be 28 05 f4 3c
       -0.21261448 -0.16737583 -0.15734284 0.029787615
0000e0 25 ec cf 3e a5 8c 02 be aa f5 f6 3c c8 43 52 be
       0.4060985 -0.12748964 0.030146439 -0.20533669
0000f0 64 70 61 be 94 ad 09 be bd 8c 5a be 3a e4 8b 3e
       -0.2201553 -0.13445121 -0.2134275 0.2732256
000100 e5 38 64 3c 42 35 c3 3e 5f 13 1b bd 72 ef d5 bc
       0.01392958 0.3812657 -0.03786027 -0.026115153
000110 1f c0 3b be 8e c6 d1 be 2e ac 46 be 49 49 d2 3c
       -0.18335007 -0.40971798 -0.19401619 0.02566971
000120 9b 16 41 3d ba d7 8c bd d6 0e 86 bd f2 af 33 bc
       0.0471407 -0.06877084 -0.065457985 -0.010967242
000130 01 77 e6 bd 9f 20 a6 be 1f d9 fb 3c f3 cc 77 bb
       -0.11253167 -0.32446763 0.03074318 -0.0037811368
000140 79 d7 36 be 66 fc c9 bb 34 68 96 be b0 50 4c bd
       -0.17855634 -0.0061641214 -0.29376376 -0.049881637
000150 26 8b 85 3e 25 bb 10 bf 95 75 b3 bc a9 f5 32 bd
       0.26082724 -0.5653556 -0.021906653 -0.04369131
000160 6e 08 ca be 4b 41 ee 3d 8d 15 7d 3b ef 5c d2 be
       -0.39459556 0.116335474 0.0038617582 -0.41086528
000170 03 f7 19 be 83 d6 1b 3e b6 af 21 be 1e e2 57 be
       -0.15035634 0.15218548 -0.15789685 -0.2108235
000180 ad c8 e1 3d 93 37 64 3e fa 85 3c bc 3f 16 3c be
       0.11024604 0.22286825 -0.011506552 -0.18367861
000190 f5 26 49 bd 95 8f 5a 3f d9 68 f4 be ca 27 1e be
       -0.049109418 0.8537534 -0.47736242 -0.15444866
0001a0 2c fd 35 3e a9 1b 19 3d 1b 6d 17 be 20 df bc 3e
       0.17772359 0.037379894 -0.14787714 0.3688898
0001b0 fe 41 6b be 7a 9c c3 3e ee f3 35 3e 97 1e d0 be
       -0.22974393 0.3820532 0.17768833 -0.40648338
0001c0 64 0b de be bd 23 86 3c ea cb 75 3d 47 ab 5b 3e
       -0.43368065 0.016374463 0.06000892 0.21452056
0001d0 03 da c0 be a1 3d 9e be a0 5e 8e 3e 22 43 4d be
       -0.3766633 -0.30906394 0.27806568 -0.2004514
0001e0 e7 aa 3c 3c f6 45 83 be d0 e5 10 3e d7 4c c4 3d
       0.011515356 -0.25639313 0.14150167 0.095849685
0001f0 97 36 80 be 40 c7 85 be f3 e1 23 be e3 c9 d6 3e
       -0.2504165 -0.26128578 -0.16004162 0.41950902
000200 c7 3f 00 be 1b 7c 9c be d7 00 0c be 73 f0 83 be
       -0.12524329 -0.30563435 -0.13672195 -0.25769386
000210 a8 4d 66 bd e7 24 59 be 7d f7 99 bc d2 3f 1a bc
       -0.056226403 -0.21205483 -0.01879477 -0.00941463
000220 94 24 d6 bd bd 9b e0 be e7 3b 0f be a9 ab de 3e
       -0.104561955 -0.4386882 -0.13987695 0.4349034
000230 8d 9d fb 3c 51 ba 80 be 43 27 87 be ae 0f 8a be
       0.030714775 -0.25142148 -0.26397142 -0.26965088
000240 e1 9d b6 3d 5e ea e4 bd 64 39 10 be 54 7c 4e be
       0.08916832 -0.111775145 -0.14084393 -0.20164615
000250 f2 76 85 be d1 02 bc bd b0 6b c7 bb 06 e6 c3 3d
       -0.2606731 -0.09180225 -0.0060858354 0.09565358
000260 c4 01 45 be fb 20 fd 3d 33 a9 22 be 84 6c 43 bf
       -0.19238955 0.12359806 -0.15884857 -0.76337457
000270 62 54 32 3e b6 78 2f 3d 04 af 86 be e4 0d a3 bd
       0.17415002 0.04283973 -0.263054 -0.07961634
000280 93 03 7e be 43 5a f9 bd 31 db f4 ba db 86 b2 3e
       -0.24806051 -0.12175419 -0.0018681047 0.34868512
000290 80 64 91 be 62 f5 1b bf df 1b 60 3e 4e ca d8 3c
       -0.28396988 -0.609213 0.21885632 0.026463654
0002a0 9a ae ce bd 22 37 13 be 03 99 41 bf 4e 35 e6 be
       -0.10091896 -0.143765 -0.756241 -0.44962543
0002b0 b1 3c 44 3e 41 00 27 3e 64 7e fe bd 79 09 ac be
       0.19163777 0.1630869 -0.12426451 -0.33600977
0002c0 6c be d6 3d 14 3e 21 3e 83 2e 66 bd 24 6b 8f 3b
       0.10485539 0.15746337 -0.0561967 0.004376786
0002d0 82 13 db be 12 f0 6f bd 40 16 73 3e 05 7b be bd
       -0.4278832 -0.05857856 0.23738956 -0.09300808
0002e0 12 86 cf bc f3 bf f5 be 78 28 1c be ba dd e2 bc
       -0.025332484 -0.47998008 -0.15249813 -0.027693618
0002f0 e9 73 1b be ef 26 ad be a8 39 17 be 2f 03 47 bd
       -0.15180935 -0.33818766 -0.14768088 -0.04858702
000300 5a 9a fc be 41 95 fb 3d 9e cf 8f be 04 e5 8f be
       -0.4933651 0.12284327 -0.28088087 -0.28104413
000310 e3 ac a6 3b 28 40 76 be 3a 7d ae be e3 46 fe be
       0.0050865277 -0.24047911 -0.34079915 -0.49663457
000320 9b 04 3a bd 4d c6 4e be 8b a2 1d 3e 8f 05 6d 3d
       -0.04541455 -0.20192833 0.15394036 0.05786663
000330 12 b6 cb bc a9 cb 17 3e b7 7f b4 3d 91 2d 8e bd
       -0.024867091 0.14823784 0.08813422 -0.06942285
000340 0e b4 55 be 09 df 7a be cb 1a 12 3e b1 f9 94 be
       -0.20869467 -0.24499144 0.14268033 -0.2909675
000350 81 1c 58 be c7 26 f2 be 3d c5 94 3d c4 62 b0 3d
       -0.21104623 -0.4729521 0.07264183 0.08612588
000360 c5 92 66 3e 7a 7f 81 3e 16 15 f4 bd 1c ad fe be
       0.22516926 0.2529257 -0.11918084 -0.49741447
000370 0f d4 19 be a6 bb f6 3d 71 82 5b be 9f f4 d5 be
       -0.150223 0.1204751 -0.21436478 -0.41788194
000380 04 eb bc bc 60 23 42 bd 0c 1d 9f bc 58 5a e6 3e
       -0.023061283 -0.047397017 -0.01942303 0.44990802
000390 1e 42 ab bd 38 d6 74 be 5c a2 f6 bc 8f 31 0c bd
       -0.0836222 -0.23909843 -0.030106716 -0.03422695
0003a0 bd ca 64 be d9 58 2d be 0a 71 6d be 03 25 96 be
       -0.22342964 -0.16928424 -0.23187652 -0.29325113
0003b0 ce 2c 85 be a6 ef 31 3e 14 fa 39 3d 68 9a 12 3c
       -0.26010746 0.17376575 0.04540451 0.008947946
0003c0 14 07 9f bb 4d 04 54 3e 6d aa 4a be 9c 05 68 3d
       -0.0048531387 0.20704766 -0.19791575 0.056645975
0003d0 b9 23 86 3e 54 4f 12 b9 e5 13 e5 3e 65 95 d8 be
       0.2619913 -0.00013953197 0.4474174 -0.4230148
0003e0 ff 15 a4 3e eb 20 30 3e 3b 61 5c be 90 21 41 be
       0.32048032 0.17200057 -0.21521465 -0.1886046
0003f0 6d 1e 82 3d 01 80 0a be c1 cf 84 be 17 49 66 be
       0.063534595 -0.13525392 -0.25939754 -0.22488819

fc2.weight f4 [256, 256]
000000 f4 05 58 3d 7e 18 97 3e d8 95 53 3e 57 7a 26 be
       0.052740052 0.29510874 0.2066263 -0.16257606
000010 a3 b6 6f 3e 16 59 01 3e 1b c6 43 bd 40 81 93 3d
       0.23409514 0.1263164 -0.04779635 0.07202387
000020 15 b6 1c bf 0b 9a 11 bf 2f 01 cd be f8 9d b6 bc
       -0.61215335 -0.56875676 -0.40039966 -0.022292122
000030 82 94 2e 3c ab b9 53 bf d4 97 90 3d 6a 3f a8 be
       0.010655524 -0.8270518 0.07060209 -0.3286088
000040 a0 1e a1 bd 48 05 5a bf e2 7f 0d bd bc 6f 8a 3c
       -0.078671694 -0.8516431 -0.034545787 0.016898982
000050 55 a1 25 bd 99 56 92 3e 54 a9 e5 3c d8 ce 01 3e
       -0.04043706 0.28581694 0.028034844 0.12676561
000060 e9 0e 7f bb fa 90 0e 3e 98 48 73 3d 71 d9 a7 be
       -0.00389188 0.13922492 0.059395403 -0.32783082
000070 48 c2 aa 3c 79 af a6 3d 91 b2 29 3d 9f ea 11 be
       0.020844594 0.081389375 0.04143006 -0.14249657
000080 2e 9b 06 3d 65 1a 97 3c 08 9a 79 3d b7 39 5b be
       0.032862835 0.018445203 0.06093791 -0.21408735
000090 42 56 c7 bc b8 a7 8f 3c b7 5c 57 bd dc 21 98 bc
       -0.024333123 0.01753603 -0.052578654 -0.018570833
0000a0 1b 11 ab bc 47 cf 15 be 60 e5 e1 be a0 5e 3d 3b
       -0.02088218 -0.14629851 -0.44120312 0.0028895512
0000b0 7e 9d 9f bd b5 6e 50 3e b7 6b 0c be e2 24 01 3e
       -0.07793711 0.20354731 -0.13712965 0.12611726
0000c0 7f 98 46 bd 11 28 2c 3d 18 d2 31 bd 2e 9d 01 bf
       -0.048485275 0.042030398 -0.04341325 -0.5063046
0000d0 6e 6d 9e 3d c6 d7 2e bd 19 8b 39 3d ed de 35 3d
       0.07735716 -0.042686246 0.04529867 0.04440205
0000e0 b0 c7 73 bd c0 5f 06 3c 00 f9 22 bb 36 1e 25 3f
       -0.05951661 0.0082015395 -0.0024867654 0.64499223
0000f0 35 c5 3a 3d 2f 67 33 3d 40 16 7c 3c 44 72 00 bf
       0.045598228 0.043799575 0.015386164 -0.50174356
000100 69 42 b8 3e d0 d8 57 bf 87 c5 cc 3e 3f 7f a5 bc
       0.35988167 -0.84315205 0.3999445 -0.020202277
000110 81 17 c6 3c 96 8d ed 3d 94 10 51 3e db 8a 45 3d
       0.02418113 0.11599271 0.2041648 0.048228126
000120 e3 c8 7f be c0 1e 9a 3c 2e 5a 99 be 5a 95 80 bd
       -0.24978976 0.01881349 -0.29951614 -0.062784865
000130 ac 67 46 bf b1 dc 9f 3e 1f db b3 be 51 9a 8f 3d
       -0.7750194 0.31223062 -0.35128114 0.070118554
000140 cd 25 eb 3e e6 ad 30 be 12 c1 61 3f 33 04 9c bd
       0.45927277 -0.17253837 0.88185227 -0.076179884
000150 3b e7 98 bf e6 4a 90 be 52 ca 09 3d 21 2b 13 3e
       -1.1945566 -0.28182143 0.033640213 0.14371921
000160 e2 3e dc be a9 8f 04 3d 8e 96 43 3d de 05 ed 3d
       -0.43016726 0.032363568 0.047751002 0.11573385
000170 74 6a 5d bd 85 ee 59 bd 6e 86 83 3e e7 89 28 3c
       -0.0540566 -0.053205986 0.256885 0.010286785
000180 a2 d9 5e bd f5 7a 99 bd 5e 0d b1 3c 2a 0c a4 bc
       -0.05440677 -0.07494155 0.02161282 -0.020025332
000190 bc 70 a3 3c 6b b2 7a 3d d1 3d 0d 3e b4 f4 06 bd
       0.019951217 0.06120531 0.13793112 -0.03294821
0001a0 28 af 96 bc 18 6a 80 3e 74 b7 86 be 98 d1 8f be
       -0.018394068 0.25080943 -0.2631184 -0.28089595
0001b0 98 0b 90 be b7 35 05 bf 16 a7 59 bd 56 89 8e be
       -0.28133845 -0.5203509 -0.05313786 -0.27839154
0001c0 77 72 b6 be 5a 5a b5 be 0e 65 0d 3b 53 13 28 3d
       -0.35634205 -0.35420495 0.0021575126 0.041034054
0001d0 c2 52 2b be f6 7c 62 be fd d0 fd be a0 6b 34 3e
       -0.16730788 -0.22117981 -0.49573508 0.1761918
0001e0 7a 22 20 bf 7b 2c 5c bd 48 d8 55 3c 3b 38 a9 3e
       -0.6255261 -0.053753357 0.013052054 0.33050713
0001f0 d8 c8 ff be 2c ec 77 bc dd a1 09 be d3 6a 3b 3e
       -0.4995792 -0.015131991 -0.13440652 0.18302469
000200 0d 42 4d be 18 f3 bb bc c1 21 27 be 58 92 a7 3e
       -0.20044728 -0.022943065 -0.1632147 0.3272884
000210 d0 69 1d 3c aa b6 e4 be 28 f4 44 3d 05 9a c7 be
       0.009607747 -0.44670612 0.048084408 -0.38984695
000220 c9 81 24 3d 8d d2 98 3d 3a ea 8e bc f0 8c b7 3d
       0.040162835 0.074620344 -0.017445672 0.089624286
000230 63 f6 e8 bd 50 25 31 be 38 7c 97 3c 33 5d 7f 3e
       -0.113751195 -0.1729939 0.01849185 0.24937896
000240 82 8c 40 3d b1 5d e5 bd bc d1 8d 3d 23 c5 0e be
       0.047009 -0.11199511 0.06924769 -0.13942389
000250 82 34 63 3e c2 7a 19 bd cc 3c 91 3d 9d e4 90 bd
       0.22187999 -0.037470587 0.07091674 -0.070748545
000260 b7 c6 a3 3c 91 5a 1c bf 9c 94 aa bd 64 da b1 3d
       0.019992216 -0.61075693 -0.08329126 0.08684233
000270 74 71 be 3c 9d 98 1f bd 47 1d eb be 2f 67 5e bc
       0.023247458 -0.038963903 -0.45920774 -0.013574406
000280 36 65 3f bd 15 90 74 bd 76 14 e9 be 1e ed a9 3e
       -0.04672738 -0.05970772 -0.45523423 0.3318872
000290 17 78 f6 bc 71 7b 23 3d 58 67 bd bd 20 e3 fc bb
       -0.03008656 0.039912645 -0.09248227 -0.007717505
0002a0 0c 70 c1 bd 5f a3 6a 3d b6 ac 3e 3e a2 67 04 3e
       -0.09445199 0.05728471 0.18620571 0.12930158
0002b0 6e d5 34 3f 7c 0f 88 bc 05 2f 35 3d bc 2b 8a be
       0.7063817 -0.016608946 0.044234294 -0.26986492
0002c0 b1 68 e7 bc a6 92 7b 3e 34 89 87 bd fb c4 03 3e
       -0.028248163 0.2456766 -0.06617966 0.12868111
0002d0 aa 4b fd bd e0 09 ed 3e c4 99 8f 3d e1 8d 15 3d
       -0.123679474 0.46296597 0.0701175 0.03651226
0002e0 d0 e2 c4 3d ef 51 3e be f2 9d 84 be 68 63 0a 3f
       0.096135736 -0.18585943 -0.25901753 0.5405793
0002f0 2f ec 73 be 38 94 dc 3d 11 d3 2a 3e f2 dc c4 bc
       -0.23820566 0.10770458 0.16682078 -0.024031136
000300 39 31 23 3e 23 72 15 3d 85 84 f8 3d 88 32 b2 3d
       0.15936746 0.036485802 0.12134651 0.08701044
000310 c2 49 8e 3e 53 bc b4 be 34 6a 5b 3e 6c 7f 18 3e
       0.27790648 -0.3529993 0.21427232 0.14892358
000320 f7 5d 51 be 2a 5b 7c 3d d0 b1 7f bd 6a 61 b6 3c
       -0.20446001 0.06161038 -0.062425435 0.022263248
000330 53 d5 b9 bd 92 b7 07 3f 8e d8 6c 3d 08 15 50 3d
       -0.090738915 0.5301448 0.05782371 0.050801307
000340 06 01 58 3e 37 1a 8f bc d4 59 2c 3e 52 ae c7 be
       0.2109414 -0.017468555 0.16831142 -0.39000183
000350 f4 87 36 3e b2 80 3f be ef a7 69 be 5c d7 50 bd
       0.178253 -0.18701437 -0.22817968 -0.050986633
000360 0c 03 a7 3d 12 15 05 3e f5 dd a5 be dc b1 88 be
       0.08154878 0.12996319 -0.32395902 -0.26698196
000370 36 78 be 3d 9e 55 93 bc 9c 37 f4 3d c0 66 7c 3e
       0.09300272 -0.017985161 0.11924669 0.24648571
000380 6b d6 bd 3e 35 54 d4 bd a4 12 23 bd 98 83 2f bd
       0.3707765 -0.10367624 -0.0398127 -0.042850107
000390 0c cb 8a 3d a7 82 2c 3d 44 37 cc ba 97 c3 23 3c
       0.06777009 0.042116787 -0.0015580435 0.009995363
0003a0 1a 99 14 be 97 80 03 bc de 43 95 be 5e 1e 88 bd
       -0.14511529 -0.008026264 -0.2915334 -0.06646417
0003b0 11 41 78 be 29 c2 39 bd 89 75 3c 3d 80 4c 71 bc
       -0.24243571 -0.04535118 0.046010528 -0.014727712
0003c0 57 c0 33 3d b3 af 7e 3d 5b 9c f1 b9 bf ff 0d 3d
       0.0438846 0.06217928 -0.00046083596 0.034667727
0003d0 bc 04 db 3e 60 6d 5f bb 6a 07 a4 3d 7d a2 40 be
       0.4277705 -0.0034092292 0.080092266 -0.18811984
0003e0 90 31 1b 3d cf 58 ff bb ff 98 8e 3e f2 6c 0f be
       0.037889063 -0.007792569 0.27851102 -0.14006403
0003f0 77 d6 7a 3e a2 21 58 3c 76 52 58 bd 40 b7 cd bb
       0.24495874 0.013191612 -0.052813016 -0.0062779486

fc2.bias f4 [256]
000000 82 6a 6d 3d 37 7d f2 3d f9 43 bf 3c b6 ba c8 bd
       0.057962902 0.11840289 0.023347842 -0.09801237
000010 ce fb 0e 3f 6a 65 6c be c2 fa 4b 3e b8 e6 27 3e
       0.55852973 -0.23085561 0.19919875 0.16396606
000020 b8 b0 00 bd 84 1c e5 3c a9 47 09 be 14 68 55 be
       -0.031418532 0.027967699 -0.13406242 -0.20840484
000030 7c ee ff be 47 2f e3 be c7 da b9 bd ca 53 14 be
       -0.49986637 -0.44372007 -0.090749316 -0.14485088
000040 55 fa 8e be eb 7a 05 bd b5 e4 ba 3e 79 47 13 3e
       -0.27925363 -0.032587927 0.36502615 0.14382733
000050 52 7a 6d bd 1e dd be bb 20 45 88 3a 3b bd b1 bd
       -0.057977982 -0.005824699 0.0010396577 -0.08678671
000060 aa 1f f1 bb 6b fe 23 be 90 79 44 be 76 01 4e be
       -0.007358511 -0.16015022 -0.19186997 -0.20117745
000070 ef 26 ef 3d fb 9f e1 bd 67 64 a3 bd a1 5b b4 bd
       0.11677348 -0.11016842 -0.079781346 -0.08806539
000080 59 17 ee be 4c b5 60 bb 50 38 23 bd fd 87 d8 be
       -0.46502188 -0.003428775 -0.039848626 -0.4229125
000090 76 1b cf bc ad 2d 02 ba 66 7a 97 be 47 c6 e5 be
       -0.02528165 -0.00049659127 -0.2958557 -0.44877836
0000a0 f4 b0 b6 bc 95 42 89 3e ba 4a c4 3d 7d 4e d8 bd
       -0.022301175 0.2680861 0.095845655 -0.105618455
0000b0 1b 74 d2 bd 23 5d 13 be a8 89 28 bc fb 82 03 be
       -0.102760516 -0.14390998 -0.010286726 -0.12842934
0000c0 fb 21 40 3c 26 45 f0 bc c5 17 30 3e 1d 4e 6c be
       0.011726852 -0.029329848 0.17196567 -0.23076673
0000d0 9c 0d 48 bd 4d 97 b5 bc 73 0d e2 3b 99 72 92 bd
       -0.048841104 -0.022166872 0.006898576 -0.07150764
0000e0 cf 95 38 be 62 1b 18 bf 4d 4b e4 bd b9 36 18 3c
       -0.18025897 -0.5941678 -0.11147175 0.009290391
0000f0 f8 cc 88 3b 93 7c a4 3e ba 8d 8b 3d 28 e7 49 3b
       0.004174825 0.32126293 0.068141416 0.0030807946
000100 64 93 82 3c 77 29 6c bc 4d 08 34 bd a2 13 15 3e
       0.015939422 -0.014414183 -0.04395323 0.1455827
000110 c2 24 9a be 43 b7 fb bd 36 88 f1 bd d9 0d 61 be
       -0.3010617 -0.12290814 -0.11793558 -0.21977939
000120 2c e4 a1 be b2 34 e4 bd bd 16 c7 be 97 0e 1b bd
       -0.31619394 -0.11142863 -0.38884535 -0.03785571
000130 1e 4d 89 3d ff e9 8a 3c b3 47 1e bc 13 68 d5 bc
       0.06704162 0.016957281 -0.009660649 -0.026050603
000140 b4 6c a2 bd b4 a1 89 be 5b b9 d9 be 1c 9e 05 bd
       -0.0793089 -0.26881182 -0.42524227 -0.032621488
000150 d0 ea de 3d b9 d8 8c be 30 12 64 bc 58 17 eb 3d
       0.10884631 -0.27509096 -0.013920352 0.11479062
000160 99 94 08 bf c0 64 f0 bd 2e bd 72 bd 24 fa 69 bd
       -0.5335174 -0.117379665 -0.059262447 -0.05712332
000170 84 84 08 bb 6e e2 0a bf 3e 68 17 bd 78 e8 5c b8
       -0.0020830939 -0.54251754 -0.036964647 -5.266859e-05
000180 c5 e3 17 be 92 49 a2 be f4 f5 c4 bc a1 73 8c bc
       -0.14832981 -0.31696755 -0.02404306 -0.01714498
000190 5b b1 43 bc 5d f8 5e bd 69 87 d9 bd 30 53 35 3e
       -0.01194414 -0.054436076 -0.106215306 0.17707515
0001a0 d2 61 c2 bd 03 1f 1b be 38 f4 60 3d 38 4e 9f bd
       -0.09491314 -0.15148549 0.054920405 -0.07778591
0001b0 96 4a 20 bf 6a 54 51 bd d6 2c 53 bd b8 e3 9f bc
       -0.6261381 -0.051105894 -0.05155643 -0.019517764
0001c0 15 a5 c6 bd 1c 69 68 be 80 b6 bc bd bc 53 bf bb
       -0.09699456 -0.22696346 -0.092144966 -0.0058388393
0001d0 3e 2f 73 bd bf 6c a5 bd e0 f7 36 3b e5 cd 25 bb
       -0.059371226 -0.08077382 0.002791874 -0.0025299725
0001e0 35 e0 8c bd 9e 1a dd 3d bf 99 71 bb c6 1a fd bd
       -0.068787016 0.107960925 -0.0036865321 -0.12358622
0001f0 16 7e 47 bd 1e a9 01 be a5 5e 5a bd ca 2a bb 3d
       -0.04870423 -0.1266217 -0.053312916 0.09139021
000200 f1 25 5f be ba 82 ab bd 0d 41 99 be a9 4f e2 bd
       -0.21791817 -0.083745435 -0.29932442 -0.1105035
000210 c1 d5 93 bd 16 a6 52 bd e4 c4 b0 3e 3f ec 47 3e
       -0.07218505 -0.051427923 0.34525216 0.19523714
000220 2d d3 88 be 77 07 46 3c 2a cb af bd 5f a0 51 3b
       -0.26723614 0.012086741 -0.08583672 0.0031986458
000230 2b 81 3e bd 24 e4 75 3c d8 7d 40 bd d7 73 e2 bc
       -0.046509903 0.015008006 -0.046995014 -0.027643127
000240 73 92 c2 bc f0 69 23 3d 9f 28 55 bd 46 f1 b9 3d
       -0.023751473 0.03989595 -0.052040692 0.090792224
000250 66 16 02 be 13 72 b0 be b0 4c cc 3e 9c 26 a1 be
       -0.12703857 -0.34462032 0.39902258 -0.3147477
000260 9a df 98 bd 9b db 26 bd a7 2a e2 bd 14 78 a6 3b
       -0.074645236 -0.040736776 -0.110432915 0.0050802324
000270 a8 d5 c2 bd a2 3b cc 3b c7 9d 78 be a3 a0 d2 bd
       -0.09513408 0.0062326947 -0.24278937 -0.10284545
000280 a2 12 b8 be 3c 1b 26 bf 7f b8 91 39 48 83 6e bd
       -0.35951716 -0.64885306 0.00027794015 -0.05823067
000290 10 84 15 bc ae 5f 88 bd 81 84 50 be 21 7a f9 bc
       -0.009125724 -0.066588745 -0.20363046 -0.030453743
0002a0 99 cd dc bb 81 21 47 3e 90 92 b2 bd 7c 88 7e bd
       -0.0067383763 0.19446374 -0.08719361 -0.06214188
0002b0 bb 04 51 bd 72 c8 b0 be 65 31 a2 bd 39 e5 af be
       -0.051029902 -0.34527928 -0.079195775 -0.3435457
0002c0 cd e5 0a 3c 27 db a3 bc 38 40 e3 bc 8c 8d 4e 3d
       0.00847764 -0.02000196 -0.027740583 0.05042796
0002d0 d5 81 e4 bd 22 69 92 be d2 a8 4e be f5 19 b0 bd
       -0.11157576 -0.28595835 -0.20181587 -0.08598701
0002e0 ec 9d 91 bc bc 24 3b bc be 3e 01 3c 51 39 dc 3a
       -0.017775498 -0.011422332 0.007888494 0.001680175
0002f0 27 59 24 3e 4d f1 28 be 93 c9 88 bd 61 ce 55 bc
       0.16049634 -0.16498299 -0.06679072 -0.013049693
000300 4c e3 db 3c 83 e1 56 bd 96 7c 1e 3e 68 d1 aa bd
       0.026841782 -0.05246116 0.15477213 -0.08340722
000310 77 b1 88 3d 25 03 d4 be 34 4d 93 bb a4 96 99 bd
       0.06674474 -0.4140865 -0.0044952873 -0.074994355
000320 b2 7f 5d 3c fa 30 09 bf 73 56 8f bd 94 8d 69 3c
       0.0135192145 -0.5359036 -0.06998911 0.014254946
000330 5b 0f 06 3d 26 a6 5a 3d bd 78 0e be 94 67 7d 3d
       0.032729488 0.053381108 -0.13913245 0.061866358
000340 87 ca d7 bc e4 d9 f2 3c f1 3b 25 bf 4e 77 f9 bc
       -0.02634169 0.029644914 -0.6454459 -0.030452397
000350 82 57 34 3e c3 11 6b bd ad ea be 3c e9 a6 b9 be
       0.17611507 -0.057389986 0.023305262 -0.36260155
000360 23 08 06 3e e0 69 03 bc a4 28 8a bd c4 73 cb bb
       0.13089041 -0.008020848 -0.06746033 -0.0062088687
000370 7c 65 27 bf 05 53 99 bd f4 7a 02 3e a9 b8 24 be
       -0.6538923 -0.07486538 0.12742215 -0.16086067
000380 ae 28 45 be bf df 03 be 77 3b 09 3c ef 2d 3a be
       -0.192538 -0.12878321 0.008375994 -0.18181585
000390 a9 52 86 3d 41 8e 9e bd 06 02 38 bd 51 4a e2 3d
       0.06558735 -0.077419765 -0.044923805 0.11049331
0003a0 b0 06 4e 3e e0 8c 01 3e 18 1a c1 bd c1 e5 db bd
       0.20119739 0.12651396 -0.09428805 -0.107371815
0003b0 fe ba 10 3d 5b b9 b1 3d 09 9f d7 be 5c 48 7a bd
       0.03533458 0.08677932 -0.42113522 -0.061104164
0003c0 99 66 6a be 4d 37 4e bc b8 51 52 3d e1 40 85 be
       -0.228907 -0.012586427 0.051347464 -0.2602606
0003d0 ce 8c 2d be da ca ac bd e1 0b b4 3c c4 2f 22 be
       -0.16948244 -0.08437128 0.02197832 -0.15838534
0003e0 ba 7e f4 3a 99 2c 26 be 4d 84 c6 bd 56 0c 67 3d
       0.001865349 -0.1622795 -0.09693203 0.05640825
0003f0 c8 6a b9 3d 07 24 aa bd a6 ff d3 be a1 e9 99 be
       0.0905357 -0.08307653 -0.41405982 -0.30061057

fc3.weight f4 [3, 256]
000000 c9 47 8a be 42 8d 28 be 9c 60 65 3b ab 85 85 be
       -0.27007893 -0.16460136 0.003500021 -0.26078543
000010 9a 3c b3 bd 77 ed ba be 83 c2 3b bf 06 7f a2 3d
       -0.08751793 -0.36509296 -0.73343676 0.07934384
000020 3e 0d 25 3c 0e d4 32 3c f8 a7 3f 3e cc f4 11 bf
       0.010073958 0.010914816 0.18716419 -0.57014155
000030 06 5e a1 3d 31 40 95 be 03 e4 b1 bb 9b 43 06 be
       0.07879262 -0.29150537 -0.0054287924 -0.13111727
000040 66 de 09 bf 7c 49 68 bc 50 4f da bd fe 33 44 bf
       -0.5385498 -0.014177676 -0.10659659 -0.76641834
000050 9d 46 1f bf 0f a3 5e 3b a5 a1 6d bf 50 f3 22 bc
       -0.6221712 0.0033971702 -0.92824775 -0.0099457055
000060 52 59 08 bc a1 03 b4 3f 90 9e cf 3e cf 9c 06 bf
       -0.008322077 1.4063607 0.4055066 -0.5258302
000070 8d dd fa bc 1a fe 49 3e df 6a 0a 3c 08 cf 5c 3b
       -0.030623222 0.19725838 0.008448332 0.0033692736
000080 a7 a7 6f 3e e0 e6 00 be d5 52 dc 39 87 f7 8e be
       0.23403798 -0.12588072 0.00042023385 -0.27923223
000090 c5 2a bf bb b3 0f 7e 3a e8 38 fb be 8a c2 0b bf
       -0.005833956 0.00096916704 -0.49066854 -0.5459372
0000a0 95 30 2a 3c ce fa a0 3d cd b7 08 3e 62 71 cd 3e
       0.010387559 0.07860337 0.13351364 0.40125567
0000b0 45 d4 01 bf 96 7a 20 bf 7f af e1 bb 73 08 06 3c
       -0.5071452 -0.6268705 -0.006887376 0.008180725
0000c0 8f b1 36 bc 99 df 0f bc 60 bb 12 bf 5e 2f b5 be
       -0.011150732 -0.008781337 -0.5731716 -0.353877
0000d0 e2 0a e3 be 54 32 0a 3c 40 22 8a bc 8a 41 b7 3b
       -0.4434424 0.008434851 -0.016862035 0.0055925297
0000e0 9d e6 cd 3e c6 49 b3 3e 02 3c ce 3b 78 7f c0 bb
       0.40215006 0.35017222 0.0062937746 -0.0058745705
0000f0 b9 99 8b 3b c2 bf 30 be cd 43 ef be 06 c5 22 bb
       0.0042602685 -0.1726065 -0.46731415 -0.0024836673
000100 e0 3c 92 bf 96 49 02 bc a8 d8 33 3e b5 4a f4 3d
       -1.1424828 -0.007952115 0.17563117 0.11928312
000110 51 96 6f be 6f 4b cd 3e 47 bd a8 3e a6 2b 1c 3f
       -0.23397185 0.40096614 0.32956907 0.610041
000120 c1 fe 03 3e 35 6e 54 bf df 7d 39 be de 18 2f bd
       0.1289015 -0.8298066 -0.18114422 -0.042748325
000130 ff d6 85 3e b4 d5 9c be 88 aa 43 b9 9a 49 73 ba
       0.26140592 -0.30631793 -0.00018660177 -0.0009280682
000140 5d 6b 5c 3b fb 4d ee 3e b6 a6 2d 3e 7b a2 3e 3a
       0.003363333 0.4654387 0.16958126 0.0007272136
000150 9e a9 43 3f 44 35 d8 3e 01 56 1c 3f 3a bb 5a be
       0.7643069 0.42228138 0.6106873 -0.21360484
000160 44 c6 0b be 6d 49 d0 bc 77 4a 15 bb cc 34 7c be
       -0.13649851 -0.025425637 -0.002277998 -0.24629515
000170 50 b7 8a bd 9b e7 22 3f 0f c2 c6 3b 9c aa d8 3e
       -0.06773245 0.6363465 0.006065614 0.42317665
000180 97 cf b8 be a2 30 e0 3e 14 1b f8 3c be 13 08 bf
       -0.36095878 0.43787104 0.03028635 -0.53155124
000190 d9 e0 60 3b b7 f0 51 3e 0e a4 93 3e 3d 5a ba be
       0.0034313707 0.20501982 0.288361 -0.3639697
0001a0 34 25 9a bb ff 30 be be 6e 53 f0 be c9 cc 64 bc
       -0.004704142 -0.37146756 -0.46938652 -0.01396484
0001b0 ea df b0 bc 3a 23 77 3a 3e 01 3c 3a 40 f3 f4 be
       -0.021591146 0.00094275514 0.0007171816 -0.47841835
0001c0 cd fb 15 3f 1c 56 0c 3f c8 2b dc 3a f3 4d 0b 3b
       0.5858734 0.5481889 0.0016797716 0.0021256178
0001d0 82 57 4d bc b1 b5 3a 3b ac 9e c6 bb 99 f2 64 bc
       -0.0125330705 0.0028489644 -0.0060613956 -0.013973855
0001e0 51 a6 bb 3b d8 30 b6 be 7e ba 81 3d be d8 09 bf
       0.0057266136 -0.3558414 0.06334399 -0.5384635
0001f0 44 eb f6 be 0b 04 ef 3e 91 2f c7 bc 0f 28 3a bf
       -0.48226368 0.46682772 -0.024314674 -0.72717375
000200 cb 17 08 3f 4f 42 2d 3e 7e 7f 17 3e 2e 4b 10 bc
       0.53161305 0.16919826 0.14794728 -0.008806987
000210 e9 0c f1 b8 96 4a 51 bf 27 f8 85 be 5b 11 a6 3e
       -0.0001149418 -0.81754434 -0.26165888 0.32435116
000220 c7 f5 da bd 22 7f c4 3c 9c 73 b6 bb f1 99 9b be
       -0.106914096 0.023986403 -0.005567981 -0.30390885
000230 2f 58 1d 3c 58 7b 37 3e 9f da e7 be 18 69 08 b9
       0.009603544 0.17918146 -0.45283982 -0.00013009121
000240 17 e3 fe b9 fc 66 bd bc 7f 37 2c 3b 8d 5a 0a be
       -0.0004861585 -0.023120396 0.0026278195 -0.13511105
000250 a3 aa b1 3d 8d 95 c7 be 23 4d c0 3d cb cd 3c bf
       0.086751245 -0.38981286 0.09389713 -0.73751515
000260 98 ec 24 ba 06 a5 d4 be e5 e8 aa 3e ea 3c f6 bb
       -0.0006291359 -0.41532153 0.3338081 -0.0075145857
000270 03 79 97 bb 9e c1 86 bb 5e b1 d5 be 77 dd 9f 3d
       -0.00462258 -0.0041124364 -0.41736883 0.07805913
000280 dd c5 6a bf 4a 15 03 bd 97 7d 07 3e f2 ff d7 bb
       -0.91708165 -0.032002725 0.13231502 -0.0065917904
000290 05 a9 9e 3e fd 37 3d ba 5a d4 51 3e aa 18 19 3e
       0.30988327 -0.0007218121 0.20491162 0.14950815
0002a0 6f 9f 10 bf 2c 7b 95 3d fa de 8b 3e cb fd 96 b9
       -0.56493276 0.07298884 0.27318555 -0.0002879932
0002b0 59 a6 64 bf e2 b4 22 3e 26 fe 89 3e fb 30 60 be
       -0.89316326 0.15889314 0.26951712 -0.21893685
0002c0 f7 84 2e ba bc 25 98 3d 2b 2d ba 3b 4a ab 67 bf
       -0.00066573865 0.07429072 0.005681654 -0.9049574
0002d0 fd ce f6 3e 22 25 90 bf 72 7b 5c be d8 0e 8d bf
       0.48204795 -1.1261332 -0.21531466 -1.1020155
0002e0 55 d7 ad ba 30 5c 11 bc 16 ac cf bb da 43 80 3d
       -0.0013263026 -0.008872077 -0.006337653 0.06262942
0002f0 aa 11 51 3f 65 b4 55 3f 83 da fc be 85 c8 98 bb
       0.8166758 0.83478385 -0.4938546 -0.0046625757
000300 d0 4d 2f 3b ff 84 ff be 45 f5 88 bd 0f a2 38 bc
       0.002674926 -0.49906155 -0.066874065 -0.0112691065
000310 86 55 c2 bd 7d 32 06 3f 1b c1 6d bf 57 d9 79 bd
       -0.094889686 0.5242079 -0.9287278 -0.060998287
000320 0b bc 6c 3b ae 70 6b bf ea ec e4 bc 0e 38 65 ba
       0.0036122825 -0.9196881 -0.027945 -0.00087440095
000330 e7 45 54 bf b6 3f 9e be a3 41 83 bd 84 d4 ee be
       -0.8291916 -0.30907983 -0.064090036 -0.46646512
000340 91 ba 41 3f 92 ed 8d 3c 16 14 13 3f c9 68 99 bc
       0.756753 0.017325196 0.57452524 -0.018726723
000350 50 e5 aa 3e 73 45 a5 bb 49 59 3b bb a9 db ad 3e
       0.33378077 -0.0050436794 -0.0028587154 0.3395665
000360 49 35 1b 3f 29 7c 05 3f be 63 4d bb 74 0c 94 bc
       0.6062818 0.5214258 -0.0031339969 -0.018072344
000370 bc c8 d4 be 08 35 9e bb d6 1d 0c bf 6a ba 90 bd
       -0.41559398 -0.004828099 -0.54733026 -0.07066806
000380 23 86 a8 be a9 e8 c4 3d 59 b1 be bb 90 2e 08 3e
       -0.32914838 0.09614689 -0.0058194813 0.13299012
000390 df d7 ae be 95 07 88 be b7 64 be be 72 a4 cc be
       -0.34149072 -0.26568285 -0.37186214 -0.39969212
0003a0 6b 1e 10 be e9 59 4d 3c f2 f7 28 3f c7 08 58 bc
       -0.14074104 0.012533643 0.66003335 -0.013185686
0003b0 06 57 4d 3c ef 11 a9 bd b7 25 dc 3e a2 f6 12 bd
       0.012532955 -0.08255374 0.42997524 -0.03587974
0003c0 54 48 74 3e 4e ef 52 bc 5a 2b 18 3e 3f 93 f7 3d
       0.23855716 -0.0128744375 0.14860287 0.12088632
0003d0 0c b6 05 bf 0a 7e ee bb f1 33 2e 3c 1f f0 bc be
       -0.52230906 -0.0072782086 0.010632501 -0.36901948
0003e0 e3 f1 6f bc 1d 13 09 bf 74 cd a7 3e 7f 98 22 be
       -0.014645073 -0.5354479 0.32773936 -0.15878485
0003f0 ab 35 22 3e e1 b1 2b 3b 15 fc df 3e 64 49 46 3f
       0.15840785 0.0026198553 0.4374701 0.77455735

fc3.bias f4 [3]
000000 4a 27 c0 be 0f 17 7a 3e a6 fa e0 3d
       -0.37529975 0.24422859 0.109853074
