runs/checkpoint_actor_256_192021_tau1_900.pth (torch, 288535 bytes, 6 tensors)

fc1.weight f4 [256, 19]
0	0xbd49e00a	-0.049285926
1	0x3bf10e60	0.00735645
2	0xbd6bbd5c	-0.057553634
3	0xbd4f330e	-0.0505858
4	0xbcb92430	-0.022600263
5	0xbd613e50	-0.054991066
6	0xbc587f70	-0.013213977
7	0xbc709c78	-0.014685743
8	0xbd541b86	-0.05178406
9	0xbd065068	-0.032791525
10	0x3bbd0170	0.0057679936
11	0x3cbefa98	0.023312852
12	0xbd2b6984	-0.041848674
13	0x3c2f2b28	0.010691442
14	0x3d603200	0.054735184
15	0xbc6ace98	-0.014331482
16	0x3c9b792c	0.018978678
17	0x3c4d41d8	0.012527905
18	0xbb136700	-0.0022491813
19	0x3d16f7b1	0.03685731
20	0xbe245a12	-0.16049984
21	0x3e4960a5	0.19665773
22	0xbe3c9b5e	-0.18418643
23	0xbe9662b7	-0.29372188
24	0x3e29e41d	0.16590925
25	0x3ee25059	0.44201925
26	0xbd1e1f37	-0.038603988
27	0xbe7d6f83	-0.2474957
28	0xbea05dc4	-0.31321537
29	0xbe5a1166	-0.212957
30	0xbe46dab5	-0.19419368
31	0xbe0e98cb	-0.13925473
32	0x3da4e926	0.08052282
33	0x3ded6062	0.11590649
34	0xbeee78b4	-0.46576464
35	0xbe121dde	-0.14269206
36	0xbec336d0	-0.38127756
37	0xbeb835c8	-0.35978532
38	0x3a1cf6a0	0.0005987678
39	0x3e088bef	0.1333463
40	0x3e0aec44	0.1356669
41	0x3db37b65	0.0876377
42	0xbe16b731	-0.1471832
43	0xbe1694aa	-0.14705148
44	0x3f18ee2d	0.5973843
45	0xbf607e0b	-0.87692326
46	0xbf126344	-0.5718272
47	0xbe75a6c9	-0.23989405
48	0xbe1ac1ce	-0.15112993
49	0xbe0d6771	-0.13808991
50	0xbd3ce734	-0.04611893
51	0x3e97a74b	0.29619822
52	0xbe0cb7e7	-0.13742028
53	0x3e9dd6d4	0.30827963
54	0xbf8d20cc	-1.1025634
55	0xbf639a0d	-0.8890694
56	0xbec333e3	-0.38125524
57	0x3cc2353d	0.023707027
58	0xbe335f99	-0.17516936
59	0xbe2825de	-0.16420695
60	0xbe6a0294	-0.22852546
61	0xbf141db2	-0.5785781
62	0x3e9a3c0a	0.3012393
63	0x3ee13b25	0.43990436
64	0xbfb78edc	-1.4340472
65	0xbfc0c4f0	-1.50601
66	0xbfb947e0	-1.447506
67	0xbeb24604	-0.34819043
68	0xbea89aac	-0.32930505
69	0xbea08114	-0.3134848
70	0xbdf6302d	-0.120209076
71	0xbe20fca8	-0.1572138
72	0xbeb3c9e4	-0.35114968
73	0x3e91b6ea	0.28459865
74	0x3e0f1a76	0.13974938
75	0x3eac19aa	0.3361333
76	0xbc8db1da	-0.01729672
77	0x3e8d9fa7	0.27660868
78	0xbcc23acd	-0.023709679
79	0xbdd15e43	-0.10223057
80	0x3e259404	0.16169745
81	0xbf513ae0	-0.8173046
82	0xbdf515a4	-0.11967018
83	0xbdc0f82e	-0.094223365
84	0x3cdb37fc	0.026760094
85	0xbd6cb85f	-0.057793017
86	0x3dc1704e	0.094452485
87	0x3d5dd86f	0.054161485
88	0x3d83f9ea	0.06444152
89	0x3e5b9bc2	0.21446136
90	0x3eb7a50b	0.35868105
91	0xbe27c5a4	-0.16383988
92	0xbecb5bc2	-0.39718443
93	0xbdbdc5f8	-0.09266275
94	0xbe31d83e	-0.17367646
95	0xbc8feabf	-0.01756799
96	0x3d50cbbc	0.050975546
97	0xbe0aca58	-0.1355375
98	0xbdcd7752	-0.10032524
99	0xbdd295a6	-0.102824494
100	0xbf0612f4	-0.5237267
101	0x3fc20388	1.5157328
102	0x3f74ece5	0.9567397
103	0x3f7681fe	0.962921
104	0x3f8a50d9	1.0805923
105	0xbe4691cf	-0.19391559
106	0xbe45490c	-0.19266146
107	0xbe096b18	-0.1341976
108	0x3d6c890b	0.05774788
109	0xbe8b8302	-0.2724839
110	0xbe321f53	-0.17394762
111	0xbed57ef5	-0.41698423
112	0x3b3284fa	0.0027239905
113	0x3d8af032	0.06784095
114	0xbda44bf7	-0.08022302
115	0xbd8f9626	-0.070110604
116	0xbd093f8c	-0.03350787
117	0x3cd03ad7	0.025418682
118	0x3cc8cda5	0.024512121
119	0xbdaa7e11	-0.083248265
120	0x3cbbceaa	0.022925694
121	0xbce5154d	-0.027964259
122	0xbcfe1011	-0.03101352
123	0x3d97d137	0.074129514
124	0xbd2d3ec2	-0.04229618
125	0xbd7128bc	-0.058876738
126	0x3a2dd680	0.0006631389
127	0xbd399a77	-0.045313325
128	0xbcee41ac	-0.02908405
129	0x3d854b45	0.06508497
130	0xbc7c5fa1	-0.015403659
131	0xbd8ae15c	-0.06781265
132	0xbd55328f	-0.05205017
133	0x3cc3cbd5	0.023900906
134	0x3e070fc1	0.13189603
135	0xbd9008e9	-0.070329495
136	0xbe842018	-0.25805736
137	0xbf5569df	-0.8336467
138	0xbd959eb4	-0.07305661
139	0xbf70056e	-0.93758285
140	0xbf1d59b9	-0.6146503
141	0xbf45d4a6	-0.772776
142	0xbf3c0882	-0.7345048
143	0x3d97a0c2	0.07403709
144	0x3d57de92	0.052702494
145	0x3cf70936	0.03015576
146	0x3e174d11	0.14775492
147	0x3da544a6	0.08069734
148	0x3eb72203	0.35768136
149	0xbf343a63	-0.7040159
150	0xbf85f9d6	-1.0466869
151	0xbf04e535	-0.5191224
152	0xb9bbcbf4	-0.00035819376
153	0x3d3f07e4	0.046638384
154	0xbda949fe	-0.08266066
155	0x3e1cf9f1	0.1532972
156	0xbd008ec5	-0.031386156
157	0xbdada039	-0.08477826
158	0xbc58d00b	-0.013233195
159	0x3f644631	0.89169604
160	0x3f77e34f	0.9683122
161	0x3f80be49	1.005807
162	0xbe3efccc	-0.18651122
163	0xbe34b242	-0.17646125
164	0xbe0a0aaa	-0.1348063
165	0xbee027ae	-0.43780273
166	0xbea45897	-0.3209884
167	0x3e34f359	0.17670955
168	0xbfa0739c	-1.2535281
169	0xbf3ddfee	-0.74169815
170	0xbebd3a39	-0.36958483
171	0x3c875424	0.016519614
172	0xbd4f0fb5	-0.05055209
173	0x3e934199	0.28760985
174	0x3cffa331	0.031205745
175	0x3f09c9d5	0.53823596
176	0xbd2b424b	-0.04181127
177	0x3efe86b1	0.49712136
178	0xbdb201bb	-0.08691736
179	0xbdbef037	-0.09323161
180	0xbdd1cbb4	-0.102439314
181	0xbe1398a5	-0.14413698
182	0xbe897268	-0.26845098
183	0xbe586379	-0.21131696
184	0x3f19491b	0.59877175
185	0xbee1de3e	-0.4411487
186	0xbe14169f	-0.14461754
187	0xbe22da5b	-0.15903609
188	0xbeec4904	-0.46149457
189	0xbe2965f6	-0.16542801
190	0x3b653d02	0.003497899
191	0xbdcdf713	-0.10056891
192	0xbeb875fd	-0.36027518
193	0x3d9182f7	0.07105058
194	0x3df63a29	0.12022812
195	0xbf1ec042	-0.6201211
196	0xbea824a5	-0.32840458
197	0x3fb2d0f3	1.3970016
198	0x3fa352af	1.2759608
199	0x3f9a5d4c	1.2059722
200	0x3dcb0645	0.09913305
201	0x3d6e54b3	0.058186244
202	0x3dca12f8	0.09866899
203	0xbd2e6ea0	-0.04258597
204	0xbe7b791d	-0.2455792
205	0xbea97a66	-0.33101195
206	0xbe68237a	-0.22669783
207	0x3c623f65	0.01380906
208	0xbe7e48d1	-0.24832465
209	0xbd86e071	-0.065857776
210	0x3c831733	0.016002273
211	0xbd46c8e8	-0.048531443
212	0xbc843ca5	-0.016142199
213	0x3d2619ec	0.040552065
214	0x3cea2c47	0.028585566
215	0xbd6a8d4a	-0.05726365
216	0xbcafe6de	-0.02147239
217	0xbd31d07a	-0.04341171
218	0x3d528fce	0.051406674
219	0xbca819d8	-0.020520136
220	0x3c53e379	0.012932652
221	0xbd44c354	-0.048037842
222	0x3cd43ed2	0.025908861
223	0xbce914cc	-0.0284523
224	0x3c1c7e9a	0.009551669
225	0xbd5fe4a5	-0.05466141
226	0xbcbc65d0	-0.022997767
227	0xbd66c3f3	-0.056339215
228	0xba08e2d2	-0.0005221787
229	0xbc914bc0	-0.017736316
230	0x3d8fc573	0.07020082
231	0x3dc7239b	0.09723588
232	0xbf4a900c	-0.7912605
233	0xbe1ebb50	-0.15501142
234	0xbf216236	-0.63040483
235	0x3d89f7ce	0.06736718
236	0x3e35d124	0.17755562
237	0x3e2c8315	0.16846879
238	0xbd063271	-0.03276295
239	0xbe0d920a	-0.1382524
240	0xbd97e3bc	-0.07416484
241	0x3e97b44b	0.2962974
242	0xbe53d81a	-0.20687905
243	0x3eb8254a	0.3596595
244	0xbe88064e	-0.2656731
245	0xbf564d64	-0.8371184
246	0xbd9447d8	-0.072402656
247	0xbc4ff21e	-0.012692003
248	0x3db6c8fe	0.08925055
249	0x3e3838da	0.17990437
250	0xbe685985	-0.22690399
251	0xbf54f821	-0.83191115
252	0xbeed083b	-0.46295342
253	0x3f750741	0.95714194
254	0x3c97632e	0.01847991
255	0xbd30033a	-0.042971827

fc1.bias f4 [256]
0	0x3d8d1905	0.06889538
1	0xbea37704	-0.3192674
2	0x3e3914f4	0.18074399
3	0xbe85d0c5	-0.2613584
4	0x3df27eb9	0.11840577
5	0xbceaed04	-0.028677471
6	0x3e29fed6	0.16601118
7	0x3d52f0f5	0.051499326
8	0xbe8e08dc	-0.27741134
9	0xbe563424	-0.20918328
10	0x3dd24d09	0.102685995
11	0x3e3f0350	0.18653607
12	0x3d9b5a9d	0.075856425
13	0x3e6191bd	0.22028251
14	0x3da6b992	0.081408635
15	0x3d51d4b5	0.051228244
16	0xbeb7626f	-0.35817286
17	0x3ea89d13	0.32932338
18	0xbe6f7db8	-0.23387802
19	0xbe04c853	-0.12967043
20	0x3e5a4546	0.21315488
21	0xbe8acd46	-0.27109736
22	0xbe0e6bfe	-0.13908383
23	0xbe7c26ff	-0.24624251
24	0xbe104e64	-0.14092404
25	0xbe94ae58	-0.29039264
26	0xbdfced1b	-0.12349912
27	0xbe4b22e6	-0.19837531
28	0x3db6fe55	0.08935229
29	0xbe25868f	-0.16164611
30	0xbd072f61	-0.03300417
31	0x3e833667	0.25627443
32	0x3dfb90d8	0.12283486
33	0xbd93b881	-0.07212926
34	0x3e5a3f03	0.213131
35	0x3b86b8f7	0.004111405
36	0xbd475ce3	-0.048672568
37	0x3d3a3f42	0.045470484
38	0xbe41e438	-0.18934715
39	0xbe81fbc6	-0.253874
40	0xbcc8cf8f	-0.024513034
41	0xbc0dbb74	-0.008650649
42	0xbebe91e9	-0.37220696
43	0xbc41cd55	-0.01182874
44	0x3d59e733	0.053199004
45	0x3e083123	0.13299994
46	0x3d12d348	0.035846025
47	0xbe2c2bd1	-0.1681359
48	0x3e096ec1	0.13421156
49	0x3e6272d2	0.22114113
50	0x3e3b6283	0.18299298
51	0x3e939575	0.28824964
52	0xbe575df6	-0.21031937
53	0xbe2b6492	-0.16737583
54	0xbe211e7b	-0.15734284
55	0x3dca6b03	0.09883692
56	0x3ed001f4	0.4062649
57	0xbe028ca5	-0.12748964
58	0x3cf6f5aa	0.030146439
59	0xbe478613	-0.19484739
60	0xbe5e8d78	-0.21733654
61	0xbe09ad94	-0.13445121
62	0xbe5a8cbd	-0.2134275
63	0x3e5847a0	0.21121073
64	0x3ddf9f64	0.10919073
65	0x3eb48c1c	0.35263145
66	0xbdf8d041	-0.12149096
67	0xbc8f0744	-0.01745952
68	0xbe3bc01f	-0.18335007
69	0xbeafa6c5	-0.34306923
70	0xbd9b2e50	-0.07577193
71	0x3cd24949	0.02566971
72	0x3df8fe37	0.12157863
73	0xbd8cd7ba	-0.06877084
74	0x3d94b511	0.07261098
75	0xbc33aff2	-0.010967242
76	0xbda6ca51	-0.081440575
77	0xbea3bf30	-0.31981802
78	0x3da8ea26	0.08247785
79	0x3cec2181	0.02882457
80	0x3ce40a68	0.027836993
81	0xbdc7a373	-0.09747972
82	0xbe9ee0b0	-0.31030798
83	0xbd4c50b0	-0.049881637
84	0x3e660f72	0.2246683
85	0xbf021924	-0.5081961
86	0xbcb37595	-0.021906653
87	0x3ca1a928	0.01973398
88	0xbe9ccb06	-0.30623645
89	0x3dee414b	0.116335474
90	0x3b7d158d	0.0038617582
91	0xbe90f6bb	-0.2831324
92	0xbe19f703	-0.15035634
93	0x3e1bd683	0.15218548
94	0xbdc5a921	-0.096513994
95	0xbe57e21e	-0.2108235
96	0x3de1c8ad	0.11024604
97	0x3e6d2bfa	0.23161307
98	0x3dcc6eac	0.099820465
99	0xbe2d3eb7	-0.16918455
100	0xbd4926f5	-0.049109418
101	0x3f22f3f3	0.63653487
102	0xbecd5a21	-0.40107825
103	0xbe1e27ca	-0.15444866
104	0x3e35fd2c	0.17772359
105	0x3dda8e55	0.10671679
106	0xbaa73922	-0.0012758116
107	0x3e942a09	0.2893832
108	0xbe575500	-0.21028519
109	0x3e865260	0.26234722
110	0x3d8a4841	0.067520626
111	0xbe9bb53b	-0.30411705
112	0xbeaba097	-0.33520958
113	0xbc8bbac0	-0.017056823
114	0x3d7861dc	0.0606402
115	0x3e4a0dea	0.1973187
116	0xbe915e53	-0.28392276
117	0xbe617cd9	-0.22020282
118	0x3e84fd72	0.25974613
119	0xbe47564e	-0.19466516
120	0x3d82908b	0.06375226
121	0xbe8345f6	-0.25639313
122	0x3e10e5d0	0.14150167
123	0x3e05d658	0.13070047
124	0xbdb27de8	-0.08715421
125	0xbe85c740	-0.26128578
126	0xbddab4bc	-0.106790036
127	0x3e85e549	0.26151493
128	0xbdcea2ac	-0.10089621
129	0xbe08141e	-0.13288924
130	0xbe0c00d7	-0.13672195
131	0xbde8b6fc	-0.113630265
132	0xbd664da8	-0.056226403
133	0xbe04cf52	-0.12969711
134	0xbc99f77d	-0.01879477
135	0x3d3e2e2e	0.04643076
136	0xbd4b47f2	-0.04962916
137	0xbea9a222	-0.3313151
138	0xbe0f3be7	-0.13987695
139	0x3ea51b16	0.32247227
140	0x3bdaecf8	0.006681081
141	0xbe688da1	-0.22710277
142	0xbe872743	-0.26397142
143	0xbead17b2	-0.3380714
144	0x3db69de1	0.08916832
145	0xbda51f7f	-0.08062648
146	0xbe0e0597	-0.1386932
147	0xbda8beb1	-0.082394965
148	0xbe66d8a8	-0.22543585
149	0xbdbc02d1	-0.09180225
150	0xbdb4ffbc	-0.0883784
151	0x3e04f0f1	0.12982537
152	0xbe447866	-0.19186553
153	0x3dc0f7d8	0.094222724
154	0xbe18f197	-0.14935909
155	0xbf2626b4	-0.64902806
156	0x3e325462	0.17415002
157	0x3d2f78b6	0.04283973
158	0xbe3f91db	-0.18707983
159	0xbda30de4	-0.07961634
160	0xbe7e0393	-0.24806051
161	0xbdf95a43	-0.12175419
162	0x3e35d299	0.17756118
163	0x3e8a166f	0.2697024
164	0xbe916480	-0.28396988
165	0xbee13e56	-0.4399287
166	0x3e7ec13e	0.24878404
167	0x3cd8ca4e	0.026463654
168	0xbdc289e4	-0.09498957
169	0xbe133722	-0.143765
170	0xbf1e1f62	-0.61766636
171	0xbe8ca667	-0.27470705
172	0x3e279c0b	0.1636812
173	0x3e270041	0.1630869
174	0xbdc1e663	-0.09467771
175	0xbeac0979	-0.33600977
176	0x3dd7829d	0.105229594
177	0x3da100d4	0.07861486
178	0xbb333004	-0.0027341852
179	0x3e184bc7	0.14872657
180	0xbe902350	-0.2815194
181	0xbd160b38	-0.036631793
182	0x3e642d58	0.22282922
183	0xbdbe7b05	-0.09300808
184	0xbc863d13	-0.016386544
185	0xbef5bff3	-0.47998008
186	0xbd68c406	-0.056827568
187	0xbd9588d2	-0.07301487
188	0xbe0b1bb7	-0.13584791
189	0xbe03c844	-0.12869364
190	0xbe93ab96	-0.28841847
191	0x3d152028	0.03640762
192	0xbeb66b43	-0.3562871
193	0x3e077d4b	0.13231389
194	0xbe7a15e3	-0.24422412
195	0xbe94aae8	-0.2903664
196	0x3d04780c	0.032341048
197	0xbe22dcf2	-0.15904596
198	0xbe9fbd0f	-0.31198928
199	0xbefe46e3	-0.49663457
200	0xbb129de9	-0.0022371954
201	0xbe4b6e88	-0.19866383
202	0x3e1da28b	0.15394036
203	0x3d6d058f	0.05786663
204	0x3d394969	0.045236025
205	0x3e1fe25a	0.1561369
206	0x3dc8017d	0.09765909
207	0xbd8e2d91	-0.06942285
208	0xbea03650	-0.31291437
209	0xbe7adf09	-0.24499144
210	0x3e0925ec	0.13393372
211	0xbe75c372	-0.24000338
212	0xbdfdc198	-0.12390441
213	0xbed19033	-0.40930328
214	0x3dced506	0.10099225
215	0x3db062c4	0.08612588
216	0x3e590305	0.21192558
217	0x3de6afb0	0.112639785
218	0xbb2ce83b	-0.0026383537
219	0xbeb37841	-0.35052684
220	0xbe19d40f	-0.150223
221	0xbbf7d3fa	-0.0075631114
222	0xbe5b8271	-0.21436478
223	0xbeb71a2c	-0.35762155
224	0x3dc6d40c	0.097084135
225	0xbd422360	-0.047397017
226	0xbc9f1d0c	-0.01942303
227	0x3e8c572f	0.27410266
228	0xbdab421e	-0.0836222
229	0xbe74d638	-0.23909843
230	0xbcf6a25c	-0.030106716
231	0xbcb8686d	-0.022510732
232	0xbe59a70d	-0.21255131
233	0xbe2d58d9	-0.16928424
234	0xbe3f0843	-0.18655495
235	0xbe76110d	-0.24029942
236	0xbe2eeee4	-0.17083317
237	0x3e31efa6	0.17376575
238	0x3d39fa14	0.04540451
239	0x3c129a68	0.008947946
240	0xbb9f0714	-0.0048531387
241	0x3e38c6f0	0.18044639
242	0xbe01ef5e	-0.12688968
243	0x3dc88a6f	0.09792029
244	0x3e868fed	0.26281682
245	0xb9124f54	-0.00013953197
246	0x3e6c363d	0.23067565
247	0xbe993102	-0.29920202
248	0x3e75b7ba	0.23995867
249	0x3e3020eb	0.17200057
250	0xbddcb8c8	-0.10777432
251	0xbe66e9b0	-0.22550082
252	0x3d64596b	0.055749338
253	0xbe0a8001	-0.13525392
254	0xbe5fe962	-0.21866372
255	0xbe5c8713	-0.21535902

fc2.weight f4 [256, 256]
0	0x3d5805f4	0.052740052
1	0x3e6ff5f0	0.23433661
2	0x3df5d067	0.1200264
3	0xbe214c9f	-0.15751885
4	0xbcb76939	-0.022389041
5	0x3d62a2a0	0.055330873
6	0xbd41bb22	-0.047297604
7	0x3e7843ab	0.24244563
8	0xbe05e4f2	-0.13075617
9	0xbee1b92f	-0.44086596
10	0xbef3fae9	-0.47652367
11	0xbcb69df8	-0.022292122
12	0x3d605538	0.05476877
13	0xbf7847f7	-0.9698481
14	0x3dcb372e	0.09922634
15	0xbe7da4c8	-0.2476989
16	0x3e111478	0.14167964
17	0xbf819315	-1.0123011
18	0xbd0d7fe2	-0.034545787
19	0x3d4b631b	0.04965506
20	0x3e87acb4	0.2649895
21	0x3e88886d	0.26666585
22	0x3cf86ae7	0.030324413
23	0x3e7b8ae9	0.24564709
24	0xbe0c1756	-0.13680777
25	0x3e04f584	0.12984282
26	0x3d734898	0.059395403
27	0xbea08ad8	-0.3135593
28	0x3caac248	0.020844594
29	0x3da6af79	0.081389375
30	0x3e36d5a5	0.17854936
31	0xbe04ff64	-0.12988049
32	0xbd87a4c5	-0.06623224
33	0x3c971a65	0.018445203
34	0x3d799a08	0.06093791
35	0x3e114c77	0.14189325
36	0xbcc75642	-0.024333123
37	0x3c8fa7b8	0.01753603
38	0xbd575cb7	-0.052578654
39	0xbc9821dc	-0.018570833
40	0xbcab111b	-0.02088218
41	0xbdb7f0d8	-0.08981484
42	0xbf4be1e4	-0.79641557
43	0x3b3d5ea0	0.0028895512
44	0xbe77862a	-0.24172273
45	0x3eb5e413	0.3552557
46	0xbe0b6fbc	-0.13616842
47	0xbd7a1e4a	-0.061064042
48	0xbda3bb3f	-0.07994699
49	0x3d2c2811	0.042030398
50	0xbd31d218	-0.04341325
51	0xbed87abd	-0.42281142
52	0x3d9e6d6e	0.07735716
53	0xbd2ed7c6	-0.042686246
54	0x3d398b19	0.04529867
55	0xbe308658	-0.17238748
56	0xbe2cff82	-0.16894343
57	0x3c065fc0	0.0082015395
58	0xbb22f900	-0.0024867654
59	0x3ea80444	0.32815754
60	0x3d3ac535	0.045598228
61	0x3d33672f	0.043799575
62	0x3c7c1640	0.015386164
63	0xbe904eb9	-0.2818506
64	0x3e6e7b5a	0.23289242
65	0xbf3f87aa	-0.7481638
66	0x3eba9ef3	0.36449394
67	0xbcac7548	-0.021052018
68	0x3cc61781	0.02418113
69	0xbe146e22	-0.14495137
70	0x3e06d39a	0.13166657
71	0x3d458adb	0.048228126
72	0xbe56df17	-0.2098354
73	0x3c9a1ec0	0.01881349
74	0xbeb8871d	-0.36040583
75	0xbd80955a	-0.062784865
76	0xbf0e6f7b	-0.55638856
77	0x3ea0a424	0.3137523
78	0xbeaeeb9f	-0.3416414
79	0x3e023468	0.12715304
80	0x3ee8d94d	0.45478287
81	0xbda92a86	-0.08260064
82	0x3f17d541	0.59309775
83	0xbd9c0433	-0.076179884
84	0xbf53c5b3	-0.8272354
85	0x3cc72170	0.024307936
86	0x3d09ca52	0.033640213
87	0x3e32a81f	0.17446946
88	0xbd9c825a	-0.0764205
89	0x3d048fa9	0.032363568
90	0x3d43968e	0.047751002
91	0xbe8eb24b	-0.27870402
92	0xbd5d6a74	-0.0540566
93	0xbd59ee85	-0.053205986
94	0x3dbc3913	0.091905735
95	0x3c2889e7	0.010286785
96	0xbd5ed9a2	-0.05440677
97	0xbdd09a7d	-0.10185716
98	0x3d2295cb	0.039693635
99	0x3d765db2	0.06014795
100	0x3ca370bc	0.019951217
101	0xbd59f894	-0.05321558
102	0x3e1b0060	0.15136862
103	0xbd06f4b4	-0.03294821
104	0xbc96af28	-0.018394068
105	0x3ed0388b	0.4066814
106	0xbebdd328	-0.37075162
107	0xbe6d083f	-0.23147677
108	0x3d0987a9	0.03357664
109	0xbe3baab9	-0.18326844
110	0x3d295f94	0.041350916
111	0x3b89f938	0.0042106174
112	0xbf09137a	-0.53545344
113	0xbeb2ec13	-0.34945735
114	0x3b0d650e	0.0021575126
115	0x3ca5947f	0.02021241
116	0xbd9c5fb7	-0.07635444
117	0x3d8300f3	0.063966654
118	0xbe308f36	-0.1724213
119	0x3e2bc553	0.16774492
120	0xbf20227a	-0.6255261
121	0xbd5c2c7b	-0.053753357
122	0x3c55d848	0.013052054
123	0x3e9579f5	0.29194608
124	0xbf949561	-1.1608087
125	0xbc77ec2c	-0.015131991
126	0xbd8d07ba	-0.06886239
127	0x3d1b172d	0.0378639
128	0xbeb1d8b1	-0.34735635
129	0x3e93e316	0.2888419
130	0xbe2721c1	-0.1632147
131	0x3ede4031	0.4340835
132	0x3c1d69d0	0.009607747
133	0xbe29ba60	-0.16575003
134	0x3d44f428	0.048084408
135	0xbeb63b22	-0.3559199
136	0xbe7b74c9	-0.24556269
137	0xbd42a0e6	-0.047516726
138	0xbc8eea3a	-0.017445672
139	0x3db5735e	0.08859895
140	0x3e9a0547	0.3008215
141	0xbe312550	-0.1729939
142	0x3c977c38	0.01849185
143	0x3dd5f5cd	0.104472734
144	0x3d408c82	0.047009
145	0xbe23758a	-0.15962806
146	0x3d8dd1bc	0.06924769
147	0xbe08606b	-0.1331803
148	0x3e4ce53d	0.20009322
149	0xbd197ac2	-0.037470587
150	0x3e0e3187	0.1388608
151	0xbea5f075	-0.32410017
152	0x3da7b91c	0.08189604
153	0xbe91e8ad	-0.2849783
154	0xbdaa949c	-0.08329126
155	0x3e4c68bd	0.1996183
156	0x3cbe7174	0.023247458
157	0xbd1f989d	-0.038963903
158	0xbf024ce2	-0.50898564
159	0xbc5e672f	-0.013574406
160	0xbd3f6536	-0.04672738
161	0xbd749015	-0.05970772
162	0xbe92134a	-0.2853034
163	0x3e832eee	0.25621742
164	0xbcf67817	-0.03008656
165	0x3c10573d	0.008809862
166	0x3e82655c	0.25467956
167	0xbbfce320	-0.007717505
168	0xbda0dd37	-0.078546934
169	0x3d6aa35f	0.05728471
170	0x3e452df9	0.19255818
171	0x3daca53a	0.08429952
172	0x3eb9fa58	0.3632381
173	0xbc880f7c	-0.016608946
174	0x3ddd7bd9	0.10814638
175	0xbe8a2bbc	-0.26986492
176	0x3d813c59	0.063103385
177	0x3da65595	0.08121792
178	0xbe2593d8	-0.16169679
179	0x3e30df63	0.17272715
180	0xbdb62ab5	-0.088948645
181	0x3e3a7bf0	0.18211341
182	0x3b0a0a3b	0.0021063227
183	0x3d158de1	0.03651226
184	0xbdda1c70	-0.10649955
185	0xbe3e51ef	-0.18585943
186	0xbd29512a	-0.04133717
187	0x3e8b9a02	0.27265936
188	0xbe9a2d63	-0.30112752
189	0x3dad1020	0.08450341
190	0x3d5471ae	0.051866226
191	0xbe2aeb58	-0.16691339
192	0x3e6f4aa3	0.23368315
193	0xbd5c98c6	-0.053856634
194	0x3d1f2ac2	0.038859136
195	0x3e0d04cc	0.13771361
196	0x3e88057d	0.26566687
197	0xbdb6a7f6	-0.08918755
198	0x3e193390	0.14961076
199	0x3e187f6c	0.14892358
200	0x3ddd4162	0.108034864
201	0x3d7c5b2a	0.06161038
202	0xbd7fb1d0	-0.062425435
203	0x3cb6616a	0.022263248
204	0xbd700034	-0.058593944
205	0x3dce24cb	0.100656115
206	0x3d6cd88e	0.05782371
207	0x3d501508	0.050801307
208	0x3e8f1e60	0.27952862
209	0xbc8f1a37	-0.017468555
210	0x3e0405f5	0.12892897
211	0xbe13fc28	-0.14451659
212	0x3e571360	0.21003485
213	0x3d8850d8	0.06656045
214	0xbe14c838	-0.14529502
215	0xbd50d75c	-0.050986633
216	0x3d1365f1	0.03598589
217	0xbb5e0a26	-0.003388056
218	0xbf2c940a	-0.6741339
219	0xbe7677b9	-0.24069108
220	0x3dbe7836	0.09300272
221	0xbc357b8f	-0.011076822
222	0x3df4379c	0.11924669
223	0x3e80a666	0.25126952
224	0x3ed80d6f	0.4219775
225	0xbdd45435	-0.10367624
226	0xbd2312a4	-0.0398127
227	0xbe3c1018	-0.18365514
228	0x3d8acb0c	0.06777009
229	0x3d2c82a7	0.042116787
230	0xbacc3744	-0.0015580435
231	0x3c23c397	0.009995363
232	0xbe8d4ff3	-0.2760006
233	0xbc038097	-0.008026264
234	0xbe8f116f	-0.27942988
235	0x3cadf811	0.021236451
236	0xbebac739	-0.3648012
237	0xbd39c229	-0.04535118
238	0x3d3c7589	0.046010528
239	0xbc714c80	-0.014727712
240	0x3d33c057	0.0438846
241	0x3d57369a	0.052542306
242	0x3e17033f	0.14747332
243	0x3e5616a1	0.2090707
244	0x3e37c5f4	0.17946607
245	0xbb5f6d60	-0.0034092292
246	0xbe04c470	-0.1296556
247	0xbc4a4c05	-0.012347226
248	0x3de96930	0.11397016
249	0xbbff58cf	-0.007792569
250	0x3e811e39	0.2521837
251	0xbeea5b18	-0.45772624
252	0x3e800e5b	0.25010952
253	0x3c5821a2	0.013191612
254	0x3e214eb8	0.15752685
255	0xbbcdb740	-0.0062779486

fc2.bias f4 [256]
0	0xbdc17e49	-0.09447915
1	0x3ace8ace	0.001575792
2	0x3cbf43f9	0.023347842
3	0x391fd890	0.00015244097
4	0x3ee85b79	0.45382288
5	0xbded3f10	-0.11584294
6	0x3dd0e6de	0.102002844
7	0x3e0d97c3	0.13827424
8	0xbd00b0b8	-0.031418532
9	0x3ce51c84	0.027967699
10	0xbdd12052	-0.10211243
11	0xbe224f5a	-0.15850583
12	0xbe75bccb	-0.239978
13	0xbec8a94d	-0.39191666
14	0xbdb9dac7	-0.090749316
15	0xbc72f5e8	-0.014829136
16	0xbe8ea620	-0.27861118
17	0xbd009792	-0.03139455
18	0x3ea64f97	0.32482597
19	0xbd57f7bf	-0.052726503
20	0x3e13dcce	0.14439699
21	0xbbbedd1e	-0.005824699
22	0xbda32db8	-0.079677045
23	0xbdb1bd3b	-0.08678671
24	0xbbf11faa	-0.007358511
25	0xbe392a26	-0.18082485
26	0x3d30a973	0.04313035
27	0x3ca004d2	0.019533549
28	0x3dc7a3a9	0.097480126
29	0xbe3aa83f	-0.18228243
30	0xbda36467	-0.079781346
31	0xbdb45ba1	-0.08806539
32	0xbea402ab	-0.32033285
33	0xbb60b54c	-0.003428775
34	0xbd233850	-0.039848626
35	0xbeb96451	-0.36209348
36	0xbccf1b76	-0.02528165
37	0xba022dad	-0.00049659127
38	0xbe666384	-0.224989
39	0xbe8e3ab4	-0.27779162
40	0xbcb6b0f4	-0.022301175
41	0x3e7be066	0.2459732
42	0x3dcdc952	0.100481644
43	0xbdca8e2e	-0.098904
44	0xbdbef028	-0.0932315
45	0xbd3c79c8	-0.046014577
46	0xbc2889a8	-0.010286726
47	0xbe0382fb	-0.12842934
48	0x3c4021fb	0.011726852
49	0xbcf04526	-0.029329848
50	0x3e3c3d50	0.18382764
51	0xbe63ca97	-0.2224525
52	0xbc988f0e	-0.018622901
53	0xbcb5974d	-0.022166872
54	0xbc094b93	-0.008379835
55	0xbd8dcdba	-0.06924005
56	0xbda0f2cb	-0.07858809
57	0xbec30880	-0.38092422
58	0xbde44b4d	-0.11147175
59	0x3c1836b9	0.009290391
60	0x3c5eac06	0.013590818
61	0x3dc6b533	0.0970253
62	0x3b0a3677	0.0021089592
63	0x3b49e728	0.0030807946
64	0x3cf7db2e	0.03025588
65	0xbc6c2977	-0.014414183
66	0x3aee65f7	0.0018188347
67	0x3d540bd2	0.051769085
68	0xbe7f7b70	-0.24949431
69	0xbdc3351b	-0.095316134
70	0xbddf4284	-0.10901359
71	0xbe116388	-0.14198124
72	0xbe51e68e	-0.20498106
73	0xbd43a911	-0.047768656
74	0xbead89d9	-0.33894232
75	0xbd1b0e97	-0.03785571
76	0xbd149a99	-0.03628025
77	0xbd92ce77	-0.07168286
78	0xbbd717d9	-0.006564122
79	0xbcd56813	-0.026050603
80	0xbda26cb4	-0.0793089
81	0xbe42f4ad	-0.19038649
82	0xbe8b41f8	-0.27198768
83	0xbd059e1c	-0.032621488
84	0x3d3b6374	0.045749143
85	0xbe8730d9	-0.26404455
86	0xbd71ae23	-0.05900396
87	0x3d29ee2c	0.041486904
88	0xbedd2305	-0.4319078
89	0xbdf064c0	-0.117379665
90	0xbd72bd2e	-0.059262447
91	0x3c680faf	0.0141638955
92	0x3d3e09bd	0.046396006
93	0xbef51cca	-0.47873527
94	0xbd17683e	-0.036964647
95	0x3d03d41b	0.0321847
96	0xbe40656e	-0.18788692
97	0xbe6a7fe8	-0.22900355
98	0xbcc4f5f4	-0.02404306
99	0xbcb40a97	-0.021977706
100	0xbc43b15b	-0.01194414
101	0xbd2e09cd	-0.042489816
102	0xbe101a46	-0.14072523
103	0x3e4db917	0.20090137
104	0x3da46bb3	0.080283545
105	0xbe00b166	-0.12567672
106	0x3d8d79f3	0.069080256
107	0xbd9f4e38	-0.07778591
108	0xbeac2857	-0.33624527
109	0xbd51546a	-0.051105894
110	0xbd532cd6	-0.05155643
111	0x3e0d5279	0.13800992
112	0xbe12225f	-0.14270924
113	0xbc1c7407	-0.009549147
114	0xbdbcb680	-0.092144966
115	0xbbbf53bc	-0.0058388393
116	0xbd4e5122	-0.050370343
117	0xbda1b2fe	-0.07895468
118	0x3b36f7e0	0.002791874
119	0x3b023f69	0.0019874221
120	0xbd8ce035	-0.068787016
121	0x3e2589b1	0.16165806
122	0xbdb77a56	-0.089588806
123	0xbe0815b3	-0.13289528
124	0xbc9e288e	-0.019306447
125	0xbe3dea0f	-0.18546318
126	0xbd5a5ea5	-0.053312916
127	0x3c4b56c5	0.012410824
128	0xbe3b3e6b	-0.1828553
129	0xbded21b2	-0.115786925
130	0xbe4f78c8	-0.20260918
131	0xbde24fa9	-0.1105035
132	0xbd815864	-0.06315687
133	0xbdb84f3a	-0.08999486
134	0x3e80b044	0.2513448
135	0x3e9d8072	0.30762058
136	0xbd858206	-0.06518941
137	0x3d1e49e4	0.038644686
138	0xbdafcb2a	-0.08583672
139	0xbcaf3a51	-0.021390112
140	0xbd3e3fd7	-0.0464476
141	0x3de2c197	0.110720806
142	0xbd0a6538	-0.033787936
143	0xbce273d7	-0.027643127
144	0xbcc29273	-0.023751473
145	0x3d2369f0	0.03989595
146	0xbd55289f	-0.052040692
147	0x3c94199b	0.018078616
148	0xbd872f9c	-0.06600878
149	0xbe48c6c3	-0.19607072
150	0x3eb38d11	0.35068563
151	0xbea4e8ab	-0.32208762
152	0xbd98df9a	-0.074645236
153	0xbd26db9b	-0.040736776
154	0xbc1abb2b	-0.009444038
155	0x3ba67814	0.0050802324
156	0xbdc2d5a8	-0.09513408
157	0x3bcc3ba2	0.0062326947
158	0xbe116b2b	-0.14201038
159	0xbdd56159	-0.10418958
160	0xbea07791	-0.31341222
161	0xbef607dd	-0.48052874
162	0x3c6457d0	0.013936952
163	0xbd6e8348	-0.05823067
164	0xbd586771	-0.052833024
165	0xbd885fae	-0.066588745
166	0xbe2d7677	-0.16939722
167	0xbd07e758	-0.03317961
168	0x3cb5b8dd	0.022182876
169	0x3dd3ea83	0.10347464
170	0xbd9627d9	-0.07331819
171	0xbd7e887c	-0.06214188
172	0xb8e74c6b	-0.00011029172
173	0xbec3ac2b	-0.3821729
174	0x3cc1ed5c	0.023672752
175	0xbeaaad71	-0.3333545
176	0x3c0ae5cd	0.00847764
177	0xbd849c5a	-0.06475134
178	0xbce34038	-0.027740583
179	0x3d87d973	0.06633272
180	0xbcee91a1	-0.029122176
181	0xbe82155c	-0.2540692
182	0xbdf39d35	-0.11895219
183	0xbe455684	-0.19271284
184	0xba98c890	-0.0011656452
185	0xbb0f5dda	-0.0021876008
186	0x3c013ebe	0.007888494
187	0x3cc0b44e	0.023523476
188	0x3d6382a9	0.05554453
189	0xbcc3c20a	-0.023896236
190	0xbdda4140	-0.10656977
191	0xbc55ce61	-0.013049693
192	0x3d11c89a	0.0355917
193	0xbcbd0e42	-0.023078088
194	0x3e06cca8	0.13164008
195	0xbdaad168	-0.08340722
196	0x3cfcc960	0.030857742
197	0xbe7ed5b8	-0.24886215
198	0x3d448ace	0.047983937
199	0xbdbd34df	-0.092386
200	0x3c5d7fb2	0.0135192145
201	0xbef22832	-0.47296292
202	0xbd8f5673	-0.06998911
203	0x3c698d94	0.014254946
204	0x3cce5967	0.025189115
205	0xbb3eafb5	-0.0029096429
206	0xbe3f1acc	-0.18662566
207	0xbd59741f	-0.053089257
208	0xbc7286fb	-0.01480269
209	0x3c757a11	0.014982716
210	0xbf00b5b1	-0.5027724
211	0xbcf9774e	-0.030452397
212	0x3e1f6e07	0.15569316
213	0xbd6b11c3	-0.057389986
214	0x3cbeeaad	0.023305262
215	0xbe45c77f	-0.19314383
216	0x3cd49a35	0.025952438
217	0x3ba9de57	0.0051839757
218	0xbd8a28a4	-0.06746033
219	0xbbcb73c4	-0.0062088687
220	0xbf0567c2	-0.52111447
221	0xbd995305	-0.07486538
222	0x3da13841	0.07872058
223	0xbe1af699	-0.15133132
224	0xbdd2674b	-0.10273608
225	0x39afd98c	0.00033540686
226	0x3c11a345	0.008889024
227	0xbe5b9fa4	-0.21447617
228	0x3dfdf930	0.12401044
229	0xbcacaa14	-0.021077193
230	0x3c8abb05	0.016934881
231	0x3de97549	0.113993235
232	0x3df7e610	0.12104428
233	0x3d934518	0.07190913
234	0xbe1d1cba	-0.1534299
235	0xbddbe5c1	-0.107371815
236	0x3d10bafe	0.03533458
237	0x3cc22037	0.023697002
238	0xbeb266af	-0.34843966
239	0xbd7a485c	-0.061104164
240	0xbe41e050	-0.18933225
241	0xbc4e374d	-0.012586427
242	0x3ccc4b82	0.024938349
243	0xbe3708fd	-0.17874523
244	0xbe27adc9	-0.16374888
245	0xbdaccada	-0.08437128
246	0x3cb40be1	0.02197832
247	0xbe09fa2a	-0.13474336
248	0x3af47eba	0.001865349
249	0xbe5585ae	-0.20851776
250	0xbdc8d233	-0.09805717
251	0xbe20c8b4	-0.15701562
252	0x3d8cdc0b	0.06877907
253	0xbdaa2407	-0.08307653
254	0xbe971e61	-0.29515365
255	0xbe920968	-0.285228

fc3.weight f4 [3, 256]
0	0xbd6d3c30	-0.057918727
1	0xbd086d9a	-0.03330765
2	0x3b65609c	0.003500021
3	0xbbca7171	-0.006178074
4	0xbe5a169c	-0.21297687
5	0xbf03311d	-0.51246816
6	0xbf020af0	-0.5079794
7	0xbe243a4a	-0.1603786
8	0x3c250d3e	0.010073958
9	0x3c32d40e	0.010914816
10	0x3ec1f828	0.3788464
11	0xbe0475aa	-0.1293551
12	0xbc572efe	-0.013133762
13	0xbddcd8af	-0.107835166
14	0xbbb1e403	-0.0054287924
15	0x3d6476a8	0.055777222
16	0xbf2161c6	-0.63039815
17	0xbc68497c	-0.014177676
18	0xbd764bc5	-0.060130853
19	0xbf6e88b3	-0.93177336
20	0xbedeb513	-0.43497524
21	0x3b5ea30f	0.0033971702
22	0xbf175e52	-0.59128296
23	0xbc22f350	-0.0099457055
24	0xbc085952	-0.008322077
25	0x3f8d6035	1.1044985
26	0x3c7a922d	0.01529364
27	0xbe999be4	-0.30001748
28	0xbe27a51f	-0.16371582
29	0x3d549880	0.051903248
30	0x3c0a6adf	0.008448332
31	0x3b5ccf08	0.0033692736
32	0xbdd06d6e	-0.10177122
33	0xbe00e6e0	-0.12588072
34	0x39dc52d5	0.00042023385
35	0xbea7ba35	-0.32759252
36	0xbbbf2ac5	-0.005833956
37	0x3a7e0fb3	0.00096916704
38	0xbec71b1c	-0.3888787
39	0xbeb153c8	-0.34634233
40	0x3c2a3095	0.010387559
41	0xbe31e566	-0.17372665
42	0x3dbf40e6	0.0933855
43	0x3e8f739d	0.28017893
44	0xbf01d445	-0.5071452
45	0xbee36be1	-0.44418243
46	0xbbe1af7f	-0.006887376
47	0x3c060873	0.008180725
48	0xbc36b18f	-0.011150732
49	0xbc0fdf99	-0.008781337
50	0xbebf1930	-0.37323904
51	0xbf0afd07	-0.5429234
52	0xbb913396	-0.0044311984
53	0x3c0a3254	0.008434851
54	0xbdc5d96b	-0.0966061
55	0x3bb7418a	0.0055925297
56	0x3e19bc04	0.15013129
57	0x3e953986	0.2914545
58	0x3bce3c02	0.0062937746
59	0xbbc07f78	-0.0058745705
60	0xbbaca332	-0.005268478
61	0xbe78763b	-0.24263851
62	0xbea30d4f	-0.3184609
63	0xbb22c506	-0.0024836673
64	0xbf1692e7	-0.58817905
65	0xbc024996	-0.007952115
66	0xbe6058be	-0.21908852
67	0x3e2cc832	0.16873243
68	0xbe7d8bd5	-0.24760373
69	0xbc108664	-0.008821104
70	0x3e84aa59	0.25911215
71	0x3f12cd45	0.57344466
72	0xbe16b6a6	-0.14718112
73	0xbee88874	-0.45416605
74	0xbe98d994	-0.298535
75	0xbd2f18de	-0.042748325
76	0x3b9df1db	0.004820091
77	0xbe8a4fde	-0.2701406
78	0xb943aa88	-0.00018660177
79	0xba73499a	-0.0009280682
80	0x3b5c6b5d	0.003363333
81	0x3f0adc53	0.5424244
82	0x3d88f217	0.066868
83	0x3a3ea27b	0.0007272136
84	0x3f2821c4	0.6567652
85	0x3e2dfd22	0.16991094
86	0x3f0b1a6c	0.5433719
87	0xbe816542	-0.25272566
88	0xbce26eb6	-0.027640682
89	0xbcd0496d	-0.025425637
90	0xbb154a77	-0.002277998
91	0x3decedf1	0.11568821
92	0x3f02c9ad	0.5108898
93	0x3f29de55	0.66354877
94	0x3bc6c20f	0.006065614
95	0x3edc0260	0.42970562
96	0xbe9adad4	-0.30245078
97	0x3ed91a3c	0.42402828
98	0x3cf81b14	0.03028635
99	0xbef412e7	-0.4767067
100	0x3b60e0d9	0.0034313707
101	0xbe1ef438	-0.1552285
102	0x3eb59065	0.35461727
103	0xbe60aad8	-0.21940172
104	0x3e0534d6	0.13008437
105	0xbed4d6de	-0.4157018
106	0xbd4ea766	-0.050452612
107	0xbc64ccc9	-0.01396484
108	0xbdfeae0e	-0.12435542
109	0x3a77233a	0.00094275514
110	0x3a3c013e	0.0007171816
111	0xbeee462d	-0.46537915
112	0x3e9a7278	0.30165458
113	0x3ec06267	0.37575075
114	0x3adc2bc8	0.0016797716
115	0x3b0b4df3	0.0021256178
116	0xbca24c2c	-0.019811712
117	0x3b3ab5b1	0.0028489644
118	0xbbc69eac	-0.0060613956
119	0xbc64f299	-0.013973855
120	0x3bbba651	0.0057266136
121	0xbe8f634b	-0.28005442
122	0xbdd9a028	-0.106262505
123	0xbed187a7	-0.40923807
124	0xbed5f9a6	-0.4179203
125	0x3f29a99a	0.66274416
126	0xbcc72f91	-0.024314674
127	0xbebc319c	-0.367566
128	0x3e9c67db	0.30547985
129	0x3e2fa2b2	0.17151907
130	0x3ece94f5	0.4034802
131	0xbc104b2e	-0.008806987
132	0x3b7ff3b4	0.003905517
133	0xbf25438c	-0.64556193
134	0x3e61705f	0.22015522
135	0x3ee00f28	0.43761563
136	0xbe43e0e1	-0.19128753
137	0x3e425edb	0.18981497
138	0xbbb6739c	-0.005567981
139	0xbe2afb40	-0.16697407
140	0x3c1d582f	0.009603544
141	0xbc41788f	-0.011808529
142	0xbd3fe114	-0.04684551
143	0xb9086918	-0.00013009121
144	0xb9fee317	-0.0004861585
145	0xbcbd66fc	-0.023120396
146	0x3b2c377f	0.0026278195
147	0xbebb4224	-0.365739
148	0xbe037f6f	-0.12841581
149	0xbebec94a	-0.37262946
150	0xbcb67c57	-0.022276087
151	0xbf314f08	-0.6926122
152	0xba24ec98	-0.0006291359
153	0xbed4a506	-0.41532153
154	0x3e0350ba	0.12823763
155	0xbbf63cea	-0.0075145857
156	0xbb977903	-0.00462258
157	0xbb86c19e	-0.0041124364
158	0xbe6d6a1a	-0.23185006
159	0x3d8e5c49	0.06951196
160	0xbf904eba	-1.1274025
161	0xbda440ca	-0.0802017
162	0x3be47502	0.006971956
163	0xbbd7fff2	-0.0065917904
164	0x3f1b0e5d	0.6056879
165	0xba3d37fd	-0.0007218121
166	0x3ec3d659	0.38249472
167	0x3c5255b0	0.012837812
168	0xbf0e6381	-0.5562058
169	0x3db5458d	0.088511564
170	0xbbfb86b4	-0.00767597
171	0xb996fdcb	-0.0002879932
172	0xbf1117ed	-0.5667713
173	0x3e0f09cf	0.13968585
174	0x3e1a7bdd	0.15086313
175	0x3b31a411	0.0027105848
176	0xba2e84f7	-0.00066573865
177	0xbcc36a7b	-0.023854485
178	0x3bba2d2b	0.005681654
179	0xbf09e08c	-0.53858256
180	0x3ecb633a	0.3972414
181	0xbf649918	-0.892961
182	0xbe9699cd	-0.29414216
183	0xbf12f6bd	-0.5740774
184	0xbaadd755	-0.0013263026
185	0xbc115c30	-0.008872077
186	0xbbcfac16	-0.006337653
187	0x3ce135cb	0.02749147
188	0x3e13370e	0.1437647
189	0x3ed0ce36	0.40782326
190	0xbebeecda	-0.37290078
191	0xbb98c885	-0.0046625757
192	0x3b2f4dd0	0.002674926
193	0xbeb8b82a	-0.36078006
194	0x3e8efa1f	0.27925202
195	0xbc38a20f	-0.0112691065
196	0xbdf4a99c	-0.11946413
197	0x3e3d6cd9	0.18498553
198	0xbf3b3494	-0.731271
199	0xbb6a6570	-0.0035766028
200	0x3b6cbc0b	0.0036122825
201	0xbf428906	-0.7599033
202	0xbce4ecea	-0.027945
203	0xba65380e	-0.00087440095
204	0xbec2211b	-0.37915882
205	0xbe76d029	-0.24102844
206	0xbe892d94	-0.26792586
207	0xbea201e1	-0.31642058
208	0x3f3703f6	0.7149042
209	0xbc92c309	-0.017915266
210	0x3eccff3a	0.40038472
211	0xbc9968c9	-0.018726723
212	0x3d8f0389	0.06983096
213	0xbba54573	-0.0050436794
214	0xbb3b5949	-0.0028587154
215	0x3ea760cd	0.3269104
216	0x3eb1b25a	0.34706384
217	0x3f4f1410	0.8088999
218	0xbb4d63be	-0.0031339969
219	0xbc940c74	-0.018072344
220	0xbf11cf19	-0.5695663
221	0xbb9e3508	-0.004828099
222	0xbeba7339	-0.36416033
223	0xbd90ba6a	-0.07066806
224	0xbec60c93	-0.38681468
225	0x3e09a154	0.13440448
226	0xbbc58cf8	-0.0060287677
227	0x3f3f3c52	0.74701416
228	0xbec5d475	-0.38638654
229	0xbe2efd6a	-0.17088857
230	0xbef4cea6	-0.4781391
231	0xbe8f54c7	-0.27994367
232	0xbde6a157	-0.11261242
233	0x3d1c3c8b	0.038143676
234	0x3f333b39	0.7001224
235	0xbc5808c7	-0.013185686
236	0x3c4d5706	0.012532955
237	0xbe882bf5	-0.26596037
238	0x3ee9d312	0.45668846
239	0xbd12f6a2	-0.03587974
240	0x3dabff01	0.083982475
241	0xbc52ef4e	-0.0128744375
242	0x3e3bd12a	0.18341509
243	0x3e8c02ed	0.27345982
244	0xbf211dcd	-0.629361
245	0xbbee7e0a	-0.0072782086
246	0x3c2e33f1	0.010632501
247	0xbea4a588	-0.3215754
248	0xbc6ff1e3	-0.014645073
249	0xbe92b7df	-0.28655908
250	0x3d25c543	0.040471327
251	0x3dd88cdd	0.105737425
252	0x3e0f72c0	0.14008617
253	0x3b2bb1e1	0.0026198553
254	0x3f07a430	0.52984905
255	0x3ebf49a3	0.37360868

fc3.bias f4 [3]
0	0xbe491132	-0.19635466
1	0x3e17d601	0.1482773
2	0x3cb7c6d6	0.02243368
