runs/checkpoint_actor_256_192021_tau1_410.pth (torch, 288535 bytes, 6 tensors)

fc1.weight f4 [256, 19]
-0.049285926 0.00735645 -0.057553634 -0.0505858 -0.022600263 -0.054991066 -0.013213977 -0.014685743
-0.05178406 -0.032791525 0.0057679936 0.023312852 -0.041848674 0.010691442 0.054735184 -0.014331482
0.018978678 0.012527905 -0.0022491813 0.02860513 -0.10220478 0.2132267 -0.107564226 0.026391545
0.21496819 0.14053828 -0.13530223 -0.3418281 -0.30675 -0.1672257 -0.14839375 -0.07010755
0.014994922 0.031035883 -0.40681165 -0.13142033 -0.2650369 -0.27870736 -0.0036031955 0.06263414
0.103858665 0.04441953 -0.22045541 -0.19403581 0.65500224 -0.61695194 -0.37839073 -0.27941063
-0.1677582 -0.13565803 -0.06742608 0.1547001 -0.12758411 0.21860012 -0.74763536 -0.65436524
-0.35650605 -0.012545124 -0.084010236 -0.09300874 -0.15863945 -0.35509658 0.37233952 0.25320056
-1.1260593 -1.1763704 -1.1293862 -0.21889788 -0.21449564 -0.17514455 -0.05042929 -0.11803221
-0.28018352 0.19010222 0.062922 0.22853845 0.0005450421 0.19124636 -0.08152936 -0.030756366
0.24179757 -0.59278935 -0.02345951 -0.0752163 0.032253936 -0.060701046 0.053501423 0.0077366247
0.041480534 0.11211118 0.21364762 -0.10874065 -0.22864172 -0.030321388 -0.05728511 -0.0030167976
0.027191151 -0.15001144 -0.0040085334 -0.36845496 -0.21637878 0.7883229 0.36548004 0.34469086
0.39015326 -0.204082 -0.20897292 -0.14426747 -0.031237157 -0.30794135 -0.14477743 -0.17410792
0.1355011 0.17565157 -0.08022302 -0.070110604 -0.03350787 0.025418682 0.024512121 -0.083248265
0.022925694 -0.027964259 -0.03101352 0.074129514 -0.04229618 -0.058876738 0.0006631389 -0.045313325
-0.02908405 0.06508497 -0.015403659 -0.06781265 -0.05205017 0.0010691577 0.11935734 -0.045597874
-0.15706694 -0.5787151 0.04466223 -0.6652618 -0.44164205 -0.5171051 -0.5305037 0.1052992
0.10008283 0.066118985 0.075963765 0.10944898 0.30319324 -0.46007198 -0.67896205 -0.26755288
0.00826054 -0.018600482 -0.08786239 0.06807822 -0.25958124 -0.06926017 0.140205 0.6170952
0.67689836 0.6755855 -0.09039498 -0.09381403 -0.04133122 -0.3183482 -0.14836171 0.17823096
-0.83567685 -0.44441208 -0.31665334 0.0045250487 -0.04339648 0.21277025 0.08924991 0.37694728
-0.12398802 0.29439676 -0.040132705 -0.07717623 -0.06963217 -0.03402361 -0.13561024 -0.0999481
0.41373926 -0.2883125 -0.07684576 -0.083614245 -0.4095845 -0.17810127 -0.00647153 0.0016083579
-0.18881804 0.08039727 -0.023076916 -0.50355345 -0.3839934 0.924646 0.7638495 0.7270243
0.06045423 0.03781601 0.06705689 0.059743594 -0.13171774 -0.24046735 -0.16023983 -0.04256484
-0.062490217 -0.06495981 0.022549368 -0.042519495 -0.008639966 0.040552065 0.03535014 -0.05726365
-0.021325279 -0.04341171 0.051406674 -0.016379697 0.0170731 -0.04380349 0.027087323 -0.030812833
0.0117390035 -0.054371677 -0.02217835 -0.055646434 -0.0024965925 -0.024755927 0.016096693 0.06558131
-0.7648194 -0.16994798 -0.25426242 -0.01963469 -0.0025446375 -0.07716777 -0.02942911 -0.110309355
-0.0657647 0.21384461 -0.110749476 0.2309271 -0.27148885 -0.5805052 -0.090652265 0.0014458064
0.08453996 0.12581389 -0.1526225 -0.76690584 -0.5519792 0.8111941 0.08520684 0.010819809
00000000: 0ae0 49bd 600e f13b 5cbd 6bbd 0e33 4fbd
00000010: 3024 b9bc 503e 61bd 707f 58bc 789c 70bc
00000020: 861b 54bd 6850 06bd 7001 bd3b 98fa be3c
00000030: 8469 2bbd 282b 2f3c 0032 603d 98ce 6abc
00000040: 2c79 9b3c d841 4d3c 0067 13bb 4e55 ea3c
00000050: bd50 d1bd 1a58 5a3e a24a dcbd 1533 d83c
00000060: 9f20 5c3e 44e9 0f3e ab8c 0abe 1804 afbe
00000070: 560e 9dbe 373d 2bbe 88f4 17be 8c94 8fbd
00000080: 43ad 753c f73e fe3c 9e49 d0be 0d93 06be
00000090: ebb2 87be bbb2 8ebe 9723 6cbb 5446 803d
000000a0: dab3 d43d 41f1 353d 10bf 61be 53b1 46be
000000b0: 3aae 273f 90f0 1dbf 6ebc c1be e90e 8fbe
000000c0: cec8 2bbe f0e9 0abe af16 8abd b469 1e3e
000000d0: 69a5 02be b6d8 5f3e 0865 3fbf 7b84 27bf
000000e0: f687 b6be 108a 4dbc 8f0d acbd 5e7b bebd
000000f0: 6172 22be 38cf b5be 49a3 be3e 81a3 813e
00000100: b622 90bf 4e93 96bf ba8f 90bf c426 60be
00000110: bfa4 5bbe 1859 33be f18e 4ebd dfba f1bd
00000120: 3774 8fbe 28aa 423e 40dd 803d fc05 6a3e
00000130: 28e1 0e3a 16d6 433e ddf8 a6bd c6f4 fbbc
00000140: c899 773e 0bc1 17bf 292e c0bc 010b 9abd
00000150: b41c 043d a9a1 78bd 4f24 5b3d 8383 fd3b
00000160: 7ee7 293d 8c9a e53d 71c6 5a3e 6bb3 debd
00000170: 0e21 6abe 8f64 f8bc cba3 6abd 77b5 45bb
00000180: fabf de3c 999c 19be 045a 83bb 21a6 bcbe
00000190: 6692 5dbe 88cf 493f 3320 bb3e 527b b03e
000001a0: 2bc2 c73e dffa 50be fffc 55be daba 13be
000001b0: 11e5 ffbc 7daa 9dbe 8940 14be 5949 32be
000001c0: cdc0 0a3e 01de 333e f74b a4bd 2696 8fbd
000001d0: 8c3f 09bd d73a d03c a5cd c83c 117e aabd
000001e0: aace bb3c 4d15 e5bc 1110 febc 37d1 973d
000001f0: c23e 2dbd bc28 71bd 80d6 2d3a 779a 39bd
00000200: ac41 eebc 454b 853d a15f 7cbc 5ce1 8abd
00000210: 8f32 55bd fb22 8c3a 9f71 f43d d6c4 3abd
00000220: 28d6 20be ac26 14bf beef 363d 994e 2abf
00000230: e81e e2be 0061 04bf 17cf 07bf 1ba7 d73d
00000240: 3af8 cc3d 6469 873d e492 9b3d c926 e03d
00000250: 253c 9b3e 8e8e ebbe 75d0 2dbf b1fc 88be
00000260: 3757 073c 0a60 98bc 32f1 b3bd 986c 8b3d
00000270: d5e7 84be 47d8 8dbd e691 0f3e f3f9 1d3f
00000280: 3649 2d3f 2cf3 2c3f 0121 b9bd 9221 c0bd
00000290: ed4a 29bd 89fe a2be 22ec 17be 2d82 363e
000002a0: ebee 55bf fb89 e3be 6320 a2be dc46 943b
000002b0: 82c0 31bd 72e0 593e a8c8 b63d 3cff c03e
000002c0: 6eed fdbd 2cbb 963e 3162 24bd 920e 9ebd
000002d0: 509b 8ebd 575c 0bbd 69dd 0abe 97b1 ccbd
000002e0: a2d5 d33e b29d 93be 4f61 9dbd f23d abbd
000002f0: 0fb5 d1be 2e60 36be 210f d4bb 89cf d23a
00000300: 8459 41be 53a7 a43d cd0b bdbc e1e8 00bf
00000310: c89a c4be 9ab5 6c3f a48b 433f 441e 3a3f
00000320: db9e 773d f6e4 1a3d 1f55 893d b3b5 743d
00000330: 04e1 06be 133d 76be e915 24be 7858 2ebd
00000340: bef5 7fbd a609 85bd 74b9 b83c ec28 2ebd
00000350: a58e 0dbc ec19 263d 4fcb 103d 4a8d 6abd
00000360: 5ab2 aebc 7ad0 31bd ce8f 523d b72e 86bc
00000370: e3dc 8b3c 4a6b 33bd 3ce6 dd3c 326b fcbc
00000380: f354 403c d6b4 5ebd 5faf b5bc 84ed 63bd
00000390: df9d 23bb f1cc cabc 36dd 833c 7e4f 863d
000003a0: 34cb 43bf d806 2ebe af2e 82be eed8 a0bc
000003b0: efc3 26bb 230a 9ebd 5115 f1bc dfe9 e1bd
000003c0: a5af 86bd 15fa 5a3e 9fd0 e2bd 2778 6c3e
000003d0: 9600 8bbe fd9b 14bf e5a7 b9bd 3681 bd3a
000003e0: 4923 ad3d 5bd5 003e 1349 1cbe f153 44bf
000003f0: 824e 0dbf 6baa 4f3f ec80 ae3d 9145 313c

fc1.bias f4 [256]
0.06889538 -0.26940528 0.14707276 -0.18908674 0.017227028 -0.018302597 0.16601118 0.073011175
-0.15054584 -0.16129175 0.117803134 0.1866832 0.11735521 0.18707462 0.039860025 0.043402076
-0.27635926 0.18553182 -0.22368126 -0.14070158 0.2118542 -0.07705941 -0.13908383 -0.16872482
-0.1223246 -0.2584823 -0.12349912 -0.22390482 0.08935229 -0.15365337 -0.030531835 0.2839122
0.22184183 -0.07212926 0.213131 -0.04245707 -0.048672568 0.045470484 -0.16759232 -0.253874
-0.024513034 0.09418457 -0.27219653 -0.01182874 0.02505573 0.06850839 0.050110795 -0.14477971
0.05712342 0.22114113 0.18299298 0.273283 -0.21031937 -0.16737583 -0.15734284 0.012611672
0.31669694 -0.12748964 0.030146439 -0.13070314 -0.21733654 -0.12524267 -0.2134275 0.16434918
0.109900385 0.2885862 -0.1118827 -0.01745952 -0.18335007 -0.33441702 0.071156755 0.02566971
0.09428856 -0.06877084 0.002227324 -0.010967242 -0.18617661 -0.22451763 0.13154858 0.011060404
0.084059544 -0.09116215 -0.25622377 -0.049881637 0.1605866 -0.38647515 -0.021906653 0.04613321
-0.22990379 0.116335474 0.0038617582 -0.16185589 -0.15035634 0.15220663 -0.0840581 -0.2108235
0.11024604 0.24365754 0.19140747 -0.16918455 -0.049109418 0.46521896 -0.3075834 -0.15444866
0.17772359 0.090311 -0.015587373 0.22841616 -0.16798332 0.1800697 0.037115972 -0.20267645
-0.17776632 -0.08311895 0.0606402 0.20274413 -0.22972491 -0.09991047 0.17661123 -0.119651906
0.058865145 -0.25639313 0.14150167 0.17995018 -0.026812539 -0.26128578 -0.11933619 0.1395596
-0.060929336 -0.10650271 -0.12725516 -0.10559737 -0.056226403 -0.19491522 -0.01879477 0.043534156
-0.030475693 -0.28814316 -0.13987695 0.260944 -0.019151278 -0.17985146 -0.26397142 -0.3236053
0.08916832 0.02192041 -0.1386932 0.015570481 -0.17802386 -0.09180225 -0.016967684 0.08679394
-0.09991018 0.20125984 -0.14935909 -0.45750928 0.17415002 0.04283973 -0.07898671 -0.07961634
-0.24806051 -0.12175419 0.15265036 0.17681496 -0.20923978 -0.27763784 0.22535005 0.026463654
-0.09498957 -0.143765 -0.48687094 -0.1919134 0.121516645 0.1630869 -0.005812613 -0.29011628
0.12433149 -0.06434821 0.05814576 0.17690723 -0.2258859 -0.085930765 0.2417667 -0.09300808
-0.10148832 -0.43066618 -0.05054269 0.075546145 -0.07637461 -0.07661445 -0.2742533 0.13025106
-0.22552711 0.08689821 -0.12865293 -0.24883963 -0.025756132 -0.12394746 -0.19297144 -0.39854282
0.010096426 -0.19866383 0.15394036 0.057949327 0.16687123 0.21945684 0.09765909 -0.06942285
-0.2836595 -0.24499144 0.023167206 -0.20768878 -0.08421908 -0.35803246 0.054463312 0.08612588
0.118529625 0.070542224 0.10091742 -0.2607133 -0.10502196 -0.12041248 -0.07734481 -0.18009949
0.1249457 0.039690197 -0.01942303 0.04709377 -0.08119929 -0.23909843 -0.029835267 -0.017142309
-0.19960168 -0.16928424 -0.1335411 -0.1835787 -0.039878797 0.17376575 0.04540451 0.01923469
-0.0048531387 0.18337004 -0.07626315 0.16661012 0.22928368 -0.00013953197 0.13866928 -0.14028545
0.15738547 0.17200057 -0.0036466985 -0.19593038 0.14216834 -0.13525392 -0.12896818 -0.21535902
00000000: 0519 8d3d 7def 89be 3e9a 163e f49f 41be
00000010: b21f 8d3c 54ef 95bc d6fe 293e e286 953d
00000020: b028 1abe aa29 25be c542 f13d e129 3f3e
00000030: ee57 f03d 7d90 3f3e 4444 233d 60c6 313d
00000040: f67e 8dbe 0efc 3d3e b30c 65be 1314 10be
00000050: 4ff0 583e 53d1 9dbd fe6b 0ebe 33c6 2cbe
00000060: 5285 fabd cb57 84be 1bed fcbd 4e47 65be
00000070: 55fe b63d 4f57 1dbe e61d fabc f15c 913e
00000080: 812a 633e 81b8 93bd 033f 5a3e 77e7 2dbd
00000090: e35c 47bd 423f 3a3d 529d 2bbe c6fb 81be
000000a0: 8fcf c8bc d7e3 c03d 585d 8bbe 55cd 41bc
000000b0: ad41 cd3c 204e 8c3d fa40 4d3d 2241 14be
000000c0: 3ffa 693d d272 623e 8362 3b3e c0eb 8b3e
000000d0: f65d 57be 9264 2bbe 7b1e 21be 30a1 4e3c
000000e0: 1a26 a23e a58c 02be aaf5 f63c 0bd7 05be
000000f0: 788d 5ebe 9d3f 00be bd8c 5abe 274b 283e
00000100: 7413 e13d 92c1 933e c222 e5bd 4407 8fbc
00000110: 1fc0 3bbe b538 abbe a2ba 913d 4949 d23c
00000120: 5c1a c13d bad7 8cbd 4cf8 113b f2af 33bc
00000130: 15a5 3ebe f3e7 65be acb4 063e b236 353c
00000140: 6927 ac3d 39b3 babd c32f 83be b050 4cbd
00000150: d070 243e 12e0 c5be 9575 b3bc 2df6 3c3d
00000160: e66b 6bbe 4b41 ee3d 8d15 7d3b 8dbd 25be
00000170: 03f7 19be 0edc 1b3e a726 acbd 1ee2 57be
00000180: adc8 e13d 5d81 793e 5200 443e b73e 2dbe
00000190: f526 49bd 2e31 ee3e 927b 9dbe ca27 1ebe
000001a0: 2cfd 353e f9f4 b83d 2e62 7fbc ede5 693e
000001b0: d203 2cbe 3164 383e eb06 183d 6a8a 4fbe
000001c0: 6008 36be 453a aabd dc61 783d 289c 4f3e
000001d0: 023d 6bbe dc9d ccbd 93d9 343e 0f0c f5bd
000001e0: 941c 713d f645 83be d0e5 103e dc44 383e
000001f0: f8a5 dbbc 40c7 85be 8866 f4bd b6e8 0e3e
00000200: 0a91 79bd 181e dabd 2d4f 02be 6f43 d8bd
00000210: a84d 66bd db97 47be 7df7 99bc df50 323d
00000220: 29a8 f9bc 8087 93be e73b 0fbe 749a 853e
00000230: 24e3 9cbc fb2a 38be 4327 87be 98af a5be
00000240: e19d b63d 6f92 b33c 9705 0ebe 551b 7f3c
00000250: e34b 36be d102 bcbd d0ff 8abc 05c1 b13d
00000260: b59d ccbd 0f17 4e3e 97f1 18be a83e eabe
00000270: 6254 323e b678 2f3d c9c3 a1bd e40d a3bd
00000280: 9303 7ebe 435a f9bd 6050 1c3e fb0e 353e
00000290: f442 56be 8c26 8ebe 2ac2 663e 4eca d83c
000002a0: e489 c2bd 2237 13be 2647 f9be f284 44be
000002b0: b8dd f83d 4100 273e bb77 bebb 1f8a 94be
000002c0: 82a1 fe3d ffc8 83bd 402a 6e3d 2b27 353e
000002d0: a24e 67be 78fc afbd b191 773e 057b bebd
000002e0: 1cd9 cfbd 4780 dcbe da05 4fbd f0b7 9a3d
000002f0: 4b6a 9cbd 09e8 9cbd ee6a 8cbe 8960 053e
00000300: 94f0 66be b0f7 b13d 98bd 03be d1cf 7ebe
00000310: 86fe d2bc 2ad8 fdbd 4e9a 45be ce0d ccbe
00000320: 7b6b 253c 886e 4bbe 8ba2 1d3e 465c 6d3d
00000330: 4be0 2a3e 4bb9 603e 7d01 c83d 912d 8ebd
00000340: d13b 91be 09df 7abe 27c9 bd3c 5eac 54be
00000350: 0e7b acbd 0850 b7be ec14 5f3d c462 b03d
00000360: a9bf f23d 7178 903d cbad ce3d 377c 85be
00000370: c115 d7bd d19a f6bd f566 9ebd 006c 38be
00000380: 88e3 ff3d 3092 223d 0c1d 9fbc 66e5 403d
00000390: d04b a6bd 38d6 74be 1769 f4bc 076e 8cbc
000003a0: 6264 4cbe d958 2dbe 00bf 08be 0efc 3bbe
000003b0: f357 23bd a6ef 313e 14fa 393d 1292 9d3c
000003c0: 1407 9fbb 5bc5 3b3e db2f 9cbd d89b 2a3e
000003d0: 57c9 6a3e 544f 12b9 52ff 0d3e fda6 0fbe
000003e0: a829 213e eb20 303e 73fd 6ebb f9a1 48be
000003f0: 9494 113e 0180 0abe 3c10 04be 1387 5cbe

fc2.weight f4 [256, 256]
0.052740052 0.011023113 0.110008016 -0.117599055 -0.13999107 0.08037606 -0.047297604 0.28308728
-0.07976598 -0.26829293 -0.59146154 -0.022292122 0.08454734 -0.7881422 -0.081101954 -0.06625676
0.08583674 -0.8327728 0.018597072 -0.120444454 0.15382649 0.119774714 0.030324413 0.24058953
-0.20135944 -0.13563523 0.059395403 -0.17560932 0.020844594 0.07347242 0.25829348 -0.043961808
-0.15345883 0.018445203 0.06093791 -0.12869495 -0.024333123 0.01753603 0.0012418081 -0.018570833
-0.02088218 0.07510599 -0.85624355 0.0028895512 -0.09946225 0.40037245 -0.12910156 -0.04892765
-0.14696646 0.042030398 -0.04341325 -0.31995133 0.07735716 -0.042686246 0.04529867 0.045705736
-0.034278985 0.0082015395 -0.0024867654 -0.08373243 0.045598228 0.043799575 0.015386164 0.018229391
0.16081454 -0.7624596 0.13350287 -0.021052018 0.02418113 0.07123136 0.12533735 0.048228126
-0.062127512 0.01881349 -0.2717866 -0.062784865 -0.34077752 0.12893464 -0.17038976 0.035776958
0.16210188 0.023315806 0.47536898 -0.076179884 -0.8754332 0.1136053 0.033640213 0.17449175
-0.060048826 0.032363568 0.047751002 -0.26752698 -0.0540566 -0.053205986 0.39222458 0.010286785
-0.05440677 0.03925848 0.023178184 0.06014795 0.019951217 -0.005197822 0.0026516074 -0.03294821
-0.018394068 0.4079138 -0.25360653 -0.051567763 -0.0062111137 -0.06774327 0.24710914 -0.02518884
-0.45838767 -0.18702236 0.0021575126 0.087542206 -0.37208393 -0.1154474 0.024906892 0.057738297
-0.46907264 -0.053753357 0.013052054 -0.083861634 -1.1203521 -0.015131991 -0.07774934 -0.035349496
-0.82825667 0.3770662 -0.1632147 0.2718688 0.009607747 -0.19848187 0.048084408 -0.3876069
-0.14115922 -0.04426122 -0.017445672 -0.09782615 0.02615945 -0.0746175 0.01849185 0.030156732
0.047009 -0.16990173 0.06924769 0.031386975 0.052049633 -0.037470587 0.19883975 -0.34916207
0.023427974 0.07777136 -0.08329126 0.1417595 0.023247458 -0.038963903 -0.49317378 -0.013574406
-0.04672738 -0.05970772 -0.0049761496 0.0973386 -0.11138394 0.0031710274 0.31572095 -0.007717505
-0.078546934 0.05728471 0.2602568 -0.19102523 0.19128197 -0.016608946 0.1692667 -0.26401716
-0.00035711858 -0.065254375 -0.08534948 0.09568957 -0.112029105 0.1406636 -0.017019013 0.03651226
-0.048048176 -0.19206357 0.1384169 0.21963775 -0.45253587 -0.09011104 0.051866226 -0.14643818
0.05500287 -0.32580772 -0.10628461 0.05530994 0.36918747 -0.024609217 -0.07091126 0.02097071
0.11361892 0.06161038 -0.062425435 0.022263248 0.04922643 -0.08855459 0.05782371 0.050801307
0.015982945 -0.017468555 0.07350769 -0.20194936 0.32614064 -0.054872308 -0.017699892 -0.050986633
-0.04344338 -0.23646425 -0.8487405 -0.06977207 0.028781487 -0.0106780445 0.11152455 0.19437425
0.115937404 -0.112840176 -0.0398127 0.0028800867 0.06777009 0.042116787 -0.0015580435 0.009995363
-0.122501016 -0.008026264 -0.2629369 0.15551306 -0.31093776 -0.04535118 0.046010528 -0.014727712
0.0438846 -0.023636658 0.06352934 0.07017637 0.05599918 -0.0034092292 -0.09952304 0.074910074
0.14592484 -0.007792569 -0.16969906 -0.39405504 0.22102174 0.013191612 0.024972955 -0.0062779486
00000000: f405 583d 499a 343c e24b e13d c6d7 f0bd
00000010: d259 0fbe 349c a43d 22bb 41bd d1f0 903e
00000020: 595c a3bd b15d 89be 066a 17bf f89d b6bc
00000030: 2827 ad3d b0c3 49bf c818 a6bd a0b1 87bd
00000040: 2ccb af3d 9930 55bf e358 983c 95ab f6bd
00000050: b184 1d3e 724c f53d e76a f83c 1a5d 763e
00000060: 2b31 4ebe f6e3 0abe 9848 733d eed2 33be
00000070: 48c2 aa3c b578 963d 0b3f 843e 4c11 34bd
00000080: 5024 1dbe 651a 973c 089a 793d 9cc8 03be
00000090: 4256 c7bc b8a7 8f3c 2ac4 a23a dc21 98bc
000000a0: 1b11 abbc 2bd1 993d c732 5bbf a05e 3d3b
000000b0: ddb2 cbbd 9efd cc3e 3333 04be 5c68 48bd
000000c0: 607e 16be 1128 2c3d 18d2 31bd a9d0 a3be
000000d0: 6e6d 9e3d c6d7 2ebd 198b 393d f035 3b3d
000000e0: 1f68 0cbd c05f 063c 00f9 22bb e97b abbd
000000f0: 35c5 3a3d 2f67 333d 4016 7c3c ce55 953c
00000100: 91ac 243e 8d30 43bf fab4 083e 4875 acbc
00000110: 8117 c63c bfe1 913d 6f58 003e db8a 453d
00000120: 6b79 7ebd c01e 9a3c 9d27 8bbe 5a95 80bd
00000130: 647a aebe 7107 043e a77a 2ebe dc8a 123d
00000140: 09fe 253e ca00 bf3c 9063 f33e 3304 9cbd
00000150: 641c 60bf e5a9 e83d 52ca 093d f7ad 323e
00000160: c2f5 75bd a98f 043d 8e96 433d 4cf9 88be
00000170: 746a 5dbd 85ee 59bd a9d1 c83e e789 283c
00000180: a2d9 5ebd 80cd 203d 2de0 bd3c b25d 763d
00000190: bc70 a33c 7e52 aabb 97c6 2d3b b4f4 06bd
000001a0: 28af 96bc 14da d03e b7d8 81be b838 53bd
000001b0: 9986 cbbb fcbc 8abd 2e0a 7d3e d458 cebc
000001c0: cab1 eabe ca82 3fbe 0e65 0d3b 5449 b33d
000001d0: c981 bebe b06f ecbd 8a09 cc3c fe7e 6c3d
000001e0: 4a2a f0be 7b2c 5cbd 48d8 553c a6bf abbd
000001f0: b367 8fbf 2cec 77bc 0c3b 9fbd a2ca 10bd
00000200: a108 54bf d20e c13e c121 27be 6332 8b3e
00000210: d069 1d3c d53e 4bbe 28f4 443d 6974 c6be
00000220: 0b8c 10be 414b 35bd 3aea 8ebc 1459 c8bd
00000230: 584c d63c 0fd1 98bd 387c 973c 400b f73c
00000240: 828c 403d b8fa 2dbe bcd1 8d3d a18f 003d
00000250: ff31 553d c27a 19bd a69c 4b3e 5fc5 b2be
00000260: 06ec bf3c 9746 9f3d 9c94 aabd 6729 113e
00000270: 7471 be3c 9d98 1fbd 4681 fcbe 2f67 5ebc
00000280: 3665 3fbd 1590 74bd f80e a3bb 7659 c73d
00000290: 431d e4bd 03d1 4f3b 2da6 a13e 20e3 fcbb
000002a0: 37dd a0bd 5fa3 6a3d 6140 853e 1e9c 43be
000002b0: 6cdf 433e 7c0f 88bc 4054 2d3e 422d 87be
000002c0: a53b bbb9 16a4 85bd b5cb aebd e5f8 c33d
000002d0: 846f e5bd 1e0a 103e 756b 8bbc e18d 153d
000002e0: 2ace 44bd 50ac 44be 29bd 0d3e b8e8 603e
000002f0: c8b2 e7be 238c b8bd ae71 543d e4f3 15be
00000300: b04a 613d 45d0 a6be bfab d9bd ad8c 623d
00000310: 2406 bd3e 4599 c9bc ec39 91bd c4ca ab3c
00000320: 09b1 e83d 2a5b 7c3d d0b1 7fbd 6a61 b63c
00000330: a7a1 493d 1c5c b5bd 8ed8 6c3d 0815 503d
00000340: aaee 823c 371a 8fbc 338b 963d d0cb 4ebe
00000350: e8fb a63e c9c1 60bd 5dff 90bc 5cd7 50bd
00000360: b0f1 31bd af23 72be 0f47 59bf a9e4 8ebd
00000370: 27c7 eb3c f7f2 2ebc fc66 e43d 0b0a 473e
00000380: 9770 ed3d c018 e7bd a412 23bd d6bf 3c3b
00000390: 0ccb 8a3d a782 2c3d 4437 ccba 97c3 233c
000003a0: d0e1 fabd 9780 03bc aa9f 86be d13e 1f3e
000003b0: 3c33 9fbe 29c2 39bd 8975 3c3d 804c 71bc
000003c0: 57c0 333d aaa1 c1bc ac1b 823d a1b8 8f3d
000003d0: 655f 653d 606d 5fbb bcd2 cbbd 746a 993d
000003e0: 526d 153e cf58 ffbb 97c5 2dbe 95c1 c9be
000003f0: 8653 623e a221 583c 1594 cc3c 40b7 cdbb

fc2.bias f4 [256]
-0.024174372 -0.025644278 0.02680395 0.00015244097 0.25327298 -0.06996785 -0.069979034 0.055027466
-0.031418532 0.027967699 -0.05591524 -0.13208348 -0.060134348 -0.2726878 -0.088300675 0.046438865
-0.14505859 -0.03139455 0.22589305 -0.04984149 0.07032297 -0.005824699 -0.042744134 -0.08050595
0.00030819117 -0.08042998 -0.016098231 0.043714236 0.08231533 -0.07846451 -0.079781346 -0.08381079
-0.09331391 0.018345783 -0.027332798 -0.23347336 -0.024400298 0.0074916654 -0.22165762 -0.24355061
-0.013139818 -0.03835171 -0.07690342 -0.1502153 -0.010300783 -0.07949522 -0.010286726 -0.042288523
0.011726852 -0.029329848 0.053895015 -0.08599061 -0.018513571 -0.022166872 -0.066335715 -0.06755987
-0.05523959 -0.07801159 -0.10215823 0.018630274 0.02255331 0.03669759 -0.0108205825 0.012140064
-0.06735335 -0.014414183 -0.06703587 0.04422522 -0.08514587 -0.0114800325 -0.06828485 -0.026141815
-0.1158176 -0.014527827 -0.3228809 -0.024036683 -0.03628025 -0.07845717 -0.006564122 -0.018865274
-0.07000349 -0.0817339 -0.12717183 -0.032621488 0.09944604 -0.11109971 0.034716595 -0.06592548
-0.18604062 -0.117379665 -0.059262447 -0.0050635044 0.14688303 -0.21958381 -0.036964647 -0.08681257
-0.12642613 -0.10633607 -0.02404306 0.077340566 -0.0023583318 0.015949974 -0.12813391 0.0950378
0.029524315 -0.041842256 0.030131256 -0.068603225 -0.2154768 -0.051105894 -0.042143647 0.18034744
-0.038516413 -0.0044803377 -0.08537734 -0.0030587672 -0.04233729 -0.07895468 0.002791874 0.021326937
-0.068787016 0.11482308 0.04600972 -0.114419356 -0.17553909 -0.08178843 -0.043524772 -0.03625973
-0.023691729 -0.07163906 0.001126298 -0.100088395 -0.06315687 -0.05281351 0.023356287 0.15106054
-0.0389695 0.09786314 -0.08583672 0.14709817 -0.0464476 0.025310509 -0.018781269 -0.027643127
-0.014401666 0.03989595 -0.052040692 -0.030789414 -0.082902215 -0.18810001 0.17255354 -0.1829312
-0.074645236 0.0327447 -0.023380427 0.0050802324 -0.09398765 0.015726045 -0.26741883 0.021668995
-0.17936651 -0.31634015 0.023361705 -0.05823067 -0.048850365 -0.066588745 -0.12723643 -0.039893232
0.01090329 0.10514409 -0.07014909 -0.053692274 -0.005129424 -0.32797986 -0.059652567 -0.2692948
0.010073561 -0.04390413 -0.019441914 -0.027017646 -0.011099215 -0.08740958 -0.080316275 -0.08045243
-0.0011656452 0.0072216354 0.023086226 0.023523476 -0.019010838 -0.024567338 -0.039255697 -0.00095565926
0.04342656 -0.103855886 0.09065649 -0.08340722 -0.04743532 -0.031373486 0.0871497 -0.0786868
0.0135192145 -0.3966704 -0.03737236 0.014254946 -0.032057915 0.0012173996 -0.075034045 0.03069042
0.006270253 -0.018438192 -0.15360928 -0.019992512 0.040410418 -0.048988692 0.023398776 -0.15872018
-0.056911066 -0.0080652395 -0.057951976 -0.0062088687 -0.22296211 -0.07235452 -0.009025427 -0.03543342
0.0025214083 0.014236251 0.015712002 -0.08072367 0.061525002 0.0056622173 -0.012779273 0.0977611
0.042989157 -0.05577748 -0.06384855 -0.10219592 0.03725793 0.060380217 -0.14931013 -0.04385821
-0.104415484 -0.0039484994 0.018624345 -0.11505559 -0.15193968 -0.07501922 0.02197832 -0.03654296
0.025028704 -0.14479041 -0.049542405 -0.07287709 0.053101964 -0.08213195 -0.15737161 -0.08534151
00000000: 5509 c6bc f313 d2bc f593 db3c 90d8 1f39
00000010: ffac 813e 4e4b 8fbd 2b51 8fbd 7b64 613d
00000020: b8b0 00bd 841c e53c 6107 65bd e440 07be
00000030: 6f4f 76bd bc9d 8bbe fcd6 b4bd ae36 3e3d
00000040: 3d8a 14be 9297 00bd 8250 673e 9726 4cbd
00000050: 7d05 903d 1edd bebb 7914 2fbd 4ee0 a4bd
00000060: b894 a139 79b8 a4bd 70e0 83bc b30d 333d
00000070: f194 a83d 00b2 a0bd 6764 a3bd fea4 abbd
00000080: 5d1b bfbd e549 963c 08e9 dfbc a413 6fbe
00000090: 22e3 c7bc a57c f53b 37fa 62be 5565 79be
000000a0: 6448 57bc af16 1dbd 8a7f 9dbd 0ad2 19be
000000b0: 9ec4 28bc 64ce a2bd a889 28bc bb36 2dbd
000000c0: fb21 403c 2645 f0bc 05c1 5c3d d81b b0bd
000000d0: c6a9 97bc 4d97 b5bc 05db 87bd d45c 8abd
000000e0: e942 62bd 8ac4 9fbd 5638 d1bd 849e 983c
000000f0: b8c1 b83c 3650 163d d048 31bc 1ee7 463c
00000100: 8ef0 89bd 7729 6cbc 1a4a 89bd 8125 353d
00000110: f560 aebd bf16 3cbc edd8 8bbd 5c27 d6bc
00000120: c731 edbd 1f06 6ebc a550 a5be 94e8 c4bc
00000130: 999a 14bd 27ae a0bd d917 d7bb 598b 9abc
00000140: fd5d 8fbd 1a64 a7bd 5539 02be 1c9e 05bd
00000150: 5eaa cb3d 3f88 e3bd fd32 0e3d f003 87bd
00000160: 6f81 3ebe c064 f0bd 2ebd 72bd c1eb a5bb
00000170: 8168 163e 94da 60be 3e68 17bd caca b1bd
00000180: da75 01be bac6 d9bd f4f5 c4bc bb64 9e3d
00000190: 3e8e 1abb 85a9 823c 8935 03be 2ea3 c23d
000001a0: fadc f13c c962 2bbd d3d5 f63c d97f 8cbd
000001b0: f3a5 5cbe 6a54 51bd d19e 2cbd 00ad 383e
000001c0: 63c3 1dbd cccf 92bb 51da aebd 9975 48bb
000001d0: de69 2dbd feb2 a1bd e0f7 363b d4b5 ae3c
000001e0: 35e0 8cbd 5d28 eb3d b074 3c3d b254 eabd
000001f0: 85c0 33be b180 a7bd 0847 32bd 1585 14bd
00000200: 2815 c2bc 80b7 92bd 4aa0 933a 25fb ccbd
00000210: 6458 81bd fb52 58bd af55 bf3c 9daf 1a3e
00000220: 7c9e 1fbd 786c c83d 2acb afbd e7a0 163e
00000230: d73f 3ebd fc57 cf3c 2ddb 99bc d773 e2bc
00000240: f7f4 6bbc f069 233d 9f28 55bd 153a fcbc
00000250: a3c8 a9bd 4a9d 40be e0b1 303e 5152 3bbe
00000260: 9adf 98bd 4e1f 063d 4f88 bfbc 1478 a63b
00000270: 997c c0bd e8d3 803c 1feb 88be 2d83 b13c
00000280: dbab 37be 56f7 a1be 0c61 bf3c 4883 6ebd
00000290: 5217 48bd ae5f 88bd 444a 02be 1667 23bd
000002a0: b6a3 323c c955 d73d 53aa 8fbd 6eec 5bbd
000002b0: ba14 a8bb faec a7be 4056 74bd 02e1 89be
000002c0: 940b 253c d1d4 33bd a644 9fbc 1c54 ddbc
000002d0: 7bd9 35bc cb03 b3bd dc7c a4bd 3ec4 a4bd
000002e0: 90c8 98ba 78a3 ec3b 531f bd3c 4eb4 c03c
000002f0: 9ebc 9bbc 7141 c9bc 95ca 20bd 3585 7aba
00000300: 0ce0 313d 65b2 d4bd 1caa b93d 68d1 aabd
00000310: 8a4b 42bd 7c81 00bd 8b7b b23d 8c26 a1bd
00000320: b27f 5d3c 6218 cbbe c213 19bd 948d 693c
00000330: 294f 03bd 2791 9f3a 73ab 99bd 7a6a fb3c
00000340: b276 cd3b b10b 97bc c04b 1dbe 56c7 a3bc
00000350: 6585 253d 5ea8 48bd caae bf3c 8b87 22be
00000360: 941b 69bd 1124 04bc 0d5f 6dbd c473 cbbb
00000370: 2e50 64be 9b2e 94bd 62df 13bc a222 11bd
00000380: 363e 253b 2a3f 693c 75b6 803c 7452 a5bd
00000390: a401 7c3d 1f8a b93b 2860 51bc f936 c83d
000003a0: 6615 303d ed76 64bd 07c3 82bd 184c d1bd
000003b0: c59b 183d 3f51 773d c1e4 18be aba4 33bd
000003c0: c9d7 d5bd 6a62 81bb 1592 983c 44a2 ebbd
000003d0: 1396 1bbe ada3 99bd e10b b43c 12ae 15bd
000003e0: ff08 cd3c f043 14be faec 4abd 9540 95bd
000003f0: 7281 593d cc34 a8bd 0626 21be 88c7 aebd

fc3.weight f4 [3, 256]
0.0875443 -0.007784076 0.003500021 -0.006178074 -0.20755212 0.08642064 -0.008451512 -0.34503943
0.010073958 0.010914816 0.5878571 0.010094011 0.07798356 0.17188507 -0.0053938073 -0.010476245
-0.47589582 -0.014177676 0.04466899 -0.5826995 -0.20095459 0.0033971702 -0.07624973 0.011293524
-0.008322077 0.3526624 -0.0005187628 -0.14458208 -0.11268384 0.25349614 0.008448332 0.0033692736
-0.067746125 -0.0040719886 -0.008086798 -0.2135028 0.0015481545 -0.003137505 -0.20359533 -0.42817914
0.0042166663 0.007126441 0.005708676 0.15797874 -0.18968947 -0.1389319 -0.006887376 -0.0038722085
-0.011150732 -0.008781337 -0.42065907 -0.40924022 -0.00059131044 0.008434851 0.019184886 0.0055925297
-0.003197117 0.30077708 0.0063298806 -0.0058745705 -0.0165266 -0.3321915 -0.0058735763 -0.0024770305
-0.19897057 -0.007952115 -0.36906555 0.034153905 -0.09553266 0.16134636 0.5492292 -0.0067930333
-0.008602234 -0.008264538 -0.20423022 -0.0070998888 0.004820091 -0.0003327019 -0.00018660177 0.008586558
0.003363333 0.17399763 0.0039299293 0.0007272136 0.3792586 0.036258977 0.54073876 -0.009213434
-0.25115573 -0.025425637 -0.002277998 0.004492522 0.56184196 0.2741278 0.006065614 0.009780416
-0.3947715 0.21952467 0.03028635 -0.65302235 0.00212571 -0.101587534 0.20757958 -0.12986921
0.12582378 -0.43768582 0.0014628442 -0.014350675 -0.02724701 0.00094275514 -0.0039439625 -0.2163434
0.001422934 0.0031230622 0.0016797716 0.0021256178 -0.019811712 0.0028489644 -0.0060613956 -0.034853216
0.0057266136 -0.11474381 -0.15110302 -0.5243582 -0.25885224 0.4993726 -0.019666577 -0.3387133
-0.2927071 -0.03266094 0.08245781 -0.005229997 0.003905517 -0.038096752 0.10042312 0.23907754
-0.004828558 0.26456118 -0.005567981 -0.01658555 0.009603544 0.0032804175 -0.009030416 -0.00013009121
0.00907435 -0.023120396 0.0026278195 -0.23610671 0.044576213 -0.37822583 -0.20352729 -0.63597983
-0.0006291359 -0.021133902 0.008156212 -0.0075145857 -0.00462258 0.005406348 0.0637688 -0.0008552396
-0.49604976 -0.055301074 0.006971956 -0.0065917904 0.41328764 -0.0007218121 0.13432528 0.0019685864
-0.40286642 0.12170807 0.00029004604 -0.00012448353 -0.32005966 0.21390124 0.02732227 0.057673443
0.008759624 -0.039614648 -0.0030587807 0.0045499806 -0.003805504 -0.16795795 -0.2233504 -0.34200862
-0.0013263026 -0.008872077 -0.013664662 0.02749147 0.003676826 0.34756708 -0.2407015 -0.007638686
-0.00641483 -0.7504624 0.34263027 -0.0112691065 -0.010320452 -0.26465252 -0.5792858 -0.010535221
0.0036122825 -0.20075141 -0.010751052 -0.00087440095 -0.0054699495 -0.28334635 -0.23297618 -0.06187364
0.7911709 -0.18438691 0.08478731 0.00027546185 0.20196761 -0.0050436794 -0.0028587154 0.16541438
0.018157506 0.746191 0.0063923686 -0.018072344 -0.5375115 0.01066842 0.0028501747 0.002669161
-0.15817875 -0.10953044 -0.0060287677 0.3316737 -0.41708907 -0.2930947 -0.3199911 -0.5651983
-0.009243798 -0.004421949 -8.7634544e-05 -0.013185686 0.012532955 -0.24687995 0.22134091 -0.022000717
-0.10593161 -0.0128744375 -0.0029079632 0.28036752 -0.54881066 -0.0072782086 0.010632501 -0.24769606
-0.008221956 -0.35268152 0.14448205 -0.08256067 0.1413124 -0.0056720534 0.39784923 0.063622646
00000000: 6d4a b33d 9011 ffbb 9c60 653b 7171 cabb
00000010: 8b88 54be 4efd b03d 3678 0abc 02a9 b0be
00000020: 3e0d 253c 0ed4 323c ce7d 163f 5a61 253c
00000030: d8b5 9f3d a402 303e 89be b0bb 8ea4 2bbc
00000040: 9ea8 f3be 7c49 68bc d5f6 363d cb2b 15bf
00000050: 0ac7 4dbe 0fa3 5e3b d228 9cbd 7908 393c
00000060: 5259 08bc 2b90 b43e 95fd 07ba 530d 14be
00000070: c9c6 e6bd 3fca 813e df6a 0a3c 08cf 5c3b
00000080: 7bbe 8abd 516e 85bb 7d7e 04bc 7aa0 5abe
00000090: 72eb ca3a 999e 4dbb 4b7b 50be 4c3a dbbe
000000a0: f62b 8a3b ec84 e93b d80f bb3b 2ec5 213e
000000b0: f53d 42be 2a44 0ebe 7faf e1bb e1c4 7dbb
000000c0: 8fb1 36bc 99df 0fbc a060 d7be ef87 d1be
000000d0: 2c02 1bba 5432 0a3c 9f29 9d3c 8a41 b73b
000000e0: b986 51bb 74ff 993e e36a cf3b 787f c0bb
000000f0: cb62 87bc 0115 aabe 2177 c0bb ad55 22bb
00000100: f1be 4bbe 9649 02bc 29f6 bcbe f7e4 0b3d
00000110: a1a6 c3bd fb37 253e 499a 0c3f 1898 debb
00000120: 62f0 0cbc fc67 07bc ba21 51be 2fa6 e8bb
00000130: dbf1 9d3b 7e6e aeb9 88aa 43b9 a2ae 0c3c
00000140: 5d6b 5c3b 6f2c 323e a3c6 803b 7ba2 3e3a
00000150: 2f2e c23e 4b84 143d db6d 0a3f f1f3 16bc
00000160: 7c97 80be 6d49 d0bc 774a 15bb 0236 933b
00000170: e0d4 0f3f 7b5a 8c3e 0fc2 c63b 0a3e 203c
00000180: 7d1f cabe 13cb 603e 141b f83c 792c 27bf
00000190: 7f4f 0b3b 200d d0bd be8f 543e 6ffc 04be
000001a0: f3d7 003e 5b18 e0be e8bc bf3a 181f 6bbc
000001b0: 1f35 dfbc 3a23 773a 5b3c 81bb 2089 5dbe
000001c0: be81 ba3a 4aac 4c3b c82b dc3a f34d 0b3b
000001d0: 2c4c a2bc b1b5 3a3b ac9e c6bb 3fc2 0ebd
000001e0: 51a6 bb3b cdfe eabd c0ba 1abe 573c 06bf
000001f0: 4888 84be c4ad ff3e cd1b a1bc d46b adbe
00000200: b4dd 95be 7ac7 05bd a4df a83d 6560 abbb
00000210: b4f3 7f3b 570b 1cbd a3aa cd3d bed0 743e
00000220: e138 9ebb 9074 873e 9c73 b6bb 6bde 87bc
00000230: 2f58 1d3c 46fc 563b 4ff4 13bc 1869 08b9
00000240: 95ac 143c fc66 bdbc 7f37 2c3b f5c5 71be
00000250: 8c95 363d d1a6 c1be 7569 50be 93cf 22bf
00000260: 98ec 24ba 0121 adbc a2a1 053c ea3c f6bb
00000270: 0379 97bb bc27 b13b 3799 823d 2832 60ba
00000280: 3cfa fdbe 6183 62bd 0275 e43b f2ff d7bb
00000290: 709a d33e fd37 3dba 918c 093e 6603 013b
000002a0: 8244 cebe 1542 f93d 5211 9839 cb87 02b9
000002b0: dcde a3be ed08 5b3e f4d2 df3c fd3a 6c3d
000002c0: 8784 0f3c f842 22bd d375 48bb 0118 953b
000002d0: c365 79bb 2bfd 2bbe f8b5 64be c11b afbe
000002e0: 55d7 adba 305c 11bc bfe1 5fbc cb35 e13c
000002f0: e7f6 703b 50f4 b13e 747a 76be f14d fabb
00000300: 7f33 d2bb 4e1e 40bf 3c6d af3e 0fa2 38bc
00000310: 1d17 29bc 8980 87be 134c 14bf eb9b 2cbc
00000320: 0bbc 6c3b c791 4dbe 2e25 30bc 0e38 65ba
00000330: 433d b3bb c612 91be 4f91 6ebe 376f 7dbd
00000340: 2d8a 4a3f eccf 3cbe f8a4 ad3d dd6b 9039
00000350: 99d0 4e3e 7345 a5bb 4959 3bbb 6362 293e
00000360: 0dbf 943c 6006 3f3f 1377 d13b 740c 94bc
00000370: 5b9a 09bf 99ca 2e3c ffc9 3a3b 17ed 2e3b
00000380: 9cf9 21be 7f51 e0bd f88c c5bb 23d1 a93e
00000390: b38c d5be 8210 96be e0d5 a3be d6b0 10bf
000003a0: 4d73 17bc ffe5 90bb 70c8 b7b8 c708 58bc
000003b0: 0657 4d3c 19ce 7cbe 31a7 623e d93a b4bc
000003c0: acf2 d8bd 4eef 52bc 8793 3ebb 558c 8f3e
000003d0: db7e 0cbf 0a7e eebb f133 2e3c 09a4 7dbe
000003e0: 62b5 06bc ac92 b4be 1af3 133e 9215 a9bd
000003f0: 33b4 103e a2dc b9bb e5b2 cb3e 974c 823d

fc3.bias f4 [3]
-0.20065483 0.018336562 0.09266985
00000000: 7678 4dbe 8f36 963c b1c9 bd3d
