runs/checkpoint_actor_256_192021_tau1_1270.pth (torch, 288535 bytes, 6 tensors)

fc1.weight f4 [256, 19]
00000000: 0ae0 49bd 600e f13b 5cbd 6bbd 0e33 4fbd
00000010: 3024 b9bc 503e 61bd 707f 58bc 789c 70bc
00000020: 861b 54bd 6850 06bd 7001 bd3b 98fa be3c
00000030: 8469 2bbd 282b 2f3c 0032 603d 98ce 6abc
00000040: 2c79 9b3c d841 4d3c 0067 13bb 6de2 e9ba
00000050: c08d 63be 02ad 103e 728e 7fbe d6a4 8abe
00000060: feb2 8e3d f809 d63e 38ce 07bd 2243 7dbe
00000070: 8567 a5be 9bb1 8abe 667a 80be 6a08 47be
00000080: dcbc 9c3d 7bb3 013e 2577 e9be 48a3 44be
00000090: a687 e6be 53fb d8be 09bf ceb9 140d 383e
000000a0: b2e8 c73d f962 213e a3cd 4abe c4d6 c4bc
000000b0: 5ecc 463f ba03 a5bf 1472 67bf 6fd3 05bf
000000c0: 92b4 68be a6d7 6dbe d015 f3bd 4acb b83e
000000d0: 5c64 07be a8d9 d73e 49f1 9abf c165 81bf
000000e0: b15e b8be 1da2 bfbd fce8 94be df77 8cbe
000000f0: 953a a6be 5089 18bf 0046 b13e 94a3 7a3e
00000100: 24d7 b8bf 0779 c0bf 4e13 babf 3444 f6be
00000110: 0f8c e5be 0994 e5be 42a6 84bd 85ce 99bd
00000120: a4dd 92be 96b9 653e c3b4 963d 0ff9 943e
00000130: 718f 47bb 4629 a03e fae0 8abd 2cf9 1cbe
00000140: a09b 8d3e 8bcb 73bf 5374 b2be 25e4 53be
00000150: 9991 e1bd 3be1 30be 0b53 bc3d 057d 583d
00000160: 33c0 4b3d 6446 883e c52a e13e 1348 50be
00000170: 4934 e0be abc1 0bbe 097e 82be 38e0 eb3b
00000180: 507f 803d 411b e2bd 72f8 3bbe 61ec 543e
00000190: d5bb f7be e22b e53f d4fc 8b3f 94f8 8c3f
000001a0: 4c3c 9f3f a05d 13be b51a 2fbe c2aa d7bd
000001b0: 4b0f dd3d 8485 9cbe d4b4 75be 8c3a b3be
000001c0: 04af f83d fe42 583e 9fbe a7bd fd27 a3bd
000001d0: 8aad 2fbd 258a 803c c9d2 ab3c 117e aabd
000001e0: 9c40 853c 4d15 e5bc 1110 febc 37d1 973d
000001f0: 80eb 52bd f566 8bbd 5b45 0cbc cd09 13bd
00000200: 7a6c a1bc 4dec 633d 902d bebc c7e0 9abd
00000210: 3ff2 78bd e4db bd3c 0b6f 1d3e f30e fabd
00000220: 7b64 95be 2e53 82bf aaf2 7fbe 5a0d 5ebf
00000230: 5a89 47bf 6bde 85bf bf82 8cbf b1c8 333e
00000240: fb81 073e 5188 bd3d 2a2f 5a3e 6c59 1e3e
00000250: 1fa2 de3e d7de 43bf 7d29 8bbf 80de 12bf
00000260: 6908 733b 1bbf b13d 32b4 c3bd 52f1 613e
00000270: d40e 633e 8044 22bd 6f50 f5b9 e5c0 563f
00000280: e716 6d3f b3f8 8f3f 6852 72be eb29 64be
00000290: 5e87 44be 2adb 07bf 7545 c9be 96e3 853e
000002a0: 3f87 dabf 0fad 89bf 6366 50bf 1473 293c
000002b0: 8993 92bd 1d3c ba3e d526 8e3d bffa 043f
000002c0: 96cd 56bd dd83 3e3f 07a1 eebd 91f3 6fbe
000002d0: 4f24 96be 1477 12be a92d 8fbe ba28 58be
000002e0: 247a 363f 4969 15bf 5dea 6abe e3e7 5dbe
000002f0: fd92 f4be a430 b3bd 10c0 17bc 24ac fdbd
00000300: 3b22 d8be 2e4f 143d 902d f1bc bee8 19bf
00000310: 8b3f 81be 10c0 d63f d158 c73f 0597 bc3f
00000320: 9590 083e 7dd8 a03d 946f ea3d 94a5 8e3c
00000330: c971 7bbe bfcb d3be 0ba5 88be e162 953b
00000340: e53d 41be 71e0 86bd 3317 833c e8c8 46bd
00000350: a53c 84bc ec19 263d 472c ea3c 4a8d 6abd
00000360: dee6 afbc 7ad0 31bd ce8f 523d d819 a8bc
00000370: 79e3 533c 54c3 44bd d23e d43c cc14 e9bc
00000380: 9a7e 1c3c a5e4 5fbd d065 bcbc f3c3 66bd
00000390: 373b 133c aa66 49bd eaa9 283d 4f01 cd3d
000003a0: d246 97bf 4dcb 30be 2507 0cbf 1769 8a3e
000003b0: 185e b63e e69c bd3e b8c7 7dbd 7605 35be
000003c0: 767a cebd 8638 b83e e6f6 62be 94eb ea3e
000003d0: 7895 8fbe 1fdc 79bf 371e 45be c8e1 39bc
000003e0: d1e0 50bd 7848 873d aed0 bfbe ef31 55bf
000003f0: 811c 00bf b5d5 693f e531 083d 11a0 b9bc
-0.049285926 0.00735645 -0.057553634 -0.0505858 -0.022600263 -0.054991066 -0.013213977 -0.014685743
-0.05178406 -0.032791525 0.0057679936 0.023312852 -0.041848674 0.010691442 0.054735184 -0.014331482
0.018978678 0.012527905 -0.0022491813 -0.0017843969 -0.22222042 0.14128497 -0.24956682 -0.27078885
0.06967734 0.4180448 -0.03315565 -0.2473264 -0.32305542 -0.27088627 -0.25093383 -0.19436803
0.076532096 0.12666123 -0.45598713 -0.19202912 -0.45025367 -0.42379245 -0.00039433714 0.17973739
0.0976118 0.15760411 -0.19805007 -0.02402819 0.7765559 -1.2891762 -0.90408444 -0.5227575
-0.22725132 -0.23226795 -0.11869395 0.36092597 -0.13221878 0.42158246 -1.2104884 -1.0109178
-0.36009744 -0.093570925 -0.29084003 -0.27435204 -0.3246657 -0.5958452 0.34623718 0.24476463
-1.4440656 -1.5036935 -1.4537141 -0.4809891 -0.4483342 -0.44839504 -0.06477024 -0.075100936
-0.28684723 0.22434077 0.07358696 0.29096267 -0.0030450488 0.3128149 -0.06781192 -0.15329427
0.27657795 -0.95232457 -0.34854373 -0.20692499 -0.11014099 -0.17273419 0.09195527 0.052853603
0.049743842 0.26616204 0.43977943 -0.20339994 -0.4378989 -0.13648097 -0.25486782 0.00719836
0.06274283 -0.110403545 -0.18356493 0.20793296 -0.48385492 1.7904017 1.0936532 1.101336
1.2440276 -0.14391184 -0.17100032 -0.10530616 0.107939325 -0.30570614 -0.23994762 -0.35005605
0.121427566 0.21119305 -0.08190655 -0.079666115 -0.04289011 0.015690872 0.020974534 -0.083248265
0.01626616 -0.027964259 -0.03101352 0.074129514 -0.05149412 -0.06806747 -0.0085614575 -0.03589802
-0.019705046 0.055645276 -0.023215085 -0.07562404 -0.0607779 0.023176141 0.15374391 -0.122098826
-0.29178223 -1.0181634 -0.24994913 -0.8673912 -0.77943957 -1.0458502 -1.09774 0.17557026
0.13233177 0.09254516 0.21307054 0.15463799 0.43483064 -0.765119 -1.0872036 -0.5737076
0.003708387 0.086790286 -0.09555854 0.22064713 0.22173625 -0.039616108 -0.0004678997 0.83888084
0.9261307 1.1247772 -0.23664248 -0.22281615 -0.19192263 -0.5306879 -0.39310804 0.26150197
-1.7072524 -1.0755938 -0.8140623 0.010342378 -0.07157046 0.36373988 0.06941 0.5194511
-0.052442156 0.7441996 -0.11651807 -0.23432757 -0.29324576 -0.14303237 -0.27964523 -0.21109286
0.7128012 -0.5836378 -0.22940965 -0.21670489 -0.47768393 -0.08749512 -0.0092621 -0.12386349
-0.42213616 0.036208324 -0.029440671 -0.6012076 -0.25243792 1.6777363 1.557398 1.4733588
0.13336404 0.07853792 0.11447063 0.017412938 -0.24555124 -0.41366383 -0.26688418 0.0045589064
-0.18871267 -0.065857776 0.016002273 -0.048531443 -0.016142199 0.040552065 0.028585566 -0.05726365
-0.02147239 -0.04341171 0.051406674 -0.020520136 0.012932652 -0.048037842 0.025908861 -0.0284523
0.009551669 -0.05466141 -0.022997767 -0.056339215 0.008986286 -0.049170174 0.041177668 0.10010015
-1.1818488 -0.17265053 -0.546984 0.27033302 0.35618663 0.37033767 -0.061958045 -0.17677864
-0.10081951 0.35980624 -0.22164497 0.45882857 -0.28043723 -0.97601503 -0.19249807 -0.011345334
-0.05099565 0.06605619 -0.37463897 -0.8327932 -0.50043494 0.91341716 0.033250708 -0.022659333

fc1.bias f4 [256]
00000000: 0519 8d3d 7dd8 c0be 97e3 fb3d 4ae2 bbbe
00000010: a51b 2c3e f7ec 353c 7c5f 263e af80 ca3d
00000020: d596 afbe 923e 61be e860 033e 5003 3f3e
00000030: 5d77 10bb c01e 973d bba6 1a3d b389 ec3d
00000040: a2b8 c7be f2cf c53e b87d 6fbe 8d3a 28be
00000050: 07ae de3d cb9f a5be 17f1 0fbe fd07 82be
00000060: ae74 16be d670 bebe 1bed fcbd 8735 76be
00000070: 55fe b63d 8f86 25be bf9f 8bbc a46d 1b3e
00000080: 4d03 ce3d 81b8 93bd 033f 5a3e 3cb0 313b
00000090: 562d 4dbd 423f 3a3d 603a 42be c6fb 81be
000000a0: 8fcf c8bc cb70 f5bc 199a cbbe 55cd 41bc
000000b0: 5c8b 083e b7ff 683e 2089 893d d921 07be
000000c0: ba4e 413e d272 623e ad51 3b3e b062 823e
000000d0: 9cb7 59be 9264 2bbe 7b1e 21be 984d 863c
000000e0: e7af e73e a58c 02be aaf5 f63c 2095 45be
000000f0: 6470 61be 94ad 09be bd8c 5abe bc98 853e
00000100: befc 0b3d 1ac3 cb3e 57a1 49bd 72ef d5bc
00000110: 1fc0 3bbe dd85 bcbe 1b21 2dbe 4949 d23c
00000120: 910a b63d bad7 8cbd a375 85bc f2af 33bc
00000130: 4044 d9bd 9f20 a6be 9b82 8e3d b20f 323c
00000140: 1b36 d7bd 3b57 80bd e9a7 9ebe b050 4cbd
00000150: c2d2 7e3e 368f 06bf 9575 b3bc a9f5 32bd
00000160: 6e08 cabe 4b41 ee3d 8d15 7d3b 985e b2be
00000170: 03f7 19be 83d6 1b3e f5e9 2bbe 1ee2 57be
00000180: adc8 e13d bb9e 8c3e 7d03 0b3c 518a 27be
00000190: f526 49bd 9825 4d3f c241 f3be ca27 1ebe
000001a0: 2cfd 353e 0619 403d d00c bdbd cae4 b73e
000001b0: 145b 83be 4b04 ab3e 757f 503e c157 bbbe
000001c0: 4552 d1be 1d3f 123d eacb 753d 5523 653e
000001d0: 92ee aebe 1cab 95be f690 953e 2243 4dbe
000001e0: e7aa 3c3c f645 83be d0e5 103e 1e52 c03d
000001f0: 5bd0 36be 40c7 85be f3e1 23be 79c0 c73e
00000200: 7c72 1dbe b400 94be d700 0cbe 1813 6fbe
00000210: a84d 66bd 7907 05be 7df7 99bc 003d 80bb
00000220: a993 99bd cb75 d5be e73b 0fbe 0453 d43e
00000230: 9e84 8a3c 51ba 80be 4327 87be 64b0 8bbe
00000240: e19d b63d 5eea e4bd 6439 10be 7220 43be
00000250: ae3e 71be d102 bcbd 47bb bbbc dace e23d
00000260: 31d5 4cbe c404 0e3e 33a9 22be 846c 43bf
00000270: 6254 323e b678 2f3d cdfa 7ebe e40d a3bd
00000280: 9303 7ebe 435a f9bd b700 273d c21d ba3e
00000290: 8064 91be 8535 0cbf 604f 7e3e 4eca d83c
000002a0: 9aae cebd 2237 13be a1ef 3dbf 123b c0be
000002b0: 1f31 2e3e 4100 273e 7c55 1fbe 7909 acbe
000002c0: 8d60 b03d 99b7 173e 7ee7 67bd a31b 143c
000002d0: 1440 b3be d3ba 53bd 3276 5e3e 057b bebd
000002e0: 9596 12bd f3bf f5be 9edc 1dbe 8df1 ddbb
000002f0: 2200 0cbe 82c8 84be 26f7 47be 6c63 11bd
00000300: e781 d8be ddcf 153e c7d8 8fbe bc6e 9ebe
00000310: 78a2 c63b ceed 62be bb6a a7be e346 febe
00000320: 789b 2dbc 4dc6 4ebe 8ba2 1d3e 8f05 6d3d
00000330: 6543 42bb 36a3 273e b77f b43d 912d 8ebd
00000340: 9f04 5fbe 09df 7abe 7368 113e ca3c 8abe
00000350: baf9 36be c1dd f4be 3aea b13d c462 b03d
00000360: 832c 803e 6031 693e 7a48 05be 0608 f3be
00000370: 0fd4 19be 7852 b83d 7182 5bbe 9ff4 d5be
00000380: 04eb bcbc 6023 42bd 0c1d 9fbc 0501 dc3e
00000390: 1e42 abbd 38d6 74be 5ca2 f6bc 8f31 0cbd
000003a0: b942 45be d958 2dbe c494 59be 2835 85be
000003b0: ac53 66be a6ef 313e 14fa 393d 689a 123c
000003c0: 1407 9fbb b6ca 613e 9dd2 46be 6598 213d
000003d0: 8345 853e 544f 12b9 3002 c73e 392d c5be
000003e0: 6cd7 9d3e eb20 303e c6cd 4bbe 1666 57be
000003f0: 9e95 e63d 0180 0abe b703 83be 1387 5cbe
0.06889538 -0.37665167 0.12299269 -0.36696082 0.1680742 0.01110386 0.16247362 0.09887826
-0.34294763 -0.21996525 0.12829936 0.18653607 -0.0022043802 0.07378912 0.037756663 0.115497015
-0.3900805 0.38635212 -0.23387802 -0.16428585 0.10873037 -0.32348475 -0.14056812 -0.2539672
-0.14692947 -0.37195462 -0.12349912 -0.24043857 0.08935229 -0.16164611 -0.017043946 0.15178543
0.10059223 -0.07212926 0.213131 0.00271131 -0.050092064 0.045470484 -0.18967581 -0.253874
-0.024513034 -0.02996101 -0.39766005 -0.01182874 0.13334411 0.22753797 0.06715608 -0.13196506
0.18877688 0.22114113 0.18292876 0.25465918 -0.21261448 -0.16737583 -0.15734284 0.016394421
0.4525139 -0.12748964 0.030146439 -0.19295168 -0.2201553 -0.13445121 -0.2134275 0.2609309
0.03417658 0.39797288 -0.04922613 -0.026115153 -0.18335007 -0.3682088 -0.1690716 0.02566971
0.08888734 -0.06877084 -0.016291445 -0.010967242 -0.10608721 -0.32446763 0.06958505 0.010868
-0.10508367 -0.06266638 -0.3098748 -0.049881637 0.24885085 -0.5256227 -0.021906653 -0.04369131
-0.39459556 0.116335474 0.0038617582 -0.34837794 -0.15035634 0.15218548 -0.16788466 -0.2108235
0.11024604 0.27464852 0.008484718 -0.16361357 -0.049109418 0.8013549 -0.47511107 -0.15444866
0.17772359 0.046898864 -0.092309594 0.3591674 -0.25655425 0.33401713 0.20361121 -0.36590388
-0.4088308 0.03570472 0.06000892 0.2237676 -0.3416639 -0.2923211 0.2921216 -0.2004514
0.011515356 -0.25639313 0.14150167 0.093906626 -0.17852919 -0.26128578 -0.16004162 0.39014032
-0.15375704 -0.28906786 -0.13672195 -0.23347127 -0.056226403 -0.12991132 -0.01879477 -0.0039135218
-0.07498867 -0.4169143 -0.13987695 0.41469586 0.01690894 -0.25142148 -0.26397142 -0.27283013
0.08916832 -0.111775145 -0.14084393 -0.19055346 -0.23559067 -0.09180225 -0.02291645 0.1107461
-0.20003201 0.13869005 -0.15884857 -0.76337457 0.17415002 0.04283973 -0.2490036 -0.07961634
-0.24806051 -0.12175419 0.040772166 0.36350828 -0.28396988 -0.54769164 0.24834967 0.026463654
-0.10091896 -0.143765 -0.7419377 -0.37545067 0.17010926 0.1630869 -0.15559953 -0.33600977
0.086121656 0.1481613 -0.056617253 0.009039792 -0.35009825 -0.05169184 0.21724775 -0.09300808
-0.035788137 -0.47998008 -0.1541619 -0.00677318 -0.13671926 -0.25934225 -0.19527873 -0.035495207
-0.42286608 0.14630075 -0.28095075 -0.3094386 0.0060618483 -0.22161028 -0.32698616 -0.49663457
-0.010596149 -0.20192833 0.15394036 0.05786663 -0.002964222 0.16370854 0.08813422 -0.06942285
-0.21779107 -0.24499144 0.142 -0.26999503 -0.178687 -0.47825435 0.08687253 0.08612588
0.2503396 0.22772741 -0.13015929 -0.4746706 -0.150223 0.09000105 -0.21436478 -0.41788194
-0.023061283 -0.047397017 -0.01942303 0.42969528 -0.0836222 -0.23909843 -0.030106716 -0.03422695
-0.19263734 -0.16928424 -0.21248156 -0.26017118 -0.22492856 0.17376575 0.04540451 0.008947946
-0.0048531387 0.22049984 -0.1941628 0.039451975 0.26029596 -0.00013953197 0.38868856 -0.38511065
0.30828416 0.17200057 -0.19902715 -0.21035036 0.11259006 -0.13525392 -0.25588772 -0.21535902

fc2.weight f4 [256, 256]
00000000: f405 583d 7e18 973e 4cb4 333e 577a 26be
00000010: e60f 223e bbcc b93d 1bc6 43bd 3db7 ad3c
00000020: 242b 11bf 9684 febe f5a4 dfbe f89d b6bc
00000030: 5000 613c abb9 53bf 8ac7 bd3d 0b4d 78be
00000040: 8c02 35bd d795 5dbf e27f 0dbd a2e7 ba3d
00000050: 5403 51bd bda1 923e 54a9 e53c c6b7 493e
00000060: 5f11 43be 88ec 453e 9848 733d c124 9dbe
00000070: 48c2 aa3c 79af a63d a0fc 983d 5a1f 03be
00000080: 2e9b 063d 651a 973c 089a 793d f976 a0bd
00000090: 4256 c7bc b8a7 8f3c b75c 57bd dc21 98bc
000000a0: 1b11 abbc c0fe 23be 02b6 1ebf a05e 3d3b
000000b0: c778 b5bd 1e6f 893e 0739 b6bd 46ad 693d
000000c0: 0a66 9abc 1128 2c3d 18d2 31bd aa19 0dbf
000000d0: 6e6d 9e3d c6d7 2ebd 198b 393d 8673 8cbd
000000e0: 2e10 47be c05f 063c 00f9 22bb 54a2 fa3e
000000f0: 35c5 3a3d 2f67 333d 4016 7c3c eb0a 05bf
00000100: 3c22 923e c62c 4ebf 0918 d33e 3f7f a5bc
00000110: 8117 c63c 13fa 153e 4bad 233e db8a 453d
00000120: c11c 9bbe c01e 9a3c 2e5a 99be 5a95 80bd
00000130: f7c0 54bf b1dc 9f3e fff0 9cbe a6ac b7bd
00000140: e915 e03e 4260 41be fed8 273f 3304 9cbd
00000150: ea13 62bf 442c 02be 52ca 093d 212b 133e
00000160: e23e dcbe a98f 043d 8e96 433d b496 3fbd
00000170: 746a 5dbd 85ee 59bd db82 b43e e789 283c
00000180: a2d9 5ebd 9931 c7bd 1c33 163e b25d 763d
00000190: bc70 a33c 36f0 3d3d e416 d03d b4f4 06bd
000001a0: 28af 96bc 07c1 443e b2e9 75be 8135 e6be
000001b0: 4bf3 ebbd eaca bdbe 795d 2dbe 58e6 2bbe
000001c0: 1ded a2be 6b05 f7be 0e65 0d3b 1d27 093d
000001d0: fb32 e2bd 88f3 73be 5c3e aebe a06b 343e
000001e0: 7a22 20bf 7b2c 5cbd 48d8 553c fe93 b43e
000001f0: 4d0b 34bf 2cec 77bc dda1 09be c208 f13d
00000200: 69b7 b7be 9d90 3f3e c121 27be 7b3a a53e
00000210: d069 1d3c aaa6 cabe 28f4 443d 059a c7be
00000220: 36ba 403d d6c5 9dbd 3aea 8ebc d815 e23d
00000230: 74ea 8d3d 5025 31be 387c 973c 7ed4 353e
00000240: 828c 403d b15d e5bd bcd1 8d3d 62a6 90bc
00000250: 49b0 443e c27a 19bd ba76 b83d 5fc9 33bd
00000260: 27a5 5d3d 974c 16bf 9c94 aabd 64da b13d
00000270: 7471 be3c 9d98 1fbd e8e1 f0be 2f67 5ebc
00000280: 3665 3fbd 1590 74bd e760 b0be afd0 bd3e
00000290: 1778 f6bc a172 523c e926 53bd 20e3 fcbb
000002a0: 0c70 c1bd 5fa3 6a3d 4e33 5e3e 99a1 0f3e
000002b0: b44e 193f 7c0f 88bc c9e0 743d bc2b 8abe
000002c0: 560d fdbd e6c8 4a3e d549 0cbe 38ba f93d
000002d0: 1344 cbbd 3701 b73e 47b3 70bc e18d 153d
000002e0: 78c8 8d3d ef51 3ebe 0c79 3cbe 6809 f53e
000002f0: 9a60 63be 3f98 f83d 3c3e 223e f823 a1bb
00000300: 8ad7 333e 1e6a 133d 9494 153d 8b3a 1c3d
00000310: c748 2e3e 9bd5 5dbe 8d9e 473e 6c7f 183e
00000320: f7d6 88bd 2a5b 7c3d d0b1 7fbd 6a61 b63c
00000330: d459 0bbe 066c f23e 8ed8 6c3d 0815 503d
00000340: ba62 563e 371a 8fbc 8826 293e 2582 a1be
00000350: e589 503e 28fe 8e3c 90de 6abe 5cd7 50bd
00000360: 418b 813d 39ad 363e acff c0be 62e6 babe
00000370: 3678 be3d d555 0abe 9c37 f43d c066 7c3e
00000380: 6bd6 bd3e 3554 d4bd a412 23bd 4223 32bd
00000390: 0ccb 8a3d a782 2c3d 4437 ccba 97c3 233c
000003a0: 8d89 4cbe 9780 03bc 47b3 a8be 9ca7 073d
000003b0: f71b 85be 29c2 39bd 8975 3c3d 804c 71bc
000003c0: 57c0 333d c191 333d 169c 9e3d c452 293d
000003d0: 8132 8e3e 606d 5fbb da56 e3bd 893c 98bc
000003e0: 3a56 ca3d cf58 ffbb 3a7c 933e 4512 89bd
000003f0: 60e7 813e a221 583c 3903 47bc 40b7 cdbb
0.052740052 0.29510874 0.17549247 -0.16257606 0.15826377 0.09072252 -0.04779635 0.021205539
-0.5670645 -0.4971053 -0.4368054 -0.022292122 0.013732985 -0.8270518 0.09266575 -0.2424814
-0.044191882 -0.8655676 -0.034545787 0.09126212 -0.051028565 0.28639022 0.028034844 0.1969901
-0.19049595 0.19328511 0.059395403 -0.30692104 0.020844594 0.081389375 0.074700594 -0.12804928
0.032862835 0.018445203 0.06093791 -0.07835192 -0.024333123 0.01753603 -0.052578654 -0.018570833
-0.02088218 -0.16015148 -0.6199647 0.0028895512 -0.08860927 0.26842588 -0.08897596 0.057050012
-0.018847484 0.042030398 -0.04341325 -0.55117285 0.07735716 -0.042686246 0.04529867 -0.06857972
-0.19439766 0.0082015395 -0.0024867654 0.48951972 0.045598228 0.043799575 0.015386164 -0.51969784
0.28541744 -0.8053707 0.41229275 -0.020202277 0.02418113 0.14646177 0.15984075 0.048228126
-0.30295375 0.01881349 -0.29951614 -0.062784865 -0.8310694 0.31223062 -0.30652615 -0.08968477
0.43766716 -0.18884376 0.6556548 -0.076179884 -0.88311636 -0.12712198 0.033640213 0.14371921
-0.43016726 0.032363568 0.047751002 -0.04677458 -0.0540566 -0.053205986 0.35256085 0.010286785
-0.05440677 -0.09726257 0.14667934 0.06014795 0.019951217 0.04637166 0.10160616 -0.03294821
-0.018394068 0.19214259 -0.24014929 -0.44962695 -0.11521014 -0.37068874 -0.16930188 -0.16787088
-0.31821528 -0.4824632 0.0021575126 0.033484567 -0.1104488 -0.23823369 -0.3403195 0.1761918
-0.6255261 -0.053753357 0.013052054 0.3526916 -0.70329744 -0.015131991 -0.13440652 0.117692485
-0.35882118 0.1870751 -0.1632147 0.3227118 0.009607747 -0.3958028 0.048084408 -0.38984695
0.047052585 -0.0770375 -0.017445672 0.110393226 0.06929484 -0.1729939 0.01849185 0.1775684
0.047009 -0.11199511 0.06924769 -0.017657463 0.19207872 -0.037470587 0.0900702 -0.043893214
0.05411258 -0.58710617 -0.08329126 0.08684233 0.023247458 -0.038963903 -0.47047353 -0.013574406
-0.04672738 -0.05970772 -0.3444893 0.37073275 -0.03008656 0.0128447125 -0.05155078 -0.007717505
-0.09445199 0.05728471 0.21699259 0.14026488 0.59885716 -0.016608946 0.059784684 -0.26986492
-0.12356059 0.19803199 -0.1370004 0.121937215 -0.099250935 0.35743114 -0.014691181 0.03651226
0.06923002 -0.18585943 -0.1840555 0.4785874 -0.2220482 0.12138414 0.15844053 -0.004917618
0.1756269 0.035989873 0.03651865 0.03814177 0.1701995 -0.21663515 0.19494076 0.14892358
-0.06681626 0.06161038 -0.062425435 0.022263248 -0.13608485 0.4734804 0.05782371 0.050801307
0.20936099 -0.017468555 0.16518605 -0.31544605 0.20365103 0.017455176 -0.22936463 -0.050986633
0.06325389 0.17839517 -0.37695062 -0.36503893 0.09300272 -0.13509305 0.11924669 0.24648571
0.3707765 -0.10367624 -0.0398127 -0.043490656 0.06777009 0.042116787 -0.0015580435 0.009995363
-0.19974346 -0.008026264 -0.32949278 0.03311883 -0.25997898 -0.04535118 0.046010528 -0.014727712
0.0438846 0.043840174 0.07744615 0.041338697 0.27772906 -0.0034092292 -0.1110055 -0.018583553
0.09879728 -0.007792569 0.28805715 -0.06692938 0.25371838 0.013191612 -0.012146764 -0.0062779486

fc2.bias f4 [256]
00000000: 3d29 9b3c 34a7 063e f943 bf3c 6813 753c
00000010: 03f1 0e3f 4b52 3ebe b216 483e d9f8 333e
00000020: b8b0 00bd 841c e53c 53c0 17be 4b59 2dbe
00000030: 4f8d d9be 04f9 e0be c7da b9bd ff9a b9bd
00000040: 44d7 8ebe eb7a 05bd 4bda aa3e 4c54 f13d
00000050: 1110 183c 1edd bebb e0fe 5cbc 3bbd b1bd
00000060: aa1f f1bb 04c5 73be 18a2 f6bd 655c e7bd
00000070: 4eb6 d83d 9499 05be 6764 a3bd a15b b4bd
00000080: 984c c7be 4cb5 60bb 5038 23bd fd87 d8be
00000090: 761b cfbc ad2d 02ba c066 96be 5d87 cdbe
000000a0: f4b0 b6bc 4aa3 903e b214 a83d cff6 abbd
000000b0: 28f0 bebd 1ead fdbd a889 28bc fb82 03be
000000c0: fb21 403c 2645 f0bc 645e 433e a3e1 58be
000000d0: fab6 e5bc 4d97 b5bc 99b7 62bd 9972 92bd
000000e0: d0b9 0abe 61bf 03bf 4d4b e4bd b936 183c
000000f0: f8cc 883b 5c16 933e 3311 20bc 28e7 493b
00000100: 6de0 0b3d 7729 6cbc 2312 fcbc f8d8 fd3d
00000110: c224 9abe 3192 01be 279f c4bd a7f2 3bbe
00000120: b68a a2be ecc5 07bd e58d bebe 970e 1bbd
00000130: e87a f83c bb7d b53b b347 1ebc 1368 d5bc
00000140: b46c a2bd f6f3 66be 3ddd b0be 1c9e 05bd
00000150: 7e2a fe3d 8b43 8bbe a1bc a5bc b8fb c93d
00000160: faf0 fbbe c064 f0bd 2ebd 72bd b6b6 5fbd
00000170: 3270 f43b c1e2 0abf 3e68 17bd 71a8 243d
00000180: 9cf8 14be fde9 85be f4f5 c4bc 495d 2ebc
00000190: 5bb1 43bc 1d2e f0bc a97b a9bd c613 3d3e
000001a0: 9783 a3bd 031f 1bbe 20a4 103d 384e 9fbd
000001b0: 1e4b 0ebf 6a54 51bd d62c 53bd bf46 053e
000001c0: 2954 d0bd 65e1 13be 80b6 bcbd bc53 bfbb
000001d0: 3e2f 73bd bf6c a5bd e0f7 363b e5cd 25bb
000001e0: 35e0 8cbd 20b2 033e e41a 3f3c ae77 06be
000001f0: d28f 96bc ee31 0cbe a55e 5abd a157 b93d
00000200: 42af 03be 5086 9bbd c141 a8be a94f e2bd
00000210: c1d5 93bd 0026 c1bd ac6d bb3e fc7e 7c3e
00000220: 1a1c 18be b945 c43c 2acb afbd ef4b 3abc
00000230: 2b81 3ebd d665 1e3d 9cf5 46bc d773 e2bc
00000240: 7392 c2bc f069 233d 9f28 55bd 31d4 623d
00000250: eeb5 9cbd 4a07 96be d40d ea3e 1726 a8be
00000260: 9adf 98bd 9bdb 26bd 324c 4bbd 1478 a63b
00000270: a8d5 c2bd a23b cc3b f6e7 7abe 3693 bbbd
00000280: d0a0 adbe cdd3 0cbf 227d 1d3b 4883 6ebd
00000290: 7ead cdbc ae5f 88bd 023d 27be 217a f9bc
000002a0: c6da 5cbc dca0 533e 15d7 78bd 7c88 7ebd
000002b0: f5bc 29bd da7e b9be e113 85bd 1793 a9be
000002c0: cde5 0a3c 6c6f 96bd 3840 e3bc 09b0 ad3d
000002d0: d581 e4bd 3a51 90be 1366 30be 5b84 13be
000002e0: ec9d 91bc da5d 0fbb be3e 013c 4eb4 c03c
000002f0: dcaf d63d bd6d 65bd 64a0 57bd 61ce 55bc
00000300: 4ce3 db3c 69af 06bd 3de3 033e 68d1 aabd
00000310: 6a81 a13d c6ac b2be 6b40 fa3b 12ab 5cbd
00000320: b27f 5d3c 04c8 e6be 7356 8fbd 948d 693c
00000330: 8cdd 24bb eae7 043d f0dd dabd 1ac1 9c3d
00000340: 5446 48bc 301d 9d3b ac02 16bf 4e77 f9bc
00000350: d1da 283e c311 6bbd adea be3c 7268 95be
00000360: 596c 093e 19b3 633d a428 8abd c473 cbbb
00000370: a776 1dbf 0553 99bd 351c b63d a9b8 24be
00000380: 9a30 3dbe 00d1 b7bd 773b 093c 8a2a 61be
00000390: 8c98 f53d 0933 93bd 0211 e5bc aeba e23d
000003a0: 4ef2 3e3e b3ca 143e 962d 8bbd c1e5 dbbd
000003b0: feba 103d 5c46 c73d 71bb d5be 5c48 7abd
000003c0: 8af8 52be 4d37 4ebc 50b7 373b cee6 84be
000003d0: e1d7 20be daca acbd e10b b43c 520d dabd
000003e0: ba7e f43a 34e9 45be ed75 b2bd 5d05 063b
000003f0: 1eed d03d 0724 aabd 55cd adbe f8a4 a9be
0.018940562 0.1314972 0.023347842 0.01495824 0.55836505 -0.1858608 0.19539908 0.17575397
-0.031418532 0.027967699 -0.1481946 -0.16928594 -0.42490622 -0.43939984 -0.090749316 -0.09062766
-0.2789861 -0.032587927 0.3336967 0.117836565 0.009281174 -0.005824699 -0.013488501 -0.08678671
-0.007358511 -0.23805624 -0.12042636 -0.1129692 0.10581647 -0.13046867 -0.079781346 -0.08806539
-0.38925624 -0.003428775 -0.039848626 -0.4229125 -0.02528165 -0.00049659127 -0.29375267 -0.40142336
-0.022301175 0.2824958 0.08207072 -0.083966844 -0.0932315 -0.12386535 -0.010286726 -0.12842934
0.011726852 -0.029329848 0.19078976 -0.21179824 -0.028041352 -0.022166872 -0.055350874 -0.07150764
-0.13547444 -0.51463896 -0.11147175 0.009290391 0.004174825 0.28727996 -0.009769726 0.0030807946
0.034149576 -0.014414183 -0.030770367 0.12394899 -0.3010617 -0.12653424 -0.096006684 -0.18354283
-0.31746453 -0.033147737 -0.37217632 -0.03785571 0.030332044 0.00553867 -0.009660649 -0.026050603
-0.0793089 -0.22554001 -0.3454379 -0.032621488 0.124104485 -0.2719997 -0.020231547 0.09862465
-0.49207288 -0.117379665 -0.059262447 -0.054617606 0.007459664 -0.5425225 -0.036964647 0.0401997
-0.14547962 -0.2615508 -0.02404306 -0.010642358 -0.01194414 -0.029318864 -0.082755394 0.18464574
-0.07984083 -0.15148549 0.03531277 -0.07778591 -0.5558337 -0.051105894 -0.05155643 0.13015269
-0.10172302 -0.1444145 -0.092144966 -0.0058388393 -0.059371226 -0.08077382 0.002791874 -0.0025299725
-0.068787016 0.12860918 0.011664126 -0.13131592 -0.018379126 -0.13690922 -0.053312916 0.09049917
-0.12859824 -0.075939775 -0.32862666 -0.1105035 -0.07218505 -0.09431076 0.3660711 0.24657816
-0.1485447 0.023959028 -0.08583672 -0.011370643 -0.046509903 0.038671337 -0.012143519 -0.027643127
-0.023751473 0.03989595 -0.052040692 0.055378143 -0.07651888 -0.29302436 0.45713675 -0.3284156
-0.074645236 -0.040736776 -0.049633212 0.0050802324 -0.09513408 0.0062326947 -0.24502549 -0.09158938
-0.33911753 -0.5501068 0.0024030884 -0.05823067 -0.025107142 -0.066588745 -0.16331866 -0.030453743
-0.013479894 0.20666832 -0.060751993 -0.06214188 -0.04143997 -0.36229593 -0.06497932 -0.33120033
0.00847764 -0.07345471 -0.027740583 0.08480842 -0.11157576 -0.2818697 -0.17226438 -0.14405958
-0.017775498 -0.0021876008 0.007888494 0.023523476 0.10482761 -0.056012858 -0.052643195 -0.013049693
0.026841782 -0.032882128 0.12879653 -0.08340722 0.07886012 -0.3489744 0.0076370738 -0.053874083
0.0135192145 -0.45074475 -0.06998911 0.014254946 -0.0025156466 0.032447733 -0.106868625 0.07654019
-0.012223799 0.004794739 -0.58597827 -0.030452397 0.16489722 -0.057389986 0.023305262 -0.29181248
0.13420238 0.055590723 -0.06746033 -0.0062088687 -0.61509174 -0.07486538 0.08892099 -0.16086067
-0.18475571 -0.089754105 0.008375994 -0.21988884 0.11991987 -0.071874686 -0.027962212 0.110707626
0.1864712 0.14530449 -0.06795804 -0.107371815 0.03533458 0.09730217 -0.4174457 -0.061104164
-0.20602623 -0.012586427 0.0028032847 -0.2595734 -0.15707351 -0.08437128 0.02197832 -0.10647072
0.001865349 -0.19327241 -0.08713899 0.0020449974 0.102014765 -0.08307653 -0.33945718 -0.33133674

fc3.weight f4 [3, 256]
00000000: 4553 bcbe df1e 99be 9c60 653b 60ca 42be
00000010: afbb ecbd 52a8 dbbe 9f19 46bf 319a 38be
00000020: 3e0d 253c 0ed4 323c e61d 183e a9aa bcbe
00000030: 5a97 073e 077d 73be 03e4 b1bb 490a 13be
00000040: 5c8b c1be 7c49 68bc eb27 d33c 25a5 4bbf
00000050: 5180 53bf 0fa3 5e3b 978e 11bf 50f3 22bc
00000060: 5259 08bc 075a b43f bb34 b43e 29c7 d0be
00000070: cdfc 5fbc 7e47 593e df6a 0a3c 08cf 5c3b
00000080: aa03 503e e0e6 00be d552 dc39 87f7 8ebe
00000090: c52a bfbb b30f 7e3a 1bfc 9dbe 6a04 d5be
000000a0: 9530 2a3c abf5 04bc ce38 013e 0d6d e13e
000000b0: 45d4 01bf 887b ebbe 7faf e1bb 7308 063c
000000c0: 8fb1 36bc 99df 0fbc 87c2 fcbe d7ba ddbe
000000d0: 5f63 a6be 5432 0a3c f37a 86bd 8a41 b73b
000000e0: 9b98 d03e f795 933e 023c ce3b 787f c0bb
000000f0: b999 8b3b f475 13be 101e 05bf 06c5 22bb
00000100: e874 86bf 9649 02bc 08fa 203e 4a60 523d
00000110: 5196 6fbe 0ca8 c13e 1619 8e3e 66e3 193f
00000120: 87b7 8c3d 11b5 1abf 601d 4abe de18 2fbd
00000130: 6118 903e 84e2 e2be 88aa 43b9 9a49 73ba
00000140: 5d6b 5c3b b4d1 f33e d76f dc3d 7ba2 3e3a
00000150: 455f 153f 08d1 c23e d227 1f3f db57 75be
00000160: 7c03 e0bd 6d49 d0bc 774a 15bb 39b1 583b
00000170: 4d34 36be 9be7 223f 0fc2 c63b 5f3c af3e
00000180: c913 9ebe e794 0e3f 141b f83c ed4b 04bf
00000190: d9e0 603b 3487 603e cfed 973e fdae 1cbe
000001a0: 6de8 c53d ff30 bebe f6dd 4abe c9cc 64bc
000001b0: 456a 133d 3a23 773a 3e01 3c3a b674 0cbf
000001c0: 5f51 123f 71fb 063f c82b dc3a f34d 0b3b
000001d0: 8257 4dbc b1b5 3a3b ac9e c6bb 99f2 64bc
000001e0: 51a6 bb3b 1fe9 aabe 03f3 443d 5ebd 00bf
000001f0: dc00 bdbe e5b5 043f 912f c7bc fa35 24bf
00000200: 4068 f13e 3938 c5bc 25e2 a23e 2e4b 10bc
00000210: e90c f1b8 3ead 38bf b531 7fbe d55a d63e
00000220: c75e 4ebe 18a0 223d 9c73 b6bb 2ef9 a5be
00000230: 2f58 1d3c 4eb5 23bc 1dc8 44be 1869 08b9
00000240: 17e3 feb9 fc66 bdbc 7f37 2c3b 95d6 dcbd
00000250: f4a6 ebbc 8446 efbe fb5d 113e 1acd 13bf
00000260: 98ec 24ba 06a5 d4be b0b2 903e ea3c f6bb
00000270: 0379 97bb 9ec1 86bb c2b4 79be ed2e 1bbe
00000280: c672 79bf e670 3dbd 9012 f33c f2ff d7bb
00000290: 0ed0 ad3e fd37 3dba 4a10 8b3e aa18 193e
000002a0: 61aa febe c23f 993d d2a8 853e cbfd 96b9
000002b0: 995f 3fbf cfdd 083e 0d48 953e 44b9 18be
000002c0: f784 2eba b74a 00be 2b2d ba3b adb8 83bf
000002d0: fdce f63e 4b65 87bf 1fb3 a9be a99e 84bf
000002e0: 55d7 adba 305c 11bc 16ac cfbb cb35 e13c
000002f0: 1fee 1a3f a376 5d3f 3ef6 dfbe 85c8 98bb
00000300: d04d 2f3b b132 02bf 02fe 5b39 0fa2 38bc
00000310: d7c2 29be d17d 083f ce9e 6abf dd24 0abe
00000320: 0bbc 6c3b 7e9a 5abf eaec e4bc 0e38 65ba
00000330: 6bc7 5dbf f670 6dbe deaf b7bd 20a8 d3be
00000340: 17cd 4a3f 2a62 093c ebfa 093f c968 99bc
00000350: 01bc 713e 7345 a5bb 4959 3bbb 1656 aa3e
00000360: 0141 373f 7630 043f be63 4dbb 740c 94bc
00000370: e3d8 cebe 0835 9ebb e402 e5be 6aba 90bd
00000380: 4557 66be 76e1 cd3d 59b1 bebb 2938 013f
00000390: 04b2 b2be 63a8 9bbe b764 bebe 4686 9cbe
000003a0: a7e8 afbd c603 da3d 98a7 293f c708 58bc
000003b0: 0657 4d3c a7cf b7be 6217 e33e a2f6 12bd
000003c0: 0624 823e 4eef 52bc c602 0a3e eb9a 303e
000003d0: 2657 00bf 0a7e eebb f133 2e3c c254 fdbe
000003e0: e3f1 6fbc 5172 08bf d0a7 953e ed53 fcbd
000003f0: 5dd6 a23e e1b1 2b3b 3b11 f03e e667 013f
-0.3678228 -0.29906365 0.003500021 -0.19022512 -0.11559235 -0.42901856 -0.77382845 -0.1802757
0.010073958 0.010914816 0.14855155 -0.36848953 0.1324133 -0.23778163 -0.0054287924 -0.14359392
-0.37801635 -0.014177676 0.02577587 -0.79548866 -0.8261767 0.0033971702 -0.568582 -0.0099457055
-0.008322077 1.4089974 0.3519648 -0.40776947 -0.013671112 0.21218678 0.008448332 0.0033692736
0.20313898 -0.12588072 0.00042023385 -0.27923223 -0.005833956 0.00096916704 -0.30856404 -0.4160493
0.010387559 -0.008115212 0.12619326 0.44028512 -0.5071452 -0.45992684 -0.006887376 0.008180725
-0.011150732 -0.008781337 -0.49367163 -0.4330661 -0.3249769 0.008434851 -0.065664195 0.0055925297
0.4074143 0.28825352 0.0062937746 -0.0058745705 0.0042602685 -0.14400464 -0.51998997 -0.0024836673
-1.0504427 -0.007952115 0.1572038 0.05136136 -0.23397185 0.37823522 0.27753514 0.6011261
0.068709426 -0.60432535 -0.19737768 -0.042748325 0.281436 -0.44313443 -0.00018660177 -0.0009280682
0.003363333 0.47620928 0.10763519 0.0007272136 0.58348495 0.38050103 0.62170136 -0.23959295
-0.109381646 -0.025425637 -0.002277998 0.0033064617 -0.17793389 0.6363465 0.006065614 0.34225747
-0.3087447 0.55695957 0.03028635 -0.51678354 0.0034313707 0.21926576 0.2967362 -0.15301128
0.09663472 -0.37146756 -0.19811234 -0.01396484 0.03599002 0.00094275514 0.0007171816 -0.54865587
0.5715541 0.5272742 0.0016797716 0.0021256178 -0.0125330705 0.0028489644 -0.0060613956 -0.013973855
0.0057266136 -0.33380982 0.048083317 -0.5028895 -0.36914718 0.5184005 -0.024314674 -0.6414486
0.4714985 -0.02407466 0.3181316 -0.008806987 -0.0001149418 -0.72139347 -0.24921305 0.41866174
-0.20153342 0.03970346 -0.005567981 -0.32416672 0.009603544 -0.009991957 -0.19216962 -0.00013009121
-0.0004861585 -0.023120396 0.0026278195 -0.10783116 -0.028766133 -0.46733487 0.14196007 -0.57734835
-0.0006291359 -0.41532153 0.28261328 -0.0075145857 -0.00462258 -0.0041124364 -0.2438536 -0.1515462
-0.97440755 -0.046250246 0.029671937 -0.0065917904 0.33947796 -0.0007218121 0.27160865 0.14950815
-0.49739364 0.07482864 0.26105362 -0.0002879932 -0.74755245 0.13365863 0.29156533 -0.14914423
-0.00066573865 -0.12528501 0.005681654 -1.0290734 0.48204795 -1.0577787 -0.3314447 -1.0360919
-0.0013263026 -0.008872077 -0.006337653 0.02749147 0.60519594 0.8650915 -0.43742555 -0.0046625757
0.002674926 -0.508586 0.00020980093 -0.0112691065 -0.16578232 0.5331698 -0.91648567 -0.13490625
0.0036122825 -0.85391986 -0.027945 -0.00087440095 -0.8663241 -0.23187622 -0.08969091 -0.41339207
0.7921919 0.008385221 0.53898495 -0.018726723 0.23606874 -0.0050436794 -0.0028587154 0.33268803
0.71583563 0.51636446 -0.0031339969 -0.018072344 -0.40399846 -0.004828099 -0.44728768 -0.07066806
-0.22494228 0.10052769 -0.0058194813 0.5047632 -0.3490144 -0.30401906 -0.37186214 -0.30571193
-0.08589297 0.10645251 0.6627135 -0.013185686 0.012532955 -0.35900614 0.44353777 -0.03587974
0.2541811 -0.0128744375 0.1347762 0.17246597 -0.5013298 -0.0072782086 0.010632501 -0.49478728
-0.014645073 -0.53299433 0.29229593 -0.12320695 0.3180417 0.0026198553 0.46888146 0.5054916

fc3.bias f4 [3]
00000000: 5253 90be fe55 543e edda cb3d
-0.28188568 0.20735928 0.09953866
