runs/checkpoint_critic_128_2016_2019_tau1_80.pth (torch, 356559 bytes, 7 tensors)

head.weight f4 [256, 22]
00000000: b874 58be e538 2cbe 7204 bbbd 518c 4ebe
00000010: 804e 46bc 9311 40be 9069 ed3d bcd0 d43d
00000020: 10e9 243d 105a 293e 300d abbc a4c4 023e
00000030: 4ae4 18be b416 2cbd 78a9 42be 00cd 8dbc
00000040: 62a4 0dbe 0621 443e c8a6 173e e6ac 233e
00000050: dc83 813d f317 f9bd 0473 903d bac7 0bbe
00000060: e9d6 1bbe c7dd 33be 24be b43f c3c0 3540
00000070: ff2d 30bf 9cc8 0fbf dc79 3ebf 7964 04be
00000080: 916f a8bd d6bc 93be 3580 e2bd c04b 3abe
00000090: 23e8 51bd 6c1f 36be 5c52 dd3c 96e0 a43e
000000a0: 62fb 653e e810 bebd 1795 8cbf a67b 2dc0
000000b0: 0dd5 0f3d 4223 393c 98bc 42be 3961 a43c
000000c0: a806 b5be d8d6 cc3f a86b 45bf 9ea8 05be
000000d0: 9222 e43d 3f4d 4c3f a23b 253c 5385 85bc
000000e0: f5c6 10be a8b3 e83d 57cc ce3d 8c51 eabd
000000f0: 89f1 ad3d af09 bf3d 179e 0dbf 4e0d 00be
00000100: 15f4 51bd 2d0a 51bf 7372 9a3c 234b 24be
00000110: 0bf2 4b3e 503e 893d afb9 8bbf 18fd 3fbf
00000120: 587f 943e adc0 38bf a38c 71be 6514 89be
00000130: f7a9 333d a6ed 8f3e 4dae e03d 070a 0e3e
00000140: be92 82be 2e78 51be 2408 20be 0929 babe
00000150: c199 ba3c 74ea 1bbd 42de f9bb 4c47 0cbd
00000160: dc9f 2cbd b28e 23bd bbee 8fbd b883 973d
00000170: dfd0 873e a87d 5fbe 2be5 84be 331b 433e
00000180: bc82 b93f aae0 5a3f 8506 5fbd d8c3 f7bd
00000190: c2ec 9d3d dcde 803e b33a 943d 352b 4bbe
000001a0: fd18 cfbe fd23 27bf 9abc 5a3e e778 2b3f
000001b0: 7ea3 c7be dcde 95bd 775d 4c3d b04b 433c
000001c0: cb92 9fbd 4936 1abe 1c60 7fbf 08ff e73e
000001d0: 03eb 2a3f 0448 56bf ad95 8abf 04e5 a5be
000001e0: 2473 44bc 1b1e 98be 5f49 6ebe f6e4 e6ba
000001f0: 6e0d c9be 3ff6 fbbc 1204 063e 2ab8 a13c
00000200: e0b3 6bbe 4611 7f3e 7771 013f 3962 c2be
00000210: 7eaf cc3c 2669 14bd 4d56 33be 1e18 773d
00000220: 7e51 533e 0db4 663e cb55 5f3f af52 92bf
00000230: ca29 b9be 8c46 1e3e 133f 22be 5499 bdbb
00000240: 63db 98bc a26e c5b9 a4ba 943c 367b bfbd
00000250: fe8d 953e bb92 103f 3b2c 3bbe 5380 37be
00000260: fb9c 24bf 9f82 ef3f 7662 e33c 925b 4bbe
00000270: cfa7 303e b55c a83d b1ad 0e3f 6aa9 0e3f
00000280: f6ce 243f 9637 83bf 1f5a 38bd 057c d53e
00000290: 9403 efbe ba0f 87be f4ca a83c 5468 cb3c
000002a0: 8dbd 96bd 7ec7 803d 0dcd 033f e575 8d3e
000002b0: 8e59 45be 5a27 82bf e8fa 6bbf 2082 ca3f
000002c0: 064c d1bc d596 243e fdcb 103e ca2d 03be
000002d0: 0f35 043f 26e8 023f a0ce 9c3f 755f 21bf
000002e0: 00dc afbf bfa3 77bf f4a3 df3d 1f3c 803d
000002f0: 6d02 10be be76 123d 8cd9 3b3e d635 25be
00000300: f255 87be b6eb 47bc daa2 3d3e 6bf4 fd3f
00000310: 462b 383f 96ef 14bf 07fb 53bd 230d 453e
00000320: 2ed3 59be db82 0c3e b5f9 af3e f270 d33e
00000330: 688d 0f3e e03b 86bf dcdf 78be ea35 37bf
00000340: a5b9 483e 450d 89be f528 46be c4db 7d3d
00000350: 4167 923e 2dd0 373d 8588 14be 94d3 1f3e
00000360: 1e03 08bf 82fc 4d3e ad39 fd3f 9aa9 b03e
00000370: 78f7 dabd 7c2f 96be d7a1 00bd bef6 323e
00000380: e210 00be 565d ed3e 1dde a63f fbfe adbd
00000390: 3351 aabf cf71 afbe 7433 d6bc cec5 cb3d
000003a0: ab32 753e d6c1 733e 354c efbc 4298 9c3e
000003b0: 752b e0be 82c2 dcbd 06af 57be bfc2 0bc0
000003c0: f392 50c0 a93a 07c0 24b4 85bd b134 05bd
000003d0: ab4c c63c 591b a03d f861 6cbf e001 863d
000003e0: d0f6 71bd f1ec 7fbe 0ef4 adbf 59e9 da3c
000003f0: b58f 613e a174 90be 4a3a fa3c 0bb3 d5bd
-0.21138275 -0.16818579 -0.09131707 -0.20170714 -0.012103677 -0.18756704 0.115924 0.103913754
0.04026133 0.16538262 -0.020880312 0.12770325 -0.14930835 -0.04201384 -0.1900996 -0.017309666
-0.13832238 0.19153222 0.14809716 0.15983924 0.06323978 -0.12162771 0.070531875 -0.13650408
-0.152187 -0.1756507 1.4120526 2.8398902 -0.68820184 -0.5616548 -0.7440469 -0.12928952
-0.082244046 -0.28855008 -0.1105961 -0.18192959 -0.051246773 -0.17785424 0.027016811 0.32202595
0.22459176 -0.09280568 -1.0982999 -2.710672 0.03511529 0.01129991 -0.19017255 0.02006589
-0.3535664 1.6003065 -0.77117395 -0.13052604 0.11139406 0.7980537 0.010085018 -0.016298926
-0.14138396 0.11362392 0.100975685 -0.11441335 0.08493335 0.09328019 -0.5531935 -0.12505075
-0.051258165 -0.8165615 0.018853402 -0.16044287 0.19916551 0.06701338 -1.0916041 -0.74995565
0.29003406 -0.72169 -0.23588805 -0.26773372 0.043863263 0.28111 0.10970745 0.13871013
-0.2550258 -0.20456001 -0.15628105 -0.36359432 0.022778394 -0.03806539 -0.007625372 -0.03424768
-0.04214464 -0.039931007 -0.07027956 0.0739817 0.26526543 -0.21825278 -0.2595609 0.19053344
1.4493022 0.8549906 -0.054449577 -0.12097901 0.077111736 0.25170028 0.072377585 -0.19840701
-0.40448752 -0.6528929 0.21361008 0.6698136 -0.38991922 -0.07317898 0.049893823 0.011919901
-0.077916704 -0.1505977 -0.99756026 0.4531176 0.6676485 -0.8370364 -1.0826927 -0.32401288
-0.011990342 -0.2971047 -0.23270176 -0.0017615843 -0.3926806 -0.030757068 0.1308749 0.019741137
-0.23017836 0.24908933 0.5056376 -0.37965563 0.024986025 -0.03623309 -0.1751339 0.060325734
0.20636556 0.22529621 0.87240285 -1.1431483 -0.36164695 0.15456599 -0.15844373 -0.0057861004
-0.0186593 -0.00037657196 0.018155403 -0.093496725 0.29209894 0.5647389 -0.18278591 -0.17920046
-0.64302033 1.8711737 0.02775691 -0.1985915 0.17251514 0.082208075 0.5573378 0.55727255
0.643783 -1.0251338 -0.04500782 0.41696182 -0.46682417 -0.26379186 0.020604588 0.024830021
-0.07360373 0.0628805 0.5148476 0.2762901 -0.19272444 -1.0168259 -0.9217973 1.5820961
-0.025548946 0.16073163 0.14140315 -0.12810436 0.5164346 0.5113548 1.2250557 -0.6303628
-1.3739014 -0.9673423 0.109199435 0.06261467 -0.14063425 0.035757773 0.18344706 -0.16133818
-0.2643276 -0.012202194 0.18519154 1.9840215 0.7194103 -0.5817808 -0.05175307 0.19243293
-0.21271965 0.13721792 0.343702 0.41297108 0.14018786 -1.0487022 -0.24304146 -0.7156664
0.19602068 -0.26767936 -0.19351561 0.061977163 0.285944 0.044876266 -0.14505203 0.15608054
-0.53129756 0.20115855 1.9783226 0.34504396 -0.10691732 -0.29333103 -0.031404343 0.17476937
-0.1250644 0.46360272 1.3036534 -0.08495899 -1.330603 -0.34266517 -0.026147582 0.099498376
0.2394511 0.23804411 -0.029211143 0.30584913 -0.43783155 -0.10779287 -0.2106286 -2.1837614
-3.258969 -2.1129553 -0.065285 -0.032520954 0.02420648 0.07817716 -0.9233699 0.065433264
-0.05907327 -0.2499273 -1.3590105 0.026722597 0.22027476 -0.2821398 0.030545373 -0.1043454

head.bias f4 [256]
00000000: 002f 463e 21d6 58be c881 a9be 3784 b43e
00000010: 5930 c73a c1e2 ee3d bf4e 04be 87b7 d8be
00000020: feee 04be 2ac5 32be 2977 113e d76c 3dbe
00000030: f615 713d 68d4 76be f39c ecbe 80a4 4ebe
00000040: 3c28 b13d 23dc 083e ea73 893e 6dfd 9dbe
00000050: 98ac 983d adb1 3c3e ec6b 9dbe abaf fcbb
00000060: ba0e 0c3e a87e 5abe 70ed f23d fe04 ccbe
00000070: 47e3 243e 1195 23bd 70f2 44be f509 94be
00000080: 04da 9cbd bdd4 47be 51c1 cebe d847 7d3e
00000090: 0dee 59be bd63 0dbe 9291 853e e05f 053f
000000a0: 47c8 d2be bbf4 4bbe a1e2 d2bd 2008 e4be
000000b0: de39 00bf 750e 223d 4f1a bf3e f0cb c0be
000000c0: 8468 fa3b 272c 943d 916d 9cbe 34ea 063e
000000d0: 11e1 cd3e 014d 503e 2fd4 8a3e 1cb6 d23a
000000e0: 22e6 2f3e e9f0 7cbd 9a56 abbe bb50 6ebe
000000f0: 24f9 c43e 5f3a a3bd a7ee 163e e24d 7cbe
00000100: f3e2 a8be e923 0c3c 0b0e bfbd 06c5 973c
00000110: f4b5 b3bd deea 53bd 868a a0be 99ac 28be
00000120: 1d7d f0be d18d c33d 77b6 6abd 093f 01bf
00000130: 1a24 183e ac6a 2f3e 5311 efbe 7162 a6be
00000140: 7e6e 413e 14ea 1d3e a6b3 c53e 8ce8 01bf
00000150: 9eb1 5dbe 0d96 2c3e 01e1 bc3e 7bf2 84bd
00000160: d261 63bc 0b96 21be 731a 333e 58b2 87be
00000170: 88c8 34bd 3550 18be 64db 9d3d fa51 21be
00000180: edaf 9f3e c20d 9a3e bc6c 01be 7857 02bf
00000190: 8020 0fbe d255 62be 2297 f5be c6d9 b5be
000001a0: 6665 ee3e 55b1 d1bc ba52 f5be ad2c 03bf
000001b0: f1ae 9a3d b985 913e fab0 dc3e eebb b3bd
000001c0: 54a0 33be d18d a3be a54a acbe 6e18 82bd
000001d0: a199 30be fcb8 b9be 4233 ca3e d7d5 25be
000001e0: e386 e7be 5553 f83c cc68 0dbe 2c16 43be
000001f0: 7526 efbd 52e3 87be 558e be3d 9d8e 163e
00000200: 9656 01be 820d 85be 5600 2bbe 34b2 57bd
00000210: c079 92bb a36b 9a3e 6434 54be 03f5 1f3e
00000220: ba32 743e 80f6 b7be 56de c23d e7f1 ccbd
00000230: 49e0 183d c3dd 9dbd 572d 4bbe fa02 8ebe
00000240: 944d 843e f677 77be ee6f 193e 3005 cd3c
00000250: 2ebf db3d 0011 06be d491 81bd 9652 7f3e
00000260: 04f2 56be 5b1f 39be 48b3 9dbe 5d68 653c
00000270: 0889 ebbe 850c 6abe 665f 17be c734 a8be
00000280: 022b 663e db2b 34be df53 b7be a496 2d3e
00000290: 2b46 43bc 0bd1 543e cf32 253e 053b 803e
000002a0: c19e d0bd f81e 67be da14 61be 41ec 2ebe
000002b0: 2f50 383e a454 08be 7e6f e43c 10f3 1fbb
000002c0: 48a9 0a3d f792 e3bd 9434 11bf ded8 543e
000002d0: 65b6 6d3d e799 9bbe c0a8 db3d 0d9e 053e
000002e0: 0499 c8bd def7 923e 5efd 68be 6682 0f3d
000002f0: 8e67 17bb ced4 8cbe e1ad ac3d a4bd 8dbd
00000300: c078 4d3c 4aae b13e 7b83 93be 16b4 edbe
00000310: 1cfb eabd b011 fabd 2071 d5bd b465 41be
00000320: 7857 9a3c f068 1ebe 0f5a c2bc 0f25 2e3e
00000330: 590d e83d 92a4 853e 99a7 51be 51d1 49bd
00000340: 5045 26bc 5571 04be 9c9e 47bc ab23 d7be
00000350: 6a89 8c3e e701 4e3e e845 9e3e 7ad3 953e
00000360: 75ef 27ba 66eb 063e 5833 04be 5e75 85be
00000370: b33f 57be c664 913e 105f 09bd 6008 623c
00000380: e55e 69bc 97f6 d9be 5e62 f4bb bdfd 09bd
00000390: 6b53 243e 62bb debd 15ee 12bc 41a5 853d
000003a0: 2167 54be 1dc6 863e 5c53 8cbe 12f9 bb3b
000003b0: b99a e8be ef73 87ba 787b 15be f338 cabd
000003c0: 0c78 063d 3f00 b4be 1964 9c3d 6609 47bd
000003d0: ad21 71be 6d3a 8f3c 7b00 273e ef8e ce3d
000003e0: 8fe6 85be 0b50 363e ada2 9a3c 81b6 133e
000003f0: 7bad 64be 21a4 3abe a12c 26bd ba9d 65be
0.19353867 -0.21175434 -0.33106828 0.35257122 0.0015196904 0.116643436 -0.12920664 -0.4232752
-0.12981793 -0.17458025 0.14205612 -0.1849855 0.058858834 -0.24104464 -0.46213493 -0.2017994
0.08650252 0.13365225 0.26846248 -0.3085741 0.07454795 0.18427153 -0.307464 -0.007711371
0.13677493 -0.21337378 0.11861694 -0.3984756 0.16102324 -0.039937083 -0.19233108 -0.28913847
-0.07658771 -0.19514747 -0.40381864 0.24734437 -0.21282215 -0.13807578 0.26087624 0.5209942
-0.41168424 -0.19917576 -0.10297132 -0.4453745 -0.500883 0.03956457 0.3732476 -0.37655592
0.0076418538 0.07234984 -0.30552343 0.13175279 0.40210775 0.20341875 0.27115008 0.0016076001
0.17177632 -0.061753187 -0.3346451 -0.23272984 0.3847133 -0.07970118 0.14739476 -0.24639085
-0.3298565 0.0085534835 -0.0932885 0.018526565 -0.08774939 -0.05173766 -0.31355685 -0.16472091
-0.46970454 0.09548534 -0.05730292 -0.5048681 0.14857522 0.17130536 -0.46692905 -0.3249698
0.18889806 0.15421325 0.38613623 -0.50745463 -0.21649787 0.16854115 0.36890414 -0.06491562
-0.013878303 -0.15779893 0.17490558 -0.26503253 -0.044136554 -0.14874347 0.07707861 -0.15753928
0.31188908 0.3008862 -0.12639135 -0.50914717 -0.13977242 -0.2210305 -0.47966868 -0.3551771
0.46561736 -0.025597254 -0.47914678 -0.51240045 0.07552899 0.28422335 0.43103772 -0.08776079
-0.17541629 -0.31944135 -0.336507 -0.06352316 -0.17246105 -0.36273944 0.39492232 -0.16194855
-0.45220098 0.030313173 -0.13809508 -0.19051427 -0.11677257 -0.2654062 0.093044914 0.1470284
-0.12630686 -0.25986868 -0.16699347 -0.052660182 -0.00447008 0.30160245 -0.2072311 0.15620808
0.23847476 -0.35930252 0.095150635 -0.10007077 0.03732327 -0.07708313 -0.19841515 -0.27736646
0.25840437 -0.24166855 0.14984104 0.025026888 0.10729824 -0.13092422 -0.06326643 0.24933848
-0.20990759 -0.18078367 -0.30800843 0.014001933 -0.46002984 -0.22856338 -0.14782485 -0.32852766
0.22477344 -0.17594855 -0.35806176 0.16951996 -0.011918585 0.20782869 0.16132663 0.25045028
-0.1018653 -0.22570407 -0.2198061 -0.17082311 0.17999338 -0.13313538 0.027885195 -0.002440635
0.033852845 -0.11112016 -0.5672085 0.20785853 0.058035273 -0.30390856 0.10725546 0.13048573
-0.097948104 0.28704733 -0.22752902 0.035036467 -0.0023102495 -0.27506107 0.08431602 -0.06920937
0.012540996 0.34703285 -0.2881125 -0.46426457 -0.114736766 -0.12210405 -0.104219675 -0.18886453
0.018840536 -0.15469718 -0.023724584 0.17006324 0.11330671 0.2610212 -0.2047409 -0.049271885
-0.010148361 -0.12933858 -0.0121838115 -0.420194 0.2744859 0.20117913 0.3091271 0.29262906
-0.00064062263 0.13175735 -0.12910211 -0.26066107 -0.21020393 0.28397197 -0.033537924 0.013795942
-0.014243816 -0.42570946 -0.0074580153 -0.03368925 0.16047446 -0.10875584 -0.008967896 0.0652566
-0.20742466 0.26323023 -0.27407348 0.0057364786 -0.45430544 -0.0010334234 -0.14597881 -0.098741435
0.03282933 -0.35156438 0.076362796 -0.048592947 -0.23548003 0.017483914 0.16308777 0.10085856
-0.26152465 0.17803971 0.018876398 0.14425088 -0.22331803 -0.18226673 -0.040569905 -0.22423449

cos_embedding.weight f4 [256, 64]
00000000: 1e7b a9bd 8e80 b03d 10d0 853d 90f7 dd3d
00000010: e692 d6bd 0c25 ac3d 30a7 47bc ccc1 01bd
00000020: f880 6bbd 049c 063d c0d7 bc3d 4229 f8bd
00000030: 7c22 833d 1668 b3bd 4c9f 7fbd 56de a63d
00000040: 183c c23c 54c9 e23d a0fa 473d c068 45bb
00000050: ac96 6f3d e0a8 993c de23 823d 7252 dd3d
00000060: 883a adbc 5899 e93d a8df 953d 2e78 d93d
00000070: 8431 eebd 6af4 9a3d 7067 f9bd 9035 eebd
00000080: d6d7 cabd 8203 9d3d 986e 4ebd e45e 503d
00000090: 5c7d 7dbd 76cf a63d 70c3 823d 1a9c dfbd
000000a0: 408c cc3c cca2 db3d f610 a5bd 243e f53d
000000b0: e864 fcbd 90ac e6bc cc0d 543d e09b 80bc
000000c0: 42aa b53d b490 d93d 28a0 7dbd 6802 80bd
000000d0: 908d 92bc 9a66 f03d e266 f4bd 1e2f b7bd
000000e0: 90bb f3bc 5e53 a7bd 5c3e 623d b6ce 803d
000000f0: 1093 e33d 267d debd 2089 7b3d 184f 9b3c
00000100: fe26 a33e 362e a43d 7401 1bbe 1ef0 e23d
00000110: 2807 6fbe db74 e5bd 36e0 513e 3515 863c
00000120: ab30 00be 7a44 13be 4797 a63d eeb6 b6bd
00000130: 474d 093e d4e2 65be a6f8 2bbe c40b 9d3d
00000140: 1346 14bc b8e3 29bd 71cb d1bd c1c6 aebd
00000150: c9a4 633d 42c5 75bc 0474 8e3d c089 c2bd
00000160: d215 503d 2dec 943d 2226 a6bd 39b3 933d
00000170: 4353 9fbc 5ebb 0abd dac8 af3d 7a54 72bd
00000180: fa89 793c f586 e3bc e2c1 1abc ad57 54bc
00000190: 7fd1 743c 025d 27bd af84 3dbd 21b4 b93c
000001a0: fa35 9e3c 63e9 543c ad1e 183d 2aee e7bc
000001b0: 5323 943d 15a1 a13c 3da2 2e3d faad 963c
000001c0: 185e 9ebb 5e8f 603d bb7f 933c 5d2e e53c
000001d0: b921 883c 16ea eabc a375 103d 35d8 b93c
000001e0: 5604 4b3b e49e 313b 14af ffbb ebb5 243c
000001f0: 51a5 223c e43b bb3b 55c1 67bc 7652 13ba
00000200: 8906 18bd 59f1 c0bd 570b 8cbd 5e59 4c3d
00000210: 1907 c0bc 9356 14bd 035b 92bc f01c 553e
00000220: f5a0 783d 2045 fdbd 2857 52be 1d10 0bbe
00000230: bc5e 83bd 9723 edbd 5e81 9fbd 017d b53c
00000240: 66da 50bd 3552 a03d b55c afbd 3567 a4bd
00000250: b763 debd c2ca 94bd a65b 75bc 29c9 0d3a
00000260: ca6b fc3d 44c2 59bb a4b9 a6bd ece0 febc
00000270: fa4b 3c3c 18e1 1f39 a22f 7c3b 9faf 953d
00000280: de76 2e3d a302 91bc 03ef d23c 1231 8ab9
00000290: d7b9 d43c 8f4e afbc a5f8 54bc a11c f8bb
000002a0: ee2a 65b9 c81e 6f3d 7b38 cbba 3064 563c
000002b0: 99d4 943d 54d4 7b3d a9cb 273d 54a6 c13c
000002c0: fbb1 893d ae6c 083d c9e1 ce3c 090e 5c3d
000002d0: f2b1 ca3c 22d1 023c 2592 703b e988 c03c
000002e0: 3a2f dc3c 072d 8a3c 1eb4 273d 8077 883c
000002f0: 6d50 e93c d2bd 473c f1de e53c 5c8d 873c
00000300: 4675 043e 8a0d 89be 368c 8cbd 8e40 4cbe
00000310: c57a dabd ba13 90bd 6ec8 04be 12b5 483d
00000320: 465b 28be fdfd 2c3c b266 1b3d e69a a53a
00000330: e9f8 f03d 03bc c4bc c5ca 9f3d db4f 4dbd
00000340: 96a4 103e 6bcb 22bd d451 ba3d 7656 943b
00000350: 54a6 743a 8980 483d d610 d8ba c0f4 433d
00000360: a45b 2bbd 8990 a4bc c39e c1bc 7542 c0bc
00000370: bf15 033c c998 3dbd b55b 9d3b a71b 91bd
00000380: d047 093d c05c 5abd 34ec ae3b 60b3 d8bc
00000390: 3c0f f0bc be52 24bc 2e74 ffbc de93 3bbb
000003a0: b27c d6bc 4415 64bb e650 41bc 22d6 5dbc
000003b0: a4ac 90bb 71e5 88bc ea83 f03b 7acc a7bc
000003c0: 3c96 ea3b 89a3 55bc 690b ba3b 19a9 febb
000003d0: e2e8 96b9 316e 23bc e0ab 52bb 13d7 923a
000003e0: fe7f 3abc 7ce3 24bc 682b 58bc 7faf 9bbc
000003f0: 50ba 01bb 988e d1bb 5851 2dba 61f8 333a
-0.08275436 0.0861827 0.065338254 0.108382344 -0.104772374 0.08405504 -0.012185857 -0.03167896
-0.05749604 0.03286363 0.092208385 -0.12117244 0.06403062 -0.08760087 -0.062407777 0.08147876
0.023710296 0.110735565 0.048823 -0.003012225 0.0584933 0.018757284 0.063544974 0.10806741
-0.021146074 0.11406201 0.0731805 0.106186256 -0.11630538 0.075661495 -0.12177932 -0.1163131
-0.09904449 0.07666685 -0.05039844 0.050871745 -0.06188713 0.08145039 0.06384933 -0.10918446
0.02496922 0.107244104 -0.08059876 0.11974743 -0.12323934 -0.028158456 0.05177097 -0.015699327
0.08870365 0.10623303 -0.061920315 -0.06250459 -0.017889768 0.1173832 -0.11933686 -0.08944534
-0.029752523 -0.08170198 0.05523525 0.06289427 0.11112034 -0.10863714 0.06141007 0.018958613
0.31865686 0.080166265 -0.15137273 0.11080955 -0.23342574 -0.11203929 0.20495686 0.016367534
-0.12518565 -0.1438159 0.081343226 -0.0892161 0.13408385 -0.2244981 -0.1679407 0.0766826
-0.00904991 -0.041476935 -0.102438815 -0.08534003 0.055577073 -0.015000643 0.06955722 -0.0949893
0.05080206 0.072716095 -0.08112742 0.072119184 -0.019448882 -0.033870094 0.08583231 -0.059162594
0.01523065 -0.027774313 -0.009445639 -0.012960357 0.014942526 -0.040860184 -0.046269115 0.0226689
0.019312847 0.012995097 0.03713863 -0.028311808 0.072333 0.01973013 0.04263519 0.018393505
-0.004832994 0.054824226 0.018005243 0.02797621 0.016617643 -0.028676074 0.035268437 0.022686103
0.0030977926 0.0027102763 -0.0078028534 0.010053138 0.00992711 0.0057139266 -0.014145215 -0.00056198926
-0.037115607 -0.094210334 -0.068381004 0.049889915 -0.023440884 -0.036215376 -0.017865663 0.2081182
0.060700376 -0.123667 -0.2054106 -0.13580365 -0.064145535 -0.11579054 -0.07788347 0.022154333
-0.05098953 0.0782818 -0.08562604 -0.08027498 -0.10858863 -0.072652355 -0.014975464 0.00054086983
0.12325247 -0.0033227364 -0.08140877 -0.03111311 0.011492724 0.00015247276 0.003848054 0.07308888
0.04259383 -0.017701453 0.025748735 -0.0002635797 0.025967522 -0.021399764 -0.012998735 -0.007571772
-0.00021855134 0.058378965 -0.0015504503 0.01308541 0.07267112 0.06148179 0.04096571 0.023638882
0.067234 0.03330677 0.025254147 0.053724322 0.024743054 0.007984431 0.0036708203 0.023502784
0.026877988 0.016867174 0.040943258 0.016658545 0.028480733 0.012191253 0.028060408 0.016546898
0.12935361 -0.26768142 -0.068626806 -0.199465 -0.10667948 -0.070350125 -0.12967083 0.049000807
-0.16441068 0.010558602 0.037939735 0.0012634664 0.11766226 -0.024015432 0.07802347 -0.050124984
0.14125285 -0.039744776 0.09097639 0.0045269085 0.0009332646 0.048950706 -0.001648451 0.047840834
-0.041835442 -0.020088451 -0.023635274 -0.02346919 0.00800079 -0.046288285 0.004802192 -0.070853524
0.03351575 -0.05331111 0.005338216 -0.02645272 -0.02930414 -0.010029493 -0.031183328 -0.0028622071
-0.026182506 -0.0034802714 -0.011799073 -0.013539823 -0.0044151116 -0.016710969 0.007339944 -0.020483244
0.0071590226 -0.013039478 0.0056776297 -0.007771623 -0.0002878374 -0.009975002 -0.0032145903 0.0011203013
-0.011383055 -0.010064002 -0.013193943 -0.019004581 -0.0019794889 -0.0063951723 -0.00066115474 0.00068653194

cos_embedding.bias f4 [256]
00000000: 9c2d e6bd c558 853e 848f 6c3e a491 c53e
00000010: c149 e43f adf8 b43e b4b3 713d 136f 143e
00000020: fae0 2c3f 6003 f03e 3cfd 5a3f abd6 86bc
00000030: bb3e 88bd c475 46bd 6bc1 6e3e b144 723f
00000040: aa5b 573f a1c0 223f 8a1b b63f 9b38 6d3e
00000050: c4ce 7f3f 1927 4c3f d0ff 2ebb e339 6f3e
00000060: e30c 4c3f cdef 903e 483a 1e3d 75d5 893e
00000070: 4046 5c3f 69a8 c93e 96b9 2c3f d685 0d3f
00000080: 7cbc 113f 59ef c33e ddb4 433f 3617 503d
00000090: 0637 013e 6e99 ff3b 4bcb 1c3f 6082 633f
000000a0: cbdf a03d 4976 803e 62db 913f 5e36 233e
000000b0: 5051 933d 3d79 1b3f 2456 e33e 3805 a93e
000000c0: 185f 973e 31db f23e f408 bb3d 670b 9a3e
000000d0: 44bf 9c3f 7761 7c3f 4f01 d03e 72f7 6e3f
000000e0: 6823 003f c4aa bb3f 7591 b53d 5979 6f3e
000000f0: f1d6 ba3f dec2 dc3e 5588 d73e ebe1 b93e
00000100: bca7 3d3e 28b5 1e3f 027e d53d 8f1c 343f
00000110: 293c 9f3e b47c 993e ffef 4b3e 3efd 0a3f
00000120: 987a 893e 7906 0c3f 8ab4 993f 6b05 b43d
00000130: 3806 0c3d a0f7 1c3f 0ac4 ab3d faef 9b3e
00000140: 083d b7bd 907b 8e3c 3d07 2e3f ad60 533e
00000150: d9a4 1b3e 6651 253f 9b21 4d3f 4862 823e
00000160: c412 0d3f d4e5 6d3f b8f7 6c3f a2f7 743e
00000170: 8b1d 243f dc46 e63e 0c2d 043e 6bb9 de3d
00000180: 5f89 633d 3d76 953e bbdf b0bd ba9a 01bd
00000190: 1d9e 3d3e c09d c33e d0b0 0b3e e945 423f
000001a0: b3ed f23e ed18 653f 705e e13b c2ef d73d
000001b0: f843 013f d20a c93e a652 963e ccad 073f
000001c0: 496e 2f3e ee01 2f3e 8cea 3b3f 351f 113f
000001d0: f98f c73f 6b3c 8f3d 8c03 983f 4e9e 343e
000001e0: ed13 3d3c 677c 163f f795 6d3f 1d27 603e
000001f0: fcaa 133c 57b4 883f 5ed7 983e 2bf4 673f
00000200: d563 793e 2735 fb3e 0004 4439 2a2b 873f
00000210: 1e72 97bd 0820 9d3f 6af0 873f 7336 c33f
00000220: c562 923d 4af1 573e 33c9 893f 297e a33f
00000230: d8fa 9c3f c464 783f 5a3f 753f 88f5 e83e
00000240: 22cc c33e db43 cdbd 7dfa 0f3f 2110 8f3d
00000250: 4104 653f 30d4 2cbc e102 cb3f 202e 603e
00000260: ec19 923e b979 fa3e b9ae 9f3e 1f50 a03e
00000270: 29b8 473f dbff ac3e f9ed 023f 13e6 963e
00000280: 72cb 3a3e 0b00 103e 2ccb bbbd 5164 db3e
00000290: 2f03 0f3f dde6 b93f 8279 8e3f c7a3 a0bc
000002a0: 1757 303f a7b9 3abc aa14 a23e c3e7 a23f
000002b0: d5fa 9b3e 59b1 e73e f0eb 463f eee0 423f
000002c0: 9405 973d 3997 2e3f 09b3 e7bc 9199 0b3f
000002d0: e384 f13d c95e 923f b573 ba3f d3b0 773f
000002e0: d320 803f 9eab c63c be82 093f e8aa 723f
000002f0: 423e b43e 8806 853e 4483 b53f 1837 1e3f
00000300: 564c c53f 3512 883e 46be d83f 3622 1e3e
00000310: 3f11 063f 15ad 4fbd 3a6e c03c c658 d23d
00000320: c173 9f3f a8d0 163c 9ecc 733f f141 623f
00000330: a85e d73f 4fd8 223f 497b a43e 4bb4 e23f
00000340: 20ce 6c3c d549 ff3d 16fd 853f b8b0 cb3e
00000350: 0823 c63f abd8 4e3e 0bd7 ca3e decc 303f
00000360: 949f 0b3f 3eba 7f3f 0344 133e 726f 093e
00000370: de6e 0f3f 2ec8 e03c 95ee ad3d 92b7 d9bd
00000380: 139c 313d af14 893e fc65 403f decd 923f
00000390: ad2c 743f ea4d f53e 5c47 7e3f 85ea 7b3f
000003a0: 8a91 f23d 6266 453f 307c 02bd 6f28 cdbc
000003b0: 6254 cf3e c310 6b3d d23d 323f 25b4 f13e
000003c0: bdc2 a43f 45cb ef3d 3af3 543f 1869 843e
000003d0: 2241 e73e 9c6b 8a3e c7e5 1c3f 6ef3 953e
000003e0: 3451 8d3e 473f 4c3f 0f1a 753f 88e3 c63f
000003f0: bc5c dc3d 2216 0f3e e57a 073f e681 0c3f
-0.11239168 0.26044288 0.23101622 0.38587677 1.7835008 0.35345975 0.05900927 0.14495496
0.67530787 0.46877575 0.85542655 -0.016459784 -0.0665259 -0.048452154 0.2331597 0.94636065
0.84124243 0.6357518 1.4227154 0.23166125 0.99924874 0.7974716 -0.002670277 0.23361926
0.79707164 0.28307953 0.0386298 0.26920667 0.86044693 0.393863 0.6747068 0.5528234
0.5692823 0.38268545 0.7644785 0.050803386 0.12618646 0.0078002727 0.612477 0.8887081
0.07855185 0.25090244 1.1395075 0.15938708 0.071932435 0.6073187 0.44401658 0.33011794
0.29564738 0.47432855 0.09132567 0.30086824 1.224587 0.9858622 0.40625998 0.9334632
0.50054026 1.4661489 0.08865634 0.23386134 1.4596845 0.43117422 0.420962 0.36305174
0.18521017 0.6199517 0.10424425 0.70356077 0.31100586 0.29977953 0.1991577 0.54292667
0.26851344 0.54697376 1.2008221 0.08790096 0.03418562 0.61315346 0.08387001 0.30456525
-0.08947188 0.017392904 0.67979795 0.20642348 0.15199603 0.6457733 0.801294 0.25465608
0.5510676 0.92928815 0.9256549 0.2392259 0.6410758 0.44975936 0.12907809 0.108752094
0.05555093 0.2919177 -0.08636423 -0.0316417 0.18517347 0.3820629 0.13641667 0.75887924
0.47446975 0.8949116 0.006877713 0.10543777 0.5049434 0.39266068 0.2935993 0.5299957
0.17131914 0.1709058 0.73404765 0.56688243 1.5590812 0.06993946 1.1876082 0.17638513
0.011540395 0.5878357 0.92806953 0.2188992 0.009012934 1.0680035 0.29851812 0.90606946
0.24354489 0.4906399 0.00018693507 1.0560048 -0.07394813 1.22754 1.0620244 1.5250992
0.07147745 0.21088138 1.0764526 1.2772876 1.2264051 0.97028756 0.9579979 0.45499825
0.38241678 -0.10022708 0.5624159 0.06985498 0.89459616 -0.010548636 1.5860254 0.21892595
0.28535402 0.48920992 0.3118799 0.31311128 0.7801538 0.33788952 0.5114437 0.29472408
0.1824167 0.14062516 -0.09169611 0.42849973 0.5586423 1.4523579 1.1130831 -0.019609345
0.6888289 -0.011396802 0.3165639 1.2726978 0.30464807 0.45252493 0.7770376 0.76124465
0.07374111 0.681995 -0.028283613 0.545312 0.11792924 1.1435176 1.4566561 0.9675419
1.0010017 0.024251755 0.5371512 0.9479203 0.3520375 0.25981545 1.4180684 0.61802816
1.5413921 0.2657639 1.6933067 0.15442738 0.52370065 -0.050702173 0.02349006 0.102708384
1.24572 0.009205021 0.95234096 0.8838187 1.6825762 0.6361131 0.3212531 1.7711271
0.014453441 0.12465254 1.0467861 0.39783263 1.5479441 0.2019984 0.3961719 0.690626
0.5454037 0.9989356 0.14381413 0.1342142 0.56028545 0.027439203 0.084927715 -0.106307164
0.043361735 0.26773593 0.75155616 1.1469076 0.9538067 0.47911006 0.99327636 0.98404723
0.118441656 0.7710935 -0.031856716 -0.025043694 0.40494066 0.057389032 0.6962558 0.47207752
1.287193 0.117086925 0.83183634 0.2586143 0.4516688 0.27035224 0.6128811 0.29287285
0.27601016 0.79784054 0.9574289 1.5538187 0.10759875 0.13973287 0.529219 0.5488571

ff_1.weight f4 [256, 256]
00000000: 0001 91ba 5a3c 9b3b f1e3 27bd 8e87 97bd
00000010: 28be 043e 84a7 c4bd c9d2 c13d 710c b13d
00000020: fc9b ca3d f966 1cbe dd8d 68bc eddf c8bc
00000030: 5641 443d 408a a2bd c584 8cbc 2a3e 08be
00000040: 29b8 56be c4f8 463b d589 55be 2531 27be
00000050: 751a 22be fbf2 043e b79c 0d3c 775c 40bd
00000060: 7e72 513e f632 2c3d 6015 d7bc 8d36 103c
00000070: 16c3 18bd f67d 533d f410 b0be 206a 1bbd
00000080: 9ea9 4c3d 3845 cf3c 2f45 ae3c 2d42 503d
00000090: ba2d 08bc 8902 fbbc e4d6 c13d 7ee6 4bbd
000000a0: c8b4 863c 9916 97bd 9006 a93d 4e7a c4bd
000000b0: 789e 113d bd95 5a3d 58c3 1dbd c331 01bd
000000c0: cf56 3dbb ab89 183d 186c 07bc 9406 833c
000000d0: 4fdc 263d 869e 153e 3e4c 66bc a670 e0bb
000000e0: 2279 16be 2f2b 63be 09fa c3ba 9dba b03d
000000f0: 260f 843e 38d4 b0bc 7499 0a3b 7b75 f8bc
00000100: 76fa 383d be55 2bbf 0f18 88bd b072 213e
00000110: 8816 5f3d 8d09 543d 779e d93d 6d6e 3d3d
00000120: 591e 6f3c 795d 9b3d 546b 843e 7117 20bc
00000130: b016 dd3c 9bc2 8cbc e633 fdbd b01f 433d
00000140: 3457 903c 2cec ce3c 4371 153d 02a7 68bd
00000150: 216c 3cbc 42d8 56be 3cdd c93d b555 2cbb
00000160: eb6b 9abd b56a 433d fc02 063b 3ede 5f3c
00000170: 641e 1a3b 3f73 acbb 1c23 de3d 7781 803d
00000180: 5341 8cbc 24a9 423e 5ef0 833d af02 58bc
00000190: ccea 49be 0a66 43bd 31e8 62bd 662d cebc
000001a0: 9785 f1bb ee33 853c dae1 703c 7fc1 973d
000001b0: 71d5 983c c3fc d53d 2155 0abd 1520 45bd
000001c0: 299c b23c 7d1c ab3d 2360 853d 40c0 223d
000001d0: b454 a9bc a03d 90bd 3fc1 9cbb af0f 0d3d
000001e0: 27eb 2a3d 5b01 2b3b 0274 08bf f7cc 673d
000001f0: fe74 99bd 3509 df3c dae5 123c 8428 853d
00000200: 7757 25be 5726 833a b02c d63b 3554 783e
00000210: 10b9 a43c cb02 22bf 790d 613d 2ec5 bf3d
00000220: fafe 7bbd e71d d53b 971f 77be b2a2 b2bd
00000230: f9e3 87be 4d7c 6dbb f83e 9d3d 76f4 b0bd
00000240: a7fe 47bd b5c0 99bd bd25 4a3d 81bd 56bd
00000250: 2447 b53d 9a33 763d 97c6 ba3c fa1f 42bd
00000260: 84cb 5abc 8717 9cbe aae0 363d e7d4 a0be
00000270: 306d 8bbf 3d67 9f3b 8a26 ea3c 66a7 7f3d
00000280: 9080 a33d 8724 2a3e 2c11 87bd 2acf b93d
00000290: a369 603d 63e1 c1bd c839 55be a170 3b3d
000002a0: ee43 0fbd d835 8cbb 9ff0 4d3d 1708 afbc
000002b0: fef5 5f3d b871 013e 0348 02bd 9355 78be
000002c0: 1694 073d bd86 933e fdf4 0fbe 6567 febc
000002d0: a890 93bd 13a1 e7be f1c7 21bd 5dae 0f3c
000002e0: 5df7 abbe 2a4a 8b3d 59b1 83bf 257e 06bd
000002f0: a37b 193e 4daf 0e3e ba41 88bf 9535 403d
00000300: e33a 38bc 3185 4b3d 3814 c13d f85a 2ebc
00000310: 7922 f0bc c8ee 5fbb 1136 8cbd 2ab2 4cbd
00000320: e603 9b3e f7ec 9abd e6c3 93bf 7a98 6c3d
00000330: a62a 47bf 689f 85bd 1d41 f23c d6b8 473e
00000340: 1894 573d 25db 443d 6643 4c3c 1f64 8dbd
00000350: afe9 513e 0373 9bbc 29b9 8e3c c9d1 cf3c
00000360: 51e1 34bd fb15 8a3d 42b7 133d 063e 93bd
00000370: c306 f2bc 63c5 973d 3b21 013d a080 20bd
00000380: 60f6 94be e9d1 b1bd 8aa4 b03d ffca 46bd
00000390: b4be 3dbd 39bf aa3d 3cb1 ce3c 29b2 543e
000003a0: 4832 803d 0e82 543d a465 073e db37 76bd
000003b0: 6692 c2ba b8f3 de3c 2bfd 3cbe b6f3 643d
000003c0: c8cb 28bf 8995 933d 364a fbbd a2ee b43c
000003d0: 3955 473d 5390 673d 8f27 783d dd5a 00bc
000003e0: 01e7 a93d f78f edbd 67d6 2bbe 41a0 e03d
000003f0: b403 d5bd 6d69 c7bb c6f0 5fbd a3c7 c1bb
-0.001106292 0.004737419 -0.040988866 -0.07398902 0.12963164 -0.096022636 0.09464032 0.08644951
0.09893033 -0.15273656 -0.014193979 -0.024520839 0.04791387 -0.07936525 -0.017153153 -0.13304964
-0.20968689 0.0030360678 -0.2085336 -0.16327341 -0.15830405 0.12983315 0.008643321 -0.04696318
0.20453832 0.042040788 -0.02625531 0.008802068 -0.037295423 0.051633798 -0.34387934 -0.037943006
0.049966447 0.02530156 0.021273224 0.05084436 -0.008311683 -0.030640857 0.09464815 -0.04978036
0.016443625 -0.07377357 0.08253205 -0.0959364 0.03555152 0.053365458 -0.038516372 -0.031541597
-0.0028890853 0.037240665 -0.008265518 0.015994348 0.040737446 0.14611253 -0.0140562635 -0.0068493662
-0.14694646 -0.22184442 -0.0014951836 0.08629344 0.25792807 -0.021585569 0.0021148594 -0.030329457
0.045160733 -0.6692771 -0.06645214 0.15766406 0.054464847 0.05176692 0.10625928 0.04624789
0.014594638 0.07586188 0.25863135 -0.009771214 0.026988357 -0.017182639 -0.123634145 0.04763764
0.017619707 0.0252591 0.036484968 -0.056799896 -0.011500389 -0.20980933 0.0985665 -0.0026296203
-0.07540115 0.047709186 0.0020448556 0.0136638265 0.002351665 -0.005262762 0.1084654 0.062746935
-0.017120993 0.19009835 0.06442331 -0.013184234 -0.19718474 -0.047704734 -0.055397216 -0.025168132
-0.0073706615 0.016260114 0.014702285 0.07409953 0.018656464 0.10448601 -0.03377259 -0.0481263
0.021802979 0.08355043 0.06512477 0.039734125 -0.020670272 -0.07043004 -0.004783779 0.034438785
0.041728165 0.0026093337 -0.53302014 0.056591954 -0.074930176 0.02722607 0.008965934 0.06501868
-0.16146646 0.0010005933 0.006536089 0.24250872 0.020107776 -0.6328551 0.05494449 0.09363781
-0.06152246 0.006503809 -0.24133144 -0.08722438 -0.26541117 -0.003623742 0.07678026 -0.08640377
-0.04882684 -0.07507459 0.049352396 -0.05242682 0.088514596 0.060107805 0.022799773 -0.047393776
-0.013354186 -0.304867 0.04464785 -0.31412432 -1.0892696 0.004864602 0.02858283 0.062415503
0.07983506 0.16615497 -0.06595072 0.090727165 0.054788243 -0.09466817 -0.20822823 0.04576171
-0.034976892 -0.0042788796 0.050278302 -0.021366162 0.054677956 0.12641037 -0.031806957 -0.24251394
0.03310021 0.28813735 -0.140583 -0.031055162 -0.07205325 -0.45240077 -0.03949732 0.008769599
-0.3358716 0.06801255 -1.0288497 -0.032835145 0.1498857 0.1393406 -1.0645058 0.0469261
-0.011244508 0.049687568 0.094276845 -0.010641806 -0.029313313 -0.0034169424 -0.0684625 -0.049974598
0.30276412 -0.07564729 -1.1544158 0.0577626 -0.7779945 -0.06524545 0.029572064 0.19504103
0.052631468 0.048060555 0.012467241 -0.06903862 0.204993 -0.01897574 0.017422276 0.025368588
-0.04416019 0.06742474 0.03606344 -0.071895644 -0.02954424 0.074106954 0.03152583 -0.039185166
-0.2909422 -0.08682615 0.08625133 -0.048533436 -0.046324447 0.08337254 0.025230996 0.20771088
0.062595904 0.051881842 0.13222367 -0.06011186 -0.0014844656 0.027215824 -0.18455951 0.055896483
-0.65935946 0.07206256 -0.12270014 0.022086445 0.04866526 0.056534123 0.0605846 -0.0078341635
0.082960136 -0.11599725 -0.16781007 0.10968066 -0.10401097 -0.006085566 -0.05467298 -0.005913691

ff_1.bias f4 [256]
00000000: 58f4 7f3d 24be 40bc a839 33be dfaf 0b3e
00000010: 4388 17be 1414 4fbe 9d4d 223d 64ff 0b3e
00000020: 8af3 083d 2fca 2c3c d853 e53d 0dd7 9ebd
00000030: 5560 df3d e0fe 0f3e ae8d 77bd 63cc b63d
00000040: 814e 00be 8485 86bb b44a ae3d b5d2 5d3d
00000050: eef8 1ebd 3840 d7bd 5db7 7bbd a8fd 37be
00000060: 7295 93be 1cd1 833d 0a37 17be b3ed 8abd
00000070: f74b 013d 2dee 0cbc 11b9 853d 5558 a43c
00000080: 4fc5 353e e7cc c83d 3e3a 0abd 16ec d1bd
00000090: fa97 bc3d f59a 923d 0baa efbc f545 9fbd
000000a0: 076d 173d e67b 2ebd 110d 29be b24d 69be
000000b0: aae3 b23d feb5 243e 504f c3bb 0a34 f5bc
000000c0: 3437 78be 64cc 723d 7c84 32bd e9e1 08bd
000000d0: a7dd 2c3d 25c3 863d c254 b03d b244 15be
000000e0: 12ee d13c 99b3 db3d fc54 fd3d cf22 b83c
000000f0: fbc4 d43d 52f8 733e 0249 35be fca5 963d
00000100: c2a2 9f3d 8601 8f3e a251 10bd 01e4 56bd
00000110: 9cb3 023e f103 bdbd 29b9 6bbd f27d 0abe
00000120: f921 a03d 273f 0ebe a4c5 703c 14b4 83bd
00000130: 86e0 54be c92b f2bd 944e 80bd ea82 d23d
00000140: dbcf c3bd c08e 9a3d f0c9 003e b38d 28be
00000150: a0d2 2fbe ae5a 13be 4cea 283d 4934 81be
00000160: 5e25 9abd 2135 31be 718b 173e 80b5 25be
00000170: 624f f33d 53a5 d4bd a727 a53d 52d0 d0bd
00000180: 9867 173d 7c12 b7bd 5363 ddbd 527c 02be
00000190: cbc1 073e 9736 c3bc b8da a03d b3f0 a83d
000001a0: f38e 6cbd 5877 e2bd 7361 93be fa97 0dbe
000001b0: d369 07be 9978 2e3c 4fbc 833d a686 40be
000001c0: 6ae5 d53b a3cf e83d 6f6a ca3c 7a2e 7fbd
000001d0: 2bd1 9c3d b860 03bc d37c a9bd 316c b9bd
000001e0: fab5 69be 886d 8ebb 0704 9bbd e014 f13b
000001f0: b090 4f3d 7008 1bbd 277b dd3d 67d3 e2bd
00000200: 452d a9bd c6f4 8c3c 907c b53d c812 44be
00000210: 73b2 893d ce3d c23d 7483 643c 89c0 29bd
00000220: c275 21be 989f 753d 2725 8d3e 8d9f d2bd
00000230: 77f9 cfbd 0315 f0bd b8ab 0abe 432a 533d
00000240: 3f22 25bc a65c 423d 04a3 b2bd a030 95bd
00000250: 0583 0f3d 3d84 d8bc 503d 54be b73a 253e
00000260: cd5e 903d 8b1d 58bd 089b c83d 1174 efbd
00000270: ea23 0fbe 49a5 5cbc 251d 5dbe 6b16 93bd
00000280: 70db 67be 26f6 64bc 438b 88be 3348 4b3d
00000290: 09a1 8d3e 9c27 22bd 1ffe 84bd 3654 39be
000002a0: a4b2 c7ba 05eb 523d 138f 063e c446 9ebd
000002b0: f5e1 bfbc f31e 843d 994c 8ebd b9d2 023e
000002c0: fcc2 79bd 7013 d73d cf08 333e e5f6 27be
000002d0: 90d1 9fbb b2e9 433b 6eb9 ad3d 6ea4 0c3e
000002e0: 224f a5bc bb1c cb3d aa62 43bd 5bb8 f6bc
000002f0: 9632 2c3e 5b8f 1a3e 471c 883d f628 263e
00000300: af38 483c 7484 723d f3a6 0b3d 7d5f 22be
00000310: 7329 883d 5ddc b5bd 7e33 ce3d d73f a03c
00000320: f0d3 883c c92e f1bd 221f bdbd 94ad 373e
00000330: ff56 a7bc c541 d53d 5e54 a13c 3bc6 ce3d
00000340: 755b 64bb 2c20 d7bd 546a da3c 8257 afbc
00000350: 0f09 853d 8a53 abbd 5718 c8bd a353 5b3d
00000360: a3bf 0cbe ee91 45bd 2f14 6d3e b21e 3b3e
00000370: 8ea9 363d 5905 113d 4140 bdbd f446 c1bc
00000380: 095b be3c e5bd fe3d f2d5 24bc 7be3 2b3e
00000390: af57 593d a837 aebd 55c3 d7bc 0e4c 9c3c
000003a0: fc65 0f3e 3327 eebd b189 5d3e 1c39 a13e
000003b0: 38d9 543e 8dc4 fc3d be4d 5c3d 0554 133d
000003c0: 00a2 a23c 40c2 a53d 8135 d13c 2637 63bd
000003d0: 7d7e 083e d966 4ebc 5133 25be 7814 153e
000003e0: d82d 94bb ed47 93be 540c 77be f783 7cbe
000003f0: 6ad6 64bd f299 d3bd 1a2a 073e 3d07 4c3d
0.062488884 -0.011764083 -0.17502463 0.13641308 -0.14798073 -0.20222503 0.0396248 0.13671643
0.033435382 0.010546251 0.111976326 -0.077558614 0.10907046 0.14062071 -0.06043785 0.089257024
-0.12529947 -0.004105272 0.08510342 0.054156024 -0.038811617 -0.10510296 -0.061454166 -0.17967856
-0.28824955 0.06436369 -0.1476709 -0.06783619 0.031566586 -0.008601707 0.06529439 0.020061651
0.17751049 0.09804707 -0.03374695 -0.10250108 0.09208675 0.07158462 -0.029255887 -0.07777015
0.03696921 -0.042598628 -0.1650889 -0.22783545 0.0873483 0.1608505 -0.0059603825 -0.02993204
-0.24239808 0.059276953 -0.04358338 -0.03341857 0.04220357 0.065801896 0.08609916 -0.14576986
0.025626216 0.10727615 0.12369725 0.022477536 0.103891335 0.23825195 -0.17703632 0.07355878
0.077947155 0.2793085 -0.0352341 -0.052463535 0.12763828 -0.092292674 -0.05754963 -0.13524607
0.0781898 -0.13891278 0.014695559 -0.064308316 -0.20788774 -0.118247576 -0.062649876 0.10278876
-0.0956113 0.07546759 0.12577033 -0.16460304 -0.17170191 -0.1439006 0.041239068 -0.25235203
-0.075266585 -0.17305423 0.14799286 -0.16182518 0.118803754 -0.103830956 0.08064204 -0.10195984
0.03696403 -0.089390725 -0.1080996 -0.12742737 0.1325752 -0.023829741 0.07854217 0.08249035
-0.057753514 -0.11057919 -0.28785285 -0.13827506 -0.13223962 0.01064887 0.064324014 -0.18801364
0.0065275924 0.113677286 0.024708955 -0.062300183 0.07657083 -0.008018665 -0.082757615 -0.09053839
-0.22823325 -0.0043465532 -0.075691275 0.007357225 0.050675094 -0.037849844 0.10814505 -0.11075478
-0.082605876 0.01720656 0.08861649 -0.1914779 0.067234896 0.094844446 0.0139473565 -0.04144338
-0.15767577 0.059966654 0.27567407 -0.10284338 -0.101550035 -0.11722758 -0.13542068 0.051553976
-0.010078966 0.047451638 -0.08722499 -0.07284665 0.03503706 -0.026430244 -0.20726514 0.16135679
0.07049332 -0.05276255 0.09795195 -0.1169206 -0.13978544 -0.013467141 -0.21593149 -0.0718201
-0.22642303 -0.013974702 -0.26668748 0.0496294 0.27661923 -0.039588556 -0.06493782 -0.1809853
-0.0015235734 0.051493663 0.13140516 -0.07728341 -0.023423174 0.064512156 -0.069482036 0.12775697
-0.060976967 0.10501754 0.17483829 -0.16402777 -0.0048772767 0.0029893932 0.084826335 0.137346
-0.020179335 0.09917589 -0.047701515 -0.030117204 0.16816172 0.15093748 0.066460185 0.16226563
0.012220546 0.05920835 0.034094762 -0.15856738 0.06648531 -0.088799216 0.10068415 0.019561691
0.016702622 -0.11776502 -0.09234454 0.17937309 -0.020427225 0.10412935 0.01969355 0.10096403
-0.0034844552 -0.10504183 0.02666203 -0.021404032 0.064958684 -0.08365543 -0.097702675 0.05354656
-0.13744979 -0.048234873 0.2315223 0.18273428 0.044595294 0.03540549 -0.09240771 -0.023593403
0.023236768 0.12438563 -0.010060774 0.16785996 0.053062137 -0.08506709 -0.026338259 0.019079234
0.14003748 -0.116285704 0.21634556 0.31488883 0.20785987 0.123421766 0.05378508 0.0359688
0.019852638 0.08093691 0.025538208 -0.055472516 0.13329501 -0.012597763 -0.16132857 0.1455859
-0.0045220666 -0.28765813 -0.24125797 -0.24659716 -0.055868544 -0.10332097 0.13199654 0.04981159

ff_2.weight f4 [1, 256]
00000000: d7fa f13d 8226 903e a0b0 59be e0d8 733e
00000010: 126c 20bf 3782 2dbf a8e0 913e 6130 4c3e
00000020: 1bb2 ba3e 4d2a 0d3f f39a 1b3f e0e4 833e
00000030: ec85 0cbe 68c4 543e 4b87 f4bd 8c2b 6a3e
00000040: b5c8 4ebe ee0a b73e 93de df3e 027f b03e
00000050: d073 7c3e 0334 dfbe a81e 3dbe 6200 a3be
00000060: da05 e3be 7c60 a03e 43d1 a4be 4ead 56bf
00000070: 1435 163f 666c f2bd 7573 07be 2aed 3c3e
00000080: 2270 1e3f 14b2 d33e 2c3a 6d3e bb9a 0ebe
00000090: 1771 cd3e 6752 893e a771 bd3e 867e 0dbe
000000a0: 18c1 9f3e 298f 14be 1228 dfbe 3682 e6be
000000b0: 8971 c83e e4b8 8f3e 0b84 a53e fbb3 05be
000000c0: 3c0e 93be fc2c 4a3f 58d0 b93e 6b9d 29be
000000d0: 8e6a bc3e 4ac8 fe3e a5ff c43e de06 4ebe
000000e0: 458f 923e ebcd 933e 6410 c33e ece3 0d3f
000000f0: 26f5 ef3e 816a 283f df19 80be 5b68 693e
00000100: a4d1 6c3e a16d b33e a86c 13be 56c4 df3e
00000110: d1f1 763f 3ba7 f9bd b771 f63d c4a5 9bbe
00000120: 91db 003f 16a4 4dbf 8c08 94be 5a19 87be
00000130: badb e7be 87cb d6be 8046 9bbe 5e76 5a3e
00000140: 0fea c4be b9f4 a03e f494 b13e def9 92be
00000150: 019d 7ebe fb40 47be b250 613e 8255 98be
00000160: 035a d0be 38ed edbe 0447 a03e 58f0 e3be
00000170: 7dc5 ac3e 14a2 15bf 6fa7 803e d8ec b9be
00000180: 9c53 bcbd 6617 31be 3c3a a6be f4e9 f7be
00000190: c33a fa3e 3880 69be 28c3 60be ddce ce3e
000001a0: 6796 d9be 8c00 72be 94c6 3bbf 6ae5 62be
000001b0: f5f5 45bf be55 e7bd 3e56 d73e 7943 1cbf
000001c0: 648b d5bd debd 2d3e 9f53 8a3e 5b41 d73e
000001d0: 25e1 d13e 2cb9 dcbd 8f47 e73e 3e25 7dbe
000001e0: 0297 c8be 9387 a93e 252f 2d3f bdfa 6fbe
000001f0: d1d7 c5bd d66e 12be 1271 b93e 98fe 41be
00000200: aceb 61be 1625 bf3e 2d4c d33e a5a2 63bf
00000210: 1e03 193e 588b aebd ea05 323e 1497 cfbe
00000220: 5290 80be f9f4 bf3e 0a9f 1b3f 16f7 1dbe
00000230: ea57 88be 09fa e5bd b8d5 60bf dceb 6a3e
00000240: 5340 5a3e ee9a b03e 0f0c 573e 72db 5fbe
00000250: 1362 1cbe f676 1a3e 99c9 cbbe 8e6e ef3e
00000260: afbe 393f 9994 fabd 87aa 1f3f 96f5 dcbe
00000270: 0360 2ebe 8d24 d93d 32a3 cbbe bdf3 aa3e
00000280: 10e7 28bf 1a77 38be 400e dabe 9549 433f
00000290: 920a 2a3f ed5c 85be d601 773e b895 bbbe
000002a0: c0ad e0bd e66c b03e fcc4 a03e 00c9 6fbe
000002b0: c939 913e f7e6 1fbe 8ca2 c6be e634 b33e
000002c0: 8745 173f 02c4 d93e 696c 8d3e 0c5d 80be
000002d0: 8dd3 313f 0f74 9d3e ddb9 833e 0ce2 e73e
000002e0: 2f01 20be 849b 46be 7a07 c1be 7ed1 2a3f
000002f0: 7388 1c3f 0f78 313f e1b5 f53e bb2e 903e
00000300: 6375 2e3e e869 ba3e 3953 983e a8de 89be
00000310: c422 493e 9dfb 89be 725c 9c3e 5f64 e4bd
00000320: 8c0a 33be c1e0 8fbe 9bf0 61be ab7d 973e
00000330: 18fb c0bd ed8a 763e e896 21be 8b69 a53e
00000340: 121d 27be b313 d5be 119e 1c3e 3d7c c23e
00000350: 34b6 bf3e 5338 ce3e 3251 60be 45fb 923e
00000360: 8598 0cbe f9c4 12be 13f9 163f c976 b33e
00000370: 80e0 a23e 573e febd 1093 46be e314 31be
00000380: 11ee ad3e 6501 7e3f ef61 473f b75c d73e
00000390: fd30 a53e f893 7cbe bdd2 d1bd 2500 773e
000003a0: 0b95 283e bda3 5ebe 7f9b a73e c4aa 193f
000003b0: 9d5e 173f e337 bf3e 522d 5a3e f58f c93e
000003c0: 753a 053e c40e 923e 8a53 e2bd ac48 b9be
000003d0: 3482 943e b612 5fbe 2207 04bf 2903 4a3e
000003e0: 1f64 c5bd e7bb b1be 392b c8be 23a4 d0be
000003f0: 5d03 113e ed94 8abe e718 8b3e 31ad 293f
0.11815422 0.2815438 -0.21258783 0.238132 -0.626649 -0.6777682 0.28491712 0.1994033
0.3646401 0.5514267 0.6078331 0.25760555 -0.13722962 0.20778048 -0.119398676 0.22868174
-0.20193751 0.35750526 0.43724498 0.344719 0.24653554 -0.4359437 -0.18468726 -0.3183623
-0.44340402 0.31323612 -0.32190904 -0.8385819 0.5867474 -0.118370816 -0.13227637 0.18449846
0.6188985 0.413468 0.23166722 -0.13926212 0.40125343 0.2682068 0.37000772 -0.13817796
0.31202006 -0.14507736 -0.4358526 -0.45021218 0.3914912 0.28070748 0.32327303 -0.13056938
-0.28721797 0.7897489 0.36291766 -0.16563956 0.36800045 0.49762183 0.3847629 -0.20119807
0.2862493 0.2886804 0.38098443 0.55425906 0.4686672 0.6578751 -0.25019738 0.22793715
0.23126847 0.35044578 -0.14396918 0.4370448 0.9646273 -0.121901 0.12033408 -0.30399907
0.5033503 -0.803285 -0.2891277 -0.2638653 -0.45284826 -0.41952154 -0.30327225 0.21334216
-0.38459823 0.3143671 0.34683955 -0.2870626 -0.2486458 -0.19458382 0.22003439 -0.29752737
-0.40693673 -0.46470046 0.3130418 -0.44519305 0.33744422 -0.58450437 0.25127742 -0.3631351
-0.09195635 -0.17294082 -0.32466304 -0.4842068 0.48872957 -0.22802818 -0.21949446 0.403922
-0.4249756 -0.23633021 -0.7334988 -0.22157827 -0.77328426 -0.11295651 0.42057985 -0.61040455
-0.10426977 0.1696696 0.27016923 0.4204205 0.40992084 -0.10777506 0.45171782 -0.24721238
-0.3917771 0.33111247 0.6765006 -0.23435493 -0.09660304 -0.14300093 0.36219078 -0.18944776
-0.22062558 0.37332982 0.41269055 -0.8892005 0.14942595 -0.085226715 0.17385069 -0.4054495
-0.25110108 0.37491587 0.6078955 -0.15426287 -0.26629573 -0.11229331 -0.8782611 0.22941536
0.213136 0.34493202 0.21000694 -0.21861055 -0.15271787 0.15084442 -0.39802244 0.46764034
0.72556585 -0.12235374 0.6236958 -0.43156117 -0.17028813 0.10602675 -0.39772946 0.33389083
-0.65977573 -0.18014184 -0.42588997 0.7628415 0.6642238 -0.2604746 0.24121794 -0.36637664
-0.1097064 0.34458083 0.31400287 -0.23416519 0.283644 -0.1561545 -0.38795888 0.35001296
0.59090465 0.42532355 0.27621773 -0.2507099 0.69463426 0.30752608 0.2572774 0.45289648
-0.15625452 -0.19395262 -0.37701017 0.6672591 0.61145705 0.6932382 0.47990325 0.28160653
0.17036967 0.36408925 0.29750994 -0.26927686 0.19642168 -0.26949778 0.3053928 -0.11151957
-0.17484492 -0.2810116 -0.2206444 0.29588065 -0.09422892 0.24076433 -0.15780222 0.32307085
-0.16319683 -0.41616592 0.15294673 0.3798541 0.37443697 0.40277347 -0.21905974 0.28707328
-0.13730057 -0.14332952 0.5897381 0.35051563 0.31811905 -0.12414234 -0.19392037 -0.17293124
0.33970693 0.9922088 0.7788381 0.42062923 0.32263938 -0.2466582 -0.10245273 0.24121149
0.16463105 -0.21742149 0.32735822 0.6002619 0.59128743 0.37347326 0.21306351 0.39367643
0.13010581 0.2852689 -0.1105109 -0.36188257 0.29005587 -0.21784481 -0.51573384 0.19727768
-0.09638237 -0.3471367 -0.39095476 -0.40750226 0.14161439 -0.27066746 0.27167436 0.66279894
