runs/checkpoint_actor_256_192021_tau1_1600.pth (torch, 288535 bytes, 6 tensors)

fc1.weight f4 [256, 19]
000000 0a e0 49 bd 60 0e f1 3b 5c bd 6b bd 0e 33 4f bd
       -0.049285926 0.00735645 -0.057553634 -0.0505858
000010 30 24 b9 bc 50 3e 61 bd 70 7f 58 bc 78 9c 70 bc
       -0.022600263 -0.054991066 -0.013213977 -0.014685743
000020 86 1b 54 bd 68 50 06 bd 70 01 bd 3b 98 fa be 3c
       -0.05178406 -0.032791525 0.0057679936 0.023312852
000030 84 69 2b bd 28 2b 2f 3c 00 32 60 3d 98 ce 6a bc
       -0.041848674 0.010691442 0.054735184 -0.014331482
000040 2c 79 9b 3c d8 41 4d 3c 00 67 13 bb 6d e2 e9 ba
       0.018978678 0.012527905 -0.0022491813 -0.0017843969
000050 c0 8d 63 be 02 ad 10 3e 72 8e 7f be d6 a4 8a be
       -0.22222042 0.14128497 -0.24956682 -0.27078885
000060 fe b2 8e 3d f8 09 d6 3e 38 ce 07 bd 22 43 7d be
       0.06967734 0.4180448 -0.03315565 -0.2473264
000070 85 67 a5 be 9b b1 8a be 66 7a 80 be 6a 08 47 be
       -0.32305542 -0.27088627 -0.25093383 -0.19436803
000080 dc bc 9c 3d 7b b3 01 3e 25 77 e9 be 48 a3 44 be
       0.076532096 0.12666123 -0.45598713 -0.19202912
000090 a6 87 e6 be 53 fb d8 be d3 e5 dc 3b e0 bd 40 3e
       -0.45025367 -0.42379245 0.0067412644 0.18822432
0000a0 b4 5b 5f 3d a5 cc 36 3e d5 8d 88 3c 3a 49 2b bd
       0.054530814 0.17851503 0.016669193 -0.04181788
0000b0 0b 65 83 3f 5a fd ab bf 4e e4 6e bf 0a 69 18 bf
       1.0265211 -1.3436692 -0.93317115 -0.59535277
0000c0 71 ef 8a be f3 2a 92 be 75 5b 2a be 3b c4 e9 3e
       -0.27135804 -0.28548393 -0.1663645 0.45657524
0000d0 dd 67 0a be 2d f8 f2 3e 20 cd ad bf cc 36 92 bf
       -0.13516183 0.47454968 -1.3578224 -1.1422973
0000e0 67 4f c1 be 1d a2 bf bd fc e8 94 be df 77 8c be
       -0.37755892 -0.093570925 -0.29084003 -0.27435204
0000f0 95 3a a6 be 50 89 18 bf 00 46 b1 3e 94 a3 7a 3e
       -0.3246657 -0.5958452 0.34623718 0.24476463
000100 24 d7 b8 bf 07 79 c0 bf 4e 13 ba bf 34 44 f6 be
       -1.4440656 -1.5036935 -1.4537141 -0.4809891
000110 0f 8c e5 be 09 94 e5 be 42 a6 84 bd 85 ce 99 bd
       -0.4483342 -0.44839504 -0.06477024 -0.075100936
000120 a4 dd 92 be 96 b9 65 3e c3 b4 96 3d 0f f9 94 3e
       -0.28684723 0.22434077 0.07358696 0.29096267
000130 a5 13 d4 3b ab 89 be 3e 26 5b 9c bd f9 6d 49 be
       0.0064720684 0.37214407 -0.07634573 -0.19670857
000140 99 69 b2 3e 8a 72 90 bf 39 b5 f8 be 2f 11 03 be
       0.3484619 -1.1284955 -0.48575762 -0.12799524
000150 2d 4a 9e bc eb 8c a7 bd b3 29 c8 3d ab 39 71 3d
       -0.01932248 -0.08181175 0.097735785 0.058892887
000160 f9 37 49 3d 2b aa a2 3e 5f a2 f6 3e a2 26 20 be
       0.049125645 0.31770453 0.48170754 -0.15639737
000170 e7 21 05 bf 86 45 3e be 2f 8f cc be 2d 11 86 3c
       -0.52004856 -0.18581209 -0.3995299 0.016365612
000180 a8 bc 57 3c 45 dc 28 be 0a 93 6a be b5 86 0b 3f
       0.013167538 -0.16490276 -0.22907653 0.5450242
000190 59 46 35 bf 14 15 f5 3f ea 48 98 3f 10 41 97 3f
       -0.70810467 1.9147058 1.1897252 1.181673
0001a0 2f 82 a9 3f d4 4f 2e be 5a cb 69 be 37 05 31 be
       1.3242854 -0.1702264 -0.22831479 -0.17287146
0001b0 d4 6f ba 3d c3 94 9c be 43 a3 9b be fc ff d9 be
       0.09103361 -0.30582246 -0.30397996 -0.42578113
0001c0 15 24 ad 3c 09 c2 b8 3d 9f be a7 bd fd 27 a3 bd
       0.02113537 0.09021384 -0.08190655 -0.079666115
0001d0 8a ad 2f bd 25 8a 80 3c c9 d2 ab 3c 11 7e aa bd
       -0.04289011 0.015690872 0.020974534 -0.083248265
0001e0 9c 40 85 3c 4d 15 e5 bc 11 10 fe bc 37 d1 97 3d
       0.01626616 -0.027964259 -0.03101352 0.074129514
0001f0 80 eb 52 bd f5 66 8b bd 5b 45 0c bc cd 09 13 bd
       -0.05149412 -0.06806747 -0.0085614575 -0.03589802
000200 7a 6c a1 bc 4d ec 63 3d 90 2d be bc c7 e0 9a bd
       -0.019705046 0.055645276 -0.023215085 -0.07562404
000210 3f f2 78 bd 38 a9 b0 3c 30 57 57 3e 40 b9 a3 bd
       -0.0607779 0.021565065 0.21029353 -0.07994318
000220 1a 72 a3 be 46 29 89 bf a7 c9 8c be 77 28 52 bf
       -0.3192299 -1.0715721 -0.274976 -0.82092994
000230 76 b7 86 bf 69 1a a8 bf 8f f6 b2 bf bf 08 6f 3e
       -1.0524738 -1.313306 -1.3981494 0.2334318
000240 41 d0 34 3e fc 96 fa 3d 0e c1 82 3e ad d4 ff 3d
       0.17657568 0.12235829 0.25537914 0.124917366
000250 81 b0 dd 3e b1 43 7c bf fb 98 ad bf c1 ce 39 bf
       0.43298724 -0.9854079 -1.3562311 -0.72581106
000260 fc 81 b6 3b 79 47 fa 3d 80 45 01 be 2c 09 81 3e
       0.0055696946 0.122206636 -0.12624168 0.2520231
000270 49 fb 09 3f 71 fd b8 bc 7a d7 cb 3d fa e9 7a 3f
       0.53899056 -0.022581788 0.09953208 0.9801327
000280 6b e2 8f 3f 78 2e c0 3f ca 89 8a be 9e cf 82 be
       1.1240972 1.5014181 -0.2705825 -0.25549024
000290 8a a2 68 be ca 69 35 bf a3 22 f0 be 06 ea 99 3e
       -0.22718254 -0.70864546 -0.46901426 0.30061358
0002a0 ad a6 fe bf 4a 6b 9f bf 56 22 57 bf a5 57 f9 3b
       -1.9894615 -1.2454617 -0.8403677 0.007609325
0002b0 df 8c b7 bd ea 49 c2 3e c3 82 97 3d ee 43 29 3f
       -0.08962416 0.37947017 0.07397988 0.6611928
0002c0 81 cf 91 ba dd 5b 53 3f bd ab c0 3b 3c 21 18 be
       -0.0011124463 0.8256205 0.005879848 -0.14856428
0002d0 0c 93 64 be fe c8 39 be e0 3f ae be dd 08 81 be
       -0.22321719 -0.18143079 -0.34033108 -0.25202075
0002e0 1d a9 54 3f 12 a3 40 bf 4e ae 9d be 16 ba 92 be
       0.83070546 -0.75248826 -0.30797046 -0.28657597
0002f0 99 dc 0d bf c0 6e 56 bd 62 e3 aa 3b a1 ef 08 be
       -0.5541473 -0.052351713 0.0052150944 -0.13372661
000300 c4 0b e5 be b8 2c 1e 3d d0 aa b4 bd 69 02 5f bf
       -0.4473554 0.038616866 -0.088216424 -0.8711305
000310 d9 09 14 bf a8 34 ce 3f 37 54 b8 3f a9 9c ab 3f
       -0.57827526 1.610982 1.44007 1.3407184
000320 df a0 0c 3e 10 b4 c0 3d 7f eb 05 3e 75 1e 3d bd
       0.13733242 0.09409344 0.13078116 -0.046171624
000330 8f ce 84 be 3c e2 ea be 23 db a0 be d3 5e 16 be
       -0.25938842 -0.45875728 -0.31417188 -0.1468461
000340 ac c0 91 be 71 e0 86 bd 33 17 83 3c e8 c8 46 bd
       -0.2846731 -0.065857776 0.016002273 -0.048531443
000350 a5 3c 84 bc ec 19 26 3d 47 2c ea 3c 4a 8d 6a bd
       -0.016142199 0.040552065 0.028585566 -0.05726365
000360 de e6 af bc 7a d0 31 bd ce 8f 52 3d d8 19 a8 bc
       -0.02147239 -0.04341171 0.051406674 -0.020520136
000370 79 e3 53 3c 54 c3 44 bd d2 3e d4 3c cc 14 e9 bc
       0.012932652 -0.048037842 0.025908861 -0.0284523
000380 9a 7e 1c 3c a5 e4 5f bd d0 65 bc bc f3 c3 66 bd
       0.009551669 -0.05466141 -0.022997767 -0.056339215
000390 8e b0 77 3a 9f 2f 92 bd 32 4d 23 3d 6b 78 db 3d
       0.0009448611 -0.07137989 0.03986854 0.10716327
0003a0 e6 40 cc bf a2 52 44 be 77 de 41 bf 53 4d de 3e
       -1.5957305 -0.19172147 -0.7573008 0.4341837
0003b0 03 05 09 3f db 98 0b 3f e4 cc 6c bd ae 01 37 be
       0.5352327 0.54530114 -0.057812586 -0.17871734
0003c0 0b 0f d0 bd 56 f1 cd 3e c4 c7 8f be 35 e9 f7 3e
       -0.10159119 0.40223187 -0.28082097 0.4842011
0003d0 aa 88 a6 be d7 2f 93 bf 3b ad 35 be c8 e1 39 bc
       -0.3252614 -1.1498975 -0.17741863 -0.011345334
0003e0 d1 e0 50 bd 78 48 87 3d ae d0 bf be ef 31 55 bf
       -0.05099565 0.06605619 -0.37463897 -0.8327932
0003f0 81 1c 00 bf b5 d5 69 3f e5 31 08 3d 11 a0 b9 bc
       -0.50043494 0.91341716 0.033250708 -0.022659333

fc1.bias f4 [256]
000000 05 19 8d 3d 7d d8 c0 be 90 eb ee 3d 4a e2 bb be
       0.06889538 -0.37665167 0.11666024 -0.36696082
000010 1d 30 5c 3e 9c d9 49 bd 7c 5f 26 3e f7 fd 36 3e
       0.21502729 -0.049279794 0.16247362 0.17870317
000020 f2 b5 d1 be eb 79 5e be d2 58 f6 3d 50 03 3f 3e
       -0.40959126 -0.21726196 0.1202866 0.18653607
000030 91 35 d7 bc c0 1e 97 3d 85 c3 10 3c ab dd a8 3d
       -0.02627066 0.07378912 0.008835678 0.08245405
000040 04 74 d1 be a8 4b e2 3e b8 7d 6f be 7d 7f 18 be
       -0.40908825 0.44198346 -0.23387802 -0.14892383
000050 39 9c 99 3d 03 b8 d9 be 17 f1 0f be 92 30 93 be
       0.075005 -0.42523202 -0.14056812 -0.28747994
000060 ee e0 26 be dc ef e9 be 1b ed fc bd b8 2e 9c be
       -0.16296741 -0.4569081 -0.12349912 -0.30504394
000070 55 fe b6 3d 8f 86 25 be fe 01 59 3b 2a 6e c0 3d
       0.08935229 -0.16164611 0.003311276 0.09396012
000080 4d 03 ce 3d 81 b8 93 bd 03 3f 5a 3e cc df e5 3c
       0.10059223 -0.07212926 0.213131 0.028060816
000090 56 2d 4d bd 42 3f 3a 3d 60 3a 42 be c6 fb 81 be
       -0.050092064 0.045470484 -0.18967581 -0.253874
0000a0 8f cf c8 bc 51 26 89 bc 42 44 c8 be 55 cd 41 bc
       -0.024513034 -0.016741903 -0.39114577 -0.01182874
0000b0 26 2e 0c 3e ad de 73 3e 33 ae b4 3d 16 68 ba bd
       0.13689479 0.23815413 0.08822288 -0.09101884
0000c0 d9 79 61 3e d2 72 62 3e ad 51 3b 3e 42 cf 85 3e
       0.22019137 0.22114113 0.18292876 0.26134688
0000d0 9c b7 59 be 92 64 2b be 7b 1e 21 be 9b 61 88 3b
       -0.21261448 -0.16737583 -0.15734284 0.004162026
0000e0 04 3e df 3e a5 8c 02 be aa f5 f6 3c 40 e1 4a be
       0.43602002 -0.12748964 0.030146439 -0.19812489
0000f0 64 70 61 be 94 ad 09 be bd 8c 5a be f8 e6 8f 3e
       -0.2201553 -0.13445121 -0.2134275 0.28105903
000100 0c bb 77 bb 57 85 cb 3e 62 1f 3c bd 72 ef d5 bc
       -0.0037800698 0.39750168 -0.045928366 -0.026115153
000110 1f c0 3b be 90 a8 e2 be 08 27 54 be 49 49 d2 3c
       -0.18335007 -0.44269228 -0.20718014 0.02566971
000120 7f 62 05 3d ba d7 8c bd d6 0e 86 bd f2 af 33 bc
       0.032564636 -0.06877084 -0.065457985 -0.010967242
000130 8c f9 24 be 9f 20 a6 be 53 52 38 3c 59 30 15 bb
       -0.1611082 -0.32446763 0.011250096 -0.0022764413
000140 74 6f 38 be 3f 3b c4 3b 9f 56 ad be b0 50 4c bd
       -0.18011266 0.005988508 -0.3385515 -0.049881637
000150 ce 12 8a 3e f2 43 15 bf 95 75 b3 bc a9 f5 32 bd
       0.26967472 -0.583068 -0.021906653 -0.04369131
000160 6e 08 ca be 4b 41 ee 3d 8d 15 7d 3b a8 ab d7 be
       -0.39459556 0.116335474 0.0038617582 -0.4212315
000170 03 f7 19 be 83 d6 1b 3e a1 9e 26 be 1e e2 57 be
       -0.15035634 0.15218548 -0.1627145 -0.2108235
000180 ad c8 e1 3d 5c 3f 5e 3e 45 20 7c bc 5c c8 2c be
       0.11024604 0.21703857 -0.015388553 -0.16873306
000190 f5 26 49 bd e4 ac 60 3f ab d5 f9 be ca 27 1e be
       -0.049109418 0.8776381 -0.48795828 -0.15444866
0001a0 2c fd 35 3e 74 67 29 3d e4 1c 27 be af 5e b4 3e
       0.17772359 0.041358426 -0.16319615 0.35228488
0001b0 df 67 70 be 73 4b cc 3e 6b 3e 3f 3e 5e 97 dc be
       -0.23477124 0.39901313 0.18676154 -0.43084234
0001c0 97 62 e9 be 62 a8 d0 3c ea cb 75 3d 71 57 66 3e
       -0.4558303 0.025470916 0.06000892 0.22494294
0001d0 d1 de e0 be c8 97 98 be 66 16 8c 3e 22 43 4d be
       -0.43919995 -0.298033 0.2736084 -0.2004514
0001e0 e7 aa 3c 3c f6 45 83 be d0 e5 10 3e 0d a5 ab 3d
       0.011515356 -0.25639313 0.14150167 0.0838109
0001f0 5b 81 8c be 40 c7 85 be f3 e1 23 be 4d 8a e1 3e
       -0.2744244 -0.26128578 -0.16004162 0.44050828
000200 cd 08 2d be cc 95 9b be d7 00 0c be 3e 9f 89 be
       -0.16897888 -0.30387723 -0.13672195 -0.26879305
000210 a8 4d 66 bd 7a 72 64 be 7d f7 99 bc 13 93 ab bc
       -0.056226403 -0.22309294 -0.01879477 -0.020944154
000220 dd f1 f9 bd a0 84 e1 be 5c a0 8a bd d5 fc e0 3e
       -0.12204335 -0.44046497 -0.067688674 0.43942896
000230 3d 48 2e 3d 51 ba 80 be 43 27 87 be 22 2c 8f be
       0.04254936 -0.25142148 -0.26397142 -0.27963358
000240 e1 9d b6 3d 5e ea e4 bd 64 39 10 be 13 2b 62 be
       0.08916832 -0.111775145 -0.14084393 -0.22086744
000250 3b e9 86 be d1 02 bc bd 13 7f f2 bb 03 57 a5 3d
       -0.26349816 -0.09180225 -0.0074004023 0.08073237
000260 d9 8e 38 be 4a e6 f1 3d 33 a9 22 be 84 6c 43 bf
       -0.18023242 0.11811502 -0.15884857 -0.76337457
000270 62 54 32 3e b6 78 2f 3d 1e 29 83 be e4 0d a3 bd
       0.17415002 0.04283973 -0.25617307 -0.07961634
000280 93 03 7e be 43 5a f9 bd bb 1f c9 bb 9b 45 b9 3e
       -0.24806051 -0.12175419 -0.006137816 0.36185917
000290 80 64 91 be 70 70 25 bf 81 1d 54 3e 4e ca d8 3c
       -0.28396988 -0.6462469 0.2071438 0.026463654
0002a0 9a ae ce bd 22 37 13 be bf 22 47 bf d4 d8 ea be
       -0.10091896 -0.143765 -0.77787393 -0.45868552
0002b0 fe 86 5d 3e 41 00 27 3e b6 a6 2f be 16 e6 b0 be
       0.21633527 0.1630869 -0.17153439 -0.34550542
0002c0 30 3b 9c 3d 7b c0 0c 3e 69 d0 fa bc 1e eb 3a bc
       0.076284766 0.137453 -0.030616956 -0.011408595
0002d0 6a 01 e2 be ee 6e a4 bd ad da 70 3e 05 7b be bd
       -0.44141704 -0.08028971 0.23520918 -0.09300808
0002e0 be 79 a9 bc f3 bf f5 be 9e fd 1a be 3e 7b 25 bd
       -0.020687934 -0.47998008 -0.1513581 -0.040400736
0002f0 7d 46 1c be 3a 7a b8 be b9 3b 05 be 90 dd 79 bd
       -0.15261264 -0.3603075 -0.13011064 -0.061002314
000300 bb eb 04 bf d8 e2 ef 3d e5 21 97 be 90 66 9b be
       -0.51922196 0.11713189 -0.29518047 -0.30351686
000310 52 29 3b bc 41 87 83 be 9b 76 a7 be e3 46 fe be
       -0.011423426 -0.25689128 -0.32707676 -0.49663457
000320 02 17 6f bd 4d c6 4e be 8b a2 1d 3e 8f 05 6d 3d
       -0.05837155 -0.20192833 0.15394036 0.05786663
000330 65 d9 09 bd 76 72 0f 3e b7 7f b4 3d 91 2d 8e bd
       -0.03365459 0.14008507 0.08813422 -0.06942285
000340 75 6e 4e be 09 df 7a be 06 73 1e 3e c7 ca 95 be
       -0.20159324 -0.24499144 0.15473565 -0.2925627
000350 09 f6 73 be 9d 31 fc be f4 4d 92 3d c4 62 b0 3d
       -0.23824324 -0.49256602 0.07143775 0.08612588
000360 0f 13 6c 3e 76 74 8d 3e 5d 72 e4 bd c2 fe 00 bf
       0.23054145 0.27627915 -0.111546256 -0.5038873
000370 0f d4 19 be 17 f1 f2 3d 71 82 5b be 9f f4 d5 be
       -0.150223 0.118623905 -0.21436478 -0.41788194
000380 04 eb bc bc 60 23 42 bd 0c 1d 9f bc a5 bf f3 3e
       -0.023061283 -0.047397017 -0.01942303 0.4760715
000390 1e 42 ab bd 38 d6 74 be 5c a2 f6 bc 8f 31 0c bd
       -0.0836222 -0.23909843 -0.030106716 -0.03422695
0003a0 e2 06 73 be d9 58 2d be 0a 71 6d be b4 44 9c be
       -0.23733094 -0.16928424 -0.23187652 -0.30521166
0003b0 21 77 93 be a6 ef 31 3e 14 fa 39 3d 68 9a 12 3c
       -0.28801826 0.17376575 0.04540451 0.008947946
0003c0 14 07 9f bb 78 1b 58 3e 83 f7 45 be 09 ee 79 3d
       -0.0048531387 0.21104228 -0.193327 0.061018024
0003d0 ff 71 83 3e 54 4f 12 b9 24 c3 ef 3e af 2c e2 be
       0.2567291 -0.00013953197 0.46828568 -0.44174716
0003e0 89 fd 9c 3e eb 20 30 3e 3b 61 5c be 58 f0 38 be
       0.30662182 0.17200057 -0.21521465 -0.18060434
0003f0 58 0d 81 3d 01 80 0a be d0 9c 85 be 17 49 66 be
       0.06301373 -0.13525392 -0.260962 -0.22488819

fc2.weight f4 [256, 256]
000000 f4 05 58 3d 7e 18 97 3e 75 d8 4d 3e 57 7a 26 be
       0.052740052 0.29510874 0.20102103 -0.16257606
000010 ce 15 81 3e 18 56 f3 3d 1b c6 43 bd a5 96 15 3e
       0.25211948 0.118816555 -0.04779635 0.14608248
000020 f9 74 13 bf 0d 1b 23 bf 27 6e c7 be f8 9d b6 bc
       -0.5760036 -0.6371315 -0.38951227 -0.022292122
000030 b3 bf 1f 3c ab b9 53 bf 51 f5 bf 3d 8e a0 ae be
       0.0097502945 -0.8270518 0.09372962 -0.34106869
000040 cf b3 a7 bd 0e 7b 5e bf e2 7f 0d bd e7 e7 c3 3d
       -0.08188593 -0.86906517 -0.034545787 0.09565716
000050 ac 43 67 bc ae 91 96 3e 54 a9 e5 3c bb 79 ec 3d
       -0.014115255 0.2940802 0.028034844 0.11546656
000060 60 da 01 bc c5 16 1e 3e 98 48 73 3d d3 a5 9f be
       -0.0079256 0.15438373 0.059395403 -0.311812
000070 48 c2 aa 3c 79 af a6 3d 04 5e 4d bd 46 74 3a be
       0.020844594 0.081389375 -0.05013849 -0.18208417
000080 2e 9b 06 3d 65 1a 97 3c 08 9a 79 3d 63 38 50 be
       0.032862835 0.018445203 0.06093791 -0.2033401
000090 42 56 c7 bc b8 a7 8f 3c b7 5c 57 bd dc 21 98 bc
       -0.024333123 0.01753603 -0.052578654 -0.018570833
0000a0 1b 11 ab bc 48 c6 56 bd ed f5 ff be a0 5e 3d 3b
       -0.02088218 -0.05243519 -0.49992314 0.0028895512
0000b0 b2 1a 39 bd 22 8e 83 3e f3 e9 48 be 03 5a 03 3e
       -0.045191474 0.25694376 -0.19620495 0.12827305
0000c0 28 53 87 bc 11 28 2c 3d 18 d2 31 bd d7 7e e5 be
       -0.016519144 0.042030398 -0.04341325 -0.44823334
0000d0 6e 6d 9e 3d c6 d7 2e bd 19 8b 39 3d c5 ce d0 3d
       0.07735716 -0.042686246 0.04529867 0.10195688
0000e0 d5 d3 a7 3c c0 5f 06 3c 00 f9 22 bb 75 fb 47 3f
       0.020486752 0.0082015395 -0.0024867654 0.7811807
0000f0 35 c5 3a 3d 2f 67 33 3d 40 16 7c 3c 89 ff e8 be
       0.045598228 0.043799575 0.015386164 -0.45507458
000100 da b8 f7 3e b2 1f 71 bf 58 cd c7 3e 3f 7f a5 bc
       0.48383218 -0.9418899 0.39023852 -0.020202277
000110 81 17 c6 3c a9 11 ce 3d db c3 3f 3e db 8a 45 3d
       0.02418113 0.10061962 0.18727057 0.048228126
000120 0b e1 8c be c0 1e 9a 3c 2e 5a 99 be 5a 95 80 bd
       -0.27515444 0.01881349 -0.29951614 -0.062784865
000130 d0 d7 45 bf b1 dc 9f 3e 54 48 97 be 2d 50 1c 3e
       -0.7728243 0.31223062 -0.2954737 0.1526496
000140 52 d3 f6 3e 63 2f 2e be f9 f3 5e 3f 33 04 9c bd
       0.482081 -0.17010264 0.8709102 -0.076179884
000150 3d 0d b0 bf 49 be 78 be 52 ca 09 3d 21 2b 13 3e
       -1.375404 -0.24291338 0.033640213 0.14371921
000160 e2 3e dc be a9 8f 04 3d 8e 96 43 3d 6f c1 22 3d
       -0.43016726 0.032363568 0.047751002 0.039735254
000170 74 6a 5d bd 85 ee 59 bd 18 c5 86 3e e7 89 28 3c
       -0.0540566 -0.053205986 0.26322246 0.010286785
000180 a2 d9 5e bd 36 64 91 bd 80 ce 95 3d fb d3 ae 3d
       -0.05440677 -0.07099192 0.073147774 0.08536526
000190 bc 70 a3 3c 84 8c 83 3d 2b 7b 7a 3d b4 f4 06 bd
       0.019951217 0.064232856 0.06115262 -0.03294821
0001a0 28 af 96 bc cf 38 a3 3e 33 88 83 be da 17 3b be
       -0.018394068 0.3187928 -0.2568985 -0.18270817
0001b0 b6 c3 8e be b0 e0 18 bf dc 3b cd bc 29 ec 91 be
       -0.2788369 -0.59717846 -0.025052957 -0.28500488
0001c0 92 2f 6c be 33 78 a1 be 0e 65 0d 3b 7f 15 f8 3c
       -0.23065022 -0.31537017 0.0021575126 0.030283688
0001d0 38 91 2b be 39 3d 83 be 0d a2 db be a0 6b 34 3e
       -0.16754615 -0.25632647 -0.42897072 0.1761918
0001e0 7a 22 20 bf 7b 2c 5c bd 48 d8 55 3c f0 f3 fe 3e
       -0.6255261 -0.053753357 0.013052054 0.49795485
0001f0 66 76 ee be 2c ec 77 bc dd a1 09 be 00 42 38 3e
       -0.46574706 -0.015131991 -0.13440652 0.17993927
000200 b9 8e 1f be 70 c5 a9 3c c1 21 27 be db 05 5b 3e
       -0.15581788 0.020724028 -0.1632147 0.21388952
000210 d0 69 1d 3c 93 dc cf be 28 f4 44 3d 05 9a c7 be
       0.009607747 -0.40597972 0.048084408 -0.38984695
000220 7e c9 aa 3d 46 ba 2c 3d e1 48 01 bc b2 29 b4 3d
       0.08339213 0.04216983 -0.007890911 0.08797015
000230 23 78 49 be 50 25 31 be 38 7c 97 3c f5 43 9a 3e
       -0.19674735 -0.1729939 0.01849185 0.30129972
000240 82 8c 40 3d b1 5d e5 bd bc d1 8d 3d 49 d7 5e bd
       0.047009 -0.11199511 0.06924769 -0.05440453
000250 f6 3e 82 3e c2 7a 19 bd dc ef 7e 3d 89 65 fe bd
       0.2543866 -0.037470587 0.062240466 -0.1242171
000260 e2 89 45 3d 4a 52 20 bf 9c 94 aa bd 64 da b1 3d
       0.0482272 -0.62625563 -0.08329126 0.08684233
000270 74 71 be 3c 9d 98 1f bd 5f b8 fb be 2f 67 5e bc
       0.023247458 -0.038963903 -0.491641 -0.013574406
000280 36 65 3f bd 15 90 74 bd af 74 c9 be 5e ac 9d 3e
       -0.04672738 -0.05970772 -0.39346835 0.30795568
000290 17 78 f6 bc 2b 2d ed 3b c5 55 b7 bd 20 e3 fc bb
       -0.03008656 0.0072380505 -0.08951906 -0.007717505
0002a0 0c 70 c1 bd 5f a3 6a 3d 46 06 21 3e f6 e3 d2 3d
       -0.09445199 0.05728471 0.1572505 0.10297386
0002b0 03 53 3d 3f 7c 0f 88 bc 05 2f 35 3d bc 2b 8a be
       0.7395479 -0.016608946 0.044234294 -0.26986492
0002c0 b7 c1 60 3c 59 59 3c 3e db 2c dc bd a2 e1 f1 bc
       0.01371806 0.18393458 -0.10750743 -0.029526535
0002d0 61 bd 0c be 9b fc d0 3e d2 b4 7a 3d e1 8d 15 3d
       -0.13744117 0.40817723 0.0612076 0.03651226
0002e0 b4 c3 fa 3d ef 51 3e be b8 7c 52 be 21 48 05 3f
       0.12244359 -0.18585943 -0.20555389 0.52063185
0002f0 c2 14 27 be 10 6b 26 3e 8c 41 66 3e d6 be b6 bd
       -0.16316512 0.16251779 0.22485942 -0.08923118
000300 34 79 20 3e 8b f9 b2 3d 21 e4 29 3e c5 9e c0 3d
       0.15671235 0.08739003 0.1659093 0.09405283
000310 f5 91 9f 3e da 15 a7 be bf 33 27 3e 6c 7f 18 3e
       0.31166044 -0.3263386 0.16328333 0.14892358
000320 a9 41 57 be 2a 5b 7c 3d d0 b1 7f bd 6a 61 b6 3c
       -0.21021141 0.06161038 -0.062425435 0.022263248
000330 13 48 86 bd 5a 89 0e 3f 8e d8 6c 3d 08 15 50 3d
       -0.06556716 0.5567833 0.05782371 0.050801307
000340 61 03 52 3e 37 1a 8f bc 82 dc 3a 3e cf c2 bd be
       0.20509101 -0.017468555 0.1824818 -0.3706269
000350 89 d0 24 3e 5b e1 70 be 57 33 9a be 5c d7 50 bd
       0.16095175 -0.23523466 -0.30117294 -0.050986633
000360 ae 43 d3 3d bd 5b 90 3d 46 9e 84 be e6 ad 98 be
       0.10315643 0.07048748 -0.25902003 -0.29820174
000370 36 78 be 3d e2 4b 0e 3d 9c 37 f4 3d c0 66 7c 3e
       0.09300272 0.034740336 0.11924669 0.24648571
000380 6b d6 bd 3e 35 54 d4 bd a4 12 23 bd 47 03 06 bd
       0.3707765 -0.10367624 -0.0398127 -0.03271797
000390 0c cb 8a 3d a7 82 2c 3d 44 37 cc ba 97 c3 23 3c
       0.06777009 0.042116787 -0.0015580435 0.009995363
0003a0 61 b0 04 be 97 80 03 bc de 43 95 be 04 ad 73 bd
       -0.12957908 -0.008026264 -0.2915334 -0.059491172
0003b0 1a be 65 be 29 c2 39 bd 89 75 3c 3d 80 4c 71 bc
       -0.22435799 -0.04535118 0.046010528 -0.014727712
0003c0 57 c0 33 3d 90 44 45 3d 9a 12 07 3d 20 c2 30 3d
       0.0438846 0.04816109 0.032976724 0.043153882
0003d0 44 cd e6 3e 60 6d 5f bb cc 4d b3 3d 69 40 90 be
       0.4507848 -0.0034092292 0.08755073 -0.2817414
0003e0 5a 7d ae 3d cf 58 ff bb ff 98 8e 3e ba 4c 4a be
       0.08520003 -0.007792569 0.27851102 -0.19755831
0003f0 54 35 68 3e a2 21 58 3c 8d 55 27 bd 40 b7 cd bb
       0.22676593 0.013191612 -0.040853072 -0.0062779486

fc2.bias f4 [256]
000000 cc 40 87 3d bc ea e8 3d f9 43 bf 3c d4 4b 3a be
       0.06604156 0.11372897 0.023347842 -0.18192989
000010 c6 ef 12 3f 63 5e 74 be 19 30 50 3e a9 2f 0a 3e
       0.57397115 -0.2386413 0.20330848 0.13494743
000020 b8 b0 00 bd 84 1c e5 3c 36 d6 db bd 49 78 55 be
       -0.031418532 0.027967699 -0.10734217 -0.20846666
000030 df 75 01 bf 2f 68 e2 be c7 da b9 bd 19 78 26 be
       -0.5057048 -0.4422011 -0.090749316 -0.16256751
000040 bf cf 8c be eb 7a 05 bd 6f 89 b7 3e bb f5 2f 3e
       -0.27502248 -0.032587927 0.3584704 0.17183582
000050 b4 fe b1 bd 1e dd be bb 62 62 b1 3b 3b bd b1 bd
       -0.08691159 -0.005824699 0.0054133395 -0.08678671
000060 aa 1f f1 bb c7 73 1d be b3 89 60 be 4e c8 60 be
       -0.007358511 -0.15376197 -0.21927528 -0.2195141
000070 6a 53 f4 3d d3 62 cd bd 67 64 a3 bd a1 5b b4 bd
       0.119299725 -0.10028615 -0.079781346 -0.08806539
000080 71 e6 00 bf 94 bd cf bb 50 38 23 bd 51 39 dd be
       -0.50351626 -0.006339738 -0.039848626 -0.4320779
000090 76 1b cf bc ad 2d 02 ba ce c6 a7 be 01 9b e9 be
       -0.02528165 -0.00049659127 -0.32768863 -0.4562607
0000a0 f4 b0 b6 bc 6d 76 87 3e 1b f7 d1 3d f7 21 dc bd
       -0.022301175 0.2645754 0.1025221 -0.10748666
0000b0 e3 de d7 bd 6a 8d 19 be a8 89 28 bc fb 82 03 be
       -0.10540559 -0.14995351 -0.010286726 -0.12842934
0000c0 fb 21 40 3c 26 45 f0 bc bf c3 4f 3e ad f6 67 be
       0.011726852 -0.029329848 0.20289515 -0.22652693
0000d0 a4 a7 e4 bc 4d 97 b5 bc 0b 53 92 3c 99 72 92 bd
       -0.027911969 -0.022166872 0.017861864 -0.07150764
0000e0 28 63 40 be 9e 0d 1f bf 4d 4b e4 bd b9 36 18 3c
       -0.18787825 -0.62130153 -0.11147175 0.009290391
0000f0 f8 cc 88 3b 8f 0c ba 3e 58 2a eb 3d 28 e7 49 3b
       0.004174825 0.36337706 0.11482686 0.0030807946
000100 1f e7 54 3c 77 29 6c bc 0c 6e 6d bd 8a 9b 2e 3e
       0.012994557 -0.014414183 -0.057966277 0.17051521
000110 ec a8 9e be b7 1e eb bd 11 2a de bd d7 79 66 be
       -0.30988252 -0.11480468 -0.10847867 -0.22507416
000120 5c 2e aa be 5c 50 ad bd 49 53 cc be 97 0e 1b bd
       -0.33238494 -0.08462593 -0.39907292 -0.03785571
000130 6c 48 97 3d 46 e1 5f 3d b3 47 1e bc 13 68 d5 bc
       0.0738686 0.054658197 -0.009660649 -0.026050603
000140 b4 6c a2 bd b4 a1 89 be 81 e4 d6 be 1c 9e 05 bd
       -0.0793089 -0.26881182 -0.4197121 -0.032621488
000150 fc d8 da 3d bb e2 9b be f1 58 6b bd af 1f da 3d
       0.10685918 -0.3044642 -0.057457868 0.106505744
000160 e4 36 0a bf c0 64 f0 bd 2e bd 72 bd ef fa 25 bd
       -0.53990006 -0.117379665 -0.059262447 -0.040522512
000170 11 9b 24 bd 6e e2 0a bf 3e 68 17 bd 7e 39 5b bd
       -0.040186945 -0.54251754 -0.036964647 -0.053521626
000180 32 2a 3c be 53 88 a0 be f4 f5 c4 bc 78 56 f7 bc
       -0.18375471 -0.31354007 -0.02404306 -0.030192599
000190 5b b1 43 bc 3b e4 cd bd 01 2f ec bd c5 25 3b 3e
       -0.01194414 -0.10053297 -0.11532403 0.18276127
0001a0 2d e6 a1 bd 03 1f 1b be e1 27 dd 3c 38 4e 9f bd
       -0.07905231 -0.15148549 0.026996555 -0.07778591
0001b0 c9 b8 22 bf 6a 54 51 bd d6 2c 53 bd 3a df 9b bd
       -0.6356321 -0.051105894 -0.05155643 -0.076109365
0001c0 70 1c 8f bd ca 9f 63 be 80 b6 bc bd bc 53 bf bb
       -0.06987846 -0.22228923 -0.092144966 -0.0058388393
0001d0 3e 2f 73 bd bf 6c a5 bd e0 f7 36 3b e5 cd 25 bb
       -0.059371226 -0.08077382 0.002791874 -0.0025299725
0001e0 35 e0 8c bd eb f7 a7 3d 95 1d 8d bc 98 4c c4 bd
       -0.068787016 0.082015835 -0.01722602 -0.095849216
0001f0 2e 5d 06 bd ba f1 e7 bd a5 5e 5a bd 72 80 c4 3d
       -0.032803707 -0.113254026 -0.053312916 0.095948115
000200 20 d4 4d be 89 1a bd bd 2b cb af be a9 4f e2 bd
       -0.2010045 -0.09233577 -0.34334692 -0.1105035
000210 c1 d5 93 bd d0 1a 65 bd 47 7d a8 3e c9 93 44 3e
       -0.07218505 -0.055933774 0.3290808 0.19197
000220 e9 50 a8 be e5 3f e4 ba 2a cb af bd 9a 68 d4 ba
       -0.3287423 -0.0017414062 -0.08583672 -0.001620549
000230 2b 81 3e bd 25 e1 0e bc ec 74 40 bd d7 73 e2 bc
       -0.046509903 -0.008720671 -0.046986505 -0.027643127
000240 73 92 c2 bc f0 69 23 3d 9f 28 55 bd 37 27 a5 3d
       -0.023751473 0.03989595 -0.052040692 0.0806412
000250 23 49 3c be 63 8e a5 be 27 9e cf 3e 56 c9 9e be
       -0.18387274 -0.32335195 0.40550348 -0.31012982
000260 9a df 98 bd 9b db 26 bd cb 40 ff bd 14 78 a6 3b
       -0.074645236 -0.040736776 -0.1246353 0.0050802324
000270 a8 d5 c2 bd a2 3b cc 3b 2b ab 80 be ce 0e fe bd
       -0.09513408 0.0062326947 -0.2513059 -0.124051675
000280 22 ce b1 be 55 be 28 bf 67 68 41 3c 48 83 6e bd
       -0.3472758 -0.65915424 0.011804677 -0.05823067
000290 39 36 c7 bc ae 5f 88 bd 55 e5 58 be 21 7a f9 bc
       -0.024317848 -0.066588745 -0.21181233 -0.030453743
0002a0 c3 c8 89 bc 48 56 41 3e 30 f7 4b bd 7c 88 7e bd
       -0.016819363 0.1888057 -0.049796283 -0.06214188
0002b0 63 4b 3f bd db 63 bb be a7 42 0c be d7 61 c4 be
       -0.046702754 -0.3659962 -0.13697301 -0.38355896
0002c0 cd e5 0a 3c fa 42 1a bd 38 40 e3 bc 59 96 a9 3d
       0.00847764 -0.03766153 -0.027740583 0.0828063
0002d0 bc f3 f7 bd fb 2f 82 be 83 47 3e be 99 a2 2c bd
       -0.121070355 -0.2542723 -0.18581967 -0.042147253
0002e0 ec 9d 91 bc bc 24 3b bc be 3e 01 3c 92 e0 aa bc
       -0.017775498 -0.011422332 0.007888494 -0.020859037
0002f0 e0 0e 37 3e 3d 4e 41 be c8 f3 b0 bd 61 ce 55 bc
       0.17876768 -0.18877502 -0.086402476 -0.013049693
000300 4c e3 db 3c 83 e1 56 bd 19 1b 2c 3e 68 d1 aa bd
       0.026841782 -0.05246116 0.16807212 -0.08340722
000310 4f 33 8f 3d 28 5b e3 be 65 ac 03 bd 1f bb dc bd
       0.06992208 -0.44405484 -0.03214683 -0.10777878
000320 b2 7f 5d 3c 5c 1f 11 bf 73 56 8f bd 94 8d 69 3c
       0.0135192145 -0.56688476 -0.06998911 0.014254946
000330 a7 39 1c 3d 04 7b 7c 3d 2b 7a ca bd 81 9d bb 3d
       0.03814092 0.061640754 -0.09886583 0.09160901
000340 14 45 c3 bc b7 70 39 3d 86 ff 30 bf 4e 77 f9 bc
       -0.02383665 0.04527351 -0.691399 -0.030452397
000350 58 e8 0d 3e c3 11 6b bd ad ea be 3c 89 65 cd be
       0.13858163 -0.057389986 0.023305262 -0.40116528
000360 cd 08 16 3e 45 f9 4f bd a4 28 8a bd c4 73 cb bb
       0.14651795 -0.05077483 -0.06746033 -0.0062088687
000370 6f 7f 32 bf 05 53 99 bd bb 58 a7 3d a9 b8 24 be
       -0.697257 -0.07486538 0.08171221 -0.16086067
000380 d7 ea 56 be 21 84 0e be 77 3b 09 3c 45 ab 2f be
       -0.20988022 -0.1391759 0.008375994 -0.17155178
000390 ce ee 1d 3d 19 e3 86 bd da 18 60 bd f3 5a 8d 3d
       0.03855782 -0.06586284 -0.0547112 0.06902113
0003a0 ed 69 4a 3e ca 15 02 3e a1 f8 f9 bd c1 e5 db bd
       0.1976697 0.12703624 -0.12205625 -0.107371815
0003b0 fe ba 10 3d 9f fd 95 3d ee c8 dc be 5c 48 7a bd
       0.03533458 0.07323765 -0.43122047 -0.061104164
0003c0 f7 3f 81 be 4d 37 4e bc 0e 4b 75 3d b4 de 8d be
       -0.25244114 -0.012586427 0.05988603 -0.27708972
0003d0 43 e9 2b be da ca ac bd e1 0b b4 3c 31 42 52 be
       -0.16788201 -0.08437128 0.02197832 -0.20533063
0003e0 ba 7e f4 3a 7f 28 0e be e7 c7 e1 bd 89 99 83 3d
       0.001865349 -0.13882636 -0.110244565 0.06425769
0003f0 04 9c c5 3d 07 24 aa bd de 59 da be d7 27 99 be
       0.09648898 -0.08307653 -0.42646688 -0.29913208

fc3.weight f4 [3, 256]
000000 0f 84 74 be 64 92 e5 bd 9c 60 65 3b 4f 12 9b be
       -0.23878501 -0.112095624 0.003500021 -0.30287406
000010 51 4d a6 bd 19 31 b6 be a5 13 4f bf 8e c1 d2 3c
       -0.08120216 -0.35584334 -0.8088935 0.02572706
000020 3e 0d 25 3c 0e d4 32 3c aa 47 8e 3e 27 84 1d bf
       0.010073958 0.010914816 0.2778905 -0.61529773
000030 cf 34 e0 3d 43 04 90 be 03 e4 b1 bb 2f 1c 46 bd
       0.109475724 -0.2812825 -0.0054287924 -0.04836672
000040 e5 8c 23 bf 7c 49 68 bc 91 13 e8 bc cb 06 2e bf
       -0.63886863 -0.014177676 -0.028329642 -0.67979115
000050 f5 e6 12 bf 0f a3 5e 3b 74 00 82 bf 50 f3 22 bc
       -0.5738366 0.0033971702 -1.0156388 -0.0099457055
000060 52 59 08 bc 2e 70 af 3f 3d a0 db 3e c5 0d 03 bf
       -0.008322077 1.370611 0.4289569 -0.51192886
000070 9a ff af bd 2f d8 55 3e df 6a 0a 3c 08 cf 5c 3b
       -0.08593674 0.20883249 0.008448332 0.0033692736
000080 a5 c5 40 3e 9f af fc bd d5 52 dc 39 87 f7 8e be
       0.18825395 -0.123381846 0.00042023385 -0.27923223
000090 c5 2a bf bb b3 0f 7e 3a 4b f1 0c bf 1d 17 3b bf
       -0.005833956 0.00096916704 -0.55055684 -0.73082143
0000a0 95 30 2a 3c 89 4a 2b 3e cd fb cd 3d b3 cd bf 3e
       0.010387559 0.16727652 0.10057793 0.37461624
0000b0 1f a7 e7 be 47 da 0f bf 7f af e1 bb 73 08 06 3c
       -0.4524469 -0.5619244 -0.006887376 0.008180725
0000c0 8f b1 36 bc 99 df 0f bc 87 d5 10 bf 31 c5 de be
       -0.011150732 -0.008781337 -0.56575817 -0.4350982
0000d0 a1 84 ec be 54 32 0a 3c 9e fc 20 3d 8a 41 b7 3b
       -0.46194938 0.008434851 0.039303415 0.0055925297
0000e0 8d 40 00 3f d8 c5 a3 3e 02 3c ce 3b 78 7f c0 bb
       0.50098497 0.3198688 0.0062937746 -0.0058745705
0000f0 b9 99 8b 3b 5b 38 1a be 55 ad d8 be 06 c5 22 bb
       0.0042602685 -0.1506056 -0.42319742 -0.0024836673
000100 38 36 93 bf 96 49 02 bc 59 f4 4b 3e 33 1a 13 3e
       -1.1500921 -0.007952115 0.1991743 0.14365463
000110 51 96 6f be 0e 12 bf 3e 98 dd de 3e f9 2b 0b 3f
       -0.23397185 0.37318462 0.43528438 0.5436397
000120 d2 b4 fe 3d 66 61 76 bf f0 7b 30 be de 18 2f bd
       0.124368325 -0.9624237 -0.17234778 -0.042748325
000130 66 cf 94 3e a6 f4 83 be 88 aa 43 b9 9a 49 73 ba
       0.29064482 -0.2577259 -0.00018660177 -0.0009280682
000140 5d 6b 5c 3b fb 4d ee 3e 37 96 4c 3e 7b a2 3e 3a
       0.003363333 0.4654387 0.19979177 0.0007272136
000150 f3 fa 49 3f 25 3d ba 3e 40 e5 22 3f 09 28 8d be
       0.78898543 0.36374775 0.6363106 -0.27569607
000160 87 fc 2c be 6d 49 d0 bc 77 4a 15 bb 04 63 ef be
       -0.16893207 -0.025425637 -0.002277998 -0.4675523
000170 35 59 cf 3d 9b e7 22 3f 0f c2 c6 3b da a5 e1 3e
       0.10124437 0.6363465 0.006065614 0.44071847
000180 45 4b d8 be d8 c2 e6 3e 14 1b f8 3c 97 dd fa be
       -0.42244926 0.4507053 0.03028635 -0.48997185
000190 d9 e0 60 3b cd 22 aa 3e 48 bd 88 3e 70 48 c7 be
       0.0034313707 0.33229676 0.2670691 -0.38922453
0001a0 fe 26 43 bd ff 30 be be 88 db e1 be c9 cc 64 bc
       -0.047644608 -0.37146756 -0.44112802 -0.01396484
0001b0 62 70 c3 bd 3a 23 77 3a 3e 01 3c 3a 65 5d 08 bf
       -0.0954292 0.00094275514 0.0007171816 -0.5326751
0001c0 a4 ef 16 3f 47 08 11 3f c8 2b dc 3a f3 4d 0b 3b
       0.5895941 0.56653255 0.0016797716 0.0021256178
0001d0 82 57 4d bc b1 b5 3a 3b ac 9e c6 bb 99 f2 64 bc
       -0.0125330705 0.0028489644 -0.0060613956 -0.013973855
0001e0 51 a6 bb 3b d8 dd a2 be fd 52 7a 3d df 3a 01 bf
       0.0057266136 -0.31809878 0.0611143 -0.50480455
0001f0 98 6d dd be ea 9e df 3e 91 2f c7 bc fb fc 37 bf
       -0.43247676 0.4367593 -0.024314674 -0.7187039
000200 e3 c9 06 3f 48 b2 e3 3d e1 e6 d8 3d 2e 4b 10 bc
       0.52651805 0.11117989 0.10590912 -0.008806987
000210 e9 0c f1 b8 8a 54 7c bf 0b 5b c9 be e0 10 b0 3e
       -0.0001149418 -0.98566496 -0.39327273 0.34387875
000220 f4 d4 18 be af c6 26 bd 9c 73 b6 bb 8c 2d b0 be
       -0.14924985 -0.040716823 -0.005567981 -0.3440975
000230 2f 58 1d 3c 59 e1 93 3e e6 aa 12 bf 18 69 08 b9
       0.009603544 0.28882864 -0.5729202 -0.00013009121
000240 17 e3 fe b9 fc 66 bd bc 7f 37 2c 3b cb 8c 07 bd
       -0.0004861585 -0.023120396 0.0026278195 -0.033093255
000250 e7 84 80 3d 31 4c 02 bf b5 ab be 3c e2 8a 41 bf
       0.06275349 -0.5089751 0.023275236 -0.75602543
000260 98 ec 24 ba 06 a5 d4 be df 2e be 3e ea 3c f6 bb
       -0.0006291359 -0.41532153 0.37145135 -0.0075145857
000270 03 79 97 bb 9e c1 86 bb 0a c7 d3 be 0e f5 98 3e
       -0.00462258 -0.0041124364 -0.41362792 0.29874462
000280 3b 24 6b bf 33 67 c3 bd 8d 8a cb 3d f2 ff d7 bb
       -0.9185216 -0.09541168 0.09938536 -0.0065917904
000290 f6 06 70 3e fd 37 3d ba e1 a9 2b 3e aa 18 19 3e
       0.23440155 -0.0007218121 0.16764022 0.14950815
0002a0 ed 23 13 bf a4 d4 02 3e 0f 61 b4 3e cb fd 96 b9
       -0.57476693 0.12776428 0.352303 -0.0002879932
0002b0 1e f4 67 bf f1 a9 10 3e 65 cf b2 3e a0 d8 26 be
       -0.9060687 0.14127328 0.34923854 -0.16293573
0002c0 f7 84 2e ba f0 60 12 3e 2b 2d ba 3b 2b a0 64 bf
       -0.00066573865 0.14294791 0.005681654 -0.89306897
0002d0 fd ce f6 3e 22 25 90 bf 16 43 1a be d4 7e 8f bf
       0.48204795 -1.1261332 -0.15064654 -1.121058
0002e0 55 d7 ad ba 30 5c 11 bc 16 ac cf bb eb 12 68 3d
       -0.0013263026 -0.008872077 -0.006337653 0.056658667
0002f0 1e c9 5f 3f 94 0e 4e 3f f6 c1 0a bf 85 c8 98 bb
       0.87416255 0.80490994 -0.5420221 -0.0046625757
000300 d0 4d 2f 3b ff 84 ff be d1 55 d1 bd 0f a2 38 bc
       0.002674926 -0.49906155 -0.10221446 -0.0112691065
000310 a8 c2 9c bd 75 fd 12 3f dd 75 45 bf 2a e6 cb bd
       -0.07654315 0.57417995 -0.7713297 -0.0995601
000320 0b bc 6c 3b 3d c8 5b bf ea ec e4 bc 0e 38 65 ba
       0.0036122825 -0.85852414 -0.027945 -0.00087440095
000330 b6 b1 53 bf dd 08 cc be 59 24 44 be cc d1 d9 be
       -0.8269304 -0.39850512 -0.1915449 -0.42542875
000340 d3 2a 2c 3f 74 ac b2 bd 46 65 ee 3e c9 68 99 bc
       0.67252845 -0.08724299 0.4656164 -0.018726723
000350 cd 01 a4 3e 73 45 a5 bb 49 59 3b bb e8 cb c3 3e
       0.32032624 -0.0050436794 -0.0028587154 0.38241506
000360 55 2a 00 3f 6f 8c 0d 3f be 63 4d bb 74 0c 94 bc
       0.50064594 0.5529241 -0.0031339969 -0.018072344
000370 de 2e f9 be 08 35 9e bb 32 61 f5 be 6a ba 90 bd
       -0.4866857 -0.004828099 -0.47925717 -0.07066806
000380 da de 9e be 76 e6 0f 3e 59 b1 be bb 1a 71 4f be
       -0.31029397 0.14052758 -0.0058194813 -0.20257989
000390 a2 cf d0 be 4f 00 98 be 4a e7 bd be 83 ba e3 be
       -0.4078341 -0.29687735 -0.37090522 -0.44478235
0003a0 5c b1 f0 bd 4f f8 94 3c 2e ea 2d 3f c7 08 58 bc
       -0.117525786 0.018184809 0.67935455 -0.013185686
0003b0 06 57 4d 3c f6 97 f4 bd 28 84 d4 3e a2 f6 12 bd
       0.012532955 -0.11943047 0.41507077 -0.03587974
0003c0 06 85 4c 3e 4e ef 52 bc 90 41 34 3e ea 63 95 bc
       0.1997262 -0.0128744375 0.17603135 -0.01823612
0003d0 f2 da 09 bf 0a 7e ee bb f1 33 2e 3c b9 d9 b7 be
       -0.5384971 -0.0072782086 0.010632501 -0.35908297
0003e0 e3 f1 6f bc 1d 13 09 bf ac 64 b1 3e a3 c8 ed bd
       -0.014645073 -0.5354479 0.3464712 -0.11610534
0003f0 52 52 34 3e e1 b1 2b 3b 46 9a ca 3e 7a fc 42 3f
       0.17609528 0.0026198553 0.39570826 0.761665

fc3.bias f4 [3]
000000 69 b5 da be 8b ba 71 3e 3a eb dd 3d
       -0.4271653 0.23606317 0.108358815
