runs/checkpoint_actor_256_192021_tau1_505.pth (torch, 288535 bytes, 6 tensors)

fc1.weight f4 [256, 19]
-0.049285926 0.00735645 -0.057553634 -0.0505858 -0.022600263 -0.054991066 -0.013213977 -0.014685743
-0.05178406 -0.032791525 0.0057679936 0.023312852 -0.041848674 0.010691442 0.054735184 -0.014331482
0.018978678 0.012527905 -0.0022491813 0.030038139 -0.10257499 0.21339248 -0.11995719 -0.08556764
0.21285549 0.09791099 -0.16542733 -0.38909322 -0.3765833 -0.20645677 -0.18510568 -0.107111886
-0.026953487 0.018645925 -0.41527084 -0.18208149 -0.4001469 -0.3893342 -0.0028931554 0.08004783
0.118800916 0.044618756 -0.2459441 -0.22066338 0.6584864 -0.6735504 -0.3580823 -0.17505252
-0.17182569 -0.14642796 -0.0795741 0.1987461 -0.1561558 0.19949985 -0.82501507 -0.7661986
-0.3916661 -0.017871354 -0.13359144 -0.12204788 -0.19609448 -0.38253686 0.31999332 0.33538193
-1.1749767 -1.246813 -1.1965289 -0.26424202 -0.26039717 -0.22434616 -0.026570745 -0.08365073
-0.2641558 0.19512132 0.061057556 0.23350339 -0.0014085823 0.20058388 -0.09089055 -0.052323554
0.3730648 -0.6041704 -0.06575452 -0.05117765 0.046618976 -0.048688542 0.050086398 0.0057689236
0.037543155 0.121388234 0.23169033 -0.11028658 -0.29230273 -0.056148432 -0.060452595 -0.020872133
0.04190726 -0.16761573 -0.011368929 -0.40774813 -0.2832677 0.96957934 0.33886498 0.3401261
0.4195066 -0.20559822 -0.20547326 -0.14945327 -0.020994693 -0.2774545 -0.1481306 -0.16701697
0.12102843 0.18527356 -0.08022302 -0.070110604 -0.03350787 0.025418682 0.024512121 -0.083248265
0.022925694 -0.027964259 -0.03101352 0.074129514 -0.04229618 -0.058876738 0.0006631389 -0.045313325
-0.02908405 0.06508497 -0.015403659 -0.06781265 -0.05205017 -0.0002900021 0.13040394 -0.017700793
-0.1597417 -0.75961214 0.035506777 -0.68892896 -0.37040964 -0.4975868 -0.48277724 0.10247097
0.09936242 0.07156727 0.08316299 0.10841627 0.34989873 -0.55037004 -0.76536906 -0.30242485
-0.0020781676 -0.027331468 -0.11164104 0.077002004 -0.24989857 -0.16536215 0.06992417 0.5960964
0.66822296 0.67549396 -0.106907584 -0.11502978 -0.05724233 -0.36618993 -0.18507902 0.1766846
-0.9282346 -0.5292569 -0.29559037 0.0035528243 -0.042218983 0.23546974 0.08298618 0.4710794
-0.11769921 0.29088026 -0.05790281 -0.096539095 -0.09151979 -0.053209383 -0.16467221 -0.12392788
0.46303478 -0.32431012 -0.0954911 -0.14467517 -0.42615077 -0.17061995 -0.0015943738 -0.020390134
-0.21066423 0.10817304 0.0927602 -0.6452739 -0.43981686 0.98361236 0.8394766 0.7990798
0.06407518 0.032684993 0.06948841 0.029778559 -0.14809354 -0.25893772 -0.108960554 0.027521793
-0.052956294 -0.06495981 0.022549368 -0.042519495 -0.008639966 0.040552065 0.03535014 -0.05726365
-0.021325279 -0.04341171 0.051406674 -0.016379697 0.0170731 -0.04380349 0.027087323 -0.030812833
0.0117390035 -0.054371677 -0.02217835 -0.055646434 -0.005472296 0.001920102 0.023359826 0.07026013
-1.121769 -0.19989742 -0.33900028 -0.08174477 -0.016885724 -0.08856275 -0.033922512 -0.12119146
-0.076893725 0.20764723 -0.12536007 0.22338168 -0.2661779 -0.65456665 -0.094073445 -0.0012521273
0.10700163 0.17239153 -0.17882138 -0.78459316 -0.50849617 0.8599144 0.0962606 0.028838886
00000000: 0ae0 49bd 600e f13b 5cbd 6bbd 0e33 4fbd
00000010: 3024 b9bc 503e 61bd 707f 58bc 789c 70bc
00000020: 861b 54bd 6850 06bd 7001 bd3b 98fa be3c
00000030: 8469 2bbd 282b 2f3c 0032 603d 98ce 6abc
00000040: 2c79 9b3c d841 4d3c 0067 13bb 8b12 f63c
00000050: d612 d2bd 8f83 5a3e 1dac f5bd 163e afbd
00000060: caf6 593e 8f85 c83d c865 29be 3a37 c7be
00000070: 87cf c0be 6769 53be 588c 3dbe 7a5d dbbd
00000080: 8fcd dcbc 57bf 983c 619e d4be 9273 3abe
00000090: 0ee0 ccbe d056 c7be 189b 3dbb 1ef0 a33d
000000a0: e54d f33d 28c2 363d c5d8 7bbe 95f5 61be
000000b0: 9192 283f cd6d 2cbf 9056 b7be f840 33be
000000c0: 13f3 2fbe 36f1 15be bff7 a2bd 1984 4b3e
000000d0: 4ee7 1fbe b049 4c3e 3034 53bf 9725 44bf
000000e0: 7688 c8be f266 92bc 32cc 08be 3df4 f9bd
000000f0: fecc 48be dfdb c3be 2ad6 a33e 2eb7 ab3e
00000100: a365 96bf 9297 9fbf dc27 99bf bb4a 87be
00000110: c752 85be 00bb 65be e4aa d9bc 1351 abbd
00000120: 6e3f 87be e2cd 473e 7d17 7a3d 831b 6f3e
00000130: 2ea0 b8ba dc65 4d3e d324 babd 3951 56bd
00000140: 5902 bf3e e9aa 1abf 4eaa 86bd a89f 51bd
00000150: 8af3 3e3d a36d 47bd 6527 4d3d 3d09 bd3b
00000160: dac6 193d 659a f83d 3b40 6d3e eedd e1bd
00000170: b4a8 95be e6fb 65bd 249d 77bd 09fc aabc
00000180: f2a6 2b3d 75a3 2bbe bf44 3abc 5dc4 d0be
00000190: 7708 91be 5a36 783f b67f ad3e 0225 ae3e
000001a0: 92c9 d63e 5788 52be 9567 52be 470a 19be
000001b0: 10fd abbc 840e 8ebe 8caf 17be 7f06 2bbe
000001c0: c1dd f73d 5ab8 3d3e f74b a4bd 2696 8fbd
000001d0: 8c3f 09bd d73a d03c a5cd c83c 117e aabd
000001e0: aace bb3c 4d15 e5bc 1110 febc 37d1 973d
000001f0: c23e 2dbd bc28 71bd 80d6 2d3a 779a 39bd
00000200: ac41 eebc 454b 853d a15f 7cbc 5ce1 8abd
00000210: 8f32 55bd 6c0b 98b9 9c88 053e 4101 91bc
00000220: 5493 23be f175 42bf 8e6f 113d a65d 30bf
00000230: 55a6 bdbe b2c3 febe 942e f7be 4ddc d13d
00000240: 867e cb3d dc91 923d 5c51 aa3d 5909 de3d
00000250: ed25 b33e 0de5 0cbf 3aef 43bf 6ed7 9abe
00000260: de31 08bb 3ee6 dfbc 0fa4 e4bd 3ab3 9d3d
00000270: 69e5 7fbe b254 29be 6734 8f3d c699 183f
00000280: a910 2b3f 2ced 2c3f 5df2 dabd bc94 ebbd
00000290: ef76 6abd 3f7d bbbe 5b85 3dbe cfec 343e
000002a0: c8a0 6dbf 617d 07bf 9f57 97be 80d6 683b
000002b0: d0ed 2cbd fb1e 713e a9f4 a93d 5231 f13e
000002c0: 490c f1bd 42ee 943e 7f2b 6dbd 4ab6 c5bd
000002d0: ba6e bbbd 15f2 59bd d59f 28be e6cd fdbd
000002e0: e512 ed3e fa0b a6be d690 c3bd ba25 14be
000002f0: 6f30 dabe ffb6 2ebe 4ffa d0ba 3609 a7bc
00000300: 5db8 57be d489 dd3d 0ff9 bd3d ac30 25bf
00000310: ad2f e1be 05ce 7b3f f0e7 563f 7e90 4c3f
00000320: d939 833d b3e0 053d f14f 8e3d 2af2 f33c
00000330: d5a5 17be 7c93 84be b626 dfbd 6275 e13c
00000340: b3e8 58bd a609 85bd 74b9 b83c ec28 2ebd
00000350: a58e 0dbc ec19 263d 4fcb 103d 4a8d 6abd
00000360: 5ab2 aebc 7ad0 31bd ce8f 523d b72e 86bc
00000370: e3dc 8b3c 4a6b 33bd 3ce6 dd3c 326b fcbc
00000380: f354 403c d6b4 5ebd 5faf b5bc 84ed 63bd
00000390: f250 b3bb efab fb3a 1b5d bf3c 8be4 8f3d
000003a0: 2096 8fbf e9b1 4cbe 7291 adbe cd69 a7bd
000003b0: ee53 8abc 6360 b5bd 55f2 0abd 3a33 f8bd
000003c0: 757a 9dbd 7aa1 543e 645e 00be 2bbe 643e
000003d0: 7848 88be ae91 27bf 94a9 c0bd 6c1e a4ba
000003e0: ac23 db3d 6887 303e f41c 37be 19db 48bf
000003f0: ce2c 02bf 5a23 5c3f 4724 c53d 873f ec3c

fc1.bias f4 [256]
0.06889538 -0.2847153 0.13732095 -0.22311503 0.018630166 -0.011327423 0.16601118 0.07472785
-0.1766679 -0.16231567 0.10574128 0.1866832 0.12123231 0.22686043 0.06571195 0.028573997
-0.31920913 0.20672716 -0.22368126 -0.1416465 0.16972786 -0.14538522 -0.13908383 -0.18200262
-0.1123654 -0.25436988 -0.12349912 -0.21577476 0.08935229 -0.15365337 -0.03958382 0.28836176
0.18297485 -0.07212926 0.213131 -0.02556124 -0.048672568 0.045470484 -0.16759232 -0.253874
-0.024513034 0.09226256 -0.29404762 -0.01182874 0.04455007 0.048006173 0.054908726 -0.1451581
0.059515268 0.22114113 0.18299298 0.2682489 -0.21031937 -0.16737583 -0.15734284 0.04708618
0.33556584 -0.12748964 0.030146439 -0.17006086 -0.21733654 -0.12524267 -0.2134275 0.1732495
0.12346173 0.2810855 -0.13724548 -0.01745952 -0.18335007 -0.34464058 0.06966022 0.02566971
0.07369441 -0.06877084 -0.018747047 -0.010967242 -0.17727949 -0.24269688 0.0993265 -0.003571693
0.05200277 -0.076613106 -0.28639615 -0.049881637 0.15253203 -0.3985213 -0.021906653 0.044827882
-0.23676725 0.116335474 0.0038617582 -0.1567987 -0.15035634 0.15220663 -0.08410312 -0.2108235
0.11024604 0.25263852 0.16250387 -0.16918455 -0.049109418 0.47087038 -0.36149064 -0.15444866
0.17772359 0.0734512 0.00256256 0.24765815 -0.1660778 0.17350341 0.04025519 -0.23137306
-0.20969075 -0.04079046 0.0606402 0.21009432 -0.21507424 -0.11190956 0.17174257 -0.12631601
0.028564392 -0.25639313 0.14150167 0.18975686 -0.013256298 -0.26128578 -0.12830904 0.15780427
-0.096361175 -0.10673966 -0.12725516 -0.12367358 -0.056226403 -0.19847633 -0.01879477 0.04356452
-0.012600054 -0.30555868 -0.13987695 0.2472393 0.00041474847 -0.15846992 -0.26397142 -0.34339148
0.08916832 0.010246309 -0.1386932 0.03476463 -0.20387812 -0.09180225 -0.0049976595 0.10378332
-0.12235178 0.2050314 -0.14935909 -0.4866675 0.17415002 0.04283973 -0.08274687 -0.07961634
-0.24806051 -0.12175419 0.14088647 0.18646356 -0.24564946 -0.2778953 0.24662958 0.026463654
-0.09498957 -0.143765 -0.5343453 -0.2381491 0.11973462 0.1630869 0.007170282 -0.32802284
0.13330436 -0.019238789 0.08371769 0.17117465 -0.2069607 -0.0671116 0.22392498 -0.09300808
-0.12339105 -0.43295196 -0.06042896 0.04977297 -0.07470304 -0.09015973 -0.2837909 0.11662453
-0.27567288 0.10160834 -0.11757544 -0.26513845 -0.025756132 -0.13056944 -0.21935205 -0.41757938
0.009931456 -0.19866383 0.15394036 0.057949327 0.1570072 0.22473013 0.09765909 -0.06942285
-0.3229794 -0.24499144 0.051956173 -0.20247123 -0.09409222 -0.37900674 0.03935433 0.08612588
0.14810313 0.052087467 0.07441686 -0.28874284 -0.07923368 -0.11654549 -0.124648124 -0.20962322
0.12382174 0.004835811 -0.01942303 0.09150736 -0.08119929 -0.23909843 -0.029835267 -0.017142309
-0.19025314 -0.16928424 -0.14849827 -0.19889969 -0.076839164 0.17376575 0.04540451 0.01923469
-0.0048531387 0.18587604 -0.08707881 0.17129835 0.2001567 -0.00013953197 0.14772142 -0.15201783
0.17614871 0.17200057 -0.017600112 -0.2208656 0.09253457 -0.13525392 -0.14293054 -0.21535902
00000000: 0519 8d3d 34c6 91be dd9d 0c3e 4478 64be
00000010: 4a9e 983c a896 39bc d6fe 293e ea0a 993d
00000020: 6ee8 34be 1436 26be e28e d83d e129 3f3e
00000030: a548 f83d 1a4e 683e fd93 863d 0414 ea3c
00000040: 616f a3be 49b0 533e b30c 65be c80b 11be
00000050: 24cd 2d3e dddf 14be fe6b 0ebe e55e 3abe
00000060: d51f e6bd c53c 82be 1bed fcbd 0ff4 5cbe
00000070: 55fe b63d 4f57 1dbe a522 22bd 27a4 933e
00000080: c25d 3b3e 81b8 93bd 033f 5a3e ce65 d1bc
00000090: e35c 47bd 423f 3a3d 529d 2bbe c6fb 81be
000000a0: 8fcf c8bc 27f4 bc3d 698d 96be 55cd 41bc
000000b0: 227a 363d 1fa2 443d f9e7 603d 53a4 14be
000000c0: 48c6 733d d272 623e 8362 3b3e eb57 893e
000000d0: f65d 57be 9264 2bbe 7b1e 21be 70dd 403d
000000e0: 49cf ab3e a58c 02be aaf5 f63c 6f24 2ebe
000000f0: 788d 5ebe 9d3f 00be bd8c 5abe 5168 313e
00000100: 81d9 fc3d 70ea 8f3e 148a 0cbe 4407 8fbc
00000110: 1fc0 3bbe bb74 b0be 04aa 8e3d 4949 d23c
00000120: 18ed 963d bad7 8cbd 6893 99bc f2af 33bc
00000130: c188 35be 8885 78be b16b cb3d 1113 6abb
00000140: db00 553d 55e7 9cbd 84a2 92be b050 4cbd
00000150: 5b31 1c3e fc0a ccbe 9575 b3bc 719d 373d
00000160: 1d73 72be 4b41 ee3d 8d15 7d3b d78f 20be
00000170: 03f7 19be 0edc 1b3e 423e acbd 1ee2 57be
00000180: adc8 e13d d659 813e 6a67 263e b73e 2dbe
00000190: f526 49bd ec15 f13e 4d15 b9be ca27 1ebe
000001a0: 2cfd 353e 956d 963d 9ff0 273b 199a 7d3e
000001b0: 4c10 2abe e1aa 313e a0e2 243d 0fed 6cbe
000001c0: 2cb9 56be e613 27bd dc61 783d f722 573e
000001d0: 6c3c 5cbe d730 e5bd 49dd 2f3e fc58 01be
000001e0: dfff e93c f645 83be d0e5 103e 9f4f 423e
000001f0: f230 59bc 40c7 85be 7263 03be 7197 213e
00000200: 0259 c5bd 539a dabd 2d4f 02be 9348 fdbd
00000210: a84d 66bd 613d 4bbe 7df7 99bc b670 323d
00000220: 7570 4ebc 3072 9cbe e73b 0fbe 4d2c 7d3e
00000230: 9972 d939 f045 22be 4327 87be 02d1 afbe
00000240: e19d b63d 23e0 273c 9705 0ebe 5b65 0e3d
00000250: 6dc5 50be d102 bcbd 68c3 a3bb 598c d43d
00000260: 9293 fabd c0f3 513e 97f1 18be 7c2c f9be
00000270: 6254 323e b678 2f3d 3177 a9bd e40d a3bd
00000280: 9303 7ebe 435a f9bd 8b44 103e 4ef0 3e3e
00000290: 888b 7bbe 4b48 8ebe 778c 7c3e 4eca d83c
000002a0: e489 c2bd 2237 13be dbca 08bf 5cdd 73be
000002b0: 6d37 f53d 4100 273e aff4 ea3b 9cf2 a7be
000002c0: f080 083e aa9a 9dbc 2e74 ab3d 6848 2f3e
000002d0: 81ed 53be ce71 89bd 974c 653e 057b bebd
000002e0: 72b4 fcbd e1ab ddbe 5b84 77bd bede 4b3d
000002f0: e8fd 98bd aaa5 b8bd 0a4d 91be d7d8 ee3d
00000300: ff24 8dbe 0918 d03d 64cb f0bd 3ac0 87be
00000310: 86fe d2bc ffb3 05be d39d 60be f7cc d5be
00000320: 8cb7 223c 886e 4bbe 8ba2 1d3e 465c 6d3d
00000330: 7fc6 203e a81f 663e 7d01 c83d 912d 8ebd
00000340: 8e5d a5be 09df 7abe ffcf 543d 9e54 4fbe
00000350: 6cb3 c0bd 2c0d c2be 0232 213d c462 b03d
00000360: 59a8 173e ab59 553d de67 983d 1ad6 93be
00000370: 4545 a2bd 67af eebd 8447 ffbd 78a7 56be
00000380: 4196 fd3d b975 9e3b 0c1d 9fbc 3668 bb3d
00000390: d04b a6bd 38d6 74be 1769 f4bc 076e 8cbc
000003a0: b8d1 42be d958 2dbe ee0f 18be 5cac 4bbe
000003b0: da5d 9dbd a6ef 313e 14fa 393d 1292 9d3c
000003c0: 1407 9fbb 4a56 3e3e 6056 b2bd d668 2f3e
000003d0: e1f5 4c3e 544f 12b9 4944 173e 90aa 1bbe
000003e0: 5460 343e eb20 303e 1c2e 90bc 982a 62be
000003f0: c482 bd3d 0180 0abe 625c 12be 1387 5cbe

fc2.weight f4 [256, 256]
0.052740052 0.06220253 0.118407756 -0.21037921 -0.14331646 0.10965188 -0.047297604 0.26475358
-0.13425636 -0.35737637 -0.55416924 -0.022292122 0.081119575 -0.8051036 -0.09380385 -0.08739332
0.08371981 -0.87122494 0.018597072 -0.12345323 0.16392696 0.15047401 0.030324413 0.22080247
-0.17252432 -0.0045712334 0.059395403 -0.2440077 0.020844594 0.07347242 0.27069628 -0.029592065
-0.09135358 0.018445203 0.06093791 -0.12423455 -0.024333123 0.01753603 0.0012418081 -0.018570833
-0.02088218 0.07120549 -0.92749375 0.0028895512 -0.11917675 0.40137735 -0.18855362 -0.089554414
-0.13784367 0.042030398 -0.04341325 -0.24970955 0.07735716 -0.042686246 0.04529867 0.0281376
-0.011655268 0.0082015395 -0.0024867654 -0.03184445 0.045598228 0.043799575 0.015386164 -0.03058745
0.20401244 -0.79402375 0.14648856 -0.021052018 0.02418113 0.022469858 0.12575667 0.048228126
-0.1410513 0.01881349 -0.26689532 -0.062784865 -0.3482756 0.19044024 -0.13576174 0.06265875
0.20035848 -0.027678788 0.39519343 -0.076179884 -0.95799863 0.114815846 0.033640213 0.19634664
-0.10208814 0.032363568 0.047751002 -0.24632475 -0.0540566 -0.053205986 0.35071015 0.010286785
-0.05440677 0.01045531 0.044575464 0.06014795 0.019951217 -0.02232041 0.04110852 -0.03294821
-0.018394068 0.4948682 -0.24271607 -0.08665805 -0.036975697 -0.082895026 0.33559975 -0.06086715
-0.50612414 -0.14675057 0.0021575126 0.025502661 -0.2126481 -0.053001206 0.07080421 0.14088003
-0.4557127 -0.053753357 0.013052054 -0.08187048 -0.96272707 -0.015131991 -0.07774934 -0.05313297
-0.7413234 0.29641637 -0.1632147 0.38832635 0.009607747 -0.24329995 0.048084408 -0.3876069
-0.13162965 -0.048077565 -0.017445672 -0.063915305 0.090567276 -0.05337623 0.01849185 0.02795301
0.047009 -0.21461649 0.06924769 0.05038262 -0.010105864 -0.037470587 0.18529357 -0.3912663
0.03926098 -0.0005159995 -0.08329126 0.08448752 0.023247458 -0.038963903 -0.5921512 -0.013574406
-0.04672738 -0.05970772 0.014969235 0.072749056 -0.09082191 0.029192355 0.29133707 -0.007717505
-0.078546934 0.05728471 0.25981656 -0.13930914 0.20689614 -0.016608946 0.09333527 -0.27771103
0.062049538 -0.025216157 -0.20274535 0.089633755 -0.08644695 0.15709084 0.019428378 0.03651226
-0.017640712 -0.28599736 0.1376726 0.17445853 -0.28479782 -0.009586332 0.051866226 -0.2557508
0.093138896 -0.4217721 -0.0684108 9.3337694e-05 0.36918747 -0.084824376 -0.031290654 0.06942051
0.08069171 0.06161038 -0.062425435 0.022263248 0.026605317 0.009085967 0.05782371 0.050801307
0.08106834 -0.017468555 0.09766544 -0.18041025 0.2921486 -0.04045302 -0.078539275 -0.050986633
-0.0032040097 -0.37691134 -0.82994956 -0.11695362 0.008801 0.06075109 0.104045264 0.224918
0.14479883 -0.09689652 -0.0398127 -0.062154923 0.06777009 0.042116787 -0.0015580435 0.009995363
-0.08893323 -0.008026264 -0.21954246 0.065639496 -0.38835973 -0.04535118 0.046010528 -0.014727712
0.0438846 -0.04958003 0.089544594 0.14985941 0.09748185 -0.0034092292 -0.044051886 0.06276549
0.07447258 -0.007792569 -0.06914631 -0.46071896 0.20343682 0.013191612 0.037449382 -0.0062779486
00000000: f405 583d 15c8 7e3d c47f f23d a66d 57be
00000010: 8dc1 12be 2a91 e03d 22bb 41bd c88d 873e
00000020: 807a 09be 09fa b6be 09de 0dbf f89d b6bc
00000030: 0522 a63d 451b 4ebf 3c1c c0bd 45fb b2bd
00000040: 4b75 ab3d 9908 5fbf e358 983c 0cd5 fcbd
00000050: 78dc 273e dc15 1a3e e76a f83c 0b1a 623e
00000060: 37aa 30be 49ca 95bb 9848 733d 28dd 79be
00000070: 48c2 aa3c b578 963d b498 8a3e 0f6b f2bc
00000080: 9617 bbbd 651a 973c 089a 793d af6e febd
00000090: 4256 c7bc b8a7 8f3c 2ac4 a23a dc21 98bc
000000a0: 1b11 abbc 2fd4 913d 3b70 6dbf a05e 3d3b
000000b0: f112 f4bd 5581 cd3e 3314 41be 4e68 b7bd
000000c0: e426 0dbe 1128 2c3d 18d2 31bd dcb3 7fbe
000000d0: 6e6d 9e3d c6d7 2ebd 198b 393d d380 e63c
000000e0: bdf5 3ebc c05f 063c 00f9 22bb 536f 02bd
000000f0: 35c5 3a3d 2f67 333d 4016 7c3c 8892 fabc
00000100: a3e8 503e 2445 4bbf 1901 163e 4875 acbc
00000110: 8117 c63c b512 b83c 5bc6 003e db8a 453d
00000120: c16f 10be c01e 9a3c 81a6 88be 5a95 80bd
00000130: 2e51 b2be c402 433e 2005 0bbe 3b53 803d
00000140: c62a 4d3e a0be e2bc cb56 ca3e 3304 9cbd
00000150: 663f 75bf 9224 eb3d 52ca 093d 180f 493e
00000160: 9613 d1bd a98f 043d 8e96 433d 8e3c 7cbe
00000170: 746a 5dbd 85ee 59bd 4890 b33e e789 283c
00000180: a2d9 5ebd c04c 2b3c c394 363d b25d 763d
00000190: bc70 a33c 4bd9 b6bc 6861 283d b4f4 06bd
000001a0: 28af 96bc 5d5f fd3e 908a 78be c779 b1bd
000001b0: d473 17bd dec4 a9bd bbd3 ab3e d54f 79bd
000001c0: 5a91 01bf c845 16be 0e65 0d3b f5ea d03c
000001d0: 6cc0 59be cb17 59bd cc01 913d db42 103e
000001e0: 2d53 e9be 7b2c 5cbd 48d8 553c b6ab a7bd
000001f0: 4875 76bf 2cec 77bc 0c3b 9fbd f5a1 59bd
00000200: 5fc7 3dbf e3c3 973e c121 27be b6d2 c63e
00000210: d069 1d3c 9f23 79be 28f4 443d 6974 c6be
00000220: ecc9 06be fbec 44bd 3aea 8ebc 07e6 82bd
00000230: 567b b93d 09a1 5abd 387c 973c b6fd e43c
00000240: 828c 403d 6dc4 5bbe bcd1 8d3d 025e 4e3d
00000250: 1193 25bc c27a 19bd 99bd 3d3e 0e54 c8be
00000260: 1fd0 203d 2444 07ba 9c94 aabd cb07 ad3d
00000270: 7471 be3c 9d98 1fbd 3997 17bf 2f67 5ebc
00000280: 3665 3fbd 1590 74bd 8641 753c 75fd 943d
00000290: d600 babd ce24 ef3c 222a 953e 20e3 fcbb
000002a0: 37dd a0bd 5fa3 6a3d ad06 853e 0ea7 0ebe
000002b0: 95dc 533e 7c0f 88bc 9026 bf3d 2430 8ebe
000002c0: a827 7e3d 1d92 cebc 7a9c 4fbe e791 b73d
000002d0: 190b b1bd 6cdc 203e 4328 9f3c e18d 153d
000002e0: 4183 90bc 3f6e 92be 0cfa 0c3e 42a5 323e
000002f0: 05d1 91be fe0f 1dbc ae71 543d c5f1 82be
00000300: 9bbf be3d 83f2 d7be f61a 8cbd 4bbe c338
00000310: 2406 bd3e 67b8 adbd a12a 00bd 572c 8e3d
00000320: b241 a53d 2a5b 7c3d d0b1 7fbd 6a61 b63c
00000330: 65f3 d93c 4fdd 143c 8ed8 6c3d 0815 503d
00000340: 2807 a63d 371a 8fbc d104 c83d 77bd 38be
00000350: 8094 953e 11b2 25bd 33d9 a0bd 5cd7 50bd
00000360: 5dfa 51bb 86fa c0be 9377 54bf 6185 efbd
00000370: 1232 103c 23d6 783d af15 d53d e750 663e
00000380: 2546 143e af71 c6bd a412 23bd 2996 7ebd
00000390: 0ccb 8a3d a782 2c3d 4437 ccba 97c3 233c
000003a0: a022 b6bd 9780 03bc bdcf 60be 006e 863d
000003b0: 16d7 c6be 29c2 39bd 8975 3c3d 804c 71bc
000003c0: 57c0 333d 6e14 4bbd 2863 b73d bf74 193e
000003d0: 90a4 c73d 606d 5fbb c06f 34bd 318b 803d
000003e0: 1485 983d cf58 ffbb 959c 8dbd 5be3 ebbe
000003f0: be51 503e a221 583c 8664 193d 40b7 cdbb

fc2.bias f4 [256]
-0.059395865 -0.025644278 0.02680395 0.00015244097 0.31060544 -0.07461097 -0.004469879 0.061171968
-0.031418532 0.027967699 -0.047141865 -0.12743787 -0.078889705 -0.24403094 -0.08887654 0.044766262
-0.16207561 -0.03139455 0.1996489 -0.07174244 0.10774913 -0.005824699 -0.098373994 -0.08050595
0.00030819117 -0.08534962 -0.016098231 0.04653696 0.1370128 -0.11936718 -0.079781346 -0.08806539
-0.14967653 0.029623833 -0.030697403 -0.28238556 -0.024400298 -0.00049659127 -0.2396657 -0.3173996
-0.022301175 -0.00013610363 -0.07497457 -0.18812089 -0.021283407 -0.119220704 -0.010286726 -0.045805793
0.011726852 -0.029329848 0.02020326 -0.1573 -0.018513571 -0.022166872 -0.066335715 -0.06755987
-0.05523959 -0.15863794 -0.11147175 0.009290391 0.022435829 0.016469464 -0.0108205825 0.012140064
-0.07286014 -0.014414183 -0.04146619 0.017905958 -0.09860377 0.012681861 -0.098847255 0.022966027
-0.12563366 0.034134928 -0.378028 -0.037715163 -0.03628025 -0.07845717 -0.006564122 -0.026050603
-0.07000349 -0.13570295 -0.18814826 -0.032621488 0.10766861 -0.08753833 0.0121164005 -0.06592548
-0.2590782 -0.117379665 -0.059262447 -0.0050635044 0.097587004 -0.25352487 -0.036964647 -0.08681257
-0.0959454 -0.115839064 -0.02404306 0.044728104 -0.0039212927 -0.014124679 -0.1253729 0.12449505
0.028160235 0.009007086 0.030131256 -0.068603225 -0.2354993 -0.051105894 -0.05155643 0.17769432
-0.071759716 -0.0044803377 -0.08537734 -0.0058388393 -0.04233729 -0.07895468 0.002791874 0.021326937
-0.068787016 0.082552984 0.02669552 -0.14245984 -0.12959874 -0.0919203 -0.043524772 -0.06657847
-0.056186296 -0.07640018 0.00160206 -0.1105035 -0.06315687 -0.045170754 0.09222208 0.24102686
-0.0389695 0.09878229 -0.08583672 0.15012908 -0.0464476 0.04168786 -0.0187825 -0.027643127
-0.014401666 0.03989595 -0.052040692 -0.077607825 -0.074294016 -0.2531979 0.20811671 -0.19000174
-0.074645236 0.0327447 -0.023380427 0.0050802324 -0.09398765 0.0062326947 -0.23295738 0.021661475
-0.19532922 -0.36218268 0.013931615 -0.05823067 -0.06580427 -0.066588745 -0.14669089 -0.039893232
0.035312843 0.086528584 -0.070151135 -0.06018269 -0.02611987 -0.35808763 -0.0630353 -0.28083017
0.010073561 -0.04390413 -0.027740583 -0.03895908 -0.011099215 -0.15255871 -0.03449799 -0.08642819
-0.0011656452 -0.002092663 0.023529675 0.023523476 -0.019010838 0.020850947 -0.039743766 -0.00095565926
0.0355917 -0.029755082 0.10944226 -0.08340722 -0.045086548 -0.09651207 0.07518374 -0.0786868
0.0135192145 -0.40404883 -0.04664589 0.014254946 -0.022075629 -0.012127325 -0.112573236 -0.013632701
-0.027377877 -2.5037472e-05 -0.21381067 -0.024450697 0.041068368 -0.057389986 0.023305262 -0.16018257
-0.028067285 0.019583335 -0.06746033 -0.0062088687 -0.28371093 -0.07463886 -0.010547761 -0.07205364
-0.009953614 0.06673113 0.008889024 -0.10408962 0.08383257 0.018489914 0.014193804 0.095391534
0.03643967 -0.016356377 -0.099285156 -0.107371815 0.03725793 0.023677805 -0.1589838 -0.04385821
-0.12762997 -0.0039484994 0.018624345 -0.062313747 -0.19082402 -0.07501922 0.02197832 -0.035364646
0.025028704 -0.18650787 -0.037247393 -0.08540723 0.06335601 -0.08213195 -0.1437999 -0.15471761
00000000: 1449 73bd f313 d2bc f593 db3c 90d8 1f39
00000010: ad07 9f3e a3cd 98bd 1078 92bb 758f 7a3d
00000020: b8b0 00bd 841c e53c d417 41bd 137f 02be
00000030: ed90 a1bd 3fe3 79be e704 b6bd d45c 373d
00000040: 26f7 25be 9297 00bd c370 4c3e b3ed 92bd
00000050: 93ab dc3d 1edd bebb 4e78 c9bd 4ee0 a4bd
00000060: b894 a139 c8cb aebd 70e0 83bc 8a9d 3e3d
00000070: 154d 0c3e c876 f4bd 6764 a3bd a15b b4bd
00000080: ce44 19be aead f23c 1f79 fbbc d794 90be
00000090: 22e3 c7bc ad2d 02ba ed6a 75be 3382 a2be
000000a0: f4b0 b6bc 0ab7 0eb9 448c 99bd c3a2 40be
000000b0: 8a5a aebc fc29 f4bd a889 28bc db9e 3bbd
000000c0: fb21 403c 2645 f0bc 4f81 a53c 4013 21be
000000d0: c6a9 97bc 4d97 b5bc 05db 87bd d45c 8abd
000000e0: e942 62bd fc71 22be 4d4b e4bd b936 183c
000000f0: 58cb b73c f8ea 863c d048 31bc 1ee7 463c
00000100: b237 95bd 7729 6cbc 74d8 29bd 84af 923c
00000110: c6f0 c9bd 95c7 4f3c 6e70 cabd 4023 bc3c
00000120: 1ca6 00be 11d1 0b3d e38c c1be 377b 1abd
00000130: 999a 14bd 27ae a0bd d917 d7bb 1368 d5bc
00000140: fd5d 8fbd b7f5 0abe f0a9 40be 1c9e 05bd
00000150: 5c81 dc3d 4c47 b3bd de83 463c f003 87bd
00000160: e6a5 84be c064 f0bd 2ebd 72bd c1eb a5bb
00000170: b2db c73d 03ce 81be 3e68 17bd caca b1bd
00000180: 067f c4bd 083d edbd f4f5 c4bc d134 373d
00000190: 307e 80bb 336b 67bc c161 00be 43f7 fe3d
000001a0: 4bb0 e63c 7592 133c d3d5 f63c d97f 8cbd
000001b0: ba26 71be 6a54 51bd d62c 53bd 80f5 353e
000001c0: c2f6 92bd cccf 92bb 51da aebd bc53 bfbb
000001d0: de69 2dbd feb2 a1bd e0f7 363b d4b5 ae3c
000001e0: 35e0 8cbd 8a11 a93d 90b0 da3c fee0 11be
000001f0: 88b5 04be b640 bcbd 0847 32bd 4b5a 88bd
00000200: 9a23 66bd b377 9cbd 37fc d13a a94f e2bd
00000210: 6458 81bd f804 39bd eede bc3d bfcf 763e
00000220: 7c9e 1fbd 5f4e ca3d 2acb afbd 70bb 193e
00000230: d73f 3ebd e4c0 2a3d c2dd 99bc d773 e2bc
00000240: f7f4 6bbc f069 233d 9f28 55bd daf0 9ebd
00000250: 7627 98bd 28a3 81be 8c1c 553e d18f 42be
00000260: 9adf 98bd 4e1f 063d 4f88 bfbc 1478 a63b
00000270: 997c c0bd a23b cc3b 618c 6ebe 6873 b13c
00000280: 6204 48be 0270 b9be 6e41 643c 4883 6ebd
00000290: 64c4 86bd ae5f 88bd 2336 16be 1667 23bd
000002a0: 33a4 103d e635 b13d 66ab 8fbd 2082 76bd
000002b0: 56f9 d5bc 4357 b7be a718 81bd f9c8 8fbe
000002c0: 940b 253c d1d4 33bd 3840 e3bc 8e93 1fbd
000002d0: 7bd9 35bc 5a38 1cbe c44d 0dbd 4301 b1bd
000002e0: 90c8 98ba 0f25 09bb 4ec1 c03c 4eb4 c03c
000002f0: 9ebc 9bbc 9bcf aa3c 5cca 22bd 3585 7aba
00000300: 9ac8 113d eec0 f3bc 4323 e03d 68d1 aabd
00000310: acac 38bd 1fa8 c5bd eff9 993d 8c26 a1bd
00000320: b27f 5d3c 7ddf cebe c30f 3fbd 948d 693c
00000330: f3d7 b4bc b0b1 46bc cc8c e6bd b15b 5fbc
00000340: 9247 e0bc 9007 d2b7 2ff1 5abe d44c c8bc
00000350: 4e37 283d c311 6bbd adea be3c e606 24be
00000360: 5ded e5bc 3b6d a03c a428 8abd c473 cbbb
00000370: 8f42 91be 42dc 98bd 84d0 2cbc dc90 93bd
00000380: 7c14 23bc 55aa 883d 45a3 113c f02c d5bd
00000390: 69b0 ab3d 2978 973c 218d 683c a35c c33d
000003a0: c341 153d cffd 85bc 0456 cbbd c1e5 dbbd
000003b0: c59b 183d f5f7 c13c a6cc 22be aba4 33bd
000003c0: 6eb1 02be 6a62 81bb 1592 983c b33c 7fbd
000003d0: 5f67 43be ada3 99bd e10b b43c 85da 10bd
000003e0: ff08 cd3c ebfb 3ebe b990 18bd fce9 aebd
000003f0: ccc0 813d cc34 a8bd 4840 13be 4b6e 1ebe

fc3.weight f4 [3, 256]
0.038033504 -0.007784076 0.003500021 -0.006178074 -0.2886226 0.11391357 0.048857696 -0.20980285
0.010073958 0.010914816 0.5870288 0.10168295 0.09585317 0.08850123 -0.0053938073 -0.02737051
-0.4556249 -0.014177676 0.03323781 -0.61207366 -0.2559625 0.0033971702 -0.27675742 0.011293524
-0.008322077 0.49546468 -0.0005187628 -0.122053005 -0.1050202 0.2531348 0.008448332 0.0033692736
-0.061714422 -0.035587486 0.00042023385 -0.2964796 0.0015481545 0.00096916704 -0.30234823 -0.24121734
0.010387559 -0.028509717 -0.014526177 0.16417433 -0.33977154 -0.31843522 -0.006887376 0.050904833
-0.011150732 -0.008781337 -0.449552 -0.4721908 -0.00059131044 0.008434851 0.019184886 0.0055925297
-0.003197117 0.3132312 0.0062937746 -0.0058745705 -0.01470294 -0.19804664 -0.0058735763 -0.0024770305
-0.26511875 -0.007952115 -0.31047583 0.04243257 -0.20488544 0.13458997 0.497529 0.14366074
-0.014475599 -0.14813241 -0.26930383 -0.042748325 0.004820091 -0.0003327019 -0.00018660177 -0.0009280682
0.003363333 0.3247754 -0.030441627 0.0007272136 0.3940387 0.059689313 0.5172218 -0.009213434
-0.10739998 -0.025425637 -0.002277998 0.004492522 0.51677114 0.14934799 0.006065614 0.009780416
-0.44042906 0.26387084 0.03028635 -0.5214203 -0.0060437648 -0.3039052 0.16365765 -0.14382187
0.051842384 -0.33259994 0.0014628442 -0.014350675 -0.009936615 0.00094275514 0.0007171816 -0.34703088
-0.034298014 0.0031230622 0.0016797716 0.0021256178 -0.019811712 0.0028489644 -0.0060613956 -0.034853216
0.0057266136 -0.24913639 -0.08248472 -0.6185373 -0.27233735 0.4866626 -0.019666577 -0.41002408
-0.25158888 -0.025015011 0.08537736 -0.008806987 0.003905517 -0.33286673 0.08629328 0.1293071
-0.004828558 0.23225777 -0.005567981 -0.014412287 0.009603544 0.0885049 -0.009030416 -0.00013009121
0.00907435 -0.023120396 0.0026278195 -0.5510761 0.024193035 -0.3637695 -0.28749475 -0.741242
-0.0006291359 -0.021133902 0.008156212 -0.0075145857 -0.00462258 -0.0041124364 -0.008028224 -0.0008552396
-0.8961504 0.038106304 0.006971956 -0.0065917904 0.40355948 -0.0007218121 0.22675891 0.0019685864
-0.3807583 0.14760529 0.00029004604 0.0018794062 -0.28135058 0.13160966 0.108056955 -0.034266617
0.008759624 -0.039614648 0.005681654 -0.15989815 -0.003805504 -0.83884746 -0.3095008 -0.41795844
-0.0013263026 -0.008872077 -0.014915136 0.02749147 0.003676826 0.3104711 -0.10360077 -0.007638686
0.002674926 -0.6957659 0.28453845 -0.0112691065 -0.12838085 -0.09864119 -0.60807526 -0.010535221
0.0036122825 -0.38496742 -0.010751052 -0.00087440095 0.10159858 -0.2649216 -0.22235695 -0.057080355
0.76535374 -0.14181626 0.08829645 -0.009189096 0.16739707 -0.0050436794 -0.0028587154 0.32157063
0.17836924 0.92793375 -0.0031339969 -0.018072344 -0.5568706 0.01066842 -0.014548987 -0.12871234
-0.22718342 -0.085609615 -0.0060287677 0.2746809 -0.41757023 -0.19397455 -0.34103644 -0.55850446
-0.0024183819 -0.025086395 0.090710625 -0.013185686 0.012532955 -0.17855737 0.2525575 -0.022000717
-0.1821768 -0.0128744375 -0.0029079632 0.28841978 -0.62130046 -0.0072782086 0.010632501 -0.2747167
-0.008221956 -0.3369439 0.06637639 -0.06582981 0.17429495 -0.0056720534 0.44918048 0.2397475
00000000: 05c9 1b3d 9011 ffbb 9c60 653b 7171 cabb
00000010: 57c6 93be 854b e93d 021f 483d 8fd6 56be
00000020: 3e0d 253c 0ed4 323c 8547 163f 273f d03d
00000030: ab4e c43d 2240 b53d 89be b0bb 1f38 e0bc
00000040: ab47 e9be 7c49 68bc 5f24 083d dcb0 1cbf
00000050: 840d 83be 0fa3 5e3b 26b3 8dbe 7908 393c
00000060: 5259 08bc 8cad fd3e 95fd 07ba edf6 f9bd
00000070: d514 d7bd e29a 813e df6a 0a3c 08cf 5c3b
00000080: 43c8 7cbd 2fc4 11bd d552 dc39 2dcc 97be
00000090: 72eb ca3a b30f 7e3a 63cd 9abe ae01 77be
000000a0: 9530 2a3c 368d e9bc 34ff 6dbc 511d 283e
000000b0: 89f6 adbe f109 a3be 7faf e1bb 9681 503d
000000c0: 8fb1 36bc 99df 0fbc ae2b e6be fec2 f1be
000000d0: 2c02 1bba 5432 0a3c 9f29 9d3c 8a41 b73b
000000e0: b986 51bb d75f a03e 023c ce3b 787f c0bb
000000f0: 9ae4 70bc bdcc 4abe 2177 c0bb ad55 22bb
00000100: a5bd 87be 9649 02bc b0f6 9ebe c6cd 2d3d
00000110: 7dcd 51be f4d1 093e 1fbc fe3e cd1b 133e
00000120: 102b 6dbc 06b0 17be 31e2 89be de18 2fbd
00000130: dbf1 9d3b 7e6e aeb9 88aa 43b9 9a49 73ba
00000140: 5d6b 5c3b f648 a63e b860 f9bc 7ba2 3e3a
00000150: 71bf c93e c87c 743d a668 043f f1f3 16bc
00000160: 85f4 dbbd 6d49 d0bc 774a 15bb 0236 933b
00000170: 1d4b 043f aeee 183e 0fc2 c63b 0a3e 203c
00000180: eb7f e1be 141a 873e 141b f83c cd7b 05bf
00000190: c60a c6bb 7699 9bbe df95 273e 0a46 13be
000001a0: ae58 543d 8a4a aabe e8bc bf3a 181f 6bbc
000001b0: 2fcd 22bc 3a23 773a 3e01 3c3a 08ae b1be
000001c0: 137c 0cbd 4aac 4c3b c82b dc3a f34d 0b3b
000001d0: 2c4c a2bc b1b5 3a3b ac9e c6bb 3fc2 0ebd
000001e0: 51a6 bb3b 9c1d 7fbe c0ed a8bd 7658 1ebf
000001f0: cd6f 8bbe d72b f93e cd1b a1bc adee d1be
00000200: 42d0 80be 48ec ccbc 53da ae3d 2e4b 10bc
00000210: b4f3 7f3b 826d aabe 88ba b03d 1569 043e
00000220: e138 9ebb fbd4 6d3e 9c73 b6bb 8321 6cbc
00000230: 2f58 1d3c 0f42 b53d 4ff4 13bc 1869 08b9
00000240: 95ac 143c fc66 bdbc 7f37 2c3b 5313 0dbf
00000250: 7930 c63c ff3f babe 8332 93be 09c2 3dbf
00000260: 98ec 24ba 0121 adbc a2a1 053c ea3c f6bb
00000270: 0379 97bb 9ec1 86bb d088 03bc 2832 60ba
00000280: 1d6a 65bf 5b15 1c3d 0275 e43b f2ff d7bb
00000290: 599f ce3e fd37 3dba 7d33 683e 6603 013b
000002a0: c0f2 c2be d725 173e 5211 9839 6856 f63a
000002b0: 2f0d 90be afc4 063e f74c dd3d 275b 0cbd
000002c0: 8784 0f3c f842 22bd 2b2d ba3b 57bc 23be
000002d0: c365 79bb b5be 56bf e476 9ebe a6fe d5be
000002e0: 55d7 adba 305c 11bc 9d5e 74bc cb35 e13c
000002f0: e7f6 703b 11f6 9e3e a42c d4bd f14d fabb
00000300: d04d 2f3b b71d 32bf 06af 913e 0fa2 38bc
00000310: 4576 03be 6404 cabd d2aa 1bbf eb9b 2cbc
00000320: 0bbc 6c3b 731a c5be 2e25 30bc 0e38 65ba
00000330: eb12 d03d cea3 87be 8ab1 63be 17cd 69bd
00000340: 39ee 433f 4838 11be c5d4 b43d dd8d 16bc
00000350: 236a 2b3e 7345 a5bb 4959 3bbb e8a4 a43e
00000360: 6da6 363e 118d 6d3f be63 4dbb 740c 94bc
00000370: 128f 0ebf 99ca 2e3c e05e 6ebc 2bcd 03be
00000380: c5a2 68be 1854 afbd f88c c5bb faa2 8c3e
00000390: c4cb d5be 44a1 46be 549c aebe 26fa 0ebf
000003a0: b77d 1ebb fc81 cdbc 7ec6 b93d c708 58bc
000003b0: 0657 4d3c bed7 36be 374f 813e d93a b4bc
000003c0: 8e8c 3abe 4eef 52bc 8793 3ebb c2ab 933e
000003d0: 8c0d 1fbf 0a7e eebb f133 2e3c aba7 8cbe
000003e0: 62b5 06bc e983 acbe 58f0 873d c8d1 86bd
000003f0: 607a 323e a2dc b9bb fcfa e53e 5e80 753e

fc3.bias f4 [3]
-0.15155959 -0.000682389 0.08661885
00000000: 7032 1bbe 5ae2 32ba 3965 b13d
