runs/checkpoint_actor_256_192021_tau1_1470.pth (torch, 288535 bytes, 6 tensors)

fc1.weight f4 [256, 19]
-0.049285926 0.00735645 -0.057553634 -0.0505858 -0.022600263 -0.054991066 -0.013213977 -0.014685743
-0.05178406 -0.032791525 0.0057679936 0.023312852 -0.041848674 0.010691442 0.054735184 -0.014331482
0.018978678 0.012527905 -0.0022491813 -0.0017843969 -0.22222042 0.14128497 -0.24956682 -0.27078885
0.06967734 0.4180448 -0.03315565 -0.2473264 -0.32305542 -0.27088627 -0.25093383 -0.19436803
0.076532096 0.12666123 -0.45598713 -0.19202912 -0.45025367 -0.42379245 0.009370337 0.16687123
0.0666278 0.15563592 -0.037194967 -0.03314532 0.90432626 -1.3595135 -0.9434338 -0.58131677
-0.2628026 -0.27113402 -0.15545525 0.4354156 -0.10402863 0.46737468 -1.2939913 -1.0746241
-0.3694935 -0.093570925 -0.29084003 -0.27435204 -0.3246657 -0.5958452 0.34623718 0.24476463
-1.4440656 -1.5036935 -1.4537141 -0.4809891 -0.4483342 -0.44839504 -0.06477024 -0.075100936
-0.28684723 0.22434077 0.07358696 0.29096267 0.0014813212 0.357343 -0.076800816 -0.17182487
0.31444177 -1.0003242 -0.44294527 -0.16818605 -0.05652422 -0.11352494 0.09668947 0.05879072
0.04962453 0.29695415 0.49047625 -0.1772352 -0.5003433 -0.16418633 -0.3641048 0.0011834507
0.03370014 -0.13413203 -0.21068095 0.49760666 -0.64505684 1.8569052 1.199245 1.1973112
1.3349584 -0.15950382 -0.2056616 -0.15344079 0.11768747 -0.27831882 -0.2796141 -0.40908033
0.04602261 0.12889889 -0.08190655 -0.079666115 -0.04289011 0.015690872 0.020974534 -0.083248265
0.01626616 -0.027964259 -0.03101352 0.074129514 -0.05149412 -0.06806747 -0.0085614575 -0.03589802
-0.019705046 0.055645276 -0.023215085 -0.07562404 -0.0607779 0.01344218 0.19764823 -0.082823716
-0.30404592 -1.0629193 -0.23608482 -0.80278057 -0.92491895 -1.1725067 -1.247563 0.23186347
0.18065125 0.12620047 0.24150121 0.13941923 0.43417886 -0.9329035 -1.2920462 -0.6904576
0.006500249 0.10383007 -0.12926644 0.24053605 0.30387643 -0.062446717 0.11744348 0.8974271
1.029258 1.3604245 -0.26357388 -0.24890052 -0.21661562 -0.6667076 -0.43332914 0.30632493
-1.9272599 -1.2068942 -0.862668 0.008999 -0.07940041 0.37821773 0.08163103 0.6200835
-0.0016739903 0.7652205 -0.025421392 -0.15723176 -0.22645116 -0.162896 -0.31270793 -0.23167872
0.8031402 -0.66573435 -0.26743576 -0.2529431 -0.52825665 -0.04488527 0.0064416444 -0.11668476
-0.42353457 0.034760777 0.02160893 -0.7041208 -0.4982761 1.637869 1.5083934 1.4260464
0.117729984 0.07458306 0.11519793 -0.040303916 -0.26903933 -0.43303832 -0.27376384 -0.062052574
-0.23189947 -0.065857776 0.016002273 -0.048531443 -0.016142199 0.040552065 0.028585566 -0.05726365
-0.02147239 -0.04341171 0.051406674 -0.020520136 0.012932652 -0.048037842 0.025908861 -0.0284523
0.009551669 -0.05466141 -0.022997767 -0.056339215 0.0054812822 -0.048798867 0.056491856 0.12617475
-1.376977 -0.17248309 -0.661553 0.3710837 0.464352 0.4748607 -0.04920495 -0.16738439
-0.09079106 0.3911186 -0.25543445 0.4781267 -0.324469 -1.0879463 -0.17777413 -0.011345334
-0.05099565 0.06605619 -0.37463897 -0.8327932 -0.50043494 0.91341716 0.033250708 -0.022659333
00000000: 0ae0 49bd 600e f13b 5cbd 6bbd 0e33 4fbd
00000010: 3024 b9bc 503e 61bd 707f 58bc 789c 70bc
00000020: 861b 54bd 6850 06bd 7001 bd3b 98fa be3c
00000030: 8469 2bbd 282b 2f3c 0032 603d 98ce 6abc
00000040: 2c79 9b3c d841 4d3c 0067 13bb 6de2 e9ba
00000050: c08d 63be 02ad 103e 728e 7fbe d6a4 8abe
00000060: feb2 8e3d f809 d63e 38ce 07bd 2243 7dbe
00000070: 8567 a5be 9bb1 8abe 667a 80be 6a08 47be
00000080: dcbc 9c3d 7bb3 013e 2577 e9be 48a3 44be
00000090: a687 e6be 53fb d8be 0b86 193c 4be0 2a3e
000000a0: 2874 883d 065f 1f3e c059 18bd 63c3 07bd
000000b0: ed81 673f 8a04 aebf e184 71bf 2dd1 14bf
000000c0: 108e 86be 14d2 8abe a92f 1fbe cbee de3e
000000d0: f60c d5bd bc4b ef3e 82a1 a5bf 488d 89bf
000000e0: 412e bdbe 1da2 bfbd fce8 94be df77 8cbe
000000f0: 953a a6be 5089 18bf 0046 b13e 94a3 7a3e
00000100: 24d7 b8bf 0779 c0bf 4e13 babf 3444 f6be
00000110: 0f8c e5be 0994 e5be 42a6 84bd 85ce 99bd
00000120: a4dd 92be 96b9 653e c3b4 963d 0ff9 943e
00000130: e428 c23a a9f5 b63e bf49 9dbd dcf2 2fbe
00000140: 83fe a03e a00a 80bf b9c9 e2be f738 2cbe
00000150: f185 67bd c47f e8bd 2105 c63d 8ace 703d
00000160: 1743 4b3d 600a 983e b41f fb3e 257d 35be
00000170: 8016 00bf 7620 28be f26b babe 041e 9b3a
00000180: 2809 0a3d e859 09be bfbc 57be 4dc6 fe3e
00000190: 7222 25bf 12af ed3f dc80 993f 7e41 993f
000001a0: ebdf aa3f f854 23be f498 52be 951f 1dbe
000001b0: 2106 f13d ce7f 8ebe 9429 8fbe fa72 d1be
000001c0: 3482 3c3d 12fe 033e 9fbe a7bd fd27 a3bd
000001d0: 8aad 2fbd 258a 803c c9d2 ab3c 117e aabd
000001e0: 9c40 853c 4d15 e5bc 1110 febc 37d1 973d
000001f0: 80eb 52bd f566 8bbd 5b45 0cbc cd09 13bd
00000200: 7a6c a1bc 4dec 633d 902d bebc c7e0 9abd
00000210: 3ff2 78bd 973c 5c3c 4c64 4a3e 7b9f a9bd
00000220: e8ab 9bbe bd0d 88bf 38c0 71be 0783 4dbf
00000230: 7dc7 6cbf b314 96bf 25b0 9fbf 9e6d 6d3e
00000240: a4fc 383e b23a 013e 184c 773e eac3 0e3e
00000250: b14c de3e c4d2 6ebf c561 a5bf d4c1 30bf
00000260: 0a00 d53b dca4 d43d 6c5e 04be 154f 763e
00000270: b195 9b3e 21c8 7fbd 3586 f03d c8bd 653f
00000280: babe 833f 6422 ae3f 28f3 86be c7df 7ebe
00000290: 7cd0 5dbe 59ad 2abf 51dd ddbe 9fd6 9c3e
000002a0: 74b0 f6bf 827b 9abf cfd7 5cbf 8b70 133c
000002b0: af9c a2bd c1a5 c13e 2b2e a73d cbbd 1e3f
000002c0: cb69 dbba 7ee5 433f 8640 d0bc 5d01 21be
000002d0: d0e2 67be 36ce 26be 411b a0be 303d 6dbe
000002e0: 999a 4d3f 916d 2abf 57ed 88be c281 81be
000002f0: d43b 07bf 9ed9 37bd 6e14 d33b 6bf8 eebd
00000300: 86d9 d8be 5161 0e3d 3605 b13c 4341 34bf
00000310: 0c1e ffbe b1a5 d13f 0913 c13f b088 b63f
00000320: 6b1c f13d 01bf 983d e4ec eb3d b815 25bd
00000330: 86bf 89be 33b7 ddbe c62a 8cbe d72a 7ebd
00000340: 0e77 6dbe 71e0 86bd 3317 833c e8c8 46bd
00000350: a53c 84bc ec19 263d 472c ea3c 4a8d 6abd
00000360: dee6 afbc 7ad0 31bd ce8f 523d d819 a8bc
00000370: 79e3 533c 54c3 44bd d23e d43c cc14 e9bc
00000380: 9a7e 1c3c a5e4 5fbd d065 bcbc f3c3 66bd
00000390: 549c b33b 52e1 47bd 0164 673d f433 013e
000003a0: c840 b0bf 689f 30be 8a5b 29bf affe bd3e
000003b0: 8cbf ed3e f120 f33e 218b 49bd d066 2bbe
000003c0: aaf0 b9bd b240 c83e 4ec8 82be 06cd f43e
000003d0: cd20 a6be d341 8bbf 6c0a 36be c8e1 39bc
000003e0: d1e0 50bd 7848 873d aed0 bfbe ef31 55bf
000003f0: 811c 00bf b5d5 693f e531 083d 11a0 b9bc

fc1.bias f4 [256]
0.06889538 -0.37665167 0.10842379 -0.36696082 0.19319868 -0.0286445 0.16247362 0.16064128
-0.3920224 -0.21007754 0.12257751 0.18653607 -0.0025483102 0.07378912 0.020653402 0.09649995
-0.40785757 0.4017903 -0.23387802 -0.15964608 0.054378714 -0.37358683 -0.14056812 -0.27325985
-0.15349852 -0.45424655 -0.12349912 -0.27000645 0.08935229 -0.16164611 0.011154289 0.10362261
0.10059223 -0.07212926 0.213131 0.028800424 -0.050092064 0.045470484 -0.18967581 -0.253874
-0.024513034 -0.012823804 -0.4025174 -0.01182874 0.13516244 0.22715959 0.08178095 -0.10939558
0.21180263 0.22114113 0.18292876 0.27413836 -0.21261448 -0.16737583 -0.15734284 0.024003299
0.41900575 -0.12748964 0.030146439 -0.2121657 -0.2201553 -0.13445121 -0.2134275 0.2760426
0.027221842 0.38348535 -0.03665905 -0.026115153 -0.18335007 -0.41130576 -0.18935204 0.02566971
0.050191835 -0.06877084 -0.065457985 -0.010967242 -0.11206693 -0.32446763 0.027530584 0.0010070105
-0.17350467 -0.006835338 -0.30898088 -0.049881637 0.25471222 -0.5684335 -0.021906653 -0.04369131
-0.39459556 0.116335474 0.0038617582 -0.40732104 -0.15035634 0.15218548 -0.15413071 -0.2108235
0.11024604 0.22605084 -0.0051451656 -0.18324105 -0.049109418 0.8440514 -0.4690038 -0.15444866
0.17772359 0.03238768 -0.14608288 0.36439016 -0.2284518 0.38067067 0.18389452 -0.41037872
-0.4275841 0.015435856 0.06000892 0.21270445 -0.38600656 -0.2935441 0.27864704 -0.2004514
0.011515356 -0.25639313 0.14150167 0.1072223 -0.24195959 -0.26128578 -0.16004162 0.41660094
-0.12599792 -0.29907972 -0.13672195 -0.2543763 -0.056226403 -0.21388246 -0.01879477 -0.00941463
-0.10436062 -0.43785504 -0.13987695 0.4462139 0.040434234 -0.25142148 -0.26397142 -0.27641982
0.08916832 -0.111775145 -0.14084393 -0.19520533 -0.25674716 -0.09180225 -0.011917538 0.09179184
-0.19790612 0.12297624 -0.15884857 -0.76337457 0.17415002 0.04283973 -0.269029 -0.07961634
-0.24806051 -0.12175419 0.0021050596 0.34897363 -0.28396988 -0.6010832 0.21794488 0.026463654
-0.10091896 -0.143765 -0.7509051 -0.44767 0.20332316 0.1630869 -0.11127745 -0.33600977
0.09649612 0.15038949 -0.05854359 -0.003411355 -0.42820823 -0.055751108 0.23915003 -0.09300808
-0.035472687 -0.47998008 -0.15692192 -0.015883947 -0.15565778 -0.33496794 -0.15606704 -0.0353108
-0.49038583 0.11898936 -0.2781 -0.2792219 0.009137455 -0.23048602 -0.34640867 -0.49663457
-0.03687679 -0.20192833 0.15394036 0.05786663 -0.027371349 0.15437336 0.08813422 -0.06942285
-0.2177314 -0.24499144 0.14099362 -0.28885445 -0.21085368 -0.4789165 0.07216538 0.08612588
0.2256793 0.24916969 -0.11971854 -0.49549836 -0.150223 0.11173972 -0.21436478 -0.41788194
-0.023061283 -0.047397017 -0.01942303 0.44431132 -0.0836222 -0.23909843 -0.030106716 -0.03422695
-0.21391802 -0.16928424 -0.23187652 -0.29762688 -0.24453232 0.17376575 0.04540451 0.008947946
-0.0048531387 0.20876199 -0.20317066 0.054776117 0.26083001 -0.00013953197 0.43832815 -0.43758932
0.3081893 0.17200057 -0.21521465 -0.18851924 0.06358989 -0.13525392 -0.2553248 -0.22488819
00000000: 0519 8d3d 7dd8 c0be 4b0d de3d 4ae2 bbbe
00000010: e0d5 453e dfa7 eabc 7c5f 263e 267f 243e
00000020: 29b7 c8be 911e 57be eb09 fb3d 5003 3f3e
00000030: 8d01 27bb c01e 973d 5331 a93c c4a1 c53d
00000040: b5d2 d0be 75b7 cd3e b87d 6fbe 437a 23be
00000050: 37bc 5e3d c646 bfbe 17f1 0fbe b7e8 8bbe
00000060: b72e 1dbe 0193 e8be 1bed fcbd 493e 8abe
00000070: 55fe b63d 8f86 25be 7bc0 363c 1738 d43d
00000080: 4d03 ce3d 81b8 93bd 033f 5a3e deee eb3c
00000090: 562d 4dbd 423f 3a3d 603a 42be c6fb 81be
000000a0: 8fcf c8bc ef1a 52bc c316 cebe 55cd 41bc
000000b0: 0668 0a3e 869c 683e c57c a73d ca0a e0bd
000000c0: cae2 583e d272 623e ad51 3b3e dd5b 8c3e
000000d0: 9cb7 59be 9264 2bbe 7b1e 21be 91a2 c43c
000000e0: ec87 d63e a58c 02be aaf5 f63c f741 59be
000000f0: 6470 61be 94ad 09be bd8c 5abe 7555 8d3e
00000100: 5700 df3c 3158 c43e cd27 16bd 72ef d5bc
00000110: 1fc0 3bbe ab96 d2be 80e5 41be 4949 d23c
00000120: f495 4d3d bad7 8cbd d60e 86bd f2af 33bc
00000130: 5983 e5bd 9f20 a6be d287 e13c aafd 833a
00000140: 35ab 31be f9fa dfbb be32 9ebe b050 4cbd
00000150: a469 823e dc84 11bf 9575 b3bc a9f5 32bd
00000160: 6e08 cabe 4b41 ee3d 8d15 7d3b 628c d0be
00000170: 03f7 19be 83d6 1b3e 71d4 1dbe 1ee2 57be
00000180: adc8 e13d df79 673e c798 a8bb 8ba3 3bbe
00000190: f526 49bd c113 583f 4421 f0be ca27 1ebe
000001a0: 2cfd 353e f2a8 043d c096 15be 5991 ba3e
000001b0: 45ef 69be 44e7 c23e d84e 3c3e 291d d2be
000001c0: 4eec dabe ace6 7c3c eacb 753d 32cf 593e
000001d0: a7a2 c5be 6a4b 96be d3aa 8e3e 2243 4dbe
000001e0: e7aa 3c3c f645 83be d0e5 103e 5d97 db3d
000001f0: 41c4 77be 40c7 85be f3e1 23be b84c d53e
00000200: 9905 01be fa20 99be d700 0cbe 9c3d 82be
00000210: a84d 66bd 0104 5bbe 7df7 99bc d23f 1abc
00000220: 05bb d5bd 892e e0be e73b 0fbe 2676 e43e
00000230: 5e9e 253d 51ba 80be 4327 87be e686 8dbe
00000240: e19d b63d 5eea e4bd 6439 10be e8e3 47be
00000250: 5d74 83be d102 bcbd c741 43bc 5cfd bb3d
00000260: e7a7 4abe f8da fb3d 33a9 22be 846c 43bf
00000270: 6254 323e b678 2f3d 2bbe 89be e40d a3bd
00000280: 9303 7ebe 435a f9bd 0af5 093b acac b23e
00000290: 8064 91be 97e0 19bf f12c 5f3e 4eca d83c
000002a0: 9aae cebd 2237 13be 513b 40bf 0135 e5be
000002b0: f233 503e 4100 273e 6fe5 e3bd 7909 acbe
000002c0: c29f c53d b4ff 193e 67cb 6fbd 0a91 5fbb
000002d0: 1c3e dbbe 465b 64bd bfe3 743e 057b bebd
000002e0: cf4b 11bd f3bf f5be 24b0 20be 0d1f 82bc
000002f0: c164 1fbe eb80 abbe 0ad0 1fbe 0fa2 10bd
00000300: da13 fbbe b2b0 f33d 2063 8ebe 2cf6 8ebe
00000310: 44b5 153c 8704 6cbe 7a5c b1be e346 febe
00000320: 1e0c 17bd 4dc6 4ebe 8ba2 1d3e 8f05 6d3d
00000330: e139 e0bc 0d14 1e3e b77f b43d 912d 8ebd
00000340: fbf4 5ebe 09df 7abe a260 103e bbe4 93be
00000350: 07ea 57be 8b34 f5be 71cb 933d c462 b03d
00000360: 7918 673e 5726 7f3e fe2e f5bd f6b1 fdbe
00000370: 0fd4 19be cbd7 e43d 7182 5bbe 9ff4 d5be
00000380: 04eb bcbc 6023 42bd 0c1d 9fbc c67c e33e
00000390: 1e42 abbd 38d6 74be 5ca2 f6bc 8f31 0cbd
000003a0: 530d 5bbe d958 2dbe 0a71 6dbe 8d62 98be
000003b0: ae66 7abe a6ef 313e 14fa 393d 689a 123c
000003c0: 1407 9fbb b4c5 553e f80b 50be ec5c 603d
000003d0: 838b 853e 544f 12b9 8c6c e03e b50b e0be
000003e0: fdca 9d3e eb20 303e 3b61 5cbe 300b 41be
000003f0: 6b3b 823d 0180 0abe efb9 82be 1749 66be

fc2.weight f4 [256, 256]
0.052740052 0.29510874 0.21097559 -0.16257606 0.23355664 0.12896481 -0.04779635 0.07489907
-0.6136784 -0.5696026 -0.390076 -0.022292122 0.015453446 -0.8270518 0.07060209 -0.31058782
-0.07209349 -0.83473825 -0.034545787 0.03682048 -0.052866798 0.29434144 0.028034844 0.13950785
-0.006666692 0.14966911 0.059395403 -0.3201424 0.020844594 0.081389375 0.046009958 -0.14023419
0.032862835 0.018445203 0.06093791 -0.21882056 -0.024333123 0.01753603 -0.052578654 -0.018570833
-0.02088218 -0.14106457 -0.468713 0.0028895512 -0.07869728 0.20020548 -0.12482971 0.12298906
-0.048728887 0.042030398 -0.04341325 -0.5108504 0.07735716 -0.042686246 0.04529867 0.02515493
-0.05445515 0.0082015395 -0.0024867654 0.6416833 0.045598228 0.043799575 0.015386164 -0.5118211
0.35013208 -0.82898015 0.41145968 -0.020202277 0.02418113 0.12964493 0.2111856 0.048228126
-0.251459 0.01881349 -0.29951614 -0.062784865 -0.78648895 0.31223062 -0.3375179 0.06708802
0.4542098 -0.16430333 0.8734487 -0.076179884 -1.1791862 -0.2800539 0.033640213 0.14371921
-0.43016726 0.032363568 0.047751002 0.10049615 -0.0540566 -0.053205986 0.2621233 0.010286785
-0.05440677 -0.08419266 0.028906776 -0.0376385 0.019951217 0.072722584 0.14368406 -0.03294821
-0.018394068 0.2617139 -0.24330711 -0.28921065 -0.2793074 -0.5194231 -0.07256073 -0.25574613
-0.3396105 -0.3641277 0.0021575126 0.03813707 -0.15844569 -0.23533888 -0.5061878 0.1761918
-0.6255261 -0.053753357 0.013052054 0.34255606 -0.51101726 -0.015131991 -0.13440652 0.19032227
-0.20968696 -0.011425643 -0.1632147 0.32730997 0.009607747 -0.44439238 0.048084408 -0.38984695
0.044993576 0.08580913 -0.017445672 0.095014215 -0.07834384 -0.1729939 0.01849185 0.24921195
0.047009 -0.11199511 0.06924769 -0.13456684 0.22291443 -0.037470587 0.06734527 -0.07242529
0.022670042 -0.638712 -0.08329126 0.08684233 0.023247458 -0.038963903 -0.45920774 -0.013574406
-0.04672738 -0.05970772 -0.4338306 0.33640456 -0.03008656 0.03684457 -0.084533714 -0.007717505
-0.09445199 0.05728471 0.19475509 0.12763874 0.707301 -0.016608946 0.044234294 -0.26986492
-0.04455961 0.26988578 -0.056698002 0.12138868 -0.11387996 0.4662619 0.0755367 0.03651226
0.07709936 -0.18585943 -0.25190207 0.5431282 -0.2459003 0.12091027 0.1569515 -0.036693435
0.16222812 0.040952414 0.11971237 0.09414476 0.28516945 -0.35523155 0.21970357 0.14892358
-0.2085082 0.06161038 -0.062425435 0.022263248 -0.093772694 0.52398294 0.05782371 0.050801307
0.21152577 -0.017468555 0.17937793 -0.38733482 0.17544743 -0.18161565 -0.21083494 -0.050986633
0.08416698 0.14471503 -0.33369383 -0.27854064 0.09300272 -0.020469578 0.11924669 0.24648571
0.3707765 -0.10367624 -0.0398127 -0.044366624 0.06777009 0.042116787 -0.0015580435 0.009995363
-0.1353917 -0.008026264 -0.2915334 -0.053253267 -0.2572873 -0.04535118 0.046010528 -0.014727712
0.0438846 0.07863062 -3.401431e-05 0.044407297 0.43877113 -0.0034092292 0.10268491 -0.18837333
0.050137557 -0.007792569 0.27851102 -0.14003095 0.26271036 0.013191612 -0.036659967 -0.0062779486
00000000: f405 583d 7e18 973e fc09 583e 577a 26be
00000010: 7929 6f3e 5a0f 043e 1bc6 43bd af64 993d
00000020: 071a 1dbf 7ad1 11bf 0bb8 c7be f89d b6bc
00000030: 7330 7d3c abb9 53bf d497 903d 5e05 9fbe
00000040: c0a5 93bd 68b1 55bf e27f 0dbd 12d1 163d
00000050: db8a 58bd ecb3 963e 54a9 e53c 25db 0e3e
00000060: 4474 dabb dc42 193e 9848 733d b4e9 a3be
00000070: 48c2 aa3c 79af a63d f074 3c3d 8d99 0fbe
00000080: 2e9b 063d 651a 973c 089a 793d 7f12 60be
00000090: 4256 c7bc b8a7 8f3c b75c 57bd dc21 98bc
000000a0: 1b11 abbc 3b73 10be 26fb efbe a05e 3d3b
000000b0: 0a2c a1bd aa02 4d3e b8a6 ffbd b0e1 fb3d
000000c0: f197 47bd 1128 2c3d 18d2 31bd 18c7 02bf
000000d0: 6e6d 9e3d c6d7 2ebd 198b 393d b611 ce3c
000000e0: 5d0c 5fbd c05f 063c 00f9 22bb 5b45 243f
000000f0: 35c5 3a3d 2f67 333d 4016 7c3c b506 03bf
00000100: 8344 b33e 0b38 54bf d8aa d23e 3f7f a5bc
00000110: 8117 c63c a4c1 043e 0a41 583e db8a 453d
00000120: 3cbf 80be c01e 9a3c 2e5a 99be 5a95 80bd
00000130: 5757 49bf b1dc 9f3e 25cf acbe 7265 893d
00000140: 308e e83e 223f 28be 569a 5f3f 3304 9cbd
00000150: 93ef 96bf 3a63 8fbe 52ca 093d 212b 133e
00000160: e23e dcbe a98f 043d 8e96 433d edd0 cd3d
00000170: 746a 5dbd 85ee 59bd 0635 863e e789 283c
00000180: a2d9 5ebd 346d acbd e7cd ec3c d42a 1abd
00000190: bc70 a33c 94ef 943d ea21 133e b4f4 06bd
000001a0: 28af 96bc 5dff 853e 8025 79be 6b13 94be
000001b0: 6101 8fbe eaf8 04bf b89a 94bd 28f1 82be
000001c0: 6de1 adbe f26e babe 0e65 0d3b 9e35 1c3d
000001d0: 963f 22be adfc 70be 8695 01bf a06b 343e
000001e0: 7a22 20bf 7b2c 5cbd 48d8 553c 8263 af3e
000001f0: 07d2 02bf 2cec 77bc dda1 09be d7e3 423e
00000200: 2eb8 56be 9f32 3bbc c121 27be 2c95 a73e
00000210: d069 1d3c 6687 e3be 28f4 443d 059a c7be
00000220: 2f4b 383d b2bc af3d 3aea 8ebc d096 c23d
00000230: bc72 a0bd 5025 31be 387c 973c 6b31 7f3e
00000240: 828c 403d b15d e5bd bcd1 8d3d e4cb 09be
00000250: ae43 643e c27a 19bd 51ec 893d b653 94bd
00000260: 86b6 b93c a182 23bf 9c94 aabd 64da b13d
00000270: 7471 be3c 9d98 1fbd 471d ebbe 2f67 5ebc
00000280: 3665 3fbd 1590 74bd 0b1f debe 383d ac3e
00000290: 1778 f6bc 55ea 163d 0320 adbd 20e3 fcbb
000002a0: 0c70 c1bd 5fa3 6a3d e16d 473e bbb3 023e
000002b0: ae11 353f 7c0f 88bc 052f 353d bc2b 8abe
000002c0: 2384 36bd 782e 8a3e 2a3c 68bd a19a f83d
000002d0: e539 e9bd e1b9 ee3e fcb2 9a3d e18d 153d
000002e0: 45e6 9d3d ef51 3ebe 4ff9 80be 730a 0b3f
000002f0: 4acd 7bbe ce9f f73d e5b7 203e db4b 16bd
00000300: 211f 263e b8bd 273d c22b f53d f8ce c03d
00000310: bb01 923e e9e0 b5be f9f9 603e 6c7f 183e
00000320: 2c83 55be 2a5b 7c3d d0b1 7fbd 6a61 b63c
00000330: e60b c0bd bf23 063f 8ed8 6c3d 0815 503d
00000340: 369a 583e 371a 8fbc d9ae 373e c050 c6be
00000350: 7ea8 333e 74f9 39be 1de5 57be 5cd7 50bd
00000360: bd5f ac3d 2d30 143e ebd9 aabe e19c 8ebe
00000370: 3678 be3d d1af a7bc 9c37 f43d c066 7c3e
00000380: 6bd6 bd3e 3554 d4bd a412 23bd c7b9 35bd
00000390: 0ccb 8a3d a782 2c3d 4437 ccba 97c3 233c
000003a0: 1fa4 0abe 9780 03bc de43 95be 1920 5abd
000003b0: 29bb 83be 29c2 39bd 8975 3c3d 804c 71bc
000003c0: 57c0 333d 1709 a13d 96aa 0eb8 6de4 353d
000003d0: 9ca6 e03e 606d 5fbb 774c d23d f0e4 40be
000003e0: 0a5d 4d3d cf58 ffbb ff98 8e3e 4664 0fbe
000003f0: f981 863e a221 583c c328 16bd 40b7 cdbb

fc2.bias f4 [256]
0.06441908 0.11443428 0.023347842 -0.09692183 0.57401377 -0.23150821 0.19616027 0.16971315
-0.031418532 0.027967699 -0.14884943 -0.20359372 -0.4892468 -0.44642064 -0.090749316 -0.14923108
-0.2746066 -0.032587927 0.36404473 0.13456035 -0.060853586 -0.005824699 -0.0071190824 -0.08678671
-0.007358511 -0.15688267 -0.19775489 -0.19589368 0.1203906 -0.111374736 -0.079781346 -0.08806539
-0.4563997 -0.003428775 -0.039848626 -0.4229125 -0.02528165 -0.00049659127 -0.29980135 -0.45179603
-0.022301175 0.25179443 0.10524699 -0.09896439 -0.102760516 -0.16953613 -0.010286726 -0.12842934
0.011726852 -0.029329848 0.18465501 -0.22534806 -0.043205075 -0.022166872 0.010673979 -0.07150764
-0.17522788 -0.5892258 -0.11147175 0.009290391 0.004174825 0.31822214 0.071803026 0.0030807946
0.009797143 -0.014414183 -0.028049914 0.1490127 -0.3010617 -0.12522413 -0.10659056 -0.23356587
-0.32134673 -0.11175933 -0.39045423 -0.03785571 0.06845328 0.018064266 -0.009660649 -0.026050603
-0.0793089 -0.26881182 -0.4283279 -0.032621488 0.11198987 -0.27517352 -0.008371823 0.10133472
-0.5346525 -0.117379665 -0.059262447 -0.053683456 0.0075546475 -0.54251754 -0.036964647 -0.012860887
-0.14458543 -0.30758694 -0.02404306 -0.009052408 -0.01194414 -0.038959432 -0.11333986 0.17421795
-0.09667947 -0.15148549 0.06327875 -0.07778591 -0.62499654 -0.051105894 -0.05155643 -0.015807826
-0.09300098 -0.2200931 -0.092144966 -0.0058388393 -0.059371226 -0.08077382 0.002791874 -0.0025299725
-0.068787016 0.09791701 -0.001664615 -0.1144076 -0.035530124 -0.12446884 -0.053312916 0.08684929
-0.22713758 -0.08178224 -0.3067012 -0.1105035 -0.07218505 -0.050441556 0.34387365 0.18036139
-0.2612564 0.024193674 -0.08583672 0.013140258 -0.046509903 0.006513033 -0.04489463 -0.027643127
-0.023751473 0.03989595 -0.052040692 0.09681424 -0.12283202 -0.34114113 0.39765593 -0.3030447
-0.074645236 -0.040736776 -0.10571885 0.0050802324 -0.09513408 0.0062326947 -0.2538051 -0.0976591
-0.35965678 -0.6342688 -0.0060794842 -0.05823067 -0.0139441965 -0.066588745 -0.20320769 -0.030453743
-0.0113127865 0.19438136 -0.083206415 -0.06214188 -0.046973042 -0.3532439 -0.071362965 -0.3376609
0.00847764 -0.027310735 -0.027740583 0.06011238 -0.11157576 -0.2869034 -0.20990682 -0.081558764
-0.017775498 -0.0021876008 0.007888494 -0.0067915046 0.15136299 -0.15403765 -0.06710634 -0.013049693
0.026841782 -0.05246116 0.16557011 -0.08340722 0.06894483 -0.41471672 -0.009552387 -0.07036735
0.0135192145 -0.5331375 -0.06998911 0.014254946 0.030616896 0.046393946 -0.13106398 0.06080642
-0.024403168 0.030541886 -0.6378258 -0.030452397 0.16741563 -0.057389986 0.023305262 -0.36415365
0.1355472 -0.002774672 -0.06746033 -0.0062088687 -0.6440275 -0.07486538 0.12766059 -0.16086067
-0.1902907 -0.12561974 0.008375994 -0.20009166 0.06111321 -0.073699474 -0.044923805 0.10016287
0.19657584 0.13525908 -0.08525272 -0.107371815 0.03533458 0.07541719 -0.42113522 -0.061104164
-0.20568617 -0.012586427 0.049425256 -0.25397345 -0.17218432 -0.08437128 0.02197832 -0.15145053
0.001865349 -0.16896291 -0.100104496 0.054781046 0.0881206 -0.08307653 -0.41242456 -0.30398333
00000000: 27ee 833d 855c ea3d f943 bf3c f47e c6bd
00000010: 91f2 123f 7d10 6dbe 3dde 483e 49c9 2d3e
00000020: b8b0 00bd 841c e53c fc6b 18be df7a 50be
00000030: 8e7e fabe 3f91 e4be c7da b9bd 08d0 18be
00000040: 3c99 8cbe eb7a 05bd 1264 ba3e 30ca 093e
00000050: 9c41 79bd 1edd bebb 3147 e9bb 3bbd b1bd
00000060: aa1f f1bb daa5 20be 4280 4abe 5a98 48be
00000070: 598f f63d 7018 e4bd 6764 a3bd a15b b4bd
00000080: 39ad e9be 4cb5 60bb 5038 23bd fd87 d8be
00000090: 761b cfbc ad2d 02ba 907f 99be cf51 e7be
000000a0: f4b0 b6bc 33eb 803e bc8b d73d d8ad cabd
000000b0: 1b74 d2bd e19a 2dbe a889 28bc fb82 03be
000000c0: fb21 403c 2645 f0bc 3416 3d3e a4c1 66be
000000d0: cef7 30bd 4d97 b5bc eae1 2e3c 9972 92bd
000000e0: f06e 33be 81d7 16bf 4d4b e4bd b936 183c
000000f0: f8cc 883b 03ee a23e 770d 933d 28e7 493b
00000100: 3284 203c 7729 6cbc efc8 e5bc c996 183e
00000110: c224 9abe c13a 00be 274c dabd e42b 6fbe
00000120: 8f87 a4be 13e2 e4bd 9ee9 c7be 970e 1bbd
00000130: 3c31 8c3d 83fb 933c b347 1ebc 1368 d5bc
00000140: b46c a2bd b4a1 89be cb4d dbbe 1c9e 05bd
00000150: f25a e53d 8be3 8cbe f829 09bc 9488 cf3d
00000160: fcde 08bf c064 f0bd 2ebd 72bd 2fe3 5bbd
00000170: fa8c f73b 6ee2 0abf 3e68 17bd 78b6 52bc
00000180: 340e 14be 097c 9dbe f4f5 c4bc 8d50 14bc
00000190: 5bb1 43bc ed93 1fbd bb1e e8bd 3166 323e
000001a0: e3ff c5bd 031f 1bbe 4a98 813d 384e 9fbd
000001b0: c6ff 1fbf 6a54 51bd d62c 53bd 6a7f 81bc
000001c0: 4c77 bebd 1660 61be 80b6 bcbd bc53 bfbb
000001d0: 3e2f 73bd bf6c a5bd e0f7 363b e5cd 25bb
000001e0: 35e0 8cbd b788 c83d 362f daba 884e eabd
000001f0: 0988 11bd 85e9 febd a55e 5abd 0ade b13d
00000200: c196 68be 727d a7bd f107 9dbe a94f e2bd
00000210: c1d5 93bd ce9b 4ebd 3510 b03e a8b0 383e
00000220: 66c3 85be d031 c63c 2acb afbd 3d4a 573c
00000230: 2b81 3ebd 486b d53b 6ee3 37bd d773 e2bc
00000240: 7392 c2bc f069 233d 9f28 55bd 8b46 c63d
00000250: 5b8f fbbd 0daa aebe 8f99 cb3e ad28 9bbe
00000260: 9adf 98bd 9bdb 26bd 2083 d8bd 1478 a63b
00000270: a8d5 c2bd a23b cc3b bef2 81be 7f01 c8bd
00000280: ef24 b8be 715f 22bf 6936 c7bb 4883 6ebd
00000290: 3376 64bc ae5f 88bd ad15 50be 217a f9bc
000002a0: 4459 39bc e80b 473e 2068 aabd 7c88 7ebd
000002b0: ce66 40bd 62dc b4be bf26 92bd e4e1 acbe
000002c0: cde5 0a3c c3ba dfbc 3840 e3bc 6638 763d
000002d0: d581 e4bd 01e5 92be d0f1 56be 4808 a7bd
000002e0: ec9d 91bc da5d 0fbb be3e 013c 458b debb
000002f0: e6fe 1a3e 0cbc 1dbe 0c6f 89bd 61ce 55bc
00000300: 4ce3 db3c 83e1 56bd 368b 293e 68d1 aabd
00000310: f232 8d3d c055 d4be 9d81 1cbc c21c 90bd
00000320: b27f 5d3c b37b 08bf 7356 8fbd 948d 693c
00000330: 49d0 fa3c 9407 3e3d a335 06be 2710 793d
00000340: 27e9 c7bc fa32 fa3c 8d48 23bf 4e77 f9bc
00000350: 016f 2b3e c311 6bbd adea be3c 5972 babe
00000360: e3cc 0a3e 45d7 35bb a428 8abd c473 cbbb
00000370: fcde 24bf 0553 99bd 75b9 023e a9b8 24be
00000380: 91db 42be 76a2 00be 773b 093c d4e4 4cbe
00000390: d851 7a3d c0ef 96bd 0602 38bd 3122 cd3d
000003a0: 2d4b 493e 5b81 0a3e fa98 aebd c1e5 dbbd
000003b0: feba 103d 5474 9a3d 099f d7be 5c48 7abd
000003c0: 659f 52be 4d37 4ebc 2372 4a3d cf08 82be
000003d0: 1651 30be daca acbd e10b b43c d915 1bbe
000003e0: ba7e f43a 9d04 2dbe 9603 cdbd 1762 603d
000003f0: 9378 b43d 0724 aabd 5029 d3be b4a3 9bbe

fc3.weight f4 [3, 256]
-0.27661017 -0.17122772 0.003500021 -0.26615685 -0.10090122 -0.36031824 -0.7177299 0.06407362
0.010073958 0.010914816 0.20370992 -0.54436105 0.1040222 -0.28222558 -0.0054287924 -0.13794944
-0.52954215 -0.014177676 -0.10157766 -0.7760897 -0.62314004 0.0033971702 -0.92290944 -0.0099457055
-0.008322077 1.4295052 0.40071422 -0.51586366 -0.020412749 0.20812398 0.008448332 0.0033692736
0.22689067 -0.12588072 0.00042023385 -0.27923223 -0.005833956 0.00096916704 -0.4889327 -0.5347987
0.010387559 0.07135539 0.14090912 0.3908061 -0.5071452 -0.60748535 -0.006887376 0.008180725
-0.011150732 -0.008781337 -0.5801942 -0.35109147 -0.43374765 0.008434851 -0.022395117 0.0055925297
0.39355302 0.3400155 0.0062937746 -0.0058745705 0.0042602685 -0.17694299 -0.47774968 -0.0024836673
-1.1321024 -0.007952115 0.17946105 0.10269949 -0.23397185 0.39116347 0.34162143 0.6059776
0.12163676 -0.82601696 -0.18564107 -0.042748325 0.25792792 -0.31614766 -0.00018660177 -0.0009280682
0.003363333 0.4654387 0.148709 0.0007272136 0.75013685 0.41872007 0.6149984 -0.20616736
-0.13203464 -0.025425637 -0.002277998 -0.24525474 -0.11689031 0.6363465 0.006065614 0.41060302
-0.36710826 0.43707535 0.03028635 -0.5262822 0.0034313707 0.20797569 0.29844448 -0.37560898
-0.0048783063 -0.37146756 -0.48505557 -0.01396484 -0.016919985 0.00094275514 0.0007171816 -0.47296992
0.58689934 0.546801 0.0016797716 0.0021256178 -0.0125330705 0.0028489644 -0.0060613956 -0.013973855
0.0057266136 -0.34012684 0.05405898 -0.54594964 -0.4819862 0.4667827 -0.024314674 -0.7332071
0.5259184 0.15796185 0.18202516 -0.008806987 -0.0001149418 -0.8154317 -0.2774226 0.3171633
-0.088552654 0.039859526 -0.005567981 -0.30706382 0.009603544 0.16178173 -0.42273322 -0.00013009121
-0.0004861585 -0.023120396 0.0026278195 -0.12576184 0.07650118 -0.40494868 0.09138734 -0.72827464
-0.0006291359 -0.41532153 0.31999797 -0.0075145857 -0.00462258 -0.0041124364 -0.41373637 0.065841034
-0.91708165 -0.029695302 0.1384538 -0.0065917904 0.3126839 -0.0007218121 0.20991662 0.14950815
-0.5651349 0.070109755 0.27868164 -0.0002879932 -0.88982743 0.17408457 0.2743684 -0.21629567
-0.00066573865 0.06922729 0.005681654 -0.9389535 0.48204795 -1.1261332 -0.22565785 -1.1170424
-0.0013263026 -0.008872077 -0.006337653 0.064724475 0.8020538 0.84797084 -0.48114994 -0.0046625757
0.002674926 -0.49906155 -0.06360031 -0.0112691065 -0.099940285 0.51282173 -0.9435321 -0.07043922
0.0036122825 -0.9086184 -0.027945 -0.00087440095 -0.85662 -0.29460156 -0.075062625 -0.4603379
0.75930136 0.019484548 0.57707673 -0.018726723 0.31710532 -0.0050436794 -0.0028587154 0.34758362
0.628593 0.50592434 -0.0031339969 -0.018072344 -0.41330993 -0.004828099 -0.5485281 -0.07066806
-0.31772736 0.10526584 -0.0058194813 0.1531305 -0.35138038 -0.27836138 -0.37186214 -0.4050681
-0.11588643 0.01800434 0.65205085 -0.013185686 0.012532955 -0.09407133 0.42997524 -0.03587974
0.27152774 -0.0128744375 0.13425496 0.14841339 -0.50747216 -0.0072782086 0.010632501 -0.3755237
-0.014645073 -0.5354479 0.32505733 -0.1609481 0.15289117 0.0026198553 0.42505717 0.752011
00000000: d99f 8dbe 5256 2fbe 9c60 653b b645 88be
00000010: 4da5 cebd a27b b8be 26bd 37bf 0839 833d
00000020: 3e0d 253c 0ed4 323c 5599 503e 3f5b 0bbf
00000030: 9709 d53d df7f 90be 03e4 b1bb 9e42 0dbe
00000040: 1390 07bf 7c49 68bc f307 d0bd d1ad 46bf
00000050: 1b86 1fbf 0fa3 5e3b cb43 6cbf 50f3 22bc
00000060: 5259 08bc 07fa b63f 6a2a cd3e a40f 04bf
00000070: a338 a7bc 741e 553e df6a 0a3c 08cf 5c3b
00000080: 0756 683e e0e6 00be d552 dc39 87f7 8ebe
00000090: c52a bfbb b30f 7e3a 6355 fabe 91e8 08bf
000000a0: 9530 2a3c c622 923d 7b4a 103e bd17 c83e
000000b0: 45d4 01bf 2984 1bbf 7faf e1bb 7308 063c
000000c0: 8fb1 36bc 99df 0fbc 9b87 14bf 43c2 b3be
000000d0: 2c14 debe 5432 0a3c f775 b7bc 8a41 b73b
000000e0: c87f c93e 8316 ae3e 023c ce3b 787f c0bb
000000f0: b999 8b3b 8b30 35be 9b9b f4be 06c5 22bb
00000100: bbe8 90bf 9649 02bc a3c4 373e 1c54 d23d
00000110: 5196 6fbe 9446 c83e 01e9 ae3e 5921 1b3f
00000120: b21c f93d d975 53bf b118 3ebe de18 2fbd
00000130: 210f 843e 1bde a1be 88aa 43b9 9a49 73ba
00000140: 5d6b 5c3b fb4d ee3e 2c47 183e 7ba2 3e3a
00000150: f808 403f 7a62 d63e 8970 1d3f 891d 53be
00000160: 1734 07be 6d49 d0bc 774a 15bb 0f24 7bbe
00000170: 3064 efbd 9be7 223f 0fc2 c63b 8f3a d23e
00000180: 9df5 bbbe 57c8 df3e 141b f83c 6eba 06bf
00000190: d9e0 603b 94f7 543e b7cd 983e d24f c0be
000001a0: 33da 9fbb ff30 bebe 3459 f8be c9cc 64bc
000001b0: c89b 8abc 3a23 773a 3e01 3c3a 1d29 f2be
000001c0: 093f 163f 26fb 0b3f c82b dc3a f34d 0b3b
000001d0: 8257 4dbc b1b5 3a3b ac9e c6bb 99f2 64bc
000001e0: 51a6 bb3b 1b25 aebe f36c 5d3d 5bc3 0bbf
000001f0: e5c6 f6be 24fe ee3e 912f c7bc 76b3 3bbf
00000200: 97a2 063f c0c0 213e ce64 3a3e 2e4b 10bc
00000210: e90c f1b8 22c0 50bf 560a 8ebe 3a63 a23e
00000220: 185b b5bd be43 233d 9c73 b6bb 7837 9dbe
00000230: 2f58 1d3c 1caa 253e 7d70 d8be 1869 08b9
00000240: 17e3 feb9 fc66 bdbc 7f37 2c3b b6c7 00be
00000250: a7ac 9c3d 6f55 cfbe 4929 bb3d 3570 3abf
00000260: 98ec 24ba 06a5 d4be c6d6 a33e ea3c f6bb
00000270: 0379 97bb 9ec1 86bb 41d5 d3be aad7 863d
00000280: ddc5 6abf 9043 f3bc d5c6 0d3e f2ff d7bb
00000290: 1b18 a03e fd37 3dba 62f4 563e aa18 193e
000002a0: aeac 10bf b495 8f3d 5caf 8e3e cbfd 96b9
000002b0: bbcb 63bf 3a43 323e 047a 8c3e 9d7c 5dbe
000002c0: f784 2eba 0ac7 8d3d 2b2d ba3b 425f 70bf
000002d0: fdce f63e 2225 90bf da12 67be 3ffb 8ebf
000002e0: 55d7 adba 305c 11bc 16ac cfbb 448e 843d
000002f0: 6653 4d3f 9e14 593f 4959 f6be 85c8 98bb
00000300: d04d 2f3b ff84 ffbe e140 82bd 0fa2 38bc
00000310: 7ead ccbd 4948 033f 528b 71bf 7042 90bd
00000320: 0bbc 6c3b 379b 68bf eaec e4bc 0e38 65ba
00000330: 734b 5bbf 04d6 96be 6fba 99bd 69b1 ebbe
00000340: 9361 423f 0f9e 9f3c 4dbb 133f c968 99bc
00000350: a15b a23e 7345 a5bb 4959 3bbb 7bf6 b13e
00000360: 79eb 203f 4284 013f be63 4dbb 740c 94bc
00000370: 5c9d d3be 0835 9ebb 566c 0cbf 6aba 90bd
00000380: 29ad a2be 9e95 d73d 59b1 bebb 3ece 1c3e
00000390: 21e8 b3be 6285 8ebe b764 bebe 1665 cfbe
000003a0: dd55 edbd d67d 933c ceec 263f c708 58bc
000003b0: 0657 4d3c 78a8 c0bd b725 dc3e a2f6 12bd
000003c0: af05 8b3e 4eef 52bc 227a 093e aef9 173e
000003d0: b2e9 01bf 0a7e eebb f133 2e3c a444 c0be
000003e0: e3f1 6fbc 1d13 09bf ea6d a63e 94cf 24be
000003f0: 818f 1c3e e1b1 2b3b 18a1 d93e cb83 403f

fc3.bias f4 [3]
-0.3750575 0.24777386 0.10713055
00000000: 8907 c0be 6eb8 7d3e 4367 db3d
