runs/checkpoint_actor_256_192021_tau1_820.pth (torch, 288535 bytes, 6 tensors)

fc1.weight f4 [256, 19]
-0.049285926 0.00735645 -0.057553634 -0.0505858 -0.022600263 -0.054991066 -0.013213977 -0.014685743
-0.05178406 -0.032791525 0.0057679936 0.023312852 -0.041848674 0.010691442 0.054735184 -0.014331482
0.018978678 0.012527905 -0.0022491813 0.040711086 -0.1431067 0.19425906 -0.15799049 -0.35276836
0.19934039 0.43576732 -0.07342234 -0.28093797 -0.3367338 -0.20685565 -0.19245028 -0.13183346
0.07814597 0.09411301 -0.4767889 -0.20404975 -0.40519476 -0.3777186 0.0015751843 0.12513477
0.13287799 0.08116805 -0.17480092 -0.18769464 0.6057105 -0.91312724 -0.6057303 -0.28178278
-0.14354667 -0.12941983 -0.04080024 0.2933084 -0.13234085 0.29735288 -1.0583953 -0.8436535
-0.3429889 0.01575024 -0.19816886 -0.18034717 -0.24300486 -0.51413816 0.24637662 0.526615
-1.341749 -1.4018719 -1.3544111 -0.3395371 -0.3236468 -0.30561998 -0.075268134 -0.09767279
-0.30509886 0.18410228 0.03700368 0.2186644 -0.017608449 0.2636532 -0.032678343 -0.111565754
0.2021749 -0.8058047 -0.0006385952 -0.13476825 -0.008134106 -0.100139745 0.09112243 0.052445695
0.070931695 0.17452957 0.31704345 -0.13245462 -0.42901596 -0.10563678 -0.1562129 0.0012951423
0.05113091 -0.15320705 -0.084271565 -0.37733528 -0.39887613 1.371889 0.92004246 0.92550504
1.0323163 -0.1912344 -0.20018412 -0.13731386 0.041161798 -0.30466822 -0.16945472 -0.32974386
0.05666421 0.07590825 -0.08022302 -0.070110604 -0.03350787 0.025418682 0.024512121 -0.083248265
0.022925694 -0.027964259 -0.03101352 0.074129514 -0.04229618 -0.058876738 0.0006631389 -0.045313325
-0.02908405 0.06508497 -0.015403659 -0.06781265 -0.05205017 0.015886012 0.14682756 -0.049577504
-0.22533756 -0.7464152 -0.00038544548 -0.95268804 -0.51081365 -0.66093516 -0.6248779 0.07882719
0.06132376 0.040816676 0.17896798 0.1132919 0.38623032 -0.648924 -0.9455835 -0.42770097
0.0020196307 0.032148607 -0.07315876 0.14852549 -0.012219529 -0.1186266 -0.042208314 0.84058136
0.92443645 0.94921005 -0.16545066 -0.15325218 -0.10477949 -0.42700553 -0.2781517 0.19797616
-1.1731864 -0.6709275 -0.30911684 0.010416685 -0.022572743 0.28758684 0.05309945 0.4937222
0.0038866652 0.47572526 -0.13796826 -0.14190927 -0.15121497 -0.10863721 -0.2282846 -0.17611681
0.60702604 -0.38179886 -0.1292307 -0.14731105 -0.39796683 -0.11196762 0.005750667 -0.09506779
-0.34274903 0.053522743 0.18373886 -0.53956705 -0.35510856 1.3525208 1.2391492 1.182293
0.08447468 0.050670154 0.083257906 -0.0064974437 -0.16655658 -0.2721062 -0.161452 0.05338203
-0.22336769 -0.065857776 0.016002273 -0.048531443 -0.016142199 0.040552065 0.028585566 -0.05726365
-0.02147239 -0.04341171 0.051406674 -0.020520136 0.012932652 -0.048037842 0.025908861 -0.0284523
0.009551669 -0.05466141 -0.022997767 -0.056339215 -0.00056881853 0.0051167924 0.08057898 0.09108323
-0.90848607 -0.1612687 -0.57074547 -0.025333958 0.08488059 0.07718758 -0.008823103 -0.1114405
-0.053334482 0.2759321 -0.18798858 0.3432946 -0.21609116 -0.79123044 -0.06681693 0.00013084714
0.075941406 0.17484704 -0.23753926 -0.8383462 -0.47336534 0.9186964 0.0426885 -0.017232407
00000000: 0ae0 49bd 600e f13b 5cbd 6bbd 0e33 4fbd
00000010: 3024 b9bc 503e 61bd 707f 58bc 789c 70bc
00000020: 861b 54bd 6850 06bd 7001 bd3b 98fa be3c
00000030: 8469 2bbd 282b 2f3c 0032 603d 98ce 6abc
00000040: 2c79 9b3c d841 4d3c 0067 13bb abc0 263d
00000050: 908a 12be d9eb 463e 42c8 21be 0e9e b4be
00000060: e31f 4c3e e51c df3e 745e 96bd 1ad7 8fbe
00000070: 5f68 acbe f8d1 53be b011 45be 5aff 06be
00000080: ff0a a03d 52be c03d ad1d f4be 6bf2 50be
00000090: b075 cfbe 5564 c1be 6a76 ce3a 5423 003e
000000a0: 2b11 083e 6f3b a63d 03ff 32be 0633 40be
000000b0: d80f 1b3f b5c2 69bf 2411 1bbf d545 90be
000000c0: e6fd 12be a286 04be 271e 27bd 852c 963e
000000d0: 5c84 07be a33e 983e 7f79 87bf adf9 57bf
000000e0: 3e9c afbe a606 813c c7ec 4abe eeac 38be
000000f0: 44d6 78be 8f9e 03bf 274a 7c3e 3ed0 063f
00000100: 6ebe abbf 8a70 b3bf 585d adbf cfd7 adbe
00000110: 09b5 a5be 397a 9cbe 2e26 9abd ac08 c8bd
00000120: eb35 9cbe 4f85 3c3e 2c91 173d 8fe9 5f3e
00000130: 983f 90bc 8dfd 863e bad9 05bd 967c e4bd
00000140: f006 4f3e 3849 4ebf 6667 27ba b000 0abe
00000150: ea44 05bc 1116 cdbd 669e ba3d 4cd1 563d
00000160: a344 913d e1b7 323e 8553 a23e 2fa2 07be
00000170: fba7 dbbe 1958 d8bd 46f6 1fbe c4c1 a93a
00000180: a56e 513d 4fe2 1cbe 9296 acbd 1732 c1be
00000190: 7e39 ccbe 0f9a af3f e787 6b3f e6ed 6c3f
000001a0: f122 843f f3d2 43be 11fd 4cbe 019c 0cbe
000001b0: 4699 283d 79fd 9bbe 8a85 2dbe 30d4 a8be
000001c0: bb18 683d c975 9b3d f74b a4bd 2696 8fbd
000001d0: 8c3f 09bd d73a d03c a5cd c83c 117e aabd
000001e0: aace bb3c 4d15 e5bc 1110 febc 37d1 973d
000001f0: c23e 2dbd bc28 71bd 80d6 2d3a 779a 39bd
00000200: ac41 eebc 454b 853d a15f 7cbc 5ce1 8abd
00000210: 8f32 55bd 6223 823c f759 163e c811 4bbd
00000220: e4be 66be 1115 3fbf 9e15 cab9 5de3 73bf
00000230: afc4 02bf 0c33 29bf 00f8 1fbf 2670 a13d
00000240: 9f2e 7b3d 632f 273d 6243 373e 9505 e83d
00000250: fbbf c53e e21f 26bf c311 72bf 9ffb dabe
00000260: c85b 043b 42ae 033d 43d4 95bd 1117 183e
00000270: 6b34 48bc 81f2 f2bd a0e2 2cbd 5730 573f
00000280: dea7 6c3f 6eff 723f e66b 29be 24ee 1cbe
00000290: a196 d6bd 78a0 dabe e669 8ebe 43ba 4a3e
000002a0: f92a 96bf e8c1 2bbf 9044 9ebe beaa 2a3c
000002b0: 79ea b8bc 953e 933e cf7e 593d 28c9 fc3e
000002c0: 6cb7 7e3b 4392 f33e 8d47 0dbe aa50 11be
000002d0: 19d8 1abe 307d debd 70c3 69be f757 34be
000002e0: 0f66 1b3f 247b c3be 0d55 04be b5d8 16be
000002f0: 4fc2 cbbe 484f e5bd 1770 bc3b e7b2 c2bd
00000300: cd7c afbe aa3a 5b3d 0a26 3c3e 1121 0abf
00000310: cad0 b5be 671f ad3f 719c 9e3f 6155 973f
00000320: 1001 ad3d 828b 4f3d 1f83 aa3d 82e8 d4bb
00000330: cf8d 2abe 8151 8bbe ac53 25be 1ea7 5a3d
00000340: 80ba 64be 71e0 86bd 3317 833c e8c8 46bd
00000350: a53c 84bc ec19 263d 472c ea3c 4a8d 6abd
00000360: dee6 afbc 7ad0 31bd ce8f 523d d819 a8bc
00000370: 79e3 533c 54c3 44bd d23e d43c cc14 e9bc
00000380: 9a7e 1c3c a5e4 5fbd d065 bcbc f3c3 66bd
00000390: c41c 15ba c4aa a73b 9806 a53d d889 ba3d
000003a0: 8b92 68bf 9f23 25be 601c 12bf 2989 cfbc
000003b0: e0d5 ad3d 8614 9e3d c78e 10bc eb3a e4bd
000003c0: 4275 5abd f946 8d3e 1480 40be 4fc4 af3e
000003d0: 0047 5dbe 148e 4abf 51d7 88bd 0334 0939
000003e0: 2b87 9b3d 1a0b 333e 7e3d 73be db9d 56bf
000003f0: f15c f2be b02f 6b3f 23da 2e3d fa2a 8dbc

fc1.bias f4 [256]
0.06889538 -0.31163004 0.18894519 -0.27918455 0.112620726 -0.025596373 0.16601118 0.059273966
-0.25245485 -0.17322452 0.09177474 0.18653607 0.115256496 0.20343778 0.090994455 0.030827964
-0.3651269 0.31953925 -0.23387802 -0.11065907 0.21202774 -0.2794816 -0.13908383 -0.20312357
-0.12764339 -0.27431753 -0.12349912 -0.20904836 0.08935229 -0.16164611 -0.034899164 0.2718548
0.16928844 -0.07212926 0.213131 0.015196461 -0.048672568 0.045470484 -0.1539191 -0.253874
-0.024513034 0.03730446 -0.35920668 -0.01182874 0.03167991 0.11222639 0.036174417 -0.16466928
0.12352915 0.22114113 0.18299298 0.2889664 -0.21031937 -0.16737583 -0.15734284 0.0953014
0.3759886 -0.12748964 0.030146439 -0.19121328 -0.21733654 -0.13445121 -0.2134275 0.18907085
0.096649334 0.3544573 -0.12655517 -0.01745952 -0.18335007 -0.34288636 -0.04291345 0.02566971
0.11165864 -0.06877084 0.07792158 -0.010967242 -0.098906845 -0.32023346 0.07869757 0.006836209
0.037033316 -0.10570298 -0.28532642 -0.049881637 0.22529595 -0.5068713 -0.021906653 0.034954283
-0.25968572 0.116335474 0.0038617582 -0.24935308 -0.15035634 0.15218548 -0.09962397 -0.2108235
0.11024604 0.22656253 0.11939745 -0.16918455 -0.049109418 0.6207191 -0.38494274 -0.15444866
0.17772359 0.13032812 0.027359916 0.293985 -0.21552584 0.25107858 0.07842524 -0.30699095
-0.30142242 -0.020817794 0.0606402 0.19924751 -0.25439122 -0.23916286 0.25166312 -0.19466516
0.062000144 -0.25639313 0.14150167 0.16518971 -0.0651713 -0.26128578 -0.11760301 0.23720142
-0.084546804 -0.14714558 -0.13672195 -0.11703284 -0.056226403 -0.11799701 -0.01879477 0.03769984
-0.03464036 -0.330972 -0.13987695 0.3092607 0.00737091 -0.1986294 -0.26397142 -0.34526646
0.08916832 -0.039960753 -0.1386932 -0.074774705 -0.25068194 -0.09180225 -0.08794034 0.1375961
-0.19303651 0.09583342 -0.14935909 -0.59892476 0.17415002 0.04283973 -0.16376509 -0.07961634
-0.24806051 -0.12175419 0.16908415 0.2652159 -0.28396988 -0.4162822 0.27220958 0.026463654
-0.09498957 -0.143765 -0.6307796 -0.2531775 0.16199374 0.1630869 -0.08344841 -0.33600977
0.11381798 0.09518541 0.0024104554 0.1393942 -0.26211938 -0.03859164 0.22586991 -0.09300808
-0.010833842 -0.47998008 -0.045621593 -0.019011656 -0.13019422 -0.11925062 -0.28841847 0.07552158
-0.34330875 0.118397065 -0.22999547 -0.30042294 0.031039584 -0.13586362 -0.29951876 -0.49663457
-0.009249456 -0.19866383 0.15394036 0.05786663 0.08381138 0.17210811 0.09765909 -0.06942285
-0.3221532 -0.24499144 0.098285355 -0.24218462 -0.12768315 -0.39220423 0.0940909 0.08612588
0.19105396 0.09739296 0.007376448 -0.33823752 -0.150223 0.023927044 -0.21436478 -0.34341165
0.10159508 -0.047397017 -0.01942303 0.2546664 -0.082752004 -0.23909843 -0.029835267 -0.022510732
-0.21452288 -0.16928424 -0.19283363 -0.23197909 -0.14067188 0.17376575 0.04540451 0.008947946
-0.0048531387 0.18174452 -0.111119226 0.10786631 0.22468922 -0.00013953197 0.19453183 -0.30422017
0.24082366 0.17200057 -0.08905246 -0.21988256 0.06936539 -0.13525392 -0.18625449 -0.21535902
00000000: 0519 8d3d f98d 9fbe d97a 413e 47f1 8ebe
00000010: b2a5 e63d 7caf d1bc d6fe 293e 42c9 723d
00000020: c341 81be c561 31be 65f4 bb3d 5003 3f3e
00000030: 990b ec3d fe51 503e 4d5b ba3d ed8a fc3c
00000040: eaf1 babe a69a a33e b87d 6fbe 39a1 e2bd
00000050: cd1d 593e 3618 8fbe fe6b 0ebe a0ff 4fbe
00000060: f3b4 02be 5973 8cbe 1bed fcbd c610 56be
00000070: 55fe b63d 8f86 25be 6df2 0ebd 8d30 8b3e
00000080: f359 2d3e 81b8 93bd 033f 5a3e 94fa 783c
00000090: e35c 47bd 423f 3a3d f89c 1dbe c6fb 81be
000000a0: 8fcf c8bc 90cc 183d f0e9 b7be 55cd 41bc
000000b0: cbc2 013d f3d6 e53d a02b 143d 109f 28be
000000c0: dafc fc3d d272 623e 8362 3b3e 67f3 933e
000000d0: f65d 57be 9264 2bbe 7b1e 21be 612d c33d
000000e0: 9481 c03e a58c 02be aaf5 f63c 6acd 43be
000000f0: 788d 5ebe 94ad 09be bd8c 5abe ca9b 413e
00000100: 16f0 c53d 6d7b b53e ae97 01be 4407 8fbc
00000110: 1fc0 3bbe cd8e afbe 04c6 2fbd 4949 d23c
00000120: 49ad e43d bad7 8cbd 5995 9f3d f2af 33bc
00000130: ac8f cabd a4f5 a3be 312c a13d 4702 e03b
00000140: 3fb0 173d ce7a d8bd 4e16 92be b050 4cbd
00000150: fbb3 663e 51c2 01bf 9575 b3bc 392c 0f3d
00000160: 87f5 84be 4b41 ee3d 8d15 7d3b 6a56 7fbe
00000170: 03f7 19be 83d6 1b3e a707 ccbd 1ee2 57be
00000180: adc8 e13d 0200 683e a686 f43d b73e 2dbe
00000190: f526 49bd 72e7 1e3f 3717 c5be ca27 1ebe
000001a0: 2cfd 353e bc74 053e e721 e03c 3485 963e
000001b0: ceb2 5cbe 5f8d 803e 6a9d a03d eb2d 9dbe
000001c0: 0a54 9abe 148a aabc dc61 783d 8a07 4c3e
000001d0: 913f 82be 1ce7 74be fdd9 803e 4e56 47be
000001e0: ddf3 7d3d f645 83be d0e5 103e 7e27 293e
000001f0: 8878 85bd 40c7 85be d9d9 f0bd eee4 723e
00000200: e026 adbd 55ad 16be d700 0cbe eaae efbd
00000210: a84d 66bd 6ba8 f1bd 7df7 99bc 266b 1a3d
00000220: 0de3 0dbd 2975 a9be e73b 0fbe 6b57 9e3e
00000230: ad87 f13b 8165 4bbe 4327 87be c4c6 b0be
00000240: e19d b63d e3ad 23bd 9705 0ebe 7b23 99bd
00000250: 6259 80be d102 bcbd 111a b4bd fee5 0c3e
00000260: 5dab 45be 5044 c43d 97f1 18be 2253 19bf
00000270: 6254 323e b678 2f3d 09b2 27be e40d a3bd
00000280: 9303 7ebe 435a f9bd 6524 2d3e 61ca 873e
00000290: 8064 91be f122 d5be 0e5f 8b3e 4eca d83c
000002a0: e489 c2bd 2237 13be c67a 21bf 7ba0 81be
000002b0: b0e1 253e 4100 273e 00e7 aabd 7909 acbe
000002c0: 6719 e93d 91f0 c23d bbf8 1d3b 5abd 0e3e
000002d0: 8334 86be 4412 1ebd 714a 673e 057b bebd
000002e0: 6d80 31bc f3bf f5be b5dd 3abd 55be 9bbc
000002f0: a251 05be ab39 f4bd 96ab 93be 0fab 9a3d
00000300: 2ac6 afbe 297a f23d ef83 6bbe 09d1 99be
00000310: ba46 fe3c d51f 0bbe 865a 99be e346 febe
00000320: 088b 17bc 886e 4bbe 8ba2 1d3e 8f05 6d3d
00000330: 4da5 ab3d 1c3d 303e 7d01 c83d 912d 8ebd
00000340: 44f1 a4be 09df 7abe d549 c93d 3fff 77be
00000350: 5fbf 02be fece c8be bbb2 c03d c462 b03d
00000360: a6a3 433e f675 c73d 21b6 f13b 782d adbe
00000370: 0fd4 19be a602 c43c 7182 5bbe a7d3 afbe
00000380: 1511 d03d 6023 42bd 0c1d 9fbc a263 823e
00000390: e279 a9bd 38d6 74be 1769 f4bc 6d68 b8bc
000003a0: e3ab 5bbe d958 2dbe 2e76 45be ed8b 6dbe
000003b0: 4a0c 10be a6ef 313e 14fa 393d 689a 123c
000003c0: 1407 9fbb 3c1b 3a3e 7a92 e3bd 03e9 dc3d
000003d0: ee14 663e 544f 12b9 5a33 473e bfc2 9bbe
000003e0: 7a9a 763e eb20 303e 2361 b6bd e528 61be
000003f0: 710f 8e3d 0180 0abe 7fb9 3ebe 1387 5cbe

fc2.weight f4 [256, 256]
0.052740052 0.10955346 0.106077574 -0.184276 -0.20771314 0.05742977 -0.047297604 0.24783728
-0.11181599 -0.3734748 -0.54325694 -0.022292122 0.05327648 -0.895611 0.04358553 -0.22627848
0.1162833 -1.0623317 -0.034545787 0.02496719 0.2103148 0.29023615 0.030324413 0.19966543
-0.12368233 0.13469508 0.059395403 -0.26950675 0.020844594 0.081389375 0.17825378 -0.112562574
-0.14339463 0.018445203 0.06093791 0.09641024 -0.024333123 0.01753603 -0.069776975 -0.018570833
-0.02088218 -0.012566777 -0.79893285 0.0028895512 -0.22072662 0.4695678 -0.09304277 -0.06406023
-0.09785581 0.042030398 -0.04341325 -0.4177208 0.07735716 -0.042686246 0.04529867 -0.10804621
-0.18778181 0.0082015395 -0.0024867654 0.19758563 0.045598228 0.043799575 0.015386164 -0.2478303
0.18081373 -0.773871 0.34912285 -0.021052018 0.02418113 -0.1882327 0.117611416 0.048228126
-0.16187865 0.01881349 -0.34022585 -0.062784865 -0.5004115 0.28826743 -0.2553939 0.09523368
0.40025133 -0.06486377 0.54178995 -0.076179884 -0.86625826 -0.02719314 0.033640213 0.17731759
-0.027173875 0.032363568 0.047751002 -0.38681906 -0.0540566 -0.053205986 0.16243108 0.010286785
-0.05440677 -0.12788954 -0.009952579 0.06014795 0.019951217 -0.03685144 0.14114994 -0.03294821
-0.018394068 0.4038321 -0.27363926 -0.2411705 -0.022100156 -0.13133703 0.16734256 0.027578728
-0.4830459 -0.33923182 0.0021575126 0.0058355955 -0.06828292 0.16381286 -0.11602532 0.16774492
-0.6280385 -0.053753357 0.013052054 0.269164 -1.0481619 -0.015131991 -0.09731682 0.057087883
-0.41898292 0.254254 -0.1632147 0.40636367 0.009607747 -0.21974264 0.048084408 -0.38038918
-0.26014462 0.010571111 -0.017445672 0.1131557 0.2560121 -0.1729939 0.01849185 0.119238764
0.047009 -0.17848581 0.06924769 -0.08992867 0.038577173 -0.037470587 0.13797255 -0.34159094
0.047295954 -0.2523936 -0.08329126 0.21312782 0.023247458 -0.038963903 -0.5381034 -0.013574406
-0.04672738 -0.05970772 -0.21126945 0.21653207 -0.03008656 0.033002008 0.24317294 -0.007717505
-0.078546934 0.05728471 0.20563065 -0.009179797 0.36234757 -0.016608946 0.106745064 -0.26986492
0.030320859 0.14059375 -0.17804703 0.19116265 -0.04581524 0.1853619 -0.034772735 0.03651226
-0.01816457 -0.18585943 -0.026765572 0.28111252 -0.44775683 0.03704183 0.051866226 -0.18689854
0.23136157 -0.019081296 0.045268327 0.08079552 0.26016232 -0.048680678 0.15936965 0.14892358
0.10746091 0.06161038 -0.062425435 0.022263248 -0.031925492 0.063766316 0.05782371 0.050801307
0.2910343 -0.017468555 0.09964233 -0.11312578 0.2877969 0.07497121 -0.17891103 -0.050986633
0.06387509 -0.009440231 -0.7065006 -0.20985597 0.09300272 -0.018966254 0.11924669 0.22051053
0.42639858 -0.10367624 -0.0398127 -0.15039062 0.06777009 0.042116787 -0.0015580435 0.009995363
-0.27283674 -0.008026264 -0.25882196 -0.0031480568 -0.3768733 -0.04535118 0.046010528 -0.014727712
0.0438846 0.086804435 0.11800907 0.18421796 0.14681177 -0.0034092292 -0.12706819 0.011500701
0.14158297 -0.007792569 0.1529535 -0.49078843 0.24028066 0.013191612 0.14135563 -0.0062779486
00000000: f405 583d 905d e03d 333f d93d d9b2 3cbe
00000010: c1b2 54be 7a3b 6b3d 22bb 41bd 0ec9 7d3e
00000020: c8ff e4bd 1738 bfbe e312 0bbf f89d b6bc
00000030: 7038 5a3d c346 65bf be86 323d 8cb5 67be
00000040: f025 ee3d 7cfa 87bf e27f 0dbd fe87 cc3c
00000050: c35c 573e d599 943e e76a f83c 1875 4c3e
00000060: 294d fdbd 82ed 093e 9848 733d cafc 89be
00000070: 48c2 aa3c 79af a63d 2988 363e 3587 e6bd
00000080: 0bd6 12be 651a 973c 089a 793d bb72 c53d
00000090: 4256 c7bc b8a7 8f3c 3be7 8ebd dc21 98bc
000000a0: 1b11 abbc e2e4 4dbc dd86 4cbf a05e 3d3b
000000b0: 2906 62be 316b f03e 358d bebd 0332 83bd
000000c0: a068 c8bd 1128 2c3d 18d2 31bd 80df d5be
000000d0: 6e6d 9e3d c6d7 2ebd 198b 393d 5547 ddbd
000000e0: e049 40be c05f 063c 00f9 22bb e353 4a3e
000000f0: 35c5 3a3d 2f67 333d 4016 7c3c 3ac7 7dbe
00000100: 3c27 393e 691c 46bf 3bc0 b23e 4875 acbc
00000110: 8117 c63c 13c0 40be 41de f03d db8a 453d
00000120: 84c3 25be c01e 9a3c 1532 aebe 5a95 80bd
00000130: f81a 00bf ca97 933e fdc2 82be e009 c33d
00000140: beed cc3e 4cd7 84bd bfb2 0a3f 3304 9cbd
00000150: 1ac3 5dbf 26c4 debc 52ca 093d be92 353e
00000160: bf9b debc a98f 043d 8e96 433d 260d c6be
00000170: 746a 5dbd 85ee 59bd 5554 263e e789 283c
00000180: a2d9 5ebd 7af5 02be 2410 23bc b25d 763d
00000190: bc70 a33c 89f1 16bd 9c89 103e b4f4 06bd
000001a0: 28af 96bc 15c3 ce3e 721a 8cbe 66f5 76be
000001b0: 630b b5bc 377d 06be d95b 2b3e c9ec e13c
000001c0: cb51 f7be cbaf adbe 0e65 0d3b 8638 bf3b
000001d0: ead7 8bbd 8fbe 273e af9e edbd 53c5 2b3e
000001e0: 22c7 20bf 7b2c 5cbd 48d8 553c ddcf 893e
000001f0: 2b2a 86bf 2cec 77bc 0a4e c7bd fcd4 693d
00000200: ee84 d6be 952d 823e c121 27be e60e d03e
00000210: d069 1d3c 3704 61be 28f4 443d 5fc2 c2be
00000220: ad31 85be 7432 2d3c 3aea 8ebc 2dbe e73d
00000230: 0514 833e 5025 31be 387c 973c 7433 f43d
00000240: 828c 403d fcc4 36be bcd1 8d3d 862c b8bd
00000250: 1903 1e3d c27a 19bd ad48 0d3e 02e5 aebe
00000260: 67b9 413d bc39 81be 9c94 aabd 2e3e 5a3e
00000270: 7471 be3c 9d98 1fbd 25c1 09bf 2f67 5ebc
00000280: 3665 3fbd 1590 74bd 0557 58be 95ba 5d3e
00000290: 1778 f6bc 1d2d 073d 5402 793e 20e3 fcbb
000002a0: 37dd a0bd 5fa3 6a3d d790 523e dc66 16bc
000002b0: 9f85 b93e 7c0f 88bc 289d da3d bc2b 8abe
000002c0: 7363 f83c cff7 0f3e f651 36be 24c0 433e
000002d0: c3a8 3bbd 83cf 3d3e db6d 0ebd e18d 153d
000002e0: ddcd 94bc ef51 3ebe 7943 dbbc fbed 8f3e
000002f0: 6240 e5be 2db9 173d ae71 543d 5562 3fbe
00000300: 0cea 6c3e 6150 9cbc 486b 393d 1f78 a53d
00000310: ff33 853e 6465 47bd cc31 233e 6c7f 183e
00000320: 7714 dc3d 2a5b 7c3d d0b1 7fbd 6a61 b63c
00000330: 4ec4 02bd ea97 823d 8ed8 6c3d 0815 503d
00000340: 7302 953e 371a 8fbc 4711 cc3d 7dae e7bd
00000350: 1e5a 933e 818a 993d 7434 37be 5cd7 50bd
00000360: f1d0 823d 33ab 1abc 39dd 34bf 7ce4 56be
00000370: 3678 be3d 1e5f 9bbc 9c37 f43d 83cd 613e
00000380: ea50 da3e 3554 d4bd a412 23bd 0000 1abe
00000390: 0ccb 8a3d a782 2c3d 4437 ccba 97c3 233c
000003a0: 42b1 8bbe 9780 03bc 5084 84be a14f 4ebb
000003b0: 8af5 c0be 29c2 39bd 8975 3c3d 804c 71bc
000003c0: 57c0 333d 86c6 b13d bdae f13d a2a3 3c3e
000003d0: d355 163e 606d 5fbb 2a1e 02be 706d 3c3c
000003e0: 20fb 103e cf58 ffbb d89f 1c3e 9f48 fbbe
000003f0: 220c 763e a221 583c 88bf 103e 40b7 cdbb

fc2.bias f4 [256]
-0.08830354 0.04541654 0.023347842 0.00015244097 0.4149958 -0.09907583 0.10538614 0.14885011
-0.031418532 0.027967699 -0.053774975 -0.13796978 -0.2026033 -0.37630314 -0.090749316 0.019676484
-0.26915506 -0.03139455 0.27508438 -0.050232045 0.12457555 -0.005824699 -0.06070551 -0.08678671
-0.007358511 -0.14440553 0.07906871 0.011686092 0.08400934 -0.16324784 -0.079781346 -0.08806539
-0.3197348 0.0060984828 -0.039848626 -0.3306244 -0.024400298 -0.00049659127 -0.17056188 -0.2958124
-0.022301175 0.19188195 0.06501099 -0.13711207 -0.089916594 -0.054153483 -0.010286726 -0.12842934
0.011726852 -0.029329848 0.18621397 -0.22428447 -0.018553859 -0.022166872 -0.024882443 -0.06924005
-0.058961067 -0.33651718 -0.11147175 0.009290391 0.013590818 0.105165936 0.032493986 0.0030807946
0.023679534 -0.014414183 0.029180296 0.052192435 -0.21223429 -0.06998994 -0.11349794 -0.1238449
-0.17348184 -0.011790727 -0.32327896 -0.03785571 -0.03628025 -0.084729575 -0.006564122 -0.026050603
-0.0793089 -0.20545818 -0.25734133 -0.032621488 0.08385397 -0.17795049 0.009082342 0.033917055
-0.43729356 -0.117379665 -0.059262447 0.005740685 0.119999714 -0.4306436 -0.036964647 0.02773047
-0.14503261 -0.20742959 -0.02404306 -0.01887875 -0.0039212927 -0.010407907 -0.13995938 0.15284497
0.06291027 -0.02059406 0.0668971 -0.07778591 -0.26814213 -0.051105894 -0.05155643 0.118075214
-0.1688713 0.039822727 -0.092144966 -0.0058388393 -0.050370343 -0.07895468 0.002791874 0.0019874221
-0.068787016 0.15272282 -0.062322624 -0.12249679 -0.037573934 -0.14149202 -0.053312916 -0.02075361
-0.1421858 -0.12883073 -0.19092293 -0.1105035 -0.06315687 -0.06970443 0.28197685 0.2908964
-0.023993945 0.04060005 -0.08583672 -0.051501807 -0.0464476 0.11398824 -0.028669117 -0.027643127
-0.023751473 0.03989595 -0.052040692 -0.034018617 -0.04561823 -0.165589 0.3710183 -0.28968614
-0.074645236 -0.040736776 0.0018854656 0.0050802324 -0.09513408 0.0062326947 -0.1470475 -0.0880355
-0.284735 -0.4692675 0.013936952 -0.05823067 -0.08293048 -0.066588745 -0.16355962 -0.039893232
0.055038966 0.13023858 -0.070151135 -0.06214188 0.033567466 -0.4211339 0.029652819 -0.3467516
0.00847764 -0.04843167 -0.027740583 0.005677496 -0.025454184 -0.2930906 -0.08974012 -0.16619532
-0.0011656452 -0.0021876008 0.007888494 0.023523476 0.05301671 -0.053927258 -0.07698178 -0.013049693
0.0355917 -0.010610885 0.111263596 -0.08340722 0.029536273 -0.25486377 0.08495392 -0.092386
0.0135192145 -0.45194867 -0.047496308 0.014254946 -0.01692043 -0.0029096429 -0.1253863 -0.032093138
-0.03646478 0.04197483 -0.46397057 -0.030452397 0.13527633 -0.057389986 0.023305262 -0.21048604
0.0073522604 0.013134788 -0.06746033 -0.0062088687 -0.4914431 -0.07486538 0.122714266 -0.15133132
-0.09542879 0.022645535 0.008889024 -0.19219603 0.12932196 0.008100488 0.024693241 0.119721204
0.1454019 0.032364354 -0.14291503 -0.107371815 0.03533458 -0.0069855223 -0.33903018 -0.061104164
-0.17443995 -0.012586427 0.060277417 -0.16841294 -0.16843465 -0.08437128 0.02197832 -0.08319519
0.001865349 -0.13866319 -0.07795039 -0.17580244 0.07000187 -0.08307653 -0.25509512 -0.2511013
00000000: 7dd8 b4bd b206 3a3d f943 bf3c 90d8 1f39
00000010: 547a d43e 45e8 cabd b0d4 d73d 2a6c 183e
00000020: b8b0 00bd 841c e53c 2643 5cbd f347 0dbe
00000030: 3d77 4fbe ceaa c0be c7da b9bd 9430 a13c
00000040: b1ce 89be 9297 00bd dcd7 8c3e 1ec0 4dbd
00000050: 7721 ff3d 1edd bebb 57a6 78bd 3bbd b1bd
00000060: aa1f f1bb 0bdf 13be c7ee a13d 0677 3f3c
00000070: 170d ac3d 712a 27be 6764 a3bd a15b b4bd
00000080: 48b4 a3be c8d5 c73b 5038 23bd 9a47 a9be
00000090: 22e3 c7bc ad2d 02ba c6a7 2ebe b974 97be
000000a0: f4b0 b6bc b47c 443e 7b24 853d 1b67 0cbe
000000b0: 3126 b8bd 0bd0 5dbd a889 28bc fb82 03be
000000c0: fb21 403c 2645 f0bc e0ae 3e3e d4aa 65be
000000d0: 43fe 97bc 4d97 b5bc 44d6 cbbc bacd 8dbd
000000e0: 2981 71bd fb4b acbe 4d4b e4bd b936 183c
000000f0: 06ac 5e3c 3d61 d73d 6a18 053d 28e7 493b
00000100: 95fb c13c 7729 6cbc 840b ef3c bcc7 553d
00000110: f253 59be e356 8fbd 9c71 e8bd 65a2 fdbd
00000120: 39a5 31be e52d 41bc d284 a5be 970e 1bbd
00000130: 999a 14bd b386 adbd d917 d7bb 1368 d5bc
00000140: b46c a2bd a163 52be 3ec2 83be 1c9e 05bd
00000150: a1bb ab3d a738 36be 1ace 143c 9cec 0a3d
00000160: f1e4 dfbe c064 f0bd 2ebd 72bd 5b1c bc3b
00000170: 69c2 f53d 517d dcbe 3e68 17bd 032b e33c
00000180: 6e83 14be 6c68 54be f4f5 c4bc 9ca7 9abc
00000190: 307e 80bb ed85 2abc 8351 0fbe 6483 1c3e
000001a0: 1ad7 803d e0b4 a8bc 5901 893d 384e 9fbd
000001b0: ed49 89be 6a54 51bd d62c 53bd 6bd1 f13d
000001c0: 99ec 2cbe 281d 233d 80b6 bcbd bc53 bfbb
000001d0: 2251 4ebd feb2 a1bd e0f7 363b 693f 023b
000001e0: 35e0 8cbd 5f63 1c3e 0246 7fbd 99df fabd
000001f0: 20e7 19bd 49e3 10be a55e 5abd 7a03 aabc
00000200: 2899 11be 34ec 03be 4d81 43be a94f e2bd
00000210: 6458 81bd 32c1 8ebd 455f 903e 5ff0 943e
00000220: f38e c4bc 3d4c 263d 2acb afbd 8ff3 52bd
00000230: d73f 3ebd ab72 e93d 7fdb eabc d773 e2bc
00000240: 7392 c2bc f069 233d 9f28 55bd 1b57 0bbd
00000250: 2eda 3abd 2a90 29be 1cf6 bd3e be51 94be
00000260: 9adf 98bd 9bdb 26bd ba21 f73a 1478 a63b
00000270: a8d5 c2bd a23b cc3b 9f93 16be f54b b4bd
00000280: c9c8 91be d443 f0be d057 643c 4883 6ebd
00000290: 75d7 a9bd ae5f 88bd 2c7c 27be 1667 23bd
000002a0: 8a70 613d 435d 053e 66ab 8fbd 7c88 7ebd
000002b0: 0a7e 093d dd9e d7be 78ea f23c 6d89 b1be
000002c0: cde5 0a3c 4960 46bd 3840 e3bc 4a0a ba3b
000002d0: 4b85 d0bc f90f 96be abc9 b7bd 1b2f 2abe
000002e0: 90c8 98ba da5d 0fbb be3e 013c 4eb4 c03c
000002f0: 0d28 593d d4e2 5cbd a0a8 9dbd 61ce 55bc
00000300: 9ac8 113d 47d9 2dbc 2bde e33d 68d1 aabd
00000310: 0ef6 f13c 817d 82be 52fc ad3d df34 bdbd
00000320: b27f 5d3c d165 e7be 7d8b 42bd 948d 693c
00000330: b79c 8abc b5af 3ebb 4465 00be 1874 03bd
00000340: 185c 15bd cded 2b3d 8d8d edbe 4e77 f9bc
00000350: e185 0a3e c311 6bbd adea be3c a789 57be
00000360: 3beb f03b 4b33 573c a428 8abd c473 cbbb
00000370: 6e9e fbbe 0553 99bd 9e51 fb3d 99f6 1abe
00000380: 2b70 c3bd 2183 b93c 45a3 113c 09cf 44be
00000390: fa6c 043e e9b7 043c 7b49 ca3c 6430 f53d
000003a0: 3ce4 143e 7c90 043d 5158 12be c1e5 dbbd
000003b0: feba 103d cfe6 e4bb 5d95 adbe 5c48 7abd
000003c0: 63a0 32be 4d37 4ebc 74e5 763d 7174 2cbe
000003d0: 227a 2cbe daca acbd e10b b43c 3d62 aabd
000003e0: ba7e f43a b9fd 0dbe 74a4 9fbd 8e05 34be
000003f0: 245d 8f3d 0724 aabd d49b 82be 5990 80be

fc3.weight f4 [3, 256]
-0.07154959 -0.033533715 0.003500021 -0.006178074 -0.2824108 -0.44424748 -0.38942772 -0.0899451
0.010073958 0.010914816 0.39947712 -0.06542051 0.09456203 -0.05432417 -0.0054287924 0.0024552671
-0.68770164 -0.014177676 -0.060342375 -0.93986833 -0.40311486 0.0033971702 -0.4624695 -0.0099457055
-0.008322077 0.9890891 -0.033190463 -0.29310054 -0.16440745 0.034822326 0.008448332 0.0033692736
-0.07733517 -0.12588072 0.00042023385 -0.3932333 0.0015481545 0.00096916704 -0.4153693 -0.2783908
0.010387559 -0.19857828 0.10885232 0.25603372 -0.5166708 -0.3911098 -0.006887376 0.008180725
-0.011150732 -0.008781337 -0.42507744 -0.5281158 0.0016584848 0.008434851 -0.14962345 0.0055925297
0.049482115 0.3469378 0.0062937746 -0.0058745705 -0.005268478 -0.32388368 -0.2130949 -0.0024836673
-0.500458 -0.007952115 -0.27881965 0.11511446 -0.20912848 0.037541777 0.335869 0.61957955
-0.11328903 -0.42526862 -0.3515628 -0.042748325 0.004820091 -0.25457454 -0.00018660177 -0.0009280682
0.003363333 0.5254063 0.0013739663 0.0007272136 0.62148196 0.12696888 0.55077755 -0.19570059
-0.020428605 -0.025425637 -0.002277998 0.101635784 0.5642062 0.61707973 0.006065614 0.3585627
-0.27370596 0.4008253 0.03028635 -0.44804013 -0.0060437648 -0.34237933 0.34218085 -0.15692729
0.13526903 -0.46946588 -0.10389129 -0.01396484 -0.11012368 0.00094275514 0.0007171816 -0.45539626
0.30031782 0.39994973 0.0016797716 0.0021256178 -0.019811712 0.0028489644 -0.0060613956 -0.013973855
0.0057266136 -0.21469216 -0.10131529 -0.48013276 -0.3529525 0.59623075 -0.024314674 -0.35611272
0.12192343 0.28413856 0.3420843 -0.008806987 0.003905517 -0.6580147 0.25007135 0.3800038
-0.07124387 0.029140648 -0.005567981 -0.06173472 0.009603544 -0.04995506 -0.07847282 -0.00013009121
-0.0004861585 -0.023120396 0.0026278195 -0.2573775 0.10297832 -0.30933574 0.06486245 -0.79188234
-0.0006291359 -0.41532153 0.005075925 -0.0075145857 -0.00462258 -0.0041124364 -0.18033268 0.084050074
-1.0129306 -0.13294305 0.006971956 -0.0065917904 0.5500635 -0.0007218121 0.35166055 0.0019685864
-0.45552245 0.052074473 0.00029004604 -0.0002879932 -0.39191812 0.18775447 0.14474894 0.090161465
-0.00066573865 -0.039939623 0.005681654 -0.42828125 0.33038875 -0.81585145 -0.28067252 -0.6474321
-0.0013263026 -0.008872077 -0.006337653 0.02749147 0.19651332 0.22417068 -0.26924115 -0.0046625757
0.002674926 -0.5477549 0.2585059 -0.0112691065 -0.084054336 0.1597148 -0.64970267 -0.0035766028
0.0036122825 -0.6788717 -0.027376581 -0.00087440095 -0.33290085 -0.24102844 -0.38974795 -0.28854665
0.6494956 0.022330074 0.40413824 -0.018726723 0.07352345 -0.0050436794 -0.0028587154 0.35406294
0.3462041 0.93284684 -0.0031339969 -0.018072344 -0.6411211 -0.004828099 -0.26767784 -0.07066806
-0.37604943 0.107602865 -0.0060287677 0.64500135 -0.36865425 -0.14466263 -0.427627 -0.27358687
-0.1554534 -0.020847559 0.6729036 -0.013185686 0.012532955 -0.17166267 0.4822857 -0.03587974
0.203693 -0.0128744375 0.15438507 0.28518626 -0.61357915 -0.0072782086 0.010632501 -0.26348332
-0.014645073 -0.30363044 0.0924532 0.101077214 0.19594148 0.0026198553 0.5910249 0.35666335
00000000: 9788 92bd a65a 09bd 9c60 653b 7171 cabb
00000010: 2698 90be 6874 e3be 1263 c7be 2335 b8bd
00000020: 3e0d 253c 0ed4 323c 4488 cc3e 30fb 85bd
00000030: bda9 c13d 0583 5ebd 03e4 b1bb 8ce8 203b
00000040: 370d 30bf 7c49 68bc 9129 77bd 369b 70bf
00000050: 1265 cebe 0fa3 5e3b cdc8 ecbe 50f3 22bc
00000060: 5259 08bc f134 7d3f b9f2 07bd 4611 96be
00000070: 6d5a 28be dba1 0e3d df6a 0a3c 08cf 5c3b
00000080: e761 9ebd e0e6 00be d552 dc39 e055 c9be
00000090: 72eb ca3a b30f 7e3a 49ab d4be 3d89 8ebe
000000a0: 9530 2a3c 1b58 4bbe f7ed de3d da16 833e
000000b0: 8a44 04bf 8b3f c8be 7faf e1bb 7308 063c
000000c0: 8fb1 36bc 99df 0fbc c0a3 d9be 9932 07bf
000000d0: 8461 d93a 5432 0a3c e436 19be 8a41 b73b
000000e0: c2ad 4a3d d5a1 b13e 023c ce3b 787f c0bb
000000f0: 32a3 acbb 15d4 a5be 8d35 5abe 06c5 22bb
00000100: 041e 00bf 9649 02bc 73c1 8ebe 21c1 eb3d
00000110: c725 56be 68c5 193d 06f7 ab3e c49c 1e3f
00000120: 1404 e8bd cfbc d9be 0a00 b4be de18 2fbd
00000130: dbf1 9d3b 9857 82be 88aa 43b9 9a49 73ba
00000140: 5d6b 5c3b 0781 063f a916 b43a 7ba2 3e3a
00000150: 7119 1f3f 2104 023e c2ff 0c3f bc65 48be
00000160: e459 a7bc 6d49 d0bc 774a 15bb 6c26 d03d
00000170: d16f 103f f0f8 1d3f 0fc2 c63b 8895 b73e
00000180: 3023 8cbe f938 cd3e 141b f83c 8465 e5be
00000190: c60a c6bb 584c afbe 5432 af3e 8cb1 20be
000001a0: f783 0a3e d55d f0be f5c4 d4bd c9cc 64bc
000001b0: 8688 e1bd 3a23 773a 3e01 3c3a b329 e9be
000001c0: 42c3 993e 36c6 cc3e c82b dc3a f34d 0b3b
000001d0: 2c4c a2bc b1b5 3a3b ac9e c6bb 99f2 64bc
000001e0: 51a6 bb3b 43d8 5bbe 647e cfbd f6d3 f5be
000001f0: 31b6 b4be 94a2 183f 912f c7bc 6854 b6be
00000200: feb2 f93d 9c7a 913e ac25 af3e 2e4b 10bc
00000210: b4f3 7f3b a773 28bf 5a09 803e dc8f c23e
00000220: 4ee8 91bd 5eb8 ee3c 9c73 b6bb 8cdd 7cbd
00000230: 2f58 1d3c ad9d 4cbd 5cb6 a0bd 1869 08b9
00000240: 17e3 feb9 fc66 bdbc 7f37 2c3b fcc6 83be
00000250: 4ce6 d23d 4161 9ebe 9bd6 843d cdb8 4abf
00000260: 98ec 24ba 06a5 d4be f253 a63b ea3c f6bb
00000270: 0379 97bb 9ec1 86bb 21a9 38be 7222 ac3d
00000280: b6a7 81bf 3922 08be 0275 e43b f2ff d7bb
00000290: f6d0 0c3f fd37 3dba da0c b43e 6603 013b
000002a0: 3d3a e9be 0b4c 553d 5211 9839 cbfd 96b9
000002b0: 7ea9 c8be b542 403e 1139 143e 93a6 b83d
000002c0: f784 2eba bb97 23bd 2b2d ba3b ae47 dbbe
000002d0: b728 a93e a4db 50bf 4fb4 8fbe 1cbe 25bf
000002e0: 55d7 adba 305c 11bc 16ac cfbb cb35 e13c
000002f0: ca3a 493e 008d 653e fad9 89be 85c8 98bb
00000300: d04d 2f3b aa39 0cbf e35a 843e 0fa2 38bc
00000310: ae24 acbd 478c 233e ea52 26bf 7065 6abb
00000320: 0bbc 6c3b 89ca 2dbf da44 e0bc 0e38 65ba
00000330: fb71 aabe 29d0 76be 0b8d c7be 63bc 93be
00000340: 5845 263f 8fed b63c 35eb ce3e c968 99bc
00000350: 7693 963d 7345 a5bb 4959 3bbb bd47 b53e
00000360: aa41 b13e 0dcf 6e3f be63 4dbb 740c 94bc
00000370: 8320 24bf 0835 9ebb 120d 89be 6aba 90bd
00000380: 8d89 c0be e45e dc3d f88c c5bb cf1e 253f
00000390: 40c0 bcbe 7122 14be edf1 dabe 9413 8cbe
000003a0: 2d2f 1fbe 80c8 aabc 6943 2c3f c708 58bc
000003b0: 0657 4d3c 57c8 2fbe 27ee f63e a2f6 12bd
000003c0: e694 503e 4eef 52bc 1f17 1e3e ef03 923e
000003d0: 8613 1dbf 0a7e eebb f133 2e3c 49e7 86be
000003e0: e3f1 6fbc 7375 9bbe 1a58 bd3d 9201 cf3d
000003f0: e2a4 483e e1b1 2b3b 684d 173f 949c b63e

fc3.bias f4 [3]
-0.30817187 0.099073 0.044361003
00000000: b4c8 9dbe c9e6 ca3d e2b3 353d
