runs/checkpoint_actor_256_192021_tau1_1020.pth (torch, 288535 bytes, 6 tensors)

fc1.weight f4 [256, 19]
-0.049285926 0.00735645 -0.057553634 -0.0505858 -0.022600263 -0.054991066 -0.013213977 -0.014685743
-0.05178406 -0.032791525 0.0057679936 0.023312852 -0.041848674 0.010691442 0.054735184 -0.014331482
0.018978678 0.012527905 -0.0022491813 -0.0017843969 -0.22222042 0.14128497 -0.24956682 -0.27078885
0.06967734 0.4180448 -0.03315565 -0.2473264 -0.32305542 -0.27088627 -0.25093383 -0.19436803
0.076532096 0.12666123 -0.45598713 -0.19202912 -0.45025367 -0.42379245 0.022314157 0.1391198
0.12400718 0.096916296 -0.16004321 -0.19647315 0.64265686 -1.0288192 -0.6784843 -0.3249431
-0.17387544 -0.16712585 -0.06560551 0.32695135 -0.12122539 0.33401978 -1.1503268 -0.884622
-0.36206058 -0.012692703 -0.20427464 -0.1911277 -0.24489088 -0.5114327 0.32000747 0.38773224
-1.5096589 -1.5928669 -1.5439495 -0.38989925 -0.36654758 -0.3574738 -0.12901318 -0.16042541
-0.36090305 0.2894536 0.13811827 0.3504657 -0.011026876 0.283811 -0.01734529 -0.10261838
0.3279595 -0.85258204 -0.26954192 -0.1299806 -0.017248234 -0.08533593 0.100508444 0.060596235
0.06707761 0.23371331 0.3730351 -0.19634733 -0.42966127 -0.08424091 -0.15741454 0.062246755
0.082302906 -0.10871573 -0.09312333 -0.045582466 -0.5339931 1.59679 0.9751098 0.9756583
1.1057833 -0.13858086 -0.14988688 -0.090290524 0.08480617 -0.25237113 -0.18088865 -0.48690867
-0.050833378 0.047267023 -0.08190655 -0.079666115 -0.04289011 0.015690872 0.020974534 -0.083248265
0.01626616 -0.027964259 -0.03101352 0.074129514 -0.05149412 -0.06806747 -0.0085614575 -0.03589802
-0.019705046 0.055645276 -0.023215085 -0.07562404 -0.0607779 0.0030077577 0.12014242 -0.11833845
-0.29427862 -0.8911504 -0.1007785 -1.0488712 -0.69368595 -0.85857177 -0.8133115 0.08125321
0.0514188 0.027528608 0.21485737 0.11249259 0.3643157 -0.7052612 -1.0593303 -0.5564532
0.012636932 0.07583396 -0.088737145 0.17979026 -0.07054267 -0.03897205 0.05073916 0.9289166
1.0266397 1.1034485 -0.1858439 -0.17753512 -0.1385289 -0.4525787 -0.32752928 0.19862859
-1.331449 -0.8105018 -0.44731975 0.022970563 -0.079594664 0.28887033 0.04200055 0.4469543
-0.050101615 0.59383655 -0.21252447 -0.23348169 -0.26079512 -0.15473159 -0.28628665 -0.22141194
0.6035404 -0.4966781 -0.14773479 -0.05453149 -0.4223431 -0.05861944 0.03964794 -0.1353512
-0.3973422 0.05727886 0.093153685 -0.70913476 -0.430416 1.5503651 1.417621 1.3400681
0.08593088 0.031022524 0.07102529 -0.028678859 -0.2563231 -0.35823783 -0.27394402 -0.047569133
-0.30039892 -0.065857776 0.016002273 -0.048531443 -0.016142199 0.040552065 0.028585566 -0.05726365
-0.02147239 -0.04341171 0.051406674 -0.020520136 0.012932652 -0.048037842 0.025908861 -0.0284523
0.009551669 -0.05466141 -0.022997767 -0.056339215 0.008240921 -0.020117639 0.09843789 0.08846987
-0.8462054 -0.109344274 -0.6813642 0.111938015 0.2313644 0.22497092 -0.034858763 -0.14042173
-0.068864666 0.34852317 -0.16964898 0.44078746 -0.28387302 -0.8489057 -0.093958795 0.0121345455
0.004426757 0.124326244 -0.31460842 -0.80175394 -0.47874555 0.9594886 0.067216925 0.010134236
00000000: 0ae0 49bd 600e f13b 5cbd 6bbd 0e33 4fbd
00000010: 3024 b9bc 503e 61bd 707f 58bc 789c 70bc
00000020: 861b 54bd 6850 06bd 7001 bd3b 98fa be3c
00000030: 8469 2bbd 282b 2f3c 0032 603d 98ce 6abc
00000040: 2c79 9b3c d841 4d3c 0067 13bb 6de2 e9ba
00000050: c08d 63be 02ad 103e 728e 7fbe d6a4 8abe
00000060: feb2 8e3d f809 d63e 38ce 07bd 2243 7dbe
00000070: 8567 a5be 9bb1 8abe 667a 80be 6a08 47be
00000080: dcbc 9c3d 7bb3 013e 2577 e9be 48a3 44be
00000090: a687 e6be 53fb d8be 2ecc b63c 6c75 0e3e
000000a0: 7af7 fd3d 0d7c c63d 5ee2 23be 4230 49be
000000b0: 2985 243f 59b0 83bf 26b1 2dbf f15e a6be
000000c0: 670c 32be 0a23 2bbe 2e5c 86bd 2b66 a73e
000000d0: 0445 f8bd a404 ab3e e93d 93bf 9676 62bf
000000e0: 0160 b9be 0ef5 4fbc 5f2d 51be fbb6 43be
000000f0: adc4 7abe 41ed 02bf 05d8 a33e d784 c63e
00000100: 813c c1bf 10e3 cbbf 23a0 c5bf e0a0 c7be
00000110: 20ac bbbe ce06 b7be 081c 04be 8f46 24be
00000120: 49c8 b8be 4333 943e e06e 0d3e 3d70 b33e
00000130: 12aa 34bc ad4f 913e b617 8ebc 9629 d2bd
00000140: 4fea a73e d142 5abf 6601 8abe a219 05be
00000150: 2b4c 8dbc 9bc4 aebd 5fd7 cd3d c233 783d
00000160: fc5f 893d 8b52 6f3e 75fe be3e 460f 49be
00000170: 90fc dbbe 8086 acbd 4731 21be 74f6 7e3d
00000180: 6d8e a83d 5aa6 debd 72b7 bebd aeb4 3abd
00000190: c6b3 08bf 9d63 cc3f cca0 793f bec4 793f
000001a0: 4f8a 8d3f 24e8 0dbe f27b 19be 3dea b8bd
000001b0: dbae ad3d ca36 81be e03a 39be 184c f9be
000001c0: a936 50bd 119b 413d 9fbe a7bd fd27 a3bd
000001d0: 8aad 2fbd 258a 803c c9d2 ab3c 117e aabd
000001e0: 9c40 853c 4d15 e5bc 1110 febc 37d1 973d
000001f0: 80eb 52bd f566 8bbd 5b45 0cbc cd09 13bd
00000200: 7a6c a1bc 4dec 633d 902d bebc c7e0 9abd
00000210: 3ff2 78bd cd1d 453b 3b0d f63d 6e5b f2bd
00000220: b0ab 96be 6f22 64bf f564 cebd 6941 86bf
00000230: 6795 31bf 5ccb 5bbf 2f35 50bf 1568 a63d
00000240: 859c 523d ad83 e13c 9203 5c3e 8462 e63d
00000250: 9687 ba3e ff8b 34bf 2398 87bf b873 0ebf
00000260: 220b 4f3c d64e 9b3d d2bb b5bd f01a 383e
00000270: ad78 90bd 28a1 1fbd ded3 4f3d 7acd 6d3f
00000280: ee68 833f cd3d 8d3f dd4d 3ebe c4cb 35be
00000290: 85da 0dbe 65b8 e7be ebb1 a7be 4b65 4b3e
000002a0: ec6c aabf 0c7d 4fbf 1807 e5be c32c bc3c
000002b0: 8702 a3bd d0e6 933e c508 2c3d 32d7 e43e
000002c0: 5a37 4dbd ac05 183f 04a0 59be d315 6fbe
000002d0: f086 85be f571 1ebe 2a94 92be d0b9 62be
000002e0: a081 1a3f 984c febe ca47 17be 695c 5fbd
000002f0: 5b3d d8be f01a 70bd e165 223d 8199 0abe
00000300: 7070 cbbe 3d9d 6a3d 5cc7 be3d db89 35bf
00000310: 7c5f dcbe 5d72 c63f 9b74 b53f 5a87 ab3f
00000320: 87fc af3d f322 fe3c b575 913d edef eabc
00000330: c83c 83be f36a b7be 6442 8cbe dad7 42bd
00000340: e3cd 99be 71e0 86bd 3317 833c e8c8 46bd
00000350: a53c 84bc ec19 263d 472c ea3c 4a8d 6abd
00000360: dee6 afbc 7ad0 31bd ce8f 523d d819 a8bc
00000370: 79e3 533c 54c3 44bd d23e d43c cc14 e9bc
00000380: 9a7e 1c3c a5e4 5fbd d065 bcbc f3c3 66bd
00000390: ee04 073c bfcd a4bc ce99 c93d b12f b53d
000003a0: eba0 58bf e4ef dfbd e26d 2ebf c23f e53d
000003b0: caea 6c3e c75e 663e 10c8 0ebd b7ca 0fbe
000003c0: eb08 8dbd a171 b23e 76b8 2dbe e5ae e13e
000003d0: ce57 91be e251 59bf 786d c0bd f9cf 463c
000003e0: 540e 913b c29e fe3d 5b14 a1be bf3f 4dbf
000003f0: 231e f5be 0ba1 753f 07a9 893d 110a 263c

fc1.bias f4 [256]
0.06889538 -0.37665167 0.16818446 -0.28942287 0.14676979 0.031025449 0.16247362 0.043385793
-0.27513093 -0.23341493 0.065030046 0.18653607 0.077227764 0.1316739 0.08087196 0.052715406
-0.3840735 0.3667741 -0.23387802 -0.088321604 0.18830855 -0.27899492 -0.14056812 -0.24339579
-0.1756771 -0.3178189 -0.12349912 -0.19918934 0.08935229 -0.16164611 -0.03621883 0.2739991
0.10951503 -0.07212926 0.213131 -0.0196475 -0.048672568 0.045470484 -0.18967581 -0.253874
-0.024513034 -0.06483451 -0.4238223 -0.01182874 0.027002396 0.17558058 0.058438756 -0.15683532
0.084679514 0.22114113 0.18292876 0.31043085 -0.21261448 -0.16737583 -0.15734284 0.07066028
0.43690732 -0.12748964 0.030146439 -0.17354454 -0.21733654 -0.13445121 -0.2134275 0.1895482
0.075073004 0.3726334 -0.07362001 -0.016714131 -0.18335007 -0.34675857 -0.051185753 0.02566971
0.07585979 -0.06877084 0.026461558 -0.010967242 -0.09994621 -0.32446763 0.106133446 -0.02202748
0.045931756 -0.07190154 -0.3354078 -0.049881637 0.22670817 -0.58685464 -0.021906653 -0.02261249
-0.31993327 0.116335474 0.0038617582 -0.29016668 -0.15035634 0.15218548 -0.11089346 -0.2108235
0.11024604 0.22242372 0.087194495 -0.16918455 -0.049109418 0.74207747 -0.4011644 -0.15444866
0.17772359 0.08365884 -0.038466003 0.28750977 -0.2966184 0.2594943 0.1537975 -0.2923468
-0.3551444 0.001496716 0.06000892 0.1890023 -0.31443754 -0.20114796 0.2486629 -0.19466516
0.020817643 -0.25639313 0.14150167 0.13253194 -0.19053933 -0.26128578 -0.15043287 0.30373904
-0.13926943 -0.21946707 -0.13672195 -0.19217166 -0.056226403 -0.07501173 -0.01879477 0.0064998507
-0.047286704 -0.38553146 -0.13987695 0.34151345 0.022030726 -0.22802368 -0.26397142 -0.30308744
0.08916832 -0.111775145 -0.14084393 -0.12229499 -0.2571602 -0.09180225 -0.08168062 0.1416262
-0.17261162 0.107292585 -0.15884857 -0.71937525 0.17415002 0.04283973 -0.22473702 -0.07961634
-0.24806051 -0.12175419 0.13521558 0.3113984 -0.28396988 -0.47703838 0.23183952 0.026463654
-0.09498957 -0.143765 -0.6481308 -0.26012594 0.25194266 0.1630869 -0.063791394 -0.33600977
0.07023795 0.12529089 0.006324575 0.10646707 -0.30772045 -0.029995468 0.18232238 -0.09300808
-0.021379221 -0.47998008 -0.07030915 -0.068737365 -0.1847551 -0.17306936 -0.22318281 0.015985375
-0.3403438 0.12096132 -0.2551281 -0.32535234 0.01810447 -0.16035217 -0.2791241 -0.49663457
0.025725007 -0.20192833 0.15394036 0.05786663 0.05236844 0.1588937 0.09765909 -0.06942285
-0.2658946 -0.24499144 0.124992974 -0.23190275 -0.16239758 -0.45796847 0.10555473 0.08612588
0.20817798 0.14916454 -0.06838478 -0.4216835 -0.150223 0.07372988 -0.21436478 -0.40846154
0.051012788 -0.047397017 -0.01942303 0.3044023 -0.0836222 -0.23909843 -0.030106716 -0.03422695
-0.17611466 -0.16928424 -0.18144614 -0.26291004 -0.14206825 0.17376575 0.04540451 0.008947946
-0.0048531387 0.15522933 -0.19143218 0.10532783 0.24604051 -0.00013953197 0.2540078 -0.30884346
0.21689808 0.17200057 -0.11786546 -0.20685157 0.055874232 -0.13525392 -0.20214058 -0.21535902
00000000: 0519 8d3d 7dd8 c0be 8c38 2c3e 3c2f 94be
00000010: d24a 163e 1529 fe3c 7c5f 263e 4db5 313d
00000020: f6dd 8cbe 5304 6fbe 792e 853d 5003 3f3e
00000030: 9729 9e3d 86d5 063e 33a0 a53d 1cec 573d
00000040: 48a5 c4be d1c9 bb3e b87d 6fbe f5e1 b4bd
00000050: f5d3 403e 6cd8 8ebe 17f1 0fbe bf3c 79be
00000060: b3e4 33be 29b9 a2be 1bed fcbd 4af8 4bbe
00000070: 55fe b63d 8f86 25be 325a 14bd 9c49 8c3e
00000080: 6b49 e03d 81b8 93bd 033f 5a3e cbf3 a0bc
00000090: e35c 47bd 423f 3a3d 603a 42be c6fb 81be
000000a0: 8fcf c8bc f5c7 84bd 3dff d8be 55cd 41bc
000000b0: 2134 dd3c 65cb 333e 7a5d 6f3d 7099 20be
000000c0: 746c ad3d d272 623e ad51 3b3e cbf0 9e3e
000000d0: 9cb7 59be 9264 2bbe 7b1e 21be 56b6 903d
000000e0: 51b2 df3e a58c 02be aaf5 f63c a9b5 31be
000000f0: 788d 5ebe 94ad 09be bd8c 5abe ec18 423e
00000100: e0bf 993d cec9 be3e 16c6 96bd 13ec 88bc
00000110: 1fc0 3bbe 578a b1be 27a8 51bd 4949 d23c
00000120: 615c 9b3d bad7 8cbd e9c5 d83c f2af 33bc
00000130: 99b0 ccbd 9f20 a6be 7e5c d93d f972 b4bc
00000140: f022 3c3d 1d41 93bd 92ba abbe b050 4cbd
00000150: 3026 683e 1b3c 16bf 9575 b3bc d43d b9bc
00000160: 4bce a3be 4b41 ee3d 8d15 7d3b ba90 94be
00000170: 03f7 19be 83d6 1b3e 1c1c e3bd 1ee2 57be
00000180: adc8 e13d 0bc3 633e 0793 b23d b73e 2dbe
00000190: f526 49bd caf8 3d3f 6c65 cdbe ca27 1ebe
000001a0: 2cfd 353e 5355 ab3d 878e 1dbd 7b34 933e
000001b0: 5ede 97be 70dc 843e 187d 1d3e 7bae 95be
000001c0: 7dd5 b5be 752d c43a eacb 753d d289 413e
000001d0: f5fd a0be bbf9 4dbe 7da1 7e3e 4e56 47be
000001e0: c389 aa3c f645 83be d0e5 103e 74b6 073e
000001f0: be1c 43be 40c7 85be 130b 1abe af83 9b3e
00000200: a59c 0ebe fabb 60be d700 0cbe a6c8 44be
00000210: a84d 66bd c09f 99bd 7df7 99bc b3fc d43b
00000220: b4af 41bd 6164 c5be e73b 0fbe dada ae3e
00000230: c879 b43c 0a7f 69be 4327 87be 472e 9bbe
00000240: e19d b63d 5eea e4bd 6439 10be cc75 fabd
00000250: 80aa 83be d102 bcbd 2b48 a7bd 7506 113e
00000260: 1ac1 30be 37bc db3d 33a9 22be fa28 38bf
00000270: 6254 323e b678 2f3d 7621 66be e40d a3bd
00000280: 9303 7ebe 435a f9bd f475 0a3e 9c6f 9f3e
00000290: 8064 91be 603e f4be 5767 6d3e 4eca d83c
000002a0: e489 c2bd 2237 13be e6eb 25bf 3a2f 85be
000002b0: a1fe 803e 4100 273e 10a5 82bd 7909 acbe
000002c0: ead8 8f3d 414c 003e 613e cf3b 680b da3d
000002d0: 898d 9dbe 0eb9 f5bc b8b2 3a3e 057b bebd
000002e0: 7a23 afbc f3bf f5be 3efe 8fbd 2dc6 8cbd
000002f0: 7130 3dbe 1839 31be 098a 64be c3f3 823c
00000300: 8b41 aebe 92ba f73d 26a0 82be 9594 a6be
00000310: d34f 943c 5c33 24be 5be9 8ebe e346 febe
00000320: 40bd d23c 4dc6 4ebe 8ba2 1d3e 8f05 6d3d
00000330: 4a80 563d 08b5 223e 7d01 c83d 912d 8ebd
00000340: 5623 88be 09df 7abe 51fc ff3d ea77 6dbe
00000350: 8d4b 26be d87a eabe 142d d83d c462 b03d
00000360: 9c2c 553e 97be 183e 520d 8cbd e6e6 d7be
00000370: 0fd4 19be b1ff 963d 7182 5bbe df21 d1be
00000380: c9f2 503d 6023 42bd 0c1d 9fbc 9eda 9b3e
00000390: 1e42 abbd 38d6 74be 5ca2 f6bc 8f31 0cbd
000003a0: 6757 34be d958 2dbe 04cd 39be 259c 86be
000003b0: 577a 11be a6ef 313e 14fa 393d 689a 123c
000003c0: 1407 9fbb 70f4 1e3e cc06 44be 1eb6 d73d
000003d0: 0bf2 7b3e 544f 12b9 4f0d 823e bb20 9ebe
000003e0: 881a 5e3e eb20 303e 7263 f1bd e6d0 53be
000003f0: 61dc 643d 0180 0abe f1fd 4ebe 1387 5cbe

fc2.weight f4 [256, 256]
0.052740052 0.29510874 0.22295563 -0.16105524 0.08749153 -0.01558486 -0.04779635 0.18110093
-0.29264525 -0.33945465 -0.56446886 -0.022292122 0.14304698 -0.8270518 0.15301414 -0.15530658
0.09566454 -0.77409 -0.034545787 0.12033426 -0.00015174883 0.18585144 0.028034844 0.058532715
-0.076414056 0.07472011 0.059395403 -0.420954 0.020844594 0.081389375 0.14263816 -0.1058756
0.032862835 0.018445203 0.06093791 0.008439314 -0.024333123 0.01753603 -0.052578654 -0.018570833
-0.02088218 -0.33628225 -0.76243854 0.0028895512 -0.15237941 0.23815332 -0.24189225 0.1169878
-0.0343835 0.042030398 -0.04341325 -0.5143698 0.07735716 -0.042686246 0.04529867 -0.20003323
-0.16602044 0.0082015395 -0.0024867654 0.36875233 0.045598228 0.043799575 0.015386164 -0.31888998
0.2884746 -0.81398934 0.4358366 -0.020202277 0.02418113 -0.21882999 0.12674366 0.048228126
-0.29879135 0.01881349 -0.26351905 -0.062784865 -0.69407874 0.31223062 -0.45041442 0.104167245
0.48359036 -0.00027242242 0.4955022 -0.076179884 -0.7666283 0.091005154 0.033640213 0.17530759
-0.24734934 0.032363568 0.047751002 -0.2081052 -0.0540566 -0.053205986 0.16938213 0.010286785
-0.05440677 -0.19242692 0.030549955 0.06014795 0.019951217 0.060704842 0.19461168 -0.03294821
-0.018394068 0.34429622 -0.3401669 -0.34878737 -0.08891874 -0.13075788 -0.066570885 -0.04750199
-0.50210786 -0.3729011 0.0021575126 0.041397966 -0.11620913 0.014212524 -0.30093497 0.16774492
-0.6255261 -0.053753357 0.013052054 0.31828076 -1.249287 -0.015131991 -0.13440652 0.09448209
-0.5037568 0.25607625 -0.1632147 0.48928607 0.009607747 -0.2351732 0.048084408 -0.38984695
-0.21919833 -0.022854822 -0.017445672 0.1590589 0.21143372 -0.1729939 0.01849185 0.12084526
0.047009 -0.11199511 0.06924769 -0.14236033 0.12155754 -0.037470587 0.1244203 -0.3103713
0.14505593 -0.47615924 -0.08329126 0.13922797 0.023247458 -0.038963903 -0.47180742 -0.013574406
-0.04672738 -0.05970772 -0.35885963 0.34519994 -0.03008656 -0.03725171 0.2308673 -0.007717505
-0.078546934 0.05728471 0.15577742 0.20300543 0.39281753 -0.016608946 0.074016824 -0.26986492
0.049060315 0.112328894 -0.23661326 0.1707098 -0.20703244 0.25972372 -0.019684631 0.03651226
-0.031111484 -0.18585943 -0.0041264254 0.2873825 -0.31836227 -0.023226466 0.16448534 -0.14302018
0.22790574 -0.09173705 0.089908555 -0.008501109 0.29401195 -0.10036477 0.18031484 0.14892358
0.10675785 0.06161038 -0.062425435 0.022263248 0.013154527 0.23699604 0.05782371 0.050801307
0.230467 -0.017468555 0.23726308 -0.17020586 0.24345322 0.1927892 -0.12122016 -0.050986633
0.07269599 0.04262221 -0.60313004 -0.22386809 0.09300272 -0.040402986 0.11924669 0.24648571
0.41679204 -0.10367624 -0.0398127 -0.23375916 0.06777009 0.042116787 -0.0015580435 0.009995363
-0.30126864 -0.008026264 -0.3057176 -0.118085876 -0.27669916 -0.04535118 0.046010528 -0.014727712
0.0438846 0.08413021 0.044728402 0.16204916 0.091452524 -0.0034092292 -0.23664308 -0.05894745
0.017490478 -0.007792569 0.3401724 -0.34337467 0.26013777 0.013191612 0.15375586 -0.0062779486
00000000: f405 583d 7e18 973e 7b4e 643e aaeb 24be
00000010: c22e b33d a457 7fbc 1bc6 43bd 8672 393e
00000020: 99d5 95be 00cd adbe 0881 10bf f89d b6bc
00000030: e87a 123e abb9 53bf bdaf 1c3e b008 1fbe
00000040: c5eb c33d c32a 46bf e27f 0dbd cf71 f63d
00000050: c41e 1fb9 d74f 3e3e 54a9 e53c 00c0 6f3d
00000060: f97e 9cbd db06 993d 9848 733d 4887 d7be
00000070: 48c2 aa3c 79af a63d bd0f 123e 4ed5 d8bd
00000080: 2e9b 063d 651a 973c 089a 793d 0c45 0a3c
00000090: 4256 c7bc b8a7 8f3c b75c 57bd dc21 98bc
000000a0: 1b11 abbc 302d acbe 2c2f 43bf a05e 3d3b
000000b0: 5909 1cbe 77de 733e 9ab2 77be 4d97 ef3d
000000c0: b7d5 0cbd 1128 2c3d 18d2 31bd bdad 03bf
000000d0: 6e6d 9e3d c6d7 2ebd 198b 393d 83d5 4cbe
000000e0: 4301 2abe c05f 063c 00f9 22bb 1bcd bc3e
000000f0: 35c5 3a3d 2f67 333d 4016 7c3c 8c45 a3be
00000100: f1b2 933e 9b61 50bf fa25 df3e 3f7f a5bc
00000110: 8117 c63c f814 60be 17c9 013e db8a 453d
00000120: 2efb 98be c01e 9a3c f8eb 86be 5a95 80bd
00000130: 25af 31bf b1dc 9f3e b89c e6be a355 d53d
00000140: 2899 f73e ebd3 8eb9 77b2 fd3e 3304 9cbd
00000150: c141 44bf e960 ba3d 52ca 093d d583 333e
00000160: 2549 7dbe a98f 043d 8e96 433d 8819 55be
00000170: 746a 5dbd 85ee 59bd 8272 2d3e e789 283c
00000180: a2d9 5ebd 900b 45be e643 fa3c b25d 763d
00000190: bc70 a33c a4a5 783d 4948 473e b4f4 06bd
000001a0: 28af 96bc 9847 b03e 5b2a aebe 4294 b2be
000001b0: 071b b6bd 65e5 05be 5156 88bd 7291 42bd
000001c0: 248a 00bf e5ec bebe 0e65 0d3b ea90 293d
000001d0: 0dff edbd a5db 683c 2614 9abe 53c5 2b3e
000001e0: 7a22 20bf 7b2c 5cbd 48d8 553c b2f5 a23e
000001f0: a3e8 9fbf 2cec 77bc dda1 09be d37f c13d
00000200: 35f6 00bf 6d1c 833e c121 27be b483 fa3e
00000210: d069 1d3c 3ed1 70be 28f4 443d 059a c7be
00000220: 8775 60be 093a bbbc 3aea 8ebc 56e0 223e
00000230: 1582 583e 5025 31be 387c 973c b87d f73d
00000240: 828c 403d b15d e5bd bcd1 8d3d e8c6 11be
00000250: 29f3 f83d c27a 19bd 12d0 fe3d fde8 9ebe
00000260: 8b89 143e 25cb f3be 9c94 aabd c791 0e3e
00000270: 7471 be3c 9d98 1fbd be90 f1be 2f67 5ebc
00000280: 3665 3fbd 1590 74bd 73bc b7be 0cbe b03e
00000290: 1778 f6bc 4095 18bd 7a68 6c3e 20e3 fcbb
000002a0: 37dd a0bd 5fa3 6a3d 1e84 1f3e a8e0 4f3e
000002b0: 611f c93e 7c0f 88bc 2296 973d bc2b 8abe
000002c0: 78f3 483d b10c e63d bf4a 72be 8dce 2e3e
000002d0: 5000 54be 82fa 843e aa41 a1bc e18d 153d
000002e0: 83dd febc ef51 3ebe f736 87bb cd23 933e
000002f0: 6100 a3be 6e45 bebc d86e 283e e273 12be
00000300: 1f60 693e a2e0 bbbd fa21 b83d 3c48 0bbc
00000310: bc88 963e 0b8c cdbd 74a4 383e 6c7f 183e
00000320: dca3 da3d 2a5b 7c3d d0b1 7fbd 6a61 b63c
00000330: 1686 573c 17af 723e 8ed8 6c3d 0815 503d
00000340: 8bff 6b3e 371a 8fbc 18f5 723e 724a 2ebe
00000350: cd4b 793e 886a 453e 4642 f8bd 5cd7 50bd
00000360: a3e1 943d a094 2e3d bb66 1abf ad3d 65be
00000370: 3678 be3d 9a7d 25bd 9c37 f43d c066 7c3e
00000380: c465 d53e 3554 d4bd a412 23bd 905e 6fbe
00000390: 0ccb 8a3d a782 2c3d 4437 ccba 97c3 233c
000003a0: e23f 9abe 9780 03bc 0487 9cbe 02d7 f1bd
000003b0: 83ab 8dbe 29c2 39bd 8975 3c3d 804c 71bc
000003c0: 57c0 333d 764c ac3d 2135 373d 37f0 253e
000003d0: 764b bb3d 606d 5fbb 9052 72be e272 71bd
000003e0: 3148 8f3c cf58 ffbb 142b ae3e cece afbe
000003f0: c730 853e a221 583c 2d72 1d3e 40b7 cdbb

fc2.bias f4 [256]
-0.0007555708 0.08967553 0.023347842 0.05871721 0.48479235 -0.07414064 0.12033682 0.143696
-0.031418532 0.027967699 -0.09979616 -0.20040943 -0.3161987 -0.4094049 -0.090749316 -0.010638556
-0.21895236 -0.032587927 0.3398585 0.040189546 0.13827448 -0.005824699 -0.04096178 -0.08678671
-0.007358511 -0.23408492 0.0009872643 0.020413846 0.053067997 -0.17159988 -0.079781346 -0.08806539
-0.34616444 -0.003428775 -0.039848626 -0.3886194 -0.02528165 -0.00049659127 -0.20602126 -0.3010779
-0.022301175 0.275345 0.07090424 -0.07133636 -0.0932315 -0.08629646 -0.010286726 -0.12842934
0.011726852 -0.029329848 0.2698863 -0.20203523 -0.018663233 -0.022166872 -0.033627193 -0.07150764
-0.05583033 -0.3509288 -0.11147175 0.009290391 0.013590818 0.22220367 -0.03871061 0.0030807946
-0.011014953 -0.014414183 -0.026964387 0.04164324 -0.262476 -0.14601396 -0.103529066 -0.16766813
-0.29352355 -0.09791413 -0.3205089 -0.03785571 -0.018815584 -0.06697491 -0.006564122 -0.026050603
-0.0793089 -0.2169195 -0.28505504 -0.032621488 0.06098531 -0.27739033 -0.006840558 0.069782384
-0.5280137 -0.117379665 -0.059262447 0.0007311645 -0.030818967 -0.5076604 -0.036964647 0.03659724
-0.20983858 -0.22179674 -0.02404306 0.025888808 -0.01194414 -0.06805291 -0.11926206 0.21207754
0.0074457 -0.15148549 0.13354711 -0.07778591 -0.40944016 -0.051105894 -0.05155643 0.12496748
-0.10575647 -0.018065132 -0.092144966 -0.0058388393 -0.059371226 -0.07895468 0.002791874 -0.0025299725
-0.068787016 0.17248398 -0.05564867 -0.1312483 -0.072774604 -0.12044799 -0.053312916 0.03453032
-0.18669371 -0.06268811 -0.27994606 -0.1105035 -0.06315687 -0.09674232 0.38372752 0.24261935
-0.086613946 0.055374626 -0.08583672 0.00026606343 -0.046509903 0.03525414 -0.059794754 -0.027643127
-0.023751473 0.03989595 -0.052040692 0.02910478 -0.040485837 -0.15588032 0.40520024 -0.3142861
-0.074645236 -0.040736776 -0.041091327 0.0050802324 -0.09513408 0.0062326947 -0.18162759 -0.09053503
-0.30658486 -0.5475278 0.013936952 -0.05823067 -0.0120234275 -0.066588745 -0.124989994 -0.028744081
0.070607804 0.10309158 -0.11562321 -0.06214188 -0.049908083 -0.44024554 0.028346974 -0.3155945
0.00847764 -0.06475134 -0.027740583 0.11120443 -0.03867734 -0.2626952 -0.19338042 -0.23239695
-0.008251076 -0.0021876008 0.007888494 0.023523476 0.038549952 -0.03270557 -0.09452333 -0.013049693
0.0355917 -0.026096517 0.14552025 -0.08340722 0.048911788 -0.3233884 0.025399128 -0.092386
0.0135192145 -0.4817075 -0.06998911 0.014254946 0.023690874 0.031420294 -0.19166255 0.00507392
-0.052196667 -0.0284809 -0.51735705 -0.030452397 0.20038894 -0.057389986 0.023305262 -0.22099832
0.04816891 0.006624247 -0.06746033 -0.0062088687 -0.5261602 -0.07486538 0.08380828 -0.15133132
-0.18721351 -0.04127956 0.008375994 -0.24983622 0.10694975 0.0372316 0.006035412 0.077546425
0.12802792 0.113401994 -0.11256503 -0.107371815 0.03533458 0.07019394 -0.35760003 -0.061104164
-0.17649756 -0.012586427 -0.0031713154 -0.23808348 -0.13588141 -0.08437128 0.02197832 -0.102119505
0.001865349 -0.13894096 -0.1182382 -0.08529599 0.09039825 -0.08307653 -0.3111076 -0.32053745
00000000: 8011 46ba cea7 b73d f943 bf3c 7581 703d
00000010: b436 f83e 0cd7 97bd 2773 f63d 0b25 133e
00000020: b8b0 00bd 841c e53c ee61 ccbd 2138 4dbe
00000030: cce4 a1be 859d d1be c7da b9bd 574d 2ebc
00000040: 0c35 60be eb7a 05bd ef01 ae3e cb9d 243d
00000050: d397 0d3e 1edd bebb 8ac7 27bd 3bbd b1bd
00000060: aa1f f1bb f5b3 6fbe 1867 813a f03a a73c
00000070: d45d 593d e1b7 2fbe 6764 a3bd a15b b4bd
00000080: 773c b1be 4cb5 60bb 5038 23bd 1ff9 c6be
00000090: 761b cfbc ad2d 02ba 3df7 52be e226 9abe
000000a0: f4b0 b6bc 05fa 8c3e 3e36 913d cc18 92bd
000000b0: 28f0 bebd 33bc b0bd a889 28bc fb82 03be
000000c0: fb21 403c 2645 f0bc 8a2e 8a3e 53e2 4ebe
000000d0: a3e3 98bc 4d97 b5bc abbc 09bd 9972 92bd
000000e0: 58ae 64bd f1ac b3be 4d4b e4bd b936 183c
000000f0: 06ac 5e3c 5c89 633e 048f 1ebd 28e7 493b
00000100: 1078 34bc 7729 6cbc 6be4 dcbc 1a92 2a3d
00000110: 4163 86be af84 15be 0c07 d4bd 32b1 2bbe
00000120: b848 96be 3487 c8bd be19 a4be 970e 1bbd
00000130: 2423 9abc 242a 89bd d917 d7bb 1368 d5bc
00000140: b46c a2bd 2520 5ebe bcf2 91be 1c9e 05bd
00000150: bbcb 793d 1b06 8ebe c226 e0bb 11ea 8e3d
00000160: e82b 07bf c064 f0bd 2ebd 72bd 9eab 3f3a
00000170: 0f78 fcbc 08f6 01bf 3e68 17bd fde6 153d
00000180: eddf 56be af1e 63be f4f5 c4bc c414 d43c
00000190: 5bb1 43bc 535f 8bbd ab3f f4bd db2a 593e
000001a0: 0ffb f33b 031f 1bbe 93c0 083e 384e 9fbd
000001b0: 24a2 d1be 6a54 51bd d62c 53bd f3ee ff3d
000001c0: d996 d8bd 54fd 93bc 80b6 bcbd bc53 bfbb
000001d0: 3e2f 73bd feb2 a1bd e0f7 363b e5cd 25bb
000001e0: 35e0 8cbd a49f 303e dcef 63bd f465 06be
000001f0: da0a 95bd 70ad f6bd a55e 5abd aa6f 0d3d
00000200: a32c 3fbe a062 80bd 1755 8fbe a94f e2bd
00000210: 6458 81bd d620 c6bd ef77 c43e 3571 783e
00000220: a762 b1bd 81d0 623d 2acb afbd 6e7e 8b39
00000230: 2b81 3ebd a566 103d 58eb 74bd d773 e2bc
00000240: 7392 c2bc f069 233d 9f28 55bd 266d ee3c
00000250: 7ad4 25bd 179f 1fbe 6876 cf3e 1cea a0be
00000260: 9adf 98bd 9bdb 26bd 614f 28bd 1478 a63b
00000270: a8d5 c2bd a23b cc3b 95fc 39be 6e6a b9bd
00000280: b1f8 9cbe c82a 0cbf d057 643c 4883 6ebd
00000290: e9fd 44bc ae5f 88bd c1fa ffbd b578 ebbc
000002a0: d39a 903d ae21 d33d ddcb ecbd 7c88 7ebd
000002b0: 6b6c 4cbd dd67 e1be ea37 e83c 9a95 a1be
000002c0: cde5 0a3c 5a9c 84bd 3840 e3bc 26bf e33d
000002d0: 216c 1ebd fc7f 86be 8405 46be 77f9 6dbe
000002e0: 852f 07bc da5d 0fbb be3e 013c 4eb4 c03c
000002f0: 8ee6 1d3d 47f6 05bd 7395 c1bd 61ce 55bc
00000300: 9ac8 113d 5dc8 d5bc 4303 153e 68d1 aabd
00000310: ba57 483d 2a93 a5be d511 d03c df34 bdbd
00000320: b27f 5d3c 5ea2 f6be 7356 8fbd 948d 693c
00000330: 5d13 c23c 91b2 003d 3043 44be 2043 a63b
00000340: 2ccc 55bd c750 e9bc 8371 04bf 4e77 f9bc
00000350: c232 4d3e c311 6bbd adea be3c 624d 62be
00000360: c34c 453d 3610 d93b a428 8abd c473 cbbb
00000370: 6fb2 06bf 0553 99bd ada3 ab3d 99f6 1abe
00000380: e6b4 3fbe c214 29bd 773b 093c 11d5 7fbe
00000390: 7808 db3d 2a80 183d b5c4 c53b a9d0 9e3d
000003a0: c019 033e 4e3f e83d 7f88 e6bd c1e5 dbbd
000003b0: feba 103d d7c1 8f3d 5a17 b7be 5c48 7abd
000003c0: c7bb 34be 4d37 4ebc d8d5 4fbb 28cc 73be
000003d0: 7f24 0bbe daca acbd e10b b43c 0824 d1bd
000003e0: ba7e f43a 8a46 0ebe df26 f2bd aaaf aebd
000003f0: b822 b93d 0724 aabd 7f49 9fbe 7c1d a4be

fc3.weight f4 [3, 256]
-0.16779554 -0.027398292 0.003500021 -0.061630305 -0.11603675 -0.63211733 -0.57986003 -0.1350459
0.010073958 0.010914816 0.35384655 -0.21729682 0.059200637 -0.057515014 -0.0054287924 0.081235275
-0.71153283 -0.014177676 -0.050126594 -0.78042585 -0.50504106 0.0033971702 -0.5506783 -0.0099457055
-0.008322077 1.2617804 0.23740147 -0.31001443 -0.15594171 0.17021951 0.008448332 0.0033692736
-0.064466685 -0.12588072 0.00042023385 -0.2675116 -0.005833956 0.00096916704 -0.3301755 -0.58909625
0.010387559 -0.08169787 0.16702388 0.39541695 -0.5071452 -0.435476 -0.006887376 0.008180725
-0.011150732 -0.008781337 -0.42538947 -0.5466243 -0.0044311984 0.008434851 -0.20338929 0.0055925297
0.24279697 0.25137296 0.0062937746 -0.0058745705 -0.005268478 -0.2682509 -0.45371154 -0.0024836673
-0.64442366 -0.007952115 -0.13781483 0.13642542 -0.21166727 0.18075612 0.13601951 0.60409635
-0.098072246 -0.48851767 -0.27389598 -0.042748325 0.037803292 -0.33916432 -0.00018660177 -0.0009280682
0.003363333 0.49115285 0.07363025 0.0007272136 0.5368849 0.19477962 0.5590705 -0.44609308
0.07983681 -0.025425637 -0.002277998 0.22417599 0.29575503 0.67647165 0.006065614 0.50496674
-0.23178847 0.4483688 0.03028635 -0.43095118 0.0034313707 0.03135951 0.352813 -0.113548025
0.19893998 -0.37146756 -0.13070725 -0.01396484 -0.1537553 0.00094275514 0.0007171816 -0.27401382
0.41666803 0.49023074 0.0016797716 0.0021256178 -0.0125330705 0.0028489644 -0.0060613956 -0.013973855
0.0057266136 -0.37743768 0.044617586 -0.34236917 -0.30450547 0.6169946 -0.024314674 -0.53403956
0.44602254 -0.026816737 0.33587408 -0.008806987 0.003905517 -0.6462337 0.21141659 0.4126018
-0.07526027 0.2220638 -0.005567981 -0.13449433 0.009603544 -0.021540495 -0.0109291 -0.00013009121
-0.0004861585 -0.023120396 0.0026278195 -0.23675704 -0.043576848 -0.23737852 0.05737026 -0.8415978
-0.0006291359 -0.41532153 0.16858034 -0.0075145857 -0.00462258 -0.0041124364 -0.1961828 0.116793014
-1.0337431 -0.0085588405 0.006971956 -0.0065917904 0.6228024 -0.0007218121 0.40026954 0.14950815
-0.56801677 0.09003664 0.141752 -0.0002879932 -0.63042295 0.13627592 0.07071598 -0.03639221
-0.00066573865 -0.023854485 0.005681654 -0.58439034 0.5110339 -1.0580618 -0.30851713 -0.61616975
-0.0013263026 -0.008872077 -0.006337653 0.02749147 0.21866189 0.56670845 -0.47167262 -0.0046625757
0.002674926 -0.4466919 0.20699915 -0.0112691065 -0.13687474 0.23670301 -0.73904437 -0.0035766028
0.0036122825 -0.73860836 -0.027945 -0.00087440095 -0.5116055 -0.23914503 -0.29653913 -0.38542882
0.75239265 -0.065935306 0.421476 -0.018726723 0.21248144 -0.0050436794 -0.0028587154 0.38860774
0.54646575 0.75228894 -0.0031339969 -0.018072344 -0.653366 -0.004828099 -0.33489957 -0.07066806
-0.3257015 -0.007698738 -0.0058194813 0.82420266 -0.348877 -0.06364556 -0.37624225 -0.34835818
-0.08997397 0.10185565 0.77186036 -0.013185686 0.012532955 -0.4064807 0.47339764 -0.03587974
0.109889865 -0.0128744375 0.28377306 0.22337283 -0.6712957 -0.0072782086 0.010632501 -0.4317248
-0.014645073 -0.54892635 0.019915966 0.07397681 0.25306422 0.0026198553 0.59669346 0.37841076
00000000: 98d2 2bbe 6272 e0bc 9c60 653b 0f70 7cbd
00000010: ada4 edbd 71d2 21bf b571 14bf 7949 0abe
00000020: 3e0d 253c 0ed4 323c 602b b53e 0f83 5ebe
00000030: 5e7c 723d dd94 6bbd 03e4 b1bb ae5e a63d
00000040: 0427 36bf 7c49 68bc 8b51 4dbd fdc9 47bf
00000050: 5f4a 01bf 0fa3 5e3b 41f9 0cbf 50f3 22bc
00000060: 5259 08bc 0582 a13f 5f19 733e 36ba 9ebe
00000070: 2faf 1fbe 064e 2e3e df6a 0a3c 08cf 5c3b
00000080: 1c07 84bd e0e6 00be d552 dc39 48f7 88be
00000090: c52a bfbb b30f 7e3a c30c a9be 03cf 16bf
000000a0: 9530 2a3c 3651 a7bd 4f08 2b3e 1774 ca3e
000000b0: 45d4 01bf b6f6 debe 7faf e1bb 7308 063c
000000c0: 8fb1 36bc 99df 0fbc a6cc d9be 92ef 0bbf
000000d0: 9633 91bb 5432 0a3c 4845 50be 8a41 b73b
000000e0: c59f 783e f5b3 803e 023c ce3b 787f c0bb
000000f0: 32a3 acbb 2f58 89be e14c e8be 06c5 22bb
00000100: f3f8 24bf 9649 02bc 551f 0dbe 1bb3 0b3e
00000110: 4ebf 58be 2218 393e b348 0b3e 0fa6 1a3f
00000120: 1ada c8bd fd1e fabe 183c 8cbe de18 2fbd
00000130: a0d7 1a3d f2a6 adbe 88aa 43b9 9a49 73ba
00000140: 5d6b 5c3b 6378 fb3e 75cb 963d 7ba2 3e3a
00000150: 4a71 093f 4f74 473e 3f1f 0f3f 5066 e4be
00000160: 7b81 a33d 6d49 d0bc 774a 15bb 648e 653e
00000170: 346d 973e 3f2d 2d3f 0fc2 c63b 8045 013f
00000180: f559 6dbe 9890 e53e 141b f83c a2a5 dcbe
00000190: d9e0 603b d472 003d e8a3 b43e de8b e8bd
000001a0: ecb6 4b3e ff30 bebe 1fd8 05be c9cc 64bc
000001b0: 0872 1dbe 3a23 773a 3e01 3c3a 8a4b 8cbe
000001c0: 8355 d53e 86ff fa3e c82b dc3a f34d 0b3b
000001d0: 8257 4dbc b1b5 3a3b ac9e c6bb 99f2 64bc
000001e0: 51a6 bb3b 833f c1be eec0 363d 034b afbe
000001f0: 24e8 9bbe 5cf3 1d3f 912f c7bc d1b6 08bf
00000200: 115d e43e c6ae dbbc b0f7 ab3e 2e4b 10bc
00000210: b4f3 7f3b 926f 25bf 977d 583e 8b40 d33e
00000220: 0e22 9abd b164 633e 9c73 b6bb e2b8 09be
00000230: 2f58 1d3c b175 b0bc f80f 33bc 1869 08b9
00000240: 17e3 feb9 fc66 bdbc 7f37 2c3b 7070 72be
00000250: a37d 32bd 5b13 73be 14fd 6a3d f472 57bf
00000260: 98ec 24ba 06a5 d4be 53a0 2c3e ea3c f6bb
00000270: 0379 97bb 9ec1 86bb 25e4 48be 2d31 ef3d
00000280: b251 84bf 613a 0cbc 0275 e43b f2ff d7bb
00000290: fa6f 1f3f fd37 3dba 21f0 cc3e aa18 193e
000002a0: 8c69 11bf 2165 b83d 7027 113e cbfd 96b9
000002b0: 6663 21bf ea8b 0b3e 8ad3 903d ff0f 15bd
000002c0: f784 2eba 7b6a c3bc 2b2d ba3b 9b9a 15bf
000002d0: 1ed3 023f 926e 87bf f5f5 9dbe 4dbd 1dbf
000002e0: 55d7 adba 305c 11bc 16ac cfbb cb35 e13c
000002f0: e7e8 5f3e ce13 113f 137f f1be 85c8 98bb
00000300: d04d 2f3b cdb4 e4be 96f7 533e 0fa2 38bc
00000310: e428 0cbe 4662 723e 0332 3dbf 7065 6abb
00000320: 0bbc 6c3b 7015 3dbf eaec e4bc 0e38 65ba
00000330: 94f8 02bf 6fe2 74be fad3 97be ed56 c5be
00000340: ce9c 403f 1709 87bd b4cb d73e c968 99bc
00000350: bc94 593e 7345 a5bb 4959 3bbb 98f7 c63e
00000360: 2ee5 0b3f 0296 403f be63 4dbb 740c 94bc
00000370: ff42 27bf 0835 9ebb f577 abbe 6aba 90bd
00000380: 59c2 a6be b245 fcbb 59b1 bebb f2fe 523f
00000390: 02a0 b2be 9a58 82bd d3a2 c0be 015c b2be
000003a0: 4644 b8bd b299 d03d a498 453f c708 58bc
000003b0: 0657 4d3c 3d1e d0be 2d61 f23e a2f6 12bd
000003c0: f00d e13d 4eef 52bc b44a 913e d9bb 643e
000003d0: 09da 2bbf 0a7e eebb f133 2e3c 080b ddbe
000003e0: e3f1 6fbc 7086 0cbf cf26 a33c 2781 973d
000003f0: a291 813e e1b1 2b3b e7c0 183f 0ebf c13e

fc3.bias f4 [3]
-0.1642015 0.20332895 0.028519219
00000000: 7024 28be 7735 503e 23a1 e93c
