runs/checkpoint_critic_2566_192021_tau1_2210.pth (torch, 356559 bytes, 7 tensors)

head.weight f4 [256, 22]
0.0007725721 -0.40423808 -0.18588169 -0.42118406 0.41985074 0.24124922 0.14252093 0.7236413
0.30757913 0.25736135 -0.25624213 -0.011489595 -0.07899329 -0.63054514 -0.74401987 0.328278
0.0011815006 0.56508064 -0.21253386 0.31199485 2.8071313 -3.4617562 0.010112472 -0.29937014
0.084159076 0.14918058 1.4754604 0.34237406 1.0374147 0.61870843 0.16927479 -0.031670634
-0.15602662 -0.20007642 -0.22106798 -0.39411902 -0.28202832 -0.6956904 1.1836073 -0.1999537
0.041269407 0.54523295 -1.6320399 -1.0714113 0.0022192497 -0.10287302 -0.3136811 -0.06008875
0.025670959 -0.058041986 1.0116471 -5.1448503 -5.1221 -5.0857153 0.37405002 0.3910642
0.14523032 -0.21079971 0.4495648 -0.24917552 0.3014258 -0.01617503 -0.73187226 -0.14784774
0.14343812 -0.2877791 -0.0107935965 -0.49634653 0.60152304 0.09040155 -0.5034118 0.08469408
-1.3670865 0.048229035 0.2332574 0.41429162 0.10269596 0.24243307 0.13517345 0.20504554
-0.1710391 -0.091154076 -0.024628282 -0.026533335 0.17119808 0.2740624 3.1070044 4.7796483
0.0001347302 0.0401311 -0.753545 0.29304117 0.096630745 0.16248326 -0.24026288 -0.25469851
-0.37011993 -0.7775049 -0.18856338 -0.2948692 -0.10589529 0.6694221 -0.47591996 -0.05382982
0.31334847 0.1149834 -1.5441072 0.09825455 1.1731999 0.5562744 -0.004844769 0.22509696
-0.6345532 -0.21402921 -1.0899532 0.27536076 -1.2980157 -3.7595613 -3.4136987 -2.6150265
0.008147705 -0.23109658 -0.20523249 -0.5603944 -0.368405 -0.3811237 0.39806286 -0.18431506
-0.15220888 -0.8156088 0.7707494 0.30663353 -0.002602675 -0.27178875 -0.4130277 0.07473056
0.04418343 -0.13450477 -0.008065808 -0.84021956 -1.0193497 -0.5254672 0.47434676 0.60329324
0.33693415 -0.16183014 0.39957997 -0.5468966 0.505984 0.5528017 -0.4543822 -0.6222973
-0.39471123 -0.05982544 0.006051989 -0.39370465 1.1070464 0.11990158 0.7113898 -0.34179324
0.6859267 -0.565998 -0.6722307 -0.50119287 -0.6102058 -0.49008864 -0.16579914 -0.009751514
0.10351114 0.034702525 0.23404664 0.2582633 -0.30319685 0.38831493 -3.0909517 -8.234548
-9.932747e-05 0.2813701 0.37558624 -0.21342416 0.33559623 0.0592687 0.106313765 -0.33280993
-0.47732946 -0.5898484 0.18391249 0.41602767 -0.19185528 -0.69858986 0.95500445 -0.4929897
-2.3909178 -1.514153 -2.2511919 0.12789676 0.14337793 2.302099 -0.014944213 0.45815647
-0.55066216 0.056337044 0.84570354 -0.050333746 1.4814254 -0.037298065 0.17257911 -0.30066234
-0.09819385 -0.37243587 -0.3968029 -0.016433973 0.110121444 -0.08618362 -0.18931614 0.033064656
0.2601714 -0.3964313 -0.36228722 -0.4453502 0.00151283 -0.22336082 0.36090982 -0.23266648
-0.08388588 0.0037301644 0.3702863 -0.3621651 -0.3514664 -1.1390941 0.4117558 0.5947979
0.66379493 0.024793409 0.5595816 0.15751934 -0.41236883 -0.19669236 -0.5306446 -0.22381394
-0.8729956 0.8458695 -0.004568374 -0.11461181 0.26676387 0.18677807 -0.1733978 -0.47364208
0.8133257 -0.89524627 -0.6527641 -0.57339424 0.02977093 -0.35314998 -0.14066824 -0.23651509
00000000: 7086 4a3a 4bf8 cebe c557 3ebe 70a5 d7be
00000010: adf6 d63e 090a 773e 02f1 113e 8e40 393f
00000020: 037b 9d3e dec4 833e 2b32 83be db3e 3cbc
00000030: 3cc7 a1bd 686b 21bf 1678 3ebf 0e14 a83e
00000040: 95dc 9a3a 20a9 103f 7aa2 59be cabd 9f3e
00000050: 0aa8 3340 6a8d 5dc0 c8ae 253c 0b47 99be
00000060: 985b ac3d cbc2 183e e3db bc3f a74b af3e
00000070: 01ca 843f ad63 1e3f 5f56 2d3e 11b9 01bd
00000080: 71c5 1fbe d5e0 4cbe a55f 62be f8c9 c9be
00000090: 0466 90be c418 32bf 7280 973f aac0 4cbe
000000a0: 1c0a 293d 6394 0b3f afe6 d0bf 0124 89bf
000000b0: d570 113b 17af d2bd cf9a a0be 9f1f 76bd
000000c0: e74b d23c 6fbd 6dbd a77d 813f 9da2 a4c0
000000d0: 3ee8 a3c0 2ebe a2c0 7c83 bf3e 9139 c83e
000000e0: 42b7 143e e1db 57be 5c2d e63e de27 7fbe
000000f0: 7c54 9a3e 7f81 84bc fb5b 3bbf 6665 17be
00000100: 71e1 123e c857 93be a0d7 30bc 2221 febe
00000110: 6afd 193f 7324 b93d 99df 00bf 1774 ad3d
00000120: b1fc aebf cf8b 453d 07db 6e3e 081e d43e
00000130: 4252 d23d 6040 783e e96a 0a3e 75f7 513e
00000140: e024 2fbe fdae babd 40c1 c9bc 705c d9bc
00000150: 8d4e 2f3e e851 8c3e 29d9 4640 e1f2 9840
00000160: 5d46 0d39 8260 243d 53e8 40bf 7e09 963e
00000170: 57e6 c53d 0362 263e 7907 76be d867 82be
00000180: 5c80 bdbe 900a 47bf c216 41be 19f9 96be
00000190: a1df d8bd 3f5f 2b3f c8ab f3be a87c 5cbd
000001a0: 366f a03e 6b7c eb3d 4ea5 c5bf ae39 c93d
000001b0: 6a2b 963f 0068 0e3f dec0 9ebb d17f 663e
000001c0: 1472 22bf 792a 5bbe 9683 8bbf 16fc 8c3e
000001d0: 6125 a6bf a79c 70c0 0a7a 5ac0 985c 27c0
000001e0: f47d 053c 95a4 6cbe 7728 52be 0276 0fbf
000001f0: 959f bcbe a522 c3be e5ce cb3e 16bd 3cbe
00000200: a5dc 1bbe bdcb 50bf d54f 453f 12ff 9c3e
00000210: a491 2abb e527 8bbe 5e78 d3be 560c 993d
00000220: aff9 343d 9ebb 09be 7326 04bc a118 57bf
00000230: 0d7a 82bf 0585 06bf 94dd f23e 6d71 1a3f
00000240: a282 ac3e cdb6 25be bf95 cc3e 6a01 0cbf
00000250: 2b88 013f 6a84 0d3f c9a4 e8be e04e 1fbf
00000260: 9717 cabe 850b 75bd c34f c63b a893 c9be
00000270: b2b3 8d3f f68e f53d a41d 363f 86ff aebe
00000280: e498 2f3f 3fe5 10bf 5017 2cbf 2d4e 00bf
00000290: 7336 1cbf e6ec fabe 40c7 29be d0c4 1fbc
000002a0: a6fd d33d 3c24 0e3d eca9 6f3e 163b 843e
000002b0: 9e3c 9bbe 37d1 c63e 27d2 45c0 b5c0 03c1
000002c0: 084e d0b8 be0f 903e d74c c03e dd8b 5abe
000002d0: 45d3 ab3e bdc3 723d 08bb d93d 1066 aabe
000002e0: 8764 f4be 4e00 17bf 8e53 3c3e 9401 d53e
000002f0: b675 44be c9d6 32bf 2c7b 743f 2569 fcbe
00000300: cc04 19c0 c4cf c1bf 8713 10c0 5ef7 023e
00000310: aad1 123e 9755 1340 93d8 74bc 7c93 ea3e
00000320: 32f8 0cbf acc1 663d 0780 583f c22a 4ebd
00000330: 599f bd3f dbc5 18bd 94b8 303e 6af0 99be
00000340: db19 c9bd eaaf bebe c029 cbbe 8aa0 86bc
00000350: 5a87 e13d 0a81 b0bd 17dc 41be ce6e 073d
00000360: 3035 853e 0bf9 cabe b67d b9be f104 e4be
00000370: 274a c63a b3b8 64be 2cc9 b83e 1f40 6ebe
00000380: 5ccc abbd c675 743b 2a96 bd3e b46d b9be
00000390: 67f3 b3be d6cd 91bf a8d1 d23e ad44 183f
000003a0: 77ee 293f 8c1b cb3c bd40 0f3f c04c 213e
000003b0: 0222 d3be b969 49be 53d8 07bf 7b2f 65be
000003c0: a47c 5fbf e78a 583f 4cb2 95bb 99b9 eabd
000003d0: 4695 883e c042 3f3e 318f 31be 3781 f2be
000003e0: 1d36 503f dc2e 65bf 8c1b 27bf f7c9 12bf
000003f0: 2ae2 f33c 13d0 b4be 560b 10be 0331 72be

head.bias f4 [256]
0.087980025 -0.27465746 0.7877334 -0.14622338 -0.1581074 0.07037136 0.471416 -0.7027188
-0.039989755 -0.73339 0.98568445 -0.75169957 0.5292499 0.37044734 -1.1500192 -0.7866139
0.31530342 -0.071492806 0.21779309 -0.44509748 1.0664116 0.35035473 0.036282685 0.05710299
-0.31461686 -1.2526051 0.14829504 -0.42588353 -0.2704987 0.52523 -0.45725822 -0.92339975
-0.6509977 -0.18384983 -0.1972622 0.23333327 -0.70011926 -0.45187357 1.0401359 0.7752589
-0.2632741 0.4552451 0.068573214 -0.8892745 -0.28312913 -1.0956172 -0.053973805 1.0965556
-0.72905284 0.64035934 0.5803258 -0.43936896 -0.08364615 0.079906166 -0.30427146 -0.58811074
-0.87793547 -0.18772396 -0.5453507 -0.023499113 0.10123324 -0.060862545 0.0543371 -0.52334976
0.13749596 -0.18312173 -0.20874174 0.18365379 0.54632384 0.0111548975 -0.096116334 -0.13409103
-0.8543316 -0.11339328 0.4453879 -0.5052938 0.14857522 0.6989639 -0.78988576 0.19595926
0.17366315 0.15421326 -0.13019255 -0.8363285 -0.9178549 0.24428524 -0.29731923 0.092404835
-0.6118898 -0.6671204 -0.28475648 -0.9704704 0.33431837 1.037381 0.19252032 -0.31039894
0.81557524 -0.70133114 0.9761468 0.15626428 0.35141262 -0.19967909 0.5540435 -0.24702
0.8205011 -0.057657145 -0.99787605 -0.22939648 0.10147975 -0.27080247 -0.05190909 -0.37759987
-0.7293997 1.2727062 -0.12909022 -0.29997167 0.09337737 -0.50698644 0.47096285 0.035698477
-0.9554769 -0.10130509 -0.0558829 -0.31529096 -0.2104186 -0.6460854 0.13815297 1.0461248
-1.055412 -0.5166697 -0.16699347 0.58679265 0.21668486 0.098150685 -1.0293761 0.17776239
-0.37431756 -0.17631462 -0.0751893 0.08351797 0.8715851 -0.12319096 0.17488986 -1.0097296
1.5787294 0.6255085 -0.107672796 0.16808097 0.6647956 -0.13092422 0.1456129 0.54391146
-0.32862988 1.2382323 -0.6157275 0.4547921 -1.209797 -0.01646127 -0.6522487 0.08350875
-0.84663594 -0.75633377 -0.8559746 -0.52120274 0.31714758 0.6080318 0.82546484 0.7679291
-0.5240967 -1.0743552 -0.7017426 -0.055433217 -0.5930156 -0.7064411 0.60102135 -0.30552822
0.033852845 0.058839597 -1.3942524 0.61398035 1.0355017 -0.7194341 -0.276979 -0.45942584
-0.09726273 0.5463045 -0.028667375 -0.5924168 -0.64056605 0.29445818 -0.31474775 -0.72027755
-0.12838842 0.38493088 0.5096261 -0.93789434 -0.79006577 -0.58105606 -0.093580835 -0.53467035
-0.0008781871 -0.4305154 -0.4045285 -0.8182501 0.16032867 0.6605735 0.13122705 -0.20164298
-0.01014836 -0.64861935 1.3709117 0.37992883 0.86220074 0.14332592 -0.22977725 -0.37455103
-0.2216261 0.25301906 -0.77057326 -0.40135399 0.12809467 -0.4650638 1.054464 0.013795943
-0.16769688 1.4261873 0.3513233 -0.5620531 1.0452623 -0.5919758 0.9619862 -0.5224813
-0.49325943 0.036480714 -0.7854906 0.010222288 -0.2806271 -0.11472591 -0.8578518 -0.43359724
0.49181214 -0.002940433 0.75880826 0.20289834 -0.34379518 1.0206525 0.059864767 -0.28623503
-0.71207446 -0.010686568 0.49995482 0.11527537 -0.3306974 -0.5037457 -0.3698101 -0.20722596
00000000: df2e b43d e79f 8cbe e5a8 493f 95bb 15be
00000010: e8e6 21be dc1e 903d 705d f13e 61e5 33bf
00000020: 4ccc 23bd 72bf 3bbf d155 7c3f 626f 40bf
00000030: ec7c 073f 46ab bd3e d433 93bf 875f 49bf
00000040: 736f a13e d26a 92bd 2705 5f3e d1e3 e3be
00000050: 2d80 883f b261 b33e 279d 143d d3e4 693d
00000060: 7615 a1be 5d55 a0bf a8da 173e 680d dabe
00000070: ce7e 8abe 7975 063f c01d eabe ed63 6cbf
00000080: c9a7 26bf 2143 3cbe 1aff 49be ebee 6e3e
00000090: 043b 33bf f95b e7be 2c23 853f 5e77 463f
000000a0: ddcb 86be e315 e93e 1d70 8c3d 7ea7 63bf
000000b0: 4df6 90be 2f3d 8cbf a313 5dbd ef5b 8c3f
000000c0: 35a3 3abf 97ee 233f 3b90 143f f8f4 e0be
000000d0: ac4e abbd d8a5 a33d 78c9 9bbe 6d8e 16bf
000000e0: 61c0 60bf b63a 40be 1a9c 0bbf 3681 c0bc
000000f0: 5f53 cf3d 014b 79bd 9490 5e3d 40fa 05bf
00000100: becb 0c3e 4384 3bbe 65c0 55be bd0f 3c3e
00000110: e1db 0b3f 08c3 363c a4d8 c4bd 294f 09be
00000120: 7ab5 5abf bc3a e8bd e209 e43e ef5a 01bf
00000130: 1a24 183e 4cef 323f f435 4abf 8ba9 483e
00000140: c1d4 313e 15ea 1d3e 3251 05be a019 56bf
00000150: 8af8 6abf e925 7a3e 3a3a 98be bf3e bd3d
00000160: cfa4 1cbf 67c8 2abf 9acb 91be c070 78bf
00000170: c72b ab3e e7c8 843f 0c24 453e 9cec 9ebe
00000180: 8ac9 503f 708a 33bf c2e4 793f be03 203e
00000190: 5bec b33e ad78 4cbe cbd5 0d3f d0f2 7cbe
000001a0: 5c0c 523f e629 6cbd ce74 7fbf e9e6 6abe
000001b0: 9dd4 cf3d 9fa6 8abe a09e 54bd c554 c1be
000001c0: f0b9 3abf 09e8 a23f 3a30 04be e395 99be
000001d0: a23c bf3d ddc9 01bf 0b22 f13e 9138 123d
000001e0: 229a 74bf 0b79 cfbd 78e5 64bd d16d a1be
000001f0: f977 57be da65 25bf f977 0d3e 6be7 853f
00000200: be17 87bf 7744 04bf 5600 2bbe 0b38 163f
00000210: a3e2 5d3e 3a03 c93d 99c2 83bf 5807 363e
00000220: 8da6 bfbe d28b 34be d9fc 99bd 780b ab3d
00000230: 3320 5f3f 8b4b fcbd 5416 333e d23e 81bf
00000240: ce13 ca3f 5321 203f 8e83 dcbd 6b1d 2c3e
00000250: 0b30 2a3f 0011 06be 8c1b 153e c83d 0b3f
00000260: 2d42 a8be 657e 9e3f 51a0 1dbf 83da e83e
00000270: a1da 9abf c9d9 86bc c5f9 26bf a306 ab3d
00000280: 22bd 58bf 179f 41bf 2721 5bbf 8b6d 05bf
00000290: 2b61 a23e f9a7 1b3f aa51 533f 0097 443f
000002a0: 342b 06bf 7984 89bf 67a5 33bf f10d 63bd
000002b0: dfcf 17bf 53d9 34bf 89dc 193f 326e 9cbe
000002c0: 48a9 0a3d ca01 713d dd76 b2bf d12d 1d3f
000002d0: 528b 843f d52c 38bf 31d0 8dbe dd39 ebbe
000002e0: af31 c7bd 9dda 0b3f d8d7 eabc a1a8 17bf
000002f0: 23fc 23bf 39c3 963e 9e26 a1be 1c64 38bf
00000300: 4178 03be a915 c53e db76 023f d819 70bf
00000310: c041 4abf 17c0 14bf 4fa7 bfbd 28e0 08bf
00000320: 2336 66ba 846c dcbe 5c1e cfbe d778 51bf
00000330: 332d 243e 581b 293f 6260 063e 7f7b 4ebe
00000340: 4f45 26bc eb0b 26bf 097a af3f 0886 c23e
00000350: 30b9 5c3f 08c4 123e ba4a 6bbe 27c5 bfbe
00000360: f4f1 62be b78b 813e 4a44 45bf 457e cdbe
00000370: 402b 033e d81c eebe adf8 863f 6108 623c
00000380: bbb8 2bbe 4e8d b63f a6e0 b33e b6e2 0fbf
00000390: 28cb 853f ba8b 17bf ba44 763f 56c1 05bf
000003a0: 808c fcbe cd6c 153d e915 49bf 627b 273c
000003b0: 5bae 8fbe 6bf5 eabd 2d9c 5bbf 7500 debe
000003c0: cdce fb3e 48b4 40bb 4241 423f 95c4 4f3e
000003d0: ec05 b0be bea4 823f c234 753d 668d 92be
000003e0: 834a 36bf b716 2fbc 14fa ff3e 7e15 ec3d
000003f0: 2b51 a9be 7af5 00bf c057 bdbe 0b33 54be

cos_embedding.weight f4 [256, 64]
-0.27985707 -0.08107537 -0.13234892 -0.036021452 -0.08041426 0.018666705 -0.00046055677 0.062171713
0.026771523 0.06654899 0.04895515 0.047339384 0.026849864 0.031835712 -0.001312997 0.034977444
0.0062999018 0.017712967 -0.012862746 -0.0021746836 -0.013330673 -0.008887425 -0.0040401183 0.0061404253
-0.014825586 -0.0089539895 0.0021314274 -0.018397162 -0.004558287 -0.019453624 -0.00592309 -0.019225556
-0.018396605 -0.018095478 -0.0044567753 -0.03401525 -0.0051189507 -0.033979304 0.0030505569 -0.03316486
-0.0052222842 -0.018818157 0.0034341393 -0.022643466 0.006362782 -0.03094319 0.0008971897 -0.022138612
0.010758848 -0.014524361 0.03097315 -0.015193109 0.01892994 -0.011173948 0.013957339 -0.000577003
0.028286673 -0.02150932 0.015664415 -0.014497332 0.009166107 -0.014841476 0.008454784 -0.013200144
0.17309837 0.39762834 0.1473439 0.41039222 0.11853719 0.26197833 0.16558814 0.2629866
0.041815937 0.2586142 0.09843044 0.22341758 0.037937216 0.14141504 -0.05099175 0.19742031
0.01556764 0.080968946 -0.021130439 0.037539784 -0.049007308 0.03847437 -0.005341693 -0.029630998
-0.051390104 0.019400792 -0.051943865 0.027999043 -0.031853944 -0.04679023 0.0039357394 -0.02053805
-0.010251859 -0.015231483 -0.046394143 0.011718312 0.010346073 -0.03240388 -0.05623153 -0.03796242
0.005833211 -0.005335187 -0.016955508 -0.059173007 -0.010113755 -0.033039514 0.0075369007 -0.030228872
-0.010581837 0.00011603588 0.031531088 -0.036379218 0.0075737434 0.0009920384 0.040405374 0.028685912
0.0095585175 0.0037346047 -0.0056846836 0.019894436 -0.033991393 0.015314889 -0.041786965 0.04025348
-0.45056972 -0.50893784 -0.317922 -0.4717197 -0.31325036 -0.47549975 -0.31230256 -0.46356782
-0.29483253 -0.46456793 -0.29077443 -0.439549 -0.25428525 -0.38628396 -0.20459685 -0.34398496
-0.1687965 -0.29108995 -0.11871327 -0.237403 -0.08884982 -0.17250963 -0.04851965 -0.13645484
-0.019961081 -0.09892198 0.004108856 -0.051342677 0.04077043 -0.029326977 0.06051736 0.0110594155
0.07805382 0.03613618 0.088289544 0.05792158 0.108110406 0.068584 0.09598639 0.08091249
0.09546915 0.08786188 0.09090811 0.088311456 0.09833084 0.08491675 0.07610844 0.0759682
0.07669094 0.068862006 0.071452245 0.073900916 0.061805073 0.06692894 0.04397109 0.050209828
0.04832115 0.04280773 0.031047547 0.042023234 0.018883772 0.026668375 0.009262107 0.013690437
0.2091649 -0.25072443 0.17745833 -0.26061785 0.17636222 -0.22479725 0.18102203 -0.19010141
0.17574804 -0.17177129 0.17606586 -0.15377314 0.15965967 -0.13502929 0.13495086 -0.12772648
0.1149225 -0.11036973 0.1022158 -0.08883559 0.07229239 -0.081477664 0.050781474 -0.059307784
0.036977846 -0.03809864 0.032024663 -0.0178303 0.01959719 -0.0051654824 0.010244448 0.011792492
-0.0019287773 0.030958122 -0.0058412915 0.02979253 -0.008809514 0.04620857 -0.0207696 0.030301206
-0.030049514 0.046447687 -0.0219634 0.039840974 -0.028630042 0.0333171 -0.029447967 0.045677315
-0.032266308 0.032049272 -0.02722007 0.029203625 -0.028194893 0.027290657 -0.018949518 0.027802363
-0.016945926 0.020512337 -0.017430892 0.016783478 -0.010835991 0.015110677 -0.008781019 0.011267568
00000000: 6d49 8fbe d80a a6bd 7a86 07be 3b8b 13bd
00000010: 3bb0 a4bd ebea 983c e276 f1b9 c4a7 7e3d
00000020: f44f db3c d64a 883d 3285 483d f1e6 413d
00000030: 3ff4 db3c 2a66 023d de18 acba 8244 0f3d
00000040: 686f ce3b c91a 913c 44be 52bc 2385 0ebb
00000050: e568 5abc 909c 11bc f862 84bb 9f35 c93b
00000060: 04e7 72bc c1b3 12bc 6baf 0b3b a5b5 96bc
00000070: af5d 95bb 355d 9fbc 7b16 c2bb ea7e 9dbc
00000080: 7ab4 96bc f83c 94bc 240a 92bb 9353 0bbd
00000090: dfbc a7bb e22d 0bbd daeb 473b e0d7 07bd
000000a0: b21f abbb 8928 9abc 4c0f 613b ca7e b9bc
000000b0: e27e d03b 937c fdbc 6231 6b3a 095c b5bc
000000c0: e145 303c 96f7 6dbc 67bb fd3c 85ec 78bc
000000d0: f612 9b3c ef12 37bc 53ad 643c 0442 17ba
000000e0: 74b9 e73c 5034 b0bc a952 803c 3886 6dbc
000000f0: 702d 163c aa29 73bc ef85 0a3c 6b45 58bc
00000100: b340 313e f195 cb3e 52e1 163e ee1e d23e
00000110: a0c3 f23d 0622 863e f08f 293e 2ea6 863e
00000120: 3047 2b3d 1569 843e e695 c93d 94c7 643e
00000130: 0e64 1b3d 1bcf 103e badc 50bd 8d28 4a3e
00000140: 6a0f 7f3c 0cd3 a53d be19 adbc 51c3 193d
00000150: e3bb 48bd 4d97 1d3d 5e09 afbb b5bc f2bc
00000160: 6e7e 52bd 69ee 9e3c 17c3 54bd 405e e53c
00000170: 4879 02bd 1da7 3fbd 60f7 803b 6a3f a8bc
00000180: 6af7 27bc 788d 79bc c907 3ebd 2afe 3f3c
00000190: 9382 293c eeb9 04bd 0853 66bd 7c7e 1bbd
000001a0: 8524 bf3b cbd2 aebb 47e6 8abc 655f 72bd
000001b0: 2ab4 25bc 7154 07bd 1bf8 f63b 8aa2 f7bc
000001c0: 715f 2dbc 4a58 f338 be26 013d 6002 15bd
000001d0: 2a2d f83b 4907 823a 1b80 253d b8fe ea3c
000001e0: 549b 1c3c 45c0 743b 9546 babb a8f9 a23c
000001f0: 8f3a 0bbd 4deb 7a3c cf28 2bbd d5e0 243d
00000200: 13b1 e6be c049 02bf acc6 a2be 3f85 f1be
00000210: 5a62 a0be b474 f3be 1fe6 9fbe c358 edbe
00000220: 4af4 96be d9db edbe 63e0 94be 910c e1be
00000230: ad31 82be 03c7 c5be d681 51be cc1e b0be
00000240: fdd8 2cbe be09 95be f11f f3bd c619 73be
00000250: e5f6 b5bd 5da6 30be 8abc 46bd d1ba 0bbe
00000260: 6c85 a3bc 9b97 cabd 95a3 863b b34c 52bd
00000270: e5fe 263d 213f f0bc 0de1 773d 8d32 353c
00000280: aeda 9f3d 8803 143d 26d1 b43d 2e3f 6d3d
00000290: fd68 dd3d c575 8c3d 8394 c43d 73b5 a53d
000002a0: 5485 c33d eef0 b33d 082e ba3d a3dc b43d
000002b0: ae61 c93d d5e8 ad3d bede 9b3d 3795 9b3d
000002c0: 2410 9d3d 8607 8d3d 8e55 923d 5d59 973d
000002d0: 5127 7d3d 0a12 893d 081b 343d d2a8 4d3d
000002e0: 66ec 453d 2957 2f3d 6d57 fe3c 8e20 2c3d
000002f0: 24b2 9a3c a377 da3c 18c0 173c db4d 603c
00000300: 532f 563e f45e 80be a3b7 353e b46f 85be
00000310: 4c98 343e 4031 66be d75d 393e f2a9 42be
00000320: 4bf7 333e d0e4 2fbe 9c4a 343e b576 1dbe
00000330: d37d 233e 1e45 0abe 8f30 0a3e bbca 02be
00000340: 7d5c eb3d 8609 e2bd 8456 d13d 6fef b5bd
00000350: 080e 943d c3dd a6bd 3c00 503d b8ec 72bd
00000360: 1576 173d 520d 1cbd 4b2c 033d d910 92bc
00000370: 498a a03c 3543 a9bb 54d8 273c 4c35 413c
00000380: 07cf fcba e39b fd3c 4e68 bfbb 770f f43c
00000390: c855 10bc 3345 3d3d 0225 aabc 3c3a f83c
000003a0: 662a f6bc ee3f 3e3d 97ec b3bc 4a30 233d
000003b0: 8d89 eabc 8377 083d dd3c f1bc 2318 3b3d
000003c0: ad29 04bd 1946 033d a0fc debc 713c ef3c
000003d0: faf8 e6bc a890 df3c 053c 9bbc c8c1 e33c
000003e0: 2fd2 8abc 7d09 a83c 3bcb 8ebc 817d 893c
000003f0: 7189 31bc c692 773c 43de 0fbc 9b9b 383c

cos_embedding.bias f4 [256]
1.9440259 -0.11667435 2.6633918 1.2649235 2.5711954 1.512766 0.16284217 0.8747469
3.2542107 0.59141636 -0.27859232 0.8367775 1.7382487 -0.22488858 0.093819164 1.8662269
3.256255 1.1956677 1.7024558 0.9034333 1.9144717 3.308174 0.8406023 3.0235972
0.23962042 1.4533486 0.72015077 1.4261816 0.47841352 2.8583257 1.9544873 0.719634
1.5075892 1.2279896 2.1125546 1.5923558 0.2171995 1.5110424 2.2704792 1.4370413
0.07028997 0.1876118 2.3038626 0.14920169 -0.042120248 2.0907311 3.4548373 5.1108294
2.4125586 2.659852 1.6399728 0.48567557 0.56467277 1.8653746 2.4411814 2.169724
1.5161152 0.10893992 1.2677054 2.837817 0.011861665 0.018280113 1.2181839 2.7308698
1.1587031 0.11681168 1.1782992 1.3440405 1.4150655 1.9941319 1.9596217 0.9094857
3.0645568 1.352147 1.4473542 -0.090798564 0.03418562 2.5840163 0.9449304 1.4600976
2.2892215 0.017392904 1.7603296 0.23168154 -0.11503899 1.73381 2.061833 0.6166737
1.6001954 1.9873766 0.13606746 1.1959366 3.7702718 1.3876046 -0.072995685 2.3593132
0.78742397 1.8575356 -0.2949403 0.21878253 1.2498868 0.34441882 1.7010146 0.6150438
3.0243785 -0.11906521 0.8630868 1.0908533 0.7431268 1.2098523 1.4155731 2.212955
1.0983276 1.5834025 2.2068594 0.3028442 1.763 0.1398525 0.80605304 0.4404415
-0.026556287 0.47570416 3.1708858 2.0395532 2.9376006 1.8794655 0.6254307 1.3503364
0.32206884 1.3089716 0.00018693507 0.76762253 0.8547697 1.0002288 3.3061192 0.40341467
2.5828285 1.0719751 1.1701586 0.73209375 4.559486 1.169147 0.40567982 2.9019089
2.960386 3.2433827 1.6818794 2.2330778 2.8778913 -0.010548636 2.6037474 1.992283
0.38477185 2.9416964 0.91317356 1.5396873 0.26308876 2.3885226 1.4262748 1.8712351
1.76817 0.1912855 0.4245948 0.6943941 1.8046317 1.4870762 3.1845899 1.4557294
3.757099 1.2586809 0.2349752 0.37459555 2.5099099 0.49794593 3.8526297 1.6509519
0.07374111 1.6392272 1.4426875 1.5226794 2.1819756 1.6827095 1.4913263 2.7747436
1.9187855 0.6314435 1.6629194 1.6395876 -0.13157506 1.1205412 1.8254931 2.105484
1.9465249 0.6248515 1.5084459 1.9770558 0.68935835 0.6879336 0.036445424 -0.019471444
2.9738917 0.62174547 1.1294272 1.8060328 1.99655 0.5223238 2.5241258 2.4264028
0.014453441 2.563331 5.003814 1.2981439 3.597026 1.9746782 -0.2385423 0.76579446
0.24874714 0.7040674 1.7307734 3.1472127 2.6788652 1.0227609 1.9948236 -0.106307164
0.31297168 2.2706094 1.7778597 1.2422888 3.419542 1.3070291 1.4873099 2.7297964
-0.10829505 1.2507948 2.1101265 -0.01816795 0.9924746 -0.14538044 2.2379448 0.90200883
2.5232372 2.1696067 2.228491 1.3125365 1.2855233 0.6668684 1.6981776 2.1376548
1.231399 1.7349832 2.0151749 3.10842 0.7837947 0.018954637 2.4946187 1.5245501
00000000: d7d5 f83f f6f2 eebd 0375 2a40 03e9 a13f
00000010: 778e 2440 51a2 c13f 19c0 263e 6aef 5f3f
00000020: fd44 5040 1067 173f a7a3 8ebe 0d37 563f
00000030: ef7e de3f 3149 66be 4324 c03d 86e0 ee3f
00000040: 7b66 5040 a40b 993f 12ea d93f 6847 673f
00000050: 690d f53f 1fb9 5340 b631 573f 9e82 4140
00000060: 0e5f 753e 5407 ba3f cd5b 383f 1e8d b63f
00000070: 9ef2 f43e cfee 3640 a42c fa3f ef39 383f
00000080: aff8 c03f c32e 9d3f 1834 0740 51d2 cb3f
00000090: 8c69 5e3e d669 c13f 884f 1140 f8f0 b73f
000000a0: 30f4 8f3d 4f1d 403e 7c72 1340 54c8 183e
000000b0: 4886 2cbd 8ace 0540 0e1c 5d40 ea8b a340
000000c0: 5c67 1a40 043b 2a40 a1ea d13f 78aa f83e
000000d0: 658e 103f 98c4 ee3f 513c 1c40 c2dc 0a40
000000e0: 1010 c23f e51b df3d 2c44 a23f cb9e 3540
000000f0: 6e57 423c 2dc0 953c 73ed 9b3f 92c6 2e40
00000100: 6250 943f f63a ef3d 82d2 963f 8509 ac3f
00000110: de20 b53f b73f ff3f e2d4 fa3f 0ed4 683f
00000120: b321 4440 2713 ad3f e742 b93f 99f4 b9bd
00000130: 3806 0c3d 8660 2540 f5e6 713f 7ae4 ba3f
00000140: 9b82 1240 907b 8e3c 7b52 e13f ed3d 6d3e
00000150: 9099 ebbd 7ced dd3f 12f5 0340 54de 1d3f
00000160: 34d3 cc3f 5b62 fe3f 4555 0b3e 7314 993f
00000170: 224c 7140 079d b13f c37e 95bd fdfe 1640
00000180: 9e94 493f bac3 ed3f 6a02 97be 8708 603e
00000190: 4afc 9f3f aa57 b03e d9ba d93f 8373 1d3f
000001a0: 6b8f 4140 76d8 f3bd 42f3 5c3f 15a1 8b3f
000001b0: 8f3d 3e3f 71dc 9a3f 8031 b53f 0ea1 0d40
000001c0: 0096 8c3f efac ca3f 2f3d 0d40 650e 9b3e
000001d0: fca9 e13f 7e35 0f3e 7e59 4e3f 8c81 e13e
000001e0: 928c d9bc 7f8f f33e cbef 4a40 0a88 0240
000001f0: a601 3c40 5392 f03f 3a1c 203f d3d7 ac3f
00000200: 35e6 a43e 628c a73f 0004 4439 e982 443f
00000210: 30d2 5a3f 7f07 803f 7597 5340 5e8c ce3e
00000220: 104d 2540 7b36 893f c2c7 953f 7f6a 3b3f
00000230: 4fe7 9140 9ca6 953f 44b5 cf3e e0b8 3940
00000240: f776 3d40 9593 4f40 d347 d73f bfea 0e40
00000250: 5f2f 3840 30d4 2cbc cca3 2640 2103 ff3f
00000260: d100 c53e c144 3c40 bec5 693f 7914 c53f
00000270: 92b3 863e 8edd 1840 2c90 b63f a284 ef3f
00000280: 6553 e23f 59e0 433e 7d64 d93e d0c3 313f
00000290: 2cfe e63f 8358 be3f 52d0 4b40 5755 ba3f
000002a0: 4f74 7040 751c a13f 579d 703e fdca bf3e
000002b0: 5da2 2040 c5f2 fe3e 7c91 7640 6452 d33f
000002c0: 9405 973d 32d2 d13f fca9 b83f 29e7 c23f
000002d0: 7da5 0b40 0663 d73f c8e3 be3f 6695 3140
000002e0: c39a f53f 48a6 213f 8bda d43f 02de d13f
000002f0: 9dbb 06be e56d 8f3f c2a9 e93f 40c0 0640
00000300: ba27 f93f 45f6 1f3f c114 c13f 2a10 fd3f
00000310: ca79 303f 6b1c 303f cc47 153d 9482 9fbc
00000320: 3e54 3e40 b62a 1f3f 1291 903f 152c e73f
00000330: f38e ff3f 03b7 053f 478b 2140 2f4a 1b40
00000340: 20ce 6c3c 9d0d 2440 3f1f a040 9429 a63f
00000350: ad35 6640 41c2 fc3f 6f44 74be 1b0b 443f
00000360: 92b7 7e3e c33d 343f fc89 dd3f ef6b 4940
00000370: 8772 2b40 d4e9 823f 6156 ff3f 92b7 d9bd
00000380: d33d a03e aa51 1140 e890 e33f 5203 9f3f
00000390: c7d9 5a40 bb4c a73f 2c60 be3f fcb4 2e40
000003a0: ccc9 ddbd 0b1a a03f 500c 0740 f4d4 94bc
000003b0: d112 7e3f 9cde 14be 7d3a 0f40 0dea 663f
000003c0: b87c 2140 d6da 0a40 999f 0e40 3201 a83f
000003d0: 078c a43f e3b7 2a3f e25d d93f 56cf 0840
000003e0: 7c9e 9d3f ee13 de3f a0f8 0040 5af0 4640
000003f0: c5a6 483f c146 9b3c d5a7 1f40 7524 c33f

ff_1.weight f4 [256, 256]
-0.23156944 -0.0401708 -0.61699724 -0.3278263 0.09222894 -0.95390123 -0.23658685 -0.08556147
0.38045835 0.16174188 0.33165115 0.15419517 0.33253703 -0.5015093 0.0070929024 -0.12922701
0.4184781 0.19233492 -1.0506101 0.10168185 -0.07386326 -1.0655668 -0.27212897 -0.2718144
-0.21637103 -0.19982624 -0.7461935 0.21226998 0.07882325 -0.10683573 -0.62872285 0.1147187
-0.15870708 0.018596048 -0.3296635 -0.22493404 0.062290087 -0.051222462 -0.60450387 -0.7869181
-0.2093483 -0.25896654 0.18238927 -0.057761885 -0.2829948 -0.43795663 -0.2993361 -0.18044679
-1.0367761 -0.16859853 -1.2603942 -0.116738416 0.22157837 -0.6615865 0.19709118 0.12647001
0.05643671 -0.045062583 -0.27214995 -0.8148142 0.039685983 0.059679575 0.040041625 -0.5509148
-0.3426722 0.091482095 -0.42352185 0.16676629 -0.8664183 -0.5371015 0.04893214 0.009865733
-0.49957845 0.6238613 -1.0181425 -0.21165313 0.026988357 -2.6768093 0.12180229 -0.3148816
-0.6251816 0.0252591 -0.342601 0.076601736 -0.19067323 1.0500959 -0.8794745 -0.26915124
-0.19039574 -0.16950995 -0.06501654 0.20867921 0.9082462 -0.5343527 -0.080352016 0.1142801
-0.6640562 0.44620416 -0.1877963 -0.90969694 -1.0935024 -0.14652047 -0.1322031 -1.6991632
-1.1019309 -0.018701147 -0.0013304556 -0.34755012 -0.1369729 -0.2861315 -0.032482065 0.2561676
0.4016502 0.023512525 -0.2567598 -0.18753693 0.0482226 0.1793458 -0.3298174 -0.5294045
-0.4055195 0.055900022 -0.6573835 -0.11601617 -0.110532485 0.11510035 -0.07025205 -0.21459879
-0.8231541 -0.31663015 0.006536089 -0.41643584 1.4218618 -0.47196987 0.1387801 -0.12320403
0.12487254 -0.08127358 0.096932456 -0.15538388 -0.51843244 0.0918298 -0.2741495 0.17235611
-0.36853504 -0.7121325 0.08650022 0.093709126 0.004058381 0.060107805 0.0021986628 -0.119862236
0.06255263 -0.76100045 0.5438641 -0.43090498 0.379907 -1.1473955 -1.7351121 0.3994759
0.82373786 0.30198392 0.23439138 0.3168569 -0.0642211 0.015627323 -0.10288115 0.20476584
0.6916366 -0.00691428 0.43907592 -0.42134643 0.22737274 0.065323494 0.029538369 -1.3140785
0.03310021 0.055241488 0.26376432 -0.3814455 -0.11249012 0.70108527 -0.5509954 -1.1415695
-0.73022527 0.11602088 0.28636062 0.07237508 -0.107318 -0.8545955 0.034924336 0.3187857
0.1199136 0.07956095 -0.19986205 -0.04956753 -0.027669402 -0.09463651 -0.061757743 0.15243609
0.2179126 0.12505192 0.43554118 -0.015253089 0.086273186 -0.057534017 -0.03688198 -0.0682313
0.052631468 -0.37658498 -0.6842186 -0.8678196 -1.0623852 -0.10310835 0.18584508 -0.002907647
-0.16449837 -0.096684605 -0.46761993 -0.3287663 0.15590505 0.024291145 -0.7696463 -0.039185166
0.07147839 -0.22965202 -0.30467167 0.2734489 -0.025305483 -0.087960064 0.45206115 -1.8619856
0.10944127 0.19102931 -0.13980153 -0.054921966 -1.5523719 -0.17636493 0.012418653 0.1084856
-0.8714439 -0.08614096 -1.7566209 0.30111393 -0.5265385 -0.027917262 0.010817336 0.38251954
-0.12249712 -0.0052251928 -0.14357084 -0.2495827 -0.014884395 0.027564002 0.034775387 -0.3205232
00000000: 8a20 6dbe 238a 24bd 88f3 1dbf d9d8 a7be
00000010: 87e2 bc3d df32 74bf d343 72be da3a afbd
00000020: 70cb c23e aa9f 253e 2ece a93e 57e5 1d3e
00000030: 4b42 aa3e ea62 00bf 946b e83b 1654 04be
00000040: c342 d63e 72f3 443e 647a 86bf 933e d03d
00000050: 9f45 97bd 7e64 88bf 7d54 8bbe 422b 8bbe
00000060: 5e90 5dbe 409f 4cbe 8a06 3fbf 4d5d 593e
00000070: 166e a13d b1cc dabd fbf3 20bf a3f1 ea3d
00000080: 1c84 22be bd56 983c a7c9 a8be 1c55 66be
00000090: e423 7f3d a5ce 51bd c4c0 1abf 7773 49bf
000000a0: 675f 56be 4397 84be 41c4 3a3e ba97 6cbd
000000b0: b2e4 90be da3b e0be 9542 99be 0bc7 38be
000000c0: 14b5 84bf 18a5 2cbe 9954 a1bf 8d14 efbd
000000d0: 71e5 623e bc5d 29bf 45d2 493e 5b81 013e
000000e0: 2e2a 673d 8b93 38bd 3d57 8bbe aa97 50bf
000000f0: c58d 223d 9272 743d b002 243d c108 0dbf
00000100: bb72 afbe f75a bb3d dbd7 d8be c8c4 2a3e
00000110: 97cd 5dbf 7c7f 09bf 116d 483d e2a3 213c
00000120: bfc8 ffbe 60b5 1f3f 7e52 82bf 99bb 58be
00000130: b016 dd3c d850 2bc0 7b73 f93d 2938 a1be
00000140: e70b 20bf 2cec ce3c 6669 afbe 5fe1 9c3d
00000150: d83f 43be 8b69 863f 3e25 61bf 31ce 89be
00000160: 1af7 42be 0494 2dbe 6427 85bd 01b0 553e
00000170: d382 683f 57cb 08bf 998f a4bd af0b ea3d
00000180: 96ff 29bf df74 e43e ac4d 40be e6e1 68bf
00000190: e3f7 8bbf 7609 16be 4060 07be 2e7e d9bf
000001a0: 120c 8dbf 2633 99bc af62 aeba 17f2 b1be
000001b0: a042 0cbe d47f 92be ea0b 05bd 6628 833e
000001c0: 18a5 cd3e 579d c03c 0576 83be ae09 40be
000001d0: 1085 453d 6da6 373e d4dd a8be 0e87 07bf
000001e0: 40a0 cfbe 6cf7 643d 494a 28bf e399 edbd
000001f0: db5e e2bd bbb9 eb3d 4fe0 8fbd c9bf 5bbe
00000200: 3aba 52bf 591d a2be b02c d63b 1437 d5be
00000210: 91ff b53f 09a6 f1be 5f1c 0e3e 6552 fcbd
00000220: 2dbd ff3d c372 a6bd 8684 c63d f41c 1fbe
00000230: fdb7 04bf 4311 bc3d 535d 8cbe 1f7e 303e
00000240: a0b0 bcbe 514e 36bf 0727 b13d 92ea bf3d
00000250: 2bfc 843b 9a33 763d 7117 103b 557a f5bd
00000260: 981b 803d edd0 42bf ad3a 0b3f 949f dcbe
00000270: 2c83 c23e dbdd 92bf 2718 debf 1b88 cc3e
00000280: 7ce0 523f a39d 9a3e 4b04 703e 113b a23e
00000290: 5a86 83bd df04 803c 5ab3 d2bd 23ae 513e
000002a0: 190f 313f 2f91 e2bb 8fce e03e b8ba d7be
000002b0: 66d4 683e 53c8 853d 73fa f13c b933 a8bf
000002c0: 1694 073d e644 623d 1e0c 873e d34c c3be
000002d0: 3861 e6bd 537a 333f 090e 0dbf f31e 92bf
000002e0: 0bf0 3abf 5b9c ed3d dc9d 923e 6339 943d
000002f0: 8ac9 dbbd c5c6 5abf d20c 0f3d e137 a33e
00000300: 4395 f53d daf0 a23d a3a8 4cbe 5307 4bbd
00000310: f1aa e2bc c9d0 c1bd b0f5 7cbd 3518 1c3e
00000320: 7b24 5f3e 9c0d 003e 41ff de3e 18e8 79bc
00000330: ffaf b03d caa8 6bbd 8f11 17bd dabc 8bbd
00000340: 1894 573d bfcf c0be f328 2fbf 6d29 5ebf
00000350: 3dfc 87bf 782a d3bd 2c4e 3e3e 398e 3ebb
00000360: 4372 28be 9402 c6bd e16b efbe 0e54 a8be
00000370: 93a5 1f3e 39fe c63c 8a07 45bf a080 20bd
00000380: 4363 923d e629 6bbe edfd 9bbe 7f01 8c3e
00000390: 724d cfbc 6824 b4bd 8f74 e73e 8b55 eebf
000003a0: bf22 e03d 309d 433e 2228 0fbe dbf5 60bd
000003b0: 1fb4 c6bf 0299 34be 9b77 4b3c b32d de3d
000003c0: f316 5fbf ac6a b0bd f4d8 e0bf 9b2b 9a3e
000003d0: 3acb 06bf beb2 e4bc 323b 313c 9ad9 c33e
000003e0: c5df fabd 1838 abbb 3c04 13be 9b92 7fbe
000003f0: addd 73bc e7cd e13c a370 0e3d 9e1b a4be

ff_1.bias f4 [256]
0.12754184 0.06234577 -0.16206388 0.10387763 -0.7189409 -0.87058485 0.28382668 0.15731667
-0.013342776 -0.004205129 -0.38770267 -0.346021 0.1252041 0.18637405 -0.17640689 -0.2865489
-0.5395732 0.16289742 0.41732875 0.00019543263 -0.23231433 0.24636795 0.21539906 -0.6431362
-0.18537824 0.015304267 -0.52172506 -0.31608552 0.4415393 0.07000184 0.0664963 0.08713878
0.037577946 -0.014492496 0.022066409 -0.6536296 0.31764606 1.0290409 -0.2710396 -0.66490084
0.04428349 -0.3552409 -0.7267646 -0.40567374 -0.047084104 0.05718623 0.12390145 -0.30030403
-0.08109222 0.026182964 0.62131816 -0.56899667 -0.28834334 0.17883365 0.013381337 -0.56012636
-0.16424115 0.48188633 -0.04476959 0.28750035 -0.0241145 0.2513456 -0.1676441 0.18961778
0.2505588 0.35475817 -0.38219652 0.5915892 0.4103417 -0.14691915 0.14143081 0.21533959
-0.53158206 -0.3504953 -0.7229526 -0.3364619 -0.38056785 0.34994057 -0.10131084 -0.47787824
-0.14087991 0.013788544 -0.041884508 -0.936936 -0.33627415 0.029669365 -0.111107126 0.1368697
0.06319674 -0.1437383 0.19890939 -0.15880968 0.22022444 -0.46340108 -0.18742883 -0.04469507
-0.3966401 -0.47802857 -0.5231295 -0.43261936 0.21022984 -0.40519106 0.20483378 -0.16330045
-0.27284205 -0.18518533 0.022159366 -0.075048104 -0.60838544 -0.7018512 0.3128174 -0.5078583
-0.46301 0.5191666 0.09394264 -0.05608493 0.45566288 -0.37311894 0.091570765 -0.17062262
0.0419101 -0.07269209 0.44038963 -0.30624238 -0.8577204 -0.25065488 0.4099531 0.11373433
-0.14337568 0.2084688 -0.5263485 -0.34602106 -0.41891652 -0.22124983 0.4174355 -0.22421364
-0.25449947 -0.12050421 0.28949142 -0.19499284 -0.48945692 -0.41159147 0.11483647 -0.307536
0.2420086 0.30037683 0.47649878 -0.58868986 -0.44531792 -0.04296906 -0.06790593 0.24591036
-0.15651743 -0.580241 0.41548175 0.053590573 -0.41365477 0.897574 -0.39153397 0.06745068
0.050665464 0.20192716 -0.06109806 -0.012986175 0.27878505 -0.06185275 0.23747444 -0.16115743
-0.36337963 0.3886533 -0.08581159 -0.38896832 -0.36187983 -0.08527445 -0.037891977 0.24916655
0.12751862 0.437704 0.032856088 0.13787156 -0.3671819 -0.14330247 0.078178376 -0.12562227
-0.0034322739 0.28212658 -0.27136508 -0.17522062 0.32265693 0.13995989 0.09924741 0.017227342
0.96586573 0.8801174 0.032267295 0.032734796 0.49279183 -0.27117187 0.15016064 -0.41538718
-0.060614035 0.13693549 -0.15032062 0.73440164 -0.29103878 0.31095678 0.008466533 -0.7326633
-0.06503091 0.11025163 0.8977024 -0.1849013 1.0048823 -0.31937942 -0.06279837 -0.13364321
0.49155527 -0.14526668 0.18274477 0.49532422 0.4188888 0.10403842 -0.18772967 -0.26850304
-0.441398 0.30621144 0.21378517 -0.33796957 -0.17648607 0.08573576 -0.2708137 -0.7643176
0.22107576 0.33048108 0.18524784 0.66328907 -0.082433544 -0.18626481 0.21795811 -0.16409232
0.9189804 0.09964639 -0.35247475 -0.5148933 0.2129868 -0.3719414 -0.41781643 0.19971709
-0.31994742 -0.51380247 -0.42733037 -0.23132692 0.11546099 -0.10504101 0.2761009 -0.1440745
00000000: 549a 023e 475e 7f3d 13f4 25be cbbd d43d
00000010: 830c 38bf a6de 5ebf bb51 913e 9f17 213e
00000020: a99b 5abc 2ecb 89bb f780 c6be aa29 b1be
00000030: 8135 003e d7d8 3e3e 02a4 34be 8ab6 92be
00000040: 7821 0abf 95ce 263e 1dac d53e 0ced 4c39
00000050: cfe3 6dbe e147 7c3e 9291 5c3e 93a4 24bf
00000060: cbd3 3dbe c0be 7a3c c68f 05bf f6d5 a1be
00000070: 7011 e23e 205d 8f3d 362f 883d d175 b23d
00000080: 55eb 193d ef71 6dbc 9dc4 b43c 4554 27bf
00000090: 81a2 a23e 9db7 833f b4c5 8abe f136 2abf
000000a0: 9b62 353d 23e2 b5be 3f0d 3abf 78b4 cfbe
000000b0: 43db 40bd 1c3c 6a3d 0bc0 fd3d 73c1 99be
000000c0: ae13 a6bd a87d d63c b50e 1f3f c4a9 11bf
000000d0: bda1 93be 2b20 373e 653d 5b3c 7164 0fbf
000000e0: d52e 28be ceb9 f63e 5160 37bd 3f33 933e
000000f0: c68b c5bc 5fb0 803e e5aa 2bbe 2a2b 423e
00000100: 3e49 803e dda2 b53e 43af c3be 6472 173f
00000110: 4f18 d23e f971 16be 3dd3 103e fb81 5c3e
00000120: c315 08bf 1f74 b3be 6c13 39bf bc44 acbe
00000130: cad9 c2be 692b b33e 0f7c cfbd 75ac f4be
00000140: d342 10be 58e9 613c 178f 2bbd 0adb 6fbf
00000150: 202c acbe 2b0d f33c 228c e3bd 9227 0c3e
00000160: 4b6d 813d 2230 13be e7ae 4b3e 019f 22be
00000170: 8482 613e e842 edbe 58ed 3fbe 2d12 37bd
00000180: 6914 cbbe 29c0 f4be d1eb 05bf 4980 ddbe
00000190: 7e46 573e 3475 cfbe f2bf 513e 3c38 27be
000001a0: f4b1 8bbe 39a1 3dbe 8f87 b53c d2b2 99bd
000001b0: 26bf 1bbf 85ac 33bf 9a29 a03e 0003 02bf
000001c0: a60f edbe 1ae8 043f 0065 c03d 50b9 65bd
000001d0: a54c e93e 7209 bfbe 7489 bb3d b2b7 2ebe
000001e0: eda9 2b3d 97df 94bd c07a e13e cdcb 9cbe
000001f0: 9093 5bbf d655 80be 5fe5 d13e 8bed e83d
00000200: 13d1 12be d878 553e c6be 06bf ac29 b1be
00000210: 3a7c d6be 518f 62be 1bba d53e 4398 65be
00000220: c14d 82be e9ca f6bd 3838 943e 34ac 47be
00000230: 199a fabe 1ebc d2be 622f eb3d 5c75 9dbe
00000240: 1ad1 773e feca 993e a6f7 f33e 61b4 16bf
00000250: b600 e4be 5300 30bd 4412 8bbd edcf 7b3e
00000260: 1b46 20be ad8a 14bf 06ba d43e ca81 5b3d
00000270: 8fca d3be 69c7 653f 2477 c8be 9523 8a3d
00000280: 9786 4f3d fec5 4e3e f641 7abd f7c3 54bc
00000290: eabc 8e3e 4f59 7dbd 802c 733e 7406 25be
000002a0: e50c babe 91fd c63e fdbd afbd db26 c7be
000002b0: 5048 b9be 5fa4 aebd 9e34 1bbd 8425 7f3e
000002c0: 3e94 023e bd1a e03e 1b94 063d 342e 0d3e
000002d0: 44ff bbbe e2bd 12be fc1b a03d 20a3 00be
000002e0: 00f0 60bb e572 903e 5df0 8abe 096d 33be
000002f0: 4a33 a53e a551 0f3e 3a42 cb3d 5b20 8d3c
00000300: fa42 773f 604f 613f b62a 043d ec14 063d
00000310: 364f fc3e 0ad7 8abe b6c3 193e a1ad d4be
00000320: 6c46 78bd d138 0c3e a6ed 19be bf01 3c3f
00000330: 0903 95be ba35 9f3e 37b7 0a3c d28f 3bbf
00000340: ed2e 85bd 9bcb e13d d3cf 653f c456 3dbe
00000350: fc9f 803f b385 a3be 6f9c 80bd c4d9 08be
00000360: 22ad fb3e cac0 14be 7221 3b3e 239b fd3e
00000370: 9878 d63e 1812 d53d 353c 40be 3b79 89be
00000380: ebfe e1be bfc7 9c3e 80ea 5a3e 590a adbe
00000390: c4b8 34be 3b96 af3d 18a8 8abe 51aa 43bf
000003a0: af61 623e d134 a93e 9cb1 3d3e 50cd 293f
000003b0: ebd2 a8bd 34bc 3ebe 6930 5f3e d107 28be
000003c0: 4d42 6b3f 6813 cc3d 9277 b4be 0cd0 03bf
000003d0: 3619 5a3e 1a6f bebe 09ec d5be a382 4c3e
000003e0: 26d0 a3be 8f88 03bf 0ccb dabe f7e0 6cbe
000003f0: d076 ec3d be1f d7bd 195d 8d3e 4488 13be

ff_2.weight f4 [1, 256]
0.51862854 1.7198836 -0.9278396 1.2390237 -1.2695553 -1.2157412 1.2439545 1.8986775
1.4991204 1.6541027 2.2898865 1.3756698 2.115248 1.7416608 -0.741852 0.9791977
-1.5273932 0.7417263 1.0963874 2.015224 0.7971172 -1.3993372 -2.7724736 -0.5772988
-1.0951495 1.0126754 -0.5479636 -0.793163 0.9051137 -0.84774894 -1.6775498 0.6541108
1.264287 1.0859114 1.3002207 -0.96048754 1.6397114 0.5132376 1.5040898 -1.2830383
1.8122799 -0.9872029 -0.80141443 -1.2282027 1.320186 0.78803575 0.8611101 -0.7616074
-0.79618615 1.2543304 0.5197205 -0.48927033 0.7283895 1.0710093 1.3085567 -1.4443501
2.3704567 0.55747503 1.0883814 0.55161107 2.6804106 1.1711833 -0.7727623 1.4127351
0.68734694 0.9784874 -0.37942287 0.80068886 0.962361 -0.7850273 0.8406938 -1.2515454
2.0057366 -0.594678 -0.8165182 -0.72245127 -0.5502758 -0.7476425 -1.5129194 1.4061027
-0.8868322 0.6784003 0.51310015 -2.449148 -0.66474515 -1.5075524 2.150336 -0.9019265
1.5756115 -0.5741435 1.0727419 -1.4307265 1.5846908 -1.3088572 1.3022584 -0.80706006
-0.8284432 -1.4055804 -0.6395469 -0.5907653 0.8301522 -1.0099576 -0.45847467 1.0339814
-0.9647242 -1.0087254 -1.8291526 -1.797734 -0.72174716 -0.924449 0.91444147 -1.3046836
-0.6926502 1.0348016 1.145073 1.4898214 1.1646073 -0.695684 0.7136115 -0.5693107
-1.3046404 1.1513907 1.7771157 -0.80452335 -0.8113146 -0.79262114 0.3261975 -1.0528163
-0.85265326 0.85857165 1.3737414 -0.64578927 1.5145234 -0.6554338 0.86129504 -1.0227271
-1.5589908 1.2688583 2.2598612 -1.1591475 -0.70368046 -0.5999714 0.91664064 1.2968684
0.8828532 1.4655614 1.8658444 -0.8605197 -1.0208243 0.46565202 -1.2172276 1.254011
2.1960695 -2.1412444 0.9990342 -0.33401155 -0.95890695 0.57405853 -0.4796785 2.330189
-1.3371924 -1.9454522 -0.7927716 1.7794447 1.2093519 -0.6324448 0.5500135 -0.7801751
-0.72832537 0.66616994 0.42240757 -1.6479361 2.4784153 -1.0031756 -1.1310648 0.4965298
0.6903184 1.1154472 1.0463904 1.646665 1.9256444 1.4408703 0.66794664 1.0464568
-0.9398721 -1.7565309 -0.8141687 1.385623 1.0691592 0.7789679 0.64058596 0.7980384
0.5107588 0.50678986 0.98599666 -1.8717091 1.3129423 -0.82138443 1.064193 -0.9209359
-0.62181795 -1.8612696 -1.5708519 0.7517272 -0.69077635 0.6790401 -1.016009 2.0943081
-0.48948368 -0.96584123 0.519571 1.0049951 0.54773396 1.6899209 -1.1273632 1.2689645
0.96045965 -0.74841696 1.1071413 0.7908258 0.49667084 -0.6931425 -1.3543233 -0.91607744
1.6276513 0.448534 1.8209213 1.5861174 0.7968594 -0.9440625 -0.8830242 2.4131274
0.96679634 -1.0964503 0.5821583 0.8951852 0.9841567 2.1442187 0.8748299 2.476372
0.50491524 0.48069003 -0.40485254 -0.5667003 1.0261406 -0.7798974 -1.8433425 1.3076677
-0.52420163 -0.69714797 -0.81256914 -0.8484917 1.0065597 -0.64469916 1.5033671 0.93992054
00000000: d7c4 043f 2525 dc3f e586 6dbf 5498 9e3f
00000010: ca80 a2bf 689d 9bbf e739 9f3f dd07 f33f
00000020: 2de3 bf3f a3b9 d33f 808d 1240 f315 b03f
00000030: 3960 0740 beee de3f 03ea 3dbf b3ac 7a3f
00000040: 9f81 c3bf c6e1 3d3f 6c56 8c3f 6ef9 0040
00000050: df0f 4c3f 7b1d b3bf 3570 31c0 dbc9 13bf
00000060: dc2d 8cbf 599f 813f 5847 0cbf bb0c 4bbf
00000070: 88b5 673f 1306 59bf f4b9 d6bf ce73 273f
00000080: 28d4 a13f 25ff 8a3f a26d a63f 83e2 75bf
00000090: 10e2 d13f 8a63 033f 0486 c03f 993a a4bf
000000a0: caf8 e73f 54b9 7cbf 7f29 4dbf bf35 9dbf
000000b0: dbfb a83f b6bc 493f b671 5c3f b4f8 42bf
000000c0: dbd2 4bbf e68d a03f 670c 053f a481 fabe
000000d0: bc77 3a3f d516 893f c97e a73f 77e0 b8bf
000000e0: 90b5 1740 afb6 0e3f 1550 8b3f 6236 0d3f
000000f0: d98b 2b40 56e9 953f c0d3 45bf 81d4 b43f
00000100: f8f5 2f3f 267e 7a3f b743 c2be f2f9 4c3f
00000110: 4a5d 763f 8df7 48bf b537 573f a432 a0bf
00000120: fd5d 0040 d13c 18bf 5607 51bf 91f2 38bf
00000130: e0de 0cbf 8065 3fbf 58a7 c1bf 2cfb b33f
00000140: 6f07 63bf a4ab 2d3f 885a 033f d7be 1cc0
00000150: bd2c 2abf 7af7 c0bf 1b9f 0940 a8e4 66bf
00000160: a3ad c93f 12fb 12bf 9b4f 893f 0c22 b7bf
00000170: 26d7 ca3f a288 a7bf 67b0 a63f 7d9b 4ebf
00000180: db14 54bf 0fea b3bf 58b9 23bf 653c 17bf
00000190: db84 543f 4a46 81bf 31bd eabe 8159 843f
000001a0: 2af8 76bf ea1d 81bf ac21 eabf 261c e6bf
000001b0: 6cc4 38bf b1a8 6cbf d618 6a3f dfff a6bf
000001c0: 8651 31bf 6174 843f c191 923f 78b2 be3f
000001d0: da11 953f 5918 32bf 3eaf 363f 59be 11bf
000001e0: 75fe a6bf c560 933f 8778 e33f 3ef5 4dbf
000001f0: 50b2 4fbf 38e9 4abf 5c03 a73e afc2 86bf
00000200: 7c47 5abf 5acb 5b3f c2d6 af3f 7252 25bf
00000210: e7db c13f 82ca 27bf d57d 5c3f b9e8 82bf
00000220: 038d c7bf f369 a23f 91a1 1040 f25e 94bf
00000230: 6724 34bf ba97 19bf f6a8 6a3f c9ff a53f
00000240: ab02 623f 8497 bb3f fdd3 ee3f 054b 5cbf
00000250: 5faa 82bf f169 ee3e 1dce 9bbf 6f83 a03f
00000260: 678c 0c40 260a 09c0 b5c0 7f3f 9003 abbe
00000270: ed7a 75bf 80f5 123f 6c98 f5be d121 1540
00000280: 1f29 abbf 9404 f9bf 14f3 4abf d8c4 e33f
00000290: 0bcc 9a3f e7e7 21bf afcd 0c3f 8eb9 47bf
000002a0: 8873 3abf 1d8a 2a3f ce45 d83e 92ef d2bf
000002b0: 5b9e 1e40 0f68 80bf bbc6 90bf 2739 fe3e
000002c0: b5b8 303f f9c6 8e3f 1ff0 853f ebc5 d23f
000002d0: 847b f63f 706e b83f 8dfe 2a3f 4cf2 853f
000002e0: 759b 70bf 01d6 e0bf 5c6d 50bf 185c b13f
000002f0: 35da 883f 716a 473f 71fd 233f 3f4c 4c3f
00000300: 17c1 023f fbbc 013f 476a 7c3f 2a94 efbf
00000310: 7e0e a83f 4046 52bf 7a37 883f 75c2 6bbf
00000320: 762f 1fbf 153e eebf ad11 c9bf 3271 403f
00000330: b8d6 30bf 92d5 2d3f 950c 82bf 2509 0640
00000340: 9b9d fabe 5f41 77bf 9b02 053f aea3 803f
00000350: 4b38 0c3f 544f d83f 704d 90bf 6e6d a23f
00000360: afe0 753f 4198 3fbf ceb6 8d3f 8f73 4a3f
00000370: a44b fe3e c971 31bf 775a adbf 0d84 6abf
00000380: e156 d03f 40a6 e53e f313 e93f e505 cb3f
00000390: fafe 4b3f 14ae 71bf e00d 62bf ae70 1a40
000003a0: f77f 773f 7c58 8cbf 5408 153f db2a 653f
000003b0: b2f1 7b3f e13a 0940 daf4 5f3f e17c 1e40
000003c0: 2042 013f 011d f63e d548 cfbe 4513 11bf
000003d0: 9358 833f 5ba7 47bf a6f2 ebbf a861 a73f
000003e0: 1432 06bf 4a78 32bf 8804 50bf c136 59bf
000003f0: f3d6 803f 010b 25bf 556e c03f a29e 703f
