runs/checkpoint_critic_2566_192021_tau1_650.pth (torch, 356559 bytes, 7 tensors)

head.weight f4 [256, 22]
000000 f6 fd de ba 03 90 62 be 76 84 14 be 94 ea 82 be
       -0.0017012942 -0.22125249 -0.14503655 -0.25569594
000010 e4 08 13 3f 33 5a 82 3e 0f b4 96 bc 01 6c 93 3f
       0.5743544 0.25459442 -0.018396406 1.1517335
000020 85 1b 0b 3f 41 7e 02 3f ad e0 32 be 6e 35 25 3d
       0.54338866 0.509739 -0.1746852 0.040334158
000030 5a 4e f6 bd 79 7d 83 be 16 ae df be bc 3b 72 3e
       -0.12026663 -0.25681666 -0.43687505 0.236556
000040 56 57 75 3d 1f 38 f6 3e cb 3f 8d 3d a9 52 d7 3e
       0.059897743 0.48089692 0.06896933 0.42055252
000050 21 27 1a 3f 2d 43 30 bf f1 6e 0e 3d a7 43 52 bd
       0.60215956 -0.688525 0.03477377 -0.05133405
000060 f6 2b 7f bd d4 25 92 3b 29 c3 d1 3f 75 45 0f 3f
       -0.062297784 0.004460076 1.6387683 0.5596536
000070 fb 33 2d 3f 1b 6a 1a 3e 05 76 37 3c 07 f1 2c 3e
       0.6765744 0.15079539 0.011197572 0.1688882
000080 7c cc 34 be cd 6d 8f be 0b 33 87 be e3 9c a5 3d
       -0.1765613 -0.2801346 -0.2640613 0.080865644
000090 1e 1c e1 bd f7 3a 06 bf 74 b2 d5 3b 5c 42 c6 bc
       -0.10991691 -0.52433723 0.0065215174 -0.024201564
0000a0 57 af b4 3d b5 47 b6 bf 28 cf 98 bf 0f 5c 16 bf
       0.08822506 -1.4240633 -1.1938219 -0.5873422
0000b0 b2 3f f8 ba 59 47 f2 bd 82 8a 52 be 51 76 a1 3c
       -0.0018939881 -0.11830015 -0.20560649 0.019709738
0000c0 72 18 26 3e 77 14 8b bc 75 3b 9d be 90 e6 35 c0
       0.16220263 -0.016977532 -0.30709425 -2.8421974
0000d0 0f ba 28 c0 28 f6 19 c0 93 4a 87 3e 7f 65 73 3e
       -2.636356 -2.4056492 0.26424083 0.23769186
0000e0 b9 ab e3 3c aa 1b bb bd 94 87 86 3e 31 17 d7 bd
       0.027791845 -0.09136136 0.26275313 -0.1050247
0000f0 62 dd 07 3f ed 5a 86 3d 30 ee 07 bf 65 51 70 bd
       0.5307218 0.065603115 -0.5309782 -0.058671374
000100 0b 87 81 3f ee 30 46 bf c3 df f8 ba e4 55 bd be
       1.0119337 -0.7741841 -0.0018987585 -0.36979592
000110 33 d6 dc 3e d9 63 b1 3d c1 07 b0 be 13 45 42 be
       0.4313217 0.086616226 -0.34380916 -0.18971662
000120 4b 58 0b bf 4c af 9f 3d 38 46 8e 3e b9 da f7 3e
       -0.544316 0.07797107 0.27787948 0.4840906
000130 11 85 57 3d cb 33 5f 3e 09 e1 c3 3d 80 2f 1e 3e
       0.052617136 0.21797101 0.095644064 0.15447807
000140 0d aa 3c be 69 e7 eb bd 74 37 f4 bd 7b 9d a3 bb
       -0.18424244 -0.11518747 -0.11924639 -0.0049931384
000150 93 d2 14 3e 2e 9a bf bf ff 2b 64 bd c0 0e 5a 40
       0.14533453 -1.4968927 -0.05570602 3.4071503
000160 3f 6d 95 3a dd 7a 93 bc c4 1f 95 be b1 32 3b 3e
       0.0011400356 -0.018002922 -0.29125798 0.18281056
000170 c2 72 21 3e 69 14 af 3d 3d c2 66 3e 2c a6 dd be
       0.15766433 0.08548815 0.22535034 -0.43290842
000180 e0 e9 51 bf 7f 6d 59 bf c8 a1 01 be 1d 46 7b be
       -0.8199749 -0.849327 -0.12659371 -0.24538465
000190 5c e5 26 bd e8 6d f3 3e 6b 40 b1 be 61 18 7e bc
       -0.040746078 0.4754479 -0.3461946 -0.015508742
0001a0 df d9 f1 3e a2 5e 84 3d 6a d7 48 bf cf 3a 45 3d
       0.47236535 0.06463362 -0.78453696 0.048151787
0001b0 b9 36 db bd 80 65 a6 3e 20 dd bb bb 0d 27 33 3e
       -0.10703797 0.32499313 -0.0057331473 0.17495365
0001c0 0d e3 bb be 8e 50 24 be 25 7c 2c bf 9e 04 ee 3c
       -0.36696663 -0.16046354 -0.6737693 0.029054936
0001d0 40 f3 f0 be 53 c2 e2 bf bf 80 db bf ad ce 9b bf
       -0.47060585 -1.7715553 -1.7148665 -1.2172447
0001e0 00 09 9f bd f2 8c 87 be 2b be 68 be da 66 b0 be
       -0.077653885 -0.2647472 -0.22728793 -0.3445347
0001f0 9c a3 d9 be ba 14 86 be 6b c7 bb 3d 12 07 c3 bd
       -0.42507637 -0.26187688 0.09168895 -0.09522833
000200 9d 4a cb be 7b db 09 3f 9c 1d ed 3f 4d 4f 07 bf
       -0.39705363 0.53850526 1.8524661 -0.5285538
000210 f9 13 b2 ba 73 bb 30 be 32 7f 8f bc 2c 9a be bc
       -0.0013586275 -0.17259006 -0.017516706 -0.023266874
000220 de 65 2e 3e e1 1d 35 bd 0f 0a bb 3e 94 ab 11 bf
       0.17031047 -0.044217948 0.36531112 -0.5690243
000230 69 ea 50 bf c6 50 fa be d4 66 a5 3e 33 c9 ce 3e
       -0.8160768 -0.4888975 0.32305014 0.40387878
000240 58 42 71 3e 55 64 cb bd c9 5c 6f 3e c9 95 d2 be
       0.23560464 -0.09931246 0.23375238 -0.41129902
000250 40 90 d8 3e 1e 2f ef 3e 30 a6 4b be 96 34 4d 3f
       0.42297554 0.46715635 -0.19887614 0.80158365
000260 7f 36 ac bf 13 fc 48 be c0 9c 59 3c dc d6 54 be
       -1.3454131 -0.19627409 0.013282001 -0.20785087
000270 8c cc 27 3f 18 0e df 3d e8 6a 68 3f b1 7c 20 bf
       0.6554649 0.1089136 0.90788126 -0.62690264
000280 7a bd cb 3e dd da 82 be bd 31 bb be 65 32 bb be
       0.39792997 -0.25557604 -0.36561385 -0.36561885
000290 f8 ab b2 be a1 ef ae be f5 f9 eb bc 9a ca 52 3d
       -0.34896827 -0.34167197 -0.028805712 0.051462747
0002a0 75 51 33 3e bb 85 3c be 02 eb 51 bd 75 5b 5b 3e
       0.17511542 -0.18410389 -0.05124951 0.21421607
0002b0 b0 c4 ee be 61 32 cd bf 20 94 5d c0 53 51 75 c0
       -0.46634436 -1.6031 -3.4621658 -3.8330886
0002c0 4b 38 06 3b 7b b1 88 3e 35 7a cc 3e 23 2a 00 be
       0.002048033 0.26697907 0.39936987 -0.12516074
0002d0 83 02 a4 3e fb 2f 1d 3e 32 e3 65 3f 93 aa 1d 3d
       0.32033166 0.15350334 0.897998 0.03849275
0002e0 9e 59 af bd ec aa 2a be 14 9a f0 3d e6 e8 83 3e
       -0.08562015 -0.16666764 0.11748138 0.25763625
0002f0 5c 61 65 be 1e 07 0f be 7b 6b a5 3e 40 d9 e2 be
       -0.22400421 -0.13967559 0.32308564 -0.44306374
000300 f7 db f8 be 28 78 4e bf 2f e5 8e bf 18 0e fc 3d
       -0.4860532 -0.80652094 -1.1163691 0.12307376
000310 59 5d b0 be 73 d7 88 3f b5 d3 79 3b 28 3a aa 3e
       -0.3444622 1.069075 0.0038120572 0.33247495
000320 25 85 92 be 92 ac cb 3d 99 72 f7 3e 09 c4 b5 3e
       -0.28617206 0.099450245 0.4832962 0.35501125
000330 d2 d0 83 3f c4 d6 4d 3e b1 40 ce 3e 71 40 77 bd
       1.0298102 0.20101458 0.4028373 -0.06036419
000340 73 60 ae 3d 7e 0f 50 be 8e cf 5f be 2f c2 d4 bd
       0.0851449 -0.2031841 -0.2185652 -0.103886
000350 5d ac 23 3e 23 43 fa bc 86 17 2c be 37 42 eb bd
       0.1598372 -0.030549591 -0.16805848 -0.11487239
000360 4d fd 9a bc ff b5 71 be 9a 98 0d bd 00 ea 89 3e
       -0.018919611 -0.23604582 -0.03456936 0.2693634
000370 4f bd 6a 3a 83 87 8b be 2e 48 58 be b5 38 f5 3d
       0.0008954601 -0.27251825 -0.21121284 0.11973707
000380 06 8a 16 3f df f8 0c 3d cc 0a 9f 3e cb 04 4b 3f
       0.5880436 0.03441703 0.31062925 0.7930419
000390 4a 1c 61 3f 9b f2 83 3e 53 35 93 bd 87 ff c1 3d
       0.8793379 0.2577103 -0.07187905 0.09472566
0003a0 6c d1 ff 3d 49 82 36 3e 5f e8 f5 3e 02 ea 3f 3c
       0.12491116 0.17823137 0.48028848 0.011713507
0003b0 12 91 05 bf 46 62 4a 3e 15 59 02 bf 22 2a e1 be
       -0.52174485 0.19764051 -0.5091718 -0.43977457
0003c0 bc a6 c1 bd 09 60 1a 3f cb 17 b8 3a 5a 05 cf bd
       -0.0945563 0.6030279 0.0014045177 -0.101084426
0003d0 19 31 4d 3e 98 6f 3c 3e 3d 2d 87 3e 50 44 f6 bc
       0.2003826 0.18401945 0.26401702 -0.03006187
0003e0 aa 9b 83 3f b5 d4 bb bd 3e fc 55 3e a1 0a 7a 3e
       1.028188 -0.0917143 0.20897004 0.24418117
0003f0 59 aa 6b 3b 44 42 be be 24 cc 49 be 39 01 14 be
       0.003595969 -0.37159932 -0.1970678 -0.14453591

head.bias f4 [256]
000000 2f 02 25 3e aa bd c3 be 82 d6 0b 3f 45 58 42 be
       0.16114114 -0.3823064 0.5462419 -0.18978985
000010 2e 98 1d be 6b 00 f8 bd 1a 97 1d 3f ad 84 d9 be
       -0.15390083 -0.12109455 0.6155869 -0.42484036
000020 bf 7a 95 3d e0 f0 b7 be cb c0 20 3d 43 07 4d bf
       0.072988026 -0.3592596 0.03924636 -0.80089206
000030 63 d0 97 3e b8 f0 26 3d 76 15 3f bf 70 04 10 bf
       0.29651174 0.04075691 -0.7464212 -0.5625677
000040 e6 ca 9b 3e 39 b0 35 be 52 fc 67 3e 10 97 f4 be
       0.30428237 -0.17743005 0.22654846 -0.47771502
000050 3c 4f 1f 3f 93 c8 ab 3e eb 10 bf 3d 8d 1d 61 3e
       0.6223028 0.33551463 0.09329399 0.21983929
000060 f1 80 4b be 99 28 3f bf 70 ed f2 3d c3 23 65 be
       -0.19873406 -0.7467132 0.11861694 -0.22376923
000070 2f 44 4f be 6f 2b c2 3e 7b 8d 20 bf 30 5b 46 bf
       -0.20240854 0.37923762 -0.6271588 -0.7748289
000080 be 43 96 be 6f 52 03 bd 69 d5 2e be b9 7e be 3e
       -0.29348558 -0.032061037 -0.17073597 0.37206057
000090 94 8a f4 be 10 32 03 be 6c 03 0a 3f a2 c5 44 3f
       -0.47761977 -0.12812066 0.5391147 0.76864064
0000a0 a0 aa 21 be fc 31 1c 3e 5b 43 ea bd 80 56 20 bf
       -0.15787745 0.15253443 -0.11438628 -0.6263199
0000b0 b9 84 f3 be 15 9a 0f bf 85 e7 2c bd df 36 31 3f
       -0.47562197 -0.56094486 -0.04221298 0.6922435
0000c0 34 fa c5 be 87 0b bf 3e f5 74 52 3e 15 0a 9c bd
       -0.38667452 0.37313482 0.20552428 -0.076191105
0000d0 a5 0f ad 3c 80 0d 0c 3e 25 c8 52 3b 7d fa b9 be
       0.021125624 0.13677025 0.0032162752 -0.3632392
0000e0 c9 d3 fe be b6 3a 40 be 50 1d 61 be bb cd 3c bd
       -0.49770954 -0.18772396 -0.21983838 -0.046094637
0000f0 3d ea d1 3d be 73 73 bd 7d 19 9b 3d 64 f3 e0 bd
       0.102497555 -0.059436552 0.07573221 -0.10983923
000100 81 da c6 3d 1d 43 ba bd b3 65 42 be ec f8 44 3e
       0.09709645 -0.09094832 -0.18984108 0.19235581
000110 1f 43 e2 3e e5 d9 6e bd 9f 15 11 3d f8 41 b9 bc
       0.44191834 -0.05831327 0.03542101 -0.022614464
000120 26 49 f4 be 4e 0b ed bb 03 a1 33 3e 45 61 17 bf
       -0.47712058 -0.0072340136 0.1754189 -0.59132797
000130 1a 24 18 3e cb 32 e1 3e 02 11 4a bf 69 2c 78 3e
       0.14857522 0.43984064 -0.789322 0.24235691
000140 fd 9f 7c 3e 15 ea 1d 3e d6 ab b1 3e 16 f4 3b bf
       0.24670406 0.15421326 0.34701413 -0.7341932
000150 fc 37 ed be fb bd 49 3e 95 be 8a be 1f 80 cb 3d
       -0.46331775 0.19701378 -0.27098528 0.099365465
000160 00 87 bb be 24 32 e2 be 10 01 1a be 66 0b 1a bf
       -0.36626434 -0.4417888 -0.15039468 -0.6017364
000170 4f 29 9f 3e 5a 32 11 3f 85 14 c4 bc 0c 09 e2 bd
       0.31086203 0.56717455 -0.023935566 -0.11036882
000180 6e 04 d0 3e d3 f5 8e be ff a3 c9 3e d7 ed 62 be
       0.4062838 -0.27921924 0.39382932 -0.22161041
000190 83 d5 28 3e 93 82 ea bd 28 e8 7b 3e e6 0a 81 be
       0.16487698 -0.11450686 0.2460028 -0.25203627
0001a0 a5 7e df 3e e6 29 6c bd 95 83 36 bf 77 24 3d be
       0.4365131 -0.057657145 -0.7129453 -0.18470941
0001b0 5a a4 85 be d6 02 e7 bc af 72 13 3e fa db a3 be
       -0.26101953 -0.028199594 0.14399217 -0.32003766
0001c0 9a 80 00 bf e8 6a 3a 3f 3f 14 6c bd 3d c1 86 be
       -0.5019623 0.72819376 -0.057636496 -0.26319304
0001d0 a9 28 19 be 41 6d fa be 2b 5a 12 3e 27 6a 72 3e
       -0.14956917 -0.4891148 0.14292209 0.23673306
0001e0 1b ec 23 bf 0d 84 c4 bd 29 56 7e 3e 4d f2 51 be
       -0.64032143 -0.09595499 0.24837555 -0.20502587
0001f0 de b5 42 3d 2f 59 f5 be 84 b4 2d bd 73 ce fb 3e
       0.047536723 -0.47919604 -0.04240848 0.49180946
000200 16 1f c9 be 1f b9 d1 be 56 00 2b be 9d 08 91 3e
       -0.3928153 -0.4096155 -0.16699347 0.28326884
000210 e4 65 9a 3d 2f 20 c1 bd f4 12 41 bf bc 67 28 3e
       0.07538965 -0.09429967 -0.75419545 0.16445822
000220 e9 37 8d be fd 86 82 be 2e 22 85 bd 6a 4c 94 bc
       -0.2758172 -0.25493613 -0.0650066 -0.018102843
000230 bd b8 e0 3e a7 2c 2a 3c 9b ad b6 bd 34 22 17 bf
       0.43890944 0.0103866225 -0.08919831 -0.59036565
000240 19 ca 8a 3f e3 9b e5 3e ff e1 7a 3d 4b 31 82 3e
       1.0842925 0.44845495 0.061250683 0.25428233
000250 da f7 d0 3e 00 11 06 be 30 83 79 3c 27 cb 17 3e
       0.40814096 -0.13092422 0.015229031 0.1482359
000260 7f 8a 9e be 29 cd 14 3f 3c 98 b6 be f3 4b 95 3e
       -0.3096504 0.5812555 -0.3566302 0.29159507
000270 ef 94 38 bf 73 de d2 3d 7c c8 f1 be ac 89 2d 3e
       -0.72102255 0.10296335 -0.4722327 0.16947049
000280 40 c8 a8 be a1 89 aa be d7 62 30 bf e0 45 93 be
       -0.3296528 -0.33308128 -0.6890082 -0.28764248
000290 a4 bd 12 3e 1b 81 be 3e 15 95 27 3f c0 30 a5 3e
       0.14330155 0.37207875 0.65461856 0.32263756
0002a0 8d bb ae be 62 17 2e bf 37 eb aa 3d 41 5c 3c bd
       -0.34127465 -0.6800443 0.08345645 -0.045986418
0002b0 45 70 f1 be f7 ba 02 be 2d 15 72 3e 7f 8e 82 be
       -0.47155967 -0.12766634 0.2364089 -0.2549934
0002c0 48 a9 0a 3d 21 1d 0e 3d 2c 31 83 bf 62 fe 7a 3e
       0.033852845 0.03469575 -1.0249381 0.24511102
0002d0 61 ee 71 3f aa cc 08 bf 04 3d 25 be c6 06 70 be
       0.9450436 -0.5343729 -0.16136557 -0.23440084
0002e0 2e be 98 bd 6f ee 0a 3f 62 5e 35 bd 79 83 01 bf
       -0.07458149 0.5427007 -0.044279464 -0.50591236
0002f0 7b 88 de be 40 b2 88 3e 51 5f 59 be b4 fd e8 be
       -0.434635 0.26698494 -0.21227767 -0.4550606
000300 36 5c 1c bd 45 f3 aa 3e 64 a7 38 3e 6e 3e 0d bf
       -0.038173877 0.33388725 0.18032604 -0.55173385
000310 46 cf df be ed c7 ea be 4f a7 bf bd 39 8b 92 be
       -0.43712825 -0.45855656 -0.093580835 -0.28621843
000320 d3 76 1a 3c 76 5e ce be dd d8 a8 be dc fc f1 be
       0.009427744 -0.40306443 -0.32977954 -0.4726323
000330 ab e2 66 3e f6 f5 81 3e c0 08 27 3e 17 8a 80 be
       0.22547404 0.25382966 0.16311932 -0.25105354
000340 4f 45 26 bc 80 db 2a be b7 ec 55 3f fa fc 25 3d
       -0.01014836 -0.16685295 0.83564323 0.04052446
000350 9d d9 1a 3f d7 53 d1 3d 9e 82 c7 be 26 b3 07 be
       0.604883 0.10221069 -0.3896684 -0.13251933
000360 62 34 71 bd cc 21 62 3e 3b cf 04 bf cd 3a 94 be
       -0.058887847 0.22083205 -0.5187871 -0.2895111
000370 cb 94 7e be fd 66 92 bd 2b a5 12 3f 61 08 62 3c
       -0.24861448 -0.0714855 0.57283276 0.013795943
000380 25 80 20 be 3b 82 2b 3f 9d 4e ff 3d a7 85 12 bf
       -0.15673883 0.6699559 0.12466166 -0.5723519
000390 62 63 35 3f 09 65 c0 bd 2d 21 44 3f 3f c8 09 be
       0.7085477 -0.09394271 0.7661312 -0.13455294
0003a0 60 9a ad be d6 51 eb 3d 41 a6 14 bf 62 7b 27 3c
       -0.3390684 0.11490218 -0.58066183 0.010222288
0003b0 89 9f 68 be 04 f0 d4 bc c3 07 49 bf 2a 63 b5 be
       -0.22717108 -0.025993355 -0.7852747 -0.3542722
0003c0 3d d4 a5 3e cc 2f 1f bd fb d5 a8 3e 4a ce 93 3d
       0.32388487 -0.038863942 0.32975754 0.07217081
0003d0 d6 40 4a be 66 c6 da 3e b9 06 19 3d 99 ec 83 be
       -0.19751295 0.4272949 0.037359927 -0.25766447
0003e0 06 3d 2d bf 5c bf 9d bc 93 84 10 3f 93 0c 92 3e
       -0.6767124 -0.019256286 0.5645229 0.28525218
0003f0 29 a7 27 be 7f ab ce be 3c 12 a4 be db 30 60 bd
       -0.1637236 -0.40365216 -0.32045162 -0.054734092

cos_embedding.weight f4 [256, 64]
000000 23 f5 5e be 34 51 58 3e c4 25 4e bd 75 5d 24 3e
       -0.217732 0.21124727 -0.050328985 0.16051276
000010 f9 3b d2 be 8d 87 fd bd b7 b1 16 bf 63 50 c2 be
       -0.4106138 -0.1237937 -0.5886492 -0.37951955
000020 41 b0 bc bd f4 d0 a2 3e b4 19 fd 3e 63 91 8c 3e
       -0.09213305 0.31800044 0.49433672 0.2745467
000030 6f 76 4a be 10 82 5c 3d 62 35 73 bd 57 3b e1 3e
       -0.19771741 0.053834975 -0.05937708 0.43990585
000040 b3 5b 07 be 25 3c bf 3e c3 0c 5b 3e 02 5b 14 3e
       -0.13218574 0.37350574 0.21391587 0.14487842
000050 3c a4 52 3d e8 76 db bd 87 4e 9e bc d7 a4 4e 3e
       0.051426157 -0.10716039 -0.019324554 0.20180069
000060 0e ec 82 be b3 85 dd 3d 4c f3 97 be f1 18 89 3d
       -0.2557072 0.10816517 -0.29677808 0.0669421
000070 06 39 ad be 5c 53 0a be db 6c 53 be df 7b 06 be
       -0.33832568 -0.13508362 -0.20646994 -0.1313319
000080 97 de 87 bd c0 6b 0d be 10 79 f7 bd 31 2a ac 3d
       -0.066342525 -0.13810635 -0.12083638 0.08406485
000090 37 9a 0d be a0 f7 1e 3d cd 81 78 be e5 3d b8 3c
       -0.1382836 0.038810372 -0.24268265 0.022490451
0000a0 4f 21 89 bd d6 6a aa bd f6 45 05 bc 8c b6 9d bd
       -0.06695806 -0.083211586 -0.008134356 -0.07700834
0000b0 35 09 b7 bd 88 97 62 bd cc f9 3a be e2 5f a9 bc
       -0.08937303 -0.055320293 -0.18259352 -0.020675603
0000c0 50 c3 78 bd 21 85 c9 bb e8 70 9a bd f2 e1 b9 bd
       -0.06073314 -0.0061499034 -0.075410664 -0.09076299
0000d0 9c af 80 bd 56 b5 25 bd 72 18 d5 bc 2c 30 85 3b
       -0.06283495 -0.04045614 -0.026012633 0.0040645804
0000e0 38 a3 24 3d 58 3b 82 3c 8b c0 b4 bd c4 9b c6 bc
       0.04019472 0.015897438 -0.08825787 -0.024244197
0000f0 68 8d 06 bd be 95 c6 3d 1d f4 11 3d 4e 43 55 3d
       -0.0328497 0.0969653 0.035633195 0.05206614
000100 d3 ee 89 3d bf 9e 04 3f 29 ad 4f ba 02 fa f1 3e
       0.06735005 0.5180473 -0.0007922226 0.47261053
000110 94 f3 e7 bd 49 7d 75 3e 20 b8 fd bc f8 bc 61 3e
       -0.11325756 0.23973574 -0.030971587 0.22044742
000120 19 70 17 be 04 ca 19 3e 1a 99 ab bd 41 cf b3 3d
       -0.14788856 0.15018469 -0.08378811 0.08779765
000130 7e 24 f9 bd e7 93 0d 3c 4e 27 2d be 77 26 c9 3d
       -0.121651635 0.00864122 -0.16909525 0.0982179
000140 1c e5 82 bd c4 25 3f ba d0 dc 49 bd 46 30 ce bc
       -0.063913554 -0.00072916993 -0.04928285 -0.025169503
000150 07 01 7d bd e3 ab 90 bc 39 a0 89 3c f7 49 94 bd
       -0.061768558 -0.017660087 0.016800033 -0.0724067
000160 ad e1 32 bd 7f c7 1e 3b 1f e1 7c bd f2 86 ed 3c
       -0.043672252 0.0024227796 -0.06173813 0.028995011
000170 f4 0e 03 bd 32 91 38 bd ba 88 ec 3b 61 bd 4c bc
       -0.031996682 -0.045060344 0.0072184475 -0.012496323
000180 c4 ec 45 bb 0b e7 aa bb 49 c7 7b bd 5c e4 0a 3d
       -0.0030200938 -0.0052155307 -0.06146935 0.033909187
000190 f1 c9 0b 3b 6a 4b c3 bc 12 7e 54 bd 60 1b e5 bc
       0.0021330083 -0.023839671 -0.051878043 -0.027967155
0001a0 c5 41 f6 3b 5b f0 28 3c 30 cb 75 bc 23 11 4c bd
       0.0075151646 0.010311211 -0.015002057 -0.04982103
0001b0 ec aa f9 39 c8 4b ed bc b2 6c 19 3c 68 d2 de bc
       0.00047620328 -0.0289668 0.009364294 -0.027199939
0001c0 10 6f e7 bc 89 78 c6 3b 5c b6 49 3c fa 98 37 bd
       -0.0282512 0.0060568494 0.012311544 -0.044823624
0001d0 e6 2b f5 bc 4c af 63 bb 07 ef 55 bb e1 ef 1d 3c
       -0.029928159 -0.0034741936 -0.0032643692 0.009639711
0001e0 7b e1 dd bc ea 6b d5 bc 4d 3b b5 bc 6d ea 7d bb
       -0.027085057 -0.026052434 -0.022123003 -0.0038744465
0001f0 cb 83 97 bc af 3f fb bb 4c aa 8a bc 78 cf 89 3c
       -0.018495461 -0.007667504 -0.016926907 0.016822562
000200 28 96 ca bd f3 38 09 bf 55 6c fd bd 54 c1 eb be
       -0.09891921 -0.5360252 -0.12374178 -0.46045935
000210 eb 34 61 bd ac 99 d0 be ae b6 2a be 3b f3 bb be
       -0.054982107 -0.40742242 -0.1667125 -0.36709008
000220 47 87 8c bd cf a9 a8 be 7a fa dd bd ae c9 88 be
       -0.068617396 -0.32942054 -0.1083879 -0.2671637
000230 a6 e7 d6 bd 1d f8 42 be 60 b5 db bd 38 c4 0b be
       -0.10493402 -0.1903996 -0.10727954 -0.1364907
000240 c0 20 9a bd e6 ed a2 bd 2b 2a df bd 1c b6 00 3a
       -0.07525778 -0.07955532 -0.10896715 0.0004909949
000250 76 82 08 bd 47 83 5f 3d d7 f6 a8 3b b6 50 94 3d
       -0.033327542 0.054568555 0.0051563787 0.07241957
000260 7f fb 04 3d 75 25 c5 3d 54 4b 89 3d 35 d0 af 3d
       0.032466408 0.09626285 0.06703821 0.08584634
000270 0c 1b be 3d e8 36 b5 3d 55 61 08 3e 96 97 a2 3d
       0.092825025 0.08848363 0.13318379 0.07939069
000280 1c b7 12 3e a6 b5 87 3d b6 cc 30 3e b8 c3 3a 3d
       0.14327663 0.066264436 0.17265591 0.04559681
000290 a4 7b 45 3e 39 54 41 3d 99 28 50 3e f1 7e 14 3d
       0.19285446 0.04719946 0.20327987 0.036253873
0002a0 4e 62 4e 3e e3 3c 92 3c 16 4a 4d 3e 50 84 0c 3b
       0.20154688 0.017851299 0.20047793 0.002144117
0002b0 da 1e 42 3e cb 70 b6 bc d0 e6 33 3e ca de aa bc
       0.18957081 -0.02227058 0.17568517 -0.020858187
0002c0 ce 45 24 3e ae 67 8d bc 7d 5f 18 3e fb 11 f0 bc
       0.16042253 -0.017261352 0.14880176 -0.029305449
0002d0 2b 6a f5 3d 6b 77 03 bd 5c bd c6 3d a7 ff 16 bd
       0.119831406 -0.032096308 0.09704086 -0.036864903
0002e0 5b 35 92 3d 29 10 11 bd a6 df 7e 3d 3b b1 e2 bc
       0.07139083 -0.035415802 0.062225007 -0.0276724
0002f0 c4 ed f6 3c 53 8d f0 bc 6c 2d a4 3c f9 00 c3 bc
       0.030142672 -0.029364264 0.02004119 -0.023804175
000300 5b 2f 25 3f ac b8 8a bc 2f 62 20 3e 62 2f 61 be
       0.64525384 -0.016933762 0.15662454 -0.21990731
000310 44 2d af 3e 1f 7b 4f be cc 83 d7 be d9 7d e0 bd
       0.34214222 -0.2026181 -0.4209274 -0.109615035
000320 a0 d0 8a 3d 8a c3 14 bc d8 47 b0 be 00 b8 4a 3d
       0.06778073 -0.009079823 -0.34429812 0.049491882
000330 f5 26 d6 bd 43 45 e8 bd de 92 b0 ba 34 45 37 3c
       -0.10456649 -0.113413356 -0.0013471504 0.011185933
000340 65 c4 b8 3d bf 6e 44 be df 76 35 bd f4 91 09 bd
       0.09021834 -0.19182871 -0.044302817 -0.033586457
000350 d2 af b7 3d 2f 11 a5 3d b2 51 56 bc e9 d3 a8 3c
       0.08969082 0.08059918 -0.013081001 0.02060886
000360 70 ff fc 3a 6b d2 bc 3d 22 cf 39 3d 66 1c da 3c
       0.00193022 0.092198215 0.045363553 0.02662487
000370 05 e8 3c bc 4b e2 63 bd d5 e3 12 bd 31 58 8f 3c
       -0.011529927 -0.05563573 -0.03586181 0.017498108
000380 c0 f0 07 bc aa da 8e bd 1a a6 02 bd f0 cc 9e bd
       -0.008297145 -0.069753006 -0.031896688 -0.077539325
000390 6e 7d f0 bd c3 af 20 bd e3 f5 49 bd 36 c6 bc bb
       -0.11742674 -0.03923012 -0.04930676 -0.0057609333
0003a0 fd 90 e9 bd aa 43 61 bd 0f 30 35 bd 18 e8 7e bd
       -0.114046074 -0.05499617 -0.044235285 -0.06223306
0003b0 95 ea 8b bd 9a b5 f9 bb 8b 9b 1c bd 7a bc e3 bd
       -0.06831852 -0.0076205255 -0.038234275 -0.111199334
0003c0 60 d4 4b bd 30 97 6c bc 3f 6e bf bc 30 82 8f bd
       -0.049763083 -0.014440343 -0.023368 -0.07007253
0003d0 0f 4b 64 bd af 97 a8 bc e5 87 07 be c7 f2 f0 bc
       -0.055735644 -0.02058014 -0.13235433 -0.02941264
0003e0 92 bf b0 bd 35 f2 22 3c 81 07 d0 bd ba 51 9a 3b
       -0.08630289 0.009945442 -0.10157681 0.0047094496
0003f0 6e 15 72 bd f1 55 d8 3b 74 3d 67 bd 49 53 c3 3c
       -0.05910247 0.006602042 -0.05645509 0.023843424

cos_embedding.bias f4 [256]
000000 33 b1 60 3f b7 8e 2f 3d 5f c9 bc 3f 8c 28 18 3f
       0.87770385 0.042860713 1.4748954 0.5943687
000010 46 d6 30 40 d5 cf 8c 3f 0c 8e 9c 3e de 0d 02 3f
       2.7630782 1.1000925 0.30577123 0.5080241
000020 05 4a d5 3f 8f 5a 1a 3e b6 a2 86 bc bc 97 7a 3e
       1.6663214 0.15073608 -0.016435008 0.24471945
000030 4b 23 99 3f 11 0d cb bd a3 3a ec 3d 0a 78 9a 3f
       1.1963896 -0.099146016 0.115346216 1.2067883
000040 e3 c1 16 40 2a 04 e6 3e 78 34 ee 3f d8 85 2c 3f
       2.355584 0.44925052 1.8609762 0.6739173
000050 70 2a c4 3f fa d0 0c 40 64 e9 9a 3e b2 d3 e3 3f
       1.5325451 2.200255 0.30256188 1.7798979
000060 db 6a 9b 3e 44 1d 70 3f 48 3a 1e 3d 89 a8 7b 3f
       0.30354962 0.93794656 0.0386298 0.9830404
000070 cf 65 ad 3e 98 92 dc 3f 21 9c 51 3f c7 4d 1e 3f
       0.33866736 1.7232237 0.8187886 0.6183743
000080 6e 49 b8 3f eb 74 33 3f 58 90 ec 3f 01 83 20 3f
       1.4397409 0.7010028 1.848155 0.62699896
000090 e8 2d 51 3e 19 36 79 3f 9b 21 e6 3f d6 bd aa 3f
       0.20427668 0.9734817 1.7979006 1.3339183
0000a0 f3 b2 78 3e 21 99 6b 3e 94 1c d4 3f 4f fa 10 3e
       0.24287014 0.23007633 1.6571221 0.14157985
0000b0 06 a2 28 be b5 59 97 3f 1a ba 0a 40 00 d4 20 40
       -0.16468057 1.1824251 2.1676087 2.5129395
0000c0 7c 75 c9 3f 78 18 fa 3f c1 24 03 3f d5 df bd 3e
       1.5738978 1.9538717 0.51227957 0.37084833
0000d0 ab 52 98 bc d8 a2 bf 3f 85 a4 ab 3f 5b 18 c1 3e
       -0.018594107 1.4971571 1.3409582 0.37713894
0000e0 80 88 7c 3f e5 1b df 3d f1 39 b9 3f 21 47 17 3f
       0.9864578 0.10893992 1.4470807 0.5909291
0000f0 a4 1e 46 3c 38 7a 49 3e 87 e8 5c 3f 14 7e f6 3f
       0.012092266 0.19675529 0.8629231 1.9257226
000100 e6 ed 2c 3f 59 8d 1e 3e 88 3b 90 3f cf 23 91 3f
       0.67550504 0.15483607 1.1268167 1.1339053
000110 d8 b9 92 3f f7 41 b6 3f 58 c4 83 3f 35 09 68 3f
       1.1462965 1.4238881 1.0294294 0.9063905
000120 28 7e ff 3f 27 58 76 3f df 0c 99 3f 0c 57 f8 3d
       1.9960375 0.9622826 1.1957053 0.12125978
000130 38 06 0c 3d 02 a3 ea 3f f8 5d 24 3f d8 a1 9c 3f
       0.03418562 1.8330996 0.64205885 1.2236891
000140 b0 44 b1 3f 90 7b 8e 3c a7 dd 03 40 f9 ed 2f 3e
       1.3849087 0.017392904 2.0604036 0.17180623
000150 f3 11 86 3d 30 60 4c 3f cb e5 c3 3f 4c f7 e7 3e
       0.06546392 0.7983427 1.5304502 0.4530586
000160 29 a4 58 3f e8 b3 ac 3f 3f b1 58 3e 11 43 8b 3f
       0.8462549 1.3492403 0.21161364 1.0879842
000170 5a 73 52 3f 74 19 87 3f 2d 29 80 3d 23 2b e2 3f
       0.8220726 1.0554643 0.06257854 1.7669414
000180 55 fd 01 3f 3d 8d 8a 3f 1a 6a 4e bd 40 db 28 3d
       0.5077718 1.0824353 -0.050394155 0.041224718
000190 7b ff 83 3f 2b da 94 3e cf 22 b9 3f cc 5e 14 3f
       1.0312341 0.290727 1.4463748 0.5795715
0001a0 c2 4d cc 3f 76 d8 f3 bd 2b 00 43 3f 1b 7e f4 3e
       1.596123 -0.11906521 0.7617213 0.4775246
0001b0 1d c5 6a 3e 2a 71 8a 3f 4f c8 fa 3e 9a 53 23 3f
       0.22926755 1.0815785 0.48980948 0.6379944
0001c0 42 7a ca 3e 4c a1 33 3f 3b 4f ce 3f b6 7f 2b 3f
       0.395464 0.70167994 1.6117929 0.66991746
0001d0 b6 8c 62 3f bb 03 40 3e 59 e4 4f 3e 9e 33 bc 3e
       0.8849596 0.18751423 0.20301951 0.3675813
0001e0 9c 16 2f 3d 53 8e c1 3e ad 97 cb 3f 71 d5 f3 3f
       0.04274617 0.37803897 1.5905663 1.9049512
0001f0 6b 30 0e 40 41 5a a3 3f 2e 5c be 3e e5 b4 85 3f
       2.2217052 1.2761918 0.37179703 1.044583
000200 02 41 d5 3e d9 c7 7d 3f 00 04 44 39 e7 94 2a 3f
       0.4165116 0.9913307 0.00018693507 0.66633457
000210 f7 cd a4 3f 85 f3 50 3f 3c ba 1a 40 43 d3 5e bb
       1.2875355 0.8162158 2.4176168 -0.0034000434
000220 7b 70 bf 3f 1d 1d 9d 3e 0c a4 98 3f 52 aa 55 3f
       1.4956201 0.30686274 1.1925063 0.83463013
000230 c7 1e 4d 40 f6 40 b5 3f f4 09 f8 3e 0f d1 f0 3f
       3.2050035 1.416045 0.48445094 1.88138
000240 77 fa c8 3f ab 25 06 40 65 54 ef 3f 8a 7b b3 3f
       1.5701436 2.096049 1.869763 1.4022076
000250 26 53 16 40 30 d4 2c bc 5d 65 2b 40 9d 7d 4d 3f
       2.348825 -0.010548636 2.6780617 0.80269796
000260 a2 ee 83 3e b6 c7 ca 3f 3f 35 3a 3f 4a 4f 63 3f
       0.25768 1.5842197 0.727375 0.8879286
000270 5d bc 08 3e 0e a3 a5 3f bb ef 95 3f 31 77 04 40
       0.13353105 1.2940385 1.1713785 2.0697749
000280 44 5c 39 3f 04 01 a0 3d 67 9a 93 3e ea 01 ba 3e
       0.7240641 0.07812694 0.28828737 0.36329585
000290 7e 74 b4 3f cd dd 32 3f 81 52 f8 3f 86 a0 f8 3e
       1.409805 0.6986969 1.9400178 0.4855997
0002a0 1e 56 b6 3f ff e8 ae 3e 0a a8 6b 3e 10 53 25 3f
       1.4245031 0.34162137 0.2301332 0.6457987
0002b0 3a c0 c2 3f 9d 06 f5 3e 58 8a 2c 40 7c ef 3c 3f
       1.5214913 0.47856608 2.6959438 0.73802924
0002c0 94 05 97 3d b3 76 eb 3f ed 10 80 3f 33 d8 8c 3f
       0.07374111 1.8395599 1.0005165 1.1003479
0002d0 98 45 d4 3f b5 be 77 3f 26 bc bd 3f 87 8a ec 3f
       1.6583738 0.9677537 1.4823043 1.8479775
0002e0 86 53 92 3f 77 92 cb 3e 0e e3 c3 3f 1b 86 e0 3f
       1.1431739 0.3976018 1.5303667 1.7540926
0002f0 ab 59 6f bd fa e7 6b 3f 11 c7 ba 3f 02 3c 80 3f
       -0.058435123 0.92150843 1.4592 1.0018313
000300 e2 3c ad 3f 4e 77 dc 3e 38 3e c1 3f fe 85 95 3f
       1.3534205 0.43059772 1.5097113 1.1681516
000310 ac 15 8e bc 56 17 59 3e cc 47 15 3d 70 6d 48 3c
       -0.017344318 0.21200308 0.036445424 0.012233123
000320 82 b5 1b 40 e3 8a d4 3e 56 bc 87 3f 8d 06 a5 3f
       2.4329534 0.41512212 1.060435 1.2892624
000330 05 04 d1 3f 73 77 ff 3d d2 e1 dd 3f 63 91 ee 3f
       1.6329352 0.12473955 1.733454 1.8638119
000340 20 ce 6c 3c d8 d6 1d 3f 02 6d 59 40 f8 e1 11 3f
       0.014453441 0.6165595 3.3972783 0.56985426
000350 ad 96 3c 40 c9 85 b9 3f 2e c0 b7 3d 9d c5 0b 3f
       2.9466965 1.4493953 0.08972202 0.5459841
000360 25 b3 e5 3e 16 ce 01 3f 35 fe 0e 3f db d3 fc 3f
       0.4486324 0.5070509 0.5585664 1.9752153
000370 70 8d e4 3f a8 0f c6 3d b5 0c 95 3f 92 b7 d9 bd
       1.7855663 0.09670955 1.1644503 -0.106307164
000380 44 c0 47 3e 67 62 85 3f e5 b9 e0 3f 57 29 91 3f
       0.19506937 1.0420655 1.755673 1.1340741
000390 6f a2 d5 3f 7c cf 8d 3f 8c fb 3c 3f bc fb c5 3f
       1.6690196 1.1078944 0.7382133 1.5467448
0003a0 87 81 29 bd 2a c3 58 3f 31 a9 e7 3f f4 d4 94 bc
       -0.041383293 0.84672797 1.8098508 -0.01816795
0003b0 45 35 41 3f 3b 5c 8e bc 97 64 ac 3f 97 c9 d0 3d
       0.7547191 -0.017377963 1.3468198 0.101947
0003c0 59 eb ad 3f 26 78 a8 3f 9a c0 09 40 ab d5 35 3f
       1.3587447 1.3161666 2.1523805 0.71029156
0003d0 c7 53 1e 3f 11 a4 e3 3e 19 22 8e 3f f0 f6 ab 3f
       0.61846584 0.4446111 1.1104156 1.3434734
0003e0 b6 68 cd 3e c2 13 c6 3f 10 fc b0 3f 76 d1 f9 3f
       0.4011895 1.547478 1.3826923 1.9517047
0003f0 04 7e 09 3f 02 cd d3 3d ef e0 c9 3e 2c ea 92 3f
       0.5370791 0.103418365 0.39429423 1.1477714

ff_1.weight f4 [256, 256]
000000 25 29 ca 3e e2 a0 df bd a4 df d3 bd ba c8 56 3c
       0.39484516 -0.10919358 -0.103453904 0.01310938
000010 0e 25 8c bd a3 b1 c8 be 60 39 f3 bc d6 3a 86 bd
       -0.06843005 -0.39198026 -0.029690444 -0.06554191
000020 37 e3 76 3e 51 6c f1 3d 45 c9 01 3e c0 5e 82 bc
       0.24110113 0.11788238 0.12674434 -0.015914321
000030 d5 e5 32 3b 30 07 2f bd 57 bf 36 3d 53 2f 54 bd
       0.0027297635 -0.042731464 0.04461607 -0.051802944
000040 c3 58 a1 3e 62 21 c4 3c 09 d4 10 3d 41 4a 15 3e
       0.31513032 0.0239417 0.035358462 0.14579107
000050 5e cc da 3b 5d b2 be be 52 8a 03 be 79 19 54 3c
       0.0066771945 -0.37245455 -0.12845734 0.012945526
000060 f3 49 22 3d 6f 73 c5 bd 60 15 d7 bc 19 c3 a8 3d
       0.039621305 -0.09641158 -0.02625531 0.08240337
000070 06 1d 59 3d b6 cd 07 bd 97 6a 09 bf aa f5 17 3e
       0.053006195 -0.033155166 -0.5367827 0.14839807
000080 22 39 81 be e0 ab 23 3e 3d 74 f4 bc 53 6c ba 3d
       -0.252389 0.15983534 -0.029840583 0.091026925
000090 57 fe 7e bc 4b 66 54 be b1 12 2c be 63 0b f2 3d
       -0.015563569 -0.20742147 -0.16804005 0.11818578
0000a0 be ea 97 3d f0 03 ed 3c f9 b0 c9 3e f0 50 1a 3d
       0.074178204 0.028932542 0.39392832 0.037674844
0000b0 14 be 39 3e fc 55 ee bd 6d e8 9e bd 57 e2 33 be
       0.18138915 -0.11637494 -0.077591754 -0.1756681
0000c0 a4 4b 29 3e b3 88 80 3e c9 d8 15 3e e6 70 cb 3c
       0.16532761 0.25104293 0.14633478 0.024834108
0000d0 d3 7e 1f ba 35 bb 37 bf 0e 09 0b be 93 25 08 3e
       -0.0006084267 -0.7177003 -0.13577673 0.13295583
0000e0 a2 b2 03 3e 8b 93 38 bd c9 0f 4b be 6e ef d3 3c
       0.12861112 -0.045062583 -0.1983024 0.025871005
0000f0 c5 8d 22 3d a7 74 ac 3c d5 a5 ec 3d d7 cb a2 be
       0.039685983 0.021051718 0.115550674 -0.31796142
000100 5b 50 f8 3d ec 36 8b 3d 96 79 58 3e 53 d0 b2 3d
       0.121247016 0.06797585 0.21140131 0.08731141
000110 62 68 89 be 4b 8b 4e be 17 f3 c7 3c 95 92 08 3e
       -0.2683745 -0.20170324 0.024407906 0.13337167
000120 ab f8 5d be 59 ef 87 3d 9c 95 e6 bd 34 02 fa 3c
       -0.2167689 0.06637449 -0.112590045 0.030518629
000130 b0 16 dd 3c a4 b0 be bf 7b b1 18 3e 28 fe a7 bd
       0.026988357 -1.4897656 0.14911453 -0.08202773
000140 ea 25 98 be 2c ec ce 3c a6 35 2e be 80 7e 4a 3d
       -0.29716426 0.0252591 -0.17012653 0.049437046
000150 0e 88 26 bd a1 9f 8e 3e 74 5a 9b be 13 9a fb 3d
       -0.040657096 0.27856162 -0.30342448 0.12285247
000160 30 5b 08 be f9 da c9 bd 3b 89 45 3e bb 25 82 3e
       -0.13316035 -0.09856219 0.1929063 0.2541941
000170 48 9c c5 3c 68 fc a3 be 97 80 18 3e e1 7f 54 3e
       0.024122372 -0.32028508 0.14892803 0.20751907
000180 d6 5f c3 ba 6c b4 9d 3e b9 de c0 3d 64 13 0a 3e
       -0.0014905881 0.30801713 0.09417481 0.1348396
000190 32 a8 85 bd 4b 7f 63 3c e0 05 34 3e 28 67 58 3e
       -0.06526221 0.0138853295 0.17580366 0.21133101
0001a0 7e 57 5e be 26 33 99 bc 30 05 db 3d e1 15 5f bc
       -0.21713063 -0.018701147 0.10694349 -0.013616056
0001b0 35 80 0b be 62 ab 0b 3e 1d 9e 02 3e 68 e6 8c 3e
       -0.13623126 0.13639596 0.12755628 0.27519536
0001c0 07 8f b0 3d 8c 4d 65 3e 94 12 31 be 32 60 24 be
       0.0862103 0.22392863 -0.17292243 -0.1605232
0001d0 c0 aa 10 be 03 81 d6 3d e7 e0 32 be fa 8f 21 be
       -0.14127636 0.10473826 -0.17468606 -0.15777579
0001e0 64 f7 ad 3d 15 ac 05 3e ef 11 05 3d de ee 8f be
       0.08494452 0.13053925 0.032487806 -0.2811193
0001f0 4f e1 4f bc 69 8c 32 bc 53 e6 a2 3d 98 73 6d be
       -0.012687995 -0.010897734 0.07954087 -0.23188627
000200 26 b7 5f 3d c5 47 a1 3d b0 2c d6 3b 6b 93 0c bc
       0.054618023 0.07875017 0.006536089 -0.008580069
000210 ed 74 74 bd 24 a5 b6 3d 2f 83 38 3e 2a cd 83 3c
       -0.05968182 0.08918217 0.18018793 0.01608904
000220 98 31 56 3e 7f 5f af bd 4b 54 af 3d d4 1c 54 3e
       0.20917356 -0.08563136 0.085609995 0.20714122
000230 58 8c 94 bd 5b 81 80 3e 86 c1 8b 3d 8f 6c 9e 3e
       -0.07253331 0.2509869 0.06824021 0.309422
000240 42 35 54 3d 31 fe 76 be a9 38 db 3d 22 8f 6c bb
       0.051808603 -0.24120404 0.107041664 -0.0036096056
000250 7a fa ad bd 9a 33 76 3d 16 65 8a 3e c7 ca d8 be
       -0.0849504 0.060107805 0.27030247 -0.42342207
000260 a2 05 69 3d 4f b0 8b bd 47 4f 70 3e 5e c0 b2 bd
       0.056890137 -0.068207376 0.23467742 -0.087280974
000270 b0 01 a7 bd e2 cb 25 be 09 fe b0 bf 7a 73 92 3e
       -0.08154619 -0.16191056 -1.3827525 0.28603727
000280 c0 c5 47 be be 53 21 3e 43 b3 61 3e 64 df ea bd
       -0.1950903 0.15754601 0.22041039 -0.1146839
000290 e3 9d dd 3c a8 67 89 be ae 34 91 be 14 8b 91 3d
       0.027052825 -0.26836896 -0.28360504 0.07106605
0002a0 08 3b 46 3e a7 52 46 3d 97 d3 17 bc 45 01 0e be
       0.19358456 0.048418667 -0.009266756 -0.13867672
0002b0 22 fc a1 3d c9 2f 18 3c 08 6f 62 3d 63 5e 3a bf
       0.07909419 0.009288737 0.05528167 -0.7280027
0002c0 16 94 07 3d 41 5b eb bd 0d 69 9e bd f0 f8 0d 3c
       0.03310021 -0.11492015 -0.077348806 0.008665308
0002d0 45 fb b0 3d 78 5c 7b be a8 bb 07 bf da ea e4 bd
       0.08641676 -0.24546993 -0.53020716 -0.11177607
0002e0 52 61 c1 3e d4 18 2c be ab 13 ab bb 46 d0 81 3e
       0.37769562 -0.16806346 -0.0052208505 0.25354213
0002f0 50 09 23 be be 8b 2b be 4d f5 d8 bd e0 eb 0e 3e
       -0.15921521 -0.16752526 -0.105936624 0.13957167
000300 b8 d6 73 bd 7d 83 26 3e 2a 2c ae 3c 09 c6 c2 bc
       -0.059530944 0.16261096 0.021261293 -0.023776071
000310 14 3a 6f bd a6 9a 07 3d b0 f5 7c bd ca d2 a0 3d
       -0.058404997 0.03310647 -0.061757743 0.07852705
000320 df 62 8c 3d 72 a1 e9 3d 7d de ff 3d 9c 51 26 3d
       0.06854796 0.114077464 0.12493608 0.040605173
000330 4a 2b b3 3e fb 6c 4f bd 4c 0f 53 be f6 0c 1b be
       0.34993964 -0.05064104 -0.20611304 -0.15141663
000340 18 94 57 3d 8f 0a e9 bd 20 0a 66 be 8f 24 4a 3e
       0.052631468 -0.11378967 -0.224648 0.19740508
000350 3a 0d 0b 3e 10 4d 53 3b 1d 5a 88 bc 1e 29 83 bc
       0.13579264 0.0032241978 -0.016644532 -0.016010817
000360 34 6b fa 3d c5 9c 2e 3c 50 c1 8d bc 43 dc ab bd
       0.122274786 0.010657494 -0.017304093 -0.08391621
000370 c6 18 a6 3d d4 50 58 bd c8 83 64 3c a0 80 20 bd
       0.08110194 -0.05281146 0.013947435 -0.039185166
000380 3e 09 9d 3d 7e 14 05 3e a6 3c 6e be 55 80 9d bd
       0.076677784 0.12996098 -0.23265323 -0.07690493
000390 94 5a b9 3d f1 0a b9 bd d6 cd 86 3e ab 19 c9 bf
       0.090504795 -0.0903529 0.26328915 -1.5710958
0003a0 06 d9 aa 3d 52 bb 2f 3e 5e f6 80 be db f5 60 bd
       0.08342175 0.17161301 -0.25187963 -0.054921966
0003b0 c2 28 33 3e 9a f1 e2 3b 83 ea f7 bd ed 0f 98 3b
       0.17496017 0.006925774 -0.121052764 0.0046405704
0003c0 30 6d 5d be a5 41 33 bd c1 a3 89 bf 64 ca 79 3e
       -0.21623683 -0.043763775 -1.0753099 0.24393612
0003d0 47 d3 ee bd 79 55 b6 3c 31 a1 9f bd a6 64 0c 3e
       -0.11661392 0.022257553 -0.07794417 0.1371027
0003e0 14 55 9f 3d 74 35 35 3e b5 31 17 3e df ca fa bd
       0.07779899 0.17696172 0.14765055 -0.12245726
0003f0 59 1a 3b 3e fd af b3 3d 9e 31 0d 3e 44 d6 0c be
       0.1827177 0.087738015 0.13788459 -0.13753611

ff_1.bias f4 [256]
000000 4b 93 af 3d ae d5 a8 bd fd fa b5 bd 14 19 09 3e
       0.08573016 -0.08243881 -0.08885763 0.13388473
000010 18 7a 17 bf 5e 84 26 bf ab 65 7e 3d 20 10 08 be
       -0.59170675 -0.65045726 0.062108677 -0.13287401
000020 67 04 aa 3d e9 7d 29 be 08 7b 47 be 6f 7a 6f be
       0.08301621 -0.16551937 -0.19480526 -0.23386548
000030 d4 06 cb 3d d0 29 59 3d 32 cb 8b 3d 61 b7 15 be
       0.09913412 0.05301839 0.06825866 -0.14620735
000040 e6 be 09 be 8d 0b 86 3d c1 4b dd 3d d9 73 6a bc
       -0.13451728 0.06545172 0.108054645 -0.014309847
000050 7f 31 aa be a0 e4 a7 3e 07 dd 6f 3e 61 2d f8 bd
       -0.33240888 0.32791615 0.23424159 -0.1211803
000060 eb 3c 99 bc 81 fa a2 3d b2 55 99 be d8 d5 00 be
       -0.018705806 0.07957936 -0.29948193 -0.12581575
000070 5e 5f 4b 3d 9a cc 0f 3e 7f 97 2d 3d da 0c 37 3d
       0.049651496 0.14042893 0.042380806 0.04468999
000080 09 a8 d2 bc 85 45 b2 bd c5 96 67 3d 18 59 94 be
       -0.025714891 -0.08704666 0.05654027 -0.28974223
000090 cb 1d 32 3e 51 bf 9f 3e 1b 00 a4 bd e1 75 af be
       0.17394178 0.3120065 -0.080078326 -0.34269622
0000a0 55 a9 30 bd 1e 3b ab bd 13 5e cc be c8 80 70 be
       -0.043130238 -0.08360885 -0.39915523 -0.23486626
0000b0 c4 31 9c bd fa 3e 0d 3e 86 0f ba 3d e1 60 3c be
       -0.076266795 0.13793555 0.09084992 -0.18396331
0000c0 66 64 29 3e 57 0a a1 bc f2 65 e2 3d 76 dd 1d be
       0.16542205 -0.01965825 0.11054601 -0.15416512
0000d0 8c 97 84 be b8 c6 1e 3c 4f 34 b0 bd 54 a4 82 be
       -0.2589687 0.009690933 -0.08603727 -0.25515997
0000e0 af be f9 3d 10 fc 37 3e 5d f7 95 3d 40 ae 4e bc
       0.12194573 0.17967248 0.073225714 -0.012614787
0000f0 86 11 fc bc 87 f8 65 3d 7b 1c af 3d ae b9 23 bc
       -0.030770075 0.056145217 0.08550354 -0.009993
000100 81 0a c0 3d 85 f7 64 3e 7a 0a f8 bd f3 d7 9d 3d
       0.093770035 0.22360046 -0.12111373 0.07707205
000110 83 84 7c 3d 16 fa 17 3e 7c 3c e9 3d 6d e8 9c 3e
       0.06164981 0.14841494 0.113884896 0.30646077
000120 97 ed e4 be 9c 93 f8 3d 4b e8 3a be 34 bb 3c be
       -0.44712517 0.12137529 -0.18252675 -0.18430787
000130 96 3b 84 bd 55 4c 8f 3e 8f c7 51 bd 0f 6c 95 be
       -0.064566776 0.27987924 -0.051215705 -0.29184005
000140 86 56 3c 3c 99 25 87 bd f9 0a 30 3a 82 68 02 bf
       0.011495238 -0.06598968 0.0006715502 -0.50940716
000150 3a f0 fc bc 40 e4 44 3e e1 59 02 bd 9c 78 57 3e
       -0.030876268 0.19227695 -0.031823996 0.21042103
000160 20 8f 3a bc 22 02 89 3d 7b d1 d3 bc b2 81 6a 3d
       -0.011386663 0.0668986 -0.025856724 0.057252593
000170 79 a0 26 3e 68 5e a2 be 2f a4 79 be 2d 96 01 3e
       0.16272153 -0.3171265 -0.24379037 0.12654944
000180 4f 77 04 be 31 68 8c be fb ad 58 be 7f 8f 0e be
       -0.12936138 -0.27423242 -0.21160118 -0.13921927
000190 a5 8d 0c 3e cd 6e 0c be c3 ac 38 3e ed 96 ce bd
       0.13725908 -0.13714142 0.18034653 -0.100873806
0001a0 b6 40 b6 bd 5f f0 b5 3c 86 cb 15 3e 04 c3 1e be
       -0.088990614 0.022209344 0.1462842 -0.1550408
0001b0 f4 ff 81 be 9e 3b 1e be de cb 2b 3e f4 ea 9d be
       -0.2539059 -0.1545243 0.16776988 -0.30843318
0001c0 c8 f4 bc bd 83 35 48 3e b4 4f 12 3e 7f 5a d5 3c
       -0.09226376 0.19551663 0.14288217 0.026044128
0001d0 20 f8 53 3e 2c cf 88 bd bf 1d 7f bd 32 b0 cd 3c
       0.20700121 -0.0668014 -0.062284227 0.02510843
0001e0 e6 f2 d8 3d ec 28 db 3d f6 b5 0c 3e 58 fd c7 bd
       0.10593204 0.107011646 0.13741288 -0.09765118
0001f0 87 4b c5 be 10 ac cd bd b0 42 ce 3d 11 4e 3b 3e
       -0.38534185 -0.10042584 0.100713134 0.18291499
000200 bc 9c f4 3d 8d 37 fa 3c 19 40 bb be 96 0a a2 3c
       0.11943957 0.030544067 -0.3657234 0.019780438
000210 fe d6 ac be 8e 97 1e bd bb f0 a4 3d 9e d5 2f bc
       -0.33757776 -0.038718753 0.08053728 -0.010732083
000220 ee 31 de bc 3f a3 de bc 78 ae cc 3d 8a 1a dd bd
       -0.027123418 -0.027177451 0.09994215 -0.107960775
000230 97 b0 07 be a5 8e 6f bd dd 78 9a 3d 9a e0 0a be
       -0.13250957 -0.058485646 0.07542584 -0.13562241
000240 76 a7 5e bd 75 f6 ce 3d a4 c9 2b 3d 74 cd 87 be
       -0.054358922 0.10105602 0.041940346 -0.26523936
000250 12 8d 67 be e5 7b 59 bd f9 41 09 bd 75 82 02 3e
       -0.22612408 -0.05309667 -0.033510182 0.12745078
000260 e4 0c 45 be 93 72 8f be df 87 39 3e a5 58 f5 3d
       -0.19243199 -0.280171 0.18118237 0.11979798
000270 51 f7 45 be 04 3c 52 3e 7c da 88 3b 19 4c bc bc
       -0.19332625 0.20530707 0.004176436 -0.022985505
000280 e1 a0 4f 3e 26 61 60 3e 68 f4 42 3e 74 d6 95 be
       0.20276214 0.21912059 0.19038546 -0.29265177
000290 e7 bc 4d 3a 45 c4 2e 3e 66 bb 99 3d 59 1e 1c 3e
       0.0007848278 0.17067058 0.075064465 0.15245952
0002a0 2c 4f fe bd 29 d6 ca 3d 8c d6 85 3d ca 1a c6 bd
       -0.124174446 0.09904129 0.06535062 -0.09673078
0002b0 b1 d8 b4 be 36 d8 01 3e 04 01 38 3e 04 4e 13 3e
       -0.35321572 0.12680134 0.17969137 0.1438523
0002c0 37 f2 11 3d 5f be d6 bb f7 22 de 3d e3 6d cb bd
       0.035631385 -0.0065534557 0.10846513 -0.099330686
0002d0 91 30 8c be ab 1a ef bd 68 b0 9f 3d 72 ca f9 3c
       -0.27380803 -0.116750084 0.07797319 0.030492041
0002e0 21 5b 06 3e de f2 86 3e 84 d4 56 bd 78 28 2c be
       0.131207 0.26357168 -0.052448764 -0.16812313
0002f0 84 21 e4 3d 48 84 cb 3d c0 a3 c5 3d b5 b4 e0 bd
       0.11139205 0.0993734 0.096503735 -0.10971967
000300 87 10 7f 3e 49 d4 27 3e da bb a0 3b 38 d7 ae 3d
       0.24908648 0.16389574 0.004905206 0.085371435
000310 69 a3 35 3d ab cf 8c 3d 06 20 22 3e 15 2f b8 bd
       0.044345293 0.06875547 0.15832528 -0.08993355
000320 5a 2e 3b 3d 88 06 e1 3d 26 95 f0 bc 28 e3 82 3e
       0.0456985 0.10987574 -0.029367995 0.2556393
000330 11 c7 1b bd 5d 8c 08 bd 8b e0 07 3e bb d7 ae be
       -0.03803164 -0.033336986 0.1326925 -0.34148964
000340 dd 81 78 3d ae b1 39 3e ef df 38 3e 82 88 20 bc
       0.060670722 0.18134186 0.18054174 -0.009798171
000350 db 9e 92 3e 8d 40 ab be 7f 16 4b 3d 60 3a 14 be
       0.28636822 -0.33447686 0.049582 -0.14475393
000360 81 cc 13 3e bf af a6 3d bb d6 5e 3e fc b8 e9 3d
       0.14433481 0.0813899 0.217616 0.11412236
000370 8b dc b2 3d 95 05 4c 3e f2 06 81 bd d4 7d 77 be
       0.087334715 0.19924004 -0.06300153 -0.24169093
000380 00 6b 94 be 89 76 5f ba 51 08 0d 3e 42 02 6e be
       -0.28987885 -0.0008524438 0.13772704 -0.23243049
000390 8c 84 d3 bd 00 6b 39 3e 95 f5 f5 3b d1 a1 23 bf
       -0.10328016 0.18107224 0.0075060823 -0.6391879
0003a0 d1 28 17 3e 5e fd 95 3e 0c 7a 0a 3e 89 04 11 3d
       0.14761664 0.29294866 0.1352312 0.035404716
0003b0 51 91 1a 3e 83 ae 4e be 6c f9 44 bd 4c 84 5c be
       0.15094496 -0.20183758 -0.04808943 -0.21534842
0003c0 33 7c 4e 3e 4c 57 a6 3d 3c be 19 bd f4 c8 6e be
       0.20164566 0.08122119 -0.037534937 -0.23318845
0003d0 be 6a 2b 3e ef b2 cf bd f2 23 41 bc 0d d4 10 3c
       0.16739938 -0.10141551 -0.011788355 0.008839619
0003e0 69 ec 83 bd 0a 0d 39 be 96 ba 47 bd 17 1e 0b be
       -0.06441576 -0.1807138 -0.048761927 -0.13585697
0003f0 34 5d 75 3d 6a 87 dc 3d 4d 3e 68 3d 6b b4 47 3c
       0.05990334 0.10768016 0.05670004 0.012189011

ff_2.weight f4 [1, 256]
000000 e9 04 af 3e 25 48 77 3f f2 f3 63 bf 2a e6 f7 3e
       0.34183434 0.9659446 -0.89044106 0.4841779
000010 be 2c f1 bf 94 6c 00 c0 45 64 1f 3f 9a c3 ce 3f
       -1.8841779 -2.006627 0.62262374 1.6153443
000020 f7 1b 6d 3f b1 f2 05 40 94 33 e6 3f 47 bb ae 3f
       0.92620796 2.0929377 1.798449 1.3650903
000030 ff 69 25 3f 94 3c c9 3e d5 6e 65 bf f6 5a 15 3f
       0.6461486 0.3930403 -0.8962224 0.5834192
000040 a2 cb 84 bf a7 b4 b0 3e f4 08 2b 3f f0 ad cc 3f
       -1.0374644 0.34512827 0.66810536 1.5990582
000050 4f 65 ab 3f 15 e0 89 bf 5c fd 9a bf 30 64 1d bf
       1.3390292 -1.077151 -1.2108569 -0.61481
000060 c7 a4 3f bf 76 4a c4 3e 0c e1 64 bf a2 56 66 bf
       -0.74860805 0.3833806 -0.89405894 -0.8997594
000070 66 c0 29 3e 95 9c 2f bf 86 45 b9 bf f6 5b 2f 3f
       0.165773 -0.685983 -1.4474342 0.68499696
000080 85 33 96 3f bc c2 3d 3f 93 ff 1f 3f be ac 34 bf
       1.1734473 0.74125266 0.6249935 -0.70576084
000090 28 0d 98 3f df 86 80 3e 87 2b a8 3f 24 69 5d bf
       1.1879015 0.25102898 1.3138283 -0.86488557
0000a0 f4 ee 4b 3f d5 cb 63 bf cd b4 54 bf d8 84 74 bf
       0.7966149 -0.889829 -0.8308838 -0.95515203
0000b0 15 56 21 3f 71 78 99 3e cc de ca 3e d3 16 1a bf
       0.63021976 0.29974702 0.39623106 -0.60191077
0000c0 6d dc 1a bf 8d d9 b9 3f 1b de 24 3e ef a6 e4 be
       -0.60492593 1.4519516 0.16100352 -0.4465861
0000d0 ae e5 df 3f 70 3d 04 3f 01 65 a7 3f 5b 6c a4 bf
       1.7491968 0.51656246 1.3077699 -1.2845567
0000e0 7b cf d9 3f 15 46 cb 3e f4 59 6c 3f c2 d9 49 3e
       1.7016443 0.39701906 0.9232476 0.19711974
0000f0 55 3c a4 3f 24 3d bc 3f 1a 5f 37 bf e7 be aa 3f
       1.2830912 1.4706159 -0.7162949 1.3339509
000100 dc e7 ca 3e 04 26 d9 3e 3e 85 58 bf 1a a3 2e 3e
       0.3963002 0.42411816 -0.8457831 0.17054406
000110 68 2a ee 3e 8f 15 28 bf 85 12 94 3e ef cb 6b bf
       0.46516728 -0.65657896 0.2892038 -0.9210805
000120 17 dd 07 40 1f 2f 43 bf 85 40 fc be 50 f8 92 be
       2.1228693 -0.76243776 -0.49267974 -0.28705072
000130 ed 18 56 bf 91 47 c7 bf c1 72 6e bf f0 5e fe 3f
       -0.83631784 -1.5568715 -0.9314385 1.9872723
000140 f6 af 1a bf fe 04 71 3f 91 de 16 3f d9 92 12 c0
       -0.60424745 0.9414824 0.5893336 -2.2902129
000150 00 19 53 bf c7 20 88 bf 36 13 c6 3f b4 21 49 bf
       -0.8246002 -1.0635003 1.5474613 -0.7856705
000160 3f 04 67 3f 14 3e 4d bf f8 48 a7 3f f9 89 9a bf
       0.90240854 -0.8017285 1.3069143 -1.2073356
000170 5a 33 79 3f 1a b2 82 bf b2 5e 98 3f 4d 2b 6a bf
       0.9734398 -1.0210602 1.1903899 -0.9147232
000180 48 28 85 bf 70 2a ae bf cf b3 6b bf fe 74 e0 be
       -1.0402918 -1.3606701 -0.9207124 -0.43839258
000190 08 55 98 3f ba 3e eb be a6 c7 8a bf 6e 0f 5d 3f
       1.190095 -0.45946294 -1.0842178 0.8635167
0001a0 3d ea 65 bf 66 24 6b bf 2e 48 66 bf cb aa 94 bf
       -0.89810544 -0.91852415 -0.8995389 -1.1614622
0001b0 16 d7 31 bf 5c 1a 6d bf 0f c7 15 3f 39 32 cf bf
       -0.6946882 -0.92618346 0.58506864 -1.6187202
0001c0 ed 6f ad be 16 3a 83 3e c9 db 3a 3f 9d 76 10 40
       -0.33874455 0.25630254 0.72991616 2.2572396
0001d0 75 81 9d 3f 67 1d 97 be fc 5d e4 3e c2 7c cf be
       1.2305132 -0.2951462 0.44602954 -0.4052487
0001e0 f8 c2 51 bf fc b0 27 3f 57 c9 2a 3f 93 44 31 bf
       -0.81938124 0.6550443 0.6671347 -0.6924526
0001f0 4f a9 32 bf 04 3f 41 bf 3d d3 ff 3e fa 2b 13 bf
       -0.69789594 -0.7548678 0.4996585 -0.5748898
000200 36 52 e2 be a5 34 3a 3f ea d3 de 3f ef b1 7c bf
       -0.44203347 0.7273658 1.7408421 -0.98709005
000210 96 a6 01 40 db 2e 14 bf fc 4f d9 3e cc dd 21 bf
       2.0257926 -0.57883996 0.42443836 -0.6322906
000220 9c c7 cf bf 6d a8 82 3f 57 05 5a 3f b4 4b 91 bf
       -1.6232791 1.020765 0.851644 -1.1351228
000230 2b 93 84 bf d2 31 2d bf 4d 02 01 3f 7b f6 9d 3f
       -1.0357412 -0.67654145 0.50394136 1.2340845
000240 10 51 14 3e f1 75 23 3f 46 28 0c 3f ce 1b 16 bf
       0.14484048 0.6385184 0.5474895 -0.58636177
000250 d1 6f 0a bf b3 7d 57 3f 00 f8 0c bf a4 d3 4a 3f
       -0.5407687 0.84176177 -0.5506592 0.7922919
000260 8b da f8 3f 67 1a d8 bf 08 42 82 3f db dc 06 bf
       1.9441694 -1.6883057 1.0176401 -0.5268075
000270 56 d9 5d bf a0 0b 6a 3e 35 e1 74 bf a1 bb be 3f
       -0.86659753 0.22855997 -0.9565614 1.490101
000280 3d 35 df bf 6d 36 11 bf fa 4d 3c bf a9 ba b8 3f
       -1.7438122 -0.5672367 -0.7355648 1.4431964
000290 fb 30 3e 3f 2a cc ef be 4d 52 a3 3e 55 5b 30 bf
       0.7429349 -0.46835452 0.31898728 -0.6888936
0002a0 39 58 15 bf 2b be a7 3e 2c 8b 97 3e ea a7 93 bf
       -0.5833774 0.32762274 0.29598367 -1.1535618
0002b0 ef 40 c6 3f fe 82 54 bf f5 cb 04 bf 59 01 a4 3e
       1.5488566 -0.8301238 -0.51873714 0.32032278
0002c0 e2 54 88 3e 84 d7 09 3f 6b 9b b3 3e f8 40 ce 3f
       0.2662726 0.53844476 0.35079512 1.6113577
0002d0 38 a1 07 40 29 5b 70 3f 33 c0 a6 3e b8 85 35 3f
       2.119215 0.938891 0.3256851 0.70907164
0002e0 79 76 44 bf 21 e6 ae bf 82 12 4f bf 02 3e c6 3f
       -0.76743275 -1.366398 -0.80887616 1.5487673
0002f0 b5 40 16 3f 8d 32 4c 3f 07 f2 be 3e 35 b9 6c 3f
       0.58692485 0.79764634 0.37294027 0.92470104
000300 35 85 6d 3e 8a a0 70 3e 33 2d 01 3f 1b 77 67 bf
       0.23195346 0.23498741 0.50459594 -0.90416116
000310 c5 e9 25 3f 57 c8 30 bf cd 5b ca 3e 9b ad bb bf
       0.6480983 -0.69055694 0.39523163 -1.4662355
000320 10 69 db be 34 41 5e bf b4 2d 3b bf 8d b0 77 3e
       -0.42853594 -0.8681824 -0.7311661 0.24188443
000330 5e 4b ad be a7 14 e4 3e e8 14 3c bf 8c da 0c 40
       -0.33846563 0.44547006 -0.734694 2.200839
000340 86 6a 14 bf 1e 7a 75 bf 6c df 65 3e 03 9a 4a 3f
       -0.5797504 -0.9588946 0.2244851 0.79141253
000350 12 7f 8a 3e b4 a4 c8 3f 37 b6 3c bf 75 71 a2 3f
       0.27050072 1.5675263 -0.7371554 1.2690874
000360 6c 6d f3 3e b7 d9 59 bf b0 5f ae 3f 5d 51 e1 3e
       0.4754442 -0.8509783 1.3622952 0.44007388
000370 55 2d 90 3e 1f fc ee be fe 79 76 bf 46 44 63 bf
       0.28159586 -0.46676728 -0.96279895 -0.8877605
000380 e0 65 17 40 be 64 22 3f 58 21 b8 3f fa cb de 3f
       2.365593 0.6343497 1.4385176 1.7405999
000390 25 9f 6b 3f f5 88 a4 bf a6 1e 50 bf 93 d3 38 40
       0.9203971 -1.2854296 -0.81296766 2.8879135
0003a0 9a 23 42 3f 43 23 fc bf 13 57 0e 3f d2 55 78 3f
       0.75835574 -1.9698261 0.55601615 0.9700595
0003b0 2d 2e 3c 3f 2b 8f ef 3f f5 d8 38 3f f0 9d fa 3f
       0.7350796 1.8715566 0.7220605 1.9579449
0003c0 49 c9 79 3e f7 7e 87 3f 3a 47 8f bf f3 50 56 bf
       0.2439319 1.0585622 -1.1193612 -0.8371727
0003d0 b5 71 9b 3f 88 f5 1b bf ca e5 46 bf 27 7d 57 3f
       1.2144076 -0.60921526 -0.7769438 0.8417534
0003e0 e5 f9 4d bf 37 aa 40 bf 10 48 2e bf 36 38 ad bf
       -0.80459434 -0.7525973 -0.6807871 -1.3532779
0003f0 4c fa c1 3e b3 71 24 bf ce 4e cd 3e 75 ff 1b 3f
       0.37886274 -0.6423599 0.40099186 0.6093667
