runs/checkpoint_actor_256_192021_tau1_420.pth (torch, 288535 bytes, 6 tensors)

fc1.weight f4 [256, 19]
000000 0a e0 49 bd 60 0e f1 3b 5c bd 6b bd 0e 33 4f bd
       -0.049285926 0.00735645 -0.057553634 -0.0505858
000010 30 24 b9 bc 50 3e 61 bd 70 7f 58 bc 78 9c 70 bc
       -0.022600263 -0.054991066 -0.013213977 -0.014685743
000020 86 1b 54 bd 68 50 06 bd 70 01 bd 3b 98 fa be 3c
       -0.05178406 -0.032791525 0.0057679936 0.023312852
000030 84 69 2b bd 28 2b 2f 3c 00 32 60 3d 98 ce 6a bc
       -0.041848674 0.010691442 0.054735184 -0.014331482
000040 2c 79 9b 3c d8 41 4d 3c 00 67 13 bb 9a a0 01 3d
       0.018978678 0.012527905 -0.0022491813 0.031647302
000050 18 04 db bd 38 84 57 3e f2 47 e5 bd eb d5 2f bb
       -0.1069414 0.21046531 -0.11195363 -0.0026830386
000060 9a 2e 51 3e 23 fd 06 3e 2f ab 02 be 36 87 ab be
       0.20427933 0.13182501 -0.12760614 -0.33501595
000070 15 9b 9a be 9c 16 31 be ae 53 1e be 4d 18 99 bd
       -0.30196443 -0.17293781 -0.15461609 -0.07475338
000080 ff 57 0a 3c f8 44 a9 3c c5 fe d1 be 00 52 10 be
       0.0084438315 0.02066277 -0.41014686 -0.1409378
000090 bb 0e 91 be 16 6d 97 be c0 ac 9a ba 09 0e 92 3d
       -0.2833155 -0.29575413 -0.0011800751 0.07131583
0000a0 61 79 d0 3d 5a 6b 55 3d 83 12 18 be fe c4 35 be
       0.10179401 0.05210433 -0.14850812 -0.17750928
0000b0 cd b2 23 3f d8 38 28 bf a6 69 cd be d7 0a 97 be
       0.63944703 -0.65711737 -0.40119666 -0.29500458
0000c0 7f 77 2a be 8a f9 09 be 9d 88 86 bd 7e 06 1d 3e
       -0.16647147 -0.13474098 -0.06569026 0.15334508
0000d0 a3 30 09 be db d6 64 3e e8 73 44 bf 3e b5 29 bf
       -0.1339746 0.22347586 -0.7673936 -0.6629218
0000e0 ef 9c bd be 1e c6 0c bc 5d ee a6 bd 2e af b5 bd
       -0.37033793 -0.008592157 -0.08150933 -0.088713035
0000f0 a1 32 20 be b7 8a b3 be f0 a1 bf 3e a0 3b 96 3e
       -0.15644313 -0.3506677 0.37428236 0.29342365
000100 27 83 92 bf d7 2a 99 bf 42 2f 93 bf 1a af 5f be
       -1.1446275 -1.1966199 -1.1498797 -0.2184414
000110 4c 78 5b be 4d f4 31 be f2 8f 6c bd 66 e9 fd bd
       -0.21432608 -0.1737835 -0.057754464 -0.12398033
000120 f2 c9 8f be 5e ec 43 3e 10 1d 84 3d ef 67 67 3e
       -0.2808376 0.19133136 0.06450856 0.22598241
000130 3d e0 6e 38 a7 60 45 3e f8 be ac bd a9 ae 07 bd
       5.695246e-05 0.19275151 -0.08434862 -0.033125553
000140 1a e1 7e 3e 2a f7 16 bf 98 68 d8 bc d5 a3 9a bd
       0.24890557 -0.5897089 -0.026417062 -0.0755078
000150 c9 f6 fd 3c bb cc 81 bd 8a 93 54 3d c6 6a b1 3b
       0.031001465 -0.06337877 0.051898517 0.0054143397
000160 fa 36 1c 3d 5f f9 ee 3d 12 40 5c 3e e3 2b e7 bd
       0.038138367 0.116686575 0.21508816 -0.112876676
000170 05 29 6c be e9 64 03 bd b6 ce 83 bd 2b 70 ef bb
       -0.23062523 -0.032078657 -0.06435911 -0.0073070726
000180 0c 9e d9 3c 30 26 1d be fd 5b 26 bc 4e 31 a8 be
       0.02656462 -0.15346599 -0.010153768 -0.32850116
000190 ad d7 60 be 30 71 54 3f 88 ac b0 3e 7d 6f a5 3e
       -0.21957274 0.8298521 0.3450663 0.3231162
0001a0 c5 76 bf 3e ba 0b 5b be 3a 7d 5d be 09 61 1c be
       0.373953 -0.21391192 -0.21629801 -0.15271391
0001b0 2c 6b 24 bd 30 71 9a be 3a f1 12 be 21 ae 11 be
       -0.04014127 -0.3016448 -0.14349833 -0.14226581
0001c0 60 68 15 3e df 33 40 3e f7 4b a4 bd 26 96 8f bd
       0.14590597 0.18769787 -0.08022302 -0.070110604
0001d0 8c 3f 09 bd d7 3a d0 3c a5 cd c8 3c 11 7e aa bd
       -0.03350787 0.025418682 0.024512121 -0.083248265
0001e0 aa ce bb 3c 4d 15 e5 bc 11 10 fe bc 37 d1 97 3d
       0.022925694 -0.027964259 -0.03101352 0.074129514
0001f0 c2 3e 2d bd bc 28 71 bd 80 d6 2d 3a 77 9a 39 bd
       -0.04229618 -0.058876738 0.0006631389 -0.045313325
000200 ac 41 ee bc 45 4b 85 3d a1 5f 7c bc 5c e1 8a bd
       -0.02908405 0.06508497 -0.015403659 -0.06781265
000210 8f 32 55 bd c0 88 a8 39 c4 22 fa 3d d4 13 1b bd
       -0.05205017 0.00032145344 0.12213662 -0.037860706
000220 5b 89 1f be e7 f9 19 bf 60 8b 38 3d 05 5a 21 bf
       -0.1557974 -0.60146946 0.045054793 -0.63027984
000230 08 11 df be d6 34 05 bf 71 09 09 bf 12 83 dc 3d
       -0.4356768 -0.52033746 -0.5353003 0.10767187
000240 1e 2a d2 3d 5f 15 8e 3d f0 8a 8e 3d d2 98 db 3d
       0.102619395 0.0693767 0.06960094 0.107225075
000250 e5 c0 9d 3e 62 b3 f0 be 0e bf 30 bf b4 11 8f be
       0.3081123 -0.47011858 -0.69041526 -0.27943194
000260 ae e1 6f 3a 5e ca 6b bc f5 84 bb bd b3 3f 98 3d
       0.00091507554 -0.01439151 -0.09156219 0.07434025
000270 6d 07 80 be 20 ac 93 bd da 58 14 3e d6 c7 18 3f
       -0.25005665 -0.072105646 0.14487019 0.59679925
000280 26 a7 28 3f 13 11 28 3f 3e 97 b5 bd 9a 41 be bd
       0.6588005 0.65651053 -0.08866738 -0.09289856
000290 7d 0b 1e bd d3 94 a7 be 0a 9f 25 be 24 97 36 3e
       -0.038585175 -0.3273073 -0.1617395 0.17831093
0002a0 81 33 5c bf 3d 8c e6 be 49 f0 a4 be e0 ba 77 3b
       -0.8601609 -0.45028868 -0.32214573 0.0037800595
0002b0 20 85 38 bd 9d ce 57 3e 38 d3 b1 3d 80 40 bd 3e
       -0.045048833 0.2107491 0.08682865 0.36963272
0002c0 2c 01 fa bd 53 b4 99 3e 5e 00 59 bd ff b7 b8 bd
       -0.12207255 0.3002039 -0.052978866 -0.090194695
0002d0 c8 61 ae bd 67 fa 13 bd 89 f1 0d be d1 49 d0 bd
       -0.08514744 -0.036127474 -0.1386167 -0.10170329
0002e0 73 9f d5 3e 9b f5 95 be 02 a2 9d bd db ae be bd
       0.41723213 -0.29288945 -0.07696916 -0.09310695
0002f0 bc 9e d2 be 09 3c 35 be d8 ca 11 bc 23 88 47 bb
       -0.4113673 -0.17698683 -0.008898459 -0.0030446134
000300 86 34 49 be a6 e0 a8 3d 2f 54 ea bc e9 89 03 bf
       -0.19648942 0.08245973 -0.028604595 -0.5138231
000310 aa 5f bb be 8e 0e 70 3f 27 cf 47 3f 1d 31 3e 3f
       -0.36596423 0.9377221 0.78050464 0.7429369
000320 77 b2 7a 3d f7 31 13 3d d0 0b 89 3d 20 1f 65 3d
       0.061205354 0.035936322 0.06691706 0.055937886
000330 e0 3e 0d be 79 76 7c be f3 0b 24 be e5 2f f7 bc
       -0.13793516 -0.24654569 -0.16020183 -0.030174205
000340 ba a2 84 bd a6 09 85 bd 74 b9 b8 3c ec 28 2e bd
       -0.0647635 -0.06495981 0.022549368 -0.042519495
000350 a5 8e 0d bc ec 19 26 3d 4f cb 10 3d 4a 8d 6a bd
       -0.008639966 0.040552065 0.03535014 -0.05726365
000360 5a b2 ae bc 7a d0 31 bd ce 8f 52 3d b7 2e 86 bc
       -0.021325279 -0.04341171 0.051406674 -0.016379697
000370 e3 dc 8b 3c 4a 6b 33 bd 3c e6 dd 3c 32 6b fc bc
       0.0170731 -0.04380349 0.027087323 -0.030812833
000380 f3 54 40 3c d6 b4 5e bd 5f af b5 bc 84 ed 63 bd
       0.0117390035 -0.054371677 -0.02217835 -0.055646434
000390 74 91 83 bb dc a1 d4 bc 00 20 28 3c 46 2e 80 3d
       -0.004015142 -0.025956087 0.010261536 0.06258826
0003a0 be 0a 54 bf c9 ce 2a be 06 fb 83 be 40 2a 2c bc
       -0.8282889 -0.16680445 -0.25777453 -0.01050812
0003b0 85 ed 0b 3c 61 ef 89 bd 72 9a 18 bd 8d f0 f2 bd
       0.008540516 -0.06735111 -0.037256666 -0.11862288
0003c0 32 e9 97 bd 3d a7 63 3e e4 5e cf bd 63 ec 70 3e
       -0.07417525 0.22231765 -0.10125521 0.23527674
0003d0 ba a1 83 be e3 a3 15 bf 7c 7e bc bd 22 10 2c 3a
       -0.25709325 -0.58453196 -0.092038125 0.0006563683
0003e0 5e 65 a5 3d 07 80 02 3e 05 5f 23 be d8 93 3f bf
       0.08075975 0.12744151 -0.15954216 -0.74834967
0003f0 d5 7e 0b bf 3a cd 49 3f 8c 61 d5 3d 5e d1 f8 3c
       -0.54490405 0.78828776 0.10418996 0.030373272

fc1.bias f4 [256]
000000 05 19 8d 3d 17 2f 8c be ba 1d 19 3e 8b 1c 42 be
       0.06889538 -0.27379677 0.14952746 -0.18956201
000010 45 a5 90 3c 31 7b b8 bc d6 fe 29 3e 86 d5 9c 3d
       0.017656932 -0.02251968 0.16601118 0.07657914
000020 b8 c8 18 be 4b 3f 24 be 77 92 ef 3d e1 29 3f 3e
       -0.14920318 -0.1603977 0.11697858 0.1866832
000030 7a ea e2 3d c3 6e 3c 3e dd 18 27 3d 70 c2 2d 3d
       0.11079879 0.18401627 0.040795196 0.04242176
000040 b3 17 8f be 24 34 43 3e b3 0c 65 be 16 55 0f be
       -0.2794777 0.19062859 -0.22368126 -0.13997301
000050 70 90 5a 3e 4c c2 b0 bd fe 6b 0e be 8f 6a 26 be
       0.21344161 -0.08630809 -0.13908383 -0.16251586
000060 2f 92 02 be 90 66 84 be 1b ed fc bd e2 e0 66 be
       -0.12751077 -0.258595 -0.12349912 -0.22546723
000070 55 fe b6 3d 4f 57 1d be 66 05 27 bd 48 b8 8a 3e
       0.08935229 -0.15365337 -0.040776633 0.2709372
000080 d2 0f 5b 3e 81 b8 93 bd 03 3f 5a 3e 0a 0c 02 bd
       0.21392754 -0.07212926 0.213131 -0.031749763
000090 e3 5c 47 bd 42 3f 3a 3d 52 9d 2b be c6 fb 81 be
       -0.048672568 0.045470484 -0.16759232 -0.253874
0000a0 8f cf c8 bc d6 8d b5 3d 1e f2 8b be 55 cd 41 bc
       -0.024513034 0.08864944 -0.27333158 -0.01182874
0000b0 2d 2d bb 3c 7d f3 85 3d f5 95 46 3d b7 54 11 be
       0.02284869 0.06540582 0.048482854 -0.14192472
0000c0 7d 32 79 3d d2 72 62 3e 83 62 3b 3e b8 19 8b 3e
       0.060839165 0.22114113 0.18299298 0.2716806
0000d0 f6 5d 57 be 92 64 2b be 7b 1e 21 be 72 5d 77 3c
       -0.21031937 -0.16737583 -0.15734284 0.015097963
0000e0 2b 90 a2 3e a5 8c 02 be aa f5 f6 3c 73 87 05 be
       0.31750616 -0.12748964 0.030146439 -0.13039951
0000f0 78 8d 5e be 9d 3f 00 be bd 8c 5a be 5b 44 28 3e
       -0.21733654 -0.12524267 -0.2134275 0.16432326
000100 97 c2 e5 3d f9 3f 9a 3e 43 0a e6 bd 44 07 8f bc
       0.11218756 0.30126932 -0.11232426 -0.01745952
000110 1f c0 3b be eb 8e ae be 6f 1e 8f 3d 49 49 d2 3c
       -0.18335007 -0.34093413 0.069882266 0.02566971
000120 d0 d4 bb 3d ba d7 8c bd d7 6c 50 3a f2 af 33 bc
       0.0917145 -0.06877084 0.0007950789 -0.010967242
000130 90 37 3f be 0f 97 65 be c8 c0 01 3e ea bf e0 3b
       -0.18673539 -0.22420906 0.12671196 0.0068588154
000140 bd b3 b0 3d 1c 9d b9 bd 20 85 88 be b0 50 4c bd
       0.08628032 -0.09063169 -0.26664066 -0.049881637
000150 0e a6 23 3e 86 4d c5 be 95 75 b3 bc 20 40 29 3d
       0.15981314 -0.38535708 -0.021906653 0.04132092
000160 e6 6b 6b be 4b 41 ee 3d 8d 15 7d 3b e4 2f 25 be
       -0.22990379 0.116335474 0.0038617582 -0.1613155
000170 03 f7 19 be 0e dc 1b 3e bb cc ac bd 1e e2 57 be
       -0.15035634 0.15220663 -0.08437487 -0.2108235
000180 ad c8 e1 3d e0 40 81 3e 0b 74 42 3e b7 3e 2d be
       0.11024604 0.25244808 0.1898958 -0.16918455
000190 f5 26 49 bd 40 65 ee 3e 79 43 a1 be ca 27 1e be
       -0.049109418 0.46561623 -0.3149679 -0.15444866
0001a0 2c fd 35 3e aa a0 bb 3d 33 f0 3e bc ba f3 6d 3e
       0.17772359 0.091615036 -0.011653948 0.23237506
0001b0 2d c6 34 be 4d 32 32 3e bb 0f 07 3d 31 86 4d be
       -0.17653723 0.17402 0.032973986 -0.20070721
0001c0 ac ec 36 be 6d bf 9c bd dc 61 78 3d 10 f6 4c 3e
       -0.1786372 -0.07653699 0.0606402 0.2001574
0001d0 74 00 6c be 3a b7 ca bd 90 f5 3a 3e 52 2a 00 be
       -0.23047048 -0.09898229 0.18257737 -0.12516144
0001e0 55 e1 3f 3d f6 45 83 be d0 e5 10 3e 06 3c 38 3e
       0.046845753 -0.25639313 0.14150167 0.17991647
0001f0 c7 ae c7 bc 40 c7 85 be 88 66 f4 bd cd 42 11 3e
       -0.024375333 -0.26128578 -0.11933619 0.14185639
000200 f6 90 76 bd cf 75 cf bd 2d 4f 02 be 7e c8 ee bd
       -0.06019684 -0.10129892 -0.12725516 -0.116593346
000210 a8 4d 66 bd 97 2d 3c be 7d f7 99 bc df 50 32 3d
       -0.056226403 -0.18376766 -0.01879477 0.043534156
000220 89 6f 02 bd dd f5 94 be e7 3b 0f be ce 74 84 3e
       -0.03184465 -0.2909383 -0.13987695 0.25870365
000230 a9 b2 9b bc 3b 00 3c be 43 27 87 be 19 a9 a8 be
       -0.01900609 -0.18359463 -0.26397142 -0.3294151
000240 e1 9d b6 3d 01 a7 cc 3c 97 05 0e be ac 23 72 3c
       0.08916832 0.024981977 -0.1386932 0.014779013
000250 b5 d8 41 be d1 02 bc bd d7 21 a4 bc fd be ad 3d
       -0.18930323 -0.09180225 -0.020035667 0.08483694
000260 02 3d dc bd 73 f8 4f 3e 97 f1 18 be 8d 68 ed be
       -0.10753824 0.2030962 -0.14935909 -0.46368828
000270 62 54 32 3e b6 78 2f 3d b1 8f 9d bd e4 0d a3 bd
       0.17415002 0.04283973 -0.076934226 -0.07961634
000280 93 03 7e be 43 5a f9 bd 97 9d 21 3e 63 15 36 3e
       -0.24806051 -0.12175419 0.15782772 0.17781596
000290 a3 de 5b be ee 23 8c be 9c 60 64 3e 4e ca d8 3c
       -0.21471648 -0.27371162 0.22302479 0.026463654
0002a0 e4 89 c2 bd 22 37 13 be 94 ca f4 be 0a 9a 48 be
       -0.09498957 -0.143765 -0.47810805 -0.19590011
0002b0 96 f5 02 3e 41 00 27 3e 42 1d 21 bc c3 f6 96 be
       0.12788996 0.1630869 -0.009833636 -0.2948514
0002c0 71 02 fd 3d 9b a6 6f bd 55 58 88 3d 8e 68 2e 3e
       0.12353981 -0.058508497 0.06657473 0.17032072
0002d0 1f 7c 61 be 55 57 b5 bd 3f fe 73 3e 05 7b be bd
       -0.22020005 -0.08854548 0.23827456 -0.09300808
0002e0 10 81 bf bd 49 0d db be a6 c4 44 bd 43 d1 9a 3d
       -0.093507886 -0.42783573 -0.0480391 0.07559445
0002f0 0b b5 a4 bd 88 77 9e bd ee 6a 8c be cf 1f fb 3d
       -0.08042344 -0.077376425 -0.2742533 0.122619264
000300 41 8f 6e be 4b 0e bb 3d 36 14 09 be 3e a8 81 be
       -0.23296835 0.091335855 -0.13386616 -0.2532367
000310 86 fe d2 bc 99 ad fa bd 52 a8 49 be d7 c3 d0 be
       -0.025756132 -0.122401424 -0.19693115 -0.40774414
000320 33 f7 80 3c 88 6e 4b be 8b a2 1d 3e 46 5c 6d 3d
       0.015742874 -0.19866383 0.15394036 0.057949327
000330 9d 6c 30 3e 58 98 67 3e 7d 01 c8 3d 91 2d 8e bd
       0.17228933 0.22616708 0.09765909 -0.06942285
000340 94 4c 92 be 09 df 7a be 1c 5c c4 3c a7 43 51 be
       -0.2857405 -0.24499144 0.023969702 -0.20435964
000350 34 32 9c bd b2 a5 b5 be 4d 25 5f 3d c4 62 b0 3d
       -0.07626763 -0.35477978 0.054478932 0.08612588
000360 47 a1 f8 3d 0b 60 83 3d 85 6e d6 3d 11 93 85 be
       0.12140136 0.06414803 0.10470299 -0.26088765
000370 93 10 d6 bd 9e f9 e4 bd 15 c5 ab bd 41 48 3b be
       -0.1045238 -0.11180423 -0.083872 -0.18289281
000380 77 e8 ed 3d b6 6e 25 3d 0c 1d 9f bc 07 89 52 3d
       0.11616605 0.040388785 -0.01942303 0.05140021
000390 d0 4b a6 bd 38 d6 74 be 17 69 f4 bc 07 6e 8c bc
       -0.08119929 -0.23909843 -0.029835267 -0.017142309
0003a0 dd 99 4c be d9 58 2d be 72 fe 02 be 53 eb 3a be
       -0.19980569 -0.16928424 -0.12792376 -0.18253832
0003b0 5e 1d 29 bd a6 ef 31 3e 14 fa 39 3d 12 92 9d 3c
       -0.041287772 0.17376575 0.04540451 0.01923469
0003c0 14 07 9f bb 2f bc 3f 3e b4 b6 aa bd 35 d9 28 3e
       -0.0048531387 0.1872413 -0.08335629 0.16489108
0003d0 c1 e6 61 3e 54 4f 12 b9 32 5b 13 3e 7b 53 12 be
       0.22060682 -0.00013953197 0.14390257 -0.14289658
0003e0 79 06 23 3e eb 20 30 3e a9 65 bf bb 41 2f 48 be
       0.15920438 0.17200057 -0.0058409763 -0.19549276
0003f0 f2 71 0d 3e 01 80 0a be c0 22 05 be 13 87 5c be
       0.13812998 -0.13525392 -0.13001537 -0.21535902

fc2.weight f4 [256, 256]
000000 f4 05 58 3d fb fc d1 3c 48 12 d5 3d ab 9a fd bd
       0.052740052 0.025633326 0.104038775 -0.12383016
000010 14 7e 15 be 96 b9 9e 3d 22 bb 41 bd 39 2e 8d 3e
       -0.14598876 0.077502415 -0.047297604 0.27574328
000020 31 4d 8d bd 93 93 84 be 5f 72 12 bf f8 9d b6 bc
       -0.06899489 -0.2589384 -0.57205766 -0.022292122
000030 97 e8 8e 3d 4b af 4a bf a3 1a 93 bd bf a1 ab bd
       0.06977957 -0.79173726 -0.07182815 -0.0838046
000040 a0 a4 c1 3d ee cd 54 bf e3 58 98 3c 95 ab f6 bd
       0.09455228 -0.83126724 0.018597072 -0.120444454
000050 34 d8 1e 3e 3b c7 de 3d e7 6a f8 3c 67 fd 83 3e
       0.15512162 0.10877844 0.030324413 0.25779268
000060 b7 e6 4a be 2e d1 28 be 98 48 73 3d ae f1 05 be
       -0.19814573 -0.16486046 0.059395403 -0.13080475
000070 48 c2 aa 3c b5 78 96 3d bc 92 8b 3e e4 84 48 bd
       0.020844594 0.07347242 0.27260387 -0.04895486
000080 25 2b 13 be 65 1a 97 3c 08 9a 79 3d d5 46 09 be
       -0.14371927 0.018445203 0.06093791 -0.13405927
000090 42 56 c7 bc b8 a7 8f 3c 2a c4 a2 3a dc 21 98 bc
       -0.024333123 0.01753603 0.0012418081 -0.018570833
0000a0 1b 11 ab bc 7a a3 95 3d 0d 09 58 bf a0 5e 3d 3b
       -0.02088218 0.07306571 -0.8438881 0.0028895512
0000b0 cd c9 b6 bd 7a bc ce 3e 4d 68 0e be ee d6 36 bd
       -0.08925209 0.4037817 -0.13906975 -0.044638567
0000c0 3a 9f f1 bd 11 28 2c 3d 18 d2 31 bd 32 42 93 be
       -0.11797948 0.042030398 -0.04341325 -0.2876144
0000d0 6e 6d 9e 3d c6 d7 2e bd 19 8b 39 3d 8e a9 50 3d
       0.07735716 -0.042686246 0.04529867 0.05094295
0000e0 43 c9 19 bd c0 5f 06 3c 00 f9 22 bb be 27 ca bd
       -0.037545454 0.0082015395 -0.0024867654 -0.098708615
0000f0 35 c5 3a 3d 2f 67 33 3d 40 16 7c 3c 81 19 a3 3c
       0.045598228 0.043799575 0.015386164 0.019909622
000100 31 a8 2a 3e f1 d1 50 bf 4c b1 0b 3e 48 75 ac bc
       0.16665722 -0.81570345 0.13641852 -0.021052018
000110 81 17 c6 3c 4f d7 9e 3d 86 98 02 3e db 8a 45 3d
       0.02418113 0.077559106 0.12753496 0.048228126
000120 c0 6c 86 bd c0 1e 9a 3c f0 8f 85 be 5a 95 80 bd
       -0.06563711 0.01881349 -0.26086378 -0.062784865
000130 34 b6 a9 be 87 2b 04 3e 01 11 26 be 04 2f 31 3d
       -0.33146822 0.1290723 -0.16217424 0.04325773
000140 36 a5 2a 3e 30 5d aa 3c 1a e1 f6 3e 33 04 9c bd
       0.16664585 0.020796388 0.48218614 -0.076179884
000150 e4 a4 62 bf 89 47 fc 3d 52 ca 09 3d 9b 6e 35 3e
       -0.88532853 0.12318332 0.033640213 0.17717974
000160 c2 f5 75 bd a9 8f 04 3d 8e 96 43 3d 9f eb 7f be
       -0.060048826 0.032363568 0.047751002 -0.24992226
000170 74 6a 5d bd 85 ee 59 bd d5 2f d1 3e e7 89 28 3c
       -0.0540566 -0.053205986 0.40856805 0.010286785
000180 a2 d9 5e bd 08 02 24 3d 80 c5 2f 3c b2 5d 76 3d
       -0.05440677 0.040041 0.01072824 0.06014795
000190 bc 70 a3 3c e1 36 7c bb 2c 1a 9e 3c b4 f4 06 bd
       0.019951217 -0.0038484859 0.01929959 -0.03294821
0001a0 28 af 96 bc 33 0a eb 3e d3 b9 7b be 95 d1 59 bd
       -0.018394068 0.4590622 -0.24582605 -0.05317839
0001b0 7c fa 14 bc db 1d 4d bd c8 c1 70 3e bc f1 13 bd
       -0.009092923 -0.0500773 0.23511422 -0.036119208
0001c0 09 9e ee be 9b 0c 3b be 0e 65 0d 3b ce bf 9d 3d
       -0.46604946 -0.18266527 0.0021575126 0.077025995
0001d0 70 69 c0 be ec 8c e9 bd dd a7 b0 3c 31 12 a7 3d
       -0.37580442 -0.11403832 0.021564418 0.081577666
0001e0 9c 0e f6 be 7b 2c 5c bd 48 d8 55 3c 20 53 a7 bd
       -0.4805802 -0.053753357 0.013052054 -0.08170152
0001f0 6c 4e 8f bf 2c ec 77 bc 0c 3b 9f bd 49 00 af bc
       -1.1195807 -0.015131991 -0.07774934 -0.02136244
000200 31 a8 49 bf 90 5b c2 3e c1 21 27 be 3d ea 89 3e
       -0.78772265 0.37960482 -0.1632147 0.26936522
000210 d0 69 1d 3c bb ca 5b be 28 f4 44 3d 69 74 c6 be
       0.009607747 -0.21464054 0.048084408 -0.3876069
000220 0b 8c 10 be 02 14 38 bd 3a ea 8e bc fa 21 ca bd
       -0.14115922 -0.044940956 -0.017445672 -0.09869762
000230 6d 33 68 3d 0f d1 98 bd 38 7c 97 3c 4a d5 e7 3c
       0.05668967 -0.0746175 0.01849185 0.028299946
000240 82 8c 40 3d 56 a8 3d be bc d1 8d 3d a6 b9 05 3d
       0.047009 -0.18521246 0.06924769 0.03264775
000250 c0 3f 3e 3d c2 7a 19 bd 9b 43 4e 3e 36 f9 a7 be
       0.046447515 -0.037470587 0.20142977 -0.3280732
000260 14 ca ed 3c 66 69 9e 3d 9c 94 aa bd 4a e0 1a 3e
       0.029027022 0.07734947 -0.08329126 0.15124622
000270 74 71 be 3c 9d 98 1f bd 79 78 05 bf 2f 67 5e bc
       0.023247458 -0.038963903 -0.5213695 -0.013574406
000280 36 65 3f bd 15 90 74 bd 38 26 8c 3b 13 46 ba 3d
       -0.04672738 -0.05970772 0.004277017 0.09095397
000290 c4 cc f9 bd 06 5f 82 3c 16 c1 9f 3e 20 e3 fc bb
       -0.12197259 0.015914451 0.31202 -0.007717505
0002a0 37 dd a0 bd 5f a3 6a 3d 5b c6 8b 3e e3 dc 5a be
       -0.078546934 0.05728471 0.2729977 -0.21373324
0002b0 f8 ac 61 3e 7c 0f 88 bc 23 81 1e 3e 1b 2d 91 be
       0.22038639 -0.016608946 0.15478949 -0.28354725
0002c0 88 a2 e7 b9 0a 6d 2d bd bd 87 d6 bd bf 85 c1 3d
       -0.0004418085 -0.042340316 -0.10475109 0.09449338
0002d0 ce 09 de bd 90 b1 fe 3d 31 42 a7 bc e1 8d 15 3d
       -0.10841714 0.12436211 -0.020417305 0.03651226
0002e0 24 fc 1a bd cc b4 45 be f2 6f 2b 3e 03 84 5c 3e
       -0.037838116 -0.1930725 0.16741922 0.21534733
0002f0 1a 97 e8 be 44 cd b7 bd ae 71 54 3d 9d ae 2c be
       -0.4542778 -0.08974698 0.051866226 -0.16863485
000300 c1 73 92 3d ef 24 ae be 9f f7 f3 bd 45 f5 49 3d
       0.071509846 -0.34012553 -0.11912464 0.049306173
000310 24 06 bd 3e 57 c7 2b bd df 5d 8f bd c7 5c cf 3c
       0.36918747 -0.041938152 -0.07000326 0.025312794
000320 9d b0 01 3e 2a 5b 7c 3d d0 b1 7f bd 6a 61 b6 3c
       0.12665029 0.06161038 -0.062425435 0.022263248
000330 58 16 20 3d 1a 8d 83 bd 8e d8 6c 3d 08 15 50 3d
       0.03908381 -0.06423397 0.05782371 0.050801307
000340 ad bc b8 3c 37 1a 8f bc 14 ec a2 3d f3 2a 4c be
       0.022550905 -0.017468555 0.079551846 -0.19938259
000350 e8 fb a6 3e 0d cd 0e bd 7c 7d 2f bc 5c d7 50 bd
       0.32614064 -0.03486352 -0.01071107 -0.050986633
000360 ca 2e c7 bc 74 97 5e be 63 cc 52 bf 1d c0 b3 bd
       -0.024314303 -0.21737462 -0.8234312 -0.08776877
000370 01 4a 8e 3c 67 82 b9 3b 4d c0 c4 3d 78 b3 55 3e
       0.017369272 0.005661297 0.09606991 0.20869243
000380 df dd 08 3e ce 44 e4 bd a4 12 23 bd 4e 41 3a 3c
       0.13365887 -0.11145936 -0.0398127 0.011368109
000390 0c cb 8a 3d a7 82 2c 3d 44 37 cc ba 97 c3 23 3c
       0.06777009 0.042116787 -0.0015580435 0.009995363
0003a0 5f 32 ec bd 97 80 03 bc 3b b8 79 be 32 80 27 3e
       -0.11533045 -0.008026264 -0.24386685 0.16357496
0003b0 27 f6 9e be 29 c2 39 bd 89 75 3c 3d 80 4c 71 bc
       -0.31047174 -0.04535118 0.046010528 -0.014727712
0003c0 57 c0 33 3d 4e 48 db bc 90 48 98 3d a7 46 84 3d
       0.0438846 -0.026767876 0.07435715 0.06458788
0003d0 7b 65 6a 3d 60 6d 5f bb 86 e9 a7 bd 39 0e 92 3d
       0.057225686 -0.0034092292 -0.08198838 0.07131619
0003e0 5d 9c 0b 3e cf 58 ff bb b7 b8 39 be c2 54 d0 be
       0.13633867 -0.007792569 -0.1813687 -0.40689665
0003f0 b3 a4 62 3e a2 21 58 3c a9 bc 09 3d 40 b7 cd bb
       0.2213314 0.013191612 0.033627186 -0.0062779486

fc2.bias f4 [256]
000000 92 21 cb bc f3 13 d2 bc f5 93 db 3c 90 d8 1f 39
       -0.024796281 -0.025644278 0.02680395 0.00015244097
000010 57 03 88 3e ca ee 88 bd 2b 51 8f bd 78 49 5a 3d
       0.26565048 -0.066861704 -0.069979034 0.05329272
000020 b8 b0 00 bd 84 1c e5 3c 87 f7 81 bd 91 0a 10 be
       -0.031418532 0.027967699 -0.0634604 -0.14066531
000030 c0 20 74 bd 73 42 8d be fc d6 b4 bd 42 9c 3d 3d
       -0.059601545 -0.2758976 -0.088300675 0.046291597
000040 50 d4 18 be 92 97 00 bd 1e db 6d 3e 1c 55 55 bd
       -0.14924741 -0.03139455 0.23228118 -0.05208312
000050 17 3b 90 3d 1e dd be bb 7e 7e 67 bd 4e e0 a4 bd
       0.070425205 -0.005824699 -0.056517117 -0.08050595
000060 b8 94 a1 39 da 53 a6 bd 70 e0 83 bc e1 e8 21 3d
       0.00030819117 -0.08121462 -0.016098231 0.03952873
000070 92 e4 9c 3d 77 c8 b3 bd 67 64 a3 bd fe a4 ab bd
       0.07660784 -0.0877847 -0.079781346 -0.08381079
000080 ad 1a c1 bd e5 49 96 3c 36 77 fb bc 8e af 80 be
       -0.09428916 0.018345783 -0.030696493 -0.25133938
000090 22 e3 c7 bc a5 7c f5 3b 5f a3 5e be 30 32 82 be
       -0.024400298 0.0074916654 -0.21742009 -0.25428915
0000a0 96 38 6f bc f7 82 08 bd 8a 7f 9d bd 3c 53 22 be
       -0.0146008935 -0.033328023 -0.07690342 -0.15852064
0000b0 91 a7 35 bc 2a 4e c0 bd a8 89 28 bc bb 36 2d bd
       -0.011087314 -0.093899086 -0.010286726 -0.042288523
0000c0 fb 21 40 3c 26 45 f0 bc 38 41 32 3d ff 55 c4 bd
       0.011726852 -0.029329848 0.04351923 -0.09586715
0000d0 c6 a9 97 bc 4d 97 b5 bc 05 db 87 bd d4 5c 8a bd
       -0.018513571 -0.022166872 -0.066335715 -0.06755987
0000e0 e9 42 62 bd a6 16 a4 bd 4d 4b e4 bd 84 9e 98 3c
       -0.05523959 -0.08012132 -0.11147175 0.018630274
0000f0 b8 c1 b8 3c 24 05 08 3d d0 48 31 bc 1e e7 46 3c
       0.02255331 0.033208027 -0.0108205825 0.012140064
000100 78 39 68 bd 77 29 6c bc d5 b7 84 bd 04 c5 11 3d
       -0.05669543 -0.014414183 -0.06480376 0.03558828
000110 82 eb b6 bd ce ce 0c bc fa c8 a4 bd 5c 27 d6 bc
       -0.08931638 -0.008594228 -0.08046146 -0.026141815
000120 eb 20 d5 bd 1f 06 6e bc 24 75 a4 be 94 e8 c4 bc
       -0.10406669 -0.014527827 -0.3212062 -0.024036683
000130 99 9a 14 bd 27 ae a0 bd d9 17 d7 bb 59 8b 9a bc
       -0.03628025 -0.07845717 -0.006564122 -0.018865274
000140 fd 5d 8f bd df 1c b2 bd d6 d7 08 be 1c 9e 05 bd
       -0.07000349 -0.08696913 -0.13363585 -0.032621488
000150 4e c0 d7 3d 48 e5 da bd 2f a4 22 3d f0 03 87 bd
       0.10534726 -0.10688263 0.03970736 -0.06592548
000160 d5 13 46 be c0 64 f0 bd 2e bd 72 bd c1 eb a5 bb
       -0.19343503 -0.117379665 -0.059262447 -0.0050635044
000170 67 93 16 3e 70 fb 61 be 3e 68 17 bd ca ca b1 bd
       0.14704667 -0.22068572 -0.036964647 -0.08681257
000180 aa 34 01 be 03 e6 da bd f4 f5 c4 bc 3c 7a 98 3d
       -0.12617746 -0.106884025 -0.02404306 0.07445189
000190 30 7e 80 bb 77 d0 4c 3c 55 86 01 be 6b 51 c9 3d
       -0.0039212927 0.012500874 -0.126489 0.09829982
0001a0 31 71 f7 3c 58 ac 3c bd d3 d5 f6 3c d9 7f 8c bd
       0.030205341 -0.046062797 0.030131256 -0.068603225
0001b0 e4 2e 68 be 6a 54 51 bd d1 9e 2c bd ec 26 36 3e
       -0.22674137 -0.051105894 -0.042143647 0.17788285
0001c0 63 c3 1d bd cc cf 92 bb 51 da ae bd 99 75 48 bb
       -0.038516413 -0.0044803377 -0.08537734 -0.0030587672
0001d0 de 69 2d bd fe b2 a1 bd e0 f7 36 3b d4 b5 ae 3c
       -0.04233729 -0.07895468 0.002791874 0.021326937
0001e0 35 e0 8c bd 3a 33 ee 3d b0 7d da 3c 68 8e ec bd
       -0.068787016 0.116308644 0.02667126 -0.11550599
0001f0 1b 67 2b be 12 8c a7 bd 08 47 32 bd db b1 23 bd
       -0.1673855 -0.08181013 -0.043524772 -0.039964538
000200 af ae c5 bc 80 b7 92 bd f0 f6 23 ba 25 fb cc bd
       -0.024131147 -0.07163906 -0.0006254753 -0.100088395
000210 64 58 81 bd 26 45 6e bd f6 28 e4 3c e3 d2 23 3e
       -0.06315687 -0.058171414 0.027851563 0.15998416
000220 7c 9e 1f bd 1c 0d ce 3d 2a cb af bd af 4d 10 3e
       -0.0389695 0.10061094 -0.08583672 0.14092134
000230 d7 3f 3e bd fc 57 cf 3c 2d db 99 bc d7 73 e2 bc
       -0.0464476 0.025310509 -0.018781269 -0.027643127
000240 f7 f4 6b bc f0 69 23 3d 9f 28 55 bd 0f c4 0b bd
       -0.014401666 0.03989595 -0.052040692 -0.034122523
000250 6b 8a b0 bd a0 1b 3e be d7 63 2d 3e 8f 29 41 be
       -0.08620151 -0.18565226 0.16932617 -0.1886351
000260 9a df 98 bd 4e 1f 06 3d 4f 88 bf bc 14 78 a6 3b
       -0.074645236 0.0327447 -0.023380427 0.0050802324
000270 99 7c c0 bd e8 d3 80 3c 64 5f 8a be 2d 83 b1 3c
       -0.09398765 0.015726045 -0.27025902 0.021668995
000280 64 c7 39 be 58 cf a5 be 0c 61 bf 3c 48 83 6e bd
       -0.18142468 -0.32384753 0.023361705 -0.05823067
000290 46 2f 2c bd ae 5f 88 bd 95 63 0a be 16 67 23 bd
       -0.04203727 -0.066588745 -0.1351455 -0.039893232
0002a0 f3 73 b8 3c 3c 42 cc 3d 53 aa 8f bd 6e ec 5b bd
       0.022516226 0.09973571 -0.07014909 -0.053692274
0002b0 70 8f fd bb 3c 38 ae be a8 95 82 bd fb 4d 93 be
       -0.0077380463 -0.34027278 -0.06376201 -0.28770432
0002c0 94 0b 25 3c d1 d4 33 bd a6 44 9f bc 35 d0 9a bc
       0.010073561 -0.04390413 -0.019441914 -0.018898109
0002d0 7b d9 35 bc f7 58 c0 bd 4d 59 aa bd 08 9a b6 bd
       -0.011099215 -0.09391969 -0.08317814 -0.08916098
0002e0 90 c8 98 ba 78 a3 ec 3b 53 1f bd 3c 4e b4 c0 3c
       -0.0011656452 0.0072216354 0.023086226 0.023523476
0002f0 9e bc 9b bc aa e0 e8 bc 80 84 ce bc 35 85 7a ba
       -0.019010838 -0.02842744 -0.025209665 -0.00095565926
000300 9a c8 11 3d a0 59 c8 bd ad 67 bd 3d 68 d1 aa bd
       0.0355917 -0.097827196 0.0924829 -0.08340722
000310 8a 4b 42 bd dc 90 ba bc ab 1f c0 3d 8c 26 a1 bd
       -0.04743532 -0.022774152 0.0938104 -0.0786868
000320 b2 7f 5d 3c 3e 15 ca be c2 13 19 bd 94 8d 69 3c
       0.0135192145 -0.39469332 -0.03737236 0.014254946
000330 29 4f 03 bd 12 c9 08 bc e6 cd 94 bd 63 17 ab 3c
       -0.032057915 -0.00834872 -0.072658345 0.020885175
000340 30 f3 a2 bb a2 07 30 bc ac 11 22 be 56 c7 a3 bc
       -0.004972838 -0.010744007 -0.15827054 -0.019992512
000350 fe f1 1d 3d 5e a8 48 bd ca ae bf 3c 93 95 24 be
       0.03856086 -0.048988692 0.023398776 -0.16072683
000360 45 7e 47 bd 9a 77 28 3c 0d 5f 6d bd c4 73 cb bb
       -0.048704404 0.0102824215 -0.057951976 -0.0062088687
000370 67 5d 71 be 9b 2e 94 bd 58 a8 13 bc a2 22 11 bd
       -0.23570786 -0.07235452 -0.009012304 -0.03543342
000380 98 e0 13 bb d5 d3 54 3c 75 b6 80 3c 9b 66 ba bd
       -0.0022564288 0.012989958 0.015712002 -0.09101602
000390 57 6f 88 3d 91 f1 2c 39 0b 00 92 bc 21 55 bd 3d
       0.066618614 0.00016493189 -0.017822286 0.09244753
0003a0 66 15 30 3d ed 76 64 bd 6e 11 7e bd 18 4c d1 bd
       0.042989157 -0.05577748 -0.06202834 -0.10219592
0003b0 c5 9b 18 3d 6c 28 5b 3d 8f d6 24 be ab a4 33 bd
       0.03725793 0.053505346 -0.16097473 -0.04385821
0003c0 9c 29 cc bd 6a 62 81 bb 15 92 98 3c fa 9c d7 bd
       -0.09968874 -0.0039484994 0.018624345 -0.10527988
0003d0 6e 2d 19 be ad a3 99 bd e1 0b b4 3c 8b 57 27 bd
       -0.14958736 -0.07501922 0.02197832 -0.04085497
0003e0 ff 08 cd 3c b6 49 23 be 7a 38 44 bd 53 f3 83 bd
       0.025028704 -0.15946087 -0.047905423 -0.06442895
0003f0 eb 58 4f 3d cc 34 a8 bd 3b 61 14 be 9d 1c d1 bd
       0.05062191 -0.08213195 -0.14490215 -0.10210536

fc3.weight f4 [3, 256]
000000 16 4c a7 3d 90 11 ff bb 9c 60 65 3b 71 71 ca bb
       0.08168809 -0.007784076 0.003500021 -0.006178074
000010 2f a5 67 be 91 de d5 3d 36 78 0a bc c7 28 ab be
       -0.22621606 0.10442842 -0.008451512 -0.33429548
000020 3e 0d 25 3c 0e d4 32 3c 67 62 16 3f 50 54 44 3d
       0.010073958 0.010914816 0.587439 0.04793197
000030 3e 5f 97 3d a5 6e 18 3e 89 be b0 bb 93 f5 5f bc
       0.07391213 0.14885958 -0.0053938073 -0.013669389
000040 10 fd e4 be 7c 49 68 bc ac f3 7a 3d 7d 92 11 bf
       -0.4472432 -0.014177676 0.06126754 -0.5686415
000050 4a be 53 be 0f a3 5e 3b bd a4 ad bd 79 08 39 3c
       -0.20678058 0.0033971702 -0.08478687 0.011293524
000060 52 59 08 bc d1 97 c5 3e 95 fd 07 ba 83 1a 0c be
       -0.008322077 0.3859239 -0.0005187628 -0.13681988
000070 4f da e3 bd 82 c9 8c 3e df 6a 0a 3c 08 cf 5c 3b
       -0.111256234 0.27497488 0.008448332 0.0033692736
000080 5a cc 9f bd 51 6e 85 bb ff 13 db 39 a8 94 4d be
       -0.07802649 -0.0040719886 0.00041785833 -0.20076239
000090 72 eb ca 3a 99 9e 4d bb ea b9 5d be ca 95 e3 be
       0.0015481545 -0.003137505 -0.21652952 -0.44450217
0000a0 4a 21 92 3b 76 a7 8a 3b d8 0f bb 3b 5a 31 2a 3e
       0.004459535 0.0042313887 0.005708676 0.16620389
0000b0 18 7c 63 be 57 dc 29 be 7f af e1 bb e1 c4 7d bb
       -0.22215307 -0.16587959 -0.006887376 -0.0038722085
0000c0 8f b1 36 bc 99 df 0f bc b2 81 d5 be 3c da d1 be
       -0.011150732 -0.008781337 -0.41700512 -0.40986812
0000d0 2c 02 1b ba 54 32 0a 3c 9f 29 9d 3c 8a 41 b7 3b
       -0.00059131044 0.008434851 0.019184886 0.0055925297
0000e0 b9 86 51 bb b2 63 98 3e 02 3c ce 3b 78 7f c0 bb
       -0.003197117 0.2976356 0.0062937746 -0.0058745705
0000f0 cb 62 87 bc 35 8f 9e be 21 77 c0 bb ad 55 22 bb
       -0.0165266 -0.30968633 -0.0058735763 -0.0024770305
000100 a3 24 5a be 96 49 02 bc ec 07 af be 21 30 11 3d
       -0.21303038 -0.007952115 -0.3418573 0.03544629
000110 8d cd ca bd 8e e7 1b 3e 92 6a 0b 3f 18 98 de bb
       -0.09902487 0.1522505 0.5445949 -0.0067930333
000120 c2 aa aa bc fc 67 07 bc 52 59 6c be 2f a6 e8 bb
       -0.020833377 -0.008264538 -0.23080948 -0.0070998888
000130 db f1 9d 3b 7e 6e ae b9 88 aa 43 b9 a2 ae 0c 3c
       0.004820091 -0.0003327019 -0.00018660177 0.008586558
000140 5d 6b 5c 3b 16 f3 46 3e c1 0f de b9 7b a2 3e 3a
       0.003363333 0.19428667 -0.00042354877 0.0007272136
000150 b7 59 c7 3e 5e 6b 1c 3d 7d 7b 0a 3f f1 f3 16 bc
       0.38935634 0.03818833 0.5409468 -0.009213434
000160 28 18 7b be 6d 49 d0 bc 77 4a 15 bb 02 36 93 3b
       -0.24520934 -0.025425637 -0.002277998 0.004492522
000170 11 57 0d 3f f2 16 92 3e 0f c2 c6 3b 0a 3e 20 3c
       0.5521098 0.2853313 0.006065614 0.009780416
000180 4b 57 c8 be bf 22 6c 3e 14 1b f8 3c c8 cd 20 bf
       -0.391291 0.2306013 0.03028635 -0.62814
000190 c6 0a c6 bb ea 48 06 be b1 bf 4d 3e 7c 3c 03 be
       -0.0060437648 -0.13113752 0.20092656 -0.12816042
0001a0 1c 3b f8 3d 80 14 d8 be e8 bc bf 3a 18 1f 6b bc
       0.12120649 -0.4220314 0.0014628442 -0.014350675
0001b0 5b 47 b5 bc 3a 23 77 3a 5b 3c 81 bb 89 69 4f be
       -0.022128752 0.00094275514 -0.0039439625 -0.20255102
0001c0 be 81 ba 3a 4a ac 4c 3b c8 2b dc 3a f3 4d 0b 3b
       0.001422934 0.0031230622 0.0016797716 0.0021256178
0001d0 2c 4c a2 bc b1 b5 3a 3b ac 9e c6 bb 3f c2 0e bd
       -0.019811712 0.0028489644 -0.0060613956 -0.034853216
0001e0 51 a6 bb 3b 90 d8 0b be 9d 2c 14 be ca 41 0c bf
       0.0057266136 -0.13656831 -0.14470144 -0.54787886
0001f0 b9 72 8a be 42 f9 fb 3e cd 1b a1 bc 0f 85 b3 be
       -0.2704065 0.49213606 -0.019666577 -0.35062453
000200 1a 61 96 be 7a c7 05 bd 7e 24 a2 3d 65 60 ab bb
       -0.29370958 -0.03266094 0.079171166 -0.005229997
000210 b4 f3 7f 3b b3 69 f7 bd 59 b8 b0 3d e7 eb 68 3e
       0.003905517 -0.120807074 0.086289115 0.2274624
000220 e1 38 9e bb ee 66 7c 3e 9c 73 b6 bb 8d 9e 95 bc
       -0.004828558 0.2464864 -0.005567981 -0.01826408
000230 2f 58 1d 3c 46 fc 56 3b 4f f4 13 bc 18 69 08 b9
       0.009603544 0.0032804175 -0.009030416 -0.00013009121
000240 95 ac 14 3c fc 66 bd bc 7f 37 2c 3b fa 69 83 be
       0.00907435 -0.023120396 0.0026278195 -0.2566679
000250 5a b2 65 3d 04 fa cb be 52 a6 2b be 43 c4 28 bf
       0.056078292 -0.39839184 -0.16762665 -0.6592447
000260 98 ec 24 ba 01 21 ad bc a2 a1 05 3c ea 3c f6 bb
       -0.0006291359 -0.021133902 0.008156212 -0.0075145857
000270 03 79 97 bb bc 27 b1 3b 84 6b 70 3d 28 32 60 ba
       -0.00462258 0.005406348 0.058696285 -0.0008552396
000280 97 59 e5 be 2d ea 50 bd 02 75 e4 3b f2 ff d7 bb
       -0.44794914 -0.051004577 0.006971956 -0.0065917904
000290 f2 d8 d3 3e fd 37 3d ba ed 2f 03 3e 66 03 01 3b
       0.41376454 -0.0007218121 0.12811251 0.0019685864
0002a0 94 61 cc be 85 26 08 3e 52 11 98 39 cb 87 02 b9
       -0.39918196 0.13295944 0.00029004604 -0.00012448353
0002b0 64 42 a5 be fd 06 64 3e 70 c9 a6 3c 67 91 5d 3d
       -0.32277215 0.22268291 0.020359725 0.054093745
0002c0 87 84 0f 3c f8 42 22 bd d3 75 48 bb 49 22 e5 bc
       0.008759624 -0.039614648 -0.0030587807 -0.02797045
0002d0 c3 65 79 bb 31 52 74 be e0 a7 6a be 1b 4f b6 be
       -0.003805504 -0.23859479 -0.22915602 -0.35607228
0002e0 55 d7 ad ba 30 5c 11 bc bf e1 5f bc cb 35 e1 3c
       -0.0013263026 -0.008872077 -0.013664662 0.02749147
0002f0 e7 f6 70 3b 22 ce b6 3e e6 c1 4e be f1 4d fa bb
       0.003676826 0.35704142 -0.20191154 -0.007638686
000300 d0 4d 2f 3b 9b 95 3f bf 59 0e ac 3e 0f a2 38 bc
       0.002674926 -0.74837655 0.33604696 -0.0112691065
000310 1d 17 29 bc ee 06 81 be 22 03 16 bf eb 9b 2c bc
       -0.010320452 -0.252006 -0.5859853 -0.010535221
000320 0b bc 6c 3b 40 86 52 be 2e 25 30 bc 0e 38 65 ba
       0.0036122825 -0.20559025 -0.010751052 -0.00087440095
000330 43 3d b3 bb fe a9 93 be fc a4 5c be 58 0e 5e bd
       -0.0054699495 -0.2884063 -0.21547312 -0.054212898
000340 42 33 4c 3f b9 04 0e be 32 92 9b 3d dd 6b 90 39
       0.79765713 -0.13868989 0.07596244 0.00027546185
000350 c6 47 43 3e 73 45 a5 bb 49 59 3b bb ef 50 38 3e
       0.19070348 -0.0050436794 -0.0028587154 0.17999624
000360 46 13 6f 3d 94 04 45 3f 13 77 d1 3b 74 0c 94 bc
       0.05836799 0.7696011 0.0063923686 -0.018072344
000370 d5 92 0b bf 99 ca 2e 3c ff c9 3a 3b 17 ed 2e 3b
       -0.5452092 0.01066842 0.0028501747 0.002669161
000380 15 e9 33 be e7 41 fd bd f8 8c c5 bb 3e 0b a4 3e
       -0.17569382 -0.123660855 -0.0060287677 0.32039827
000390 e3 03 db be 9a 59 9a be ca dc a5 be 1b af 0b bf
       -0.42776403 -0.30146486 -0.3239501 -0.54564065
0003a0 4d 73 17 bc ff e5 90 bb 7e 8f 63 3c c7 08 58 bc
       -0.009243798 -0.004421949 0.013889192 -0.013185686
0003b0 06 57 4d 3c 85 d1 77 be 69 93 6f 3e d9 3a b4 bc
       0.012532955 -0.24201019 0.23396076 -0.022000717
0003c0 54 40 02 be 4e ef 52 bc 87 93 3e bb 74 13 9a 3e
       -0.12719852 -0.0128744375 -0.0029079632 0.30092967
0003d0 8f 60 10 bf 0a 7e ee bb f1 33 2e 3c cc 87 76 be
       -0.56397337 -0.0072782086 0.010632501 -0.2407524
0003e0 62 b5 06 bc 01 d8 ab be 0d 3c 05 3e 5a 83 9f bd
       -0.008221956 -0.33563235 0.13011189 -0.07788725
0003f0 4f 84 0f 3e a2 dc b9 bb ae 06 c9 3e 77 05 a4 3d
       0.14015315 -0.0056720534 0.3926291 0.08008855

fc3.bias f4 [3]
000000 0b 29 47 be 91 b7 34 3c 73 94 b8 3d
       -0.1944925 0.011030094 0.090126894
