runs/checkpoint_actor_256_192021_tau1_460.pth (torch, 288535 bytes, 6 tensors)

fc1.weight f4 [256, 19]
000000 0a e0 49 bd 60 0e f1 3b 5c bd 6b bd 0e 33 4f bd
       -0.049285926 0.00735645 -0.057553634 -0.0505858
000010 30 24 b9 bc 50 3e 61 bd 70 7f 58 bc 78 9c 70 bc
       -0.022600263 -0.054991066 -0.013213977 -0.014685743
000020 86 1b 54 bd 68 50 06 bd 70 01 bd 3b 98 fa be 3c
       -0.05178406 -0.032791525 0.0057679936 0.023312852
000030 84 69 2b bd 28 2b 2f 3c 00 32 60 3d 98 ce 6a bc
       -0.041848674 0.010691442 0.054735184 -0.014331482
000040 2c 79 9b 3c d8 41 4d 3c 00 67 13 bb 8b d3 ed 3c
       0.018978678 0.012527905 -0.0022491813 0.029031536
000050 cc 94 d7 bd 02 2b 4d 3e d1 35 e9 bd 73 69 88 bd
       -0.105264276 0.20035937 -0.11387218 -0.06660738
000060 09 a7 45 3e 9c 8c 20 3e 6f cb f3 bd 86 07 a9 be
       0.19302 0.15678638 -0.11904036 -0.33013552
000070 ae 24 9d be 3c a1 41 be a9 7a 2f be ec 85 ba bd
       -0.30692047 -0.18909162 -0.17136635 -0.09107575
000080 df fe b5 bc 18 37 cf ba da 7a d9 be c8 f9 0d be
       -0.022216259 -0.0015809266 -0.4247654 -0.13864815
000090 b8 a5 aa be 82 49 ac be d8 9f 0d bb 98 a5 a2 3d
       -0.33329558 -0.33649832 -0.0021610167 0.07941741
0000a0 20 75 e3 3d 7a ce 57 3d 20 c4 29 be 15 ab 4b be
       0.11106324 0.052687146 -0.16578722 -0.19889481
0000b0 eb 36 29 3f 85 a9 33 bf 06 87 cb be b2 e2 84 be
       0.66099423 -0.7018054 -0.39751452 -0.25954205
0000c0 19 88 2a be 00 1c 0d be 63 6d 90 bd 7a 8b 23 3e
       -0.1665348 -0.13780212 -0.07052114 0.15971175
0000d0 a6 0f 1d be bd ef 3a 3e 0b f5 50 bf 1d 4f 39 bf
       -0.15338 0.18255515 -0.81623906 -0.7238634
0000e0 8c 63 cb be 82 0f 07 bd aa 3d cc bd d8 d9 c9 bd
       -0.39724386 -0.032973774 -0.09972699 -0.098560035
0000f0 12 cf 2d be 85 1c a8 be 48 5f bc 3e 8f 76 b0 3e
       -0.16973522 -0.3283426 0.36791444 0.34465453
000100 ed f8 95 bf c4 a0 9d bf 7d 2a 97 bf 39 83 6e be
       -1.1716591 -1.2314687 -1.1809841 -0.23292245
000110 b1 af 68 be f8 20 41 be b6 e3 59 bd 6b cf e5 bd
       -0.22723271 -0.18860233 -0.053195678 -0.112212025
000120 1d 45 90 be 6c 8e 4d 3e 44 02 8e 3d f1 b5 6c 3e
       -0.2817773 0.20073861 0.06934026 0.2311628
000130 cf 84 01 bb 3c f2 4d 3e 7e 4b b4 bd 27 3f 24 bd
       -0.0019762998 0.20111936 -0.088034615 -0.04009929
000140 a4 be 90 3e cb 3b 15 bf 75 65 2e bd 16 aa 95 bd
       0.28270447 -0.5829436 -0.042577226 -0.07307832
000150 9f 70 00 3d b6 3d 87 bd 40 42 51 3d 83 6a 90 3b
       0.031357404 -0.06603567 0.05108857 0.0044072284
000160 23 3d 13 3d 70 fb fd 3d 8a 89 5b 3e 39 1c f8 bd
       0.035946976 0.124014735 0.21439186 -0.12114758
000170 06 29 83 be 6a 0b 15 bd cf 0a 58 bd c7 f8 b3 b9
       -0.25617236 -0.03638784 -0.052744683 -0.00034326894
000180 7c ef da 3c 37 96 26 be 1d de a8 bc 53 51 9e be
       0.026725523 -0.1626824 -0.020613724 -0.3092142
000190 4a dd 93 be cb a9 64 3f d9 90 ce 3e 97 45 c3 3e
       -0.28879768 0.89321584 0.40344885 0.3813903
0001a0 ac d7 df 3e 9e 2a 62 be e9 a1 63 be 44 84 25 be
       0.43719232 -0.2208657 -0.22229733 -0.16163737
0001b0 f6 73 bf bc 85 00 91 be aa 56 0c be 16 3f 1d be
       -0.023370724 -0.2832071 -0.13704935 -0.15356097
0001c0 27 73 04 3e 90 01 38 3e f7 4b a4 bd 26 96 8f bd
       0.12934552 0.17969346 -0.08022302 -0.070110604
0001d0 8c 3f 09 bd d7 3a d0 3c a5 cd c8 3c 11 7e aa bd
       -0.03350787 0.025418682 0.024512121 -0.083248265
0001e0 aa ce bb 3c 4d 15 e5 bc 11 10 fe bc 37 d1 97 3d
       0.022925694 -0.027964259 -0.03101352 0.074129514
0001f0 c2 3e 2d bd bc 28 71 bd 80 d6 2d 3a 77 9a 39 bd
       -0.04229618 -0.058876738 0.0006631389 -0.045313325
000200 ac 41 ee bc 45 4b 85 3d a1 5f 7c bc 5c e1 8a bd
       -0.02908405 0.06508497 -0.015403659 -0.06781265
000210 8f 32 55 bd e8 ab 47 b9 97 cf 04 3e c0 0a b8 bc
       -0.05205017 -0.00019042159 0.12969814 -0.022466063
000220 3c 01 23 be 56 b6 26 bf d9 c3 25 3d ab a6 1d bf
       -0.1591844 -0.6512197 0.040469978 -0.6158244
000230 dd 8c c5 be 0e ce ff be c5 d1 03 bf c2 10 e1 3d
       -0.38584033 -0.49961895 -0.5149196 0.109895244
000240 07 c3 d7 3d 2c c9 99 3d 46 d2 a8 3d 43 3d db 3d
       0.105352454 0.075090736 0.082432315 0.10705044
000250 4d 62 a5 3e e1 18 00 bf 82 1e 39 bf 4d 94 96 be
       0.3230156 -0.5003796 -0.72312176 -0.2941002
000260 bf 60 16 3b db 6e a5 bc 76 ba d0 bd 7f 40 94 3d
       0.0022945849 -0.020194462 -0.101918146 0.07238864
000270 4a 79 32 be 9d 1a be bd 58 d2 09 3e 09 da 12 3f
       -0.1742908 -0.0928242 0.13459146 0.57363945
000280 31 00 25 3f 0c 34 26 3f 74 8c d0 bd 9b d2 df bd
       0.6445342 0.6492317 -0.10183039 -0.10928842
000290 c8 eb 55 bd 78 68 aa be 96 2d 27 be 32 9a 3c 3e
       -0.05222681 -0.33282828 -0.16325983 0.18418196
0002a0 65 af 72 bf 40 8b 01 bf 34 4d 9b be 3e 8b 6a 3b
       -0.9479888 -0.50603104 -0.3033234 0.0035788561
0002b0 5b c9 1d bd b8 c4 6d 3e 03 06 b3 3d 2d 7d d1 3e
       -0.038522106 0.23219573 0.08741381 0.40915814
0002c0 44 0c 06 be 4d d6 a6 3e e7 ba 8c bd d4 85 ce bd
       -0.13090616 0.32585374 -0.06871586 -0.100841194
0002d0 13 0e c6 bd 08 3e 14 bd 4b 87 12 be 80 9e d6 bd
       -0.09670653 -0.03619197 -0.14309423 -0.1047945
0002e0 b9 0c dc 3e b2 7f 9e be 9c e3 b5 bd 5c 7e fe bd
       0.42978457 -0.309568 -0.08881304 -0.12426445
0002f0 8e d5 db be 8a c4 36 be 96 5d 6d bb e7 10 8f bc
       -0.42936367 -0.17848411 -0.0036219112 -0.017464114
000300 f3 3a 60 be ac d9 d1 3d ec 77 18 bb 73 98 0f bf
       -0.21897487 0.10246596 -0.0023264838 -0.56091994
000310 8f 74 d6 be c7 56 71 3f f8 47 4a 3f b9 1f 3f 3f
       -0.41885802 0.94273037 0.79016066 0.7465778
000320 38 5c 8e 3d 92 17 15 3d bd 54 94 3d c4 9a 83 3d
       0.06951183 0.03639943 0.07242725 0.064260036
000330 96 ac 0f be d4 52 74 be d1 9b 08 be a3 6e 78 bb
       -0.1403068 -0.23859721 -0.13340689 -0.0037907741
000340 42 8f 9a bd a6 09 85 bd 74 b9 b8 3c ec 28 2e bd
       -0.075468555 -0.06495981 0.022549368 -0.042519495
000350 a5 8e 0d bc ec 19 26 3d 4f cb 10 3d 4a 8d 6a bd
       -0.008639966 0.040552065 0.03535014 -0.05726365
000360 5a b2 ae bc 7a d0 31 bd ce 8f 52 3d b7 2e 86 bc
       -0.021325279 -0.04341171 0.051406674 -0.016379697
000370 e3 dc 8b 3c 4a 6b 33 bd 3c e6 dd 3c 32 6b fc bc
       0.0170731 -0.04380349 0.027087323 -0.030812833
000380 f3 54 40 3c d6 b4 5e bd 5f af b5 bc 84 ed 63 bd
       0.0117390035 -0.054371677 -0.02217835 -0.055646434
000390 5d 9d 02 bc 17 66 45 bc 41 96 b4 3c 77 cf 81 3d
       -0.007972089 -0.012048266 0.022044303 0.06338399
0003a0 83 5d 6f bf e8 33 40 be 1c 6a 7f be bf d9 4b bd
       -0.9350206 -0.187698 -0.24942821 -0.049768206
0003b0 4f 07 5d bc ac d2 b8 bd d4 32 18 bd d4 33 f6 bd
       -0.013490512 -0.090245575 -0.03715785 -0.12021604
0003c0 d5 38 99 bd 01 7f 67 3e 04 4e e8 bd 8b af 63 3e
       -0.07481543 0.22607042 -0.11343005 0.22234933
0003d0 d8 84 82 be f9 1f 20 bf 46 a0 cc bd 8d fb 8f 39
       -0.25491977 -0.62548786 -0.09991507 0.00027462505
0003e0 97 b6 ba 3d 12 77 11 3e fc f2 27 be be 36 51 bf
       0.091168575 0.14205578 -0.16401285 -0.81724155
0003f0 82 58 10 bf 42 ab 52 3f cc 3b c4 3d 30 f0 ab 3c
       -0.5638505 0.8229257 0.09581718 0.020988554

fc1.bias f4 [256]
000000 05 19 8d 3d 25 2e 90 be 7b 74 15 3e e0 38 4b be
       0.06889538 -0.28160205 0.14595215 -0.19845915
000010 c1 f2 a1 3c 69 2c e0 bc d6 fe 29 3e 7d 18 aa 3d
       0.019769074 -0.027364926 0.16601118 0.08305452
000020 10 eb 2e be cb 0e 18 be 4a 13 e1 3d e1 29 3f 3e
       -0.17081857 -0.14849393 0.10990007 0.1866832
000030 d6 1f 00 3e f3 9e 4b 3e 68 79 4c 3d c0 59 1a 3d
       0.12512144 0.19884853 0.04992047 0.03768325
000040 84 2e 98 be 87 89 45 3e b3 0c 65 be 5d 24 03 be
       -0.2972299 0.19290744 -0.22368126 -0.1280684
000050 7f f0 38 3e 44 40 be bd fe 6b 0e be 98 f8 26 be
       0.18060492 -0.092896014 -0.13908383 -0.16305768
000060 82 bb db bd 6e 9d 81 be 1b ed fc bd 4a 89 66 be
       -0.10729124 -0.25315422 -0.12349912 -0.22513309
000070 55 fe b6 3d 4f 57 1d be 7b 7e 27 bd 4e fd 95 3e
       0.08935229 -0.15365337 -0.040892106 0.2929482
000080 83 8e 40 3e 81 b8 93 bd 03 3f 5a 3e a4 2d fa bc
       0.18804364 -0.07212926 0.213131 -0.030539341
000090 e3 5c 47 bd 42 3f 3a 3d 52 9d 2b be c6 fb 81 be
       -0.048672568 0.045470484 -0.16759232 -0.253874
0000a0 8f cf c8 bc 3c ae d2 3d c7 e0 93 be 55 cd 41 bc
       -0.024513034 0.10287139 -0.2888243 -0.01182874
0000b0 42 78 29 3d 00 5a 53 3d 19 41 53 3d 89 84 0c be
       0.041374452 0.051599503 0.051575754 -0.13722433
0000c0 29 46 51 3d d2 72 62 3e 83 62 3b 3e 5a 87 87 3e
       0.0510923 0.22114113 0.18299298 0.26470453
0000d0 f6 5d 57 be 92 64 2b be 7b 1e 21 be 0f e4 16 3d
       -0.21031937 -0.16737583 -0.15734284 0.036838587
0000e0 8d 62 ab 3e a5 8c 02 be aa f5 f6 3c 3a 7e 20 be
       0.33473626 -0.12748964 0.030146439 -0.15673152
0000f0 78 8d 5e be 9d 3f 00 be bd 8c 5a be e1 fb 25 3e
       -0.21733654 -0.12524267 -0.2134275 0.16209365
000100 fc 80 f5 3d 8b 47 97 3e 4c 2e f2 bd 44 07 8f bc
       0.119874924 0.2954677 -0.11825237 -0.01745952
000110 1f c0 3b be 29 c0 ac be 47 78 91 3d 49 49 d2 3c
       -0.18335007 -0.33740357 0.07103019 0.02566971
000120 dc 18 a2 3d ba d7 8c bd 88 0d 24 bc f2 af 33 bc
       0.07914898 -0.06877084 -0.010012992 -0.010967242
000130 d6 cd 39 be 74 16 67 be 6b 39 c2 3d 68 8c 84 3b
       -0.18144926 -0.22567159 0.09483608 0.004045058
000140 49 d4 8f 3d 65 bf a7 bd a8 2b 8e be b0 50 4c bd
       0.07022912 -0.081908025 -0.27767682 -0.049881637
000150 c3 c6 1d 3e 31 8c c6 be 95 75 b3 bc bc fc 24 3d
       0.15407853 -0.38778833 -0.021906653 0.04028009
000160 e6 6b 6b be 4b 41 ee 3d 8d 15 7d 3b df 7e 25 be
       -0.22990379 0.116335474 0.0038617582 -0.16161679
000170 03 f7 19 be 0e dc 1b 3e ad 3c a1 bd 1e e2 57 be
       -0.15035634 0.15220663 -0.07872901 -0.2108235
000180 ad c8 e1 3d 36 13 86 3e db 11 41 3e b7 3e 2d be
       0.11024604 0.26186532 0.18854468 -0.16918455
000190 f5 26 49 bd aa c5 ef 3e f4 53 a9 be ca 27 1e be
       -0.049109418 0.46830493 -0.33071864 -0.15444866
0001a0 2c fd 35 3e b5 1c bf 3d b1 54 ed bb f5 6b 7b 3e
       0.17772359 0.09331647 -0.007242762 0.24552901
0001b0 75 a9 23 be 08 e5 2d 3e 17 3e fe 3c d1 2c 57 be
       -0.15982611 0.169819 0.031035466 -0.2101319
0001c0 0b 21 42 be b3 8e 6b bd dc 61 78 3d a3 64 55 3e
       -0.18957917 -0.057509135 0.0606402 0.20839171
0001d0 2b ec 58 be c5 79 d1 bd de f7 30 3e a1 21 00 be
       -0.21183841 -0.10228304 0.17282054 -0.12512828
0001e0 f6 a5 11 3d f6 45 83 be d0 e5 10 3e 64 58 43 3e
       0.035558663 -0.25639313 0.14150167 0.19076687
0001f0 18 ae 17 bd 40 c7 85 be 72 63 03 be 34 53 14 3e
       -0.037031263 -0.26128578 -0.12830904 0.14484864
000200 48 e8 a3 bd 6a ff d3 bd 2d 4f 02 be 70 8a 02 be
       -0.080032885 -0.10351451 -0.12725516 -0.12748122
000210 a8 4d 66 bd 2f 7d 3e be 7d f7 99 bc df 50 32 3d
       -0.056226403 -0.18602441 -0.01879477 0.043534156
000220 84 6a b3 bc 2d 5f 9a be e7 3b 0f be dd b9 83 3e
       -0.021901377 -0.30150738 -0.13987695 0.2572774
000230 eb 53 0f bc 1e ce 47 be 43 27 87 be 79 9b ae be
       -0.008748035 -0.19512221 -0.26397142 -0.3410299
000240 e1 9d b6 3d 45 f4 26 3c 97 05 0e be b9 a7 03 3d
       0.08916832 0.010190074 -0.1386932 0.032142375
000250 ba 34 3d be d1 02 bc bd b0 4c 2b bc 5a 07 c5 3d
       -0.18477145 -0.09180225 -0.010455295 0.09620543
000260 98 55 03 be 31 b3 56 3e 97 f1 18 be bd e0 f4 be
       -0.1282562 0.20966794 -0.14935909 -0.47827712
000270 62 54 32 3e b6 78 2f 3d 39 a9 94 bd e4 0d a3 bd
       0.17415002 0.04283973 -0.07258839 -0.07961634
000280 93 03 7e be 43 5a f9 bd 2c 09 0a 3e bb 22 36 3e
       -0.24806051 -0.12175419 0.13480061 0.17786686
000290 39 22 6f be b9 21 89 be ff 72 6f 3e 4e ca d8 3c
       -0.23352899 -0.2678354 0.23383711 0.026463654
0002a0 e4 89 c2 bd 22 37 13 be 06 28 02 bf 23 72 5e be
       -0.09498957 -0.143765 -0.5084232 -0.21723227
0002b0 55 b4 ff 3d 41 00 27 3e 64 5b 66 bb 5d ea 9e be
       0.124855675 0.1630869 -0.0035149688 -0.3103818
0002c0 7b 02 06 3e 73 df 1d bd 76 43 9d 3d 63 ee 2d 3e
       0.13086884 -0.038543176 0.07678883 0.16985469
0002d0 65 7a 5e be ad 4c a4 bd b5 3a 64 3e 05 7b be bd
       -0.21726377 -0.08022437 0.2228802 -0.09300808
0002e0 99 13 de bd 7a ac d8 be 49 12 4e bd d8 77 89 3d
       -0.10843582 -0.4231909 -0.050310407 0.067123115
0002f0 d6 d7 8a bd f8 b0 a4 bd 1c 75 8c be 12 f3 f0 3d
       -0.06779449 -0.080415666 -0.27433097 0.11765112
000300 e1 89 82 be a4 f2 df 3d b1 fe f7 bd 19 97 82 be
       -0.25495818 0.10934952 -0.121091254 -0.25505903
000310 86 fe d2 bc d5 1a fb bd c7 60 4d be d5 a2 d8 be
       -0.025756132 -0.12260977 -0.20056449 -0.4231173
000320 d8 c4 f5 3b 88 6e 4b be 8b a2 1d 3e 46 5c 6d 3d
       0.0075002722 -0.19866383 0.15394036 0.057949327
000330 69 c7 2f 3e f3 f2 62 3e 7d 01 c8 3d 91 2d 8e bd
       0.17165913 0.2216299 0.09765909 -0.06942285
000340 ea 2d 9d be 09 df 7a be b2 2c 48 3d 1b e0 57 be
       -0.30699092 -0.24499144 0.04887075 -0.21081583
000350 88 c7 a3 bd 0e 56 ba be 6c 0a 3a 3d c4 62 b0 3d
       -0.07997042 -0.3639378 0.045420095 0.08612588
000360 6f 38 00 3e 2c 77 6e 3d 2e a8 bf 3d 9e 83 91 be
       0.12521528 0.05821912 0.093582496 -0.28420728
000370 d7 be bc bd 60 78 fa bd 95 7c cb bd 53 3f 49 be
       -0.09216087 -0.12229991 -0.099358715 -0.19653063
000380 f8 c1 fa 3d a9 bc 53 3c 0c 1d 9f bc 3f 29 a5 3d
       0.12244028 0.012923398 -0.01942303 0.08064508
000390 d0 4b a6 bd 38 d6 74 be 17 69 f4 bc 07 6e 8c bc
       -0.08119929 -0.23909843 -0.029835267 -0.017142309
0003a0 91 40 43 be d9 58 2d be c8 10 13 be 91 7e 4a be
       -0.19067599 -0.16928424 -0.1436187 -0.19774844
0003b0 cb 15 6d bd a6 ef 31 3e 14 fa 39 3d 12 92 9d 3c
       -0.05788211 0.17376575 0.04540451 0.01923469
0003c0 14 07 9f bb ec ed 4b 3e 21 e3 aa bd 14 dd 2e 3e
       -0.0048531387 0.19914979 -0.08344103 0.17076522
0003d0 89 48 63 3e 54 4f 12 b9 22 55 12 3e 86 84 0c be
       0.22195639 -0.00013953197 0.14290288 -0.13722429
0003e0 58 3b 32 3e eb 20 30 3e d9 50 88 bc 71 0c 59 be
       0.1740545 0.17200057 -0.016640114 -0.21196152
0003f0 a1 66 f2 3d 01 80 0a be 68 d3 06 be 13 87 5c be
       0.11835981 -0.13525392 -0.13166583 -0.21535902

fc2.weight f4 [256, 256]
000000 f4 05 58 3d 60 8e 40 3d bf c3 c0 3d b5 89 2f be
       0.052740052 0.04701078 0.094123356 -0.17142375
000010 79 9a 12 be ab be c1 3d 22 bb 41 bd cc 2e 8b 3e
       -0.14316739 0.09460195 -0.047297604 0.2718414
000020 11 ab e6 bd e7 fd 90 be 17 a8 06 bf f8 9d b6 bc
       -0.11263097 -0.28318712 -0.52600235 -0.022292122
000030 71 29 6f 3d 9a d0 57 bf d6 d4 ae bd b6 67 a8 bd
       0.05838913 -0.84302676 -0.08536689 -0.08222906
000040 6d d9 d3 3d 88 7b 60 bf e3 58 98 3c d9 40 08 be
       0.10344205 -0.87688494 0.018597072 -0.13305987
000050 78 dc 27 3e a3 bd c7 3d e7 6a f8 3c 83 57 88 3e
       0.16392696 0.09752967 0.030324413 0.26629266
000060 20 b0 4b be 86 aa f5 bd 98 48 73 3d b9 0f 18 be
       -0.19891405 -0.119954154 0.059395403 -0.14849748
000070 48 c2 aa 3c b5 78 96 3d eb 82 8a 3e 67 39 86 bd
       0.020844594 0.07347242 0.27053007 -0.065539174
000080 76 0b fc bd 65 1a 97 3c 08 9a 79 3d d3 21 02 be
       -0.123068735 0.018445203 0.06093791 -0.12708215
000090 42 56 c7 bc b8 a7 8f 3c 2a c4 a2 3a dc 21 98 bc
       -0.024333123 0.01753603 0.0012418081 -0.018570833
0000a0 1b 11 ab bc fb 7b a0 3d c3 ca 63 bf a0 5e 3d 3b
       -0.02088218 0.078361474 -0.88981265 0.0028895512
0000b0 c0 b6 f6 bd 44 51 d8 3e b3 ce 32 be 04 47 b7 bd
       -0.120465755 0.422495 -0.17461662 -0.08949092
0000c0 d1 9b e2 bd 11 28 2c 3d 18 d2 31 bd 03 c7 95 be
       -0.11064876 0.042030398 -0.04341325 -0.29253396
0000d0 6e 6d 9e 3d c6 d7 2e bd 19 8b 39 3d 8c ed ba 3c
       0.07735716 -0.042686246 0.04529867 0.02281835
0000e0 25 e5 8c bc c0 5f 06 3c 00 f9 22 bb 11 71 8b bd
       -0.017199108 0.0082015395 -0.0024867654 -0.06808675
0000f0 35 c5 3a 3d 2f 67 33 3d 40 16 7c 3c 3c 43 b4 bb
       0.045598228 0.043799575 0.015386164 -0.005501179
000100 5a 65 42 3e da 10 52 bf 3f df ea 3d 48 75 ac bc
       0.18983975 -0.82056963 0.11468362 -0.021052018
000110 81 17 c6 3c 5b a8 8a 3d d2 9c 01 3e db 8a 45 3d
       0.02418113 0.067703925 0.12657478 0.048228126
000120 fa a3 c2 bd c0 1e 9a 3c c1 20 67 be 5a 95 80 bd
       -0.09503932 0.01881349 -0.22571088 -0.062784865
000130 d1 00 94 be 8f 5b 19 3e 5b af 30 be df d4 98 3d
       -0.28906873 0.14976333 -0.17254393 0.07462477
000140 16 c1 39 3e 3e c6 6f 3c 4c b4 ed 3e 33 04 9c bd
       0.18140063 0.014634667 0.46426618 -0.076179884
000150 8a 3a 65 bf 09 61 e2 3d 52 ca 09 3d eb 06 49 3e
       -0.8954245 0.11053664 0.033640213 0.19631545
000160 c2 f5 75 bd a9 8f 04 3d 8e 96 43 3d b8 d6 75 be
       -0.060048826 0.032363568 0.047751002 -0.2400769
000170 74 6a 5d bd 85 ee 59 bd 5a 09 bd 3e e7 89 28 3c
       -0.0540566 -0.053205986 0.36921197 0.010286785
000180 a2 d9 5e bd 79 53 17 3d c7 61 cc 3c b2 5d 76 3d
       -0.05440677 0.03694484 0.024948968 0.06014795
000190 bc 70 a3 3c 9b 88 9f bc b0 19 12 3d b4 f4 06 bd
       0.019951217 -0.019474318 0.03566903 -0.03294821
0001a0 28 af 96 bc d7 53 f3 3e 13 b4 7c be ae df b8 bc
       -0.018394068 0.47524902 -0.24678068 -0.022567596
0001b0 10 bf 42 bd 7f d2 55 bd b4 81 82 3e 69 ab 7c bd
       -0.047545493 -0.052202698 0.2548958 -0.061686907
0001c0 94 d4 fa be 94 64 4d be 0e 65 0d 3b 33 57 b3 3c
       -0.4899031 -0.20057899 0.0021575126 0.021892166
0001d0 b1 5c 9b be 29 f1 80 bd 21 26 30 3c 6e 4c 0a 3e
       -0.30344155 -0.06295998 0.010751278 0.13505718
0001e0 7c 4a ee be 7b 2c 5c bd 48 d8 55 3c 35 de 8d bd
       -0.46541202 -0.053753357 0.013052054 -0.06927148
0001f0 ba d5 81 bf 2c ec 77 bc 0c 3b 9f bd 50 52 81 bc
       -1.0143349 -0.015131991 -0.07774934 -0.01578632
000200 79 41 43 bf 01 fe b9 3e c1 21 27 be c3 43 a0 3e
       -0.7627178 0.36326602 -0.1632147 0.31301698
000210 d0 69 1d 3c 7e e9 82 be 28 f4 44 3d 69 74 c6 be
       0.009607747 -0.25568765 0.048084408 -0.3876069
000220 0b 8c 10 be 53 b0 12 bd 3a ea 8e bc bf 59 c2 bd
       -0.14115922 -0.035812687 -0.017445672 -0.09489774
000230 d1 5b eb 3d 0f d1 98 bd 38 7c 97 3c 94 53 33 3d
       0.11492122 -0.0746175 0.01849185 0.04378088
000240 82 8c 40 3d 14 4d 43 be bc d1 8d 3d a1 75 76 3d
       0.047009 -0.19072372 0.06924769 0.060170773
000250 4b 16 94 3c c2 7a 19 bd 0f 73 4e 3e ee 5d a1 be
       0.018077036 -0.037470587 0.20161079 -0.31516975
000260 64 ee df 3c 29 3f 7a 3c 9c 94 aa bd bf 2b 26 3e
       0.027335353 0.015273848 -0.08329126 0.16227625
000270 74 71 be 3c 9d 98 1f bd e1 24 24 bf 2f 67 5e bc
       0.023247458 -0.038963903 -0.6411877 -0.013574406
000280 36 65 3f bd 15 90 74 bd 3a d8 54 b9 38 ff 01 3e
       -0.04672738 -0.05970772 -0.00020298446 0.12695014
000290 53 62 aa bd cf e5 18 3d 8b db 9c 3e 20 e3 fc bb
       -0.08319535 0.037328538 0.30636248 -0.007717505
0002a0 37 dd a0 bd 5f a3 6a 3d 36 f6 a1 3e 71 3b 33 be
       -0.078546934 0.05728471 0.31633157 -0.17503144
0002b0 55 30 79 3e 7c 0f 88 bc 2d 1e 04 3e 18 30 8e be
       0.24334843 -0.016608946 0.12902136 -0.27771068
0002c0 3e 6b 3f 3c 1d e6 0f bc aa 0c e3 bd d3 12 ca 3d
       0.011683283 -0.008782891 -0.110864 0.09866872
0002d0 b4 fa 9e bd d1 ae 0a 3e dd 12 07 bd e1 8d 15 3d
       -0.077626616 0.1354325 -0.032976974 0.03651226
0002e0 d9 4b b3 3c 5f da 6b be 3b 6b 3a 3e af 13 40 3e
       0.021886753 -0.2303252 0.18204968 0.18757509
0002f0 7c 92 cc be a3 ef 99 bd ae 71 54 3d b3 bf 50 be
       -0.3995551 -0.0751641 0.051866226 -0.20385627
000300 3f c8 bc 3d 06 a6 c9 be 33 b0 f9 bd 02 ad 24 3d
       0.092178814 -0.39384478 -0.121918105 0.040204056
000310 24 06 bd 3e 64 a7 97 bd 0a 08 40 bd 6e 40 c4 3d
       0.36918747 -0.07404974 -0.046882667 0.095826015
000320 a3 e6 cd 3d 2a 5b 7c 3d d0 b1 7f bd 6a 61 b6 3c
       0.10053756 0.06161038 -0.062425435 0.022263248
000330 93 0c ce 3c c4 6b 04 bd 8e d8 6c 3d 08 15 50 3d
       0.02515248 -0.032329336 0.05782371 0.050801307
000340 e3 8f a2 3d 37 1a 8f bc fa b8 97 3d f5 b2 37 be
       0.079376005 -0.017468555 0.07408328 -0.1793936
000350 42 07 99 3e a7 34 21 bc 38 71 59 bd 5c d7 50 bd
       0.2988835 -0.009839213 -0.05308649 -0.050986633
000360 63 74 03 3d 68 3f af be f3 43 55 bf 54 c2 d0 bd
       0.032093417 -0.34228063 -0.8330681 -0.10193315
000370 d1 5a 61 bc c4 5f 4b bc 38 b8 c6 3d 3b 5f 83 3e
       -0.0137545625 -0.012412969 0.09703106 0.25658593
000380 3f 70 14 3e 41 4f c8 bd a4 12 23 bd d0 c1 96 bb
       0.14495943 -0.097807415 -0.0398127 -0.004600741
000390 0c cb 8a 3d a7 82 2c 3d 44 37 cc ba 97 c3 23 3c
       0.06777009 0.042116787 -0.0015580435 0.009995363
0003a0 96 0b e4 bd 97 80 03 bc e9 73 81 be 1e f9 db 3d
       -0.11135022 -0.008026264 -0.25283745 0.10740875
0003b0 f1 86 c8 be 29 c2 39 bd 89 75 3c 3d 80 4c 71 bc
       -0.39165452 -0.04535118 0.046010528 -0.014727712
0003c0 57 c0 33 3d 9b fa 16 bd 81 f3 c8 3d 22 4d 52 3d
       0.0438846 -0.03686009 0.0981207 0.05134309
0003d0 c1 0f cc 3d 60 6d 5f bb 11 d5 47 bd ce 61 8e 3d
       0.09963942 -0.0034092292 -0.04878718 0.069522485
0003e0 64 37 8b 3d cf 58 ff bb 4a d8 f0 bd 80 3e f8 be
       0.06797674 -0.007792569 -0.11760004 -0.48485184
0003f0 c7 7d 62 3e a2 21 58 3c 96 89 2c 3d 40 b7 cd bb
       0.22118293 0.013191612 0.0421234 -0.0062779486

fc2.bias f4 [256]
000000 03 b2 1d bd f3 13 d2 bc f5 93 db 3c 90 d8 1f 39
       -0.038499843 -0.025644278 0.02680395 0.00015244097
000010 44 d5 9c 3e 5d 02 8d bd cf a2 98 bd ec b5 40 3d
       0.3063146 -0.068852164 -0.07452928 0.047048494
000020 b8 b0 00 bd 84 1c e5 3c 7b e0 fb bc db 3f 04 be
       -0.031418532 0.027967699 -0.030746689 -0.12914984
000030 9d b1 9a bd 82 a6 86 be e7 04 b6 bd a6 b9 65 3d
       -0.07553408 -0.2629891 -0.08887654 0.05608525
000040 26 9c 1b be 92 97 00 bd e1 4c 72 3e 39 42 91 bd
       -0.15196285 -0.03139455 0.2366214 -0.07092709
000050 22 45 ae 3d 1e dd be bb f4 9e a9 bd 4e e0 a4 bd
       0.0850928 -0.005824699 -0.08282271 -0.08050595
000060 b8 94 a1 39 4b c0 ac bd 70 e0 83 bc 6f 29 22 3d
       0.00030819117 -0.084351145 -0.016098231 0.039590295
000070 a3 b2 ce 3d e7 db db bd 67 64 a3 bd fe a4 ab bd
       0.10092666 -0.107353024 -0.079781346 -0.08381079
000080 0c 90 01 be e5 49 96 3c 1f 79 fb bc c3 98 91 be
       -0.12652606 0.018345783 -0.030697403 -0.2843686
000090 22 e3 c7 bc 52 0c f7 b9 65 f1 60 be 06 a4 9c be
       -0.024400298 -0.0004712069 -0.21967085 -0.3059389
0000a0 f4 b0 b6 bc 0e 0a 7a bc 72 c2 8c bd 59 16 33 be
       -0.022301175 -0.015261186 -0.06873025 -0.17488994
0000b0 bc ae fd bc c3 80 ea bd a8 89 28 bc bb 36 2d bd
       -0.030967109 -0.114503406 -0.010286726 -0.042288523
0000c0 fb 21 40 3c 26 45 f0 bc ac 4f d7 3c ce 70 0d be
       0.011726852 -0.029329848 0.026283108 -0.13812563
0000d0 c6 a9 97 bc 4d 97 b5 bc 05 db 87 bd d4 5c 8a bd
       -0.018513571 -0.022166872 -0.066335715 -0.06755987
0000e0 e9 42 62 bd cb 53 e3 bd 4d 4b e4 bd b9 36 18 3c
       -0.05523959 -0.110999666 -0.11147175 0.009290391
0000f0 58 cb b7 3c 3b 50 3a 3c d0 48 31 bc 1e e7 46 3c
       0.022435829 0.0113716675 -0.0108205825 0.012140064
000100 97 5a 73 bd 77 29 6c bc 00 3a 50 bd d5 3e 68 3c
       -0.059412565 -0.014414183 -0.050836563 0.014175137
000110 ef e9 d2 bd 8f 72 3c 3c b6 25 b8 bd d4 7d 55 39
       -0.102985255 0.011501922 -0.08991568 0.00020360138
000120 5b 96 fd bd 1f 06 6e bc 8d 07 b3 be 94 e8 c4 bc
       -0.12382194 -0.014527827 -0.34966698 -0.024036683
000130 99 9a 14 bd 27 ae a0 bd d9 17 d7 bb 59 8b 9a bc
       -0.03628025 -0.07845717 -0.006564122 -0.018865274
000140 fd 5d 8f bd 00 fb 04 be 37 8b 16 be 1c 9e 05 bd
       -0.07000349 -0.12986374 -0.14701544 -0.032621488
000150 b8 c8 e1 3d de 37 c6 bd 84 25 29 3d f0 03 87 bd
       0.11024612 -0.096786246 0.041295543 -0.06592548
000160 eb 6a 60 be c0 64 f0 bd 2e bd 72 bd c1 eb a5 bb
       -0.21915786 -0.117379665 -0.059262447 -0.0050635044
000170 b0 ca 0b 3e 07 56 80 be 3e 68 17 bd ca ca b1 bd
       0.13651538 -0.25065634 -0.036964647 -0.08681257
000180 e3 7a e5 bd 09 af f0 bd f4 f5 c4 bc 7d 8a 95 3d
       -0.112050794 -0.11752135 -0.02404306 0.07301805
000190 30 7e 80 bb 47 44 6f bb 06 0e 13 be bd 86 f8 3d
       -0.0039212927 -0.0036509202 -0.14360818 0.12135074
0001a0 ec 71 0d 3d 21 2d ae bc d3 d5 f6 3c d9 7f 8c bd
       0.034532472 -0.021261754 0.030131256 -0.068603225
0001b0 68 ab 62 be 6a 54 51 bd d1 9e 2c bd a3 1d 3f 3e
       -0.22135699 -0.051105894 -0.042143647 0.1866365
0001c0 91 e0 4e bd cc cf 92 bb 51 da ae bd 99 75 48 bb
       -0.050507132 -0.0044803377 -0.08537734 -0.0030587672
0001d0 de 69 2d bd fe b2 a1 bd e0 f7 36 3b d4 b5 ae 3c
       -0.04233729 -0.07895468 0.002791874 0.021326937
0001e0 35 e0 8c bd 12 87 ed 3d 0d ab dd 3c cb c3 e5 bd
       -0.068787016 0.11598028 0.027059102 -0.11218985
0001f0 c9 f4 0f be bf bf b8 bd 08 47 32 bd e7 03 21 bd
       -0.14058222 -0.09020948 -0.043524772 -0.039310362
000200 de f0 ca bc b3 77 9c bd a1 23 86 bb 25 fb cc bd
       -0.024773058 -0.07640018 -0.0040936028 -0.100088395
000210 64 58 81 bd 55 69 54 bd 33 df 56 3d 32 b2 4a 3e
       -0.06315687 -0.051858265 0.052458953 0.19794539
000220 7c 9e 1f bd 37 d6 b1 3d 2a cb af bd 23 cd 12 3e
       -0.0389695 0.08683436 -0.08583672 0.14336066
000230 d7 3f 3e bd 40 02 18 3d c2 dd 99 bc d7 73 e2 bc
       -0.0464476 0.03711152 -0.0187825 -0.027643127
000240 f7 f4 6b bc f0 69 23 3d 9f 28 55 bd 05 d4 85 bd
       -0.014401666 0.03989595 -0.052040692 -0.0653458
000250 e1 c0 b7 bd cc ad 56 be 4f 64 3f 3e 3e 4f 37 be
       -0.089723356 -0.20964736 0.18690608 -0.17901322
000260 9a df 98 bd 4e 1f 06 3d 4f 88 bf bc 14 78 a6 3b
       -0.074645236 0.0327447 -0.023380427 0.0050802324
000270 99 7c c0 bd e8 d3 80 3c fb 8d 87 be 2d 83 b1 3c
       -0.09398765 0.015726045 -0.2647551 0.021668995
000280 80 c2 47 be f7 ae b1 be 6e 41 64 3c 48 83 6e bd
       -0.1950779 -0.347038 0.013931615 -0.05823067
000290 28 5e 91 bd ae 5f 88 bd 71 6c 0d be 16 67 23 bd
       -0.07098037 -0.066588745 -0.13810898 -0.039893232
0002a0 78 dc 9f 3c 2d 2d 9c 3d 53 aa 8f bd 20 82 76 bd
       0.019514307 0.07625804 -0.07014909 -0.06018269
0002b0 98 b0 b7 bb e1 cb b4 be 00 a4 87 bd 4b e2 95 be
       -0.0056057684 -0.35311797 -0.066230774 -0.2927421
0002c0 94 0b 25 3c d1 d4 33 bd a6 44 9f bc d4 c9 a8 bc
       0.010073561 -0.04390413 -0.019441914 -0.020604052
0002d0 7b d9 35 bc 59 48 ea bd 57 8d 83 bd c8 ab 9f bd
       -0.011099215 -0.114395805 -0.06423443 -0.077964365
0002e0 90 c8 98 ba 78 a3 ec 3b 53 1f bd 3c 4e b4 c0 3c
       -0.0011656452 0.0072216354 0.023086226 0.023523476
0002f0 9e bc 9b bc 4b d0 07 bc 69 01 11 bc 35 85 7a ba
       -0.019010838 -0.008289407 -0.008850434 -0.00095565926
000300 9a c8 11 3d a8 0c ab bd 16 7c bc 3d 68 d1 aa bd
       0.0355917 -0.08352023 0.09203355 -0.08340722
000310 2d 78 73 bd c3 c9 27 bd 28 df b6 3d 8c 26 a1 bd
       -0.05944078 -0.0409639 0.089292824 -0.0786868
000320 b2 7f 5d 3c 4c bc c3 be c3 0f 3f bd 94 8d 69 3c
       0.0135192145 -0.38229597 -0.04664589 0.014254946
000330 77 10 a6 bc 30 3c cd ba f2 b6 d1 bd 46 eb 82 ba
       -0.020271523 -0.0015658196 -0.10239972 -0.000998833
000340 93 52 a5 bc 06 70 05 3c bf 0d 3e be 56 c7 a3 bc
       -0.020180976 0.008144384 -0.18559931 -0.019992512
000350 d7 4d 0e 3d c3 11 6b bd ca ae bf 3c 8c 89 32 be
       0.034742203 -0.057389986 0.023398776 -0.17435282
000360 5c e3 52 bd ad e0 8a b9 0d 5f 6d bd c4 73 cb bb
       -0.051486358 -0.00026488808 -0.057951976 -0.0062088687
000370 d4 23 87 be 55 59 94 bd d4 99 87 bc d2 19 32 bd
       -0.26394522 -0.07243601 -0.016552843 -0.043481655
000380 aa b1 9e bc 94 c5 2f 3d 9b 82 80 3c de d0 c4 bd
       -0.019371826 0.042913035 0.015687278 -0.09610151
000390 13 ca cc 3d 0d bb 78 3b 4f f9 8d bc d6 0e 82 3d
       0.0999948 0.0037953288 -0.017330794 0.06350486
0003a0 66 15 30 3d 5b 85 5a bd 25 0d a4 bd c1 e5 db bd
       0.042989157 -0.053349834 -0.080103196 -0.107371815
0003b0 c5 9b 18 3d dd 5b 50 3d d3 be 22 be ab a4 33 bd
       0.03725793 0.050868858 -0.15893106 -0.04385821
0003c0 11 57 db bd 6a 62 81 bb 15 92 98 3c 4a 41 d9 bd
       -0.10709966 -0.0039484994 0.018624345 -0.10608156
0003d0 f4 21 28 be ad a3 99 bd e1 0b b4 3c 9e 1c 5e bd
       -0.16419202 -0.07501922 0.02197832 -0.05422651
0003e0 ff 08 cd 3c a6 de 3a be c7 47 47 bd 4f 48 8d bd
       0.025028704 -0.18248996 -0.048652437 -0.068985574
0003f0 ae 32 63 3d cc 34 a8 bd c5 60 1f be 84 f4 ff bd
       0.055468254 -0.08213195 -0.15564258 -0.124978095

fc3.weight f4 [3, 256]
000000 0e ee 55 3d 90 11 ff bb 9c 60 65 3b 71 71 ca bb
       0.05222898 -0.007784076 0.003500021 -0.006178074
000010 6b 88 77 be 17 38 cd 3d 8b 1a 0b 3c 09 f5 7d be
       -0.24173133 0.10020464 0.008490215 -0.24800505
000020 3e 0d 25 3c 0e d4 32 3c 78 7e 1c 3f a7 0e d7 3d
       0.010073958 0.010914816 0.61130476 0.105008416
000030 a0 19 9e 3d e2 16 e9 3d 89 be b0 bb 9e aa 09 bc
       0.07719731 0.11381318 -0.0053938073 -0.008402495
000040 a0 7e da be 7c 49 68 bc a3 d1 08 3d 38 42 17 bf
       -0.42674732 -0.014177676 0.03340305 -0.59085417
000050 d4 42 70 be 0f a3 5e 3b 00 bb 69 be 79 08 39 3c
       -0.23462993 0.0033971702 -0.22825241 0.011293524
000060 52 59 08 bc eb d3 e9 3e 95 fd 07 ba 3c fa f6 bd
       -0.008322077 0.45669493 -0.0005187628 -0.12059447
000070 a7 4f 4b bd e2 0a 9c 3e df 6a 0a 3c 08 cf 5c 3b
       -0.04963651 0.30477053 0.008448332 0.0033692736
000080 c9 49 8c bd 51 6e 85 bb d5 52 dc 39 51 3e 67 be
       -0.06850011 -0.0040719886 0.00042023385 -0.22582366
000090 72 eb ca 3a b3 0f 7e 3a 9e 1c 80 be 0c d1 b6 be
       0.0015481545 0.00096916704 -0.25021833 -0.35706365
0000a0 95 30 2a 3c c5 40 4f bd e3 ea 8f 3b ed fc 07 3e
       0.010387559 -0.05059888 0.0043920144 0.13280077
0000b0 73 e5 6a be 95 40 81 be 7f af e1 bb e1 c4 7d bb
       -0.2293909 -0.25244585 -0.006887376 -0.0038722085
0000c0 8f b1 36 bc 99 df 0f bc 42 33 e5 be e5 64 e9 be
       -0.011150732 -0.008781337 -0.4476567 -0.4558479
0000d0 2c 02 1b ba 54 32 0a 3c 9f 29 9d 3c 8a 41 b7 3b
       -0.00059131044 0.008434851 0.019184886 0.0055925297
0000e0 b9 86 51 bb 10 45 97 3e 02 3c ce 3b 78 7f c0 bb
       -0.003197117 0.29544878 0.0062937746 -0.0058745705
0000f0 9a e4 70 bc 28 33 68 be 21 77 c0 bb ad 55 22 bb
       -0.01470294 -0.22675765 -0.0058735763 -0.0024770305
000100 7e 03 3f be 96 49 02 bc 99 8c 8b be 31 e1 12 3d
       -0.18653676 -0.007952115 -0.27255705 0.03585929
000110 c6 39 0e be 83 52 08 3e bc 5c 08 3f 62 90 ce 3b
       -0.13889226 0.13312726 0.532665 0.006303833
000120 ef 36 1d bd fc 67 07 bc b2 db 83 be 2f a6 e8 bb
       -0.038382467 -0.008264538 -0.25753552 -0.0070998888
000130 db f1 9d 3b 7e 6e ae b9 88 aa 43 b9 a2 ae 0c 3c
       0.004820091 -0.0003327019 -0.00018660177 0.008586558
000140 5d 6b 5c 3b a8 d8 8f 3e d1 41 4b bc 7b a2 3e 3a
       0.003363333 0.28094983 -0.012405829 0.0007272136
000150 de d4 c6 3e f8 8a 5a 3d 30 51 0b 3f f1 f3 16 bc
       0.3883428 0.053355187 0.5442076 -0.009213434
000160 45 0e 4d be 6d 49 d0 bc 77 4a 15 bb 02 36 93 3b
       -0.20024975 -0.025425637 -0.002277998 0.004492522
000170 b1 e3 17 3f 02 fe 16 3e 0f c2 c6 3b 0a 3e 20 3c
       0.59331805 0.14745334 0.006065614 0.009780416
000180 c1 45 da be f3 ff 70 3e 14 1b f8 3c 2f f3 11 bf
       -0.42631343 0.23535137 0.03028635 -0.57011694
000190 c6 0a c6 bb 82 4b 74 be aa e7 17 3e f5 88 0d be
       -0.0060437648 -0.23856929 0.14834467 -0.13821776
0001a0 25 bc 05 3e 44 57 bc be e8 bc bf 3a 18 1f 6b bc
       0.13060053 -0.36785328 0.0014628442 -0.014350675
0001b0 04 38 b7 bc 3a 23 77 3a 5b 3c 81 bb 0e 32 40 be
       -0.022365578 0.00094275514 -0.0039439625 -0.18769094
0001c0 25 07 00 3c 4a ac 4c 3b c8 2b dc 3a f3 4d 0b 3b
       0.007814203 0.0031230622 0.0016797716 0.0021256178
0001d0 2c 4c a2 bc b1 b5 3a 3b ac 9e c6 bb 3f c2 0e bd
       -0.019811712 0.0028489644 -0.0060613956 -0.034853216
0001e0 51 a6 bb 3b 65 be 5a be 82 40 bf bd d5 5f 1a bf
       0.0057266136 -0.21361692 -0.09338476 -0.6030248
0001f0 3f bf 7f be 0c aa ee 3e cd 1b a1 bc e4 5a bf be
       -0.24975298 0.4661411 -0.019666577 -0.37374032
000200 dd 9d 85 be 48 ec cc bc 9c 4e a7 3d 65 60 ab bb
       -0.26097003 -0.025015011 0.081692904 -0.005229997
000210 b4 f3 7f 3b ae ff 9a be da c1 d3 3d 1e af 39 3e
       0.003905517 -0.30273193 0.103397086 0.18133208
000220 e1 38 9e bb c4 b4 7a 3e 9c 73 b6 bb f4 4c 85 bc
       -0.004828558 0.24483019 -0.005567981 -0.016272046
000230 2f 58 1d 3c 7d cb 86 3b 4f f4 13 bc 18 69 08 b9
       0.009603544 0.004113613 -0.009030416 -0.00013009121
000240 95 ac 14 3c fc 66 bd bc 7f 37 2c 3b 4d f3 aa be
       0.00907435 -0.023120396 0.0026278195 -0.3338875
000250 6c f0 0c 3d 2b 0d c8 be 2e fc 82 be bc c0 45 bf
       0.03440897 -0.39072546 -0.25583023 -0.77247214
000260 98 ec 24 ba 01 21 ad bc a2 a1 05 3c ea 3c f6 bb
       -0.0006291359 -0.021133902 0.008156212 -0.0075145857
000270 03 79 97 bb bc 27 b1 3b d7 d2 36 bd 28 32 60 ba
       -0.00462258 0.005406348 -0.044634666 -0.0008552396
000280 7d 9e 13 bf 12 74 b0 3c 02 75 e4 3b f2 ff d7 bb
       -0.5766371 0.021539722 0.006971956 -0.0065917904
000290 58 41 d4 3e fd 37 3d ba b3 8f 16 3e 66 03 01 3b
       0.41456103 -0.0007218121 0.14703254 0.0019685864
0002a0 9d ce cd be 41 d9 17 3e 52 11 98 39 68 56 f6 3a
       -0.40196696 0.1482897 0.00029004604 0.0018794062
0002b0 5d 65 81 be fa 67 1c 3e 76 1c a0 3d 9d 9d bc 3c
       -0.25272647 0.15274039 0.078179285 0.023024375
0002c0 87 84 0f 3c f8 42 22 bd d3 75 48 bb 90 cd 7b bd
       0.008759624 -0.039614648 -0.0030587807 -0.061475337
0002d0 c3 65 79 bb 77 76 29 bf 11 4b 8e be 66 32 ba be
       -0.003805504 -0.6619639 -0.27791646 -0.36366576
0002e0 55 d7 ad ba 30 5c 11 bc bf e1 5f bc cb 35 e1 3c
       -0.0013263026 -0.008872077 -0.013664662 0.02749147
0002f0 e7 f6 70 3b 51 98 b3 3e c5 38 26 be f1 4d fa bb
       0.003676826 0.35077146 -0.16232593 -0.007638686
000300 d0 4d 2f 3b ae aa 46 bf 9e d3 a2 3e 0f a2 38 bc
       0.002674926 -0.77604187 0.31802076 -0.0112691065
000310 3f 1d b5 bb 1c 92 37 be 86 f9 1b bf eb 9b 2c bc
       -0.005527168 -0.1792683 -0.6092762 -0.010535221
000320 0b bc 6c 3b 2a c4 af be 2e 25 30 bc 0e 38 65 ba
       0.0036122825 -0.3432935 -0.010751052 -0.00087440095
000330 d4 cf 3f 3a dd 77 8e be 15 7a 68 be 89 b2 27 bd
       0.00073170406 -0.27825823 -0.2270282 -0.04094175
000340 c4 4d 4a 3f 5d 78 21 be b2 ad 1e 3d dd 6b 90 39
       0.7902491 -0.15768571 0.038739868 0.00027546185
000350 99 01 2d 3e 73 45 a5 bb 49 59 3b bb b8 8d 87 3e
       0.1689514 -0.0050436794 -0.0028587154 0.2647531
000360 a3 ae 6b 3e 53 58 59 3f 13 77 d1 3b 74 0c 94 bc
       0.23015837 0.849004 0.0063923686 -0.018072344
000370 6f ba 0a bf 99 ca 2e 3c 5e 0c d8 bb a0 b1 f4 bc
       -0.54190725 0.01066842 -0.006593271 -0.029869854
000380 8a eb 6a be ba 08 03 be f8 8c c5 bb e6 ac 9a 3e
       -0.22941414 -0.12796298 -0.0060287677 0.30210036
000390 b3 25 d9 be d2 08 94 be 9b 0e c3 be 04 ae 15 bf
       -0.42411575 -0.2891298 -0.3809708 -0.5846865
0003a0 4d 73 17 bc 08 ee 95 3a f6 f8 40 3d c7 08 58 bc
       -0.009243798 0.0011438737 0.047112428 -0.013185686
0003b0 06 57 4d 3c 9d ca 4e be d2 26 8b 3e d9 3a b4 bc
       0.012532955 -0.20194478 0.27178055 -0.022000717
0003c0 54 f9 f2 bd 4e ef 52 bc 87 93 3e bb 17 4e 89 3e
       -0.11863962 -0.0128744375 -0.0029079632 0.2681739
0003d0 2a 00 1b bf 0a 7e ee bb f1 33 2e 3c 04 ab 82 be
       -0.60547125 -0.0072782086 0.010632501 -0.255211
0003e0 62 b5 06 bc bb 1a 9a be b8 7c 01 3e 68 ff 84 bd
       -0.008221956 -0.3009852 0.12645233 -0.064940274
0003f0 f6 ca 1e 3e a2 dc b9 bb 0c 21 c0 3e 7c 36 34 3e
       0.15507111 -0.0056720534 0.37525213 0.17598909

fc3.bias f4 [3]
000000 09 03 20 be 55 cd 54 3c 3a bc c9 3d
       -0.15626158 0.012988408 0.098503545
