runs/checkpoint_critic_2566_192021_tau1_5.pth (torch, 370895 bytes, 7 tensors)

head.weight f4 [256, 36]
0	0xbe29361e	-0.1652455
1	0xbe06a1e0	-0.13147688
2	0xbd9232be	-0.071385846
3	0xbe217752	-0.15768173
4	0xbc1b0600	-0.00946188
5	0xbe1625a0	-0.1466279
6	0x3db99802	0.09062196
7	0x3da65d8e	0.08123313
8	0x3d00ea9c	0.03147374
9	0x3e04636f	0.12928556
10	0xbc85b798	-0.016322896
11	0x3dcc73ca	0.099830225
12	0xbdef0abe	-0.11671971
13	0xbd068724	-0.032843724
14	0xbe182c9e	-0.1486077
15	0xbc5db390	-0.013531581
16	0xbddd7418	-0.10813159
17	0x3e195233	0.14972763
18	0x3ded1a56	0.11577289
19	0x3dffe6e2	0.12495209
20	0x3d4a7e40	0.049436808
21	0xbdc2b9b3	-0.095080756
22	0x3e195cdf	0.14976834
23	0xbe268898	-0.16263044
24	0xbdd9dac0	-0.106374264
25	0xbdd52fbb	-0.104094945
26	0xbd8d7c7e	-0.069085106
27	0x3d081f34	0.033232883
28	0xbe014738	-0.12624824
29	0xbe037ba8	-0.1284014
30	0xbda33d50	-0.07970679
31	0x3dd054aa	0.101723984
32	0xbdf6320b	-0.12021264
33	0xbe1911ff	-0.14948271
34	0xbe13eb12	-0.14445141
35	0xbda7f710	-0.0820142
36	0xbd4316f5	-0.047629315
37	0xbdf7c84a	-0.12098749
38	0xbe6a253e	-0.2286577
39	0x3cb4fc30	0.022092909
40	0x3cde9365	0.027169893
41	0x3d492190	0.049104273
42	0x3da17aaa	0.078847244
43	0xbd739cf6	-0.05947586
44	0x3d1f76de	0.03893172
45	0xbe75066d	-0.23928232
46	0xbdd846bd	-0.10560367
47	0xbe132a56	-0.14371619
48	0x3dfc3ecc	0.12316665
49	0x3ead347c	0.33829105
50	0x3d372455	0.044712383
51	0xbb594770	-0.0033154152
52	0xbd6ee01f	-0.058319207
53	0x3ddf077b	0.10890099
54	0x3d8ba12f	0.06817853
55	0xbb7d67dd	-0.0038666644
56	0xbdbdc099	-0.09265251
57	0x3dfd5d3b	0.12371298
58	0x3d88ec77	0.06685727
59	0xbe024f79	-0.12725629
60	0x3c2a127e	0.010380385
61	0x3d8b39d6	0.06798141
62	0xbd8b79b2	-0.06810321
63	0xbdcb4510	-0.09925282
64	0xbc975296	-0.018471997
65	0xbce0b79a	-0.027431298
66	0x3d87e855	0.06636111
67	0x3c978043	0.018493777
68	0x3d1d026b	0.038332384
69	0x3e511028	0.2041632
70	0x3e121b79	0.14268292
71	0x3dd32b92	0.10311045
72	0x3c0e95cf	0.008702709
73	0x3d5f2dcb	0.05448703
74	0xbd27b48f	-0.04094368
75	0x3d56adfe	0.052412026
76	0x3ca6f2a8	0.02037938
77	0x3e8adc8f	0.27121398
78	0x3d2387e5	0.03992452
79	0x3e84d977	0.25947163
80	0xbe14dea0	-0.1453805
81	0xbec8cbac	-0.3921789
82	0xbde93069	-0.11386187
83	0xbe21d3cc	-0.1580345
84	0x3efdbbfd	0.49557486
85	0x3e87cfd5	0.2652575
86	0x3d809817	0.06279009
87	0x3d0ba52f	0.03409308
88	0xbe38bbdb	-0.18040411
89	0xbe384618	-0.17995489
90	0xbe3da85d	-0.18521257
91	0xbd51db0d	-0.051234294
92	0xbe819088	-0.2530558
93	0x3e42f779	0.19039716
94	0x3d6c9095	0.05775507
95	0x3d8e509c	0.06948969
96	0xbe127c51	-0.14305235
97	0x3de633af	0.112403266
98	0xbce2f243	-0.02770341
99	0xbe46cb13	-0.19413404
100	0x3cc8aa24	0.024495192
101	0x3dea77e8	0.114486516
102	0x3da07c7e	0.07836245
103	0x3d4520c5	0.048126955
104	0x3c809395	0.015695373
105	0x3cebd930	0.028790087
106	0x3cc23026	0.0237046
107	0xbdae6cb9	-0.08516831
108	0x3d8ceca9	0.06881077
109	0xbe0ab64b	-0.13546102
110	0x3e20edb1	0.15715672
111	0x3ddd5d92	0.10808863
112	0xbdbd14cb	-0.092324816
113	0xbe2ace03	-0.1668015
114	0xbdb31f52	-0.08746208
115	0xbea4cf1f	-0.3218927
116	0x3dc45044	0.09585622
117	0x3ecf16c8	0.40447068
118	0xbdb5cdad	-0.0887712
119	0x3eaea06f	0.34106776
120	0xbe449048	-0.19195664
121	0xbee553ce	-0.447905
122	0xbdae37a9	-0.0850671
123	0xbe2b1e6d	-0.16710825
124	0xbdc8172e	-0.09770046
125	0x3cbec80f	0.023288755
126	0x3e11ecd0	0.14250493
127	0x3db3b6ed	0.08775125
128	0x3d564fbb	0.05232213
129	0x3cb007db	0.02148812
130	0x3deabec8	0.1146217
131	0xbc1400c9	-0.00903339
132	0x3e309c4b	0.17247121
133	0xbdc8e10b	-0.098085485
134	0xbe284f83	-0.16436581
135	0x3e04f8ae	0.12985489
136	0x3e01cf7e	0.12676808
137	0x3c53da58	0.012930475
138	0xbe64c249	-0.22339739
139	0xbce33cb6	-0.02773891
140	0xbe607c0d	-0.21922322
141	0x3b844cf6	0.004037495
142	0x3d067792	0.032828875
143	0x3c988fe5	0.018623302
144	0xbd6a43ec	-0.05719368
145	0xbcc77380	-0.024347067
146	0x3d2780ec	0.040894434
147	0xbe255007	-0.1614381
148	0x3da7e2de	0.08197568
149	0x3e24fa15	0.16111024
150	0xbdf2e96b	-0.11860927
151	0x3e266e83	0.16253094
152	0x3ccf46f8	0.025302395
153	0x3e28db99	0.1649002
154	0x3e157501	0.14595415
155	0xbe121fd2	-0.14269951
156	0x3e007b91	0.12547137
157	0x3bbad300	0.0057014227
158	0x3d2d0114	0.042237356
159	0xbd77baa6	-0.060480736
160	0xbe08cbe8	-0.13359034
161	0x3c82a7f8	0.015949234
162	0x3d3deab4	0.04636641
163	0x3daba792	0.08381571
164	0xbe0f2827	-0.1398016
165	0xbe252490	-0.16127229
166	0x3da26b50	0.079306245
167	0xbd08aba4	-0.033366814
168	0xbb214e00	-0.0024613142
169	0xbd3120c0	-0.043244123
170	0x39b51e00	0.00034545362
171	0x3ce17048	0.02751936
172	0xbe1d9db4	-0.1539219
173	0x3d7bca04	0.061471954
174	0x3c962720	0.018329203
175	0x3d9d9b00	0.076955795
176	0xbdb0480b	-0.08607491
177	0x3df8664a	0.12128885
178	0x3de39df6	0.11114113
179	0xbdab6bd6	-0.083701774
180	0x3ddfabed	0.10921464
181	0xbbad3546	-0.0052858917
182	0x3e7b2b67	0.24528275
183	0x3e2ec891	0.17068698
184	0x3d253a4a	0.040338792
185	0xbd8542fa	-0.065069154
186	0x3d872be9	0.06600172
187	0x3d076732	0.0330574
188	0xbe278ae0	-0.1636157
189	0x3e6653ce	0.22492906
190	0x3e335d3f	0.1751604
191	0x3dbd64ae	0.09247719
192	0xbe7af02b	-0.2450568
193	0xbe3b8698	-0.18313062
194	0x3e346822	0.17617849
195	0x3da2403c	0.07922408
196	0x3da7bdbc	0.08190486
197	0x3e12c6cf	0.14333652
198	0x3ceddc0e	0.029035594
199	0x3e7fc5ed	0.24977846
200	0xbc7c91b5	-0.015415599
201	0x3de89dad	0.11358199
202	0x3dac39b4	0.084094435
203	0x3e205342	0.1565676
204	0x3e5496c2	0.20760635
205	0xbda342a1	-0.07971693
206	0x3de06882	0.10957433
207	0xbd7b28e8	-0.061318308
208	0x3de8c43f	0.11365556
209	0xbe08ab8d	-0.13346691
210	0xbe222850	-0.1583569
211	0xbe301329	-0.17194809
212	0x3e22e78c	0.1590864
213	0xbba305e2	-0.0049750665
214	0xbe2b4fa5	-0.167296
215	0xbdd2c43e	-0.102913365
216	0x3b9481a2	0.004532055
217	0x3b39250c	0.0028250841
218	0xbc6211bd	-0.013798174
219	0x3e00c229	0.12574066
220	0xbdb9f158	-0.09079236
221	0xbd99c692	-0.075085774
222	0x3d4de2c4	0.05026509
223	0x3e971fdc	0.29516494
224	0x3d93e22b	0.072208725
225	0xbe644c0a	-0.22294632
226	0x3dbfd182	0.09366132
227	0xbc0e6c72	-0.008692848
228	0x3e965aa8	0.2936604
229	0x3d5ce2fa	0.0539274
230	0x3acd0254	0.0015640953
231	0x3e6e784d	0.23288079
232	0x3ddfd9cf	0.109302156
233	0x3de7985b	0.113083564
234	0x3cc053bf	0.023477433
235	0x3e050d9c	0.12993473
236	0xbe47c21c	-0.1950764
237	0x3cebcf5c	0.0287854
238	0x3d028925	0.031869072
239	0x3db05735	0.086103834
240	0x3ab960d6	0.0014143239
241	0x3e1720ea	0.1475865
242	0xbdcac2af	-0.09900414
243	0xbd7d3f9e	-0.06182825
244	0x3d5dbb28	0.054133564
245	0x3e3a8edf	0.18218563
246	0x3dd3fffa	0.10351558
247	0x3dcae74a	0.09907396
248	0xbc9ca963	-0.019123739
249	0xbcdc2560	-0.02687329
250	0x3df75909	0.12077529
251	0x3e28156a	0.16414419
252	0x3dd7c0d1	0.10534824
253	0xbdb72b38	-0.0894379
254	0xbda6af14	-0.08138862
255	0xbe501100	-0.20318985

head.bias f4 [256]
0	0x3bdf0160	0.006805584
1	0xbdad83f4	-0.08472434
2	0x3d795d66	0.060880087
3	0x3d864315	0.06555764
4	0xbbb343a0	-0.005470708
5	0xbdfa1e28	-0.12212783
6	0x3a03a761	0.0005022195
7	0xbe4c3367	-0.19941483
8	0xbdb8b432	-0.090187445
9	0xbb0cce21	-0.0021485167
10	0xbdc1e3f5	-0.094673075
11	0x3d777a8c	0.060419604
12	0x3d48d3c0	0.049030066
13	0x3cdf9f6e	0.027297702
14	0x3def986a	0.116989926
15	0xbd3391ab	-0.04384009
16	0x3de7b3cf	0.11313593
17	0x3e1c68d2	0.15274361
18	0x3b8e911d	0.004350795
19	0xbd9d88b5	-0.076920904
20	0xbdeef58e	-0.116679296
21	0x3d2c4bff	0.042064663
22	0x3e55f404	0.20893866
23	0x3cb9085b	0.022586992
24	0xbdf0116a	-0.117220715
25	0xbe42f5d4	-0.19039088
26	0xbdb2f896	-0.0873882
27	0xbd5fceed	-0.0546407
28	0x3dd222e1	0.10260559
29	0x3e1c95a0	0.15291452
30	0xbe06852f	-0.13136743
31	0x3de0555d	0.10953782
32	0xbe2de147	-0.16980468
33	0x3d5ec28c	0.054384753
34	0x3df26b1a	0.11836834
35	0xbd25539c	-0.04036294
36	0x3e131479	0.14363278
37	0xbe725ee6	-0.23669013
38	0xbda35b58	-0.07976407
39	0x3df069f2	0.117389575
40	0xbda24793	-0.07923808
41	0x3d95c2c2	0.07312538
42	0xbd42f761	-0.0475992
43	0xbe0f417b	-0.13989823
44	0xbdb4499c	-0.088031024
45	0xbd9949ea	-0.07484801
46	0x3e11b24f	0.14228176
47	0x3e04a467	0.1295334
48	0xbdd95577	-0.10612004
49	0xbd80412c	-0.062624305
50	0x3d5c8ad9	0.053843353
51	0xbc6a2350	-0.014290646
52	0x3da423fe	0.080146775
53	0xbe20b820	-0.15695238
54	0x3c88c926	0.016697478
55	0xbd17e565	-0.037084002
56	0xbc6af510	-0.014340654
57	0xbe025d77	-0.12730967
58	0xbc2baca0	-0.010478169
59	0xbd22885c	-0.039680824
60	0x3c23bc1e	0.009993581
61	0xbe041932	-0.12900236
62	0x3e11ff00	0.14257431
63	0x3d11be93	0.035582136
64	0x3be61520	0.0070215613
65	0x3c18e870	0.009332761
66	0xbd3edc9f	-0.04659712
67	0x3d88249e	0.06647609
68	0xbcd80118	-0.026367709
69	0xbc9bcf68	-0.019019797
70	0xbce00435	-0.027345756
71	0x3e2ceca0	0.1688714
72	0x3de6851a	0.11255856
73	0xbde9233c	-0.113836735
74	0x3dca8b86	0.09889893
75	0x3d172a68	0.036905676
76	0xbd799b74	-0.060939267
77	0x3d96cdd9	0.07363481
78	0xbc8673d8	-0.01641266
79	0x3d55f0a2	0.05223144
80	0x3e014af1	0.12626244
81	0x3c96e6c7	0.01842059
82	0xbd131307	-0.035906818
83	0xbd34a5a1	-0.04410327
84	0x3b2660fc	0.0025387397
85	0xbdb584ab	-0.08863195
86	0x3cc175f5	0.023615817
87	0xbdffb2e0	-0.124852896
88	0xbe021aab	-0.12705486
89	0x3de7b106	0.113130614
90	0x3e26b823	0.1628118
91	0x3dfd0d4b	0.12356051
92	0xbdb61acc	-0.0889183
93	0x3d4f27d1	0.05057508
94	0xbd79873c	-0.060919985
95	0x3dfccaf2	0.12343396
96	0x3d3cbab4	0.04607649
97	0x3de1a415	0.11017624
98	0xbe3e1ed9	-0.18566455
99	0xbd4a5180	-0.04939413
100	0xbd94aca0	-0.07259488
101	0x3cdfabb0	0.027303547
102	0xbd5f0df0	-0.05445665
103	0x3e25440f	0.16139244
104	0xbdcc3b56	-0.09972255
105	0xbd987963	-0.07445028
106	0x3d0a7ebd	0.033812273
107	0xbe28f9dc	-0.16501564
108	0x3d3f9c7c	0.046780095
109	0xbe2a843f	-0.1665201
110	0x3cb0be3c	0.021575086
111	0xbe336958	-0.17520654
112	0x3ce9cffd	0.02854156
113	0x3d46fe90	0.048582613
114	0xbd8d6f3e	-0.069059834
115	0x3d76952c	0.060200855
116	0x3de99839	0.11405987
117	0xbe523e58	-0.20531595
118	0xbd7d8e64	-0.061903372
119	0xbde9ccfe	-0.11416052
120	0x3d70bfad	0.058776546
121	0x3d2af96c	0.041741773
122	0xbd87446b	-0.066048466
123	0x3d46f124	0.048569813
124	0x3e0c54f2	0.13704279
125	0x3e1f9cd5	0.1558717
126	0x3e6a1658	0.22860086
127	0xbdcd3a7c	-0.10020921
128	0xbdf3a011	-0.118957646
129	0x3d6405d7	0.05566963
130	0xbdb80d33	-0.089868926
131	0x3cd95099	0.02652769
132	0x3e218902	0.1577492
133	0x3e30f69e	0.17281577
134	0xbd0171ee	-0.031602792
135	0xbe1617bf	-0.14657496
136	0xbdbaa378	-0.091132104
137	0x3d510cc3	0.05103756
138	0xbbbf671a	-0.005841148
139	0xbc68cead	-0.014209432
140	0xbcf97edc	-0.030456
141	0x3e12d001	0.1433716
142	0xbc29ca00	-0.010363102
143	0xbd354fac	-0.044265434
144	0x3d70a72e	0.058753185
145	0xbe215512	-0.15755108
146	0xbc729aaa	-0.014807383
147	0xbd276389	-0.04086641
148	0x3c218490	0.0098582655
149	0xbce1d0f9	-0.027565466
150	0x3e256fe4	0.16155964
151	0xbdb3b2bd	-0.08774326
152	0xbcfa585a	-0.030559707
153	0x3dccefc6	0.10006671
154	0x3d4cf622	0.050039418
155	0xbc57b74d	-0.013166261
156	0xbe06e901	-0.13174821
157	0x3dc652ea	0.09683783
158	0xbd81cf6f	-0.06338393
159	0xbe123ca9	-0.14280953
160	0xbe24a45b	-0.16078322
161	0x3da7a1d9	0.08185167
162	0xbd275a7e	-0.040857784
163	0x3d99f116	0.075166866
164	0xbd0ac35a	-0.033877708
165	0xbc125570	-0.008931503
166	0x3e12266e	0.14272472
167	0x3d813f72	0.06310929
168	0xbe144519	-0.14479484
169	0x3d006f25	0.031355996
170	0xbde9801a	-0.114013866
171	0xbdb0ffdf	-0.086425535
172	0x3e082d89	0.1329862
173	0xbccc1554	-0.024912514
174	0xbbce79d7	-0.0063011455
175	0xbe093d5d	-0.13402314
176	0xbe0a3012	-0.134949
177	0x3d74da3f	0.05977845
178	0xbc77efb7	-0.015132836
179	0xbd0af4a7	-0.033924725
180	0xbd4bf7ef	-0.049796995
181	0x3b9a9edf	0.004718646
182	0x3c8ea00e	0.017410304
183	0xbdec3b0e	-0.11534701
184	0x3c557907	0.013029343
185	0x3e11d0b3	0.14239769
186	0xbc5b396d	-0.013380391
187	0x3d8a07cb	0.06739768
188	0x3d3e0175	0.04638811
189	0x3db23322	0.08701159
190	0x3dee635a	0.116400436
191	0x3d09e359	0.03366408
192	0xbd23e7b4	-0.04001589
193	0xbe0579fb	-0.13034813
194	0x3afdad3b	0.0019353995
195	0xbca7eedf	-0.020499645
196	0x3e180836	0.14846882
197	0xbdb0a38b	-0.08624943
198	0xbdac9ebe	-0.08428715
199	0xbe121a57	-0.1426786
200	0x3d522b49	0.05131081
201	0x3c9ecf6e	0.01938602
202	0x3e217bda	0.15769902
203	0xbd5f6a45	-0.054544706
204	0xbe01a3a4	-0.1266008
205	0x3d35c123	0.044373643
206	0xbe145640	-0.14486027
207	0x3cd74da3	0.026282137
208	0x3dcda435	0.10041086
209	0x3d9fb368	0.07797891
210	0x3e439a81	0.19101907
211	0xbe091823	-0.13388114
212	0xbe163b7e	-0.14671132
213	0xbdf62014	-0.12017837
214	0x3e2f5dc5	0.17125614
215	0xbcd2299b	-0.025654605
216	0xbe188833	-0.14895706
217	0x3e07120d	0.1319048
218	0x3d851c10	0.06499493
219	0xbad14e00	-0.001596868
220	0xbd6206d3	-0.05518229
221	0x3dc3cd55	0.09560648
222	0xbda78ae2	-0.08180787
223	0x3e136b91	0.14396502
224	0x3d57e4c5	0.052708406
225	0x3e335975	0.17514594
226	0x3cb27b03	0.021787172
227	0xbb761b2d	-0.003755282
228	0xbd7b84aa	-0.061405815
229	0x3e215da7	0.15758382
230	0xbe53a645	-0.20668896
231	0xbbc8a1db	-0.0061228103
232	0x3e086743	0.13320641
233	0xbdc196b4	-0.094525725
234	0x3dfec6a1	0.12440229
235	0xbd97685d	-0.073929526
236	0x3e29e7ef	0.16592382
237	0xbe1b9cc6	-0.15196523
238	0xbdbc0f3e	-0.09182595
239	0x3d8cb512	0.06870474
240	0x3d874717	0.06605356
241	0xbe1bd06d	-0.15216227
242	0x3e130d1d	0.14360471
243	0xbdfee927	-0.12446814
244	0x3d182694	0.037146166
245	0x3e0ed17b	0.13947098
246	0x3e001b48	0.12510407
247	0xbdce44c4	-0.1007171
248	0xbe337d82	-0.17528346
249	0x3d31365e	0.04326474
250	0x3dc6d624	0.09708813
251	0xbde44035	-0.11145059
252	0x3d8fe0c8	0.070252955
253	0xbc50e571	-0.012750016
254	0x3e1dc1bd	0.15405937
255	0x3d8180b8	0.06323379

cos_embedding.weight f4 [256, 64]
0	0xbd084794	-0.033271387
1	0xbdb7ffbc	-0.08984324
2	0xbcc635d8	-0.024195597
3	0x3d3eb15c	0.04655586
4	0x3c83d3c0	0.016092181
5	0xbcad62b8	-0.021165237
6	0xbd907ebe	-0.07055424
7	0x3ddbbd0e	0.10729419
8	0xbc921b90	-0.017835408
9	0xbcc99448	-0.024606839
10	0xbd07d164	-0.033158675
11	0x3d848792	0.064711705
12	0x3dc08b96	0.09401624
13	0x3b9c17c0	0.0047635734
14	0xbcc9fc58	-0.02465646
15	0xbd5d4048	-0.05401638
16	0x3da92926	0.082598016
17	0xbdf0e438	-0.11762279
18	0xbd075f2c	-0.033049747
19	0x3c24e760	0.01006493
20	0xbde554b8	-0.111977994
21	0xbcc21438	-0.023691282
22	0xbdd6820c	-0.10474023
23	0xbb860740	-0.0040902197
24	0x3d9b761c	0.07590887
25	0x3be92aa0	0.007115677
26	0xbd926414	-0.07147995
27	0xbb5d93c0	-0.003380999
28	0x3dbcaede	0.09213041
29	0xbc624310	-0.013809934
30	0xbb150d00	-0.0022743344
31	0x3de8e33c	0.113714665
32	0xbd632bb4	-0.0554616
33	0x3d5b4a6c	0.05353777
34	0xbdaa522c	-0.08316454
35	0xbd176380	-0.036960125
36	0xbda1afe0	-0.078948736
37	0xbcb75c28	-0.02238281
38	0x3d0d7e70	0.03454441
39	0x3cac8638	0.021060094
40	0x3c3dad10	0.011576906
41	0xbd089b74	-0.033351377
42	0x3d1213ec	0.03566353
43	0xbdd595aa	-0.10428937
44	0xbb4998c0	-0.0030761212
45	0x3bb46d80	0.0055062175
46	0xbd4f06d0	-0.050543606
47	0x3dbfd762	0.09367253
48	0xbd899950	-0.06718695
49	0x3caecdf8	0.021338448
50	0xbdd1209e	-0.10211299
51	0x3da30bcc	0.079612345
52	0xbdb6cd60	-0.08925891
53	0xbcd29f78	-0.025710806
54	0x3dfd4f9a	0.123686984
55	0x3d864172	0.065554515
56	0xbdab773a	-0.0837235
57	0x3c884798	0.016635701
58	0x3d0ffc3c	0.03515266
59	0xbd43bd14	-0.04778774
60	0xbdf2ce02	-0.11855699
61	0xbd70d32c	-0.05879514
62	0x3d822e82	0.06356527
63	0x3d2d2b24	0.04227747
64	0x3dc68484	0.09693244
65	0xbdade464	-0.08490828
66	0xbdf6f1aa	-0.120578125
67	0xbdc70187	-0.09717088
68	0x3d418c4d	0.047252942
69	0xbd61c442	-0.055118807
70	0x3da21445	0.07914022
71	0x3e0ee88a	0.13955894
72	0x3dd1470c	0.10218629
73	0xbcb104a5	-0.02160866
74	0x3ca2547e	0.01981568
75	0xbd51bc0c	-0.051204726
76	0x3dd03dae	0.101680145
77	0x3df73e7e	0.12072466
78	0x3e11e7ab	0.1424853
79	0x3deae2a6	0.11469011
80	0x3da521e3	0.08063104
81	0x3d2b9909	0.041893993
82	0xbdf74001	-0.12072755
83	0xbd855e33	-0.06512108
84	0x3cd41135	0.025887111
85	0xb9887d35	-0.00026033228
86	0x3dce3316	0.100683376
87	0x3e018056	0.12646613
88	0xbd928c3f	-0.07155656
89	0xbdc1a43f	-0.094551556
90	0x3d76beab	0.06024043
91	0x3e28ffae	0.16503784
92	0xbda5c874	-0.08094874
93	0x3ced7778	0.028987631
94	0x3d95eb54	0.07320276
95	0x3d3c95ef	0.046041425
96	0x3ca00c01	0.019536974
97	0xbd6478b7	-0.055779185
98	0xbd175803	-0.03694917
99	0x3dc734e2	0.097268835
100	0x3dc53362	0.09628941
101	0x3ddaa3fd	0.106758095
102	0xbcd42e34	-0.025900938
103	0x3d547a24	0.051874295
104	0x3e1a2b45	0.15055569
105	0x3d9b8e14	0.075954586
106	0x3dd231aa	0.10263379
107	0x3df28f88	0.11843783
108	0x3db5b7ae	0.08872925
109	0xbd944c71	-0.072411425
110	0xbcbcfd00	-0.023069859
111	0x3da64dea	0.0812033
112	0x3dd56c4b	0.10421046
113	0x3dde7b0d	0.10863314
114	0x3d174a6c	0.03693621
115	0xbdff87f7	-0.12477105
116	0x3b751145	0.0037394327
117	0x3c3b7988	0.0114425495
118	0x3d679d2c	0.056546375
119	0x3d2e1087	0.04249623
120	0x3ccbe4a4	0.024889298
121	0xbce505d8	-0.027956888
122	0xbdb46db7	-0.08809989
123	0xbdfeb7a9	-0.12437374
124	0xbd670eec	-0.056410715
125	0xbc6a4e58	-0.014300905
126	0x3d854d25	0.06508855
127	0xbc90cc2f	-0.017675487
128	0x3c84a67d	0.016192669
129	0xbe231a3e	-0.1592798
130	0xbd23cca4	-0.039990082
131	0x3d99d0d4	0.07510534
132	0xbd30b370	-0.043139875
133	0xbd8f5d51	-0.070002206
134	0xbdd836d2	-0.10557331
135	0x3d12a3f0	0.035800874
136	0xbe108a96	-0.14115366
137	0x3a45aad9	0.0007540412
138	0x3e13bd03	0.14427571
139	0x3d02bd8d	0.03191905
140	0x3de15024	0.11001614
141	0x3d578087	0.052612808
142	0x3e078b79	0.13236798
143	0xbd90c6b4	-0.070691496
144	0xbe27fd83	-0.16405301
145	0x3cddeb95	0.027089873
146	0xb9488ba1	-0.00019125502
147	0x3dbba029	0.091614075
148	0xbdcc0f64	-0.09963873
149	0x3d94a773	0.07258501
150	0xbdd7674e	-0.10517751
151	0xbdec6bec	-0.11544022
152	0x3e08df28	0.13366377
153	0xbda4ec8e	-0.08052932
154	0x3c9e2e23	0.01930911
155	0x3ddbc307	0.10730558
156	0x3d643ad7	0.055720177
157	0xbd835c63	-0.06414106
158	0x3d866463	0.06562116
159	0xbb7bfa18	-0.0038448628
160	0xbe09974d	-0.13436623
161	0xbe2ac6a1	-0.16677333
162	0xbddf2541	-0.108957775
163	0xbd8a9a72	-0.06767739
164	0xbe3170b5	-0.1732815
165	0xbdc927ca	-0.09822042
166	0xbe32ab68	-0.17448199
167	0xbc2da5fd	-0.010598657
168	0x3d8aea9e	0.06783031
169	0x3d59010f	0.052979525
170	0xbda58a68	-0.080830395
171	0xbe4a2fad	-0.1974475
172	0xbdef6586	-0.11689286
173	0xbd0da8cd	-0.03458481
174	0x3da5bdc0	0.080928326
175	0x3dc7aba6	0.09749536
176	0x3bd3c615	0.006462822
177	0x3cb6352d	0.022242153
178	0x3da02d16	0.078210995
179	0x3d0c24fb	0.034214955
180	0x3e267028	0.16253722
181	0x3e0b52ef	0.13605855
182	0xbd1c66ca	-0.038183965
183	0x3d6e91e8	0.058244616
184	0xbe09bd89	-0.13451208
185	0x3bf68252	0.0075228596
186	0xbcc50a0b	-0.02405264
187	0xbc211dda	-0.009833777
188	0x3df3a99c	0.11897585
189	0xbd0b6513	-0.03403194
190	0x3c82a305	0.015946874
191	0xbd08a34e	-0.033358864
192	0x3c87c7a9	0.016574698
193	0xbc1d439d	-0.00959864
194	0xbb464afe	-0.0030257101
195	0x3d746bbb	0.059673052
196	0xbd6485a8	-0.055791527
197	0x3c08f3e2	0.008358927
198	0xbd130b05	-0.03589918
199	0x3db83b8f	0.08995735
200	0xbd3aca9a	-0.045603372
201	0xbe152457	-0.14564644
202	0xba96e1b4	-0.0011511357
203	0xbcbddc97	-0.023176474
204	0xbd94e66d	-0.07270513
205	0x3c76f0db	0.015072073
206	0xbdc22f17	-0.09481638
207	0x3d86fd76	0.065913126
208	0x3d893a1c	0.067005366
209	0x3d35274a	0.044226922
210	0xbc594307	-0.0132606095
211	0xbe17062a	-0.14748445
212	0xbdd776cc	-0.105207056
213	0xbb82f910	-0.0039969757
214	0x3e259083	0.16168408
215	0xbddf0e0a	-0.108913496
216	0xbd91b12b	-0.0711387
217	0xbd5b589a	-0.053551294
218	0xbbd71fa8	-0.006565053
219	0xbe2aee46	-0.16692457
220	0xbd81db21	-0.06340624
221	0xbdcdcf3e	-0.10049294
222	0xbd842443	-0.06452229
223	0xbe0e5d46	-0.13902768
224	0x3db8303d	0.08993576
225	0xbdb26b41	-0.08711863
226	0x3d407262	0.046984084
227	0x3dda428c	0.10657224
228	0xbcc7dce0	-0.024397314
229	0x3dcfe1e8	0.1015051
230	0x3e0b8e11	0.13628413
231	0x3c7e8d5d	0.015536633
232	0x3da3bd60	0.07995105
233	0xbdf12b1b	-0.117758
234	0xbd546e55	-0.051863033
235	0x3d8bf444	0.06833699
236	0xbd2fcf9e	-0.04292261
237	0xbdb8e991	-0.09028924
238	0x3c891f24	0.016738482
239	0x3bf4d939	0.007472184
240	0xbd25b9da	-0.040460445
241	0x3d4c5606	0.049886726
242	0xbdcdd7a6	-0.10050897
243	0x3e10f14e	0.1415455
244	0x3dd964fc	0.10614964
245	0x3db8bc5c	0.09020302
246	0xbd29f978	-0.041497678
247	0xbd0b0cad	-0.033947635
248	0x3d7c1c21	0.061550263
249	0xbdfbcf23	-0.122953676
250	0x3bdc48ff	0.006722569
251	0x3cf86a00	0.030323982
252	0x3db097ca	0.086227015
253	0x3d5b1db4	0.053495124
254	0xbd8ed593	-0.0697433
255	0x3bb76971	0.0055972864

cos_embedding.bias f4 [256]
0	0xbcdc7ed0	-0.026915938
1	0xbdb2c637	-0.08729213
2	0x3d9815c2	0.07426025
3	0x3e222eb3	0.15838127
4	0x3d9d92f8	0.07694048
5	0x3c083153	0.008312541
6	0xbda0b5a6	-0.07847147
7	0xbd8201e4	-0.06348017
8	0x3d362e0c	0.044477507
9	0x3d7eece3	0.06223763
10	0x3d16e68e	0.036840968
11	0xbdd846ee	-0.10560404
12	0x3ddd58fc	0.10807988
13	0xbcdd6ca4	-0.027029343
14	0xbcfce408	-0.030870453
15	0xbbf3c071	-0.0074387123
16	0x3e55d2f7	0.20881258
17	0x3e24b1d8	0.16083467
18	0x3e0873b6	0.1332539
19	0x3e1c847f	0.15284918
20	0x3dfee013	0.124450825
21	0x3e237e88	0.15966237
22	0x3cd0ee8a	0.02550437
23	0x3df168d9	0.11787576
24	0x3d9b3501	0.07578469
25	0x3db9e8d7	0.09077614
26	0x3c404530	0.011735246
27	0x3c93e6c7	0.01805438
28	0xbbb45ea6	-0.005504447
29	0xbd2e3745	-0.042533178
30	0xbde8d068	-0.11367875
31	0x3e0f9e0a	0.14025131
32	0x3e0296f6	0.127529
33	0xbd61a04c	-0.05508451
34	0xbcf183be	-0.029481765
35	0xbb3a1400	-0.0028393269
36	0x3dfd726e	0.12375341
37	0xbd9fe73c	-0.07807776
38	0x3dd5e1e7	0.10443478
39	0xbc935608	-0.017985359
40	0x3c1bbf2b	0.009506027
41	0x3c9b28b4	0.018940307
42	0x3d03c394	0.03216894
43	0xbd5d65e8	-0.054052263
44	0x3d8bff3b	0.06835791
45	0x3df8f7a3	0.12156608
46	0x3da67ca4	0.08129242
47	0x3d941898	0.072312534
48	0x3b6a6126	0.0035763471
49	0x3e163bb8	0.14671218
50	0x3ccdaa23	0.025105542
51	0x3d38494c	0.044991776
52	0x3d89371a	0.06699963
53	0x3d81743d	0.06320999
54	0x3dca6232	0.098820105
55	0x3db6c89e	0.089249834
56	0x3dfc31fa	0.1231422
57	0x3c18eba5	0.009333526
58	0x3e39360f	0.18087028
59	0x3e2da6e4	0.16958195
60	0x3de6e65f	0.112744085
61	0xbd9d3fc8	-0.07678181
62	0x3db24993	0.087054394
63	0xbc5ed857	-0.013601384
64	0x3dceb810	0.10093701
65	0xbde22768	-0.110426724
66	0x3ddff21e	0.10934852
67	0x3ed5b68d	0.41740838
68	0x3db9ef0e	0.09078799
69	0xbd5bda2c	-0.05367486
70	0x3d687b19	0.05675802
71	0xbce7ba42	-0.028287057
72	0xbd33fa0c	-0.043939635
73	0x3dcc5ce8	0.09978658
74	0x3d355e4a	0.044279374
75	0x3de7ec15	0.11324326
76	0x3e5088a8	0.2036463
77	0x3e1dbd24	0.15404183
78	0xbc6a0eea	-0.014285782
79	0x3d373f3f	0.04473805
80	0xbd242670	-0.04007572
81	0x3edf8367	0.4365494
82	0x3d4311bd	0.04762434
83	0x3d87c330	0.06629026
84	0x3d80aa47	0.06282478
85	0x3e937587	0.28800604
86	0x3c3d2769	0.011545041
87	0x3d099440	0.033588648
88	0x3ed4c5e1	0.4155722
89	0x3d1d292a	0.038369335
90	0xbd0f2ed8	-0.034956783
91	0x3ee1067b	0.43950257
92	0x3d67c600	0.056585312
93	0x3e013916	0.12619433
94	0x3d0449b8	0.032296866
95	0x3dc2bae4	0.09508303
96	0x3dfaf6ce	0.122541055
97	0x3e297b03	0.16550831
98	0x3c8ddd25	0.017317364
99	0xbdaab130	-0.08334577
100	0xbd589d3b	-0.05288432
101	0x3d95bee4	0.073118
102	0xbce4ab90	-0.027913839
103	0x3d8555fc	0.06510541
104	0xbd91e0ea	-0.07122977
105	0x3b2cf640	0.0026391894
106	0x3df24544	0.118296176
107	0x3d90c062	0.07067944
108	0x3d25d844	0.04048945
109	0x3e9ab7c6	0.30218333
110	0x3e38cece	0.1804764
111	0x3ece9ec6	0.4035551
112	0x3ca77e53	0.020445978
113	0x3dfaec62	0.12252118
114	0x3b299956	0.002587875
115	0xbd0a1e58	-0.033720344
116	0x3e2b0565	0.16701277
117	0x3e9236aa	0.2855733
118	0x3e7ff67b	0.24996369
119	0x3bc35dcc	0.005962109
120	0x3ddcca43	0.10780766
121	0xbdd5c868	-0.10438615
122	0x3ddf77b8	0.109115064
123	0xbc7c203f	-0.015388547
124	0x3d76713b	0.06016658
125	0x3d0415ec	0.03224747
126	0x3eca0493	0.39456615
127	0x3eb88792	0.36040932
128	0xbd761754	-0.06008084
129	0x3e6d746a	0.2318894
130	0x3e2e4588	0.17018712
131	0x3d1acda4	0.03779377
132	0x3e5e5edd	0.21715875
133	0xbd87bbf6	-0.066276476
134	0xbd27f232	-0.04100246
135	0x3c581d20	0.013190538
136	0x3e798716	0.24367937
137	0x3deece7a	0.11660476
138	0x3e036680	0.1283207
139	0x3ee11306	0.43959826
140	0xbce449cc	-0.02786722
141	0x3cacba91	0.021085056
142	0xbdc4099e	-0.09572147
143	0xbdec15be	-0.115275845
144	0x3e38b431	0.18037488
145	0x3def60c4	0.116883785
146	0x3ef98c99	0.4874008
147	0xbb68fb27	-0.003555009
148	0xbdc3805e	-0.095459685
149	0x3e30f8d8	0.17282426
150	0x3e9e5c49	0.30929783
151	0xbbfb8d81	-0.0076767807
152	0xbd1929c9	-0.037393365
153	0xbb8461e0	-0.004039988
154	0x3c47c067	0.012191868
155	0x3d653b71	0.05596489
156	0x3e2e86b4	0.17043573
157	0x3e1108c8	0.14163506
158	0x3ce6fc72	0.028196547
159	0x3d97ad2b	0.07406076
160	0x3d1ace3b	0.037794333
161	0x3ec24dab	0.3794988
162	0x3f400e98	0.7502227
163	0xbd85405c	-0.06506416
164	0x3dc34e3a	0.09536405
165	0xbdf8a1f6	-0.121402666
166	0x3da82559	0.082102485
167	0xbc9c61f0	-0.019089669
168	0x3da82e87	0.082119994
169	0x3e8218b7	0.2540948
170	0xbda2f9f0	-0.07957828
171	0x3dbf3884	0.093369514
172	0x3dd87a2a	0.10570176
173	0x3f006a15	0.5016187
174	0x3e683123	0.22674994
175	0xbca47ae6	-0.020078134
176	0x3dfd1090	0.12356675
177	0x3daa29b6	0.08308737
178	0x3caf128d	0.02137115
179	0x3d9dbf97	0.077025585
180	0x3b535ef9	0.0032252653
181	0x3d492506	0.049107574
182	0x3db803c0	0.0898509
183	0x3dcce1e8	0.10004026
184	0x3ddf271b	0.10896131
185	0x3dec9583	0.115519546
186	0x3d3077c4	0.043082967
187	0x3e112b30	0.14176631
188	0x3df3b5e3	0.118999265
189	0x3d7bf970	0.06151718
190	0x3ce2b520	0.027674258
191	0x3e0841a1	0.13306285
192	0x3c6de54e	0.0145200025
193	0xbc5d5dc0	-0.013511121
194	0xbd3604fa	-0.04443834
195	0x3ea3928d	0.31947747
196	0x3dd659ba	0.10466333
197	0x3d0dc4ff	0.0346117
198	0xbdcc6a86	-0.09981255
199	0x3cedce60	0.029029071
200	0x3db5ca73	0.08876505
201	0x3c1d3e7c	0.009597417
202	0xbd9cab7a	-0.07649894
203	0xbd0b6212	-0.034029074
204	0x3eb248f8	0.34821296
205	0x3cc5fde2	0.024168912
206	0xbcb66338	-0.022264108
207	0x3dca0d48	0.098658144
208	0x3dc3ee65	0.095669545
209	0xbc50dd3e	-0.012748061
210	0xbd310c87	-0.043224838
211	0xbdc58aa0	-0.09645581
212	0x3d3f5b0c	0.04671769
213	0x3d354e2f	0.044264015
214	0x3e89ac9b	0.268895
215	0x3dd43fab	0.10363706
216	0x3bbeaa61	0.0058186506
217	0x3c6d8c48	0.014498778
218	0x3c3b3daa	0.011428276
219	0xbd2d5db8	-0.042325705
220	0x3d9dea2c	0.0771068
221	0x3d812788	0.06306368
222	0xba972d1b	-0.0011533828
223	0x3cf5c070	0.029998988
224	0xbd66c294	-0.056337908
225	0x3ebd41ad	0.3696417
226	0xbdef96b8	-0.11698669
227	0x3e4d2751	0.2003453
228	0x3f0d9385	0.5530322
229	0xbdbd8534	-0.09253922
230	0x3e505ddc	0.20348305
231	0x3db53d42	0.088495746
232	0xbbd48353	-0.0064853816
233	0xbda6cc53	-0.081444405
234	0xbdc76a84	-0.09737113
235	0x3cb8c0f9	0.022552954
236	0x3c66639f	0.014061837
237	0x3e1320d0	0.14367986
238	0x3e17cbb1	0.14823796
239	0xbdbcf587	-0.09226518
240	0x3dd729fb	0.10506054
241	0x3d98eb9e	0.074668154
242	0xbc7e3e60	-0.015517801
243	0x3dc2ea26	0.095173165
244	0x3dfd4ca3	0.12368133
245	0x3e08618f	0.13318466
246	0x3d95bb53	0.0731112
247	0xbcc7fac2	-0.024411563
248	0x3c99ab49	0.018758433
249	0x3e659d17	0.22423206
250	0x3e230249	0.1591884
251	0x3e416db4	0.18889505
252	0xbd5c36e3	-0.05376328
253	0x3dc5b9d0	0.096545815
254	0x3d1520e0	0.036408305
255	0x3e01064f	0.12600063

ff_1.weight f4 [256, 256]
0	0xbcb10cb4	-0.021612503
1	0x3d86031e	0.06543563
2	0x3deaace0	0.114587545
3	0xbd7c4015	-0.06158455
4	0x37eb8000	2.8073788e-05
5	0x3c784692	0.015153544
6	0x3d43323c	0.04765533
7	0x3daf22d8	0.08551568
8	0xbdad6106	-0.084657714
9	0xbdad1a18	-0.084522426
10	0x3ca8a25b	0.02058523
11	0x3cae0a10	0.021245033
12	0xbd192ef8	-0.03739831
13	0xbd5a49c1	-0.053292993
14	0xbc57b3a8	-0.013165392
15	0x3cbd2c5b	0.02309244
16	0xbe22d3a9	-0.15901054
17	0x3da8a972	0.08235444
18	0x3bced447	0.0063119265
19	0x3d848fc2	0.06472732
20	0xbd26d73c	-0.040732607
21	0xbdac5366	-0.084143445
22	0x3d1f40c5	0.03888013
23	0x3d89ef85	0.06735138
24	0xbcfc0295	-0.03076295
25	0x3cb79c9f	0.02241355
26	0xbd339ae8	-0.043848902
27	0x3ce106a0	0.02746898
28	0xbd8f40b8	-0.06994766
29	0x3d8ea749	0.06965501
30	0xbd70800e	-0.058715872
31	0x3cddca71	0.02707407
32	0xbc46af9a	-0.012126828
33	0x3c7a8649	0.015290805
34	0xbcacc12e	-0.021088209
35	0x3c6ea0b0	0.014564678
36	0xbc6dd7e8	-0.014516808
37	0xbcc33b24	-0.023831911
38	0x3d22905a	0.039688446
39	0x3b1ffbe0	0.0024411604
40	0x3d2c0245	0.041994352
41	0x3d974cdb	0.07387706
42	0x3b5fefa1	0.003416993
43	0x3d098bf8	0.03358075
44	0xbcd8ba19	-0.026455926
45	0xbd5740b3	-0.052551936
46	0xbc1e5448	-0.009663649
47	0xbcc15d07	-0.02360393
48	0xbc64bdc1	-0.0139612565
49	0xbbb82c6d	-0.0056205303
50	0xbdd9588a	-0.106125906
51	0x3d4f6c4e	0.050640397
52	0x3d22daa4	0.039759293
53	0x3c99b197	0.01876144
54	0xbe0ad415	-0.13557465
55	0x3e2bede0	0.16789961
56	0x3c048a70	0.008089647
57	0xbd198dbf	-0.037488695
58	0xbdc30c57	-0.09523838
59	0xbe5d4a37	-0.21610342
60	0xbe1c953a	-0.152913
61	0xbd64973c	-0.05580829
62	0x3d609184	0.054826275
63	0xbca159e6	-0.019696187
64	0x3d50304a	0.050827302
65	0x3b8bda70	0.004267983
66	0x3df3fb88	0.1191321
67	0xbe30a57d	-0.17250629
68	0x3cb63998	0.02224426
69	0x3d089a3c	0.033350214
70	0x3d0acf5d	0.033889163
71	0xbd0c1e29	-0.03420845
72	0x3d330d12	0.043713637
73	0x3e02e48d	0.12782498
74	0x3ce61dea	0.028090436
75	0x3ccc7e18	0.02496247
76	0xbe2029c2	-0.1564093
77	0xbdc621a0	-0.09674382
78	0x3da003f0	0.07813251
79	0xbc7fd11d	-0.015613821
80	0xbc38cab0	-0.011278793
81	0x3e2a1e15	0.16613038
82	0xbd038cab	-0.032116573
83	0xbdb1997b	-0.08671852
84	0x3e08acd1	0.13347174
85	0x3df79279	0.12088484
86	0x3c5a3782	0.013318898
87	0x3d60f6c8	0.05492285
88	0x3e3905d0	0.18068624
89	0x3cd713cb	0.026254555
90	0x3c8014dc	0.015634947
91	0xbc25709d	-0.01009765
92	0xbcb2c447	-0.021822108
93	0x3d5dce44	0.05415179
94	0xbd12d4a6	-0.03584733
95	0xbbd012e0	-0.0063499063
96	0x3bbe4280	0.0058062673
97	0xbd1f9143	-0.03895689
98	0x3d193cf2	0.037411638
99	0x3bd561c1	0.0065118973
100	0xbb9637cd	-0.0045842887
101	0x3d794427	0.06085601
102	0xbd1bf4a7	-0.038075116
103	0xbd244046	-0.04010036
104	0xbbc3e260	-0.0059779137
105	0xbd503a72	-0.050836988
106	0x3d4d474c	0.050116822
107	0xbda06118	-0.07831019
108	0x3cfb5038	0.0306779
109	0xbe1cfeba	-0.15331545
110	0x3ba7f381	0.0051254635
111	0x3e6df9ba	0.23239794
112	0xbd015e9a	-0.03158436
113	0x3d32ff4c	0.0437005
114	0xbc0aa2bd	-0.008461651
115	0xbc921e7c	-0.017836802
116	0xbd76f5b6	-0.060292922
117	0xbdc087b3	-0.094008826
118	0x3d97a8f2	0.07405271
119	0x3dcaa49a	0.098946765
120	0xbd904699	-0.070447154
121	0xbcb5cc50	-0.02219215
122	0x3cae3da4	0.021269627
123	0xbd7ea55a	-0.06216941
124	0x3d35844e	0.04431563
125	0xbcb9d160	-0.022682846
126	0x3d22a525	0.039708275
127	0x3dddaed6	0.10824363
128	0x3d4f5d63	0.05062617
129	0x3e4cd09e	0.20001456
130	0x3e135796	0.1438888
131	0x3c86f3b5	0.01647363
132	0xbc80b7dd	-0.015712673
133	0x3c58db89	0.013235935
134	0x3cf2c4ca	0.029634852
135	0xbca86cc0	-0.020559669
136	0xbc3b813e	-0.011444388
137	0x3db8a11f	0.090151064
138	0x3d4582fe	0.048220627
139	0xbe4fe57f	-0.2030239
140	0xbd81cb14	-0.06337562
141	0xbd5cafd9	-0.05387864
142	0x3c002390	0.007820979
143	0xbcda988a	-0.026684064
144	0xbe015614	-0.12630492
145	0x3e16bb7c	0.14719957
146	0x3eb423c3	0.35183534
147	0x3d4bf693	0.0497957
148	0xbcc7da18	-0.024395987
149	0x3e334c8d	0.1750967
150	0x3d8567c3	0.065139316
151	0xbd5fa4ad	-0.054600406
152	0x3cf7902e	0.030220117
153	0xbd14606a	-0.03622476
154	0xbc00279d	-0.007821945
155	0x3ce6833f	0.028138755
156	0x3a5635d6	0.00081714743
157	0x3d4cfb89	0.05004457
158	0xbbbc8232	-0.005752825
159	0x3e19e1c3	0.15027528
160	0x3dab0969	0.08351404
161	0xbe551f56	-0.20812735
162	0xbf08ae8a	-0.53391325
163	0xbd700bee	-0.058605127
164	0x3dfbde07	0.12298208
165	0xbd57d0d6	-0.052689396
166	0xbc16ca0d	-0.009203446
167	0xbcfa37e0	-0.030544221
168	0xbd7c9765	-0.06166782
169	0x3e8e83fa	0.27835065
170	0xbd7f1122	-0.0622722
171	0xbd5f9d16	-0.05459317
172	0x3d14e9d8	0.036355823
173	0x3e31acc7	0.17351066
174	0xbd83582a	-0.064133
175	0x3d5527a2	0.05203975
176	0x3d6603fe	0.05615615
177	0xbd253ab8	-0.0403392
178	0xbd078f7c	-0.03309582
179	0xbd26ba1f	-0.040704843
180	0xbda48dd5	-0.08034865
181	0xbe0d0add	-0.13773675
182	0x3d113eaa	0.03546015
183	0x3c09fe09	0.008422383
184	0xbc1cb97f	-0.00956571
185	0x3dc10f1c	0.0942671
186	0xbe1da7c1	-0.15396024
187	0xbd27a0b9	-0.04092476
188	0x3d4631ff	0.048387524
189	0xbd7c229e	-0.06155645
190	0x3d0358cc	0.032067105
191	0xbd89b43c	-0.0672383
192	0x3d9a162f	0.075237624
193	0x3bc66561	0.006054566
194	0x3cc098ad	0.023510301
195	0xbdbfa860	-0.09358287
196	0xbd526b19	-0.051371668
197	0x3cdbe473	0.026842332
198	0xbd5fdb4b	-0.054652493
199	0x39843a00	0.00025220215
200	0x3ca48def	0.02008721
201	0x3d233550	0.039845765
202	0x3da82c13	0.082115315
203	0xbceb79a2	-0.028744522
204	0xbe279724	-0.1636625
205	0xbc8b5890	-0.017010003
206	0xbd276ce4	-0.04087533
207	0x3c680d09	0.014163264
208	0x3c67d9f7	0.014151088
209	0x3d99db8a	0.07512577
210	0x3d62a249	0.05533055
211	0x3c1fc240	0.009750903
212	0x3d6f05be	0.058355086
213	0x3c948b0e	0.018132713
214	0x3dbf4183	0.09338667
215	0xbd27ea55	-0.04099496
216	0xbcf12ac7	-0.029439343
217	0x3d3ce5c0	0.046117544
218	0xbdb3b7a9	-0.08775265
219	0xbc900954	-0.017582573
220	0x3d1ec992	0.03876645
221	0x3c01bb61	0.00791821
222	0xbdab94de	-0.083780035
223	0xbd63d01f	-0.0556184
224	0xbd9bfa90	-0.076161504
225	0xbe64931b	-0.22321741
226	0xbbefa374	-0.0073131863
227	0x3d82a44a	0.06378992
228	0xbe563655	-0.20919164
229	0x3d0850f8	0.033280343
230	0x3d9f3223	0.07773235
231	0x3dbe10ce	0.09280549
232	0x3c77e55a	0.015130365
233	0x3d9018f1	0.07036007
234	0xbc43e377	-0.011956087
235	0xbd26f023	-0.040756356
236	0x3d6e142c	0.058124706
237	0x3d8e2684	0.0694094
238	0xbbc9d840	-0.006159812
239	0xbcf403b5	-0.029786924
240	0xbe5ac750	-0.21365094
241	0xbc43c043	-0.011947694
242	0xbc814040	-0.015777707
243	0x3d726071	0.059174005
244	0xbcfd2505	-0.030901441
245	0x3cf93b72	0.030423854
246	0x3d8eedfc	0.06978986
247	0x3ccb4d1f	0.024817048
248	0x3d483784	0.04888107
249	0x3cab4685	0.02090765
250	0xbdeed85e	-0.116623625
251	0x3e43c6ce	0.19118807
252	0x3c9f8107	0.019470705
253	0xbcc6542b	-0.024210056
254	0x3c38c5b0	0.011277601
255	0x3dc514db	0.096231185

ff_1.bias f4 [256]
0	0x3d1c6a81	0.038187508
1	0x3d6e3001	0.05815125
2	0xbbde1a99	-0.006778073
3	0xbd52be43	-0.05145098
4	0x3b52b48b	0.003215107
5	0x3ca19394	0.019723691
6	0x3d000b59	0.031260822
7	0x3d805107	0.06265455
8	0x3d182b22	0.03715051
9	0x3ca7e735	0.02049599
10	0x3d6bab48	0.057536393
11	0x3d850d75	0.06496707
12	0x3d7f4061	0.062317256
13	0xbd81bf64	-0.06335333
14	0x3d9285e1	0.071544416
15	0x3d15b22e	0.03654688
16	0x3ca3099e	0.019902047
17	0xbca6dc27	-0.020368649
18	0xbcc72766	-0.024310779
19	0x3d78452e	0.06061285
20	0xbccc14ac	-0.0249122
21	0x3d7588f2	0.059945054
22	0x3d126140	0.035737276
23	0xbd17f406	-0.037097953
24	0x3c1f4b21	0.009722502
25	0xbd7be618	-0.06149873
26	0x3d33b960	0.04387796
27	0x3cc1f8ed	0.023678267
28	0xbc25225b	-0.010078992
29	0xbcfcb7b9	-0.030849325
30	0x3b6afc21	0.0035855847
31	0xbd22682f	-0.03965014
32	0xbc713b6b	-0.014723639
33	0xbd2d739f	-0.042346593
34	0x3d278385	0.04089691
35	0xbdb3d666	-0.08781128
36	0x3d1efefd	0.038817395
37	0x3d506279	0.05087516
38	0xbd194c16	-0.037426077
39	0xbd6fbcb0	-0.058529556
40	0xbd3a492e	-0.045479946
41	0xbd4b28d6	-0.04959949
42	0xbd5246d5	-0.051337082
43	0x3c36756e	0.011136396
44	0x3cfc8f84	0.030830152
45	0xbd56596c	-0.052331373
46	0x3d523e08	0.05132869
47	0x3c19213c	0.009346303
48	0xbd2a46e8	-0.041571528
49	0x3d84942a	0.064735726
50	0xbb017063	-0.0019750826
51	0x3d92949d	0.07157252
52	0x3cae8687	0.021304382
53	0xbcc34fed	-0.023841823
54	0x3cc44324	0.023957796
55	0x3d52cbaa	0.05146376
56	0x3ca17dc5	0.019713292
57	0x3d56d700	0.052451134
58	0xbd3f375b	-0.04668365
59	0xbd8586b4	-0.06519833
60	0xbd4f6d6b	-0.05064146
61	0xbd07bc26	-0.033138417
62	0xbc382ffa	-0.011241907
63	0xbcf8edd1	-0.030386837
64	0xbcb6ddd9	-0.022322582
65	0x3cf1067c	0.029422037
66	0xbd63da51	-0.055628125
67	0xbbfb72aa	-0.007673581
68	0x3becd505	0.0072275423
69	0xbd14f213	-0.036363672
70	0xbd86ddfb	-0.06585308
71	0xbd2eaa53	-0.042642903
72	0x3d82e316	0.063909695
73	0x3cb38cf2	0.021917794
74	0x3d49d3db	0.049274307
75	0xbd14ec4f	-0.036358174
76	0x3c996a37	0.018727405
77	0xbc7c80a2	-0.015411528
78	0x3c8a6814	0.016895331
79	0x3cc44b0f	0.023961572
80	0x3d7c49a3	0.061593663
81	0x3b5760d2	0.0032864106
82	0xbd5a05aa	-0.053228058
83	0xbd6a776e	-0.057242803
84	0x3d1a4749	0.03766564
85	0x3ccb2a3f	0.024800418
86	0x3c66d996	0.0140899625
87	0x3c2368a7	0.0099736815
88	0x3c8a4674	0.016879298
89	0xbd019f32	-0.03164596
90	0xbcd6e2e2	-0.026231233
91	0x3c422e19	0.011851811
92	0x3c287cbc	0.010283645
93	0xbb9495f4	-0.0045344774
94	0x3d2fb353	0.042895626
95	0x3d845dbe	0.064631924
96	0x3d1ec099	0.038757894
97	0x3d364dca	0.04450778
98	0xbd89a08f	-0.06720077
99	0xbda89767	-0.08232003
100	0x3da72dab	0.08163007
101	0x3d15f497	0.036610212
102	0xbd283685	-0.04106762
103	0xbdd13c68	-0.102166
104	0xbd21d63e	-0.039510958
105	0xbb6ce6ea	-0.0036148378
106	0x3b21b8f6	0.0024676896
107	0xbd8e4a5a	-0.06947775
108	0xbd518fab	-0.051162403
109	0x3cc81af7	0.02442692
110	0x3c0def42	0.008663001
111	0xbdc63311	-0.09677709
112	0xbdb732ec	-0.089452595
113	0x3ce567a9	0.02800353
114	0xbd07ddb7	-0.033170428
115	0x3c0decfc	0.0086624585
116	0xbc87a476	-0.016557913
117	0x3cc47af2	0.023984406
118	0xbdf779e1	-0.120837934
119	0xbcd1f17c	-0.025627844
120	0xbb110c18	-0.0022132453
121	0xbc5639d1	-0.013075308
122	0x3da35d66	0.07976799
123	0x3d9e2b78	0.07723135
124	0xbc2a8c27	-0.0104093915
125	0xbca3d0fb	-0.01999711
126	0xbd88f4b8	-0.066873014
127	0x3b2c77ad	0.002631645
128	0xbc1c9b88	-0.009558566
129	0xbd5733a5	-0.052539486
130	0xbceaab70	-0.0286462
131	0xbca087a7	-0.019595934
132	0x3c8c248e	0.017107274
133	0x3cfaec3d	0.030630225
134	0x3c0177f4	0.007902134
135	0xbbfa4ea5	-0.0076387697
136	0xbcebd2de	-0.028787073
137	0x3a9cb888	0.001195685
138	0x3d885bb6	0.066581175
139	0xbbd06d9f	-0.006360724
140	0x3d42ff9d	0.047607053
141	0x3d2a5325	0.0415832
142	0x3d124c67	0.035717394
143	0xbcdf6df2	-0.027274106
144	0xbc95a725	-0.018268177
145	0x3a8ae3ca	0.0010596451
146	0xbd2010e7	-0.03907862
147	0xbd4e939c	-0.05043374
148	0x3cb09701	0.02155638
149	0x3d36c9fb	0.044626217
150	0x3b8d0e79	0.004304704
151	0xbd54ade1	-0.051923636
152	0xbc1661a7	-0.009178556
153	0x3d9dde63	0.077084325
154	0xbd29ad79	-0.041425202
155	0xbdba1c55	-0.09087435
156	0x3ba59d38	0.0050541423
157	0xbcabab4f	-0.02095571
158	0x3d55475d	0.05207001
159	0xbc8107ee	-0.015750851
160	0xbc9036f3	-0.017604327
161	0xbba3f821	-0.0050039445
162	0xbd2a4439	-0.04156897
163	0xbc4fc555	-0.012681325
164	0x3c810b00	0.015752316
165	0xbd73e197	-0.05954131
166	0xbdbd7b9d	-0.09252093
167	0x3ccf1b9a	0.025281716
168	0x3d3b1292	0.045672007
169	0x3c56e1df	0.013115375
170	0xbc646e7d	-0.013942358
171	0x3d615bff	0.055019375
172	0x3daccdf4	0.0843772
173	0x3c96bef8	0.018401608
174	0x3cc607bb	0.024173608
175	0x3d62455b	0.055241924
176	0xbdd47038	-0.103729665
177	0xbc04e6c8	-0.008111663
178	0x3d82590d	0.06364641
179	0x3d93e13d	0.07220695
180	0x3cbfae79	0.023398625
181	0xbd41fe3b	-0.047361594
182	0xbd062f97	-0.03276023
183	0xbd2bb076	-0.041916333
184	0x3d85f138	0.065401495
185	0xbcf66b70	-0.030080527
186	0xbde150bc	-0.11001727
187	0x3d634860	0.055488944
188	0xbc2db2fc	-0.010601755
189	0xbd3f7ffb	-0.04675291
190	0xbbe81301	-0.0070823436
191	0xbd4a726d	-0.04942553
192	0x3d4ff71d	0.050772775
193	0x3d578f97	0.052627172
194	0x3c862e7a	0.016379584
195	0xbca07919	-0.019588994
196	0x3cb1be25	0.021697113
197	0xbc5e00a9	-0.013549962
198	0xbcf704b0	-0.030153602
199	0xbd76b706	-0.06023314
200	0xbdce893d	-0.1008477
201	0xbcb90159	-0.02258365
202	0x3cba55fc	0.022746079
203	0x3d1cbff6	0.038269006
204	0xbd26f436	-0.04076024
205	0x3a7678d5	0.00094021606
206	0x3bcf3802	0.0063238153
207	0xbb6cfc40	-0.0036161095
208	0xbd67d23d	-0.056596983
209	0x3d4876b4	0.04894133
210	0xbd3c2b77	-0.04593989
211	0x3d1a0fe3	0.037612807
212	0x3c85dd98	0.016341016
213	0xbd6d3d87	-0.057920005
214	0x3d0b5833	0.03401966
215	0x3d93a605	0.072094
216	0xbd45af65	-0.048262972
217	0xbb5dacdb	-0.0033824954
218	0xbb107e9f	-0.0022048128
219	0x3d0f48cc	0.034981534
220	0xbd26115c	-0.0405439
221	0x3cc34e41	0.023841025
222	0xbdd06d29	-0.10177071
223	0x3c2ec740	0.010667622
224	0xbcc7b268	-0.024377063
225	0xbd276748	-0.04086998
226	0x3bc4e9bf	0.00600931
227	0x3cfe6e7b	0.03105854
228	0xbd214deb	-0.03938095
229	0xbccccf04	-0.025001056
230	0xbd381506	-0.044941925
231	0x3d6c0282	0.05761958
232	0xbdb6fd0a	-0.08934982
233	0xbc84fe78	-0.016234621
234	0x3aabf25a	0.0013118491
235	0x3d9d6fb2	0.0768732
236	0x3d336c28	0.043804318
237	0x3d2d2fc2	0.042281874
238	0xbc8c85f7	-0.017153723
239	0xbc63c359	-0.013901555
240	0xbdd1b220	-0.10239053
241	0xbbdb4589	-0.006691639
242	0xbcd3e3b0	-0.025865406
243	0x3ae7c7d4	0.0017683455
244	0x3d9d2a0d	0.07674036
245	0x3d9cd7fa	0.07658382
246	0xbcc55248	-0.024087086
247	0x3d811b2a	0.06304009
248	0x3d28a976	0.041177236
249	0xbca6c907	-0.02035953
250	0xbd45b592	-0.048268862
251	0xbc0eeef6	-0.008723965
252	0xbd2072cd	-0.039171983
253	0xbbf8efce	-0.0075969463
254	0xbca68fee	-0.020332303
255	0x3d8d3c8a	0.068963125

ff_2.weight f4 [1, 256]
0	0xbe1db8e9	-0.15402569
1	0x3e1b9aac	0.15195721
2	0xbe304a15	-0.1721576
3	0x3e06ec82	0.13176158
4	0x3debc00c	0.115112394
5	0x3e691d85	0.22765167
6	0x3dc1b8f3	0.094591044
7	0xbdf13658	-0.117779434
8	0xbdf4add8	-0.119472206
9	0x3dafdf32	0.08587493
10	0x3df6bf31	0.120481856
11	0xbe0d96f5	-0.13827117
12	0xbe1ad058	-0.1511854
13	0x3e23651e	0.15956542
14	0xbd8b7645	-0.068096675
15	0xbe3926cd	-0.18081208
16	0x3dee1aac	0.11626181
17	0xbde8e36a	-0.11371501
18	0xbe1c9fe0	-0.15295362
19	0xbe8c0ddc	-0.27354324
20	0xbe1584b0	-0.14601398
21	0xbe16763c	-0.1469354
22	0xbe11d9e6	-0.14243278
23	0x3dea5a8c	0.11443052
24	0x3d98f166	0.07467918
25	0x3db82098	0.08990592
26	0xbdf6dc94	-0.12053791
27	0x3dfcbc5b	0.123406135
28	0x3e087848	0.13327134
29	0xbe1cf9e8	-0.15329707
30	0x3de3356e	0.11094175
31	0x3daf7245	0.08566717
32	0xbdbcf462	-0.092263
33	0x3ddd8bae	0.108176574
34	0xbe9174dc	-0.2840947
35	0x3ddacfc6	0.10684161
36	0x3dec3492	0.115334645
37	0x3da5fecc	0.08105239
38	0xbde99cba	-0.11406846
39	0x3e245b9c	0.16050571
40	0x3dff65d7	0.12470596
41	0xbe697387	-0.22797976
42	0xbea249fb	-0.31697068
43	0x3dcf012a	0.10107644
44	0xbe21402e	-0.15747139
45	0x3d897326	0.06711416
46	0xbe128447	-0.14308272
47	0xbe1d99ed	-0.1539075
48	0xbe40f45b	-0.18843214
49	0xbdeff0ca	-0.11715849
50	0x3e22b124	0.15887886
51	0xbdc38920	-0.09547639
52	0xbdf1ce3c	-0.11806914
53	0xbe0f46e5	-0.13991888
54	0xbe99bccb	-0.3002685
55	0xbe0db9a0	-0.13840342
56	0x3dfeb18d	0.12436209
57	0xbe00c3a0	-0.12574625
58	0x3e144979	0.14481153
59	0x3e11f04c	0.14251822
60	0x3db021a7	0.08600169
61	0xbe239e66	-0.15978393
62	0x3de3cbf9	0.11122889
63	0xbde419c6	-0.111377284
64	0x3df6c46c	0.12049183
65	0xbe35f2e8	-0.17768443
66	0xbe3e66dc	-0.18593925
67	0x3e46802a	0.19384828
68	0x3e314818	0.17312658
69	0xbe8ae0e5	-0.27124706
70	0xbe4732b7	-0.1945294
71	0xbdb93e7d	-0.09045122
72	0xbdfce96b	-0.123492084
73	0xbea5eec5	-0.3240873
74	0xbe3a1344	-0.18171412
75	0xbdb953d6	-0.090491936
76	0xbdac99e3	-0.08427789
77	0x3ddad145	0.10684446
78	0x3dc03bed	0.0938643
79	0xbe51b315	-0.2047847
80	0xbe134a91	-0.14383914
81	0xbe0014ee	-0.12507984
82	0xbe03de6d	-0.12877817
83	0x3dfddb05	0.1239529
84	0x3ddd904c	0.10818538
85	0xbdf4ceec	-0.1195353
86	0xbe068204	-0.13135535
87	0xbd882ced	-0.06649194
88	0xbe062833	-0.13101272
89	0x3e61dfaf	0.22057985
90	0xbe12bc5c	-0.14329666
91	0xbdec699c	-0.11543581
92	0xbdc6c1a1	-0.097049005
93	0xbe6bce95	-0.23028024
94	0xbe4772c1	-0.19477369
95	0xbdbe302e	-0.09286533
96	0xbdf256b6	-0.11832945
97	0x3de2314d	0.1104456
98	0x3ee6d1b3	0.45081863
99	0x3ec63ae6	0.3871681
100	0xbe0e52fa	-0.1389884
101	0x3e15b2c0	0.14618969
102	0xbdee72f3	-0.116430186
103	0x3e8a345e	0.26993078
104	0x3e4ab92e	0.19797203
105	0x3e3d341a	0.18476906
106	0xbe09764d	-0.13424034
107	0x3e25f73f	0.16207598
108	0x3e1d92cf	0.15388034
109	0xbe202f15	-0.1564296
110	0x3def26fc	0.116773576
111	0x3e69185c	0.22763199
112	0x3e46d364	0.19416577
113	0xbe082910	-0.13296914
114	0x3da7dc39	0.08196301
115	0x3e10533b	0.1409425
116	0x3e5eb632	0.2174919
117	0xbe63d1ce	-0.22248003
118	0x3ec6a697	0.38798973
119	0x3dbd35b1	0.092387564
120	0x3dabb1c5	0.08383516
121	0x3ddec2d6	0.10877006
122	0xbe07c735	-0.13259585
123	0xbdf0ef1b	-0.11764356
124	0x3e444a53	0.19168977
125	0x3daa0227	0.08301192
126	0x3e8bbcd2	0.27292496
127	0xbe7f3909	-0.24924101
128	0x3e0482cc	0.1294052
129	0xbe37d3fb	-0.17951958
130	0x3d675e30	0.05648631
131	0xbe71b0d4	-0.23602611
132	0x3df1aeb5	0.11800901
133	0x3df6033b	0.12012335
134	0xbe03b604	-0.12862402
135	0xbdc7268b	-0.09724148
136	0x3e0b64fc	0.13612741
137	0x3db9b9fe	0.09068678
138	0xbe10f506	-0.14155969
139	0x3d8be7e6	0.068313405
140	0xbdfe2d39	-0.12410969
141	0xbda3b599	-0.079936214
142	0xbe02bd01	-0.12767412
143	0x3e0cad43	0.13737969
144	0xbdfe367b	-0.12412735
145	0x3e58109e	0.21100089
146	0xbe888844	-0.26666462
147	0x3eb70f87	0.35754034
148	0x3e00ae81	0.12566568
149	0xbe5b08a7	-0.2139002
150	0xbe5ff417	-0.21870457
151	0xbe87d7cf	-0.26531836
152	0xbe10ec2f	-0.14152597
153	0xbe46e148	-0.19421875
154	0x3da682b4	0.081303984
155	0x3de65f6c	0.11248669
156	0x3e02a1c1	0.12757017
157	0x3e79483a	0.24343958
158	0xbec7390a	-0.38910705
159	0xbe50f9ea	-0.20407835
160	0xbdbbd2f2	-0.09171094
161	0x3df566ba	0.11982484
162	0xbe1f666d	-0.15566416
163	0xbddf60ce	-0.10907136
164	0xbdf62e8b	-0.12020596
165	0xbe92ad67	-0.2864792
166	0x3e4549eb	0.19266479
167	0xbe13987c	-0.14413637
168	0x3dd87d41	0.10570765
169	0xbe260909	-0.16214384
170	0x3e341648	0.17586625
171	0x3e065583	0.13118558
172	0xbde14841	-0.110001095
173	0xbe0b7f22	-0.13622716
174	0xbe5aae92	-0.21355656
175	0x3dc38e0a	0.09548576
176	0x3e8178ef	0.25287578
177	0x3e605e59	0.21910991
178	0xbe0b3a12	-0.13596371
179	0xbdcea242	-0.10089542
180	0x3e1504e2	0.14552644
181	0x3e537939	0.20651712
182	0xbe3217a4	-0.1739183
183	0x3dfb6577	0.12275212
184	0xbddc94b8	-0.10770553
185	0x3d978d98	0.07400054
186	0x3e1885b9	0.14894761
187	0xbd97086f	-0.073746555
188	0x3e1fda8f	0.15610717
189	0x3de0cbb1	0.10976351
190	0xbeaca30c	-0.33718145
191	0x3e23943f	0.1597452
192	0x3df572fd	0.11984823
193	0xbe1f01a4	-0.1552797
194	0xbe256fe7	-0.16155969
195	0xbdff7183	-0.124728225
196	0x3db41282	0.087925926
197	0xbed42cc5	-0.41440406
198	0x3e4f5988	0.20248997
199	0x3e430976	0.19046578
200	0x3ee58d4a	0.44834358
201	0xbdb58e49	-0.08865029
202	0x3dcb22e9	0.09918768
203	0xbe2979d9	-0.16550387
204	0xbe5fb2f5	-0.2184561
205	0xbea07c1a	-0.31344682
206	0x3d805d74	0.06267825
207	0xbe04774b	-0.12936132
208	0x3e52464d	0.2053463
209	0xbd931a3f	-0.071827404
210	0x3e20f0e2	0.1571689
211	0x3de83bdc	0.11339542
212	0x3e2dbeee	0.16967365
213	0x3e2afdc4	0.16698366
214	0xbe6bc574	-0.23024541
215	0xbe0a72b8	-0.13520324
216	0x3deebafb	0.116567574
217	0x3da60f6d	0.08108411
218	0x3e50cf9e	0.203917
219	0xbd9a2572	-0.075266734
220	0xbe20ec30	-0.15715098
221	0xbe0c67b2	-0.13711432
222	0x3e8448c7	0.25836775
223	0xbe04dd57	-0.1297506
224	0xbe14853e	-0.14503953
225	0x3e70d7ed	0.23519869
226	0xbdfb1f92	-0.12261881
227	0x3e30634a	0.17225376
228	0x3ddf1e4c	0.108944505
229	0x3e2da257	0.16956459
230	0xbe2cf3e0	-0.16889906
231	0x3d92126b	0.07132419
232	0x3e15edee	0.14641544
233	0xbe25f177	-0.16205393
234	0xbdb65d35	-0.089044966
235	0xbe20bdc2	-0.15697387
236	0xbe653f2a	-0.22387376
237	0x3e06f832	0.13180616
238	0x3dbc9d49	0.09209687
239	0x3ebf9600	0.37419128
240	0x3e4496c0	0.19198132
241	0xbe0dc883	-0.1384602
242	0x3e1eeca9	0.15519966
243	0x3dc6681f	0.09687828
244	0xbe0e3029	-0.13885559
245	0xbdcabc2c	-0.09899172
246	0x3e2bd7a5	0.1678148
247	0xbe194d05	-0.14970787
248	0x3df8628d	0.12128172
249	0xbe30d3e5	-0.17268331
250	0x3dd48c99	0.103783794
251	0x3dfedc4d	0.12444363
252	0xbe37f152	-0.1796315
253	0xbe22e9fe	-0.15909573
254	0xbda02d24	-0.0782111
255	0xbe036023	-0.12829642
