runs/checkpoint_actor_256_192021_tau1_720.pth (torch, 288535 bytes, 6 tensors)

fc1.weight f4 [256, 19]
000000 0a e0 49 bd 60 0e f1 3b 5c bd 6b bd 0e 33 4f bd
       -0.049285926 0.00735645 -0.057553634 -0.0505858
000010 30 24 b9 bc 50 3e 61 bd 70 7f 58 bc 78 9c 70 bc
       -0.022600263 -0.054991066 -0.013213977 -0.014685743
000020 86 1b 54 bd 68 50 06 bd 70 01 bd 3b 98 fa be 3c
       -0.05178406 -0.032791525 0.0057679936 0.023312852
000030 84 69 2b bd 28 2b 2f 3c 00 32 60 3d 98 ce 6a bc
       -0.041848674 0.010691442 0.054735184 -0.014331482
000040 2c 79 9b 3c d8 41 4d 3c 00 67 13 bb 8a 28 15 3d
       0.018978678 0.012527905 -0.0022491813 0.036415614
000050 e8 15 e2 bd 74 13 64 3e c0 92 05 be 76 51 6b be
       -0.110393345 0.22273046 -0.13044262 -0.22980294
000060 54 f3 8f 3e 12 b4 e2 3e a6 f7 84 bd 71 73 8d be
       0.28115332 0.44278008 -0.06492548 -0.27627137
000070 39 23 aa be 96 0f 2a be 9c b2 1d be 52 0e c2 bd
       -0.33229998 -0.16607508 -0.15400165 -0.09475388
000080 ea 6f 85 3d b0 95 d3 3d 6f 87 f2 be 48 bd 77 be
       0.065154865 0.10331285 -0.47368953 -0.24193299
000090 23 d2 ee be 09 e6 d8 be 44 07 75 bc de 6a eb 3d
       -0.46644697 -0.42363003 -0.014955346 0.11494993
0000a0 20 41 0d 3e a9 1b 80 3d 8a 1b fe bd 27 7a 2b be
       0.13794374 0.06255276 -0.124075964 -0.16745816
0000b0 68 b0 16 3f a5 75 6a bf 3d 21 21 bf 2f a5 a1 be
       0.58862925 -0.9158576 -0.6294134 -0.31571338
0000c0 ff 2e f6 bd a1 3c d1 bd f9 54 da bc 55 13 85 3e
       -0.120206825 -0.10216642 -0.026651846 0.25991312
0000d0 2d 7d 09 be e3 f3 88 3e cd 61 89 bf 0e 14 58 bf
       -0.13426657 0.2674857 -1.0732971 -0.844056
0000e0 cc 3e d0 be 11 bb 3d 3b c4 3f 4e be e2 3e 39 be
       -0.4067291 0.0028950612 -0.20141512 -0.18090394
0000f0 ac 2a 80 be bf f6 fd be 0d bc 85 3e 5c 41 03 3f
       -0.25032556 -0.49602315 0.26120034 0.51271605
000100 7d 8e a7 bf e2 33 ae bf 31 6c a7 bf 91 bd ad be
       -1.3090359 -1.3609583 -1.3079892 -0.3393369
000110 18 26 a5 be 37 ce 9a be ac a6 38 bd 00 37 5e bd
       -0.32255626 -0.30235454 -0.045080826 -0.05425167
000120 84 36 77 be 0e d8 29 3e f4 ac 1a 3c 70 6d 34 3e
       -0.2414189 0.16586325 0.009440649 0.17619872
000130 6a 02 39 bc 86 63 81 3e 75 d0 8c bd 49 b0 b7 bd
       -0.011292079 0.25271243 -0.068756975 -0.089691706
000140 4d 8f d8 3e d6 01 43 bf 17 97 8f bc 3b f4 84 bb
       0.4229683 -0.76174676 -0.0175281 -0.004057435
000150 95 ba e9 3d 58 be a2 3a 8f 65 ba 3d 1a 7b 4f 3d
       0.11412541 0.0012416346 0.09101402 0.05065451
000160 35 a5 9a 3d 93 ef 18 3e c6 9d 8b 3e 7f a5 01 be
       0.07551042 0.1493514 0.2726881 -0.12660788
000170 74 3b c4 be 99 6c ef bd 8b b3 06 be cf 60 38 3c
       -0.3832661 -0.11690635 -0.13154428 0.01125355
000180 7b be 44 3d 2a f6 32 be 3a 59 8b bd 95 e2 d7 be
       0.04803322 -0.17476717 -0.06804128 -0.42165056
000190 e7 75 cf be 8c 2b 99 3f ba 79 3c 3f eb 94 40 3f
       -0.4051964 1.1966414 0.7362324 0.7522723
0001a0 7e 5a 5b 3f 9e 10 66 be 4d 5e 70 be 00 94 36 be
       0.85684955 -0.22467276 -0.23473473 -0.17829895
0001b0 82 26 19 3d 47 d3 83 be 7a af 1e be 9c f5 9a be
       0.03739024 -0.2574713 -0.15496626 -0.3026551
0001c0 9d d4 27 3d 48 9d 76 3d f7 4b a4 bd 26 96 8f bd
       0.04097425 0.06020859 -0.08022302 -0.070110604
0001d0 8c 3f 09 bd d7 3a d0 3c a5 cd c8 3c 11 7e aa bd
       -0.03350787 0.025418682 0.024512121 -0.083248265
0001e0 aa ce bb 3c 4d 15 e5 bc 11 10 fe bc 37 d1 97 3d
       0.022925694 -0.027964259 -0.03101352 0.074129514
0001f0 c2 3e 2d bd bc 28 71 bd 80 d6 2d 3a 77 9a 39 bd
       -0.04229618 -0.058876738 0.0006631389 -0.045313325
000200 ac 41 ee bc 45 4b 85 3d a1 5f 7c bc 5c e1 8a bd
       -0.02908405 0.06508497 -0.015403659 -0.06781265
000210 8f 32 55 bd 78 70 6e 3c f6 21 24 3e 5b 26 24 bc
       -0.05205017 0.014553182 0.1602858 -0.01001891
000220 98 d7 3a be 36 e7 4e bf 74 6f 86 bc c5 6e 60 bf
       -0.18246305 -0.8082155 -0.016410567 -0.8766902
000230 db 70 cb be d9 7f 09 bf 95 aa fb be a7 d6 b9 3d
       -0.3973454 -0.53710705 -0.4915358 0.09074145
000240 55 47 ad 3d 09 ec 68 3d 78 b4 1b 3e 1d 83 02 3e
       0.08460871 0.056865726 0.15205562 0.12745328
000250 07 34 bb 3e 5b ad 1e bf 97 e3 63 bf aa c8 d7 be
       0.3656313 -0.6198327 -0.8901915 -0.42145282
000260 0b 1b 99 3c 01 45 a4 3b b5 53 8d bd ea e1 08 3e
       0.018689653 0.0050131087 -0.069007315 0.1336743
000270 92 e2 6c bd 4d 09 cc bd 43 5e fd bd 5d de 60 3f
       -0.05783326 -0.099627115 -0.123714946 0.878393
000280 12 13 76 3f 62 73 7c 3f 4a 2a 15 be 3e 4e 05 be
       0.9612285 0.9861356 -0.14566913 -0.13018128
000290 7a 19 ad bd e8 b2 d0 be 8a b7 50 be 75 b6 59 3e
       -0.08452125 -0.40761495 -0.20382515 0.21261008
0002a0 6b 0d 84 bf c2 71 19 bf 08 17 94 be 39 17 39 3c
       -1.0316595 -0.59939206 -0.2892382 0.011297041
0002b0 94 92 ab bb 80 3c 8e 3e e6 d6 8d 3d d7 66 ff 3e
       -0.0052359793 0.27780533 0.06925754 0.49883148
0002c0 f9 ee 21 bd 48 0d cf 3e 99 96 30 be fb 21 34 be
       -0.039534543 0.4043982 -0.17244948 -0.17591088
0002d0 b9 b1 3c be 4b 0c 99 bd df bb 3f be 25 4d 12 be
       -0.18427171 -0.07473048 -0.18724011 -0.14287241
0002e0 b8 38 12 3f 90 17 b6 be 96 aa fb bd 9a 9b 22 be
       0.57117796 -0.35564852 -0.12288396 -0.1587967
0002f0 45 4a be be db ed ed bd 31 6f ed bb 3d dd 86 bd
       -0.37166038 -0.11617633 -0.007245921 -0.065851666
000300 ad 57 95 be 99 0e 94 3d b1 38 51 3e 09 72 e6 be
       -0.29168454 0.07229347 0.20431782 -0.45008877
000310 6a 96 fa be fe 0b 9a 3f 56 84 8c 3f 40 c7 87 3f
       -0.48942882 1.203491 1.0977886 1.0607681
000320 16 eb 8c 3d 01 a8 e6 3c c2 4c 82 3d 6e f7 1e bd
       0.068807766 0.028156282 0.06362297 -0.038810186
000330 35 91 3b be d4 37 95 be 7a cb 26 be 62 3b 7e 3d
       -0.18317111 -0.29144156 -0.16288558 0.06206835
000340 e3 48 13 be 71 e0 86 bd 33 17 83 3c e8 c8 46 bd
       -0.14383273 -0.065857776 0.016002273 -0.048531443
000350 a5 3c 84 bc ec 19 26 3d 47 2c ea 3c 4a 8d 6a bd
       -0.016142199 0.040552065 0.028585566 -0.05726365
000360 de e6 af bc 7a d0 31 bd ce 8f 52 3d d8 19 a8 bc
       -0.02147239 -0.04341171 0.051406674 -0.020520136
000370 79 e3 53 3c 54 c3 44 bd d2 3e d4 3c cc 14 e9 bc
       0.012932652 -0.048037842 0.025908861 -0.0284523
000380 9a 7e 1c 3c a5 e4 5f bd d0 65 bc bc f3 c3 66 bd
       0.009551669 -0.05466141 -0.022997767 -0.056339215
000390 47 44 29 3c e1 04 b0 3c 85 d1 b5 3d ad ae b4 3d
       0.01033122 0.021486701 0.08877853 0.08822379
0003a0 5d a0 92 bf cb 17 43 be 22 e2 0e bf 76 9a 06 bd
       -1.1455189 -0.19052045 -0.558138 -0.03286215
0003b0 3f a0 94 3d 2d 62 46 3d 0e c4 8d 3b 14 30 c7 bd
       0.07257127 0.04843347 0.00432635 -0.09725967
0003c0 ec 2d 27 bd b3 aa 85 3e d0 01 28 be 75 ad 98 3e
       -0.04081528 0.26106796 -0.16406941 0.29819837
0003d0 c0 b9 72 be 92 30 3b bf 0d fa 6f bd 74 4b db bc
       -0.2370367 -0.7312099 -0.058588076 -0.026769377
0003e0 7b 69 88 3d 80 34 20 3e 9d 9a 77 be c5 9d 61 bf
       0.06660744 0.15645027 -0.24180074 -0.8813136
0003f0 45 1e e2 be fc 8b 4e 3f 7b 2d 53 3c a8 08 31 bd
       -0.4416372 0.8068235 0.012889261 -0.043221146

fc1.bias f4 [256]
000000 05 19 8d 3d d3 c4 8c be 25 78 52 3e f1 f2 8f be
       0.06889538 -0.27493915 0.20553644 -0.28115037
000010 57 d3 b9 3d 70 2b 4a bd d6 fe 29 3e 67 d7 8f 3d
       0.09073513 -0.04935783 0.16601118 0.070235066
000020 27 cd 5e be 18 c3 05 be 2f 5e cc 3d 50 03 3f 3e
       -0.21757947 -0.13062704 0.099789016 0.18653607
000030 36 d0 10 3e ac 6e 49 3e 29 4a bb 3d 0b 19 13 3d
       0.14141926 0.19671124 0.09145004 0.035912555
000040 a5 98 ae be 0d fb 9f 3e b8 7d 6f be 42 53 d4 bd
       -0.34100834 0.31246224 -0.23387802 -0.10367443
000050 73 3f 3d 3e 15 db 7e be fe 6b 0e be fa d5 2c be
       0.18481235 -0.2488826 -0.13908383 -0.168785
000060 69 4a 0c be 26 bf 85 be 1b ed fc bd 56 bb 52 be
       -0.1370026 -0.26122397 -0.12349912 -0.20579275
000070 55 fe b6 3d 8f 86 25 be bc 89 3c bd cf 7a 8d 3e
       0.08935229 -0.16164611 -0.04602979 0.27632758
000080 6c 65 38 3e 81 b8 93 bd 03 3f 5a 3e 05 80 27 3d
       0.1800744 -0.07212926 0.213131 0.040893573
000090 e3 5c 47 bd 42 3f 3a 3d e8 ac 18 be c6 fb 81 be
       -0.048672568 0.045470484 -0.14909708 -0.253874
0000a0 8f cf c8 bc 8b 4d 2e 3d b2 67 af be 55 cd 41 bc
       -0.024513034 0.04255442 -0.342588 -0.01182874
0000b0 1a 40 2e 3d 44 e9 44 3d cc 08 79 3d dd 6f 0f be
       0.0425416 0.048074022 0.060799405 -0.14007516
0000c0 1b c7 b2 3d d2 72 62 3e 83 62 3b 3e f2 a5 8a 3e
       0.087293826 0.22114113 0.18299298 0.2707973
0000d0 f6 5d 57 be 92 64 2b be 7b 1e 21 be 88 24 7e 3d
       -0.21031937 -0.16737583 -0.15734284 0.062046558
0000e0 79 be af 3e a5 8c 02 be aa f5 f6 3c bd 72 36 be
       0.34325007 -0.12748964 0.030146439 -0.17817207
0000f0 78 8d 5e be 9d 3f 00 be bd 8c 5a be 08 88 4f 3e
       -0.21733654 -0.12524267 -0.2134275 0.20266736
000100 94 a7 e7 3d 6a cd a4 3e 16 2f 0d be 44 07 8f bc
       0.1131126 0.32187968 -0.13787493 -0.01745952
000110 1f c0 3b be 5e 43 b0 be 17 37 ca 3c 49 49 d2 3c
       -0.18335007 -0.34426397 0.024684472 0.02566971
000120 33 a5 cc 3d ba d7 8c bd 92 db 7b 3d f2 af 33 bc
       0.09992447 -0.06877084 0.061488695 -0.010967242
000130 11 12 f0 bd a4 f5 a3 be a4 8d f4 3d 1c 22 12 bd
       -0.11722196 -0.32023346 0.11941078 -0.03567706
000140 96 67 c5 3c db d1 7d bd b5 05 84 be b0 50 4c bd
       0.024097245 -0.061967712 -0.25785604 -0.049881637
000150 c2 d9 6f 3e c2 48 f2 be 95 75 b3 bc 8e 42 91 3d
       0.23422912 -0.47321135 -0.021906653 0.070927724
000160 b9 fe 7b be 4b 41 ee 3d 8d 15 7d 3b ba ed 29 be
       -0.24608888 0.116335474 0.0038617582 -0.16594592
000170 03 f7 19 be 83 d6 1b 3e e7 dc 02 be 1e e2 57 be
       -0.15035634 0.15218548 -0.1277958 -0.2108235
000180 ad c8 e1 3d 87 10 7c 3e c6 5b 01 3e b7 3e 2d be
       0.11024604 0.2461568 0.12632665 -0.16918455
000190 f5 26 49 bd c5 c3 17 3f 0e 5e c8 be ca 27 1e be
       -0.049109418 0.59283096 -0.39134258 -0.15444866
0001a0 2c fd 35 3e 12 30 eb 3d d0 a0 a0 3b 93 93 99 3e
       0.17772359 0.11483778 0.004901983 0.29995403
0001b0 97 b8 53 be 4c cc 59 3e c1 dc 1e 3d d8 90 8b be
       -0.20675884 0.2126934 0.038784746 -0.27258945
0001c0 61 df 86 be 61 00 98 bc dc 61 78 3d 6c 0e 42 3e
       -0.263423 -0.018554868 0.0606402 0.18950814
0001d0 36 e1 7f be 6d 5a 45 be 96 86 76 3e 4e 56 47 be
       -0.24988255 -0.19272776 0.24074778 -0.19466516
0001e0 5e 11 3e 3d f6 45 83 be d0 e5 10 3e 2b be 1d 3e
       0.04640328 -0.25639313 0.14150167 0.15404575
0001f0 f2 95 dd bc 40 c7 85 be 72 63 03 be 5a ce 4f 3e
       -0.027049039 -0.26128578 -0.12830904 0.2029356
000200 56 b9 ba bd 6d 33 d3 bd 2d 4f 02 be 83 6e f1 bd
       -0.09117381 -0.10312543 -0.12725516 -0.117886566
000210 a8 4d 66 bd 4f 6b 10 be 7d f7 99 bc be 9e f1 3c
       -0.056226403 -0.14103435 -0.01879477 0.02949464
000220 46 20 d4 bc 85 d5 9d be e7 3b 0f be c8 8b 93 3e
       -0.025894295 -0.30826965 -0.13987695 0.28817582
000230 ef 37 94 3c 28 c6 4a be 43 27 87 be b5 14 b4 be
       0.018093077 -0.19802153 -0.26397142 -0.35172048
000240 e1 9d b6 3d 41 0f 50 bb 97 05 0e be ee bf 0f bd
       0.08916832 -0.0031747373 -0.1386932 -0.035095148
000250 8a 38 80 be d1 02 bc bd 8b 78 9d bd 4f e9 03 3e
       -0.25043136 -0.09180225 -0.07689007 0.12881969
000260 57 79 3f be 94 6b fb 3d 97 f1 18 be a7 ae 0c bf
       -0.18698631 0.12276378 -0.14935909 -0.54954
000270 62 54 32 3e b6 78 2f 3d 05 73 0c be e4 0d a3 bd
       0.17415002 0.04283973 -0.13715751 -0.07961634
000280 93 03 7e be 43 5a f9 bd 6c 7e 35 3e c2 43 81 3e
       -0.24806051 -0.12175419 0.17724007 0.25247008
000290 80 64 91 be a5 e3 be be de b9 97 3e 4e ca d8 3c
       -0.28396988 -0.37283054 0.29633993 0.026463654
0002a0 e4 89 c2 bd 22 37 13 be 8e 22 1e bf e5 e1 65 be
       -0.09498957 -0.143765 -0.61771476 -0.22449453
0002b0 2e 0a 22 3e 41 00 27 3e d1 3b 86 bd 79 09 ac be
       0.15824196 0.1630869 -0.06554378 -0.33600977
0002c0 29 80 02 3e d3 00 7b 3d 2f bc 2e 3d e1 4b 1a 3e
       0.12744202 0.061280083 0.042659935 0.15068008
0002d0 8b c3 6e be 45 65 40 bc 36 d0 50 3e 05 7b be bd
       -0.23316781 -0.011742895 0.20391926 -0.09300808
0002e0 c2 0d a3 bc f3 bf f5 be 63 ee b9 bc 17 ab 22 3c
       -0.019904021 -0.47998008 -0.02269668 0.009928486
0002f0 70 71 12 be 1b 4b ed bd 96 ab 93 be cd 4d 96 3d
       -0.14301085 -0.11586591 -0.28841847 0.07339058
000300 74 95 9b be 7a f5 01 3e 7c ee 4a be f5 3c 96 be
       -0.3038746 0.12691298 -0.19817537 -0.29343382
000310 86 fe d2 bc c1 6d 02 be 7d 87 89 be e3 46 fe be
       -0.025756132 -0.1273718 -0.26861182 -0.49663457
000320 4f ac ea bb 88 6e 4b be 8b a2 1d 3e 8f 05 6d 3d
       -0.007161654 -0.19866383 0.15394036 0.05786663
000330 47 f3 ec 3d 93 0d 1f 3e 7d 01 c8 3d 91 2d 8e bd
       0.11569839 0.15532522 0.09765909 -0.06942285
000340 45 3b 9b be 09 df 7a be 84 3d ad 3d 9c b0 69 be
       -0.30318657 -0.24499144 0.08458999 -0.22821277
000350 60 2b e6 bd 6d 02 c7 be 25 03 11 3d c4 62 b0 3d
       -0.11238742 -0.38869038 0.03540339 0.08612588
000360 d3 ce 3f 3e 8e 1e 1f 3d 24 8e 5e 3d c8 7e 9c be
       0.18731241 0.0388475 0.054334775 -0.30565476
000370 3d 7e e6 bd c2 b8 dc bb 71 82 5b be e2 75 a8 be
       -0.11254547 -0.006735892 -0.21436478 -0.32902437
000380 a2 b7 15 3e 9e 38 0c bd 0c 1d 9f bc 32 4a 27 3e
       0.14620832 -0.03423368 -0.01942303 0.16336897
000390 e2 79 a9 bd 38 d6 74 be 17 69 f4 bc 07 6e 8c bc
       -0.082752004 -0.23909843 -0.029835267 -0.017142309
0003a0 8f 6e 4d be d9 58 2d be eb 04 41 be b6 cd 64 be
       -0.20061706 -0.16928424 -0.18849532 -0.22344097
0003b0 14 3c ee bd a6 ef 31 3e 14 fa 39 3d 12 92 9d 3c
       -0.11632553 0.17376575 0.04540451 0.01923469
0003c0 14 07 9f bb 43 51 22 3e 29 c2 99 bd 20 ea 0e 3e
       -0.0048531387 0.15851311 -0.07507736 0.13956499
0003d0 80 3f 3f 3e 54 4f 12 b9 43 fd 12 3e e8 f3 81 be
       0.18676567 -0.00013953197 0.14354424 -0.25381398
0003e0 fb 18 5e 3e eb 20 30 3e b1 15 39 bd c5 ad 4a be
       0.21689217 0.17200057 -0.045186702 -0.1979285
0003f0 25 f2 61 3d 01 80 0a be 33 00 21 be 13 87 5c be
       0.055162568 -0.13525392 -0.15722732 -0.21535902

fc2.weight f4 [256, 256]
000000 f4 05 58 3d a6 4c e8 3d 42 90 7c 3d 57 2a 3e be
       0.052740052 0.113427445 0.061661012 -0.18570839
000010 4d 3f 2b be 34 2e 7f 3d 22 bb 41 bd 2a f7 21 3e
       -0.16723366 0.062299922 -0.047297604 0.15816942
000020 ac df cd bd 4c 9e d3 be 8c c7 19 bf f8 9d b6 bc
       -0.10052428 -0.41331708 -0.6007011 -0.022292122
000030 bc a9 39 bc 76 36 3f bf 8f b0 ac bc f6 65 54 be
       -0.011331972 -0.74692476 -0.021080283 -0.2074202
000040 dd a7 ab 3b 7c a2 87 bf e2 7f 0d bd 8b 2a b7 bb
       0.0052385167 -1.0596461 -0.034545787 -0.0055897883
000050 47 61 b7 3e a3 88 93 3e e7 6a f8 3c 2a c5 5f 3e
       0.35816404 0.28815183 0.030324413 0.21852556
000060 fe c3 1a be 60 f5 36 3e 98 48 73 3d 09 e4 ad be
       -0.15113828 0.1786704 0.059395403 -0.3396304
000070 48 c2 aa 3c 79 af a6 3d 93 93 df 3d d3 77 bc bd
       0.020844594 0.081389375 0.109168194 -0.09202542
000080 5c 3a 4c be 65 1a 97 3c 08 9a 79 3d b7 13 81 3d
       -0.19944137 0.018445203 0.06093791 0.063025884
000090 42 56 c7 bc b8 a7 8f 3c bd 18 a5 3c dc 21 98 bc
       -0.024333123 0.01753603 0.020153398 -0.018570833
0000a0 1b 11 ab bc dc e9 fc ba 0d c0 74 bf a0 5e 3d 3b
       -0.02088218 -0.001929577 -0.95605546 0.0028895512
0000b0 01 e9 20 be e0 e0 ef 3e 9a 04 52 be 09 e1 46 bd
       -0.15713884 0.46851254 -0.20509568 -0.048554454
0000c0 86 f5 d6 bd 11 28 2c 3d 18 d2 31 bd 1a 2e c8 be
       -0.10496049 0.042030398 -0.04341325 -0.39097673
0000d0 6e 6d 9e 3d c6 d7 2e bd 19 8b 39 3d 9e bc f1 bc
       0.07735716 -0.042686246 0.04529867 -0.029508885
0000e0 e8 ca b6 bd c0 5f 06 3c 00 f9 22 bb fa 04 f5 3c
       -0.0892542 0.0082015395 -0.0024867654 0.0299096
0000f0 35 c5 3a 3d 2f 67 33 3d 40 16 7c 3c c5 85 79 bd
       0.045598228 0.043799575 0.015386164 -0.06091859
000100 ef cc 96 3d 8a 2b 51 bf 66 a2 8e 3e 48 75 ac bc
       0.07363307 -0.8170706 0.27858275 -0.021052018
000110 81 17 c6 3c 33 97 15 be 67 70 dd 3d db 8a 45 3d
       0.02418113 -0.14608459 0.10812455 0.048228126
000120 8e c4 60 be c0 1e 9a 3c c5 e0 6a be 5a 95 80 bd
       -0.2194998 0.01881349 -0.22937305 -0.062784865
000130 fe a8 e0 be ca 97 93 3e bf ec 03 be 00 09 d2 3b
       -0.4387893 0.28826743 -0.1288328 0.0064097643
000140 bc 3f a9 3e 00 fd ba bd 32 1f c0 3e 33 04 9c bd
       0.33056438 -0.09130287 0.375238 -0.076179884
000150 ab 33 89 bf a4 17 f0 bb 52 ca 09 3d 33 4f 29 3e
       -1.0718893 -0.007327037 0.033640213 0.16534118
000160 8b fe 89 bc a9 8f 04 3d 8e 96 43 3d 04 66 c3 be
       -0.016845008 0.032363568 0.047751002 -0.3816377
000170 74 6a 5d bd 85 ee 59 bd ad e3 72 3e e7 89 28 3c
       -0.0540566 -0.053205986 0.23719664 0.010286785
000180 a2 d9 5e bd 2d 72 91 3b 9d f0 12 3b b2 5d 76 3d
       -0.05440677 0.0044386596 0.0022421249 0.06014795
000190 bc 70 a3 3c a5 d4 bd bc 40 6b 26 3e b4 f4 06 bd
       0.019951217 -0.023172686 0.1625185 -0.03294821
0001a0 28 af 96 bc e8 9f ce 3e 22 4d a6 be c3 7c 46 be
       -0.018394068 0.40356374 -0.32480723 -0.1938353
0001b0 60 22 b2 3c 0a f9 ac bd c2 36 a2 3e 99 de 3f bd
       0.021744907 -0.08445938 0.31682402 -0.046843145
0001c0 f8 2d 94 be dc d7 e5 bd 0e 65 0d 3b 3d 0f 31 bd
       -0.2894132 -0.112228125 0.0021575126 -0.043227423
0001d0 4c 6d e0 bd 88 d9 0a 3e df c7 8e 3d 53 c5 2b 3e
       -0.10958347 0.13559544 0.06971716 0.16774492
0001e0 d4 68 fc be 7b 2c 5c bd 48 d8 55 3c a0 aa fe 3d
       -0.49298728 -0.053753357 0.013052054 0.12434888
0001f0 fb 5a 4e bf 2c ec 77 bc 0c 3b 9f bd 56 73 22 3d
       -0.80607575 -0.015131991 -0.07774934 0.039660774
000200 71 e9 fe be 2a ee 93 3e c1 21 27 be 1a eb db 3e
       -0.49787477 0.28892642 -0.1632147 0.42952806
000210 d0 69 1d 3c 90 c8 57 be 28 f4 44 3d 41 f9 d0 be
       0.009607747 -0.21072602 0.048084408 -0.40815166
000220 40 91 74 ba 8c 20 49 bc 3a ea 8e bc ad 42 0c 3d
       -0.0009329505 -0.012275826 -0.017445672 0.034243274
000230 f6 a1 00 3e 50 25 31 be 38 7c 97 3c 07 a6 12 3e
       0.12561783 -0.1729939 0.01849185 0.14321147
000240 82 8c 40 3d 6a 4c 2a be bc d1 8d 3d fb c2 89 bc
       0.047009 -0.16630712 0.06924769 -0.016816607
000250 3c e7 44 3a c2 7a 19 bd b1 ce 2f 3e 33 48 f6 be
       0.0007511263 -0.037470587 0.1716869 -0.4810196
000260 20 46 d1 bb 8f 08 32 be 9c 94 aa bd f4 26 2d 3e
       -0.0063865334 -0.17386077 -0.08329126 0.1690939
000270 74 71 be 3c 9d 98 1f bd 12 09 10 bf 2f 67 5e bc
       0.023247458 -0.038963903 -0.5626384 -0.013574406
000280 36 65 3f bd 15 90 74 bd 24 e5 12 be 8e 11 18 3e
       -0.04672738 -0.05970772 -0.14345223 0.14850447
000290 17 78 f6 bc 3a 1c 16 3d fb 4b 6a 3e 20 e3 fc bb
       -0.03008656 0.036648013 0.22880547 -0.007717505
0002a0 37 dd a0 bd 5f a3 6a 3d a7 ce d1 3d 8e 29 f4 bd
       -0.078546934 0.05728471 0.10244494 -0.119219884
0002b0 b8 1e 90 3e 7c 0f 88 bc 9b fe d8 3d bc 2b 8a be
       0.28148437 -0.016608946 0.10595437 -0.26986492
0002c0 76 da 4a 3d bd 3c 43 3e 5a 8b 5c be d6 5b 4f 3e
       0.049524747 0.19066139 -0.21537533 0.20249876
0002d0 db 24 17 bd 04 05 7b 3e 07 bb e2 bc e1 8d 15 3d
       -0.036900382 0.24513632 -0.027677072 0.03651226
0002e0 35 ee 9a ba ef 51 3e be 39 a2 1e bc 08 4c 5c 3e
       -0.0011820259 -0.18585943 -0.009682232 0.21513379
0002f0 8e ec 6e 3c 13 5c 05 3e ae 71 54 3d 7e 36 83 be
       0.014582766 0.13023405 0.051866226 -0.25627512
000300 c1 d3 69 3e 35 23 09 be a7 11 d0 3b 9f 40 7c bd
       0.22834684 -0.13392337 0.0063497606 -0.061585065
000310 24 06 bd 3e 46 f0 ea ba ed 98 11 3e 6c 7f 18 3e
       0.36918747 -0.001792439 0.14218493 0.14892358
000320 57 23 9c 3d 2a 5b 7c 3d d0 b1 7f bd 6a 61 b6 3c
       0.07623928 0.06161038 -0.062425435 0.022263248
000330 cb 36 88 bd 6a f0 a4 3d 8e d8 6c 3d 08 15 50 3d
       -0.06651076 0.08053668 0.05782371 0.050801307
000340 80 a1 80 3e 37 1a 8f bc 05 7d 37 3d c0 bb 06 be
       0.25123215 -0.017468555 0.044796962 -0.13157558
000350 2d 3b 98 3e 0b f4 6f 3d 68 94 c1 be 5c d7 50 bd
       0.29732648 0.058582347 -0.37808537 -0.050986633
000360 18 c3 e5 3c 62 8a 7f be 5d 97 4f bf e1 21 40 be
       0.02804713 -0.24955133 -0.8109034 -0.18762924
000370 b1 ed 11 3e 7e d1 de bc 9c 37 f4 3d 18 4d 4a 3e
       0.14250828 -0.027199503 0.11924669 0.19755971
000380 15 80 b9 3e 35 54 d4 bd a4 12 23 bd 12 3a cc bd
       0.3623053 -0.10367624 -0.0398127 -0.099720135
000390 0c cb 8a 3d a7 82 2c 3d 44 37 cc ba 97 c3 23 3c
       0.06777009 0.042116787 -0.0015580435 0.009995363
0003a0 4b 5f 0a be 97 80 03 bc 29 21 86 be f2 5d bd 3c
       -0.13512914 -0.008026264 -0.26197174 0.023116086
0003b0 cf 48 95 be 29 c2 39 bd 89 75 3c 3d 80 4c 71 bc
       -0.2915711 -0.04535118 0.046010528 -0.014727712
0003c0 57 c0 33 3d 03 8b db 3c 8b 67 e9 3d ae a3 76 3e
       0.0438846 0.026799684 0.113967024 0.24085876
0003d0 90 a4 c7 3d 60 6d 5f bb 9d 51 4b be 0d ff c1 bb
       0.09748185 -0.0034092292 -0.19855352 -0.005920297
0003e0 f4 5f 18 3e cf 58 ff bb fd 97 fc 3c c9 5b df be
       0.14880353 -0.007792569 0.030834192 -0.43624714
0003f0 5a 39 6c 3e a2 21 58 3c 2f fb a3 3d 40 b7 cd bb
       0.23068753 0.013191612 0.08006894 -0.0062779486

fc2.bias f4 [256]
000000 25 b1 da bd 22 f7 24 3d f5 93 db 3c 90 d8 1f 39
       -0.10678319 0.040274747 0.02680395 0.00015244097
000010 20 b9 bb 3e 13 b2 10 be e9 27 bc 3d c0 b0 c8 3d
       0.36664677 -0.1413043 0.091873 0.097993374
000020 b8 b0 00 bd 84 1c e5 3c c1 e6 88 bb 8e b9 18 be
       -0.031418532 0.027967699 -0.0041778986 -0.14914533
000030 da b8 2d be da 05 ab be c7 da b9 bd 41 b9 8a 3d
       -0.16965047 -0.33402902 -0.090749316 0.06773616
000040 5d 2f 71 be 92 97 00 bd f5 2d 88 3e a4 7c f7 bd
       -0.23553224 -0.03139455 0.26597562 -0.1208432
000050 ba 09 3a 3e 1e dd be bb be 08 b0 bd 3b bd b1 bd
       0.18167773 -0.005824699 -0.085954174 -0.08678671
000060 b8 94 a1 39 20 e2 89 bd b5 57 43 3d 1d 96 3a 3d
       0.00030819117 -0.06732583 0.047691066 0.045553315
000070 97 45 90 3d 15 94 23 be 67 64 a3 bd a1 5b b4 bd
       0.07044523 -0.15974458 -0.079781346 -0.08806539
000080 7d 54 89 be e8 bc 16 3c 50 38 23 bd 00 be 99 be
       -0.26822272 0.009200312 -0.039848626 -0.3002777
000090 22 e3 c7 bc ad 2d 02 ba cc 79 15 be c9 ed 9d be
       -0.024400298 -0.00049659127 -0.14597243 -0.30845478
0000a0 f4 b0 b6 bc e8 b6 05 3e b1 44 a1 3d d6 a4 46 be
       -0.022301175 0.13058054 0.0787443 -0.19398817
0000b0 5b fd a9 bd 82 39 9c bd a8 89 28 bc e0 88 f3 bd
       -0.08300277 -0.07628156 -0.010286726 -0.11891341
0000c0 fb 21 40 3c 26 45 f0 bc e1 3e 10 3e a5 b0 60 be
       0.011726852 -0.029329848 0.14086486 -0.21942385
0000d0 43 fe 97 bc 4d 97 b5 bc 09 32 a8 bd d4 5c 8a bd
       -0.018553859 -0.022166872 -0.082126684 -0.06755987
0000e0 e9 42 62 bd c9 1c 96 be 4d 4b e4 bd b9 36 18 3c
       -0.05523959 -0.29318836 -0.11147175 0.009290391
0000f0 06 ac 5e 3c 75 cb bc 3d db c7 a4 bc 28 e7 49 3b
       0.013590818 0.09218494 -0.02011483 0.0030807946
000100 05 5b 1d bd 77 29 6c bc aa c1 3e 3c 79 fa 4f 3d
       -0.03841688 -0.014414183 0.011642853 0.05077598
000110 2b 8d 32 be 80 c0 93 bc 3f 35 d3 bd 77 3d e1 bd
       -0.17436664 -0.018036127 -0.1031289 -0.109980516
000120 44 22 06 be a0 ee a3 3c b7 c0 d4 be 97 0e 1b bd
       -0.13099009 0.020011246 -0.4155328 -0.03785571
000130 99 9a 14 bd e0 1f 94 bd d9 17 d7 bb 13 68 d5 bc
       -0.03628025 -0.07232642 -0.006564122 -0.026050603
000140 b4 6c a2 bd 0e f4 3b be 52 81 8c be 1c 9e 05 bd
       -0.0793089 -0.18354818 -0.27442414 -0.032621488
000150 6c 7f 36 3d 46 56 21 be 78 91 2b bc f4 52 e8 3b
       0.044555113 -0.15755567 -0.010471694 0.007089967
000160 5e db da be c0 64 f0 bd 2e bd 72 bd 45 61 be bb
       -0.4274549 -0.117379665 -0.059262447 -0.0058099353
000170 98 4e d3 3d ca e2 b8 be 3e 68 17 bd 1a 50 fd 3c
       0.10317725 -0.36110526 -0.036964647 0.030921984
000180 1c c5 12 be a7 51 40 be f4 f5 c4 bc ee bf 83 bd
       -0.14333004 -0.18781148 -0.02404306 -0.06433092
000190 30 7e 80 bb 1b 0c 2e 3c b8 cd e2 bd 53 7d 4d 3e
       -0.0039212927 0.010623003 -0.11074394 0.20067339
0001a0 1d e7 cf 3d 21 7e 8c bc 1f 03 5a 3d 38 4e 9f bd
       0.10151503 -0.017149987 0.053225633 -0.07778591
0001b0 6d 18 57 be 6a 54 51 bd d6 2c 53 bd 24 83 94 3d
       -0.21005411 -0.051105894 -0.05155643 0.072515756
0001c0 df a9 1a be 87 8f 8b 3d 80 b6 bc bd bc 53 bf bb
       -0.15103863 0.06814485 -0.092144966 -0.0058388393
0001d0 22 51 4e bd fe b2 a1 bd e0 f7 36 3b 0b c9 35 3c
       -0.050370343 -0.07895468 0.002791874 0.011095296
0001e0 35 e0 8c bd 27 7e 32 3e 4a 16 36 bd 6b e6 06 be
       -0.068787016 0.17430936 -0.04445485 -0.13173835
0001f0 73 ed 94 bd ac ce c9 bd a5 5e 5a bd 48 10 d1 bd
       -0.07271852 -0.09853873 -0.053312916 -0.102081835
000200 50 32 dc bd 4a ee 07 be 27 eb 27 be a9 4f e2 bd
       -0.10751784 -0.13274494 -0.16398297 -0.1105035
000210 64 58 81 bd 5a 6b 32 bd 3c 9b 55 3e 0d a2 96 3e
       -0.06315687 -0.04355941 0.20859998 0.2942051
000220 89 c2 78 3c ce a0 8c 3d 2a cb af bd a8 76 21 bd
       0.0151831 0.068666086 -0.08583672 -0.0394198
000230 d7 3f 3e bd 6b 21 f7 3d 02 e7 84 3b d7 73 e2 bc
       -0.0464476 0.12066921 0.0040558586 -0.027643127
000240 73 92 c2 bc f0 69 23 3d 9f 28 55 bd aa 7b c9 bd
       -0.023751473 0.03989595 -0.052040692 -0.0983804
000250 8f b8 53 ba 4f 12 53 be 48 b5 ae 3e 1c f9 8c be
       -0.00080765126 -0.20612453 0.34122682 -0.27533805
000260 9a df 98 bd 4f e4 ea bc 5e 97 3e 3c 14 78 a6 3b
       -0.074645236 -0.02867332 0.011632768 0.0050802324
000270 a8 d5 c2 bd a2 3b cc 3b 3d 10 0f be f6 5b 31 bd
       -0.09513408 0.0062326947 -0.13971038 -0.04330059
000280 a3 77 7e be ed 21 d8 be d0 57 64 3c 48 83 6e bd
       -0.24850325 -0.42213383 0.013936952 -0.05823067
000290 96 f3 90 bd ae 5f 88 bd 58 54 23 be 16 67 23 bd
       -0.0707771 -0.066588745 -0.15950143 -0.039893232
0002a0 3e e3 e3 3d a4 22 05 3e 66 ab 8f bd 7c 88 7e bd
       0.111273274 0.13001496 -0.070151135 -0.06214188
0002b0 eb 8b 1e 3d a4 b0 dd be 06 61 c1 39 85 5b bb be
       0.038707655 -0.4329883 0.00036884117 -0.3659326
0002c0 cd e5 0a 3c 49 60 46 bd 38 40 e3 bc e1 90 94 bd
       0.00847764 -0.04843167 -0.027740583 -0.07254196
0002d0 20 e2 90 3c b9 4b 92 be dc f9 00 be 51 03 f0 bd
       0.01768595 -0.28573397 -0.12595314 -0.117193826
0002e0 90 c8 98 ba da 5d 0f bb be 3e 01 3c 4e b4 c0 3c
       -0.0011656452 -0.0021876008 0.007888494 0.023523476
0002f0 59 6c 0f 3c 18 80 97 bd af 4d 98 bd 73 4e b9 bb
       0.008753859 -0.07397479 -0.07436692 -0.005655104
000300 9a c8 11 3d af 4c 9f 3b 1f 15 f8 3d 68 d1 aa bd
       0.0355917 0.0048614363 0.121134035 -0.08340722
000310 d1 c3 f3 3c df d1 90 be f9 2a b3 3d df 34 bd bd
       0.029756458 -0.2828512 0.08748431 -0.092386
000320 b2 7f 5d 3c e1 60 d7 be c3 0f 3f bd 94 8d 69 3c
       0.0135192145 -0.420661 -0.04664589 0.014254946
000330 64 42 2f 3c b5 af 3e bb d0 cc 22 be 57 a4 09 bd
       0.010696981 -0.0029096429 -0.15898442 -0.033603992
000340 6b 0f f4 bc 5e 44 e7 3c fb 7d c1 be 4e 77 f9 bc
       -0.029792508 0.028230842 -0.37791428 -0.030452397
000350 04 3f e0 3d c3 11 6b bd ad ea be 3c 84 78 5b be
       0.10949519 -0.057389986 0.023305262 -0.21432692
000360 0d 59 8e bc 7c c1 ed 3c a4 28 8a bd c4 73 cb bb
       -0.017376447 0.029022925 -0.06746033 -0.0062088687
000370 52 f9 e9 be 05 53 99 bd ac d1 08 3e 99 f6 1a be
       -0.4569803 -0.07486538 0.13361233 -0.15133132
000380 ab 3d 42 bd 1b 94 26 3d 45 a3 11 3c b8 08 1a be
       -0.047422092 0.040668588 0.008889024 -0.15042388
000390 d8 0d c2 3d 2c 7b 99 3d 42 f2 94 bc d4 2a cf 3d
       0.09475297 0.07494196 -0.018181924 0.10115591
0003a0 98 fa 32 3e 8f b5 03 3d 8c d6 e6 bd c1 e5 db bd
       0.17478406 0.03215557 -0.1127139 -0.107371815
0003b0 fe ba 10 3d 9f 0b 81 bb 68 e9 80 be 4a be 5d bd
       0.03533458 -0.003938153 -0.25178075 -0.054136552
0003c0 ba 8f 2e be 4d 37 4e bc e6 62 2b 3d 9a 58 d5 bd
       -0.17047015 -0.012586427 0.041842364 -0.1041729
0003d0 e8 31 3f be ad a3 99 bd e1 0b b4 3c 09 6f 72 bd
       -0.18671381 -0.07501922 0.02197832 -0.059187923
0003e0 ba 7e f4 3a 67 58 66 be 7d 7b 70 bd 6b e1 17 be
       0.001865349 -0.2249466 -0.058711518 -0.14832084
0003f0 ba 6c 2b 3c 07 24 aa bd fc 8d 52 be f2 5a 86 be
       0.010462934 -0.08307653 -0.20561975 -0.2624126

fc3.weight f4 [3, 256]
000000 27 13 24 bd 2b 7b 61 3d 9c 60 65 3b 71 71 ca bb
       -0.040057328 0.055049103 0.003500021 -0.006178074
000010 15 06 ee be 6b b9 b3 be 91 f9 49 bd 60 74 b5 be
       -0.46489015 -0.351024 -0.04931027 -0.3544035
000020 3e 0d 25 3c 0e d4 32 3c b4 5e f6 3e 1a b6 9d 3d
       0.010073958 0.010914816 0.48119128 0.07700749
000030 23 04 0b 3e 87 b8 ac bd 03 e4 b1 bb 25 1d 86 bd
       0.13575797 -0.08433633 -0.0054287924 -0.06548528
000040 fa 99 19 bf 7c 49 68 bc c6 d7 f3 bc 61 75 38 bf
       -0.60000575 -0.014177676 -0.029765975 -0.72054106
000050 67 45 ba be 0f a3 5e 3b ee 12 d5 be 50 f3 22 bc
       -0.36381075 0.0033971702 -0.41616005 -0.0099457055
000060 52 59 08 bc 5b e8 1b 3f eb 37 7e bd 3f 92 a9 be
       -0.008322077 0.6090142 -0.062065046 -0.3311939
000070 11 df a7 be 8c 71 4b 3b df 6a 0a 3c 08 cf 5c 3b
       -0.32787374 0.003104302 0.008448332 0.0033692736
000080 2b e1 01 3c e0 e6 00 be d5 52 dc 39 96 3b e2 be
       0.007927219 -0.12588072 0.00042023385 -0.44186085
000090 72 eb ca 3a b3 0f 7e 3a 5f fb f3 be 8e 16 96 be
       0.0015481545 0.00096916704 -0.47652718 -0.29314083
0000a0 95 30 2a 3c e2 bf 35 be 62 e6 98 3d 4c ea 94 3e
       0.010387559 -0.17748979 0.07465817 0.29085004
0000b0 b5 bb 04 bf fb 32 91 be 7f af e1 bb 49 15 91 3c
       -0.5184892 -0.28359208 -0.006887376 0.017710345
0000c0 8f b1 36 bc 99 df 0f bc d8 50 e5 be a1 a5 f9 be
       -0.011150732 -0.008781337 -0.4478824 -0.48759177
0000d0 84 61 d9 3a 54 32 0a 3c 35 ee 61 bd 8a 41 b7 3b
       0.0016584848 0.008434851 -0.055158813 0.0055925297
0000e0 b9 86 51 bb 61 97 b4 3e 02 3c ce 3b 78 7f c0 bb
       -0.003197117 0.35271743 0.0062937746 -0.0058745705
0000f0 32 a3 ac bb bc af c2 be 21 77 c0 bb 06 c5 22 bb
       -0.005268478 -0.380247 -0.0058735763 -0.0024836673
000100 59 c3 0a bf 96 49 02 bc 0a 5c b3 be 0e c3 49 3d
       -0.54204327 -0.007952115 -0.35031158 0.049258284
000110 7d f0 72 be 00 6d 1e 3d 4c f7 19 3f f2 15 16 3f
       -0.23724551 0.03867817 0.6014297 0.58627236
000120 23 09 db bd 69 67 e1 be 8f e1 9e be de 18 2f bd
       -0.10695102 -0.44024208 -0.31031463 -0.042748325
000130 db f1 9d 3b 16 74 e5 bd 88 aa 43 b9 9a 49 73 ba
       0.004820091 -0.11203782 -0.00018660177 -0.0009280682
000140 5d 6b 5c 3b 1c ab b3 3e 3d 21 ed bc 7b a2 3e 3a
       0.003363333 0.35091484 -0.028946513 0.0007272136
000150 ca fc 0b 3f b8 10 e0 3d 6b 9a 03 3f 72 b2 93 bd
       0.546826 0.10940689 0.514075 -0.0721177
000160 39 35 a6 3c 6d 49 d0 bc 77 4a 15 bb 03 cb 92 3b
       0.02028905 -0.025425637 -0.002277998 0.0044797673
000170 31 91 f6 3e 06 5a 7a 3e 0f c2 c6 3b b8 d5 70 3e
       0.48157647 0.24448404 0.006065614 0.23519027
000180 12 b1 b4 be 1b f8 db 3e 14 1b f8 3c ee a8 dd be
       -0.35291344 0.42962727 0.03028635 -0.43292946
000190 c6 0a c6 bb 66 a0 99 be 3e 78 92 3e fc 4a 62 bd
       -0.0060437648 -0.30005187 0.28607363 -0.055247292
0001a0 2c d0 07 3d 98 e6 ab be e2 f3 59 bd c9 cc 64 bc
       0.033157513 -0.33574367 -0.0532111 -0.01396484
0001b0 16 a8 8f bd 3a 23 77 3a 3e 01 3c 3a 67 0f b1 be
       -0.07014482 0.00094275514 0.0007171816 -0.34582064
0001c0 ca 67 8b 3e 6f e3 dc 3e c8 2b dc 3a f3 4d 0b 3b
       0.27227622 0.43142268 0.0016797716 0.0021256178
0001d0 2c 4c a2 bc b1 b5 3a 3b ac 9e c6 bb 99 f2 64 bc
       -0.019811712 0.0028489644 -0.0060613956 -0.013973855
0001e0 51 a6 bb 3b a2 37 85 be 1c 64 37 be ed 3d 14 bf
       0.0057266136 -0.26019007 -0.17909282 -0.5790699
0001f0 ed 74 d9 be 8d 36 1d 3f 91 2f c7 bc 44 43 e1 be
       -0.4247202 0.6141136 -0.024314674 -0.43996632
000200 c8 40 b2 bd 36 ea 78 3e e6 54 3a 3e 2e 4b 10 bc
       -0.08703762 0.24308094 0.18196449 -0.008806987
000210 b4 f3 7f 3b c3 e5 33 bf 17 07 bf 3d 56 e7 3a 3e
       0.003905517 -0.70272464 0.09327524 0.1825231
000220 56 fc c5 bd 94 41 94 3d 9c 73 b6 bb 1b 3b a1 bd
       -0.0966727 0.072390705 -0.005567981 -0.078726016
000230 2f 58 1d 3c 06 31 d4 bd b5 1c 80 bd 18 69 08 b9
       0.009603544 -0.10360913 -0.062554754 -0.00013009121
000240 17 e3 fe b9 fc 66 bd bc 7f 37 2c 3b f9 bd 09 bf
       -0.0004861585 -0.023120396 0.0026278195 -0.538055
000250 d9 b2 c8 3c 42 05 bf be e1 80 c8 bd 25 3a 6a bf
       0.024499344 -0.373087 -0.09790207 -0.9149497
000260 98 ec 24 ba 06 a5 d4 be 38 30 e2 3d ea 3c f6 bb
       -0.0006291359 -0.41532153 0.11044353 -0.0075145857
000270 03 79 97 bb 9e c1 86 bb e1 a8 0c be 3a d1 e5 3d
       -0.00462258 -0.0041124364 -0.13736297 0.112215474
000280 43 77 6b bf 99 d8 05 be 02 75 e4 3b f2 ff d7 bb
       -0.91978854 -0.13070907 0.006971956 -0.0065917904
000290 d2 47 e9 3e fd 37 3d ba d3 ec ad 3e 66 03 01 3b
       0.45562607 -0.0007218121 0.33969745 0.0019685864
0002a0 00 04 dc be fa 55 82 3d 52 11 98 39 cb fd 96 b9
       -0.42971802 0.06364055 0.00029004604 -0.0002879932
0002b0 51 b9 b8 be 14 ce 4a 3e bc 2f fc 3d 57 39 86 3d
       -0.36078885 0.19805175 0.12313792 0.065539055
0002c0 f7 84 2e ba bb 97 23 bd 2b 2d ba 3b f6 7a 32 be
       -0.00066573865 -0.039939623 0.005681654 -0.17429718
0002d0 41 42 7a 3e 2f 44 2d bf 30 28 70 be 13 32 10 bf
       0.24439336 -0.67682165 -0.2345283 -0.5632641
0002e0 55 d7 ad ba 30 5c 11 bc 16 ac cf bb cb 35 e1 3c
       -0.0013263026 -0.008872077 -0.006337653 0.02749147
0002f0 fd 30 a2 3e 3d 5f 2f 3e 1d cb 1b be 85 c8 98 bb
       0.31678 0.17126174 -0.152142 -0.0046625757
000300 d0 4d 2f 3b ce 89 3c bf b2 31 8a 3e 0f a2 38 bc
       0.002674926 -0.73647773 0.2699104 -0.0112691065
000310 3b ae a0 bd b8 44 25 3d dd c3 1d bf 70 65 6a bb
       -0.07845732 0.04034874 -0.6162699 -0.0035766028
000320 0b bc 6c 3b a7 a1 14 bf 2e 25 30 bc 0e 38 65 ba
       0.0036122825 -0.5805916 -0.010751052 -0.00087440095
000330 5e b9 a2 bd 29 d0 76 be f1 c0 7f be 7d 99 20 be
       -0.07945512 -0.24102844 -0.24975945 -0.15683551
000340 35 e6 26 3f 1c 1b e9 bd 65 ad a9 3e c9 68 99 bc
       0.6519502 -0.11382124 0.33140102 -0.018726723
000350 16 a8 1f 3e 73 45 a5 bb 49 59 3b bb ff 82 dc 3e
       0.15591463 -0.0050436794 -0.0028587154 0.43068692
000360 73 ba b9 3e 65 d6 75 3f be 63 4d bb 74 0c 94 bc
       0.36275062 0.96030265 -0.0031339969 -0.018072344
000370 31 f1 0d bf 08 35 9e bb 81 be a5 be 6a ba 90 bd
       -0.55446154 -0.004828099 -0.32371905 -0.07066806
000380 84 4d 95 be 46 29 e4 3d f8 8c c5 bb 2e 48 ae 3e
       -0.29160702 0.11140685 -0.0060287677 0.34039444
000390 33 df 9d be e8 4b 0f be 20 79 d2 be 72 fc 9f be
       -0.3083435 -0.139938 -0.41108036 -0.31247288
0003a0 0e 08 5d be c8 6e 26 3d 64 45 fe 3e c7 08 58 bc
       -0.21585104 0.040632993 0.49662316 -0.013185686
0003b0 06 57 4d 3c 99 8c be bd e7 a2 e2 3e 1b b6 c6 bc
       0.012532955 -0.093041606 0.4426491 -0.024256757
0003c0 00 e6 43 3e 4e ef 52 bc 1d 02 74 3d a5 2f 97 3e
       0.19130707 -0.0128744375 0.059572328 0.29528537
0003d0 ef 47 0f bf 0a 7e ee bb f1 33 2e 3c e8 df 84 be
       -0.55969137 -0.0072782086 0.010632501 -0.25952077
0003e0 e3 f1 6f bc 79 6d 49 be 8b 12 19 3e 1d a0 f3 3d
       -0.014645073 -0.19670667 0.1494848 0.118957736
0003f0 22 6b 1d 3e e1 b1 2b 3b 27 39 14 3f 40 66 c5 3e
       0.15372899 0.0026198553 0.5789971 0.38554573

fc3.bias f4 [3]
000000 dd 5a a4 be 91 ed 98 3d 7c da 92 3d
       -0.32100573 0.07467187 0.07170579
