runs/checkpoint_critic_2566_192021_tau1_590.pth (torch, 356559 bytes, 7 tensors)

head.weight f4 [256, 22]
0.004347766 -0.22558336 -0.15462466 -0.260197 0.5795075 0.272871 0.1774573 1.1247946
0.5215391 0.4926234 -0.17536418 0.04311119 -0.12979673 -0.25016156 -0.40837505 0.21951811
0.047507506 0.4515975 0.06377814 0.36247236 0.41510874 -0.8291895 0.033236545 -0.04924992
-0.04647222 0.014358299 1.6412607 0.57350785 0.4831537 0.22917332 0.07142366 0.22560272
-0.19110584 -0.28381127 -0.271006 0.08383051 -0.12684436 -0.50877786 -0.048618067 -0.0695436
0.029284505 -1.5084302 -0.9881938 -0.4323383 -0.0026737629 -0.1030845 -0.19463396 0.013940436
0.14155059 -0.020961473 -0.26328197 -2.6635547 -2.4970605 -2.2568083 0.25824082 0.22965427
0.02025977 -0.09450403 0.24367432 -0.10522919 0.53686816 0.07560991 -0.51112324 -0.08237828
1.1769786 -0.823083 0.00020741885 -0.36237815 0.42426473 0.080669336 -0.35762882 -0.18388198
-0.4709054 0.06917222 0.26412818 0.4583974 0.05406512 0.21708375 0.1020546 0.1484459
-0.18338308 -0.1289335 -0.12752216 0.012434547 0.15496513 -1.5541651 -0.26818508 3.4735126
0.0010631544 -0.028091026 -0.2842327 0.17638776 0.16872652 0.09161652 0.23236458 -0.4146039
-0.7877087 -0.8113623 -0.1145926 -0.2365222 -0.032936413 0.47215113 -0.34064323 -0.018480796
0.43602017 0.058999278 -0.7162585 0.010672459 -0.045495495 0.20854293 -0.0065162797 0.17789935
-0.36263955 -0.15679026 -0.6931345 0.059822336 -0.41125438 -1.6780124 -1.6442534 -1.1848121
-0.082306616 -0.27000186 -0.23471177 -0.33131853 -0.41301686 -0.25423825 0.12697905 -0.08876753
-0.35989317 0.57559407 1.6909035 -0.4753129 -0.0009056493 -0.17419791 -0.013955118 -0.018109437
0.16484125 -0.051100332 0.3501157 -0.5653788 -0.8169258 -0.5057987 0.298367 0.38207254
0.22082047 -0.09776589 0.22463593 -0.40722317 0.45287544 0.46652147 -0.16778639 0.8197555
-1.4112943 -0.18297401 0.01537633 -0.20783707 0.6316199 0.11187184 0.9315251 -0.6253079
0.40603232 -0.2487632 -0.3573781 -0.35461134 -0.3528534 -0.3442101 -0.02236725 0.031072963
0.17023382 -0.15123324 -0.0852987 0.19506246 -0.450052 -1.470663 -3.4534545 -3.3982723
0.0025315261 0.25692627 0.3859931 -0.12438849 0.3532326 0.16629305 0.89901406 0.029742826
-0.10680316 -0.18886222 0.11577521 0.25538254 -0.21861465 -0.13961147 0.31937382 -0.41583934
-0.46309397 -0.7687459 -1.1057531 0.12323884 -0.24241589 0.9149031 0.0035536457 0.3150396
-0.280774 0.10644413 0.4904292 0.3716169 1.0793389 0.243333 0.45714867 -0.009316421
0.08873917 -0.20103212 -0.21910788 -0.10510587 0.16200964 -0.03101961 -0.16303325 -0.12121053
-0.02041327 -0.2450264 0.0138032315 0.22229137 0.00092537 -0.26805457 -0.19890516 0.12501658
0.7043895 0.063666865 0.27704167 0.87399715 0.98188347 0.3782973 -0.09842655 0.06755133
0.10827767 0.16741303 0.44299582 0.033472735 -0.49964228 0.19923952 -0.4726763 -0.23719284
0.050668858 0.65391487 -0.0003078402 -0.09338449 0.20249866 0.17055808 0.27259368 -0.002704453
1.0341827 0.005839406 0.3036373 0.33778557 0.013406197 -0.36791447 -0.19335955 -0.15149087
00000000: b477 8e3b 53ff 66be ed55 1ebe 8b38 85be
00000010: 9b5a 143f bfb5 8b3e 5eb7 353e 45f9 8f3f
00000020: 9683 053f 2239 fc3e ab92 33be 5c95 303d
00000030: 6fe9 04be 2d15 80be 8916 d1be 5bc9 603e
00000040: 3b97 423d ca37 e73e 1d9e 823d fa95 b93e
00000050: 2289 d43e c345 54bf 0b23 083d 49ba 49bd
00000060: a859 3ebd 123f 6b3c d514 d23f 69d1 123f
00000070: ec5f f73e 69ac 6a3e 9146 923d 6604 673e
00000080: 40b1 43be b64f 91be 4cc1 8abe 55af ab3d
00000090: 7de3 01be 443f 02bf bd23 47bd e06c 8ebd
000000a0: 0fe6 ef3c 3e14 c1bf 45fa 7cbf 725b ddbe
000000b0: 4c3a 2fbb f71d d3bd 204e 47be 6d66 643c
000000c0: a3f2 103e 65b7 abbc e5cc 86be ae77 2ac0
000000d0: d7cf 1fc0 8c6f 10c0 2438 843e 7d2a 6b3e
000000e0: d1f7 a53c 548b c1bd c385 793e 6782 d7bd
000000f0: 3170 093f 5ed9 9a3d f9d8 02bf f2b5 a8bd
00000100: 3ca7 963f 91b5 52bf 937e 5939 a189 b9be
00000110: 3a39 d93e f735 a53d 201b b7be 8f4b 3cbe
00000120: 831a f1be 2aaa 8d3d cf3b 873e 10b3 ea3e
00000130: 6373 5d3d 344b 5e3e 0102 d13d 3402 183e
00000140: c6c8 3bbe 2507 04be 2b95 02be 45ba 4b3c
00000150: 2eaf 1e3e e2ee c6bf 8e4f 89be 084e 5e40
00000160: 8b59 8b3a 271f e6bc f386 91be fe9e 343e
00000170: a5c6 2c3e 71a1 bb3d fbf0 6d3e f646 d4be
00000180: 47a7 49bf 71b5 4fbf 86af eabd e032 72be
00000190: 55e8 06bd cbbd f13e ca68 aebe 0a65 97bc
000001a0: 093e df3e 3aa9 713d b85c 37bf 8adb 2e3c
000001b0: 7c59 3abd 478c 553e 8486 d5bb 3f2b 363e
000001c0: e4ab b9be a08d 20be 4371 31bf 4408 753d
000001d0: ef8f d2be 1cc9 d6bf e576 d2bf eca7 97bf
000001e0: 5f90 a8bd af3d 8abe 4858 70be 95a2 a9be
000001f0: f276 d3be 842b 82be cc06 023e c0cb b5bd
00000200: eb43 b8be 225a 133f 876f d83f 365c f3be
00000210: 1969 6dba f060 32be 02a4 64bc 3e5a 94bc
00000220: 25cc 283e 954e 51bd 5d42 b33e aabc 10bf
00000230: 0d22 51bf 067c 01bf 8fc3 983e 039f c33e
00000240: c31e 623e 7c39 c8bd f606 663e 8e7f d0be
00000250: 4adf e73e e7db ee3e 32d0 2bbe 7fdb 513f
00000260: 4ba5 b4bf 8a5d 3bbe 01ed 7b3c 3ed3 54be
00000270: d7b1 213f 101d e53d 6e78 6e3f 2e14 20bf
00000280: 78e3 cf3e c8bb 7ebe 43fa b6be 9e8f b5be
00000290: 33a9 b4be 4e3c b0be 863b b7bc ba8c fe3c
000002a0: c651 2e3e e3dc 1abe 16b1 aebd 74be 473e
000002b0: 376d e6be af3e bcbf 6605 5dc0 4b7d 59c0
000002c0: f6e7 253b d78b 833e e3a0 c53e 65bf febd
000002d0: e7da b43e ba48 2a3e c925 663f 3aa7 f33c
000002e0: 9dbb dabd 1965 41be 8e1b ed3d 80c1 823e
000002f0: 85dc 5fbe 4ff6 0ebe f784 a33e e5e8 d4be
00000300: a71a edbe 88cc 44bf 5189 8dbf a564 fc3d
00000310: df3b 78be 1737 6a3f 48e4 683b df4c a13e
00000320: 9cc1 8fbe 61ff d93d 8919 fb3e 9244 be3e
00000330: c727 8a3f 492c 793e 640f ea3e e7a3 18bc
00000340: e2bc b53d 5ddb 4dbe d15d 60be bf41 d7bd
00000350: dbe5 253e d61c febc 30f2 26be 3a3d f8bd
00000360: bb39 a7bc 33e8 7abe f326 623c 59a0 633e
00000370: 8894 723a 733e 89be cbad 4bbe 5904 003e
00000380: df52 343f c663 823d 68d8 8d3e 47be 5f3f
00000390: b75c 7b3f 2fb0 c13e dc93 c9bd 5a58 8a3d
000003a0: afc0 dd3d 526e 2b3e 59d0 e23e b51a 093d
000003b0: 1dd1 ffbe 7205 4c3e a102 f2be aee2 72be
000003c0: 268a 4f3d f766 273f 9d65 a1b9 5e40 bfbd
000003d0: cf5b 4f3e c7a6 2e3e 6691 8b3e 313d 31bb
000003e0: 1960 843f 7d58 bf3b 5976 9b3e 3bf2 ac3e
000003f0: aaa5 5b3c 495f bcbe 0c00 46be 6c20 1bbe

head.bias f4 [256]
0.15809746 -0.38014635 0.53257203 -0.15771388 -0.15553978 -0.12624347 0.5929101 -0.40556365
0.07054545 -0.3696449 0.017771106 -0.7966177 0.291421 0.013164497 -0.72383136 -0.5422104
0.28857598 -0.18008575 0.22868825 -0.49846 0.6170492 0.32817265 0.08446208 0.21187629
-0.21629265 -0.74075747 0.11861694 -0.22935379 -0.21190429 0.35619035 -0.58795345 -0.77815914
-0.2858763 -0.045121863 -0.15952063 0.3573202 -0.47249043 -0.12095338 0.5181188 0.7316367
-0.17026488 0.13945013 -0.12242153 -0.60973173 -0.52861106 -0.54320514 -0.040967386 0.657316
-0.38421986 0.38283262 0.20262133 -0.04394115 0.033685215 0.118251085 0.009091555 -0.3773051
-0.47556153 -0.18772396 -0.19758575 -0.04154991 0.102497555 -0.06147047 0.06107211 -0.09493612
0.13217098 -0.09753236 -0.19318703 0.1617993 0.42428347 -0.07925106 0.040603034 -0.029158978
-0.4707997 0.0020419506 0.17668304 -0.61932784 0.14857522 0.41982102 -0.80081135 0.2421657
0.23642777 0.15421326 0.33811948 -0.7399156 -0.45215788 0.19468781 -0.24763381 0.08493665
-0.36494964 -0.44463363 -0.16529974 -0.605434 0.3197899 0.5398664 -0.02732312 -0.09007668
0.41407868 -0.28039315 0.36230737 -0.2397451 0.16647992 -0.12444493 0.21322432 -0.23095122
0.41969174 -0.057657145 -0.7154561 -0.19043428 -0.2716123 -0.0142963035 0.12112056 -0.31968203
-0.48222467 0.6772978 -0.04637491 -0.25430122 -0.14718153 -0.5004301 0.14106804 0.23604435
-0.662432 -0.112027496 0.24290967 -0.19435391 0.04812267 -0.45751232 -0.05696292 0.46127814
-0.37651223 -0.38992253 -0.16699347 0.25708625 0.074458756 -0.08908285 -0.736136 0.16445822
-0.25014943 -0.26186424 -0.05795345 -0.019401455 0.4141175 0.009187187 -0.08708228 -0.55402976
1.033849 0.4330238 0.08057921 0.24713726 0.40463847 -0.13092422 -0.013617914 0.1405664
-0.32276955 0.5251963 -0.33865327 0.27457437 -0.7009474 0.09251682 -0.47326654 0.15829784
-0.35799992 -0.34148887 -0.67097217 -0.28460485 0.14131157 0.35888624 0.63802224 0.31876534
-0.33059174 -0.66807795 0.087139204 -0.04273525 -0.46590352 -0.11248153 0.24061319 -0.25587475
0.033852845 0.03335719 -1.0101783 0.24628577 0.9085129 -0.53706753 -0.12231128 -0.21200526
-0.08174394 0.5374991 -0.011998308 -0.49561614 -0.4539962 0.2544849 -0.2120392 -0.43815395
-0.018671142 0.32889557 0.18426391 -0.5344029 -0.4356553 -0.42881158 -0.093580835 -0.29447255
-0.0009165757 -0.4168769 -0.3212645 -0.45590773 0.25194737 0.22223239 0.12920715 -0.23832345
-0.01014836 -0.16852772 0.8098321 0.055667453 0.57682 0.08467409 -0.38290158 -0.13095744
-0.0727551 0.20319483 -0.51167476 -0.28338268 -0.25957265 -0.06535616 0.56704104 0.013795943
-0.1668056 0.6273968 0.12988935 -0.5748965 0.66334623 -0.091544084 0.7385417 -0.14073752
-0.34532824 0.101730056 -0.561289 0.010222288 -0.20171137 -0.03147366 -0.7854651 -0.371758
0.3282181 -0.043884505 0.30465913 0.05582101 -0.19455215 0.3880582 0.03392402 -0.26802462
-0.66924167 -0.037583444 0.5456382 0.27190304 -0.15571716 -0.41864637 -0.34195617 -0.042153314
00000000: 4de4 213e 8ba2 c2be a456 083f bf7f 21be
00000010: d245 1fbe f845 01be f5c8 173f 0aa6 cfbe
00000020: 227a 903d 1942 bdbe b694 913c 23ef 4bbf
00000030: 2235 953e e7af 573c 034d 39bf 4dce 0abf
00000040: 3bc0 933e 6668 38be 412d 6a3e 2636 ffbe
00000050: f0f6 1d3f 3f06 a83e 74fa ac3d 19f6 583e
00000060: d27b 5dbe 48a2 3dbf 70ed f23d b8db 6abe
00000070: 70fd 58be 955e b63e 1e84 16bf 7035 47bf
00000080: 615e 92be b4d1 38bd 6059 23be acf2 b63e
00000090: 44ea f1be 68b6 f7bd 6fa3 043f 8b4c 3b3f
000000a0: eb59 2ebe 04cc 0e3e 24b8 fabd 6117 1cbf
000000b0: 0e53 07bf 7e0f 0bbf 6bcd 27bd dd45 283f
000000c0: 77b8 c4be a302 c43e f77b 4f3e a3fb 33bd
000000d0: 82f9 093d a02d f23d bff4 143c 222e c1be
000000e0: cd7c f3be b63a 40be eb53 4abe 3d30 2abd
000000f0: 3dea d13d 76c8 7bbd c026 7a3d de6d c2bd
00000100: d457 073e 0cbf c7bd d2d2 45be b7ae 253e
00000110: af3b d93e 614e a2bd 5e4f 263d cfde eebc
00000120: a90c f1be 3fd2 053b 66ec 343e 458c 1ebf
00000130: 1a24 183e c8f2 d63e f901 4dbf 49fa 773e
00000140: 1f1a 723e 15ea 1d3e ff1d ad3e 1c6b 3dbf
00000150: 3d81 e7be 3e5c 473e b893 7dbe 44f3 ad3d
00000160: aeda babe 05a7 e3be 5644 29be b9fd 1abf
00000170: 80bb a33e af34 0a3f bcd4 dfbc 1f7a b8bd
00000180: 1f02 d43e b18f 8fbe 5a80 b93e bd7f 75be
00000190: b679 2a3e fcdc febd 7a57 5a3e 7a7e 6cbe
000001a0: d6e1 d63e e629 6cbd 2228 37bf 3401 43be
000001b0: c410 8bbe 0b3b 6abc 0e0e f83d 5dad a3be
000001c0: 27e6 f6be 6363 2d3f 9ef3 3dbd c533 82be
000001d0: c1b6 16be 301c 00bf 2474 103e 9cb5 713e
000001e0: 2595 29bf ac6e e5bd 50bd 783e b604 47be
000001f0: 471c 453d 0e3f eabe f351 69bd a62c ec3e
00000200: 36c6 c0be eda3 c7be 5600 2bbe cfa0 833e
00000210: d57d 983d 1271 b6bd 6973 3cbf bc67 283e
00000220: 9613 80be 1213 86be 9960 6dbd cdef 9ebc
00000230: 3507 d43e db85 163c 3258 b2bd e5d4 0dbf
00000240: 2a55 843f 4cb5 dd3e b606 a53d 8d11 7d3e
00000250: c62c cf3e 0011 06be ac1d 5fbc a3f0 0f3e
00000260: 0d42 a5be 4473 063f f663 adbe 0395 8c3e
00000270: 4a71 33bf 7579 bd3d fe4f f2be d418 223e
00000280: c44b b7be a1d7 aebe d5c4 2bbf bab7 91be
00000290: fbb3 103e f0bf b73e 6d55 233f 3635 a33e
000002a0: 5243 a9be 2807 2bbf 0a76 b23d 280b 2fbd
000002b0: e88a eebe b75c e6bd 4e63 763e 0402 83be
000002c0: 48a9 0a3d 8da1 083d 864d 81bf 5632 7c3e
000002d0: 4d94 683f 427d 09bf 567e fabd e817 59be
000002e0: 5e69 a7bd 8b99 093f 8d94 44bc 66c1 fdbe
000002f0: 3172 e8be d84b 823e ce20 59be b755 e0be
00000300: 39f4 98bc 0065 a83e aeaf 3c3e a1ce 08bf
00000310: 360e dfbe 318d dbbe 4fa7 bfbd 1bc5 96be
00000320: 5b46 70ba e470 d5be c87c a4be bd6c e9be
00000330: 3fff 803e e390 633e e14e 043e 100b 74be
00000340: 4f45 26bc 8892 2cbe 2851 4f3f 8e03 643d
00000350: 7aaa 133f 9c69 ad3d ad0b c4be b519 06be
00000360: a000 95bd 4e12 503e 1efd 02bf 8917 91be
00000370: b5e6 84be 73d9 85bd 9a29 113f 6108 623c
00000380: 16cf 2abe 149d 203f b701 053e 6b2c 13bf
00000390: 0fd1 293f 777b bbbd 1211 3d3f 7f1d 10be
000003a0: ddce b0be d957 d03d a3b0 0fbf 627b 273c
000003b0: 6d8d 4ebe 86ea 00bd 3e14 49bf 1157 bebe
000003c0: 340c a83e 3dc0 33bd 48fc 9b3e 92a4 643d
000003d0: ae38 47be 90af c63e eaf3 0a3d 863a 89be
000003e0: 6c53 2bbf 19f1 19bd f2ae 0b3f e036 8b3e
000003f0: 5274 1fbe d158 d6be e114 afbe f4a8 2cbd

cos_embedding.weight f4 [256, 64]
-0.31458914 0.195764 -0.0565147 0.2219359 -0.4891321 -0.10259043 -0.5511095 -0.43289867
-0.09558514 0.19816014 0.43723214 0.27130142 -0.17908926 -0.03659272 -0.06386923 0.44052806
-0.18033692 0.36369383 0.22508423 0.18430756 0.08759043 -0.08347258 -0.07251113 0.20827544
-0.26534605 0.018231863 -0.34747258 0.092230834 -0.24503702 -0.07635782 -0.15618676 -0.096931145
-0.060259473 -0.130044 -0.044259597 0.06811373 -0.11792436 0.105073646 -0.21484475 0.02879163
0.01874803 -0.11242266 0.004373515 -0.080545835 -0.12043644 0.0015699641 -0.16725992 -0.008185252
-0.044293277 -0.025204819 -0.05407914 -0.09807506 -0.0062573985 -0.013511101 0.047899645 0.023266736
-0.0186846 0.044365223 -0.1191971 -0.042881038 -0.030093655 0.058890183 0.0405559 0.038386032
0.0661127 0.520942 -0.013936465 0.45746619 -0.13923997 0.21143565 -0.048188332 0.19561885
-0.15288776 0.12633441 -0.08284828 0.058960546 -0.12425395 -0.023287768 -0.17733857 0.06979255
-0.07429328 -0.0222021 -0.057420157 -0.03771334 -0.07436707 -0.028680542 -0.00041523666 -0.07782625
-0.061360955 0.0059431805 -0.07212436 0.044407785 -0.03470049 -0.028439343 0.00074548885 -0.0011574901
-0.016049279 -0.0017813849 -0.073661596 0.041710038 -0.0020902348 -0.012507639 -0.05084511 -0.015230412
0.0050767944 0.014417135 -0.024818841 -0.04900873 -0.008872128 -0.02482635 0.008634627 -0.0124054765
-0.021415561 0.021274813 0.018224722 -0.03127625 -0.025445957 0.006876745 0.0031227842 0.02338287
-0.016279565 -0.010378614 -0.011441523 0.013367931 -0.01592359 0.0023854445 -0.03460211 0.018264838
-0.11124616 -0.5029791 -0.11647322 -0.44813186 -0.019897804 -0.3718006 -0.19956979 -0.3217012
-0.020957189 -0.33652675 -0.09787466 -0.25008577 -0.09439961 -0.15362145 -0.11900765 -0.12477778
-0.0697008 -0.062329315 -0.11434801 0.016880253 -0.04690605 0.07595296 -0.013511991 0.082495555
0.050046645 0.09021131 0.074182875 0.08252534 0.1064512 0.08103379 0.14163972 0.056455962
0.13342403 0.052404698 0.17169155 0.025023703 0.20131081 0.031544045 0.20883484 0.013064605
0.21556167 0.0029140192 0.1993003 -0.0072386013 0.19514477 -0.026329048 0.16905877 -0.023158051
0.16339232 -0.029101646 0.13881664 -0.038988046 0.12157395 -0.038076904 0.082984656 -0.031790126
0.06318322 -0.037758857 0.04879704 -0.02263333 0.019087264 -0.028442482 0.020372527 -0.01011851
0.6015742 -0.04208191 0.18076088 -0.27697355 0.34458405 -0.22508425 -0.4733319 -0.09656798
0.08270205 0.0072801216 -0.37564966 0.038388804 -0.100678936 -0.1124896 0.046990246 0.02234933
0.10149938 -0.20941456 -0.040002987 0.028438663 0.13629156 0.115622155 -0.024988668 0.035311516
0.01742247 0.09138096 0.092894666 0.07231531 0.005021046 -0.07413094 -0.061316054 0.027201576
0.019641032 -0.07070747 -0.055658188 -0.0835729 -0.12990007 -0.05896592 -0.04447137 0.0091311885
-0.136185 -0.09154666 -0.04904966 -0.05743389 -0.09469642 -0.031932782 -0.059999514 -0.1420716
-0.066740505 -0.032424297 -0.013754506 -0.06824991 -0.093819246 -0.024770144 -0.12250726 -0.0144402925
-0.058785073 0.026625294 -0.10541933 0.0040257154 -0.03506041 0.040054403 -0.03742947 0.025353469
00000000: d411 a1be 5c76 483e f57b 67bd 2a43 633e
00000010: 866f fabe ee1a d2bd 8315 0dbf e5a4 ddbe
00000020: 24c2 c3bd 7eea 4a3e e4dc df3e 05e8 8a3e
00000030: 2d63 37be 3fe2 15bd dfcd 82bd e58c e13e
00000040: 3eaa 38be 1436 ba3e 7b7c 663e 1fbb 3c3e
00000050: 9d62 b33d acf3 aabd b780 94bd 2846 553e
00000060: 70db 87be fd5a 953c ede7 b1be 85e3 bc3d
00000070: fcea 7abe 7d61 9cbd 6cef 1fbe d683 c6bd
00000080: a3d2 76bd 412a 05be 8d49 35bd 367f 8b3d
00000090: 5482 f1bd da30 d73d 4300 5cbe 6ddc eb3c
000000a0: 7895 993c da3d e6bd b44f 8f3b 37f5 a4bd
000000b0: 61a7 f6bd 41c7 cd3a 2f46 2bbe 6f1b 06bc
000000c0: de6c 35bd 567a cebc 1782 5dbd 94db c8bd
000000d0: dd0a cdbb aa5d 5dbc 6b32 443d e299 be3c
000000e0: 7210 99bc 4fb8 353d 9c1d f4bd 07a4 2fbd
000000f0: f886 f6bc d536 713d f21d 263d ac3a 1d3d
00000100: 1866 873d 745c 053f c555 64bc 0239 ea3e
00000110: ec94 0ebe 9682 583e 2161 45bd 4f50 483e
00000120: 9c8e 1cbe cf5d 013e 5cac a9bd 9d80 713d
00000130: db78 febd fdc5 bebc 3e98 35be 65ef 8e3d
00000140: 1327 98bd 2ee1 b5bc 6631 6bbd 4e79 1abd
00000150: c34d 98bd 75f3 eabc 1fb4 d9b9 5e63 9fbd
00000160: a055 7bbd 03bf c23b f0b5 93bd f0e4 353d
00000170: 1a22 0ebd a0f9 e8bc e96c 433a ecb6 97ba
00000180: c779 83bc 5c7d e9ba e4db 96bd 25d8 2a3d
00000190: 52fc 08bb d7ec 4cbc f642 50bd fa88 79bc
000001a0: 3d5b a63b d935 6c3c e250 cbbc 61bd 48bd
000001b0: 675c 11bc a160 cbbc 4078 0d3c 5740 4bbc
000001c0: b06f afbc 8448 ae3c 034c 953c 861b 00bd
000001d0: 0a74 d0bc 5156 e13b a0a7 4c3b 6f8d bf3c
000001e0: b95c 85bc 100b 2abc 3a75 3bbc 2b05 5b3c
000001f0: 3072 82bc 1e55 1c3b f1ba 0dbd 24a0 953c
00000200: 07d5 e3bd 3dc3 00bf 8389 eebd 8a71 e5be
00000210: b800 a3bc a65c bebe 065c 4cbe 05b6 a4be
00000220: 69ae abbc 3c4d acbe 8272 c8bd 3e0b 80be
00000230: 9554 c1bd f14e 1dbe 48ba f3bd 7e8b ffbd
00000240: 4bbf 8ebd 064d 7fbd 4a2f eabd 7548 8a3c
00000250: 8f20 40bd 3a8d 9b3d 6661 5dbc 6ef3 a83d
00000260: b6fd 4c3d b5c0 b83d 31ed 973d 0c03 a93d
00000270: 1603 da3d 0bf5 a53d 010a 113e 5e3e 673d
00000280: 4fa0 083e 4fa6 563d e9cf 2f3e 82fe cc3c
00000290: 6c24 4e3e 5434 013d cdd8 553e ed0c 563c
000002a0: 33bc 5c3e 21f9 3e3b 6115 4c3e ca31 edbb
000002b0: 08d4 473e 04b0 d7bc be1d 2d3e f4b5 bdbc
000002c0: 5150 273e 9366 eebc f325 0e3e eeb1 1fbd
000002d0: c3fb f83d 87f6 1bbd dcf3 a93d 5d36 02bd
000002e0: 3466 813d 08a9 1abd 68df 473d 8969 b9bc
000002f0: e55c 9c3c 3500 e9bc 49e4 a63c 1bc8 25bc
00000300: c400 1a3f 155e 2cbd 6119 393e 7acf 8dbe
00000310: 526d b03e 7c7c 66be 8f58 f2be 6fc5 c5bd
00000320: b15f a93d 168e ee3b 2755 c0be 943d 1d3d
00000330: c230 cebd f360 e6bd d878 403d f115 b73c
00000340: e8de cf3d c570 56be 2cda 23bd 33f8 e83c
00000350: 0490 0b3e 4fcb ec3d 09b5 ccbc cfa2 103d
00000360: 91b9 8e3c f125 bb3d 8f3f be3d 0d1a 943d
00000370: 9687 a43b f6d1 97bd 8b26 7bbd d7d5 de3c
00000380: 3be6 a03c 14cf 90bd d7f9 63bd 4528 abbd
00000390: 8604 05be 4086 71bd 9c27 36bd fb9a 153c
000003a0: 1574 0bbe d17c bbbd 4ce8 48bd cc3f 6bbd
000003b0: 32f0 c1bd f3cb 02bd 0dc2 75bd 387b 11be
000003c0: 3faf 88bd 57cf 04bd 945a 61bc 9cc6 8bbd
000003d0: 4e24 c0bd c2ea cabc 16e5 fabd fa96 6cbc
000003e0: 9ec8 70bd 4a1d da3c 17e6 d7bd 26ea 833b
000003f0: 819b 0fbd 1610 243d a54f 19bd 14b2 cf3c

cos_embedding.bias f4 [256]
0.83574975 0.051573064 1.371904 0.6162795 2.6826413 1.0601234 0.32630113 0.4581276
1.6148623 0.15463907 -0.0071246396 0.27021548 1.2200596 -0.09042356 0.08813644 1.1655083
2.2011423 0.46240693 1.8388885 0.67178595 1.4374838 2.0255396 0.31883487 1.6970222
0.3069578 0.8943058 0.0386298 1.0025429 0.32922745 1.683877 0.78544205 0.6275983
1.4252216 0.6618517 1.8303676 0.6237379 0.22279868 0.93687785 1.6976532 1.2959684
0.24859725 0.2293925 1.6115392 0.16053271 -0.15577011 1.1731048 2.0161664 2.431965
1.4664646 1.9185812 0.4912184 0.3469035 -0.011172298 1.466006 1.2587897 0.365853
0.967781 0.10893992 1.4502434 0.5793346 0.012092266 0.2012055 0.8483942 1.8854265
0.64906734 0.15436146 1.1174155 1.124273 1.1184157 1.3980104 0.99072737 0.89876294
1.9702709 0.9858065 1.1431224 0.11575994 0.03418562 1.8192874 0.63313097 1.2191908
1.3615112 0.017392904 1.9595307 0.17352939 0.083330154 0.7436651 1.4563987 0.45140013
0.8124894 1.322767 0.21704267 1.1209563 0.7045625 1.0425048 0.096918255 1.6083
0.48677042 1.0310072 -0.03992246 0.039802533 0.98448604 0.28993344 1.3727481 0.5609301
1.5525631 -0.11906521 0.7600384 0.49435917 0.22257218 1.0674953 0.49427497 0.63091445
0.4148002 0.65762717 1.5824258 0.66943324 0.8671617 0.21140829 0.24167797 0.36023206
0.045027073 0.372029 1.5265857 1.80271 2.148768 1.2245356 0.36448237 0.9940905
0.42634243 0.94643086 0.00018693507 0.6311704 1.2843883 0.83042127 2.3091435 -0.0034000434
1.415987 0.29806507 1.0576576 0.8505607 3.0642176 1.3658612 0.44356638 1.7649751
1.5174412 1.9894321 1.7503396 1.3831565 2.2822156 -0.010548636 2.5910559 0.7394487
0.25238132 1.4230665 0.7100315 0.85321844 0.12592047 1.2031773 1.1318722 2.0284784
0.7266417 0.08073381 0.2735904 0.3787611 1.3667238 0.6777384 1.8778392 0.46038517
1.3657806 0.37658626 0.21309978 0.64431006 1.4387017 0.49157238 2.549632 0.72855157
0.07374111 1.8555609 1.0134263 1.0976299 1.6124152 0.96518654 1.4339359 1.7728703
1.1124513 0.38709402 1.490452 1.5823188 -0.05679696 0.87378347 1.4178945 0.9604294
1.3334002 0.42267728 1.4640326 1.1461186 0.0015206089 0.22235127 0.036445424 0.022540102
2.3591108 0.4130999 1.0608239 1.2519068 1.5360092 0.14516376 1.6701605 1.8607908
0.014453441 0.6138197 3.2558033 0.57174665 2.8628185 1.4153414 0.10654593 0.54870474
0.46348 0.5060931 0.57161987 1.9411995 1.7592956 0.11309306 1.1128863 -0.106307164
0.19072229 1.0099113 1.7411532 1.1568062 1.6026348 1.0825973 0.7134101 1.4773794
-0.03536916 0.8134424 1.7899375 -0.01816795 0.7254297 -0.009857367 1.3137387 0.1031935
1.3264345 1.2768618 2.0213175 0.7018689 0.64334637 0.42779076 1.0794293 1.2802963
0.41837913 1.4757338 1.3535925 1.8888412 0.49233165 0.10145214 0.3864584 1.1108701
00000000: b2f3 553f 473e 533d 8d9a af3f 7ec4 1d3f
00000010: 65b0 2b40 20b2 873f f110 a73e b38f ea3e
00000020: cfb3 ce3f b459 1e3e cf75 e9bb af59 8a3e
00000030: ea2a 9c3f fd2f b9bd e180 b43d 602f 953f
00000040: 84df 0c40 9ac0 ec3e b360 eb3f 2afa 2b3f
00000050: 78ff b73f 71a2 0140 533e a33e 0638 d93f
00000060: 9329 9d3e 3af1 643f 483a 1e3d 5353 803f
00000070: 8090 a83e 4889 d73f bb12 493f 48aa 203f
00000080: a96d b63f 1d6f 293f 7c49 ea3f 49ad 1f3f
00000090: 5625 643e 3ad7 6f3f b34c d93f 4be2 a53f
000000a0: 4790 7e3e dee5 6a3e eb46 ce3f b062 243e
000000b0: 3382 1fbe 4c28 963f df08 0140 51a5 1b40
000000c0: 1db5 bb3f 1294 f53f fa80 fb3e 569d b13e
000000d0: 040c 37bc 16a6 bb3f 0520 a13f 1651 bb3e
000000e0: 7fc0 773f e51b df3d 93a1 b93f 464f 143f
000000f0: a41e 463c d108 4e3e 5d30 593f a855 f13f
00000100: 4729 263f ee10 1e3e 7907 8f3f 2de8 8f3f
00000110: 3f28 8f3f 01f2 b23f 4fa0 7d3f 5415 663f
00000120: d631 fc3f d15d 7c3f d651 923f 8c13 ed3d
00000130: 3806 0c3d 69de e83f df14 223f 720e 9c3f
00000140: 0046 ae3f 907b 8e3c e7d1 fa3f b0b1 313e
00000150: 00a9 aa3d d660 3e3f 466b ba3f eb1d e73e
00000160: 4eff 4f3f 6e50 a93f 6f40 5e3e 7f7b 8f3f
00000170: 355e 343f cc70 853f 147d c63d c6dc cd3f
00000180: f939 f93e 0bf8 833f bc85 23bd fb07 233d
00000190: 4707 7c3f 2872 943e 36b6 af3f 1d99 0f3f
000001a0: 63ba c63f 76d8 f3bd e091 423f a51c fd3e
000001b0: f6e9 633e b0a3 883f 9c11 fd3e 9c83 213f
000001c0: b160 d43e 415a 283f ee8c ca3f fa5f 2b3f
000001d0: 4ffe 5d3f 6a7b 583e 6e7a 773e 5670 b83e
000001e0: 4f6e 383d 967a be3e 2967 c33f 34bf e63f
000001f0: 6a85 0940 95bd 9c3f 6f9d ba3e b77c 7e3f
00000200: 8e49 da3e 4b49 723f 0004 4439 6294 213f
00000210: d666 a43f 7d96 543f 02c9 1340 43d3 5ebb
00000220: 103f b53f fc9b 983e 5361 873f 59be 593f
00000230: 241c 4440 8ad4 ae3f 221b e33e b4ea e13f
00000240: 833b c23f b6a5 fe3f 210b e03f 460b b13f
00000250: d20f 1240 30d4 2cbc dcd3 2540 834c 3d3f
00000260: 2038 813e 0b27 b63f a0c4 353f 866c 5a3f
00000270: 4cf1 003e b701 9a3f 30e1 903f 97d2 0140
00000280: 3105 3a3f c557 a53d 0a14 8c3e faec c13e
00000290: cef0 ae3f 4480 2d3f 095d f03f 9bb7 eb3e
000002a0: e6d1 ae3f eacf c03e d436 5a3e 81f1 243f
000002b0: 6127 b83f 60af fb3e 2c2d 2340 5b82 3a3f
000002c0: 9405 973d 0583 ed3f f4b7 813f 237f 8c3f
000002d0: 9f63 ce3f 7716 773f 368b b73f 6aed e23f
000002e0: ce64 8e3f 3031 c63e 22c7 be3f 6c89 ca3f
000002f0: eea3 68bd 46b0 5f3f 917d b53f b3de 753f
00000300: dcac aa3f 2869 d83e 6c65 bb3f 04b4 923f
00000310: 2b4f c73a 0db0 633e cc47 153d 05a6 b83c
00000320: acfb 1640 d581 d33e 14c9 873f 7b3e a03f
00000330: f39b c43f cfa5 143e d2c7 d53f 652e ee3f
00000340: 20ce 6c3c 4a23 1d3f 155f 5040 fd5d 123f
00000350: 6b38 3740 e829 b53f c134 da3d ea77 0c3f
00000360: 404d ed3e 518f 013f ae55 123f 3a79 f83f
00000370: 9930 e13f 569d e73d 0f73 8e3f 92b7 d9bd
00000380: b44c 433e c644 813f 1cde de3f 3a12 943f
00000390: 2323 cd3f 8c92 8a3f 0ba2 363f c51a bd3f
000003a0: 41df 10bd c33d 503f ac1c e53f f4d4 94bc
000003b0: c3b5 393f cb80 21bc 9728 a83f 1d57 d33d
000003c0: 9bc8 a93f 3570 a33f 445d 0140 aead 333f
000003d0: 59b2 243f 6407 db3e bd2a 8a3f c0e0 a33f
000003e0: ca35 d63e d8e4 bc3f 8542 ad3f 8cc5 f13f
000003f0: e512 fc3e 24c6 cf3d e0dd c53e fe30 8e3f

ff_1.weight f4 [256, 256]
0.3732785 -0.118128665 -0.08228457 -0.0077515184 -0.06887188 -0.36411357 -0.006918396 -0.04755533
0.22238603 0.12297255 0.16779774 -0.016829686 0.00828716 -0.017263927 0.06689015 -0.06537352
0.31195536 0.03957522 0.053080574 0.14283632 0.00036024261 -0.36275494 -0.117932715 0.009988605
0.046549298 -0.0938139 -0.02625531 0.08492031 0.050331097 -0.031582333 -0.55017483 0.15073295
-0.2430053 0.13277985 -0.04384805 0.090673484 -0.009824179 -0.21173538 -0.14929266 0.11237187
0.0799872 0.030349983 0.37027183 0.043689895 0.16219394 -0.12116584 -0.0794611 -0.18071216
0.14545138 0.24945945 0.11883917 0.034055993 -0.0034116134 -0.6636644 -0.102892436 0.13615988
0.12949964 -0.045062583 -0.19258311 0.03837376 0.039685983 0.00822056 0.10040141 -0.3054407
0.12036597 0.073971465 0.21815743 0.08889117 -0.25009298 -0.20604718 0.012583571 0.13193707
-0.20477426 0.09705242 -0.08914339 0.0011812749 0.026988357 -1.1092064 0.14287074 -0.0847418
-0.31067804 0.0252591 -0.15341857 0.054398913 -0.04924377 0.15239367 -0.3218981 0.114331245
-0.09765357 -0.12554474 0.19102192 0.2513501 0.008602985 -0.32539907 0.19672938 0.21666504
-0.010711097 0.30231547 0.09044914 0.124040835 -0.09793211 0.019338112 0.1563584 0.20930295
-0.2095016 -0.018701147 0.11342302 0.0096208835 -0.1161803 0.12561107 0.12909988 0.2623084
0.07988572 0.2214736 -0.17356049 -0.15213963 -0.14773647 0.10202854 -0.16940631 -0.15393855
0.115601785 0.1287501 0.03390131 -0.26897046 0.016615609 -7.058044e-05 0.06851169 -0.25377563
0.03236868 0.06963482 0.006536089 -0.03695958 -0.069808386 0.12409773 0.16413954 0.01608904
0.19862652 -0.07932734 0.05228985 0.23158564 -0.10100626 0.2484143 0.05121221 0.29369634
0.051750127 -0.22095926 0.08508724 -0.0060901362 -0.08167734 0.060107805 0.25171012 -0.32905248
0.05919109 -0.05982834 0.2311272 -0.07778404 -0.07669856 -0.1460302 -1.3275403 0.28127718
-0.17615011 0.17972665 0.21189953 -0.11732338 0.013782641 -0.27116984 -0.28534564 0.07315889
0.1785204 0.05137889 -0.02386383 -0.12746085 0.07348321 0.013547202 0.04941141 -0.63524646
0.03310021 -0.13267913 -0.07000568 0.003864166 0.07815275 -0.25093466 -0.5812615 -0.17162773
0.41108525 -0.16672249 -0.004449549 0.22771025 -0.10876123 -0.14618573 -0.08517603 0.1329545
-0.07647409 0.16758604 0.009157426 -0.030604685 -0.049815882 0.008316789 -0.061757743 0.07820619
0.043843724 0.1107717 0.13948397 0.019533485 0.32895255 -0.044636983 -0.19495185 -0.14252524
0.052631468 -0.086323425 -0.21943946 0.18445396 0.1667674 0.010620497 -0.0055508846 0.009636703
0.11983036 0.0026094967 -0.013209592 -0.0763507 0.06739169 -0.03782982 -0.0028984465 -0.039185166
0.06865489 0.123443276 -0.23073418 -0.06937844 0.08260968 -0.08195154 0.25113255 -1.56517
0.09482304 0.15961388 -0.2690562 -0.054921966 0.17190532 0.019736452 -0.1051155 0.0012799967
-0.22572823 -0.04673767 -1.0401219 0.23732005 -0.057867892 0.041536108 -0.086572796 0.13382077
0.07074193 0.17737383 0.14612342 -0.13608202 0.17397085 0.08451925 0.13760684 -0.10487015
00000000: 5c1e bf3e 71ed f1bd d084 a8bd 7300 febb
00000010: b30c 8dbd 186d babe b6b3 e2bb 61c9 42bd
00000020: 2ab9 633e 08d9 fb3d 2cd3 2b3e 69de 89bc
00000030: dec6 073c 146d 8dbc b4fd 883d 8de2 85bd
00000040: 9db8 9f3e a019 223d 046b 593d af43 123e
00000050: f2de bc39 04bb b9be b586 f1bd 3fa7 233c
00000060: 7aaa 3e3d 8121 c0bd 6015 d7bc b3ea ad3d
00000070: fb27 4e3d 7a5c 01bd 42d8 0cbf bd59 1a3e
00000080: 62d6 78be 71f7 073e 039a 33bd 05b3 b93d
00000090: 98f5 20bc 29d1 58be 2de0 18be 3923 e63d
000000a0: 54d0 a33d 87a0 f83c 4594 bd3e 2df4 323d
000000b0: 2b16 263e cc25 f8bd 80bc a2bd 9c0c 39be
000000c0: 35f1 143e 4c72 7f3e f361 f33d 4c7e 0b3d
000000d0: 6095 5fbb e9e5 29bf 45b9 d2bd 7f6d 0b3e
000000e0: 8e9b 043e 8b93 38bd 8234 45be ce2d 1d3d
000000f0: c58d 223d 87af 063c 419f cd3d b962 9cbe
00000100: 6f82 f63d 5a7e 973d a964 5f3e 930c b63d
00000110: 300c 80be 08fe 52be 522b 4e3c 831a 073e
00000120: 58b0 51be 6bc3 c63d cf90 b6bd 02d5 9a3a
00000130: b016 dd3c 7afa 8dbf b54c 123e 1c8d adbd
00000140: 3111 9fbe 2cec ce3c c219 1dbe 65d1 5e3d
00000150: d6b3 49bd 160d 1c3e d4cf a4be 8026 ea3d
00000160: 98fe c7bd cd8e 00be 409b 433e f6b0 803e
00000170: 89f3 0c3c b59a a6be 6d73 493e 71dd 5d3e
00000180: 997d 2fbc 18c9 9a3e 663d b93d 1f09 fe3d
00000190: a190 c8bd f66a 9e3c 6b1c 203e 8353 563e
000001a0: 9687 56be 2633 99bc 544a e83d e9a0 1d3c
000001b0: f0ef edbd 30a0 003e c232 043e 494d 863e
000001c0: 209b a33d fac9 623e d7b9 31be 7eca 1bbe
000001d0: 3b48 17be 57f4 d03d d978 2dbe 11a2 1dbe
000001e0: a1c0 ec3d 11d7 033e 1adc 0a3d 7fb6 89be
000001f0: 751d 883c 9604 94b8 db4f 8c3d e1ee 81be
00000200: 0595 043d b39c 8e3d b02c d63b ee62 17bd
00000210: b3f7 8ebd f326 fe3d 3214 283e 2acd 833c
00000220: c064 4b3e 5f76 a2bd e22d 563d c924 6d3e
00000230: 5fdc cebd 5160 7e3e e5c3 513d 5e5f 963e
00000240: f1f7 533d 2543 62be 3842 ae3d c48f c7bb
00000250: 7346 a7bd 9a33 763d 26e0 803e 9179 a8be
00000260: 5b72 723d 900e 75bd 9cac 6c3e 3d4d 9fbd
00000270: 2214 9dbd f188 15be d7ec a9bf 9003 903e
00000280: b260 34be 430a 383e 31fc 583e 3e47 f0bd
00000290: 96d0 613c c6d6 8abe d318 92be 54d4 953d
000002a0: 0dce 363e ac72 523d 147e c3bc 1985 02be
000002b0: 5d7e 963d 15f5 5d3c 9e63 4a3d 839f 22bf
000002c0: 1694 073d 0add 07be 235f 8fbd f33d 7d3b
000002d0: 8d0e a03d 827a 80be 8ecd 14bf 2ebf 2fbe
000002e0: c479 d23e 4db9 2abe 86cd 91bb e02c 693e
000002f0: 35be debd b6b1 15be c570 aebd 3925 083e
00000300: 739e 9cbd ad9b 2b3e 0709 163c adb6 fabc
00000310: bd0b 4cbd 2443 083c b0f5 7cbd 912a a03d
00000320: 7a95 333d 46dc e23d e3d4 0e3e b004 a03c
00000330: 786c a83e 45d5 36bd 75a1 47be 23f2 11be
00000340: 1894 573d 56ca b0bd bdb4 60be 80e1 3c3e
00000350: 13c5 2a3e 9801 2e3c 32e4 b5bb 43e3 1d3c
00000360: 9f69 f53d 1704 2b3b 0b6d 58bc c15d 9cbd
00000370: a804 8a3d 71f3 1abd ddf3 3dbb a080 20bd
00000380: ef9a 8c3d d4cf fc3d 9545 6cbe 4916 8ebd
00000390: 442f a93d 36d6 a7bd 7294 803e 7e57 c8bf
000003a0: 9532 c23d d271 233e bcc1 89be dbf5 60bd
000003b0: f307 303e 57ae a13c cc46 d7bd 90c5 a73a
000003c0: 4d25 67be 0070 3fbd b722 85bf 0704 733e
000003d0: e206 6dbd c421 2a3d 144d b1bd 5008 093e
000003e0: 25e1 903d 7ca1 353e 61a1 153e 1659 0bbe
000003f0: 6a25 323e 6e18 ad3d cfe8 0c3e 29c6 d6bd

ff_1.bias f4 [256]
0.053849682 -0.10595182 -0.06637758 0.09701918 -0.56362957 -0.6108312 0.026425384 -0.15720676
0.059414737 -0.16106507 -0.22451939 -0.27172354 0.075329065 0.020255195 0.09628166 -0.17158544
-0.09226891 0.03658569 0.08155635 -0.025814364 -0.3464663 0.33354166 0.22914709 -0.06751831
0.010284175 0.054216523 -0.26496157 -0.10365511 0.021400886 0.1483559 0.047185015 0.008453726
-0.0673866 -0.11049838 0.033007815 -0.24228135 0.17604926 0.27436626 -0.12019829 -0.30314878
-0.06322906 -0.04557456 -0.3692376 -0.21317919 -0.10326307 0.10334357 0.053051814 -0.1396906
0.1850404 -0.027899712 0.07780739 -0.11604766 -0.2863348 -0.014515291 -0.11095106 -0.2278187
0.10994178 0.14612487 0.043545842 -0.045830652 -0.054638267 0.041897837 0.10995447 -0.011502019
0.058920704 0.18500932 -0.10904714 0.043072805 0.022391967 0.15525839 0.07649398 0.32524976
-0.45416462 0.13501866 -0.14600213 -0.16426404 -0.03784797 0.29309112 -0.038304955 -0.2921946
0.033115763 -0.093991 -0.03453489 -0.48055384 -0.034526575 0.20693327 -0.04670933 0.21958078
-0.041702207 0.098066136 -0.03438889 0.067401946 0.13451737 -0.29182574 -0.24510978 0.1257552
-0.10105381 -0.25745043 -0.17807187 -0.10417448 0.11572281 -0.11547761 0.18742482 -0.12741952
-0.054679923 0.037725285 0.1526502 -0.13424087 -0.23888615 -0.116544604 0.13676982 -0.276583
-0.057455793 0.16246545 0.12962492 0.007771026 0.19305667 -0.035294473 -0.09623425 0.028916407
0.12795307 0.06723068 0.10759221 -0.07161299 -0.34324968 -0.06706999 0.078521036 0.18865499
0.13249996 0.009011061 -0.383565 0.029635977 -0.3556883 -0.020076765 0.04558642 0.02612098
-0.025857758 -0.03786876 0.09091602 -0.099738635 -0.11900314 -0.03479299 0.044049636 -0.14926413
-0.087293714 0.06308337 0.020860966 -0.23163451 -0.20053335 -0.060362685 -0.030645099 0.09870149
-0.22315817 -0.2581255 0.151203 0.13345313 -0.16574869 0.16806805 0.030984925 -0.033188626
0.20585042 0.23525275 0.21022713 -0.3256347 -0.025484543 0.17496377 0.04344056 0.17406276
-0.09553311 0.062117416 0.032888304 -0.074208215 -0.394458 0.14826457 0.20495386 0.10496805
-0.0037844772 -0.02955054 0.07760534 -0.11732993 -0.32061425 -0.15344517 0.044126336 0.0061474196
0.1409202 0.27048966 -0.023607535 -0.17724077 0.094707504 0.075476624 0.06290914 -0.14987136
0.21155752 0.12635085 -0.030267818 0.1088451 0.009259681 0.10227935 0.121183716 -0.059000015
0.042412337 0.11768871 -0.0030537038 0.21855016 0.007862114 -0.06754307 0.14803419 -0.3651324
0.08410929 0.18161067 0.1430651 -0.04117244 0.24863784 -0.33258978 0.06889726 -0.16174747
0.110045426 0.11423096 0.19898494 0.076057576 0.051954664 0.20418048 -0.059773155 -0.2357161
-0.31387722 -0.02307445 0.12692364 -0.22939962 -0.1342459 0.19337346 0.037143473 -0.63120013
0.11529199 0.2875026 0.09867979 0.03187263 0.12009241 -0.2257673 -0.087859645 -0.2424426
0.16403994 0.052885942 -0.012667794 -0.22434385 0.14193566 -0.07149084 0.012543152 -0.00033565884
-0.025376236 -0.16863537 -0.013752496 -0.09713062 0.031062301 0.11801834 0.034570593 -0.011654518
00000000: 7c91 5c3d 45fd d8bd f8f0 87bd feb1 c63d
00000010: 074a 10bf 6f5f 1cbf 0c7a d83c cffa 20be
00000020: de5c 733d 3eee 24be 69e8 65be 591f 8bbe
00000030: 2046 9a3d 39ee a53c 522f c53d 18b4 2fbe
00000040: 7bf7 bcbd e0da 153d 0407 a73d a578 d3bc
00000050: 0864 b1be f9c5 aa3e 89a5 6a3e 0a47 8abd
00000060: f57e 283c 2512 5e3d 0ba9 87be 2149 d4bd
00000070: e950 af3c 9cea 173e 1345 413d 7f81 0a3c
00000080: fc01 8abd fa4c e2bd 3433 073d 9a18 78be
00000090: 4246 343e bc79 8c3e 852a f6bd 5136 9bbe
000000a0: 3d7e 81bd 64ac 3abd b60c bdbe a54b 5abe
000000b0: 977b d3bd cba5 d33d dc4c 593d 0d0b 0fbe
000000c0: 3b7b 3d3e f08d e4bc 7b59 9f3d 65aa edbd
000000d0: 7a9a 92be 8bd1 6dbc 4f3a e3bd 4e49 69be
000000e0: 2829 e13d c2a1 153e 205d 323d ecb8 3bbd
000000f0: 60cc 5fbd 119d 2b3d cf2f e13d f772 3cbc
00000100: d656 713d 1573 3d3e 1b54 dfbd 1c6d 303d
00000110: 5c6f b73c 0efc 1e3e e0a8 9c3d 2387 a63e
00000120: 4488 e8be 5542 0a3e 9581 15be d534 28be
00000130: 7906 1bbd 0a10 963e a8e5 1cbd 889a 95be
00000140: 65a4 073d 5a7e c0bd 7574 0dbd 270b f6be
00000150: bd6b 0dbd 51e6 533e 4852 3fbd c9d9 603e
00000160: efcf 2abd e6d6 c83d 5ddb 0cbd 080a 8a3d
00000170: ecbe 093e 2f6a 95be 0ffe 7abe f9c5 003e
00000180: 4df5 cebd 8bd0 83be 7958 36be 6e59 d5bd
00000190: 1500 ed3d 867f ecbd 4bec 3f3e 437a 02be
000001a0: 0ef8 5fbd d485 1a3d 5650 1c3e 7076 09be
000001b0: 929e 74be f0ae eebd 630d 0c3e 499c 8dbe
000001c0: c456 6bbd 585d 263e 65bc 043e 17a4 fe3b
000001d0: a6b0 453e f090 10bd 7616 c5bd 1ae2 ec3c
000001e0: 2106 033e 3db0 893d 4e59 dc3d d5a9 92bd
000001f0: 6cbe afbe fe5b 89bd a3cf a03d c62e 413e
00000200: 12ae 073e 21a3 133c a262 c4be 26c7 f23c
00000210: c71c b6be 0778 a4bc d3b8 3a3d aafb d53c
00000220: a6d3 d3bc 461c 1bbd 2e32 ba3d c543 ccbd
00000230: ebb7 f3bd 1883 0ebd 646d 343d b2d8 18be
00000240: 0cc7 b2bd db31 813d 9ee4 aa3c 9931 6dbe
00000250: 9d58 4dbe dd3e 77bd 6e0b fbbc 0224 ca3d
00000260: 9383 64be 0729 84be f6d4 1a3e f0a7 083e
00000270: 06ba 29be 081a 2c3e 19d4 fd3c ccf0 07bd
00000280: 74ca 523e 19e6 703e c845 573e 97b9 a6be
00000290: f6c4 d0bc b429 333e bbee 313d 823d 323e
000002a0: dda6 c3bd d56e 7e3d e3b5 063d 7afa 97bd
000002b0: 66f6 c9be abd2 173e 6ddf 513e 7df9 d63d
000002c0: fe04 78bb f913 f2bc 8cef 9e3d ad4a f0bd
000002d0: 8d27 a4be bb20 1dbe d1bd 343d 4b70 c93b
000002e0: 634d 103e 9f7d 8a3e 9764 c1bc 9b7e 35be
000002f0: 02f6 c13d 7d93 9a3d 82d6 803d e177 19be
00000300: 89a2 583e 1e62 013e 37f4 f7bc 2eea de3d
00000310: ebb5 173c d677 d13d 2b2f f83d 00aa 71bd
00000320: 8fb8 2d3d c706 f13d a620 48bb 9dcb 5f3e
00000330: 19d0 003c 0554 8abd 4696 173e a2f2 babe
00000340: 7e41 ac3d 26f8 393e a87f 123e 6fa4 28bd
00000350: eb9a 7e3e 3549 aabe 021a 8d3d 21a1 25be
00000360: 7f5f e13d ecf1 e93d b5c2 4b3e 13c4 9b3d
00000370: 6ace 543d b014 513e b2d4 74bd 905f 71be
00000380: 84b4 a0be a106 bdbc 45f8 013e bce7 6abe
00000390: c277 09be b103 463e c123 183d 5596 21bf
000003a0: 351e ec3d 8a33 933e a118 ca3d e08c 023d
000003b0: 02f3 f53d 8b2f 67be c2ef b3bd df42 78be
000003c0: 16fa 273e ee9e 583d 948c 4fbc 65ba 65be
000003d0: 9557 113e ca69 92bd cb81 4d3c 5efb afb9
000003e0: d3e1 cfbc c0ae 2cbe 2652 61bc 6bec c6bd
000003f0: 5e76 fe3c 99b3 f13d e599 0d3d 97f2 3ebc

ff_2.weight f4 [1, 256]
0.32998064 0.9473602 -0.8541244 0.47390777 -1.8556066 -1.9898516 0.5970807 1.5569663
0.89876145 2.1451125 1.8092369 1.3564092 0.6024347 0.38938537 -0.8739867 0.5817336
-1.0393811 0.32333562 0.6474287 1.5611905 1.3294563 -1.0735209 -1.0970405 -0.607344
-0.7393872 0.37749028 -0.9355434 -0.7988546 0.17055894 -0.6801137 -1.4515047 0.6794902
1.1305459 0.7053032 0.6049015 -0.68088186 1.1956916 0.24602655 1.3180381 -0.84990305
0.75467956 -0.8271606 -0.8184954 -0.9600381 0.6289779 0.29098457 0.3747799 -0.5744779
-0.6008991 1.4597588 0.16341144 -0.43769547 1.6926578 0.4735156 1.2468247 -1.2843189
1.5926582 0.37074894 0.8653565 0.18724954 1.2723918 1.4643828 -0.6933859 1.3325973
0.39049137 0.43488804 -0.85228896 0.17086385 0.45349684 -0.6549199 0.2884525 -0.91401714
2.0812173 -0.774125 -0.48845872 -0.28111055 -0.8233076 -1.5634637 -0.8513482 1.9237964
-0.61875695 0.95289457 0.5857481 -2.2451704 -0.77236986 -1.0388873 1.495102 -0.78780425
0.85300195 -0.8016446 1.2681575 -1.1658063 0.9627304 -1.0542717 1.2015169 -0.87072617
-1.0389438 -1.367053 -0.91243815 -0.4239885 1.1548632 -0.42670757 -1.0193707 0.867819
-0.89701474 -0.90814424 -0.86698484 -1.1849705 -0.71466875 -0.89377254 0.5795356 -1.6243541
-0.32990038 0.23918293 0.7045943 2.1803796 1.2296268 -0.30075666 0.45001745 -0.3937903
-0.81734836 0.66298777 0.658465 -0.7055734 -0.6727243 -0.72974163 0.50468206 -0.5547341
-0.45484823 0.69578767 1.7184252 -0.94944465 2.0485656 -0.5343591 0.41900426 -0.651492
-1.5921375 1.006592 0.8383038 -1.1452675 -1.0467104 -0.65782654 0.493776 1.202113
0.14765748 0.6253859 0.51462245 -0.57967186 -0.5502198 0.79823154 -0.53355014 0.78049815
1.9514632 -1.6883996 1.0250808 -0.47059017 -0.8346849 0.22363044 -0.9493059 1.4996232
-1.6913861 -0.54713315 -0.6977955 1.471993 0.73631775 -0.45348734 0.31242 -0.6943173
-0.5320554 0.31761563 0.27404478 -1.1125236 1.5503026 -0.79017115 -0.50355625 0.311013
0.2571022 0.5506734 0.3430899 1.5980253 2.0543168 0.86909395 0.3033996 0.6941888
-0.7261267 -1.3363553 -0.8047066 1.550637 0.57090384 0.75562936 0.3623458 0.90645355
0.22759983 0.23124881 0.4966028 -0.89879346 0.6411726 -0.6748622 0.38719764 -1.4650154
-0.40280685 -0.8362314 -0.6964318 0.23527284 -0.3344227 0.45511162 -0.7121866 2.1447644
-0.5729154 -0.9249766 0.22002715 0.7613863 0.26698816 1.5887519 -0.68005437 1.2752546
0.46404296 -0.8213753 1.3838485 0.43407464 0.27157193 -0.43047744 -0.9976519 -0.911965
2.3297687 0.59312665 1.3896519 1.7117902 0.91073173 -1.2240553 -0.7935087 2.8695748
0.7362194 -1.8693124 0.5484078 0.9360979 0.71917635 1.7755473 0.71250075 1.950913
0.24010313 1.0464342 -1.1113913 -0.8407711 1.1997497 -0.6159523 -0.7253707 0.8027459
-0.7907128 -0.7442707 -0.6814558 -1.3324493 0.35644263 -0.62414664 0.3938997 0.5940267
00000000: 39f3 a83e 3386 723f e6a7 5abf 0aa4 f23e
00000010: 8484 edbf 75b3 febf 48da 183f ac4a c73f
00000020: 3b15 663f 8649 0940 1395 e73f d19e ad3f
00000030: 2939 1a3f 855d c73e 98bd 5fbf 7eec 143f
00000040: 710a 85bf 3f8c a53e e3bd 253f 17d5 c73f
00000050: a02b aa3f 2269 89bf d36b 8cbf e57a 1bbf
00000060: 7b48 3dbf 6846 c13e c67f 6fbf bc81 4cbf
00000070: 01a7 2e3e ee1b 2ebf e8ca b9bf 12f3 2d3f
00000080: bab5 903f c08e 343f d3da 1a3f 464e 2ebf
00000090: 6c0c 993f 62ee 7b3e 79b5 a83f 3f93 59bf
000000a0: ae32 413f ccc0 53bf ea88 51bf 0fc5 75bf
000000b0: b204 213f eefb 943e 27e3 bf3e fc10 13bf
000000c0: 86d4 19bf 60d9 ba3f 5455 273e 9f19 e0be
000000d0: 03a9 d83f a370 f23e f497 9f3f 9064 a4bf
000000e0: 39dc cb3f ced2 bd3e 0188 5d3f 58be 3f3e
000000f0: bcdd a23f e570 bb3f bd81 31bf 8c92 aa3f
00000100: 7cee c73e a5a9 de3e 9c2f 5abf eff6 2e3e
00000110: bd30 e83e d5a8 27bf 0cb0 933e 07fd 69bf
00000120: aa32 0540 0e2d 46bf 4317 fabe b9ed 8fbe
00000130: 49c4 52bf 941f c8bf f5f1 59bf f63e f63f
00000140: db66 1ebf e6f0 733f 96f3 153f dfb0 0fc0
00000150: 08ba 45bf 42fa 84bf 815f bf3f 8aad 49bf
00000160: 565e 5a3f 9538 4dbf fc52 a23f 2439 95bf
00000170: 8075 763f 60f2 86bf 4ecb 993f e9e7 5ebf
00000180: 1cfc 84bf 98fb aebf 8c95 69bf 0515 d9be
00000190: 8fd2 933f 6a79 dabe bd7a 82bf 6329 5e3f
000001a0: c2a2 65bf 247c 68bf b8f2 5dbf 1dad 97bf
000001b0: 88f4 36bf 47ce 64bf 725c 143f d6ea cfbf
000001c0: b4e8 a8be 5fec 743e 4b60 343f 578b 0b40
000001d0: 6964 9d3f c7fc 99be b068 e63e e29e c9be
000001e0: be3d 51bf 91b9 293f 2a91 283f 75a0 34bf
000001f0: a937 2cbf 59d0 3abf d832 013f 0e03 0ebf
00000200: dee1 e8be 241f 323f 5bf5 db3f ce0e 73bf
00000210: b31b 0340 c2cb 08bf ba87 d63e 2ec8 26bf
00000220: 29cb cbbf 02d8 803f 149b 563f 2098 92bf
00000230: 9bfa 85bf 5267 28bf 35d0 fc3e d7de 993f
00000240: 8633 173e 4a19 203f 4cbe 033f 6065 14bf
00000250: 34db 0cbf e758 4c3f be96 08bf bace 473f
00000260: 8cc9 f93f 7a1d d8bf d935 833f 32f1 f0be
00000270: e9ad 55bf 61ff 643e b605 73bf a7f3 bf3f
00000280: 577f d8bf eb10 0cbf baa2 32bf 446a bc3f
00000290: 527f 3c3f 7e2f e8be 84f5 9f3e c7be 31bf
000002a0: c834 08bf 849e a23e 994f 8c3e 2c67 8ebf
000002b0: 5170 c63f a848 4abf 10e9 00bf 193d 9f3e
000002c0: e6a2 833e eff8 0c3f 7ba9 af3e 188c cc3f
000002d0: ed79 0340 f17c 5e3f 3157 9b3e 5bb6 313f
000002e0: 70e3 39bf b10d abbf 4001 4ebf 467b c63f
000002f0: c126 123f ed70 413f 6485 b93e 570d 683f
00000300: ee0f 693e 7dcc 6c3e b942 fe3e 5417 66bf
00000310: e323 243f c5c3 2cbf c53e c63e a085 bbbf
00000320: b33c cebe 4313 56bf 5b49 32bf 5deb 703e
00000330: 7439 abbe 6404 e93e dc51 36bf d243 0940
00000340: 95aa 12bf 44cb 6cbf cc4e 613e 36ea 423f
00000350: acb2 883e 395c cb3f 0b18 2ebf 8b3b a33f
00000360: 0a97 ed3e a745 52bf f321 b13f 083f de3e
00000370: 7a0b 8b3e 8a67 dcbe 1d66 7fbf 8a76 69bf
00000380: ee1a 1540 26d7 173f 1de0 b13f f11b db3f
00000390: b725 693f d8ad 9cbf 6323 4bbf 1da7 3740
000003a0: e078 3c3f a145 efbf 7464 0c3f 1da4 6f3f
000003b0: f11b 383f 2245 e33f 7366 363f 84b7 f93f
000003c0: 98dd 753e 8ef1 853f 1242 8ebf c63c 57bf
000003d0: 6691 993f 0daf 1dbf e5b1 39bf c180 4d3f
000003e0: 276c 4abf 8688 3ebf e373 2ebf b38d aabf
000003f0: a67f b63e 13c8 1fbf 39ad c93e 2212 183f
