runs/checkpoint_critic_2566_192021_tau1_40.pth (torch, 356559 bytes, 7 tensors)

head.weight f4 [256, 22]
0	0xbc90c827	-0.017673565
1	0xbdeb7868	-0.11497575
2	0xbe06b539	-0.13155068
3	0xbe54369a	-0.20723954
4	0x3e76d4ec	0.24104661
5	0x3d67f66f	0.0566315
6	0xbe29e511	-0.16591288
7	0x3f3a8fa2	0.72875416
8	0x3e5eae07	0.21746074
9	0x3eb95979	0.36201075
10	0xbca83f5e	-0.020538028
11	0x3dfa1e3e	0.122127995
12	0xbdb5c41f	-0.08875298
13	0xbdb3f6c3	-0.087873004
14	0xbe81748f	-0.2528424
15	0x3d08eae8	0.03342715
16	0xbc818d51	-0.015814455
17	0x3ea2b7ec	0.31780946
18	0x3e0e9e41	0.13927557
19	0xbdac5308	-0.084142745
20	0x3cc04dd0	0.023474604
21	0xbec54576	-0.38529557
22	0x3e25af5a	0.16180173
23	0xbe8219b8	-0.25410247
24	0xbe6a1f35	-0.22863467
25	0xbe30fc5f	-0.17283772
26	0x3ea87779	0.3290365
27	0xbe7e8eb0	-0.24859118
28	0xbf364132	-0.7119323
29	0xbe1083f6	-0.14112839
30	0xbdc1f464	-0.09470442
31	0x3e3702d4	0.17872173
32	0xbe72becd	-0.23705597
33	0xbe8b2860	-0.2717924
34	0xbe8778f5	-0.2645947
35	0xbe386b34	-0.18009645
36	0xbd197731	-0.037467185
37	0xbe823d48	-0.2543738
38	0xbc91f01e	-0.017814692
39	0x3e2494d7	0.16072403
40	0x3c86a1e2	0.016434614
41	0xbf7a5eee	-0.978011
42	0xbfb93e67	-1.4472169
43	0xbe4209d7	-0.18949066
44	0x3d808031	0.062744506
45	0xbd8b3ab4	-0.06798306
46	0xbdb36da0	-0.08761144
47	0xbdbdd215	-0.092685856
48	0xbacef02f	-0.0015788133
49	0x3e92cd4d	0.28672257
50	0xbdf92a71	-0.12166298
51	0xbf04cbea	-0.5187365
52	0xbf07829b	-0.52933663
53	0xbe908a5e	-0.28230566
54	0x3e438cf3	0.19096737
55	0x3dcf6818	0.10127276
56	0xbd9263b5	-0.07147924
57	0x3e34288f	0.17593597
58	0x3e08516e	0.13312313
59	0xbdbb3190	-0.09140313
60	0x3e49d514	0.19710189
61	0x3d7b5c8f	0.061367568
62	0xbddd0b9f	-0.10793232
63	0xbe089e6a	-0.1334168
64	0xbecd9286	-0.4015085
65	0x3cea479b	0.028598597
66	0xbb6507b9	-0.003494723
67	0xbe35f6df	-0.17769955
68	0x3e68fdae	0.22753021
69	0x3de8c2e7	0.113653
70	0xbab806ea	-0.0014040146
71	0xbb0e7949	-0.0021739772
72	0x3f023683	0.5086443
73	0xbd723624	-0.059133664
74	0x3dabc18a	0.08386524
75	0x3e2849ac	0.16434354
76	0x3d3d1d04	0.04617025
77	0x3e3831f3	0.17987804
78	0x3d7600b3	0.06005926
79	0x3df19680	0.11796284
80	0xbe54d843	-0.20785622
81	0xbe279031	-0.16363598
82	0xbe0edcf2	-0.13951471
83	0xbc6a54ac	-0.014302414
84	0x3e28cb48	0.16483796
85	0xbe7a7c01	-0.24461366
86	0x3ebcfddf	0.36912438
87	0x3e72808e	0.23681852
88	0x3b92b936	0.0044776453
89	0xbd5c1900	-0.05373478
90	0xbdc03e1b	-0.09386846
91	0x3d8c1094	0.068390995
92	0x3e1202af	0.14258836
93	0x3e3a8d46	0.18217954
94	0xbe7a9dbd	-0.24474235
95	0xbe75373a	-0.23946849
96	0xbefb0dbd	-0.4903392
97	0xbe9060c6	-0.28198832
98	0xbd0bdf41	-0.03414846
99	0xbdf2a736	-0.11848299
100	0x3d7f9d4d	0.062405873
101	0x3e30da7e	0.17270848
102	0xbdbe6877	-0.09297269
103	0xbd46c008	-0.04852298
104	0x3e4d94a3	0.20076232
105	0xbd866512	-0.065622464
106	0xbe74b893	-0.23898534
107	0xbdc7bbba	-0.09752603
108	0xbeb96d85	-0.3621637
109	0xbe694b31	-0.2278259
110	0x3c21e9ba	0.009882385
111	0x3e0aa165	0.1353813
112	0xbe8decfb	-0.27719864
113	0xbe0a484b	-0.1350414
114	0xbec25d72	-0.37961918
115	0x3d989094	0.07449451
116	0x3eed4f97	0.46349785
117	0xbea735c5	-0.3265821
118	0xbf1a551e	-0.6028613
119	0xbeed9d9b	-0.46409306
120	0x3c00f947	0.007871932
121	0xbe4a8a9a	-0.19779435
122	0xbe621c97	-0.22081219
123	0xbe3676e9	-0.17818798
124	0xbe31f0fc	-0.17377084
125	0xbe336614	-0.17519408
126	0x3d4ed5ae	0.05049675
127	0xbe453c12	-0.19261196
128	0xbe73aeb0	-0.23797107
129	0x3d5ed98a	0.05440668
130	0x3f8d1052	1.1020606
131	0x3db25305	0.08707241
132	0x3d53a067	0.051666643
133	0xbd12508d	-0.03572135
134	0xbe33cbc5	-0.175582
135	0x3d98e0c6	0.07464747
136	0x3ec5d454	0.38638556
137	0x3dd6a3fe	0.10480498
138	0xbc78bad8	-0.015181266
139	0xbe8ab74a	-0.27092963
140	0xbecd5d5a	-0.40110284
141	0xbdbbdadd	-0.09172604
142	0x3ce902d9	0.02844374
143	0x3d84efab	0.064910255
144	0xbd839c57	-0.06426304
145	0xbc440932	-0.011965083
146	0x3d916cb1	0.07100809
147	0xbe88f7ed	-0.26751652
148	0x3e49a1de	0.19690654
149	0x3e659eeb	0.22423904
150	0xbddf7523	-0.10911014
151	0x3f31730c	0.6931617
152	0xbe97aa6b	-0.29622206
153	0x3ddc353b	0.107523404
154	0x3e0c51d8	0.13703096
155	0xbe80dc45	-0.25168052
156	0x3db7f23d	0.0898175
157	0xbd7c9a19	-0.061670396
158	0x3f45f16a	0.77321494
159	0xbf54acf6	-0.8307642
160	0xbe957fe2	-0.2919913
161	0x3cab8ffb	0.020942679
162	0x3b79837f	0.0038072763
163	0x3d2f4c33	0.04279728
164	0xbe8a00bf	-0.26953694
165	0xbe9d61bc	-0.30738628
166	0x3c5ce153	0.013481456
167	0x39e9dbda	0.00044605025
168	0x3df05de7	0.117366605
169	0xbd74d49b	-0.05977307
170	0xbd229490	-0.03969246
171	0x3da1051c	0.07862303
172	0xbe94153f	-0.2892246
173	0xbed9caa6	-0.4253742
174	0xbfc93dc0	-1.572197
175	0x3e427b53	0.18992357
176	0xbc3e8123	-0.011627468
177	0x3e226ac2	0.15861037
178	0x3e5c69d9	0.21524753
179	0xbdfb5c9c	-0.12273523
180	0x3e5cc4b1	0.21559407
181	0xbcef8296	-0.029237073
182	0x3f2d39f0	0.6766653
183	0x3e35a225	0.17737634
184	0x3ce09bab	0.027417978
185	0x3c001168	0.00781665
186	0x3ddb7dd6	0.10717361
187	0x3e3cc88f	0.18435882
188	0xbe2e82a5	-0.17042024
189	0xbd65c928	-0.05610004
190	0x3e179978	0.14804637
191	0xbdd09c48	-0.10186058
192	0xbe42fb28	-0.19041121
193	0xbe30bf07	-0.17260371
194	0xbdbefd94	-0.0932571
195	0x3f0c640a	0.5484015
196	0x3f8b3b93	1.0877556
197	0x3eeac2a1	0.45851615
198	0xbc9be8df	-0.01903194
199	0x3e74db56	0.23911795
200	0xbe2c8a1d	-0.16849561
201	0x3e110ca0	0.14164972
202	0xbd380438	-0.0449259
203	0x3e920d1c	0.28525627
204	0x3ea9a1e1	0.33131316
205	0x3e0dbd06	0.13841638
206	0x3ec32918	0.3811729
207	0x3cf0d29b	0.0293973
208	0x3dde5e88	0.10857874
209	0xbe10642c	-0.14100713
210	0xbe22f4c4	-0.15913683
211	0xbe31ffe5	-0.17382772
212	0x3e3c0dd2	0.18364647
213	0x3cd08b20	0.025456965
214	0xbe0310a7	-0.12799321
215	0xbe274660	-0.1633544
216	0xbd9174ac	-0.071023315
217	0xbf15bd19	-0.58491665
218	0x3f100668	0.56259775
219	0x3e235bf0	0.1595304
220	0xbd9fb67d	-0.07798479
221	0xbe0cf516	-0.13765368
222	0x3cdfb49d	0.027307803
223	0x3df23f0c	0.118284315
224	0x3e87f1a7	0.26551554
225	0xbe01b3d4	-0.12666255
226	0x3e69ee64	0.22844845
227	0x3e6bba42	0.2302027
228	0x3ec00597	0.37504265
229	0x3d36b12e	0.044602565
230	0xbd6a6dfb	-0.05723379
231	0x3e10225e	0.1407561
232	0x3e28e5f5	0.16493972
233	0x3e56d611	0.20980097
234	0x3e1423cb	0.14466779
235	0x3e799452	0.24372986
236	0xbe3d05c5	-0.18459232
237	0x3d947eda	0.072507575
238	0x3e00898f	0.12552474
239	0x3d4a6009	0.049407993
240	0x3ebb994e	0.366404
241	0x3e84afc9	0.25915363
242	0xbe1da3a7	-0.1539446
243	0xbd65dd85	-0.05611946
244	0x3e07d12c	0.13263386
245	0x3df794a0	0.12088895
246	0x3e83e0ef	0.25757548
247	0x3e0ccce7	0.13750039
248	0x3e5cebfd	0.21574397
249	0x3d6535ac	0.05595939
250	0x3e8d331b	0.27578053
251	0x3e84df16	0.2595145
252	0x3e3a947b	0.18220703
253	0xbe1daa6a	-0.15397039
254	0x3cbdd8f5	0.023174742
255	0xbe65fe93	-0.22460394

head.bias f4 [256]
0	0x3e67531d	0.22590299
1	0xbe956ae9	-0.29183128
2	0x3ca0c789	0.019626396
3	0xbc2bcfc6	-0.010486549
4	0x3d211e2f	0.039335426
5	0xbdd830a5	-0.10556153
6	0x3e083a55	0.13303502
7	0xbe970224	-0.2949382
8	0xbdc64ff1	-0.09683216
9	0xbc8e47e9	-0.017368274
10	0x3e406c97	0.18791424
11	0xbe047daa	-0.12938562
12	0x3e2776d3	0.16353922
13	0xbd154a46	-0.036447786
14	0xbe309a93	-0.17246465
15	0xbdff4741	-0.124647625
16	0xbb8b5c90	-0.0042529777
17	0xbd2f1b5a	-0.042750694
18	0x3e1a261a	0.15053597
19	0xbe5bb75e	-0.21456668
20	0x3e376fbc	0.17913717
21	0x3e626843	0.22110085
22	0xbdd45b53	-0.10368981
23	0xbcb29968	-0.021801665
24	0xbc8a6c00	-0.016897202
25	0xbe67e225	-0.22644861
26	0x3df2ed70	0.11861694
27	0xbe5173ad	-0.20454283
28	0x3d39156a	0.045186438
29	0xbb19f40b	-0.0023491408
30	0xbe3ba1fd	-0.18323512
31	0xbe4a6569	-0.19765247
32	0xbdcdd7f5	-0.10050956
33	0x3d4fe8d0	0.050759137
34	0xbe5b3fc2	-0.2141104
35	0x3cf39f30	0.029738992
36	0xbd271ba6	-0.040797852
37	0x3b4892db	0.003060511
38	0x3e4416b0	0.1914928
39	0x3e8d085e	0.27545446
40	0xbe19f6e2	-0.15035585
41	0xbc14059f	-0.009034543
42	0xbded4ce2	-0.1158693
43	0xbe747c0a	-0.23875442
44	0xbe468206	-0.19385538
45	0xbc94d2dd	-0.018166954
46	0x3e606c31	0.21916272
47	0xbc1c706a	-0.009548286
48	0x3d95f033	0.07321205
49	0x3e11fc58	0.14256418
50	0xbe21c609	-0.157982
51	0x3d3c38b7	0.045952525
52	0x3e4d779e	0.20065162
53	0x3e09bdbb	0.13451283
54	0x3e1b6dca	0.151786
55	0xbe0bd13f	-0.1365404
56	0x3dbd1a65	0.0923355
57	0xbe403ab6	-0.18772396
58	0x3cafdc9b	0.021467498
59	0x3c88abae	0.016683426
60	0x3ddb6029	0.107117005
61	0xbd8c0c87	-0.06838327
62	0xbdcf3648	-0.10117775
63	0xbca9f432	-0.020746324
64	0xbd34d423	-0.04414762
65	0x3e4ca2ae	0.19983932
66	0xbdef0042	-0.11669971
67	0x3ddf731f	0.109106295
68	0xbdb36232	-0.08758964
69	0xbe1c703d	-0.1527719
70	0xbd77b68b	-0.06047682
71	0xbe407e54	-0.1879819
72	0xbeb6788f	-0.35638854
73	0x3d336c97	0.04380473
74	0xbe1f72ca	-0.15571132
75	0xbe99f2a1	-0.30067924
76	0x3e18241a	0.14857522
77	0x3deb7239	0.114963956
78	0xbec9475a	-0.3931225
79	0xbd6edd0d	-0.05831628
80	0x3e3c877c	0.18411058
81	0x3e1dea15	0.15421326
82	0x3c861c6f	0.01637098
83	0xbe9006ac	-0.2813009
84	0xbe0d722c	-0.13813084
85	0x3e33383b	0.17501919
86	0x3de01d1f	0.109430544
87	0x3d655b94	0.05599554
88	0x3d001074	0.03126569
89	0xbe3b9543	-0.18318658
90	0x3da7ca3f	0.08192872
91	0xbdab8d61	-0.08376575
92	0x3e690c03	0.22758488
93	0x3d80e6bb	0.06294008
94	0x3d8e95d9	0.06962175
95	0xbdb679dc	-0.089099616
96	0x3e03b38f	0.12861465
97	0x3daa176d	0.08305249
98	0x3d6bb770	0.057547987
99	0xbe3017d8	-0.17196596
100	0x3d29f9fa	0.04149816
101	0x3cf99e97	0.03047113
102	0xbe0ec7bb	-0.13943379
103	0xbe3a05d6	-0.18166289
104	0x3e7c16a7	0.24618016
105	0xbd6c29e6	-0.057657145
106	0xbe6b0155	-0.22949727
107	0xbe891c32	-0.26779324
108	0xbdb5dc29	-0.08879883
109	0x3e2955c1	0.16536619
110	0x3e4748ed	0.19461413
111	0x3ae01bff	0.0017098187
112	0x3cccede0	0.025015771
113	0xbcc3dd32	-0.023909185
114	0xbe0671fd	-0.1312942
115	0xbe62f772	-0.22164705
116	0xbe08822e	-0.1333091
117	0xbe4efe85	-0.20214279
118	0x3e15ea10	0.14640069
119	0x3dfd62e0	0.123723745
120	0xbe929d48	-0.2863562
121	0x3d783bd9	0.06060395
122	0xbc08eeba	-0.008357698
123	0xbd544f8f	-0.051833685
124	0xbb92dc2f	-0.0044818143
125	0xbd31478a	-0.043281116
126	0xbd9deb96	-0.0771095
127	0xbc925e91	-0.017867358
128	0x3dc7cac8	0.09755474
129	0xbddc2a4f	-0.10750257
130	0xbe2b0056	-0.16699347
131	0x3d723a2f	0.05913752
132	0x3d49aed8	0.04923901
133	0x3da4366c	0.08018193
134	0xbea1c7aa	-0.31597644
135	0x3e2867bc	0.16445822
136	0x3e0c3ecc	0.1369583
137	0xbe2500f8	-0.16113651
138	0xbd221186	-0.039567493
139	0x3c9ab28f	0.018883971
140	0xbd799a14	-0.060937956
141	0xbe0369a0	-0.12833261
142	0xbe0a8efe	-0.1353111
143	0xbe893392	-0.26797158
144	0x3ecbb4ab	0.39786276
145	0xbd1a3d06	-0.037655853
146	0x3cd2d2f6	0.02573536
147	0x3dd04733	0.1016983
148	0x3e55b387	0.20869265
149	0xbe061100	-0.13092422
150	0xbd335546	-0.043782495
151	0x3d53a8b4	0.05167456
152	0xbe0c6e98	-0.13714063
153	0xbcfc447a	-0.03079437
154	0x3cd43ccc	0.025907896
155	0x3e2d3ee7	0.16918527
156	0xbe647a62	-0.2231231
157	0x3d5b8f0f	0.05360323
158	0xbec342d5	-0.38136926
159	0xbd31a62c	-0.043371364
160	0xbb0bf88c	-0.0021357862
161	0xbe43cf20	-0.1912198
162	0xbe1c503c	-0.15264982
163	0xbe49da22	-0.19712117
164	0x3caa6c13	0.020803487
165	0x3df23816	0.11827104
166	0x3e9c2e77	0.305042
167	0x3d688a2e	0.056772403
168	0xbdedbcd1	-0.116082795
169	0xbdfe475d	-0.12415955
170	0xbcf87e27	-0.030333592
171	0xbd0db3fa	-0.034595467
172	0xbd9296ea	-0.07157691
173	0x3d509d0d	0.050931025
174	0xbb6b4426	-0.0035898774
175	0xbdba5c26	-0.09099607
176	0x3d0aa948	0.033852845
177	0xbd15dd2e	-0.036587887
178	0xbebe8f8c	-0.37218893
179	0xbd907afb	-0.07054707
180	0x3e5d002e	0.215821
181	0xbe75b485	-0.23994644
182	0xbd794f75	-0.06086679
183	0xbdd965be	-0.10615109
184	0xbe49abf3	-0.196945
185	0x3e8cdaad	0.27510586
186	0xbe12ea57	-0.14347206
187	0xbdf1d63b	-0.11808439
188	0xbda88d52	-0.0823008
189	0x3d003244	0.031297937
190	0x3b585e99	0.003301537
191	0xbddebc7c	-0.10875794
192	0xbdba15a7	-0.09086161
193	0x3e5688a5	0.20950563
194	0xbe228918	-0.1587261
195	0xbea68c21	-0.32528785
196	0xbb102269	-0.0021993166
197	0xbdb36d58	-0.0876109
198	0xbdbfa74f	-0.093580835
199	0x3debc86f	0.11512839
200	0x3c1e5c40	0.009665549
201	0x3c04ca69	0.008104899
202	0xbe263c09	-0.16233839
203	0xbd91b9ad	-0.07115493
204	0x3e32d9a6	0.17465839
205	0x3e873801	0.26409915
206	0x3e47f453	0.19526796
207	0xbe551b49	-0.2081119
208	0xbc26454f	-0.01014836
209	0x3d0a458e	0.03375774
210	0x3dce1b90	0.10063851
211	0xbe3d7ac9	-0.1850387
212	0x3e95918c	0.29212606
213	0x3e72e938	0.23721778
214	0x3e18548c	0.14876002
215	0x3e1ee6dc	0.15517753
216	0x3d0776af	0.03307217
217	0x3e8f40ac	0.27979028
218	0x3c419d20	0.011817247
219	0xbe0966b7	-0.13418089
220	0xbeafdfe3	-0.343505
221	0x3e293a28	0.16526091
222	0xbd2551ee	-0.040361337
223	0x3c620861	0.013795943
224	0x3e1cc179	0.15308179
225	0xbdcb1ed9	-0.09917993
226	0x3c341439	0.01099115
227	0xbdd59492	-0.10428728
228	0xbdb458b9	-0.08805985
229	0xbe108045	-0.14111431
230	0x3e693314	0.22773391
231	0xbd1ce750	-0.038306534
232	0x3c295b90	0.010336772
233	0x3e307a8f	0.17234252
234	0xbea314db	-0.3185185
235	0x3c2d2cda	0.0105697755
236	0xbe4ec93c	-0.20193952
237	0x3e50b5b4	0.20381814
238	0xbe6eaa82	-0.23307231
239	0xbe1a4f23	-0.15069251
240	0x3e6d2859	0.23159923
241	0xbe371282	-0.17878154
242	0x3bbf32be	0.0058349064
243	0x3db0b224	0.08627728
244	0xbdffe026	-0.12493925
245	0x3e09225c	0.13392013
246	0x3e7e3e5c	0.24828476
247	0x3e24b725	0.16085489
248	0xbe93be59	-0.2885616
249	0xbe442492	-0.19154575
250	0x3e23ec8f	0.16008209
251	0x3e28832a	0.16456285
252	0x3b983785	0.0046452903
253	0xbda1a7e5	-0.078933515
254	0xbe378655	-0.17922337
255	0x3c1f087a	0.009706611

cos_embedding.weight f4 [256, 64]
0	0xbdea0840	-0.11427355
1	0xbdd9717f	-0.10617351
2	0x3df8b398	0.1214363
3	0x3e2da86e	0.16958782
4	0xbec532b5	-0.3851525
5	0xbb17c4f6	-0.002315817
6	0xbdcef1dc	-0.10104725
7	0xbe80bf20	-0.25145817
8	0x3d5b8b52	0.053599663
9	0xbdac69a1	-0.084185846
10	0x3ec20747	0.37896177
11	0xbd375595	-0.04475935
12	0xbc69d248	-0.014271326
13	0xbe070957	-0.13187157
14	0x3cc57428	0.02410324
15	0x3e85ac1b	0.2610787
16	0x3d31bbd8	0.043392032
17	0x3e3fd40d	0.18733235
18	0x3e4a2bab	0.1974322
19	0xbddccf9c	-0.10781786
20	0xbd49df8a	-0.04928545
21	0xbc269b57	-0.010168872
22	0xbd9c4e94	-0.07632175
23	0xbd2e60b9	-0.04257271
24	0x3b4f59be	0.0031639184
25	0x3dd08306	0.10181241
26	0xbc2c44e5	-0.010514473
27	0x3d0409c3	0.032235872
28	0xbdec8356	-0.11548488
29	0x3e50ad56	0.20378622
30	0xbe8d47f6	-0.27593964
31	0x395f197a	0.00021276428
32	0xbda71550	-0.08158362
33	0x3d6b3cea	0.05743114
34	0x3cc6839f	0.024232684
35	0xbc8affdf	-0.016967712
36	0xbc98d972	-0.018658374
37	0x3e3624df	0.17787503
38	0x3e2d6105	0.16931541
39	0xbe5d42ad	-0.21607466
40	0xbdcbee6d	-0.099575855
41	0x3e01801f	0.1264653
42	0x3caba4f5	0.020952681
43	0xbd93c4c7	-0.07215267
44	0xbe87aae4	-0.26497567
45	0xbdfb523f	-0.122715466
46	0xbe078897	-0.13235699
47	0x3db685ac	0.08912215
48	0x3defb35f	0.11704134
49	0x3dc213cc	0.09476432
50	0xbd47ab7e	-0.048747532
51	0xbdd6a6c8	-0.1048103
52	0x3af571a6	0.0018725886
53	0x3dfbdc2e	0.12297855
54	0xbca72fd4	-0.020408548
55	0xbbe7dd66	-0.0070759533
56	0xbe04258b	-0.12904947
57	0xbd662984	-0.056191936
58	0x3e1ddab6	0.15415463
59	0xbdd31d8f	-0.10308372
60	0x3da3ed3f	0.080042355
61	0xbd04d839	-0.03243277
62	0x3da1025d	0.07861779
63	0x3db32a09	0.08748252
64	0x3dc26261	0.094914205
65	0x3d964027	0.07336455
66	0xbd1a5abf	-0.0376842
67	0x3d9fb352	0.077978745
68	0xbe3c482b	-0.18386905
69	0xbd65fe6c	-0.05615084
70	0x3deb6459	0.11493749
71	0xbd64184b	-0.05568723
72	0xbdfbc6e8	-0.12293798
73	0xbd580c89	-0.05274633
74	0x3dcd28d5	0.10017554
75	0xbe16ffa9	-0.14745964
76	0x3d1431af	0.036180194
77	0xbdcfcc2e	-0.10146366
78	0xbdc8df1b	-0.09808179
79	0x3d68adf3	0.056806516
80	0xbd054ce9	-0.03254405
81	0xbde02ca4	-0.109460145
82	0xbdfc42b9	-0.12317414
83	0xbc6ef260	-0.014584154
84	0x3c4f4df1	0.01265286
85	0x3d647fce	0.055785947
86	0x3e0779c8	0.1323005
87	0x3d945fdf	0.072448485
88	0x3d290d11	0.041272227
89	0x3d652a22	0.055948384
90	0x3e2959b8	0.16538131
91	0x3de17133	0.11007919
92	0x3e2a3eb8	0.16625488
93	0xbe2137d7	-0.15743957
94	0x3d447edd	0.04797255
95	0xbd848e34	-0.064724356
96	0xbddadb41	-0.106863506
97	0xbde86820	-0.11347985
98	0xbe03dfbe	-0.1287832
99	0x3e031055	0.12799199
100	0x393d28fe	0.00018039715
101	0xbdae2672	-0.085034266
102	0x3d1325f1	0.035924856
103	0xbdd9766f	-0.106182925
104	0x3c8c2870	0.017109126
105	0x3d4b7f91	0.049682204
106	0x3e0a4257	0.13501869
107	0xbd3a3040	-0.04545617
108	0xbcf9f3a9	-0.030511694
109	0xbb8f3292	-0.004370042
110	0xbd4da112	-0.050202437
111	0xbd28b414	-0.04118736
112	0x3d567e4e	0.052366547
113	0x3d8464d4	0.06464544
114	0x3d88d33d	0.066809155
115	0x3ddb3471	0.10703362
116	0x3d977ece	0.07397233
117	0xbd150646	-0.036382936
118	0xbe132bfc	-0.14372247
119	0x3cfbdd2f	0.030745117
120	0xbde20c20	-0.11037469
121	0x3d5d8f4a	0.05409173
122	0x3dd1d37e	0.10245417
123	0x3da10ace	0.07863389
124	0x3ce72004	0.028213508
125	0xbe109940	-0.1412096
126	0x3c7d22b8	0.015450172
127	0xbdf2dadd	-0.11858151
128	0x3e070ba9	0.13188042
129	0xbd81a980	-0.06331158
130	0xbd52e477	-0.051487412
131	0xbcb53472	-0.022119734
132	0x3d194147	0.03741577
133	0xbcfbb89d	-0.030727679
134	0xbe4e2ec0	-0.20135021
135	0x3cf0d03d	0.02939617
136	0x3dd9f5fd	0.10642622
137	0xbe26bd58	-0.16283166
138	0xbe096e08	-0.1342088
139	0xbd41ed1b	-0.047345262
140	0xbd9568bf	-0.07295369
141	0x3d97c9f0	0.074115634
142	0xbd8d07b8	-0.06886238
143	0x3d8fb2b6	0.07016508
144	0xbdcaef2c	-0.099089
145	0x3cce9a7f	0.025220154
146	0xbd85b29a	-0.06528206
147	0xbdad87bc	-0.08473155
148	0xbdfc6663	-0.12324216
149	0x3d1c7912	0.0382014
150	0xbdcf0043	-0.10107472
151	0x3d664151	0.056214634
152	0x3e271613	0.16317014
153	0xbcef48df	-0.029209552
154	0x3d227fba	0.03967259
155	0xbdae9fc8	-0.085265696
156	0x3d362a4a	0.044473924
157	0xbdb128ac	-0.08650336
158	0x3da63a46	0.081165835
159	0x3d2e951b	0.042622667
160	0xbbc9923c	-0.0061514657
161	0xbd1cfb9e	-0.0383259
162	0x3ca2d4d9	0.019876884
163	0x3deef772	0.1166829
164	0x3d336065	0.0437931
165	0xbc862a93	-0.016377723
166	0x3bd62e27	0.0065362635
167	0xbd87b10a	-0.066255644
168	0x3dac2492	0.08405413
169	0x3d09ba0a	0.033624686
170	0x3d92b876	0.071640894
171	0x3d5e7ea2	0.054319985
172	0x3df92680	0.121655464
173	0x3ca13965	0.019680688
174	0x3caffa52	0.021481667
175	0xbd1962d8	-0.03744778
176	0x3e173725	0.1476713
177	0xbbea70a6	-0.007154542
178	0x3c6f909a	0.014621878
179	0x3db49d00	0.08819008
180	0x3d378ff0	0.044815004
181	0x3b7cb938	0.0038562547
182	0xbdd2f037	-0.102997236
183	0x3dcba561	0.09943653
184	0xbd0031c5	-0.031297464
185	0x3d5bec1a	0.05369196
186	0x3d6ec8a7	0.058296826
187	0x3993018b	0.00028039175
188	0xbc33f99c	-0.0109848045
189	0xbca69d7a	-0.020338763
190	0xbd48a40b	-0.04898457
191	0x3d9159f7	0.070972376
192	0x3e9168ef	0.2840037
193	0xbc808a96	-0.015691083
194	0xbc7de6e4	-0.015496943
195	0xbe12a693	-0.14321356
196	0xbe10cd4c	-0.14140815
197	0xbd85b78a	-0.06529148
198	0xbe18fa79	-0.14939298
199	0xbcd5cb99	-0.02609806
200	0xbd652f76	-0.055953465
201	0x3c00e385	0.007866745
202	0x3d3b19d2	0.04567892
203	0x3d73bc67	0.059505846
204	0x3bf2b29d	0.0074065463
205	0xbd5692eb	-0.052386206
206	0x3d6f4b1d	0.058421243
207	0x3d8d649c	0.06903955
208	0x3d6ec0c3	0.0582893
209	0xba961b17	-0.0011452165
210	0xbcff26e7	-0.03114648
211	0xbd64e355	-0.055880863
212	0x3d92cc7d	0.07167909
213	0x3d8b664e	0.068066224
214	0x3daefc8a	0.08544262
215	0x3d718753	0.058966946
216	0x3d829ef7	0.063779764
217	0xbdbe1fae	-0.09283386
218	0xbdb87e10	-0.090084195
219	0x3d40ac84	0.047039524
220	0x3de78768	0.113051236
221	0x3dbe2590	0.09284508
222	0x3dc096dd	0.09403775
223	0x3d9684bb	0.07349535
224	0x3cf9c135	0.030487636
225	0xbd0a9e12	-0.033842154
226	0xbdefb447	-0.11704307
227	0xbdb0efd9	-0.08639497
228	0xbd9fe201	-0.07806779
229	0xbdd676de	-0.10471891
230	0x3c39e199	0.011345291
231	0xbd625847	-0.05525997
232	0xbe09154f	-0.13387035
233	0xbd5ce9af	-0.053933796
234	0x3cffabda	0.031209875
235	0x3d87fc0c	0.06639871
236	0x3d4f4f48	0.050612718
237	0xbd53b5ec	-0.051687166
238	0xbd9aca75	-0.07558147
239	0x3b4b9017	0.0031061226
240	0x3e00bbcc	0.12571639
241	0x3d5240c7	0.051331308
242	0xbbe56c8a	-0.0070014643
243	0x3d77b91c	0.06047927
244	0x3d1fe216	0.03903397
245	0xbcc0c498	-0.023531243
246	0xbde7995f	-0.1130855
247	0xbc5f7a0e	-0.01363994
248	0xbd5e685d	-0.054298747
249	0x3d2e8aa5	0.04261269
250	0xbd1f9719	-0.038962457
251	0x3c83bc42	0.01608098
252	0xbd5739cd	-0.052545357
253	0x3b90f1f8	0.004423376
254	0xbde6107b	-0.11233612
255	0xbdffb367	-0.1248539

cos_embedding.bias f4 [256]
0	0x3e957ee5	0.29198375
1	0x3c80ea81	0.01573682
2	0x3e0e4c10	0.13896203
3	0x3e0881b8	0.13330734
4	0x3f1e4107	0.61817974
5	0x3eb868ac	0.36017358
6	0xbd3aac6d	-0.045574594
7	0x3d972c5f	0.0738151
8	0x3e57ee5a	0.21087018
9	0x3c9687cc	0.0183753
10	0xbcfd8130	-0.03094539
11	0xba81ab27	-0.0009892926
12	0x3eb9bf30	0.36278677
13	0xbdf18b7f	-0.11794185
14	0x3bf6f9fd	0.007537125
15	0x3e804da1	0.25059226
16	0x3ea709c3	0.32624635
17	0x3dd207de	0.10255407
18	0x3f449eff	0.7680511
19	0x3eb8d342	0.36098677
20	0x3d70e719	0.058814142
21	0x3ef01121	0.46888068
22	0x3d3b6c5f	0.045757648
23	0x3d5e3733	0.05425186
24	0x3d1699f6	0.036767922
25	0x3e14a10b	0.14514558
26	0x3d1e3a48	0.0386298
27	0x3e1e6f8b	0.15472238
28	0x3de0b705	0.10972408
29	0x3e54d8d5	0.2078584
30	0x3e7abc50	0.24485898
31	0x3e9fe01a	0.31225663
32	0x3da1b902	0.078966156
33	0x3e4e0677	0.20119654
34	0x3eb7c2cb	0.35890803
35	0x3dcfd6b4	0.10148373
36	0xbd041190	-0.03224331
37	0x3d471191	0.048600737
38	0x3d972dd9	0.073817916
39	0x3e704a91	0.23465945
40	0xbd3c2255	-0.04593118
41	0x3e0186e7	0.12649117
42	0x3ef2a912	0.47394615
43	0x3dc77922	0.09739901
44	0xbddd2a08	-0.107990324
45	0x3d2dbe58	0.042417854
46	0x3e9e8633	0.3096176
47	0x3ece43af	0.40286013
48	0xbe01abb6	-0.12663159
49	0x3e0e370a	0.13888183
50	0x3d362792	0.04447133
51	0x3e44e47f	0.1922779
52	0xbd94f7f6	-0.07273857
53	0x3efc5641	0.49284557
54	0x3d800a0b	0.062519155
55	0x3db49a85	0.08818535
56	0x3d775fc1	0.060394052
57	0x3ddf1be5	0.10893992
58	0x3daeb9c4	0.08531526
59	0xbc3f822f	-0.011688753
60	0x3c9d5ae0	0.019208372
61	0x3d9b11de	0.07571767
62	0x3e627eab	0.22118632
63	0x3e85d46c	0.26138628
64	0x3d118041	0.035522703
65	0x3d8ea767	0.06965523
66	0x3f35ae4b	0.70969075
67	0x3c7633ab	0.015026967
68	0x3e0b0574	0.13576299
69	0x3df7afc9	0.12094075
70	0x3da95f3d	0.082701184
71	0x3ead5bab	0.33859
72	0x3ea19b60	0.31563854
73	0x3e94e985	0.2908441
74	0x3eab1850	0.33416986
75	0x3d94f2f2	0.07272901
76	0x3d0c0638	0.03418562
77	0x3edff59d	0.43742076
78	0x3e4d1a00	0.2002945
79	0x3e469ce3	0.19395785
80	0x3ec1b722	0.37835032
81	0x3c8e7b90	0.017392904
82	0x3e820555	0.25394693
83	0x3d48c91d	0.04901992
84	0x3d8a5780	0.067549706
85	0x3e6f7fd5	0.23388608
86	0x3ecaec60	0.39633465
87	0x3e0eddd3	0.13951807
88	0x3d698fb1	0.0570218
89	0x3d827269	0.06369478
90	0x3dbb7adb	0.09154292
91	0x3ed5f418	0.4178779
92	0x3c721ebe	0.014777837
93	0x3ec79efe	0.3898849
94	0xbd29d8a7	-0.04146638
95	0x3f0f26f4	0.5591881
96	0xbd05abbc	-0.03263448
97	0x3e10b2c8	0.141307
98	0xbdf574d2	-0.11985172
99	0xbd9419df	-0.07231497
100	0x3da88639	0.08228726
101	0x3dae5eee	0.085142
102	0x3e17f6a8	0.14840186
103	0x3c89fe4d	0.016844893
104	0x3f003e5e	0.50095165
105	0xbdf3d876	-0.11906521
106	0x3dddc14a	0.108278826
107	0xbcac2a53	-0.021016276
108	0xbd5cb358	-0.053881973
109	0x3d11bec4	0.03558232
110	0x3e9cab4d	0.30599442
111	0x3c3bc901	0.011461497
112	0x3c879aa2	0.016553227
113	0xbd95da70	-0.07317054
114	0x3e792e79	0.24334134
115	0x3da08795	0.0783836
116	0x3f126a23	0.571932
117	0x3dac509e	0.08413814
118	0x3dc70b37	0.09718936
119	0xbd09d433	-0.033649635
120	0xbd174260	-0.036928535
121	0x3dcf6167	0.10126
122	0x3e8ff55f	0.2811689
123	0x3bac08a7	0.005250055
124	0xbd01b555	-0.031667072
125	0x3e0d9063	0.1382461
126	0x3e0006ab	0.12502544
127	0x3d805d7f	0.06267833
128	0x3dce5912	0.100755826
129	0x3e3cbd51	0.18431593
130	0x39440400	0.00018693507
131	0xbc951f66	-0.018203449
132	0x3e892c94	0.26791823
133	0x3ebe142d	0.37124768
134	0x3e7a55ab	0.24446742
135	0xbb5ed343	-0.0034000434
136	0xbb2e8c51	-0.0026633928
137	0xbb38224c	-0.0028096614
138	0x3f1de743	0.61681
139	0x3e8745df	0.26420495
140	0x3ef29f43	0.47387132
141	0x3e2f8ab8	0.17142761
142	0x3e8abe87	0.27098486
143	0x3ed01ef4	0.40648615
144	0x3eacd01b	0.33752522
145	0x3ac0995a	0.001469414
146	0x3e38d329	0.18049301
147	0x3e7d36b6	0.24727902
148	0x3f267960	0.65028954
149	0xbc2cd430	-0.010548636
150	0x3f5467a6	0.82970655
151	0x3decbcd8	0.115594566
152	0x3d344454	0.044010475
153	0x3da20b25	0.07912282
154	0x3e3ec24f	0.1862881
155	0x3d3d7611	0.046255175
156	0x3ac317aa	0.0014884372
157	0x3e78374d	0.24239846
158	0x3e903097	0.2816207
159	0x3eea9e1b	0.4582375
160	0x3ea4810c	0.32129705
161	0xbdd60b72	-0.10451402
162	0xbdeeeb78	-0.11666006
163	0x3ce2407b	0.027618637
164	0x3e4a809b	0.19775622
165	0x3e81269f	0.25224778
166	0x3f3551ce	0.7082795
167	0x3c180cef	0.009280427
168	0x3eae9eda	0.3410557
169	0xbc28f8f0	-0.010313258
170	0xbdc0382d	-0.09385715
171	0x3e428e40	0.18999577
172	0x3e37625d	0.17908616
173	0x3e1b6467	0.15175019
174	0x3e99c1ac	0.30030572
175	0x3e503322	0.20332006
176	0x3d970594	0.07374111
177	0x3eae77ad	0.3407568
178	0xbd3b9949	-0.04580048
179	0x3ec76278	0.38942313
180	0x3e7d1334	0.24714357
181	0x3dac419d	0.08410952
182	0x3f3122e3	0.6919386
183	0x3f28ed6d	0.65987283
184	0x3ed745f4	0.42045557
185	0x3cdea3f0	0.02717778
186	0x3e851188	0.25989938
187	0x3e1a61c7	0.15076362
188	0xbde4e5c3	-0.11176636
189	0xbcda50dd	-0.026649887
190	0x3e55e87b	0.20889466
191	0x3e05d59c	0.13069767
192	0x3e949845	0.29022422
193	0x3dc7d030	0.097565055
194	0x3dc3fc53	0.095696114
195	0x3e55eeca	0.20891872
196	0xbde8b75d	-0.11363099
197	0xbc631c22	-0.013861688
198	0x3d1547cc	0.036445424
199	0xbcd1d404	-0.025613792
200	0x3ef1508c	0.47131765
201	0x3e15ab04	0.14616019
202	0x3f03648f	0.51325315
203	0x3de53514	0.111917645
204	0x3eb3e8d0	0.3513856
205	0x3da99862	0.08281018
206	0x3eb7ff23	0.3593684
207	0x3f5b4dbb	0.8566548
208	0x3c6cce20	0.014453441
209	0x3dad69f9	0.08467478
210	0x3edeb295	0.43495622
211	0x3d9dc2fc	0.07703206
212	0x3ef66b4c	0.48128736
213	0x3e69cf1c	0.22832912
214	0x3d7ccfdf	0.06172168
215	0x3e54c7e8	0.20779383
216	0x3d9740cb	0.07385405
217	0x3e5d3963	0.21603923
218	0xbd87fb9d	-0.06639788
219	0x3e53fc96	0.20701823
220	0x3de3d508	0.11124617
221	0x3c8e6fa9	0.017387228
222	0xbdab5209	-0.08365256
223	0xbdd9b792	-0.106307164
224	0xbb103887	-0.002200635
225	0x3e57c01b	0.21069376
226	0x3edd05af	0.431684
227	0x3da67aad	0.08128867
228	0x3e0c6f29	0.13714279
229	0x3e368c60	0.17826986
230	0x3ddaad6f	0.10677611
231	0x3ef01711	0.46892598
232	0xbd87bbb5	-0.06627599
233	0x3e39a067	0.18127595
234	0x3e7fe2ce	0.24988863
235	0xbc945870	-0.018108577
236	0x3e00e989	0.12589087
237	0xbdb0caa4	-0.08632401
238	0x3e511d86	0.20421419
239	0x3c94ea3d	0.0181781
240	0x3e219cd9	0.15782489
241	0x3e3726b6	0.17885861
242	0x3f1f2c1e	0.6217669
243	0x3e21d627	0.15804349
244	0x3e60c83f	0.21951388
245	0x3d706174	0.05868669
246	0x3e5da662	0.21645501
247	0x3e09dd58	0.13463342
248	0x3c81fedb	0.015868595
249	0x3ebf26fc	0.3733443
250	0x3f1868d8	0.5953498
251	0x3f01be18	0.50680685
252	0x3d23d77d	0.040000428
253	0x3ceaf0d7	0.028679295
254	0x3d10cc9f	0.035351392
255	0x3e1e5f1b	0.15465967

ff_1.weight f4 [256, 256]
0	0xbde7eaa2	-0.113240495
1	0xbd876005	-0.06610111
2	0x3ccfe79f	0.025379
3	0xbd1b696b	-0.03794233
4	0x3dcc6983	0.09981062
5	0xbd0ed126	-0.03486743
6	0x3d8a6020	0.06756616
7	0xbbda5cd0	-0.006663896
8	0xbe0b7a6f	-0.13620923
9	0x3db364d2	0.08759464
10	0x3c9ce84e	0.01915374
11	0xbcef5b9b	-0.029218486
12	0xbe194f46	-0.14971647
13	0xbcc82b80	-0.024434805
14	0x3db5fae5	0.08885745
15	0xbd79c453	-0.060978245
16	0xbc6fbe84	-0.014632825
17	0xbcfdcb31	-0.030980678
18	0xbcf6bb57	-0.030118627
19	0x3d14dc50	0.03634292
20	0xbd2c7fa9	-0.042113934
21	0xbe5063b0	-0.20350528
22	0xbd533257	-0.05156168
23	0xbc8cddbf	-0.01719558
24	0x3defa977	0.11702245
25	0xbb80e2aa	-0.0039332705
26	0xbcd71560	-0.02625531
27	0x3c909e4a	0.017653603
28	0x3d69d57c	0.05708836
29	0xbcf335a6	-0.029688668
30	0xbee9f4e3	-0.45694646
31	0x3dc50638	0.09620327
32	0x3c08dcf9	0.008353465
33	0xbc25d4dd	-0.010121551
34	0xbd7eba91	-0.062189642
35	0xbd28f59d	-0.04124986
36	0x3d682ba9	0.056682263
37	0xbd4e4d1e	-0.050366513
38	0x3d1d2be0	0.03837192
39	0xbcc5b523	-0.024134224
40	0x3d4c9f4d	0.04995661
41	0x3d4e328c	0.050341174
42	0x3df52496	0.11969869
43	0x3d5f0f05	0.054457683
44	0x3d9e24f1	0.0772189
45	0xbbbb967f	-0.0057247276
46	0x3d048da4	0.03236164
47	0xbd98a01f	-0.07452416
48	0xbced2601	-0.028948786
49	0x3db0cd48	0.08632904
50	0x3cbb7f92	0.022887979
51	0xbcdca4d9	-0.026934074
52	0xbd0087f7	-0.031379666
53	0x3c6e782f	0.014555021
54	0xbce47ed2	-0.027892504
55	0x3d81ce67	0.06338196
56	0xbbca3cef	-0.0061718146
57	0xbd38938b	-0.045062583
58	0x3a0c7c97	0.00053591415
59	0x3cad4629	0.021151619
60	0x3d320226	0.04345908
61	0xbc0591e1	-0.008152456
62	0xbd3cc1d8	-0.0460833
63	0xbdc19e10	-0.09453976
64	0x3cdc0481	0.026857616
65	0xbca7a13b	-0.020462623
66	0x3ed32eac	0.41246545
67	0x3d5264bf	0.05136561
68	0xbd39304c	-0.045212075
69	0xbc918658	-0.017764255
70	0x3d2b1845	0.041771192
71	0x3d63474f	0.055487927
72	0xbd5ef306	-0.054430984
73	0x3b69008d	0.0035553307
74	0xbc810fe4	-0.015754648
75	0x3b81c2ee	0.003960005
76	0x3cdd16b0	0.026988357
77	0xbd8f27e4	-0.069900304
78	0x3d79b4df	0.060963508
79	0xba7c1407	-0.00096160214
80	0xbef56f6c	-0.4793657
81	0x3cceec2c	0.0252591
82	0xbd125f6c	-0.035735533
83	0xbb942f95	-0.004522274
84	0xbb20d59c	-0.0024541384
85	0xbdfa4de8	-0.12221891
86	0x3dad2b99	0.08455581
87	0x3cf1033b	0.029420486
88	0xbcb451bc	-0.02201163
89	0xbe1a5b9d	-0.1507401
90	0x3dbbcd34	0.09169999
91	0x3da21540	0.07914209
92	0xbcd179f7	-0.025570853
93	0xbe517d70	-0.20458007
94	0xbd14a689	-0.036291633
95	0x3e2e61a6	0.17029437
96	0xbcc245a0	-0.02371484
97	0x3da11f5f	0.07867312
98	0x3cd2abc5	0.025716672
99	0x3c496fb9	0.012294703
100	0xbd028f74	-0.03187509
101	0xba9211d5	-0.001114423
102	0x3d10ef20	0.035384297
103	0xbe26533e	-0.16242692
104	0xbb60dea8	-0.00343124
105	0xbc993326	-0.018701147
106	0xbc38e923	-0.011286053
107	0x3b3c0a23	0.0028692565
108	0x3ccff8cf	0.025387196
109	0xbbeb8b94	-0.00718827
110	0xbc01ea20	-0.007929355
111	0x3dc240b9	0.09485001
112	0x3d2ab4eb	0.041676443
113	0x3d8995d5	0.06718031
114	0xbd81b8dc	-0.06334087
115	0xbd84b427	-0.06479674
116	0xbf065ebe	-0.52488315
117	0x3d7c1a16	0.061548315
118	0x3b8b0dab	0.0042435727
119	0xbd184d7f	-0.03718328
120	0x3d4d2b2d	0.050090004
121	0x3c8de4bc	0.017320983
122	0x3d393420	0.045215726
123	0x3cdf3bf5	0.02725027
124	0x3d9d1cb8	0.07671493
125	0x3d742842	0.059608705
126	0x3d5cb262	0.053881057
127	0xbd8bd0b0	-0.06826913
128	0xbd725c5e	-0.05917012
129	0xbcce5b67	-0.025190068
130	0x3bd62cb0	0.006536089
131	0xbb998fae	-0.0046863174
132	0xbde7408d	-0.11291609
133	0x3d653798	0.05596122
134	0x3d8ae78d	0.06782446
135	0x3c83cd2a	0.01608904
136	0x3d75a93c	0.059975848
137	0x3d5b14c4	0.0534866
138	0xbe8a50e3	-0.27014837
139	0xbc9dc4d5	-0.019258896
140	0xbe887278	-0.26649833
141	0x3d8112a3	0.06302383
142	0xbdb3700b	-0.08761605
143	0x3ce7a824	0.028278418
144	0xbc0183b6	-0.0079049375
145	0xbcb8d8b2	-0.022564266
146	0xbbbe19aa	-0.0058013992
147	0xbde109fd	-0.10988233
148	0xbe331116	-0.17486987
149	0x3d76339a	0.060107805
150	0x3c57c0a1	0.013168485
151	0xbd980388	-0.074225485
152	0x3d059cc5	0.03262021
153	0xbd2f35b7	-0.042775836
154	0x3c48f350	0.0122650415
155	0xbc2cee05	-0.010554795
156	0x3c11562a	0.008870641
157	0xbd92f3fa	-0.07175441
158	0xbe6c6139	-0.23083963
159	0x3ca3bf10	0.019988567
160	0xbd1055b5	-0.035237987
161	0x3d9de93a	0.077105
162	0x3da666a8	0.08125049
163	0x3d8444f4	0.06458464
164	0xbb9b4fea	-0.004739751
165	0xbce843b2	-0.028352592
166	0x3e73cda0	0.23808908
167	0x3c0240bd	0.007950005
168	0x3cc6fe35	0.024291137
169	0x3c72f68c	0.014829289
170	0xbbf25aae	-0.007396064
171	0xbd210478	-0.039310902
172	0xbd592f50	-0.053023636
173	0x3d6ea113	0.05825908
174	0x3c2e1a52	0.010626392
175	0xbd4bad6c	-0.049725935
176	0x3d079416	0.03310021
177	0x3cc16a5d	0.023610288
178	0xbd285c12	-0.04110343
179	0x3c9215af	0.017832605
180	0xbba569ff	-0.005048036
181	0xbdc0b317	-0.09409159
182	0xbedddf65	-0.433345
183	0xbec02227	-0.37526056
184	0xbd608868	-0.054817587
185	0xbcccad64	-0.024985023
186	0xbd8d332f	-0.06894528
187	0xbcc0448a	-0.023470182
188	0xbb0b137f	-0.0021221337
189	0x3ce1b2a3	0.027551001
190	0xbb71d6be	-0.0036901678
191	0x3d8ffff0	0.07031238
192	0xbe683973	-0.22678165
193	0x3c5bc6e2	0.013414117
194	0xbd0ae60e	-0.033910803
195	0xbe6573d2	-0.22407463
196	0xbcdd6f53	-0.027030623
197	0xbc4b4ee4	-0.012408946
198	0xbd7cf5b0	-0.061757743
199	0x3c22ebcc	0.009943914
200	0x3c956c58	0.018240139
201	0x3ccc24f8	0.024919972
202	0x3e6b2ece	0.22967073
203	0xbd52000b	-0.051269572
204	0xbce47690	-0.027888566
205	0x3d1bd905	0.038048763
206	0x3d3902ab	0.04516856
207	0xbde81e9a	-0.11333962
208	0x3d579418	0.052631468
209	0x3d01b020	0.031662107
210	0xbce6a21b	-0.02815347
211	0xbc98df22	-0.018661086
212	0xbe82d269	-0.25551155
213	0x3c699d18	0.0142586455
214	0x3cbf90f0	0.023384541
215	0xbca8d7f2	-0.020610783
216	0x3dccd2c0	0.10001135
217	0x3d3fd07c	0.046829686
218	0xbd14c925	-0.03632464
219	0xbd85d46b	-0.06534656
220	0xbcdab780	-0.026698828
221	0x3c73723a	0.014858777
222	0xbc6d0db0	-0.014468595
223	0xbd2080a0	-0.039185166
224	0x3c1ae147	0.009453124
225	0xbca8c06d	-0.020599568
226	0x3cb05b6e	0.021527972
227	0xbd687ba2	-0.05675853
228	0xbc58f1d5	-0.013241251
229	0x3c60feec	0.013732653
230	0x3d9038b9	0.07042069
231	0xbe114856	-0.1418775
232	0x3d84025d	0.06445763
233	0xbbc1b19d	-0.0059110657
234	0xbed9d565	-0.4254562
235	0xbd615b60	-0.055018783
236	0xbe31711e	-0.17328307
237	0x3d745d49	0.059659276
238	0x3aaf43ac	0.0013371608
239	0x3da6c6ba	0.08143373
240	0xbe218603	-0.15773778
241	0xbd37204d	-0.04470854
242	0xbeb86b79	-0.36019495
243	0x3d939210	0.072055936
244	0x3e0f36cf	0.13985752
245	0x3dab3364	0.08359411
246	0xbccb89b2	-0.024845932
247	0x3d6a836d	0.057254244
248	0x3ca8f602	0.020625118
249	0x3df30fef	0.118682735
250	0xbd4e1d03	-0.050320636
251	0xbcc4e276	-0.024033766
252	0xbaccc629	-0.0015623021
253	0x3d3f9bf8	0.046779603
254	0x3cee6442	0.029100541
255	0xbe17b6ce	-0.14815828

ff_1.bias f4 [256]
0	0x3d521874	0.05129285
1	0xbd857589	-0.06516559
2	0xbd233ca1	-0.039852742
3	0x3c28a410	0.010293022
4	0xbe47ed57	-0.19524132
5	0xbe7569d3	-0.2396615
6	0x3d00d783	0.031455528
7	0xbdfa1efe	-0.122129425
8	0x3b800db3	0.003907883
9	0xbe0e2da6	-0.13884601
10	0xbdf7b2d4	-0.12094656
11	0xbe498b26	-0.19681987
12	0x3d9b5abd	0.07585666
13	0x3d108502	0.035283096
14	0xbd833bd6	-0.06407897
15	0x3b8ee9fa	0.0043613883
16	0xbdca3f33	-0.098753355
17	0x3c36937c	0.011143561
18	0x3d4e6630	0.050390422
19	0x3d3bdee5	0.045866866
20	0xbdd90525	-0.10596684
21	0x3da57ee8	0.08080846
22	0xbbbc2f10	-0.005742915
23	0xbdb3f71f	-0.08787369
24	0xbde39595	-0.11112515
25	0x3c7e9af5	0.015539874
26	0xbc1461d5	-0.009056528
27	0x3da12e47	0.07870155
28	0x3cb531de	0.022118505
29	0xbd34e291	-0.044161383
30	0xbd6d08a3	-0.057869565
31	0x3ce3d5ba	0.027811874
32	0xbca0b7ec	-0.01961895
33	0xbd4d1001	-0.05006409
34	0xbd05b5b6	-0.032643996
35	0xbd4b0ffd	-0.049575794
36	0x3d2fa6bf	0.04288363
37	0x3db29502	0.08719827
38	0xbd8057ed	-0.062667705
39	0xbde5c8da	-0.1121995
40	0x3d139b64	0.036036864
41	0xbda9d648	-0.08292824
42	0xbdebd52b	-0.11515268
43	0xbd2c19b7	-0.04201671
44	0xbd7769a2	-0.060403474
45	0x3d96168d	0.0732852
46	0x3d59c8b8	0.053169936
47	0xbd3610bc	-0.044449553
48	0xbca948a9	-0.02066453
49	0xbdaf19c5	-0.08549837
50	0x3d267d1f	0.04064667
51	0xbcb2b9a5	-0.021817038
52	0xbd8fb472	-0.07016839
53	0x3b5947f7	0.0033154467
54	0xbc89e6bc	-0.016833656
55	0xbd42f471	-0.0475964
56	0xbcc40d55	-0.023932138
57	0x3d167362	0.03673113
58	0x3cdd2cd4	0.026998915
59	0x3bb671d6	0.0055677695
60	0xbc367765	-0.011136864
61	0xbd22f647	-0.03978565
62	0xbd15fb80	-0.036616802
63	0x3d9a4983	0.075335525
64	0x3dc78169	0.0974148
65	0x3da61e58	0.08111256
66	0xbd8588ab	-0.06520208
67	0xbd065c7d	-0.032803047
68	0x3bcede76	0.0063131405
69	0xbd81d933	-0.063402556
70	0x3b90584c	0.004405057
71	0x3d09b3db	0.03361879
72	0xbd277b41	-0.04088903
73	0xbd6de721	-0.05808175
74	0xbca21882	-0.019787077
75	0xbdf3c712	-0.11903204
76	0xbd837b49	-0.06419999
77	0x3d401315	0.046893198
78	0x3d2d0a16	0.042245947
79	0x3d63025b	0.05542217
80	0x3db610f2	0.08889951
81	0xbd6b3996	-0.057427965
82	0x3cd507dd	0.026004726
83	0xbe447174	-0.19183904
84	0xbcb8541e	-0.022501048
85	0xbd90eec3	-0.0707679
86	0xbdeafc39	-0.11473889
87	0xbda8957c	-0.08231637
88	0xbd84a4a8	-0.06476718
89	0xbc9feaa5	-0.019521067
90	0x3d01f32d	0.03172605
91	0xbd349594	-0.04408796
92	0xbbd20f7e	-0.006410538
93	0x3993d9f7	0.0002820042
94	0xbc0bb8ce	-0.008527948
95	0xbd071d18	-0.03298673
96	0x3d650fbd	0.055923212
97	0xbd9c2d81	-0.07625867
98	0xbd051d71	-0.03249878
99	0xbd07b211	-0.0331288
100	0x3d52c373	0.051455926
101	0xbcf04815	-0.029331246
102	0x3cc93548	0.02456154
103	0xbd09d507	-0.033650424
104	0x3cdf8219	0.027283715
105	0xbdba106e	-0.09085165
106	0xbd3d147a	-0.046162106
107	0xbd9555e8	-0.07291776
108	0x3c55ac03	0.013041499
109	0xbd22e1e8	-0.039766222
110	0x3d22b4f6	0.03972336
111	0xbdb8ff4a	-0.090330675
112	0x3c708820	0.014680892
113	0x3dfdc762	0.12391545
114	0xbce0ef65	-0.027457902
115	0xbc8637ec	-0.016384088
116	0x3d66b292	0.05632264
117	0xbde84d0a	-0.11342819
118	0xbd8d4c6b	-0.06899341
119	0xbd3e19b6	-0.04641124
120	0xbdff386b	-0.12461933
121	0xbd368085	-0.04455616
122	0x3c86344e	0.016382363
123	0xbc831f43	-0.016006118
124	0xbcb6efac	-0.022331081
125	0xbce87a3a	-0.028378595
126	0x3c004a61	0.007830233
127	0x3b1ea43c	0.0024206778
128	0xbcfe0490	-0.031008035
129	0xbc2d6381	-0.010582806
130	0x3b6fa999	0.0036569594
131	0xbc82b7d9	-0.015956806
132	0xbd7ad402	-0.061237343
133	0xbcfa38b9	-0.030544626
134	0xbc345939	-0.0110076
135	0xbd037ed7	-0.032103386
136	0xbdd77676	-0.105206415
137	0xbd139e18	-0.03603944
138	0x3d9237ea	0.07139571
139	0xbd89fd6f	-0.06737792
140	0xbd80ed9d	-0.06295321
141	0xbdcd4a03	-0.10023882
142	0x3d364703	0.044501316
143	0xbcbc8cfb	-0.023016443
144	0xbd7f5710	-0.06233889
145	0x3d00808a	0.031372584
146	0xbd914ca7	-0.070946984
147	0xbda9a04b	-0.082825266
148	0xbdb6b748	-0.08921677
149	0xbbc51998	-0.006015014
150	0xbd415b69	-0.047206316
151	0x3de4d312	0.11173071
152	0xbd188465	-0.037235636
153	0xbd4b5f74	-0.049651578
154	0xbd41f419	-0.04735193
155	0x3ca2fd05	0.01989604
156	0xbdd057ff	-0.10173034
157	0x3c80e3a3	0.015733546
158	0xbd9635f3	-0.07334509
159	0xbd922ecf	-0.07137834
160	0xbd6cf977	-0.057855096
161	0x3ac615e8	0.001511273
162	0xba973164	-0.0011535105
163	0x3baec685	0.005333724
164	0xbd70974a	-0.05873803
165	0x3c1e0c6e	0.009646518
166	0x3c3d983d	0.011571941
167	0xbc871cba	-0.01649319
168	0xbd9a37cc	-0.07530174
169	0x3ce4fe05	0.027953157
170	0x3c808f1e	0.015693244
171	0x3cd9f6cf	0.026606945
172	0xbd1c08b3	-0.038094234
173	0x3d896eb0	0.06710565
174	0x3ce73633	0.028224086
175	0x3d4403ba	0.047855116
176	0x3cc35520	0.023844302
177	0xbc3cfa4d	-0.011534286
178	0x3dc23547	0.09482818
179	0xbd15bc20	-0.036556363
180	0xbc21d05e	-0.009876339
181	0xbd09f465	-0.03368034
182	0x3d88e077	0.06683438
183	0x3be6e048	0.0070457794
184	0xbd85836f	-0.065192096
185	0x3d6ee0ed	0.058319975
186	0x3d097791	0.033561293
187	0xbdecc7ff	-0.11561584
188	0x3d177c6b	0.03698389
189	0xbd53abb0	-0.051677406
190	0x3ce21d1b	0.02760177
191	0x3c93e1e1	0.018052043
192	0x3d333045	0.043747205
193	0xbc60576a	-0.013692716
194	0x3b5d02bd	0.0033723556
195	0xbcc95af0	-0.024579495
196	0xbccda92f	-0.025105087
197	0xbd06de95	-0.032927115
198	0x3daac16f	0.08337676
199	0xbdfddcee	-0.123956546
200	0x3ce27dc7	0.027647866
201	0xbda4794a	-0.080309466
202	0xbdb4e0eb	-0.08831962
203	0x3ddd1aa8	0.107961
204	0xbd8e1e4a	-0.06939371
205	0xba7177ec	-0.000921129
206	0xbd5a0917	-0.053231325
207	0x3b95e7f6	0.004574771
208	0xbd026e5d	-0.031843532
209	0x3c0a93e0	0.008458108
210	0xbca0a15f	-0.019608198
211	0x3c8e9d44	0.017408974
212	0x3d407d39	0.04699442
213	0xbda64d5e	-0.08120225
214	0xbd52a2b6	-0.051424704
215	0x3d9cb0ee	0.07650934
216	0x3d00ad7e	0.031415455
217	0xbd2b25ca	-0.041784085
218	0x3d742286	0.059603237
219	0x3d1af1c2	0.037828214
220	0xb926528c	-0.00015861745
221	0xbc9ac43f	-0.018892406
222	0xbceaa4f8	-0.028643116
223	0xbd4f4512	-0.05060298
224	0xbc5b317d	-0.013378498
225	0x3ba8497f	0.0051357145
226	0xbc8ee419	-0.01744275
227	0xbd6b564e	-0.057455353
228	0xbda46ae8	-0.08028203
229	0xbc8d1b17	-0.017224832
230	0xbd217e74	-0.039427236
231	0xbd885f23	-0.06658771
232	0x3d5dcb69	0.054149065
233	0x3be7d877	0.007075365
234	0x3dab51d5	0.083652176
235	0xbca7d80b	-0.02048876
236	0x3d9f5fc3	0.07781937
237	0xbdb0c6af	-0.08631646
238	0x3d489224	0.048967496
239	0x3ae75ff6	0.00176525
240	0x3bff8ee8	0.007799018
241	0x3bf458d2	0.0074568773
242	0xbd6ac32b	-0.057315033
243	0xbb81c932	-0.003960752
244	0x3db4a139	0.08819813
245	0x3d638d7e	0.05555486
246	0x3ba5c7e5	0.0050592297
247	0x3dd15bd5	0.10222594
248	0xbc990ef8	-0.018683895
249	0xbd925245	-0.07144598
250	0xbd96feff	-0.073728554
251	0xbdc4f464	-0.09616926
252	0xbaf77376	-0.0018879015
253	0x3c7af597	0.015317342
254	0x3d856652	0.06513657
255	0xbd4980cf	-0.049195107

ff_2.weight f4 [1, 256]
0	0x3e17dbe2	0.14829972
1	0x3e6037c4	0.21896273
2	0xbd987fda	-0.07446261
3	0x3dfc713f	0.123262875
4	0xbf2a6e9c	-0.66575027
5	0xbf3b3f6d	-0.73143655
6	0x3ddc732d	0.107641555
7	0x3f300d6b	0.68770474
8	0x3e6962b9	0.22791566
9	0x3f26833e	0.6504401
10	0x3f28585c	0.65759826
11	0x3efdbe7c	0.4955939
12	0x3e0ffdad	0.14061613
13	0x3dbf7dff	0.09350204
14	0xbe190e1b	-0.14946787
15	0x3e9105a5	0.2832462
16	0xbe735b56	-0.2376531
17	0x3de5e907	0.11226087
18	0x3e227435	0.15864642
19	0x3ea10358	0.31447864
20	0x3eb22621	0.34794715
21	0xbeb46881	-0.3523598
22	0xbe3a79f4	-0.18210584
23	0xbe188946	-0.14896116
24	0xbe9fd650	-0.31218195
25	0x3ded8a3b	0.11598631
26	0xbecff89b	-0.40619358
27	0xbeaa37cd	-0.33245698
28	0x3d92c1db	0.07165881
29	0xbdc1b37a	-0.094580606
30	0xbdd3390b	-0.103136145
31	0x3e0d7c82	0.13817027
32	0x3e516102	0.20447162
33	0x3e0d3fcd	0.1379387
34	0x3e79934a	0.24372593
35	0xbe15e551	-0.14638259
36	0x3e847d7e	0.25876993
37	0x3dddbad0	0.10826647
38	0x3e870c76	0.26376694
39	0xbdbc8d8c	-0.092066854
40	0x3e2473df	0.16059826
41	0xbe245cfe	-0.16051099
42	0xbeb57516	-0.35440892
43	0xbe4db6e8	-0.20089304
44	0x3e2a415d	0.16626497
45	0x3da9bd9e	0.0828812
46	0x3dc17372	0.094458476
47	0xbda311f6	-0.0796241
48	0xbe0f1182	-0.13971522
49	0x3f053f16	0.52049387
50	0x3dc1ff57	0.0947253
51	0xbdbc40a6	-0.09192018
52	0x3ebc0c03	0.36727914
53	0x3dc03fb3	0.0938715
54	0x3de28ac1	0.110616215
55	0xbe735834	-0.23764116
56	0x3e11fbc7	0.14256202
57	0x3d8028a1	0.06257749
58	0x3e2fe058	0.17175424
59	0x3dab6cbb	0.08370348
60	0x3e7cd7df	0.24691723
61	0x3e790dd1	0.24321677
62	0xbe193de5	-0.14965017
63	0x3e2a1874	0.1661089
64	0x3d9e490b	0.077287756
65	0x3e3c927a	0.18415251
66	0xbe29bd65	-0.16576155
67	0x3d9b4133	0.07580795
68	0x3e0e2ad5	0.13883527
69	0xbd7e2072	-0.06204266
70	0x3dbe73d7	0.092994384
71	0xbe4f7617	-0.20259891
72	0x3e562294	0.20911628
73	0xbf3032e9	-0.6882768
74	0xbe6592c1	-0.22419263
75	0xbe855dbe	-0.26048082
76	0xbe84798a	-0.25873977
77	0xbecc8da2	-0.39951807
78	0xbe816bc8	-0.25277543
79	0x3e95afc8	0.29235673
80	0xbdd50271	-0.10400856
81	0x3ed337a7	0.41253397
82	0x3dc47fa9	0.09594662
83	0xbf2cd2d4	-0.675092
84	0xbe122ae1	-0.1427417
85	0xbd3c4dab	-0.045972507
86	0x3f0b839a	0.54497683
87	0xbdd0696f	-0.1017636
88	0x3e43c05f	0.19116352
89	0xbe67a672	-0.22622088
90	0x3e13adf9	0.14421834
91	0xbf068720	-0.52549934
92	0x3e124d51	0.14287306
93	0xbec9b0f8	-0.3939283
94	0x3e57a44a	0.21058765
95	0xbdd55c7c	-0.104180306
96	0xbe9da6c4	-0.30791295
97	0xbec83c44	-0.3910848
98	0xbefc4d60	-0.49277782
99	0xbdaf0bc1	-0.08547164
100	0x3deed7ca	0.11662252
101	0xbdc3e72d	-0.09565578
102	0xbdf0277b	-0.1172628
103	0x3e9c6e3e	0.30552858
104	0xbdd404c1	-0.10352469
105	0xbe55d18c	-0.20880717
106	0xbe7e4a89	-0.2483312
107	0xbe877006	-0.26452655
108	0xbebba4f5	-0.3664929
109	0xbd8fb798	-0.070174396
110	0x3d955b14	0.072927624
111	0xbf2c2939	-0.672504
112	0xbdd6d350	-0.104895234
113	0x3d949f9d	0.07257006
114	0x3e2f32d3	0.17109232
115	0x3e996711	0.29961446
116	0x3e178884	0.1479817
117	0xbdf68409	-0.120369025
118	0x3e179143	0.14801507
119	0xbdb5f6fc	-0.08884999
120	0xbe98bc36	-0.29831094
121	0x3e5f4fa9	0.21807732
122	0x3e4740c3	0.19458298
123	0xbebdc99c	-0.37067878
124	0xbd9c18f5	-0.07621948
125	0xbde62a20	-0.112385035
126	0x3e56b467	0.20967256
127	0xbe292061	-0.16516258
128	0xbdcc08d8	-0.09962624
129	0x3e170543	0.14748101
130	0x3e73d65d	0.23812242
131	0xbe7ca587	-0.24672519
132	0x3e808607	0.25102255
133	0xbd450661	-0.048101787
134	0x3dd0080e	0.10157786
135	0xbdef8557	-0.116953544
136	0xbe1b17e2	-0.1514583
137	0x3e8e2582	0.2776299
138	0x3e93dc79	0.28879145
139	0xbeac20cf	-0.3361878
140	0xbe547857	-0.20749031
141	0xbe08a0bc	-0.13342565
142	0x3e216cd4	0.15764171
143	0x3e0a4e58	0.13506448
144	0x3d689802	0.05678559
145	0x3e65cb4f	0.22440837
146	0x3e2e365d	0.17012925
147	0xbe6d169d	-0.23153158
148	0xbde8efb8	-0.11373848
149	0x3d84be8d	0.06481657
150	0xbe7c8d09	-0.24663176
151	0x3e2e6d6c	0.17033929
152	0x3ebf1176	0.3731801
153	0xbdf99018	-0.12185687
154	0x3f040081	0.5156327
155	0xbe09e63b	-0.13466732
156	0xbd964816	-0.07337968
157	0x3da08413	0.07837691
158	0xbeeab240	-0.4583912
159	0x3f27e467	0.6558289
160	0xbf227c2e	-0.63470733
161	0xbdba7088	-0.09103495
162	0xbe21dbc3	-0.15806489
163	0x3ea1b054	0.3157984
164	0x3efa93a8	0.48940778
165	0xbd68a848	-0.05680111
166	0x3e0d586c	0.13803262
167	0xbe92edbb	-0.28697
168	0xbda86413	-0.08222213
169	0x3db8eb25	0.09029225
170	0x3dcee930	0.10103071
171	0xbdc4cdd3	-0.0960957
172	0x3de86401	0.11347199
173	0xbdc636bb	-0.09678408
174	0xbd88b02e	-0.066742286
175	0x3da77203	0.08176043
176	0x3dd64d1d	0.10463927
177	0x3e52754f	0.20552562
178	0x3df9b396	0.121924564
179	0x3e0eacf2	0.13933161
180	0x3e9c4796	0.30523366
181	0x3e37b708	0.17940915
182	0x3db4474f	0.088026635
183	0x3e0b7c2a	0.13621584
184	0xbdde6813	-0.10859694
185	0xbe69bd43	-0.22826104
186	0xbe13ba72	-0.14426592
187	0x3f2dab17	0.6783919
188	0x3dced66e	0.10099493
189	0x3e6f086f	0.23343061
190	0x3dead9cd	0.114673235
191	0x3e10ef34	0.14153749
192	0x3d93bd78	0.07213873
193	0x3dbb9964	0.09160116
194	0x3e0114b1	0.1260555
195	0xbe540c25	-0.20707758
196	0x3e614832	0.22000197
197	0xbe0514ac	-0.12996167
198	0x3e3a1885	0.18173416
199	0xbe9e223a	-0.30885488
200	0xbda98652	-0.08277573
201	0xbe04dd3d	-0.1297502
202	0xbdf47d3f	-0.11937951
203	0x3da4632c	0.08026728
204	0xbddafc3a	-0.1069264
205	0x3e458976	0.19290718
206	0xbe016c55	-0.12638982
207	0x3ecce5a7	0.4001896
208	0xbdf0784d	-0.117416956
209	0xbe015daa	-0.12633386
210	0x3dbadcd1	0.09124149
211	0x3dbbf184	0.09176925
212	0x3dd0e5af	0.10200059
213	0x3ef794c7	0.48355696
214	0xbe152800	-0.1456604
215	0x3e0df4b1	0.13862874
216	0x3deaf105	0.11471752
217	0xbe33a2e1	-0.17542602
218	0x3eab0114	0.3339926
219	0x3dadce68	0.084866345
220	0x3e0089c8	0.1255256
221	0xbda2d248	-0.07950264
222	0xbdab25f9	-0.08356852
223	0xbe70acb6	-0.23503384
224	0x3ebb3d58	0.3657024
225	0x3db8280f	0.089920156
226	0x3e0433a8	0.1291033
227	0x3eeea85b	0.4661282
228	0x3e1e719a	0.15473023
229	0xbe6a9c63	-0.2291122
230	0xbe022169	-0.12708057
231	0x3e5d30d5	0.21600659
232	0x3da7f8ad	0.08201728
233	0xbdb80bde	-0.089866385
234	0x3da8d3e5	0.08243541
235	0x3e917c60	0.28415203
236	0x3ddb2279	0.106999345
237	0x3e856fe0	0.26061916
238	0x3dc275a0	0.094950914
239	0x3e12e19b	0.14343874
240	0x3ddd4638	0.10804409
241	0x3de097e4	0.10966471
242	0xbe22dc18	-0.15904272
243	0xbf088369	-0.53325516
244	0x3e5d0d6f	0.21587156
245	0xbdd1e643	-0.10248997
246	0xbe11feb4	-0.14257318
247	0x3db9eb86	0.09078126
248	0xbd5cb2d6	-0.05388149
249	0xbe96d130	-0.29456472
250	0xbe90cfb5	-0.28283468
251	0xbe14525b	-0.14484541
252	0x3d83c024	0.06433132
253	0xbe3c1332	-0.18366697
254	0x3e69d026	0.22833309
255	0x3e0138dc	0.12619346
