runs/checkpoint_critic_2566_192021_tau1_1450.pth (torch, 356559 bytes, 7 tensors)

head.weight f4 [256, 22]
000000 32 c9 a3 3a b4 33 a6 be 99 38 57 be cb 7d cc be
       0.0012495874 -0.3246132 -0.21017684 -0.39939722
000010 01 4d 64 3f ad 35 09 3f e3 67 14 3f 0a 69 79 3f
       0.8918 0.5359753 0.5797102 0.974259
000020 9a 55 0b 3f 1c 20 f8 3e f1 53 82 be 43 3d fa bc
       0.5442749 0.48461998 -0.25454667 -0.03054679
000030 05 8b 17 be 25 29 f0 be 52 58 10 bf ac 21 a2 3e
       -0.14799125 -0.4690639 -0.56384766 0.31666315
000040 4a 5c f2 3c 68 95 fa 3e ff c1 b4 bd 04 c8 53 3f
       0.029585022 0.48942113 -0.08826064 0.82727075
000050 37 57 07 40 6e a8 38 c0 e2 cd 94 3c 61 7b 5c be
       2.1146982 -2.8852801 0.018164579 -0.2153144
000060 24 ed 34 3a 14 8f f6 3c 12 1c a8 3f 52 6d 0f 3f
       0.0006901792 0.030097522 1.3133566 0.56026185
000070 34 87 8e 3f 0e 54 04 be c7 8b c5 be e0 6c 06 bf
       1.1135011 -0.1292269 -0.38583204 -0.5250988
000080 ad c7 78 be 45 20 7b be 78 42 96 be 38 e8 79 be
       -0.2429492 -0.24524029 -0.29347587 -0.2440499
000090 93 34 00 bd c2 59 28 bf 26 36 69 3f 23 36 56 be
       -0.03130014 -0.6576196 0.9109825 -0.20919089
0000a0 b9 7f 37 bd 00 1a 06 c0 b2 ad 80 bf 56 db 98 3e
       -0.04479954 -2.095337 -1.0053008 0.2985484
0000b0 c0 a0 e3 b9 93 58 f6 bd a6 c0 aa be c4 20 55 3c
       -0.00043416582 -0.12028613 -0.33350104 0.0130083
0000c0 68 3d e3 3d d7 66 d3 3d 9b 47 67 3e df 1f 8c c0
       0.11095697 0.103223495 0.22585909 -4.3788905
0000d0 18 cc 8a c0 b3 3e 8a c0 df f3 be 3e 99 a8 c8 3e
       -4.337414 -4.3201537 0.37295434 0.3919113
0000e0 07 c3 0f 3e 49 9f 1e be 64 9f dc 3e a6 63 17 be
       0.14039241 -0.1549045 0.43090355 -0.14784107
0000f0 2a 76 0d 3f f8 a8 01 3e b5 a7 af be 15 3e a3 3d
       0.5525843 0.12662113 -0.34307638 0.079708256
000100 dc a3 03 3f fd ff c8 be 57 a4 be bb 65 11 e8 be
       0.51421905 -0.39257804 -0.0058179307 -0.4532577
000110 ba f8 05 3f ee 12 c8 3d 26 c6 2f bd bd 4f a1 3c
       0.5233265 0.097692356 -0.04291358 0.019691342
000120 22 86 84 bf 26 11 6f 3e 12 69 ec 3e c1 09 29 3f
       -1.0353434 0.23346385 0.46173912 0.6603051
000130 df cc 2a 3d 07 c9 4e 3e b9 e6 cb 3d 48 6a 2c 3e
       0.041699287 0.20193873 0.09956116 0.16837418
000140 03 73 47 be 0e 87 9c bd a2 26 39 bd e1 01 cc bb
       -0.19477467 -0.07642947 -0.04520286 -0.00622581
000150 2d 51 62 3e bd f1 ce 3d 8e c0 2b 40 09 bf 88 40
       0.22101279 0.10104702 2.6836276 4.2733197
000160 70 ba ab 39 76 5e c5 bc ab d8 1c bf 63 d2 6a 3e
       0.00032754568 -0.024092894 -0.6126811 0.22931819
000170 8b ab ad be 33 6a 6f 3e 39 07 74 bd 1b 68 c9 be
       -0.3391994 0.23380356 -0.0595772 -0.3933724
000180 44 e6 49 bf be f8 5a bf 8c 36 3d be 6d 92 a3 be
       -0.7886698 -0.855358 -0.18477839 -0.31947652
000190 37 66 01 be 6f f3 19 3f 72 1b c5 be 9a c5 fa bd
       -0.12636648 0.60137075 -0.38497502 -0.12244721
0001a0 96 c3 d4 3e e8 43 87 3e d6 63 7a bf c4 bf 66 3e
       0.4155547 0.26418996 -0.9780859 0.2253409
0001b0 37 a4 1b 3f ab 27 43 be 48 4b a1 bb b9 9d 59 3e
       0.60797447 -0.19058101 -0.0049223043 0.21251573
0001c0 65 73 11 bf 56 f9 3e be 94 69 a0 bf 40 91 5a 3c
       -0.56816703 -0.18649802 -1.253222 0.013340294
0001d0 d7 71 5d bf 54 18 3e c0 66 41 2a c0 12 30 04 c0
       -0.8650183 -2.9702349 -2.6602416 -2.065434
0001e0 c3 85 e4 3b 1c 27 79 be ac d1 53 be 0f 68 f2 be
       0.0069739535 -0.24331325 -0.20685452 -0.47345015
0001f0 f7 d8 e4 be 52 e8 a1 be e2 61 8a 3e ff e5 14 bd
       -0.4469678 -0.3162256 0.27027804 -0.036352154
000200 c6 46 84 bd b4 02 9d bf ad 39 e1 3f 3b 40 4a bf
       -0.064588115 -1.226645 1.7595726 -0.7900426
000210 f5 24 53 bb 7c 2c 7c be ba 72 05 be af c5 1b 3d
       -0.0032218073 -0.24626344 -0.13032046 0.038030323
000220 be 91 0b 3e 6c dd f1 3c e6 f9 24 3e 67 e7 04 bf
       0.13629815 0.029524527 0.16110954 -0.5191559
000230 6a 6f 70 bf 31 89 24 bf fe 32 b8 3e 19 56 ec 3e
       -0.93920004 -0.6427184 0.35976404 0.46159437
000240 6f 0d 6c 3e 85 38 d9 bd 69 66 ab 3e a6 82 0b bf
       0.23052 -0.10606483 0.3347657 -0.5449623
000250 f0 00 f5 3e 12 d5 3f 3f 2e 78 ae be e0 9f be 3e
       0.47852278 0.74934494 -0.34076065 0.3723135
000260 ab 7e cb be e5 1c 1a 3e 0e 1f 7e 3b 42 0f a0 be
       -0.39745077 0.15050085 0.0038775834 -0.3126164
000270 ef 67 67 3f 55 52 b7 3d 14 6c 9c 3f 59 da a7 be
       0.90392965 0.089512505 1.2220483 -0.32783774
000280 47 45 2a 3f 02 4f e5 be fa e3 05 bf 88 f0 cf be
       0.6651196 -0.4478684 -0.5230099 -0.40613198
000290 22 11 02 bf a3 25 f0 be 92 2b 03 be f3 8c 35 3d
       -0.5080739 -0.46903715 -0.1280959 0.044323873
0002a0 c7 c0 3e 3e ac db ac bd 32 ae 32 3e 73 9c 2f 3e
       0.18628226 -0.084403366 0.17449263 0.17149524
0002b0 b8 07 03 bf 9c d8 9a bf da bd 3d c0 93 32 e5 c0
       -0.5118365 -1.2097354 -2.9647126 -7.1624236
0002c0 ad 7a 47 3b 9e af 84 3e fc 5e 86 3e 89 e0 26 be
       0.003043811 0.25915235 0.26244342 -0.16296591
0002d0 c0 1e e7 3e 5a 58 06 3e e8 78 00 3f d3 35 e3 3c
       0.45140648 0.13119641 0.5018449 0.027735626
0002e0 17 ad 5d be 5c 09 a8 be 51 75 51 3e 4f 5e c8 3e
       -0.2164806 -0.3281964 0.20454909 0.39134452
0002f0 39 2f 39 be 22 94 5d be 3e d8 2c 3f 80 07 ed be
       -0.1808442 -0.2163854 0.6751746 -0.46294785
000300 d8 b3 be bf 11 b4 97 bf d1 89 06 c0 9f 60 ca be
       -1.4898634 -1.1851827 -2.1021616 -0.3952684
000310 63 10 e3 3e 4d 8d 4b 3e d4 f0 b5 3b 9d aa cd 3e
       0.4434844 0.1987812 0.0055523906 0.4016923
000320 77 b3 f6 be 69 9e 92 3d c0 94 05 3f a6 ee b4 3e
       -0.48183796 0.071591206 0.521801 0.35338324
000330 11 eb af 3f 8b e4 03 bd ba a9 24 3e 56 07 aa be
       1.3743612 -0.032200377 0.1608037 -0.33208722
000340 69 31 dd bb e1 be 82 be 3e 67 92 be a4 15 21 bd
       -0.006750275 -0.25536254 -0.28594393 -0.03932728
000350 15 e8 15 3e 03 f3 95 bd 8f 9b 1c be d4 c6 9d 3d
       0.14639314 -0.073217414 -0.15293716 0.07703939
000360 18 97 11 3e c7 76 fc bd 20 0d 90 be ed 81 67 3e
       0.14217794 -0.123273425 -0.28135014 0.22608157
000370 57 fb 46 bb 7e 54 63 be 7a 0a 11 3e 0c e3 b0 bd
       -0.0030362213 -0.222002 0.14164153 -0.08637056
000380 c1 1d b7 bc 25 63 bc 3b a8 3e 5a 3f 24 25 93 3e
       -0.022353055 0.0057491236 0.85251856 0.28739274
000390 9c ee b2 3e 4a ed ba be 8e cd 92 3e 28 12 ea 3e
       0.3494767 -0.36509162 0.2867245 0.45716977
0003a0 db c1 03 3f 5b 11 d2 3c 14 8a 1f 3f f7 31 5c 3e
       0.51467675 0.025643041 0.62320065 0.21503435
0003b0 5a ed ba be e7 b8 d4 ba 5c 36 b5 be 87 09 c4 bf
       -0.3650921 -0.0016229422 -0.35393035 -1.5315408
0003c0 5f 09 ba bf cb b6 8d 3f 10 49 c3 bb 8e eb 78 bd
       -1.453411 1.1071409 -0.0059596375 -0.060771517
0003d0 91 2b ae 3d 1c 76 5d 3e d9 81 18 3e 99 1c 00 be
       0.085044034 0.21627086 0.14893283 -0.12510909
0003e0 cc 32 50 3f 00 48 07 bf 96 a2 83 be d0 03 3b be
       0.8132751 -0.5284424 -0.2570998 -0.18263173
0003f0 fe d1 d6 3b eb 64 c4 be ca 33 34 be 56 4e 4d be
       0.0065557947 -0.38358244 -0.17597881 -0.20049414

head.bias f4 [256]
000000 a1 63 d0 3d ff fa 92 be 8b 29 2d 3f 3a 94 2b be
       0.10175253 -0.2870712 0.67641515 -0.16755763
000010 5b c5 3e be 46 22 3e 3d 11 6a c4 3e 41 db 21 bf
       -0.18629973 0.046419404 0.38362172 -0.6322518
000020 f3 81 e7 bc b9 b1 f6 be 14 52 1c 3f 1f d5 58 bf
       -0.028260207 -0.48182467 0.6106274 -0.84700197
000030 d4 a3 fe 3e dc bc 85 bd f1 b5 8f bf e0 25 4b bf
       0.49734366 -0.06530163 -1.1227399 -0.7935467
000040 9f fc 7c 3e 30 f3 82 bd 11 df 9f 3e d6 81 ff be
       0.24705742 -0.063940406 0.31224874 -0.49903744
000050 5f 5c 64 3f 71 7e a7 3e eb 15 1e bd b4 05 82 3c
       0.8920345 0.32713655 -0.03859512 0.01587186
000060 a1 a4 8c be eb be 7c bf 52 4b ef 3d e8 82 a0 be
       -0.27469352 -0.9872882 0.11684288 -0.31349874
000070 1e 3b a3 be 4b ed c5 3e ac 26 f1 be 13 5c 70 bf
       -0.3188104 0.38657603 -0.47099817 -0.93890494
000080 e4 65 f3 be a7 ab c4 bc 6c 3f 8e bd d0 4f b8 3e
       -0.47538674 -0.024007631 -0.069456905 0.35998392
000090 82 f0 24 bf da d2 c2 be c4 f8 4f 3f c0 bc 47 3f
       -0.64429486 -0.38051492 0.8123896 0.78022385
0000a0 03 a4 8b be 2c 57 6c 3e c4 76 6c bd b5 7b 67 bf
       -0.2727357 0.23080128 -0.05773045 -0.90423137
0000b0 28 4b 9e be 5e e8 57 bf a1 7e 6d 3b 0e 8a 74 3f
       -0.30916715 -0.8433894 0.0036238807 0.95523155
0000c0 10 92 0c bf fa 33 09 3f f0 48 00 3f af 93 66 be
       -0.54910374 0.53594935 0.50111294 -0.22517274
0000d0 1c 47 50 bd 28 6c ce 3d bf 9f 60 be fa 20 df be
       -0.050849065 0.10079223 -0.21935938 -0.43579847
0000e0 95 2d 37 bf b6 3a 40 be 9f 6a da be 80 d2 05 bd
       -0.7155393 -0.18772396 -0.4265947 -0.03267145
0000f0 5f 53 cf 3d 24 61 38 be 86 aa 3c bc df 70 a9 be
       0.10123324 -0.18005806 -0.011515265 -0.33093926
000100 67 62 36 3e e9 48 5a be c7 42 1f be 54 da f6 3d
       0.17810975 -0.21316876 -0.15552817 0.120533615
000110 35 1a f6 3e 66 4a 31 3d f6 81 f0 bc 50 8a 19 be
       0.4806687 0.043283843 -0.029358845 -0.14994168
000120 16 8a 2a bf 0c ce 83 bd cf 53 60 3e e9 dd 44 bf
       -0.6661695 -0.06435785 0.2190697 -0.7690111
000130 1a 24 18 3e ef cb 2c 3f 0e 13 56 bf 5c 18 8b 3d
       0.14857522 0.6749868 -0.83622825 0.067917556
000140 a6 b1 68 3e 15 ea 1d 3e 7e 95 48 3e 96 8a 62 bf
       0.22724018 0.15421326 0.19588277 -0.88492715
000150 f3 aa 6f bf 4d 74 65 3e b1 94 a4 be c0 7f 57 bc
       -0.9362022 0.22407646 -0.32144693 -0.013153017
000160 8a 17 f5 be 4a 20 14 bf 9d ab 24 be 07 7d 67 bf
       -0.4786952 -0.5786177 -0.1608109 -0.9042515
000170 af 67 85 3e 4a 32 6c 3f 46 3a 5c 3d ab af 47 be
       0.26055667 0.92264235 0.05376651 -0.19500606
000180 1a c5 30 3f 48 c9 1b bf 65 4a 1d 3f 1a 84 dd bd
       0.69050753 -0.60854006 0.6144164 -0.10816212
000190 1f f4 5a 3e 90 45 62 be 8a 75 b7 3e 72 d3 9f be
       0.21382187 -0.22096848 0.35831863 -0.31216007
0001a0 61 9a 37 3f e6 29 6c bd bc 03 7a bf 66 6c a1 be
       0.7171994 -0.057657145 -0.9766195 -0.31528014
0001b0 a2 8f 85 3d 85 b8 67 be dc ad 8c bc b9 15 c1 be
       0.065215364 -0.22628982 -0.017172746 -0.37711886
0001c0 7b 4d 18 bf a4 3e 84 3f 81 d3 08 be b8 28 d3 be
       -0.59493226 1.0331616 -0.13361932 -0.41242003
0001d0 4e b1 79 bc df f0 1a bf 13 ef b7 3e af 64 d9 3d
       -0.015240027 -0.6052379 0.35924587 0.10614907
0001e0 43 57 67 bf 07 46 08 be 16 f2 df 3c 3e 21 99 be
       -0.90367526 -0.13307963 0.027337115 -0.29908174
0001f0 ab ff 0f be 9a d6 29 bf e1 23 a3 3d f8 2d 41 3f
       -0.14062373 -0.6634308 0.07965828 0.7546077
000200 f6 57 45 bf 73 78 cc be 56 00 2b be 7f 8b e9 3e
       -0.7708734 -0.39935645 -0.16699347 0.4561424
000210 4e 42 d7 3d cf 99 14 3c 5d 77 58 bf 4d 2f 53 3e
       0.105106935 0.009069874 -0.84557134 0.20623513
000220 92 21 b4 be 2c 4f 9a be d9 fc 99 bd 9e 59 2b 3d
       -0.35181862 -0.30138528 -0.0751893 0.041833512
000230 ba f2 4a 3f 97 d2 39 be 10 46 6a 3e b5 7b 49 bf
       0.7927662 -0.1814674 0.22878289 -0.78704387
000240 af 79 a7 3f a6 f0 20 3f c0 38 66 bd 0e b2 54 3e
       1.308401 0.628672 -0.056206465 0.20771047
000250 fb 1f 21 3f 00 11 06 be 13 24 6b 3d 41 30 dd 3e
       0.62939423 -0.13092422 0.05740745 0.43200877
000260 89 a7 b6 be bd 7d 7a 3f a6 bb 16 bf d9 52 a0 3e
       -0.35674694 0.9784811 -0.5888008 0.31313208
000270 f0 ee 89 bf 19 65 a2 3c 6a fb 24 bf 4b 1e 40 3e
       -1.0776043 0.019823598 -0.6444613 0.18761556
000280 74 4d 2a bf 01 ec 2c bf 3c 56 4d bf a2 a2 f8 be
       -0.66524434 -0.67547613 -0.8020971 -0.4856158
000290 df a5 96 3e d8 01 d3 3e 68 07 3f 3f 76 c3 12 3f
       0.29423425 0.41212344 0.74620676 0.573295
0002a0 29 23 e5 be 6e 72 86 bf 99 c0 b8 be 9a 07 0f be
       -0.44753388 -1.0503671 -0.3608444 -0.13967744
0002b0 83 0d 1d bf f0 95 10 bf 5d e4 09 3f 68 2a af be
       -0.6134874 -0.56478786 0.5386408 -0.3421204
0002c0 48 a9 0a 3d b7 5a 1a 3d 2a 83 a9 bf 71 46 07 3f
       0.033852845 0.03768417 -1.3243153 0.5284186
0002d0 e0 79 6f 3f df 33 26 bf dd 78 7a be 99 ef a7 be
       0.9354534 -0.649229 -0.24460168 -0.32799986
0002e0 12 75 3e bd 44 c0 0d 3f 15 a5 d2 bd a1 a8 17 bf
       -0.046498366 0.553715 -0.10285393 -0.5924168
0002f0 7a 45 2a bf d4 66 88 3e d9 4c 70 be fd e1 35 bf
       -0.6651226 0.26640952 -0.23466815 -0.71047956
000300 19 7e 2f 3d 40 f9 9a 3e 49 e8 d5 3e eb 5b 4c bf
       0.042844865 0.30268288 0.41778782 -0.79827756
000310 84 6e 53 bf 7e f1 16 bf 4f a7 bf bd 35 0e ec be
       -0.8259051 -0.5896224 -0.093580835 -0.4610459
000320 b0 95 c8 3b 22 7d ec be 96 33 d6 be 9f 68 2c bf
       0.0061213598 -0.4618922 -0.41836232 -0.6734714
000330 20 a8 13 3e 33 9c d4 3e 56 77 2d bc f8 a9 67 be
       0.14419603 0.4152542 -0.010587534 -0.22623432
000340 4f 45 26 bc 19 00 ec be fa cd 99 3f 63 0e 89 3e
       -0.01014836 -0.46093825 1.2015984 0.2676879
000350 1d 5d 4f 3f 4e c0 d8 3d ca 5b 06 bf 15 18 87 be
       0.81001455 0.10583554 -0.5248381 -0.2638556
000360 b2 da 32 be 67 f2 60 3e 52 84 46 bf 4f 1f f4 be
       -0.17466238 0.21967469 -0.77545655 -0.47680137
000370 35 aa 8c 3c f1 af 92 be 69 ca 77 3f 61 08 62 3c
       0.017171005 -0.28649858 0.9679323 0.013795943
000380 02 83 65 be b2 33 85 3f 4c f3 9b 3e 32 e9 0f bf
       -0.22413257 1.0406401 0.30459058 -0.562152
000390 b7 80 6f 3f d9 fd 94 be c6 7c 57 3f ae 7a 97 be
       0.9355578 -0.2909992 0.84174764 -0.29585785
0003a0 72 f6 fa be 0b 60 1b 3e 15 51 34 bf 62 7b 27 3c
       -0.49016148 0.15173356 -0.7043622 0.010222288
0003b0 48 fd a2 be 94 26 92 be 26 92 5d bf 84 88 f6 be
       -0.31833863 -0.28545058 -0.8655113 -0.48151028
0003c0 f4 0a e6 3e ed 87 fd bc 86 64 13 3f 7a 67 be 3d
       0.44930232 -0.030948604 0.5757526 0.0929708
0003d0 32 a0 92 be 2e 79 54 3f f7 34 5c 3d 84 92 8c be
       -0.28637844 0.82997406 0.05376145 -0.27455533
0003e0 4d a0 5f bf 1d 29 d9 3d b8 44 08 3f e8 4d ff 3d
       -0.87353975 0.10603545 0.53229856 0.12466031
0003f0 76 ce 9e be 86 ed 0e bf 26 d3 a3 be fa f7 54 be
       -0.31016892 -0.5583118 -0.3199703 -0.2079772

cos_embedding.weight f4 [256, 64]
000000 99 ac 60 be d2 11 23 3e a3 45 0f be 0f d8 55 3d
       -0.21940841 0.15924767 -0.13991408 0.052208003
000010 7c a4 41 be 10 69 ee 3c f5 ff 3e be 43 94 87 3d
       -0.18910402 0.029102832 -0.18652327 0.066200756
000020 15 17 ec bd 25 69 fc 3d f4 4c 9e bd 9d 4e fc 3d
       -0.1152784 0.12324742 -0.077295214 0.12319682
000030 fb c9 7f bb 71 a0 59 3e 82 ee fd 3d cf da 80 3e
       -0.0039030302 0.2125261 0.123990074 0.25166938
000040 5a 18 17 3e 46 87 33 3e 73 4d a5 3d 4a db 36 3e
       0.14755383 0.17532071 0.08071413 0.1785709
000050 3b 21 18 3e 0d 4a 47 3e e7 44 11 3e bc 65 19 3e
       0.14856426 0.19461842 0.1418644 0.14980215
000060 6f 15 ee 3d 0f b5 81 3d 9a 4e 84 3d 83 2d 1f 3c
       0.11625182 0.06333362 0.064603046 0.009715441
000070 dc 2b 93 3c 8f 9c a5 bd 73 e3 57 bd 50 f8 20 be
       0.01796525 -0.08086502 -0.052707147 -0.15719724
000080 2b 4f c7 bd 0b b9 4c be f1 0a ec bd eb f8 5a be
       -0.09731897 -0.19992463 -0.115255244 -0.21384017
000090 de 6f 03 be bf d3 48 be b7 6c 00 be 02 22 2e be
       -0.12835643 -0.19612025 -0.12541471 -0.1700516
0000a0 5e bc 97 bd 17 b7 09 be 2b 71 5d bd f5 01 cf bd
       -0.07408975 -0.1344875 -0.054063004 -0.10107795
0000b0 c2 2e e6 ba 23 f6 e2 bc b9 07 e4 bb 18 92 8b ba
       -0.0017561542 -0.027705258 -0.0069589284 -0.0010648398
0000c0 fc 69 d1 3c 4b 85 22 3d f7 ef 54 3d f4 d3 9b 3d
       0.025563233 0.0396779 0.05198666 0.07608786
0000d0 4a 95 4d 3d 0a 6e aa 3d 7c a6 68 3d 12 20 be 3d
       0.0501912 0.083217695 0.056799397 0.09283461
0000e0 49 17 1b 3d 95 05 bd 3d ef 16 2d 3d 7a b4 76 3d
       0.037864003 0.0922958 0.0422582 0.06023071
0000f0 5a 11 cd 3c 44 54 8a 3d 9a 4a 08 3d 37 ff e2 3c
       0.025032688 0.06754354 0.03327427 0.027709587
000100 f3 da 52 3e ff f0 03 3f 46 5d 29 3e f8 1b 01 3f
       0.20591335 0.51539606 0.16539487 0.504333
000110 b4 89 cc 3d fa 10 9f 3e 6f bf eb 3d 63 df 8a 3e
       0.09987202 0.3106764 0.115111224 0.27123556
000120 81 fa 83 bc 96 94 75 3e 69 1f 42 3d d0 fa 44 3e
       -0.01611066 0.23982462 0.047393236 0.19236302
000130 3f ee 27 3c 5f a6 f9 3d 5a d0 7c bd af 75 3f 3e
       0.010249673 0.12189936 -0.061722137 0.18697236
000140 4b 2f 82 3c 11 54 94 3d 02 66 1d bc 20 2d fb 3c
       0.015891692 0.07242597 -0.00960684 0.030661166
000150 9f 87 d1 bc 14 a5 03 3d 60 96 ba 3c 01 07 13 bd
       -0.025577364 0.032139853 0.022776783 -0.03589535
000160 c2 81 f9 bc af 87 ef 3b 57 36 43 bd 4f 92 4f 3c
       -0.030457381 0.007309876 -0.047659244 0.01266916
000170 b8 95 17 bd df f3 71 bd 3c c6 ab bb 4e 2b f8 bc
       -0.037008017 -0.059070464 -0.0052421372 -0.030294087
000180 75 0a a6 bc 7c b5 be bc 93 15 67 bd cb 84 cd 3b
       -0.020268658 -0.023279898 -0.05641706 0.0062719337
000190 7e 56 2a ba 3d 81 f3 bc 69 72 84 bd 51 84 ca bc
       -0.00064978737 -0.029724712 -0.064671345 -0.024721297
0001a0 14 2a 3e 3b 07 e9 6a 3c 94 eb 9a bc 18 8d 23 bd
       0.002901678 0.014337785 -0.01891116 -0.03992948
0001b0 5a c5 5d bc b0 f6 5c bc 6d 83 33 3b 91 d0 05 bc
       -0.013535822 -0.013486549 0.0027391568 -0.008167402
0001c0 96 9f a3 bc 55 6f cc 3c 9c cb 55 3c 65 a1 49 bc
       -0.019973557 0.024955431 0.013049033 -0.012306546
0001d0 4a 3d c4 bc a5 61 8b 3c 3a df 40 bb c6 d3 08 3d
       -0.023955006 0.017014334 -0.0029429928 0.033405088
0001e0 52 7b 0a bd f5 40 98 3a 13 4c df bc 00 6c 8e 3c
       -0.033809014 0.0011616038 -0.027257955 0.017385483
0001f0 09 68 20 bc 64 03 7c 3c 92 9c 2d 3d de 25 15 3d
       -0.009790429 0.015381668 0.042385645 0.036413066
000200 7b 19 d5 be fd d9 26 bf 92 43 90 be 0f f4 26 bf
       -0.41621003 -0.65176374 -0.28176552 -0.65216154
000210 c2 a4 87 be 63 73 20 bf 64 0e 73 be 42 d7 17 bf
       -0.26492888 -0.62676066 -0.23735958 -0.5931283
000220 d4 7f 50 be 76 b4 07 bf 42 e1 1e be 73 b3 e3 be
       -0.20361263 -0.53009737 -0.15515617 -0.44472846
000230 7d 5a ca bd 51 59 c3 be 7a 2b 7a bd ab bc a6 be
       -0.098805405 -0.3815408 -0.06107662 -0.32565817
000240 de 55 0a bd 68 4f 8b be 45 79 89 bb 6a c6 70 be
       -0.033773296 -0.2720902 -0.0041953647 -0.23513189
000250 f1 64 1b 3c ab 0e 43 be 5e 6e e5 3c 5b 01 14 be
       0.0094845155 -0.19048564 0.028006729 -0.14453642
000260 67 de 83 3d 57 c1 ad bd 4e 4d b8 3d 42 fc 46 bd
       0.06438904 -0.08484142 0.0899912 -0.048580416
000270 ef d0 e1 3d b0 cb 80 bb 51 ee 04 3e 8b ef 7c 3c
       0.11026179 -0.0039305314 0.12981535 0.015437971
000280 0d 1e 07 3e 60 c5 20 3d eb 18 08 3e 50 a8 35 3d
       0.13195057 0.03925073 0.13290755 0.04434997
000290 ec bb 0d 3e c9 f8 72 3d e2 b3 14 3e d8 11 9d 3d
       0.13841218 0.05931929 0.14521745 0.07669419
0002a0 8b 5a 0a 3e 05 95 9e 3d 04 28 0e 3e a0 4b 9c 3d
       0.13511102 0.07743267 0.13882452 0.07631612
0002b0 8a 84 fa 3d 7f a3 87 3d 02 42 f6 3d 11 60 87 3d
       0.12232311 0.06622981 0.12024309 0.0661012
0002c0 8e ac d0 3d 48 8c 4a 3d 35 61 b5 3d 07 cb 47 3d
       0.10189162 0.04945019 0.088564314 0.048777606
0002d0 42 23 a4 3d e8 50 1c 3d 04 e4 8c 3d 1c 69 ef 3c
       0.080145374 0.038163096 0.06879428 0.029224925
0002e0 d9 60 80 3d 64 20 05 3d bf 2b 3e 3d 8a bc ac 3c
       0.06268472 0.032501593 0.04642844 0.021085996
0002f0 1a 37 b1 3c f7 08 60 3c 62 60 7e 3c d6 8e f9 39
       0.02163272 0.013674012 0.015525909 0.00047599402
000300 55 c5 99 3e d7 d2 c9 be e2 64 6d 3e b1 7e b7 be
       0.30033365 -0.3941867 0.23183015 -0.35838845
000310 a5 25 2e 3e a8 20 8d be d8 82 2c 3e dd b9 5e be
       0.17006548 -0.27563977 0.16846788 -0.21750589
000320 b5 75 12 3e 8d c3 3b be 4e a8 a0 3d fe 2a 2e be
       0.14302714 -0.18336315 0.078446016 -0.17008588
000330 43 01 42 3d 0d de 0c be f3 b4 d6 bb ae df ae bd
       0.047364485 -0.1375658 -0.0065523325 -0.08538757
000340 5e fd 57 bc 2a 29 5c bd fb 2f d6 bc 68 13 b3 bc
       -0.013182966 -0.053750195 -0.026145926 -0.02185984
000350 42 7d 2f bd 9b 6d cc 3c 70 24 4b bd 26 ad d5 3c
       -0.042844065 0.024954608 -0.049595296 0.02608354
000360 c5 b2 56 bd 93 47 36 3d df 4a 94 bd da 94 2f 3d
       -0.05241658 0.044501852 -0.07240843 0.042866565
000370 52 52 52 bd a2 e1 83 3d fb 5e 35 bd 8d 8c 48 3d
       -0.051348038 0.064395204 -0.044280034 0.048962165
000380 38 84 05 bd 18 9d 29 3d 0c 04 8f bc 69 2f 33 3d
       -0.032596797 0.041409582 -0.017457984 0.043746386
000390 67 6f cb bb 84 73 0b 3d e6 36 2d 3c 9a 0a 44 3c
       -0.0062083486 0.03404571 0.010572171 0.011965418
0003a0 6b 57 b8 3c e7 88 32 3c 68 3e 10 3d 6a d6 90 3b
       0.022502622 0.010896898 0.035215765 0.0044200914
0003b0 25 e8 18 3d b4 b4 16 bc d8 1e 2c 3d a3 71 3c bb
       0.037330765 -0.009198356 0.042021602 -0.0028754256
0003c0 fb fe 0b 3d 2d 95 45 bc a7 a5 10 3d 15 0d f8 bc
       0.034178715 -0.012059492 0.03531423 -0.030279675
0003d0 33 4d 7f 3c 17 76 0c bd b5 f9 fb 3a 75 05 13 bd
       0.015582371 -0.034292307 0.0019224199 -0.035893876
0003e0 88 b3 26 ba 6e e7 2a bd e0 bd 40 3b 08 01 c1 bc
       -0.00063591497 -0.041724615 0.002941005 -0.023560062
0003f0 a3 d4 14 3c 52 8c 02 bc 7e 3c e3 3b a2 44 dc 3a
       0.0090839 -0.007968025 0.0069347015 0.0016805122

cos_embedding.bias f4 [256]
000000 b9 af c2 3f c8 28 f9 3b eb f8 23 40 dd d1 94 3f
       1.5209876 0.0076037385 2.5620677 1.1626545
000010 0b 28 2b 40 9e a2 b7 3f 28 aa a0 3e 25 66 5d 3f
       2.674319 1.4346502 0.3137982 0.86483985
000020 b7 2d 18 40 9c 23 a0 3e 48 24 dd bd f4 39 de 3e
       2.3777902 0.31277168 -0.10797936 0.4340359
000030 80 9b dd 3f dd 78 32 be 74 91 95 3e 48 c3 cb 3f
       1.731308 -0.17428918 0.29212534 1.591897
000040 b8 a1 48 40 a6 e9 99 3f 0e 8c f1 3f c2 5c 4f 3f
       3.1348705 1.2024429 1.8870866 0.8100091
000050 f5 8b f9 3f 0a 5a 45 40 6f cb 39 3f 29 6d 39 40
       1.9495836 3.0836205 0.7257604 2.8972876
000060 1d e5 a0 3e db f3 b9 3f ee 6a 2e 3f 49 54 a9 3f
       0.314248 1.4527544 0.6813191 1.3228847
000070 72 a8 e1 3e f7 ef 2b 40 93 d5 c0 3f f3 56 39 3f
       0.44073826 2.6865213 1.5065178 0.723983
000080 7e 2d ab 3f 53 3b a4 3f 79 96 03 40 1c 91 4a 3f
       1.3373258 1.2830604 2.0560591 0.7912767
000090 2f 23 7e 3e 05 e6 b6 3f 40 4b 04 40 70 20 d5 3f
       0.24818109 1.4288946 2.067093 1.6650524
0000a0 c9 3c 5f 3e a9 78 9c 3e d6 0b 03 40 39 fd 16 3e
       0.21800531 0.30560806 2.0475974 0.14745034
0000b0 96 a2 8b bd bd e6 eb 3f 69 43 6a 40 8a a5 81 40
       -0.0681812 1.8429791 3.6603644 4.0514574
0000c0 0f fe 14 40 d6 89 1b 40 62 92 af 3f a3 85 53 3f
       2.3280065 2.4302878 1.3716547 0.8262579
0000d0 26 65 95 3e 5d a6 fc 3f d7 04 03 40 0b bb c1 3f
       0.29178733 1.973827 2.0471704 1.5135206
0000e0 1f 1c bb 3f e5 1b df 3d e5 85 d7 3f 41 3e 16 40
       1.4617957 0.10893992 1.6837736 2.3475497
0000f0 6e 57 42 3c 34 d6 f5 3d 93 3c 8d 3f 20 44 1a 40
       0.011861665 0.12003747 1.1034111 2.410408
000100 b3 35 a0 3f dc d4 3b 3e 33 d3 ad 3f cc a6 bc 3f
       1.2516388 0.18342918 1.3580078 1.4738402
000110 54 ae b3 3f f9 d1 e2 3f fb 33 dd 3f f6 8e 77 3f
       1.4037576 1.7720329 1.7281488 0.96702516
000120 6c 8d 22 40 15 95 92 3f 78 08 c4 3f 0b 35 06 3c
       2.5398817 1.1451746 1.5315084 0.008191357
000130 38 06 0c 3d 32 6a 2a 40 7c 61 54 3f c2 4b b0 3f
       0.03418562 2.6627316 0.8296125 1.377312
000140 98 d2 09 40 90 7b 8e 3c c4 d7 06 40 28 85 83 3e
       2.1534786 0.017392904 2.1069193 0.25687528
000150 98 70 3d 3c 1e f8 aa 3f f0 10 eb 3f 28 e0 07 3f
       0.011562489 1.3356969 1.8364544 0.5307641
000160 5a 44 11 40 45 42 ed 3f 13 f1 16 3e 4c e0 a2 3f
       2.2697968 1.8535849 0.147404 1.27247
000170 53 2d 2f 40 26 d0 81 3f 41 44 2e 3d ce a1 19 40
       2.7371414 1.0141647 0.04254556 2.4005008
000180 41 cb 45 3f f4 b5 be 3f 9d ae 6f be 23 39 99 3e
       0.77263266 1.4899278 -0.23406453 0.29926404
000190 8a 9e 87 3f 37 6f bf 3e 04 3a c7 3f 36 eb 28 3f
       1.0595257 0.37389538 1.556458 0.65983903
0001a0 38 0f 14 40 76 d8 f3 bd c0 48 4e 3f a9 26 80 3f
       2.3134289 -0.11906521 0.8057976 1.0011798
0001b0 80 87 09 3f 9e 09 96 3f 66 da 97 3f 60 25 d8 3f
       0.5372238 1.1721685 1.1863525 1.6886406
0001c0 33 df 7b 3f 60 47 bd 3f ea a3 1f 40 96 a5 43 3f
       0.9838745 1.4787407 2.4943795 0.7642454
0001d0 b9 55 e4 3f 92 32 c5 3d 39 70 6b 3f 72 3f ec 3e
       1.783866 0.09628786 0.91968113 0.46142155
0001e0 1d 96 3d 3c 89 92 ec 3e 5d c0 25 40 41 40 14 40
       0.011571434 0.46205547 2.589866 2.3164217
0001f0 a7 65 2d 40 21 9f e2 3f 0a 75 15 3f f4 04 a5 3f
       2.7093294 1.7704812 0.5838171 1.2892137
000200 7d 7a d2 3e 92 38 b5 3f 00 04 44 39 2c 99 60 3f
       0.41109076 1.4157889 0.00018693507 0.8773372
000210 0d 89 51 3f b9 63 93 3f d7 47 42 40 c4 b6 09 3f
       0.8184975 1.1514808 3.0356348 0.53794503
000220 c2 27 15 40 3b e8 ea 3e c2 c7 95 3f dd 79 69 3f
       2.3305516 0.45880303 1.1701586 0.91201574
000230 bc 0b 84 40 61 0b ae 3f 51 26 18 3f 4b ae 21 40
       4.1264324 1.3597223 0.59433466 2.526263
000240 be 7c 15 40 71 e6 38 40 9c 4f f8 3f ef 90 f4 3f
       2.3357387 2.889065 1.9399295 1.910673
000250 cc 2f 31 40 30 d4 2c bc 5a 9a 30 40 d9 8c e4 3f
       2.7685423 -0.010548636 2.7594209 1.7855483
000260 94 a3 b4 3e 1c 85 22 40 09 aa 63 3f 05 d4 91 3f
       0.3528105 2.5393744 0.8893133 1.1392828
000270 a3 70 97 3e c1 81 03 40 b3 90 b8 3f d4 93 05 40
       0.29578122 2.0547945 1.4419159 2.0871477
000280 d4 78 96 3f 23 1a 52 3e f4 84 2c 3f 29 ae 3f 3f
       1.1755624 0.20517783 0.6739037 0.7487512
000290 76 4a e8 3f 0b 65 b2 3f 4c 99 2c 40 9e bb 8b 3f
       1.8147724 1.3937086 2.6968565 1.0916631
0002a0 fc 0d 41 40 6f 80 61 3f 69 1d ae 3d f6 25 40 3f
       3.0164785 0.880866 0.08501703 0.75057924
0002b0 35 f4 fc 3f 43 ca 10 3f c5 77 65 40 0e 02 bb 3f
       1.9762026 0.56558627 3.5854352 1.4610002
0002c0 94 05 97 3d e3 5e d7 3f f9 e8 e3 3f 34 b9 ca 3f
       0.07374111 1.6825832 1.7805473 1.583777
0002d0 e9 80 08 40 3a cd b3 3f a7 22 cb 3f a2 2c 16 40
       2.132868 1.4047005 1.586995 2.3464742
0002e0 6b 8d e3 3f 63 85 67 3f 3a 72 d8 3f 02 de d1 3f
       1.7777532 0.90437907 1.6909859 1.6395876
0002f0 45 7f 8f 3b 06 88 6e 3f 41 a8 da 3f a1 2a 02 40
       0.0043791854 0.93176305 1.7082597 2.0338519
000300 47 7c f8 3f 15 dd 10 3f 01 99 d1 3f 47 28 e5 3f
       1.9412926 0.56587344 1.6374818 1.7902917
000310 31 a1 f3 3e 21 38 0f 3f cc 47 15 3d 29 95 cb 3c
       0.47583917 0.5594502 0.036445424 0.024851399
000320 b4 ff 23 40 3e 4d 0e 3f 84 cc a1 3f 7b 12 d9 3f
       2.5624819 0.5558661 1.2640538 1.6958765
000330 8d 6e fb 3f b4 ad 1c 3f f0 7d 1d 40 68 e2 0c 40
       1.9643112 0.6120255 2.4608116 2.2013187
000340 20 ce 6c 3c d7 92 d5 3f da a3 90 40 ac eb 91 3f
       0.014453441 1.6685437 4.5200014 1.1400046
000350 63 83 74 40 33 5e f6 3f 81 69 c8 3c 8f f0 40 3f
       3.8205192 1.9247497 0.02446437 0.75367063
000360 1d 30 40 3e 5f d0 2d 3f ea e9 c5 3f 6c dd 26 40
       0.18768354 0.67896074 1.546201 2.6072645
000370 18 de 24 40 79 08 51 3f 69 76 e1 3f 92 b7 d9 bd
       2.5760555 0.81653553 1.7614261 -0.106307164
000380 76 b8 93 3e c1 92 ed 3f 97 3a f7 3f f6 1b ba 3f
       0.2885167 1.8560411 1.9314755 1.4539783
000390 08 b1 29 40 31 70 c3 3f bc 96 ad 3f 2a ae 05 40
       2.6514301 1.5268613 1.3561625 2.0887551
0003a0 53 ac 23 bd c7 7c aa 3f ef 57 06 40 f4 d4 94 bc
       -0.039959263 1.3319329 2.099117 -0.01816795
0003b0 25 32 74 3f 85 b0 72 bd ee 86 34 40 88 a4 38 3f
       0.95389014 -0.059250373 2.8207355 0.72126055
0003c0 b6 ef 0b 40 ea 16 0c 40 a7 75 19 40 5d b9 72 3f
       2.1865058 2.1888986 2.397806 0.9481409
0003d0 18 31 9d 3f 85 fc 3a 3f 2e 35 cb 3f 3b 5b fc 3f
       1.2280607 0.73041564 1.5875604 1.9715341
0003e0 89 14 3f 3f 9d a5 d2 3f df 33 de 3f c3 74 36 40
       0.7464071 1.6456791 1.735958 2.8508766
0003f0 cc 00 5f 3f 5e f0 c9 3d 41 37 c9 3f 75 d4 b3 3f
       0.8711059 0.098602995 1.5719987 1.4049212

ff_1.weight f4 [256, 256]
000000 3d de 79 be ed 25 2e bd 2a 35 be be 1b bc 64 be
       -0.24401183 -0.042516638 -0.37149936 -0.22337382
000010 72 d6 b5 be 54 73 9a bf 52 6d cb bd a2 e2 43 bc
       -0.3551517 -1.2066445 -0.099329606 -0.011955889
000020 e1 48 16 3e f9 ca 0c 3e 76 8e 56 be d5 43 43 bd
       0.14676239 0.13749303 -0.20952782 -0.04767211
000030 cc 7d 03 3e 19 c0 d9 bd 19 b3 60 3e c6 05 3b be
       0.12840956 -0.10632343 0.2194332 -0.18263921
000040 2d 56 a9 3e 3b cf b4 3d 86 dc 9f bc 09 85 b0 3d
       0.3307356 0.088285886 -0.019514333 0.086191244
000050 9f 2a 1e 3d a4 98 90 bf 00 46 02 be 67 dd 68 be
       0.038614865 -1.1296582 -0.12722015 -0.22740708
000060 3a 8c c0 bd 65 b1 7a be 8d f5 28 bf f2 d3 d7 3d
       -0.09401746 -0.24481733 -0.6599968 0.10538472
000070 8c 8a dc 3c 23 78 8b be bc 7d 07 bf ed 54 1b 3e
       0.026921533 -0.27240095 -0.5292623 0.15169115
000080 85 99 9b be 0d 30 5b 3e cf c8 14 be 2d 55 69 be
       -0.30390564 0.21405049 -0.14529727 -0.22786398
000090 b6 52 96 3d 0d dc 61 bd dd 41 b6 3b f4 e9 0a bd
       0.073399946 -0.055141497 0.0055620507 -0.03391452
0000a0 6f e4 c4 bd 24 5e ba bd ce 01 a9 3e 61 c9 2b 3e
       -0.09613883 -0.09099987 0.3300919 0.16776039
0000b0 cc 7a c6 be 5c 98 c0 be a1 78 e8 be ad d7 82 bf
       -0.38765562 -0.3761624 -0.45404533 -1.0222069
0000c0 42 85 13 bf 8b 24 7c bc 06 99 2e bf 66 65 0b bd
       -0.5762521 -0.015389572 -0.68202245 -0.034032248
0000d0 7d d6 28 3e 64 11 e5 be 78 b9 f8 3d f2 3f 08 3e
       0.16488071 -0.4473983 0.1214475 0.13305643
0000e0 3c ad a1 3e 8b 93 38 bd d3 62 9b be d2 72 42 be
       0.3157748 -0.045062583 -0.30348834 -0.18989113
0000f0 c5 8d 22 3d 69 6d 98 3d a1 39 57 3d 96 4e 0f bf
       0.039685983 0.07442743 0.052545194 -0.5597929
000100 b5 3c bc 3d af 97 1a 3d 99 49 a7 bc d6 91 35 3b
       0.091912664 0.037742313 -0.020420836 0.0027705333
000110 c1 ad 67 bf c3 ad 02 bf 1b e0 58 3e 8b 44 05 3e
       -0.904995 -0.5104639 0.2117924 0.13014428
000120 76 07 f3 be 91 ac 03 3f c0 52 cd be ad 57 2e bd
       -0.4746663 0.5143519 -0.40102196 -0.042564083
000130 b0 16 dd 3c 6b f6 1a c0 2a 02 cb 3d 22 9b 7c be
       0.026988357 -2.4212902 0.09912522 -0.24668553
000140 1f 72 43 bf 2c ec ce 3c 7e 75 be 3d 5b fe b7 3d
       -0.7634601 0.0252591 0.092997536 0.08984061
000150 1c aa af be 2f 46 68 3f 2c fd 12 bf 54 dd ac bd
       -0.3430947 0.9073209 -0.5741756 -0.084406525
000160 0c e3 c9 be 3e 71 80 be 6a ac b4 bd c7 33 63 3e
       -0.39431036 -0.25086397 -0.08821948 0.2218772
000170 3e 54 a4 3e 6e 5e 6f bf b6 f4 0f 3f 4d c5 b1 3d
       0.32095522 -0.93503463 0.56232774 0.0868021
000180 e9 1e 06 bf f2 f4 04 3f cb 61 93 3d 55 d2 54 bc
       -0.52390915 0.51936257 0.07196387 -0.0129896
000190 a8 24 43 be 78 6b e4 bd dc ba 34 3c 78 8e b3 bf
       -0.19056952 -0.111533105 0.011030879 -1.4027853
0001a0 4f 01 a7 be 26 33 99 bc a6 41 a2 3e 3e 41 ad be
       -0.32618186 -0.018701147 0.3169071 -0.33838838
0001b0 06 0e 7a be 61 66 69 be f3 4f 91 be 89 1b 54 3d
       -0.24419412 -0.2279296 -0.2838131 0.051784072
0001c0 f1 73 83 3e ed 65 c2 3d ee 43 b5 be 8a d4 9b be
       0.25674394 0.09492097 -0.3540339 -0.30435592
0001d0 b1 01 20 bd 25 a6 44 3e fd 26 5b be a3 9a e9 be
       -0.039064113 0.19204004 -0.21401592 -0.4562579
0001e0 ba 1d 53 be 55 9e 4b 3d ec 40 34 bf 28 9e 14 bd
       -0.20616809 0.049711544 -0.7041156 -0.036283642
0001f0 59 29 2e be 0a cc d8 3e 40 bd 5b bc fc d5 aa be
       -0.1700796 0.4234317 -0.01341182 -0.33366382
000200 bb 55 40 bd 98 2a 84 be b0 2c d6 3b b1 60 da be
       -0.04695676 -0.25813746 0.006536089 -0.42651895
000210 05 9a b1 3e b8 dc 52 be 19 c4 5c 3d 46 13 20 be
       0.3468782 -0.2059201 0.05389795 -0.15632352
000220 cb ac bb 3d a7 65 30 be 86 84 c6 3d e1 bb c3 bd
       0.09163817 -0.17226277 0.096932456 -0.095573194
000230 18 60 89 be 8e 60 b4 bd ef 45 a5 be ce e7 62 3e
       -0.26831126 -0.08807479 -0.32279918 0.22158739
000240 7f 4c 04 3e 97 ae 31 bf d7 3f 2f 3e 62 68 04 be
       0.12919806 -0.6940703 0.17114197 -0.12930444
000250 e0 a3 2e be 9a 33 76 3d df c4 09 3e ca 44 98 be
       -0.17054701 0.060107805 0.13454007 -0.29739982
000260 1c 5f 96 3c 13 7b 1b be f5 cb e4 3e 18 e0 74 be
       0.018355899 -0.15183668 0.44686857 -0.2391361
000270 1f 71 44 3e 86 1e 86 bf 27 18 de bf 69 da 80 3e
       0.19183777 -1.0478065 -1.7351121 0.25166634
000280 08 0e ae 3e a5 3f 3a 3d 76 46 bf 3e 0a ff ad 3e
       0.3399508 0.045470852 0.37358445 0.33983642
000290 b9 70 26 bd bf 73 80 3e c2 dc 5c bd bd a9 91 bb
       -0.040634844 0.25088307 -0.05392147 -0.004445283
0002a0 fd 14 e7 3e e6 67 14 3d 5f b0 b5 3d 5a 9d a6 be
       0.451332 0.036231898 0.08871531 -0.32541925
0002b0 d5 39 b4 3c c0 c4 d5 bd 4f 28 13 be 68 4e 60 bf
       0.022000233 -0.10437918 -0.14370845 -0.8761964
0002c0 16 94 07 3d ba d3 99 3e 62 32 f2 3d 08 13 bb be
       0.03310021 0.30044347 0.11826016 -0.36537957
0002d0 95 42 89 3d 22 22 2e 3d ff 46 a6 be 5d 62 64 bd
       0.06702153 0.04251302 -0.3247604 -0.05575787
0002e0 7d c2 82 be 2e ee 0d 3d 83 6f 16 3d 63 39 94 3d
       -0.25539008 0.034650974 0.03672744 0.07237508
0002f0 b8 be 4e 3d a5 e1 ff be 91 c5 25 bd 29 92 aa 3e
       0.050474852 -0.4997684 -0.040471617 0.33314636
000300 21 b0 55 bf e4 d9 6e 3e 8e e2 d0 bd 64 89 57 bd
       -0.83471876 0.23325306 -0.10199462 -0.05262126
000310 e2 54 6b be 82 60 d1 3d b0 f5 7c bd 0a 34 e2 3d
       -0.22981599 0.102234855 -0.061757743 0.11045082
000320 aa 81 36 3f ff 1f f0 3d 4b 7a 40 3e 30 55 a9 bc
       0.712916 0.11724853 0.18796651 -0.020670503
000330 82 e9 3d 3d 54 ff e1 bc 95 78 47 be 99 89 76 be
       0.04636527 -0.02758757 -0.19479592 -0.24075927
000340 18 94 57 3d e6 69 a5 be d1 13 e3 be 06 54 3a be
       0.052631468 -0.32307357 -0.44351056 -0.18196115
000350 60 2c 83 3e 94 15 bb bd 30 25 1d 3e 50 71 81 3d
       0.25619793 -0.09134975 0.15346217 0.06320441
000360 22 26 02 3d 56 f8 bf bd d5 b4 9d be 78 c3 90 bc
       0.031774648 -0.09373538 -0.30802026 -0.017671332
000370 7a 0d 87 3e a1 c7 d1 3c 2b 7e 02 bf a0 80 20 bd
       0.2637747 0.025607886 -0.5097377 -0.039185166
000380 5b 55 1f 3d 78 30 1d bd 9f 21 08 bf 37 6f 58 3e
       0.03889976 -0.0383763 -0.531763 0.21136175
000390 81 ab 32 3d 1e 67 26 3e e9 c2 b5 3e 4f 57 fd bf
       0.04362059 0.16250274 0.35500267 -1.979227
0003a0 49 2f 6a 3d 9c f7 d1 3d 3e 51 6c be db f5 60 bd
       0.057174 0.10252306 -0.23077866 -0.054921966
0003b0 3c 42 2a bf db cb 57 bd c5 08 96 be d9 01 f2 3d
       -0.66507316 -0.052684646 -0.29303566 0.11816759
0003c0 a9 5a a9 be 60 44 9b be a8 23 be bf 46 15 42 3e
       -0.3307698 -0.30325603 -1.4854631 0.18953428
0003d0 0a 7c 6f bf 30 63 0e be 1e 5c 68 be 68 05 ad 3e
       -0.93548644 -0.13905025 -0.2269139 0.33793187
0003e0 ee 56 e7 bd bf 41 12 bd 14 5d 5e be 1d 85 83 be
       -0.112958774 -0.03570723 -0.21715194 -0.25687495
0003f0 39 cf b1 bd 24 b0 ee 3c 5e fc 83 3a 90 20 9d be
       -0.08682103 0.029136725 0.0010069718 -0.30688906

ff_1.bias f4 [256]
000000 09 3c b2 3d 29 46 5f bd c2 b2 3a be 78 df 03 3e
       0.08702857 -0.05451027 -0.18232253 0.12878215
000010 0e b6 29 bf c9 21 5a bf 98 66 77 3e c8 cd c4 3d
       -0.6629342 -0.852078 0.2416023 0.09609562
000020 0c ee 3e bc 0d 79 8b bd 20 7d bc be af 32 85 be
       -0.0116534345 -0.06810198 -0.36814213 -0.2601523
000030 fa f2 86 3d 4b 1b 3f 3e 55 0a 94 bd 11 00 74 be
       0.06589313 0.18662755 -0.07228533 -0.2382815
000040 4d f7 bd be a5 5c 83 3e d3 53 77 3e ed 06 1c be
       -0.37102738 0.2565662 0.2415307 -0.15237017
000050 d2 7c 98 be b4 94 9f 3e a6 fd 8f 3e 73 0d ef be
       -0.2978273 0.3116814 0.28123206 -0.46689948
000060 b6 e1 0b be 43 63 a8 3d 4c 79 0c bf 3c 70 2c be
       -0.1366032 0.08222058 -0.54872584 -0.16839689
000070 38 07 6b 3e c6 ab 31 3d 40 e9 d1 3d 55 77 36 3c
       0.22951972 0.043376707 0.10249567 0.011136849
000080 9c 9c e9 3b fd 2a 88 bd 18 ca b2 3d 2c f2 ff be
       0.007129265 -0.06648824 0.087299526 -0.4998945
000090 e9 36 a5 3e 33 67 34 3f ce 2d 3f be ff 6f 0f bf
       0.32268456 0.7046997 -0.18669817 -0.5603027
0000a0 fe 51 11 3d e8 79 b7 be 8e d7 07 bf cb d3 c9 be
       0.035478584 -0.35835195 -0.53063285 -0.39419398
0000b0 69 5a 74 3c f5 5d 30 3d 33 95 1e 3e 40 7b 9e be
       0.014914134 0.043058354 0.15486602 -0.30953407
0000c0 ef ee ce 3b cc cc 9a bc 9a 16 d0 3e 82 44 af be
       0.006315104 -0.018896483 0.40642244 -0.34231955
0000d0 d1 fa 9f be 74 e6 ad 3d 32 c8 87 3c 8e b5 d2 be
       -0.31246045 0.08491221 0.016574953 -0.4115414
0000e0 f6 bd 15 bb 8b c7 a3 3e db 58 79 3d 69 c6 c7 3d
       -0.0022848821 0.31988177 0.060875755 0.097546406
0000f0 95 95 b2 bd a1 52 51 3e 22 1e a3 bd 0b c0 c1 3d
       -0.08719937 0.20441677 -0.07964732 0.094604574
000100 d6 9b c9 3d 4a d3 b5 3e 50 3a 83 be 29 dc b5 3e
       0.098441765 0.35512763 -0.25630426 0.3551953
000110 fc 45 85 3e 3a 76 13 bd b2 52 95 3e b6 29 92 3e
       0.26029956 -0.03600142 0.29164654 0.28547448
000120 c3 15 08 bf 78 44 55 be c2 ad 11 bf bd 3d 69 be
       -0.53158206 -0.208269 -0.5690576 -0.22777458
000130 a6 12 3b be 84 44 9d 3e 39 32 bf bd 7c e4 c4 be
       -0.18268833 0.30716336 -0.09335751 -0.3845557
000140 c5 fd a1 bd 8b f6 e2 bd 37 ee 0d bd 4f d5 47 bf
       -0.07909731 -0.110821806 -0.034651008 -0.7805986
000150 f9 71 58 be a5 57 20 3e 0f cf 7b 3d cb e7 86 3e
       -0.21137227 0.15658434 0.061476763 0.2634872
000160 be 57 a0 3d 7c 61 79 bd cc 6c e1 3d bd 14 43 bd
       0.078292355 -0.060883984 0.110070795 -0.0476272
000170 26 2d 5f 3e ef 72 cd be fd 74 1a be be ae 1e 3c
       0.21794567 -0.4012675 -0.1508369 0.0096852165
000180 58 ab 82 be a4 ec d5 be ae 7f e6 be 63 ad 81 be
       -0.2552135 -0.41782105 -0.45019287 -0.25327596
000190 6b fc 00 3e a9 62 9f be a8 38 56 3e 12 f0 e2 bd
       0.1259629 -0.3112996 0.2092005 -0.11080946
0001a0 0f 50 0a be 8c d4 77 bd 93 d5 20 3e 9e 2f 32 be
       -0.13507102 -0.060505435 0.15706472 -0.17400977
0001b0 1e f3 03 bf 2d 78 13 bf a5 06 62 3e 1f 32 ff be
       -0.5154284 -0.5760525 0.22072847 -0.49842927
0001c0 5a 50 9a be f4 fd d0 3e 9f c1 fd 3d 0b 24 82 bd
       -0.30139428 0.4081875 0.12390446 -0.06354531
0001d0 b1 34 99 3e 2f 19 96 be 6f 18 7c 3d b3 e4 c8 bd
       0.29923013 -0.2931609 0.06154674 -0.09809246
0001e0 10 67 0f 3d a8 fb 90 3c b6 18 ba 3e c5 fa 58 be
       0.035010397 0.017698124 0.36346978 -0.21189411
0001f0 d1 85 28 bf 28 da 81 be dc 81 89 3e bf 68 25 3e
       -0.6582919 -0.25361753 0.26856887 0.16153239
000200 d4 f0 ec bc 61 c9 30 3e 69 87 c7 be 25 3b 3d be
       -0.02892343 0.1726432 -0.38970497 -0.18479593
000210 b4 14 ad be 23 ae e6 bd 13 b8 ab 3e 82 b0 40 be
       -0.33804858 -0.11263683 0.33538875 -0.18817332
000220 78 02 34 be f9 d7 47 bd 9b 83 56 3e 14 b5 75 be
       -0.17579067 -0.048789952 0.20948641 -0.23994857
000230 de da 85 be a5 c0 4f be 13 89 58 3c c7 d8 6f be
       -0.26143545 -0.20288332 0.013216275 -0.23422538
000240 8c 42 47 3e d4 6b 52 3e 50 ab af 3e 39 1c de be
       0.1945898 0.20548946 0.3431039 -0.43380907
000250 89 02 9a be cf cd f8 bb b5 6c 95 bd f9 24 8b 3e
       -0.3008006 -0.0075928937 -0.07296125 0.27176645
000260 9c f8 41 be c2 24 d3 be 63 97 b1 3e a2 6c 8b 3d
       -0.18942493 -0.4123898 0.3468581 0.068078294
000270 89 d8 6c be d0 2f 17 3f 40 be 7e be 59 73 5a 3e
       -0.23129477 0.5905733 -0.24877262 0.21333064
000280 99 09 34 3e 6b c5 8b 3e 9d 8f 8c 3d 83 b9 62 be
       0.17581786 0.27299055 0.068633296 -0.2214108
000290 78 0f 50 3e ca d9 21 3d 8b e8 15 3e 8e 42 c4 bd
       0.20318401 0.03951434 0.1463949 -0.09583007
0002a0 0d 98 7f be 63 22 4c 3e b4 6e af bd 09 13 68 be
       -0.24960347 0.19934992 -0.08566037 -0.22663511
0002b0 6a 04 b2 be a4 0d bd 3d 12 bd c1 3d cb a2 62 3e
       -0.34768993 0.09231117 0.094598904 0.22132413
0002c0 a7 b3 1d 3d ae a5 6e 3e db 1e ce 3d 15 17 a9 3d
       0.038501408 0.2330539 0.10064479 0.08256356
0002d0 18 b3 9d be b3 81 80 bd de be 01 3e 81 79 e7 bc
       -0.308007 -0.06274738 0.12670466 -0.02825618
0002e0 41 b3 c0 3d 7f 93 94 3e e7 b6 6c be 16 18 10 be
       0.0940919 0.2901878 -0.23116647 -0.14071688
0002f0 c7 c8 81 3e 4b 44 a6 3d 07 8e 78 3d 20 db 6b bb
       0.25348493 0.081184946 0.060682323 -0.0035988763
000300 f1 3e 24 3f 08 4d 0e 3f 37 90 b1 bd e3 21 a1 3d
       0.6415854 0.5558629 -0.08670085 0.078677915
000310 0a 66 9c 3e 63 cb c7 bd 71 a0 14 3e 96 00 b6 be
       0.305466 -0.0975559 0.14514329 -0.35547322
000320 85 21 11 3d c4 94 06 3e a6 d7 0c be bf 03 0d 3f
       0.035432357 0.13142687 -0.13754138 0.5508384
000330 11 cb 46 be 25 d0 ee 3d 19 ab 24 3e 5a 9c 14 bf
       -0.19413401 0.11660794 0.16080894 -0.58051074
000340 14 53 95 3d ed 29 1e 3e db c5 12 3f 14 1e 09 be
       0.072912365 0.15445681 0.57333153 -0.1339038
000350 e4 15 2e 3f 22 fa db be f4 8f 95 3c c3 e7 ae bd
       0.6800215 -0.42964274 0.018257119 -0.08540299
000360 db 17 af 3e 19 f8 e8 bb 57 d2 4c 3e c7 7a 8a 3e
       0.34197888 -0.0071096537 0.20002113 0.27046797
000370 7d 44 93 3e 6d 26 2e 3e 90 ea 05 be 8c 06 56 be
       0.2876319 0.17006846 -0.1307776 -0.20900935
000380 71 4d a7 be 57 54 a8 3d f2 85 2a 3e 82 0b 8c be
       -0.3267627 0.082192115 0.16652659 -0.2735253
000390 44 0d 38 be 53 65 0b 3e 29 ab 19 be e9 79 31 bf
       -0.1797381 0.13612871 -0.15006699 -0.69326645
0003a0 a4 a2 29 3e 43 04 b7 3e 10 9b 70 3e b6 84 d9 3e
       0.16565949 0.3574544 0.23496652 0.42484063
0003b0 71 53 30 3d a6 7c 47 be 69 85 81 bd 7b e4 58 be
       0.043048326 -0.19481143 -0.06324274 -0.21180908
0003c0 35 44 18 3f 4f fd 48 bd c5 d0 0d be 4e 20 b3 be
       0.59479076 -0.0490697 -0.1384917 -0.34985584
0003d0 0d 23 66 3e fa f5 a4 be bb e0 43 be 89 29 0d 3e
       0.22474308 -0.32218915 -0.19128697 0.13785376
0003e0 55 5b 85 be 73 9c bb be a1 b9 70 be 5f 7e 56 be
       -0.26046243 -0.366428 -0.23508312 -0.20946644
0003f0 fd f1 b1 bd d8 be df bc fa 35 9d 3e ac 37 08 be
       -0.08688734 -0.027312681 0.30705243 -0.13302487

ff_2.weight f4 [1, 256]
000000 43 bb f1 3e f0 fe a8 3f 9a e9 82 bf d9 cc 83 3f
       0.47213182 1.3202801 -1.022754 1.029689
000010 c3 57 c4 bf b0 ba a8 bf 3d 1e 2c 3f f5 e1 e5 3f
       -1.5339283 -1.3181973 0.6723364 1.7959582
000020 23 5e d4 3f 8a d7 05 40 0b 76 2b 40 ca cf b1 3f
       1.6591228 2.0912805 2.6790798 1.3891537
000030 24 45 d3 3f 4b 93 2d 3f 4a e2 61 bf a8 cb a2 3f
       1.6505475 0.67802876 -0.88235915 1.2718401
000040 05 ba ab bf 3d 37 35 3f c2 d8 92 3f 50 55 e7 3f
       -1.3416144 0.7078741 1.1472399 1.807291
000050 ca c9 7c 3f ea c8 a1 bf 88 06 1d c0 d7 b1 51 bf
       0.98745406 -1.2639439 -2.4535236 -0.8191199
000060 4f 76 3a bf c3 d8 06 3f 64 60 80 bf 01 15 4e bf
       -0.72836775 0.526745 -1.0029416 -0.805008
000070 cb d2 0e 3f dc 98 4c bf 7a 52 f6 bf d4 61 1f 3f
       0.55790395 -0.79920745 -1.924392 0.6225865
000080 08 1c 89 3f 99 1a 93 3f ea 84 91 3f 93 88 52 bf
       1.071168 1.1492492 1.1368687 -0.82239646
000090 33 4c e5 3f d5 4d d8 3e a9 82 b9 3f 7d 83 ab bf
       1.7913879 0.4224688 1.4492999 -1.3399502
0000a0 20 1b 8a 3f 90 2a 93 bf 5e f8 2c bf 85 fe 44 bf
       1.0789528 -1.1497364 -0.6756648 -0.76950866
0000b0 97 78 67 3f c8 33 22 3f d3 55 3d 3f cb 0d 6b bf
       0.9041838 0.6336026 0.7395908 -0.9181792
0000c0 9b 7f 35 bf c7 9d c4 3f 17 c2 37 3f 5e de 09 bf
       -0.70897835 1.536065 0.7178053 -0.5385493
0000d0 76 3b 9f 3f b9 7f 74 3f e8 2d bb 3f 9f ef 9c bf
       1.2440021 0.9550739 1.4623384 -1.2260627
0000e0 64 54 1d 40 df 9c 0c 3f 32 95 97 3f cb 2c 28 3f
       2.4582758 0.54926866 1.1842406 0.6569335
0000f0 4b bf dd 3f ea 40 94 3f 60 4c 66 bf 0d 40 bd 3f
       1.7324003 1.158231 -0.8996029 1.4785172
000100 03 2f 2b 3f 35 be 4c 3f ad 62 10 bf 73 98 17 3f
       0.6686861 0.7997773 -0.5640057 0.59216994
000110 9e f4 52 3f 54 5c 76 bf 95 06 24 3f 7a b4 9f bf
       0.82404506 -0.9623463 0.64072543 -1.2476952
000120 fd 5d 00 40 73 05 25 bf 23 5c 56 bf 6e e0 14 bf
       2.0057366 -0.6446144 -0.8373434 -0.5815495
000130 e9 c6 fd be c1 e6 c6 bf 3a f0 df bf 01 1b cb 3f
       -0.4956582 -1.553917 -1.7495186 1.5867616
000140 92 da 68 bf 87 b5 55 3f 43 5c 1a 3f 96 db 32 c0
       -0.9095851 0.83480114 0.6029703 -2.7946525
000150 52 92 63 bf 12 23 af bf f8 3c 09 40 44 74 76 bf
       -0.8889514 -1.3682578 2.1443462 -0.9627116
000160 a6 0d ba 3f 7f 0c 64 bf 3f c8 84 3f 90 11 ae bf
       1.4535415 -0.8908157 1.037361 -1.359911
000170 4b 1c 9e 3f 6d f7 b2 bf 26 87 95 3f fb 49 ae bf
       1.2352384 -1.3981758 1.1681869 -1.3616327
000180 3e 77 87 bf f4 65 0e c0 03 99 1e bf 06 af 2e bf
       -1.0583265 -2.2249727 -0.6195223 -0.68235815
000190 ee 67 ea 3f a4 86 54 bf 94 a2 5a bf 58 6d a9 3f
       1.8312967 -0.83017945 -0.85404325 1.3236494
0001a0 00 91 5d bf 4b 99 69 bf 23 2c 92 bf f7 fe ca bf
       -0.8654938 -0.9124953 -1.141972 -1.5859059
0001b0 87 90 51 bf 60 38 b4 bf 30 b0 50 3f a1 b2 b1 bf
       -0.81861156 -1.4079704 0.8151884 -1.3882638
0001c0 df 7e 13 bf 8f 9a 15 3f 31 91 9c 3f 76 2d ea 3f
       -0.57615465 0.5843896 1.2231809 1.8295124
0001d0 81 88 93 3f c0 b9 05 bf 90 de f3 3e 11 75 fa be
       1.1526033 -0.52236557 0.4763074 -0.4891744
0001e0 b8 86 70 bf 60 5b 95 3f a8 05 b1 3f 92 95 4b bf
       -0.93955564 1.166851 1.3829851 -0.795251
0001f0 6f a2 5a bf 82 a8 37 bf 5c cc 01 3f dd b9 4e bf
       -0.85404104 -0.717415 0.5070245 -0.80752355
000200 ee 73 70 bf 0c 94 7e 3f b5 91 af 3f 23 22 fe be
       -0.93926895 0.9944465 1.3716341 -0.4963542
000210 70 b5 00 40 ee 46 2b bf 76 94 5f 3f 69 e2 a5 bf
       2.011074 -0.66905105 0.8733591 -1.295972
000220 83 0c d7 bf 85 b8 80 3f c6 0a dd 3f 84 62 86 bf
       -1.6800693 1.0056311 1.7268913 -1.0498815
000230 d6 c7 75 bf 6b 38 16 bf af 30 75 3f 6a 4a b3 3f
       -0.9600805 -0.58679837 0.9577741 1.4007084
000240 85 67 ad 3e ea cd 66 3f a3 d8 95 3f 90 50 54 bf
       0.33868042 0.9015795 1.1706737 -0.8293543
000250 75 f7 86 bf b7 cd 73 3f 86 9f 81 bf d9 0b cd 3f
       -1.0544268 0.9523577 -1.0126808 1.6019241
000260 ed 62 10 40 b4 62 06 c0 a4 45 89 3f 76 4c 15 bf
       2.256038 -2.0997744 1.0724378 -0.58319795
000270 eb 22 77 bf e6 fc da 3e 0b 0f 58 bf 49 83 2b 40
       -0.96537656 0.4277107 -0.84397954 2.679888
000280 00 bc cd bf 25 a5 95 bf ed e2 55 bf e9 98 cf 3f
       -1.6072998 -1.1691023 -0.83549386 1.621854
000290 07 1f 49 3f 5e ab 22 bf 07 95 2a 3f 11 38 5e bf
       0.7856297 -0.63542736 0.6663365 -0.868043
0002a0 a3 40 4a bf a4 94 48 3f f9 b5 d8 3e 5b d8 c5 bf
       -0.7900488 0.7835181 0.42326334 -1.5456651
0002b0 5d 85 13 40 4e d4 88 bf c3 d4 8a bf 0b 03 47 3f
       2.3050148 -1.068979 -1.084618 0.7773902
0002c0 7f 15 73 3f 64 1b 7c 3f 68 28 64 3f aa 53 01 40
       0.94954675 0.98479295 0.89124155 2.0207314
0002d0 f4 fe c9 3f 7a b3 9a 3f f0 45 5d 3f 56 66 9b 3f
       1.578093 1.2086022 0.8643484 1.2140605
0002e0 41 1b 6e bf 0e 1f d0 bf f0 f3 3a bf a2 2e e6 3f
       -0.93010336 -1.6259477 -0.7302847 1.7982981
0002f0 aa 95 3f 3f d2 72 64 3f 44 d1 5f 3f c1 75 65 3f
       0.74837744 0.892377 0.8742869 0.89632803
000300 da 1d d5 3e 0e e6 d2 3e 71 67 78 3f 9c 86 e1 bf
       0.41624337 0.41191143 0.9703284 -1.7619205
000310 47 58 9b 3f f8 73 34 bf ba f4 61 3f d9 04 88 bf
       1.2136315 -0.70489454 0.8826405 -1.0626479
000320 6e 51 1c bf 1f 00 bc bf b6 c4 d2 bf 3e cf 10 3f
       -0.6106175 -1.4687537 -1.6466281 0.56566226
000330 4b 2a 60 bf cb 5c 22 3f 7b 26 7b bf ca 24 2a 40
       -0.87564534 0.6342284 -0.9810559 2.6584954
000340 d5 e2 28 bf 56 27 69 bf 75 bb d4 3e ae 06 78 3f
       -0.6597112 -0.91075647 0.41549268 0.9688519
000350 15 0f e5 3e 23 94 9f 3f 92 76 66 bf 7c 8d 87 3f
       0.4473807 1.2467083 -0.90024674 1.0590053
000360 44 bc 3c 3f 61 0d 8d bf 98 64 a8 3f 42 dd 24 3f
       0.7372477 -1.1019708 1.3155699 0.6440011
000370 f8 25 0c 3f 57 50 4a bf 81 26 9e bf 00 3f 7e bf
       0.54745436 -0.7902884 -1.23555 -0.9931488
000380 dd 88 07 40 31 22 ea 3e c2 d5 f8 3f 78 e0 b8 3f
       2.1177285 0.4572921 1.9440234 1.4443502
000390 a6 c4 3d 3f 29 34 38 bf 19 df 73 bf 84 58 21 40
       0.74128187 -0.7195459 -0.95262295 2.5210276
0003a0 85 9b 8e 3f b8 8f b7 bf 5c 6c 29 3f b8 8e 81 3f
       1.1141211 -1.4340734 0.6618097 1.0121679
0003b0 39 8a 50 3f e8 14 12 40 b5 de 41 3f bd 8d 12 40
       0.8146091 2.282526 0.7573045 2.289901
0003c0 a6 2f d3 3e 16 b7 84 3f 66 33 09 bf 8e cd 28 bf
       0.4124729 1.0368373 -0.5359405 -0.6593865
0003d0 38 ec a4 3f a9 8a 90 bf 84 94 40 bf c1 3f 9b 3f
       1.2884588 -1.1292316 -0.75226617 1.2128831
0003e0 0e 43 6d bf fb 26 36 bf 6e ee 45 bf b9 45 60 bf
       -0.9268044 -0.7115323 -0.7731694 -0.8760639
0003f0 1e e8 91 3f 8f d1 2c bf 77 d4 57 3f 1b 87 77 3f
       1.1398962 -0.6750726 0.8430857 0.9669053
