runs/checkpoint_critic_2566_192021_tau1_2010.pth (torch, 356559 bytes, 7 tensors)

head.weight f4 [256, 22]
0.003265665 -0.4183525 -0.20598963 -0.43090573 0.4716237 0.36761066 -0.0077637234 0.71371305
0.3435508 0.2774231 -0.27444977 -0.035073724 -0.12393772 -0.5926642 -0.68866223 0.3138207
0.051890142 0.62211186 -0.1053134 0.5050745 2.7036383 -3.2970552 0.015963756 -0.26688278
0.117266856 0.100081176 1.5958793 0.35144886 1.0985477 0.6163093 0.17974487 -0.057299644
-0.16600695 -0.19722573 -0.2127122 -0.3478167 -0.25877783 -0.649417 1.0012093 -0.0772206
-0.059808902 0.10567443 -1.651421 -0.10147412 0.0042226017 -0.1259861 -0.28313544 -0.0731027
-0.018214766 -0.04927452 1.0031681 -4.937124 -4.8686996 -4.8425655 0.3842392 0.39565492
0.14466414 -0.20587903 0.44804722 -0.26754692 0.3425754 -0.035812784 -0.59974885 -0.19058552
-0.029268555 -0.40403625 -0.007731207 -0.48802686 0.59258956 0.089990355 -0.3981566 0.060239576
-1.224332 0.0747438 0.24996728 0.42995423 0.08645879 0.22976403 0.12970008 0.21532874
-0.19929992 -0.08383723 -0.054350063 -0.049892385 0.16435891 -0.008491321 2.9644122 4.144691
0.00021967829 0.05425763 -0.7354148 0.28076315 0.015655069 0.14522678 -0.18075177 -0.33242315
-0.54365623 -0.9499846 -0.18367307 -0.2846883 -0.104302175 0.6599832 -0.43065348 -0.10967571
0.328411 0.08328778 -1.4369675 -0.009709068 0.88438904 0.17962916 -0.0022909548 0.25610304
-0.5924363 -0.22117577 -1.1285808 0.20859374 -1.2359613 -3.530424 -3.133098 -2.3473108
0.02358473 -0.21915302 -0.20437346 -0.54598147 -0.34396282 -0.37220475 0.35043114 -0.17274882
-0.11816163 -0.95286626 1.2881157 -0.008147663 -0.003280349 -0.25561804 -0.30924422 0.06309249
-0.010880228 -0.12221446 -0.20173004 -0.8180964 -1.0695585 -0.6311276 0.42388996 0.5567007
0.2904308 -0.14366609 0.39702198 -0.54351336 0.51761836 0.6167129 -0.44181207 -0.4527812
-0.5749376 -0.19603735 0.0048788055 -0.32685724 1.0756716 0.09337423 0.81600714 -0.31658223
0.72087264 -0.43978718 -0.56033385 -0.40536758 -0.59746474 -0.4903562 -0.16104695 -0.006918005
0.12180416 0.012204629 0.21757784 0.21020542 -0.36497667 -0.0005288998 -2.313396 -8.0783205
-6.0718197e-05 0.25548422 0.3388203 -0.2104718 0.42238018 0.12254004 0.1738617 -0.24663909
-0.42420653 -0.57766896 0.17673628 0.39866772 -0.19761793 -0.60439956 0.8425515 -0.48295847
-2.3774867 -1.3259972 -2.2089179 -0.18220204 0.2888369 2.2043965 -0.009604929 0.43936452
-0.5502581 0.040995464 0.9045992 0.01951855 1.4607793 -0.10050612 0.10958926 -0.38693932
-0.064619616 -0.32869288 -0.35930714 -0.006545516 0.12165737 -0.08663403 -0.18333194 0.041136567
0.21365923 -0.54816496 -0.8517394 -0.39448774 0.0007695135 -0.24463351 0.2474839 -0.1623374
-0.07563463 0.053635485 0.6022281 -0.09281714 -0.0847323 -0.8874019 0.3568962 0.5147167
0.59237194 0.045729913 0.5770052 0.14736742 -0.42026436 -0.112837225 -0.5469918 -0.39781857
-1.225557 0.9319949 -0.0008372221 -0.0831373 0.22349241 0.18853152 -0.32186884 -0.49373746
0.90263677 -0.8253651 -0.60494006 -0.5271808 0.0048466735 -0.38511857 -0.15566401 -0.23562309
00000000: c404 563b 4d32 d6be f2ee 52be ad9f dcbe
00000010: a978 f13e 7737 bc3e d566 febb e6b5 363f
00000020: e4e5 af3e 670a 8e3e ae84 8cbe 77a9 0fbd
00000030: 0fd3 fdbd d7b8 17bf 2b4c 30bf 1bad a03e
00000040: c28a 543d b942 1f3f 8dae d7bd 904c 013f
00000050: 6908 2d40 f402 53c0 6cc6 823c dca4 88be
00000060: 9b29 f03d 5cf7 cc3d c645 cc3f 1bf1 b33e
00000070: 369d 8c3f 72c6 1d3f 0a0f 383e 08b3 6abd
00000080: bafd 29be 8bf5 49be 3ad1 59be 0815 b2be
00000090: 877e 84be 3140 26bf a027 803f d525 9ebd
000000a0: 2efa 74bd d66b d83d c361 d3bf aad1 cfbd
000000b0: c05d 8a3b 8002 01be 21f7 90be deb6 95bd
000000c0: 2237 95bc 14d4 49bd d067 803f ebfc 9dc0
000000d0: 63cc 9bc0 4cf6 9ac0 00bb c43e 4893 ca3e
000000e0: d622 143e f4d1 52be 7266 e53e e9fb 88be
000000f0: 0b66 af3e 6db0 12bd 2489 19bf da28 43be
00000100: 9cc4 efbc d7dd cebe 1156 fdbb a8de f9be
00000110: f3b3 173f dd4c b83d 2fdb cbbe c6bd 763d
00000120: e9b6 9cbf 4713 993d 6cf7 7f3e f622 dc3e
00000130: 4e11 b13d 4347 6b3e 19d0 043e 237f 5c3e
00000140: 4715 4cbe dbb2 abbd 2c9e 5ebd f55b 4cbd
00000150: b44d 283e 2e1f 0bbc eeb8 3d40 4fa1 8440
00000160: 7159 6639 403d 5e3d 2544 3cbf 30c0 8f3e
00000170: 0f3f 803c 54b6 143e fe16 39be 5e33 aabe
00000180: 0e2d 0bbf 3132 73bf cb14 3cbe aac2 91be
00000190: 619c d5bd a9f4 283f 9d7e dcbe a99d e0bd
000001a0: 7d25 a83e c992 aa3d 8dee b7bf c812 1fbc
000001b0: 5267 623f b5f0 373e d823 16bb f01f 833e
000001c0: e8a9 17bf e77b 62be 5675 90bf 9999 553e
000001d0: fb33 9ebf 78f2 61c0 ad84 48c0 573a 16c0
000001e0: c434 c13c a669 60be 4747 51be 71c5 0bbf
000001f0: e51b b0be 9f91 bebe b66b b33e 11e5 30be
00000200: bafe f1bd 0bef 73bf fae0 a43f c77d 05bc
00000210: 20fb 56bb 5ee0 82be 4255 9ebe a336 813d
00000220: fc42 32bc 934b fabd 5292 4ebe c46e 51bf
00000230: 4be7 88bf 9491 21bf 1b08 d93e f083 0e3f
00000240: 59b3 943e 341d 13be 7746 cb3e b123 0bbf
00000250: a382 043f e6e0 1d3f 3135 e2be f0d2 e7be
00000260: 1c2f 13bf 04be 48be 63de 9f3b d559 a7be
00000270: 9baf 893f fd3a bf3d d8e5 503f 1117 a2be
00000280: 1c8b 383f c92b e1be 0a72 0fbf 578c cfbe
00000290: 73f3 18bf f80f fbbe 7ee9 24be 6fb0 e2bb
000002a0: 7674 f93d edf5 473c bacc 5e3e 1740 573e
000002b0: 39de babe dda5 0aba ae0e 14c0 cd40 01c1
000002c0: abab 7eb8 d4ce 823e db79 ad3e eb85 57be
000002d0: 3742 d83e 46f6 fa3d cd08 323e f58e 7cbe
000002e0: 9931 d9be 1de2 13bf 5bfa 343e 2d1e cc3e
000002f0: 5b5c 4abe eeb9 1abf 75b1 573f 5546 f7be
00000300: be28 18c0 47ba a9bf e95e 0dc0 2c93 3abe
00000310: 6ee2 933e d514 0d40 fe5d 1dbc 63f4 e03e
00000320: b7dd 0cbf dcea 273d d093 673f 5ee5 9f3c
00000330: d1fa ba3f 27d6 cdbd 5570 e03d e91c c6be
00000340: 4a57 84bd 6f4a a8be 1bf7 b7be c57b d6bb
00000350: 8027 f93d 2f6d b1bd 5ebb 3bbe d17e 283d
00000360: 7cc9 5a3e 8a54 0cbf 980b 5abf 4cfa c9be
00000370: 2db9 493a 3581 7abe 6b6c 7d3e c63b 26be
00000380: 54e6 9abd e2b0 5b3d 9f2b 1a3f ea16 bebd
00000390: 2188 adbd c52c 63bf 19bb b63e 79c4 033f
000003a0: b0a5 173f 4a4f 3b3d 9db6 133f 7ce7 163e
000003b0: e42c d7be 3417 e7bd a807 0cbf e0ae cbbe
000003c0: 0ddf 9cbf 3897 6e3f 0679 5bba e443 aabd
000003d0: 32db 643e 680e 413e fecb a4be 28cb fcbe
000003e0: 3413 673f 214b 53bf 5add 1abf 52f5 06bf
000003f0: d8d0 9e3b 432e c5be 6366 1fbe 2e47 71be

head.bias f4 [256]
0.10182935 -0.31561866 0.75112706 -0.14162119 -0.15773854 0.09019669 0.43912625 -0.6471247
-0.04533865 -0.66649985 0.8494531 -0.73202837 0.5308527 0.17835486 -1.1276482 -0.7457243
0.28789032 -0.08619158 0.24533024 -0.51457316 1.0291933 0.3701659 -0.0020293759 0.07371875
-0.36440685 -1.1788396 0.18506962 -0.37934467 -0.33347005 0.50215703 -0.48193008 -0.98075134
-0.5919737 -0.14807437 -0.18259351 0.2893699 -0.7070591 -0.41572544 0.9827878 0.7201356
-0.3404957 0.30499953 0.011323512 -0.85819393 -0.28018585 -1.0238193 -0.050354593 1.0612375
-0.70182323 0.6170219 0.5745493 -0.36686802 -0.080552906 0.08957826 -0.26298478 -0.58516985
-0.8541133 -0.18772396 -0.5514569 0.010978221 0.10123324 -0.10833326 -0.017136265 -0.45901304
0.14752528 -0.23794843 -0.18333161 0.12245713 0.46607563 0.024192473 -0.07013552 -0.18405521
-0.80237305 -0.08402812 0.38401166 -0.6038878 0.14857522 0.65086645 -0.85667056 0.15214744
0.17404187 0.15421326 -0.0307884 -0.89079624 -0.948342 0.24599318 -0.31067806 0.0031292716
-0.57383406 -0.6412452 -0.30972064 -0.96395826 0.2697192 1.0104011 0.15961634 -0.31039894
0.7710143 -0.67401135 0.88966817 0.043360896 0.31484032 -0.268849 0.4611387 -0.23882535
0.7541539 -0.057657145 -0.9905275 -0.25629967 0.11615081 -0.25072983 -0.094792984 -0.3641322
-0.71836674 1.1980444 -0.12963985 -0.32768643 0.088681005 -0.56213003 0.4409021 0.06736262
-1.0725423 -0.1635746 -0.035697576 -0.2906141 -0.19041127 -0.6020804 0.06486456 0.9309632
-0.9877366 -0.4852906 -0.16699347 0.5758181 0.2490347 0.101466 -0.97616744 0.18466453
-0.39003727 -0.17623432 -0.0751893 0.08665453 0.8213194 -0.19349778 0.17366484 -0.990815
1.483503 0.63225096 -0.11189031 0.19769087 0.6877277 -0.13092422 0.09480046 0.5410741
-0.38813582 1.1748624 -0.6154746 0.44017515 -1.1733962 -0.033974532 -0.6475823 0.07935925
-0.7773718 -0.8404867 -0.83273697 -0.52120274 0.3080801 0.54024464 0.80772537 0.668851
-0.5240688 -1.0822122 -0.62850755 -0.07771172 -0.60626245 -0.66838014 0.58628625 -0.32497773
0.033852845 0.03782367 -1.3546118 0.5797962 0.9996502 -0.6960863 -0.2909114 -0.4143856
-0.09894159 0.5307408 -0.08680359 -0.5924168 -0.6773652 0.3398477 -0.31544328 -0.7324371
-0.06875628 0.34070528 0.49604332 -0.8750154 -0.7627544 -0.5846996 -0.093580835 -0.5604452
-0.007801971 -0.4888222 -0.39134753 -0.76198244 0.115815416 0.5946985 0.1068398 -0.19534704
-0.01014836 -0.57418346 1.3067211 0.36512592 0.8132718 0.13131273 -0.38298887 -0.35827607
-0.18360725 0.1923305 -0.7806343 -0.4297467 0.11704106 -0.44161803 1.056252 0.013795943
-0.23303667 1.2913008 0.35662147 -0.55602276 0.97387046 -0.5259776 0.94425756 -0.4377383
-0.5374318 0.08966808 -0.7771757 0.010222288 -0.26786765 -0.24715365 -0.89590436 -0.41578394
0.4784103 0.0224585 0.6859711 0.12246118 -0.34282923 0.94847757 0.05190791 -0.28854382
-0.7464616 0.044869132 0.47506002 0.09374035 -0.31500778 -0.5579466 -0.36983293 -0.20831065
00000000: e88b d03d c598 a1be dd49 403f 2505 11be
00000010: 3686 21be 0bb9 b83d 28d5 e03e f7a9 25bf
00000020: 05b5 39bd bc9f 2abf c275 593f 3666 3bbf
00000030: f6e5 073f a8a2 363e c756 90bf cae7 3ebf
00000040: 5c66 933e 3685 b0bd da37 7b3e 11bb 03bf
00000050: 9bbc 833f 6386 bd3e 47ff 04bb dbf9 963d
00000060: 8993 babe 37e4 96bf e482 3d3e 7739 c2be
00000070: 96bc aabe 5d8d 003f 8abf f6be 8512 7bbf
00000080: 978b 17bf cfa0 17be cbf9 3abe 4b28 943e
00000090: d301 35bf f7d9 d4be fb97 7b3f cf5a 383f
000000a0: 7455 aebe e628 9c3e 4086 393c 99b2 5bbf
000000b0: 8574 8fbe 830c 83bf 9e40 4ebd a1d6 873f
000000c0: b0aa 33bf 26f5 1d3f aa15 133f 20d6 bbbe
000000d0: ecf8 a4bd cf74 b73d f1a5 86be b1cd 15bf
000000e0: 2ba7 5abf b63a 40be 482c 0dbf ffdd 333c
000000f0: 5f53 cf3d d4dd ddbd 5a61 8cbc c203 ebbe
00000100: de10 173e c1a8 73be 48bb 3bbe ceca fa3d
00000110: 77a1 ee3e 4b2f c63c 36a3 8fbd f878 3cbe
00000120: 5268 4dbf ef16 acbd 2d9d c43e 6498 1abf
00000130: 1a24 183e 2f9f 263f c34e 5bbf 8acc 1b3e
00000140: 0838 323e 15ea 1d3e f437 fcbc 390b 64bf
00000150: 8bc6 72bf a3e5 7b3e 3211 9fbe 7714 4d3b
00000160: cae6 12bf a528 24bf b493 9ebe f8c5 76bf
00000170: a318 8a3e d354 813f 7772 233e 9cec 9ebe
00000180: 3161 453f 028c 2cbf 4bc1 633f 329b 313d
00000190: c032 a13e 93a6 89be 5f1a ec3e a28e 74be
000001a0: 3b10 413f e629 6cbd 3693 7dbf b639 83be
000001b0: 7ae0 ed3d a95f 80be d322 c2bd 896f babe
000001c0: e2e6 37bf 8559 993f 4fc0 04be 84c6 a7be
000001d0: 639e b53d c1e7 0fbf ecbd e13e 6af5 893d
000001e0: 1149 89bf 1a80 27be 9f37 12bd 5fcb 94be
000001f0: 2cfb 42be f121 1abf b6d7 843d 9b53 6e3f
00000200: 4edc 7cbf 0278 f8be 5600 2bbe d168 133f
00000210: f402 7f3e 68cd cf3d 1ce6 79bf b318 3d3e
00000220: f7b2 c7be c576 34be d9fc 99bd ee77 b13d
00000230: fd41 523f 4824 46be 32d5 313e 0da6 7dbf
00000240: 6de3 bd3f 33db 213f bf26 e5bd 7a6f 4a3e
00000250: ec0e 303f 0011 06be be26 c23d d583 0a3f
00000260: bdb9 c6be e461 963f be8f 1dbf a35e e13e
00000270: d931 96bf e128 0bbd f4c7 25bf 1a87 a23d
00000280: d701 47bf 232a 57bf 402e 55bf 8b6d 05bf
00000290: adbc 9d3e 794d 0a3f 17c7 4e3f d239 2b3f
000002a0: 5f29 06bf ee85 8abf dfe5 20bf 5227 9fbd
000002b0: 0434 1bbf f61a 2bbf db16 163f 7b63 a6be
000002c0: 48a9 0a3d feec 1a3d eb63 adbf 866d 143f
000002d0: 13e9 7f3f b632 32bf 57f2 94be 592a d4be
000002e0: e3a1 cabd a1de 073f 15c6 b1bd a1a8 17bf
000002f0: ce67 2dbf 8500 ae3e c881 a1be ff80 3bbf
00000300: 18d0 8cbd ec70 ae3e 64f9 fd3e 0201 60bf
00000310: df43 43bf dfae 15bf 4fa7 bfbd 5679 0fbf
00000320: ada7 ffbb e746 fabe b45e c8be 4811 43bf
00000330: a230 ed3d 293e 183f d3ce da3d 0e09 48be
00000340: 4f45 26bc b0fd 12bf a342 a73f c9f1 ba3e
00000350: 9532 503f d876 063e 1e17 c4be f66f b7be
00000360: 8a03 3cbe 49f2 443e a6d7 47bf c207 dcbe
00000370: 39b3 ef3d c21b e2be 4433 873f 6108 623c
00000380: 2aa1 6ebe 5849 a53f 1797 b63e 8257 0ebf
00000390: 934f 793f 78a6 06bf ddba 713f 3c1f e0be
000003a0: 2195 09bf e6a3 b73d fdf4 46bf 627b 273c
000003b0: f325 89be d915 7dbe fd59 65bf a2e1 d4be
000003c0: 32f2 f43e e3fa b73c cd9b 2f3f edcc fa3d
000003d0: 5087 afbe 6dcf 723f 639d 543d 04bc 93be
000003e0: 1b18 3fbf b2c8 373d 113b f33e f1fa bf3d
000003f0: b348 a1be 97d5 0ebf be5a bdbe 634f 55be

cos_embedding.weight f4 [256, 64]
-0.38472226 0.035102006 -0.12993926 0.046865184 -0.08300856 0.07341497 -0.06971548 0.04742531
-0.02843755 0.044085737 -0.042551827 0.018885143 -0.049926624 0.003065376 -0.031713337 0.0075657577
-0.0029989616 0.0061982377 0.010762405 -0.027911827 0.040945753 -0.030790193 0.054216687 -0.02155893
0.072243094 -0.030639263 0.06207505 -0.037460368 0.056158476 -0.031660024 0.04688554 -0.04139189
0.036900412 -0.05484191 0.029067254 -0.03852492 0.048867635 -0.034415986 0.030304596 -0.031969503
0.022256956 -0.043536626 0.026631778 -0.022945916 0.015109725 -0.03971231 0.017645441 -0.01857341
0.013604801 -0.0072902143 0.018309806 -0.0058245067 0.032941744 0.007872283 0.01748044 0.0055614957
0.02291785 -0.0012641624 0.01899378 -0.0040770085 0.008849437 0.005103021 0.015527368 -0.0070574684
0.17448907 0.39151043 0.14772885 0.40224645 0.11591491 0.25071305 0.15638138 0.24932663
0.024552854 0.24933821 0.079780005 0.22377582 0.021916432 0.1488412 -0.0646762 0.20944238
0.0037819962 0.0972621 -0.030803083 0.059360996 -0.055179533 0.06633493 -0.0068156305 -0.0008265895
-0.049268987 0.041695803 -0.04710781 0.0414161 -0.02347731 -0.041461237 0.016411038 -0.022254018
0.0060685817 -0.023485977 -0.026824974 -0.0020073096 0.033332285 -0.048697613 -0.029945066 -0.053865645
0.033393446 -0.019467887 0.008680464 -0.07050825 0.010414498 -0.040062007 0.02018628 -0.031727582
-0.008459853 0.0032779227 0.02088105 -0.030924872 -0.015479206 0.00758489 0.008984514 0.03820939
-0.023734149 0.018930085 -0.032969955 0.04182957 -0.045704547 0.04194891 -0.027192013 0.06582321
-0.4703322 -0.58654296 -0.28115284 -0.55189013 -0.24114628 -0.51936567 -0.24224757 -0.5042197
-0.23747508 -0.50215286 -0.22557089 -0.4707367 -0.20339379 -0.41615945 -0.15118007 -0.3720146
-0.1199639 -0.30713075 -0.07329831 -0.240984 -0.04436623 -0.18538262 -0.009848388 -0.1372652
0.023083163 -0.08991378 0.047319032 -0.060378425 0.07362121 -0.032295324 0.08586034 0.0013593092
0.10145974 0.02929202 0.115475684 0.0528979 0.10802165 0.062761486 0.11780501 0.08485281
0.11396124 0.09462192 0.10727683 0.09221792 0.113070756 0.09624405 0.10055657 0.09581359
0.09700544 0.08740981 0.08413737 0.08038981 0.06806554 0.070982985 0.0648101 0.05731998
0.050684188 0.050245587 0.04474352 0.03918223 0.033289764 0.022499982 0.015365934 0.015501623
0.17118901 -0.25299537 0.1426398 -0.29340988 0.14820686 -0.27076653 0.1795943 -0.21342023
0.17184031 -0.1964832 0.17920773 -0.17420751 0.15486795 -0.14411174 0.13578075 -0.1060245
0.12497229 -0.08236185 0.10239923 -0.06728892 0.08020703 -0.042879406 0.0628065 -0.022685483
0.036979504 -0.009918507 0.026755542 -0.0025422978 0.007198192 0.012667177 -0.0045679915 0.03163033
-0.010650973 0.03583561 -0.018478975 0.049213555 -0.034289062 0.051293418 -0.04041333 0.043843824
-0.04365651 0.042011086 -0.056022186 0.040993847 -0.04176879 0.038711388 -0.04173212 0.044850487
-0.038452066 0.036126096 -0.03830978 0.041814312 -0.024620539 0.037059277 -0.020954924 0.03872057
-0.011591201 0.022065349 -0.01368504 0.024683148 -0.0100178905 0.01972207 0.0013370893 0.012496797
00000000: 51fa c4be 1fc7 0f3d cc0e 05be b5f5 3f3d
00000010: 6400 aabd 965a 963d fdc6 8ebd 0b41 423d
00000020: ddf5 e8bc 3f93 343d d34a 2ebd 04b5 9a3c
00000030: dc7f 4cbd 7ae4 483b d8e5 01bd 2dea f73b
00000040: 3a8a 44bb 961a cb3b cc54 303c 58a7 e4bc
00000050: bcb6 273d b73b fcbc 5112 5e3d 5a9c b0bc
00000060: 30f4 933d 31ff fabc 6842 7e3d 0b70 19bd
00000070: 6e06 663d f1ad 01bd 0d0b 403d 8b8a 29bd
00000080: e324 173d e9a1 60bd 731e ee3c 4ecc 1dbd
00000090: 6e29 483d c7f7 0cbd 5841 f83c 74f2 02bd
000000a0: 3854 b63c 7653 32bd e32a da3c 13f9 bbbc
000000b0: c88e 773c 60a9 22bd 2c8d 903c 4427 98bc
000000c0: ace6 5e3c c0e2 eebb 72fe 953c 81db bebb
000000d0: eced 063d c0fa 003c 2433 8f3c 353d b63b
000000e0: 37be bb3c 40b2 a5ba d898 9b3c 6d98 85bb
000000f0: 3bfd 103c 3e37 a73b 8066 7e3c 5642 e7bb
00000100: 43ad 323e 0e74 c83e 3b46 173e 3ff3 cd3e
00000110: cc64 ed3d 765d 803e 7122 203e 7b4f 7f3e
00000120: 1123 c93c 8452 7f3e b363 a33d 7d25 653e
00000130: 178a b33c d469 183e f574 84bd 1078 563e
00000140: 5edb 773b 5a31 c73d bf56 fcbc 8424 733d
00000150: ef03 62bd 9cda 873d a755 dfbb 7baf 58ba
00000160: 47ce 49bd 38c9 2a3d 1ef4 40bd eea3 293d
00000170: 7d53 c0bc 42d3 29bd 7170 863c 0f4e b6bc
00000180: f4da c63b aa65 c0bc 0cc0 dbbc 118d 03bb
00000190: 6f87 083d 2677 47bd 5b4f f5bc 39a2 5cbd
000001a0: 91c7 083d 1e7b 9fbc 8138 0e3c a166 90bd
000001b0: 92a1 2a3c 0f18 24bd b35d a53c c8f4 01bd
000001c0: 329b 0abc 6bd2 563b bc0e ab3c 2856 fdbc
000001d0: 7f9c 7dbc ab8a f83b c833 133c 7381 1c3d
000001e0: 1e6e c2bc 4413 9b3c 810b 07bd 7c55 2b3d
000001f0: b134 3bbd 9fd2 2b3d c9c1 debc 52ce 863d
00000200: 62cf f0be ae27 16bf 44f3 8fbe ac48 0dbf
00000210: 0def 76be 26f5 04bf bf0f 78be 8b14 01bf
00000220: ab2c 73be 178d 00bf 0efc 66be 6704 f1be
00000230: 7646 50be da12 d5be f3ce 1abe b378 bebe
00000240: a2af f5bd 3e40 9dbe 6d1d 96bd 82c4 76be
00000250: 5db9 35bd f1d4 3dbe 225b 21bc 408f 0cbe
00000260: e718 bd3c b724 b8bd 9ad1 413d 5e4f 77bd
00000270: b8c6 963d 1a48 04bd 8cd7 af3d d92a b23a
00000280: 20ca cf3d d1f5 ef3c 847e ec3d 78ab 583d
00000290: 743a dd3d 1889 803d c143 f13d 4fc7 ad3d
000002a0: 8364 e93d 23c9 c13d f4b3 db3d c0dc bc3d
000002b0: a491 e73d 9a1b c53d 9af0 cd3d ea39 c43d
000002c0: caaa c63d ea03 b33d 3750 ac3d 6aa3 a43d
000002d0: f265 8b3d 875f 913d 28bb 843d 5bc8 6a3d
000002e0: 399a 4f3d 51ce 4d3d fb44 373d 8c7d 203d
000002f0: d95a 083d e251 b83c 66c1 7b3c 85fa 7d3c
00000300: 2c4c 2f3e 9c88 81be 2b10 123e d239 96be
00000310: 8ac3 173e e9a1 8abe 91e7 373e d58a 5abe
00000320: e8f6 2f3e e432 49be 3b82 373e 7463 32be
00000330: b495 1e3e 0792 13be 1c0a 0b3e 6023 d9bd
00000340: 79f1 ff3d 54ad a8bd b0b6 d13d c6ce 89bd
00000350: 9543 a43d 51a2 2fbd b2a0 803d e8d6 b9bc
00000360: d277 173d 3c81 22bc 702e db3c ae9c 26bb
00000370: d0de eb3b fe89 4f3c 17af 95bb ce8e 013d
00000380: 6b81 2ebc 5cc8 123d 3861 97bc 2794 493d
00000390: b072 0cbd 0c19 523d 7388 25bd 9595 333d
000003a0: 2bd1 32bd d113 2c3d 8577 65bd 2ae9 273d
000003b0: c015 2bbd d58f 1e3d 4def 2abd 25b5 373d
000003c0: ea7f 1dbd f5f8 133d b7ea 1cbd 7c45 2b3d
000003d0: 03b1 c9bc 78cb 173d a9a9 abbc 7699 1e3d
000003e0: 05e9 3dbc 64c2 b43c 3837 60bc 5034 ca3c
000003f0: 1422 24bc 2e90 a13c 4641 af3a 5ebf 4c3c

cos_embedding.bias f4 [256]
1.917112 -0.122114345 2.6377685 1.2197257 2.6909883 1.4625826 0.18461011 0.7956019
3.0835943 0.50131047 -0.25077572 0.8553166 1.7718705 -0.19795603 0.082642145 1.8707893
3.2580774 1.2298229 1.7210679 0.8813525 1.9591675 3.3879292 0.86623466 3.026057
0.28887466 1.4363257 0.7856121 1.4580277 0.46677348 2.8150578 1.9697613 0.7354283
1.4446815 1.2851642 2.0619297 1.4146072 0.24513371 1.4737756 2.235113 1.4608912
0.13204762 0.19836004 2.241051 0.094305046 -0.007302068 1.9985051 3.6577432 4.892137
2.507183 2.5532794 1.558281 0.5133987 0.45792624 1.8727705 2.4801767 2.2802958
1.6642574 0.10893992 1.450848 2.681924 0.011861665 0.04118956 1.1790731 2.6711285
1.1724414 0.14197099 1.180468 1.4437833 1.4187976 1.9106858 1.9440554 0.9043173
2.9364982 1.3647178 1.4359065 -0.051099937 0.03418562 2.6039326 0.91585517 1.4632698
2.3051643 0.017392904 1.8285415 0.23485461 -0.12019582 1.7203251 2.0372155 0.61926305
1.8047266 1.9952446 0.17926937 1.2968006 3.4550261 1.3113099 -0.060707852 2.3593132
0.7701264 1.8691711 -0.30029243 0.23309895 1.2243379 0.34478146 1.644518 0.62626195
2.7670777 -0.11906521 0.8385339 1.1052216 0.71327937 1.1050756 1.4355528 2.0619454
1.1512752 1.5748538 2.268656 0.42356753 1.7946571 0.19418532 0.82610965 0.39971098
-0.0024538783 0.46187776 3.0102646 2.1306014 2.8914504 1.8701055 0.5923031 1.3090403
0.29505056 1.3769971 0.00018693507 0.77292806 0.8841139 1.0665678 3.1974292 0.49058574
2.5512552 0.9202465 1.1701586 0.7835485 4.334757 1.27397 0.49971238 2.8804166
2.6920621 3.151885 1.786548 2.1457427 2.953356 -0.010548636 2.5874665 1.9564637
0.3746797 2.8408272 0.9797846 1.4134772 0.30174816 2.3369875 1.4276763 1.9094843
1.5192105 0.21316467 0.5179397 0.6943941 1.8010021 1.4433457 3.1070352 1.3724753
3.6488593 1.1757183 0.16169663 0.49886346 2.5375457 0.5529166 3.88197 1.6159805
0.07374111 1.6058683 1.6007721 1.5565964 2.2296226 1.71509 1.528944 2.767508
1.8313127 0.70778936 1.6352855 1.6395876 -0.109236345 1.061878 1.7846049 1.894592
1.9527743 0.6150097 1.5565742 1.9602878 0.73157924 0.61662865 0.036445424 -0.006356457
2.8005192 0.6067235 1.1400564 1.6761411 1.9751656 0.55265254 2.5803497 2.332903
0.014453441 2.3985417 4.851308 1.2378323 3.6185744 1.9717548 -0.109825365 0.85850924
0.29650617 0.69356316 1.7427508 3.1560588 2.6587348 0.99899024 1.9908767 -0.106307164
0.30461526 2.1637962 1.8745662 1.3734212 3.271101 1.4889984 1.4649695 2.6341066
-0.099619046 1.3057103 2.1494892 -0.01816795 0.9687287 -0.08924394 2.348303 0.77796924
2.3795395 2.1675339 2.238522 1.2467393 1.3069428 0.7300936 1.6588297 2.1796184
1.0993112 1.70946 1.9657602 3.1310751 0.84422594 0.044615384 2.4596748 1.4722966
00000000: ed63 f53f 1617 fabd 33d1 2840 f91f 9c3f
00000010: 2739 2c40 e835 bb3f 6f0a 3d3e 91ac 4b3f
00000020: 9c59 4540 e255 003f ad65 80be 07f6 5a3f
00000030: a7cc e23f fcb4 4abe 4940 a93d 0676 ef3f
00000040: 5784 5040 d66a 9d3f f44b dc3f 51a0 613f
00000050: 00c6 fa3f d5d3 5840 8ec1 5d3f ebaa 4140
00000060: 61e7 933e 85d9 b73f e01d 493f a7a0 ba3f
00000070: effc ee3e e829 3440 2321 fc3f 0745 3c3f
00000080: 53eb b83f 4380 a43f a8f6 0340 d911 b53f
00000090: 5504 7b3e aea4 bc3f 170c 0f40 7cfe ba3f
000000a0: 7e37 073e e51e 4b3e 616d 0f40 0123 c13d
000000b0: 3046 efbb 04cf ff3f 7718 6a40 638c 9c40
000000c0: b075 2040 ee68 2340 c075 c73f 196e 033f
000000d0: 4f75 ea3e f2b6 ef3f 37bb 1e40 5ef0 1140
000000e0: 6306 d53f e51b df3d 63b5 b93f a5a4 2b40
000000f0: 6e57 423c 62b6 283d deeb 963f c5f3 2a40
00000100: 8f12 963f d860 113e 9319 973f e4cd b83f
00000110: 299b b53f 5a91 f43f cfd6 f83f 5781 673f
00000120: 96ef 3b40 13af ae3f c9cb b73f 2b4e 51bd
00000130: 3806 0c3d d5a6 2640 7c75 6a3f 6d4c bb3f
00000140: d087 1340 907b 8e3c a60d ea3f ba7d 703e
00000150: 3a29 f6bd 9d33 dc3f bd61 0240 0688 1e3f
00000160: 4801 e73f 2d64 ff3f 6492 373e 90fd a53f
00000170: 261f 5d40 01d9 a73f cca8 78bd fdfe 1640
00000180: 0127 453f 0041 ef3f eebf 99be 7eb1 6e3e
00000190: 1bb7 9c3f 3287 b03e 917f d23f b452 203f
000001a0: cd17 3140 76d8 f3bd 28aa 563f e777 8d3f
000001b0: 7a99 363f 1e73 8d3f 32c0 b73f eaf6 0340
000001c0: fc5c 933f cf94 c93f a931 1140 d8dd d83e
000001d0: 53b7 e53f 84d8 463e ec7b 533f eba6 cc3e
000001e0: 3fd1 20bb 3e7b ec3e 2da8 4040 c65b 0840
000001f0: 860d 3940 9e5f ef3f 2da1 173f a28e a73f
00000200: de10 973e 7141 b03f 0004 4439 9dde 453f
00000210: 4a55 623f 4b85 883f aea2 4c40 0e2e fb3e
00000220: c447 2340 4695 6b3f c2c7 953f a296 483f
00000230: 54b6 8a40 7311 a33f 4dda ff3e bf58 3840
00000240: bf4a 2c40 7cb8 4940 9bad e43f d953 0940
00000250: c903 3d40 30d4 2cbc 0d99 2540 676d fa3f
00000260: 05d6 bf3e 1dd0 3540 2ad3 7a3f d2ec b43f
00000270: bc7e 9a3e 3491 1540 19be b63f fb69 f43f
00000280: 7d75 c23f d747 5a3e b297 043f d0c3 313f
00000290: 3d87 e63f 8dbf b83f aad9 4640 45ad af3f
000002a0: e986 6940 f07d 963f cd93 253e 086b ff3e
000002b0: 2667 2240 f18b 0d3f 3272 7840 73d8 ce3f
000002c0: 9405 973d 188d cd3f 1ae6 cc3f 8d3e c73f
000002d0: 23b2 0e40 1288 db3f 70b4 c33f da1e 3140
000002e0: 7468 ea3f af31 353f 0951 d13f 02de d13f
000002f0: 4eb7 dfbd 9eeb 873f ef6d e43f fe81 f23f
00000300: 82f4 f93f 4771 1d3f d33d c73f b6ea fa3f
00000310: c748 3b3f 60db 1d3f cc47 153d d349 d0bb
00000320: b53b 3340 3b52 1b3f 5eed 913f cb8b d63f
00000330: 3ad2 fc3f a37a 0d3f 7324 2540 484e 1540
00000340: 20ce 6c3c b581 1940 ea3d 9b40 4a71 9e3f
00000350: b996 6740 7662 fc3f 1fec e0bd 43c7 5b3f
00000360: a8cf 973e 5b8d 313f 7512 df3f defc 4940
00000370: b628 2a40 d3bd 7f3f 0cd5 fe3f 92b7 d9bd
00000380: 88f6 9b3e a37b 0a40 c9f1 ef3f 44cc af3f
00000390: b859 5140 8097 be3f 1f84 bb3f 3495 2840
000003a0: 1205 ccbd 8421 a73f 3b91 0940 f4d4 94bc
000003b0: 9bfe 773f 87c5 b6bd 994a 1640 fe28 473f
000003c0: 604a 1840 e0b8 0a40 f243 0f40 2795 9f3f
000003d0: e749 a73f 6ae7 3a3f 8854 d43f de7e 0b40
000003e0: 3bb6 8c3f 96cf da3f 089e fb3f 8963 4840
000003f0: 311f 583f 9fbe 363d 506b 1d40 3774 bc3f

ff_1.weight f4 [256, 256]
-0.24759105 -0.014989312 -0.7601137 -0.4185659 0.04903697 -1.0544928 -0.16221604 -0.086666405
0.34463188 0.13235535 0.2919975 0.0941167 0.30860126 -0.3773817 0.062534966 -0.021806601
0.39254117 0.16413212 -0.7836457 0.10475608 -0.061915547 -0.9636643 -0.27609098 -0.3624051
-0.1909416 -0.19534945 -0.73234147 0.2183183 0.10297553 -0.07818115 -0.5917098 0.13100395
-0.20986414 0.06381027 -0.31680214 -0.24281506 0.056411415 -0.0467562 -0.7014342 -0.52375966
-0.23081285 -0.13716033 0.18365808 -0.07105364 -0.3122898 -0.4194679 -0.3915307 -0.22330959
-0.9050221 -0.12421775 -0.5410788 -0.11232598 0.15819456 -0.3523403 0.19390655 0.093692355
0.03919698 -0.045062583 -0.24819784 -0.8507181 0.039685983 0.03788497 0.015071433 -0.5620123
-0.25516528 0.089426816 -0.32636097 0.12216492 -0.9501011 -0.51579434 0.09535771 0.0025192525
-0.494608 0.66078883 -0.88334966 -0.20534201 0.026988357 -2.5386465 0.13714902 -0.30607453
-0.63864416 0.0252591 -0.1964232 0.09874851 -0.19991511 1.0500959 -0.79876953 -0.23509294
-0.15158293 -0.18781032 -0.12802905 0.1882216 0.91176564 -0.8973346 -0.03939357 0.1142801
-0.49447143 0.44241005 -0.006627736 -0.82187784 -1.016108 -0.12097093 -0.11932533 -1.6991632
-0.93879884 -0.018701147 0.07882506 -0.37108153 -0.23418365 -0.39862704 -0.01978196 0.26744148
0.3791684 0.14514802 -0.2419766 -0.19853938 0.038500845 0.18866871 -0.2683871 -0.52214414
-0.3335566 0.08513543 -0.6469863 -0.120438956 -0.16603112 0.082825094 -0.044436198 -0.16068551
-1.2573828 -0.325325 0.006536089 -0.22315967 1.2109437 -0.3332131 0.084192485 -0.07726005
0.07984324 -0.12422351 0.096932456 -0.12283622 -0.5324757 0.02893135 -0.10945156 0.11316623
-0.14592902 -0.672163 0.11426182 0.061860126 -0.02609908 0.060107805 0.021524517 -0.17726922
0.06467795 -0.66404575 0.5453701 -0.40025678 0.29289994 -1.1978462 -1.7351121 0.35814074
0.62748975 0.29466084 0.24658012 0.3168569 -0.1270579 0.13354687 -0.14265642 -0.023622492
0.6375379 -0.011938986 0.3679549 -0.39531505 0.28111103 0.11941532 0.0012351925 -1.3093585
0.03310021 0.041964106 0.27855408 -0.3739764 -0.029350938 0.23547304 -0.35838762 -0.9750604
-0.69168895 0.1290075 0.2453789 0.07237508 -0.008513461 -0.8367853 0.07331756 0.28271687
-0.1615013 0.1524152 -0.1931496 -0.012899605 -0.0034595672 -0.098426305 -0.061757743 0.19521765
0.80718803 0.14420141 0.44305885 0.0029475007 -0.015224523 0.03072819 -0.07751245 -0.024805423
0.052631468 -0.40780765 -0.5478483 -0.22785512 -0.43381637 -0.07959624 0.28080034 0.059430964
-0.10480837 -0.08837529 -0.3781515 -0.20516987 0.36626288 0.059767477 -0.619436 -0.039185166
0.10027063 -0.21738236 -0.32924375 0.2729191 0.06266033 0.0063647134 0.40943733 -1.8517097
0.111837275 0.19403405 -0.27786532 -0.054921966 -1.4653683 -0.061405092 -0.029693633 0.1250093
-0.918773 -0.116429396 -1.918239 0.30688047 -0.6317667 -0.14761527 0.024558134 0.40306118
-0.123114005 -0.035019226 -0.08235534 -0.25231662 -0.1165432 0.059014637 0.048715085 -0.3205232
00000000: 8288 7dbe bb95 75bc d096 42bf 454e d6be
00000010: fdda 483d 9ff9 86bf f61b 26be 287e b1bd
00000020: 9773 b03e 2988 073e b280 953e 42c0 c03d
00000030: fc00 9e3e 2d38 c1be 5512 803d c2a3 b2bc
00000040: 28fb c83e 4012 283e 019d 48bf 5b8a d63d
00000050: 289b 7dbd b4b2 76bf cc5b 8dbe 298d b9be
00000060: 3286 43be b009 48be bb7a 3bbf d58e 5f3e
00000070: d6e4 d23d 701d a0bd 4b7a 17bf e625 063e
00000080: a0e6 56be f5ae 823d e433 a2be 83a4 78be
00000090: a80f 673d 6e83 3fbd 3191 33bf 1d15 06bf
000000a0: 345a 6cbe c273 0cbe dd10 3c3e 9284 91bd
000000b0: 73e4 9fbe 7fc4 d6be b676 c8be 45ab 64be
000000c0: 87af 67bf e065 febd 2484 0abf 2a0b e6bd
000000d0: c1fd 213e f365 b4be 708f 463e c7e1 bf3d
000000e0: 038d 203d 8b93 38bd 9327 7ebe a9c8 59bf
000000f0: c58d 223d 452d 1b3d 2cee 763c 0ae0 0fbf
00000100: 06a5 82be 6825 b73d c918 a7be 9a31 fa3d
00000110: d339 73bf 190b 04bf e74a c33d 0b1a 253b
00000120: 433d fdbe 7529 293f 3423 62bf 2d45 52be
00000130: b016 dd3c 2f79 22c0 cb70 0c3e cdb5 9cbe
00000140: 2f7e 23bf 2cec ce3c 2a23 49be a93c ca3d
00000150: 8cb6 4cbe 8b69 863f 297c 4cbf 34bc 70be
00000160: 8e38 1bbe 5951 40be 0c1a 03be 2abd 403e
00000170: 7969 693f b8b7 65bf 275b 21bd af0b ea3d
00000180: 5c2b fdbe 9283 e23e 7b2d d9bb 9666 52bf
00000190: d40f 82bf 9bbf f7bd d760 f4bd 2e7e d9bf
000001a0: 1f55 70bf 2633 99bc 086f a13d 66fe bdbe
000001b0: d7cd 6fbe d818 ccbe c70d a2bc 17ee 883e
000001c0: 5c22 c23e afa1 143e b7c8 77be e84d 4bbe
000001d0: 10b3 1d3d 5f32 413e 096a 89be 3dab 05bf
000001e0: eec7 aabe 7c5b ae3d e5a0 25bf b3a8 f6bd
000001f0: 1004 2abe 34a0 a93d bb02 36bd be8a 24be
00000200: ebf1 a0bf 0091 a6be b02c d63b f883 64be
00000210: 3400 9b3f e89a aabe 1c6d ac3d 843a 9ebd
00000220: da84 a33d e568 febd 8684 c63d 8e91 fbbd
00000230: 5450 08bf 7001 ed3c 2428 e0bd b2c3 e73d
00000240: 6b6e 15be e012 2cbf 1a02 ea3d 0b61 7d3d
00000250: bdcd d5bc 9a33 763d 2f54 b03c 1086 35be
00000260: e075 843d e7fe 29bf 609d 0b3f 75ee ccbe
00000270: fbf6 953e 0653 99bf 2718 debf 395e b73e
00000280: 2ba3 203f c9dd 963e 807f 7c3e 113b a23e
00000290: 771b 02be 83c0 083e 8614 12be f583 c1bc
000002a0: af35 233f bd9b 43bc 9664 bc3e bc66 cabe
000002b0: c9ed 8f3e 0590 f43d 2fe6 a13a 0f99 a7bf
000002c0: 1694 073d 8ee2 2b3d a49e 8e3e d679 bfbe
000002d0: 6171 f0bc d81f 713e 957e b7be 8f9d 79bf
000002e0: 8712 31bf 8b1a 043e 9b44 7b3e 6339 943d
000002f0: 0b7c 0bbc 9037 56bf 8427 963d 44c0 903e
00000300: 9960 25be bb12 1c3e 02c9 45be dd58 53bc
00000310: e8b9 62bb bb93 c9bd b0f5 7cbd 23e7 473e
00000320: e0a3 4e3f 89a9 133e 9cd8 e23e db2a 413b
00000330: 4770 79bc afb9 fb3c d9be 9ebd be34 cbbc
00000340: 1894 573d 2acc d0be c93f 0cbf da52 69be
00000350: 2e1d debe 5a03 a3bd 10c5 8f3e e26d 733d
00000360: c5a5 d6bd 1bfe b4bd 139d c1be 0d18 52be
00000370: cf86 bb3e bece 743d 5c93 1ebf a080 20bd
00000380: b05a cd3d 7b99 5ebe a392 a8be 0dbc 8b3e
00000390: 0f54 803d 168f d03b c5a1 d13e d304 edbf
000003a0: f10a e53d ddb0 463e 5d44 8ebe dbf5 60bd
000003b0: 3091 bbbf e883 7bbd 1040 f3bc 7002 003e
000003c0: b534 6bbf 8972 eebd db88 f5bf 701f 9d3e
000003d0: 76bb 21bf 7528 17be 242e c93c 095e ce3e
000003e0: 3223 fcbd 5270 0fbd eba9 a8bd a52f 81be
000003f0: 34ae eebd 55b9 713d 7889 473d 9e1b a4be

ff_1.bias f4 [256]
0.11672674 0.01740569 -0.15786903 0.07898807 -0.70104486 -0.832067 0.28406695 0.13045517
-0.0074012564 -0.02336617 -0.3742267 -0.33268654 0.11511843 0.18109424 -0.115301386 -0.29681557
-0.505057 0.14350027 0.3749529 -0.09245718 -0.23508343 0.28212056 0.2526794 -0.6203693
-0.09931934 0.0004188443 -0.4870939 -0.28466102 0.3742727 0.09055715 0.080314614 0.06577329
0.041424792 -0.037516795 0.02098929 -0.623106 0.3103517 0.89649236 -0.2691992 -0.596714
0.016469724 -0.37861782 -0.658955 -0.38601312 -0.071714066 0.034313597 0.11954227 -0.29796723
-0.010474737 0.02997712 0.58468014 -0.54937905 -0.30957615 0.15292531 0.008785844 -0.54714483
-0.159791 0.44001007 -0.03012057 0.21810651 -0.04459731 0.22281103 -0.11597695 0.17564891
0.17520243 0.337409 -0.3529962 0.5208419 0.33624128 -0.13220549 0.13333917 0.25998056
-0.53158206 -0.2734355 -0.6801844 -0.27781263 -0.33292335 0.38254568 -0.100756936 -0.48684174
-0.12564614 -0.03560788 -0.04534832 -0.9188143 -0.26587716 0.106785625 -0.10417832 0.20548223
0.042568102 -0.11757272 0.16544232 -0.10534723 0.21716005 -0.4611672 -0.1862287 -0.023480339
-0.3657928 -0.44544506 -0.5021517 -0.34970275 0.13138373 -0.3610701 0.26604065 -0.16637327
-0.2504577 -0.120129034 0.062385008 -0.07178899 -0.59056395 -0.6645359 0.23372051 -0.4924912
-0.39493605 0.44788334 0.0801976 -0.055618465 0.38608423 -0.33330527 0.09523095 -0.16014394
0.058503687 -0.06903338 0.4136107 -0.24853493 -0.792574 -0.18072069 0.35489583 0.17099936
-0.13123868 0.120815866 -0.509569 -0.27687436 -0.40118155 -0.16343093 0.344182 -0.2632853
-0.237585 -0.13040109 0.27436054 -0.20901272 -0.4289227 -0.3215685 0.0874373 -0.30017763
0.22646523 0.26664174 0.41814327 -0.51178086 -0.43955562 -0.04546917 -0.018922579 0.2427734
-0.17695564 -0.56695646 0.38180384 0.14247118 -0.36333516 0.7618261 -0.3821702 0.08166448
0.0733123 0.24985705 -0.007398991 -0.071511395 0.21328953 0.01404571 0.15668458 -0.15029944
-0.3374939 0.32345188 -0.08566037 -0.33095786 -0.36187983 -0.021230422 -0.020293023 0.24079514
0.08960076 0.37539572 0.026223913 0.10606132 -0.38971972 -0.14012481 0.11199265 -0.101018056
0.050177827 0.33223227 -0.24746248 -0.1817076 0.26844603 0.14778522 0.07069364 -0.008235665
0.8333332 0.7475866 -0.0020607244 0.0604707 0.41831335 -0.23421174 0.13665058 -0.33945626
0.013099698 0.17845649 -0.15032062 0.6336764 -0.2781994 0.2500243 0.07113638 -0.7220735
-0.013535274 0.15853298 0.7651275 -0.18125021 0.8722182 -0.3465119 0.012096486 -0.1289408
0.4077048 -0.10142123 0.17399713 0.43482894 0.34367087 0.16759755 -0.17883468 -0.21584848
-0.3873463 0.24142502 0.19704334 -0.3290635 -0.17648607 0.12576583 -0.24110067 -0.7643176
0.19923979 0.3601972 0.18348981 0.5965838 -0.045457702 -0.20533177 0.14424114 -0.14290932
0.7864698 0.099603295 -0.29558593 -0.42304775 0.19508451 -0.3702257 -0.3572055 0.17682874
-0.3088585 -0.46170747 -0.38132885 -0.17646088 0.018869296 -0.08687126 0.28488603 -0.13887694
00000000: 6e0e ef3d 6196 8e3c 6ba8 21be 7fc4 a13d
00000010: ad77 33bf 5802 55bf 3971 913e 0a96 053e
00000020: 3d86 f2bb 696a bfbc a49a bfbe e455 aabe
00000030: 36c3 eb3d c570 393e 2223 ecbd 36f8 97be
00000040: 6a4b 01bf bcf1 123e d4f9 bf3e 315a bdbd
00000050: b6b9 70be 1b72 903e 325f 813e 86d0 1ebf
00000060: f067 cbbd 5598 db39 5f64 f9be 17bf 91be
00000070: aca0 bf3e 0776 b93d fd7b a43d 26b4 863d
00000080: 0bad 293d 36ab 19bd bbf1 ab3c e083 1fbf
00000090: 6be6 9e3e 8680 653f 7ad4 89be 40c2 18bf
000000a0: 84eb 863c 32da c1be 46b1 28bf 83a3 c5be
000000b0: d3de 92bd 6a8c 0c3d 94d2 f43d 298f 98be
000000c0: 3b9e 2bbc 9492 f53c 99ad 153f 1ba4 0cbf
000000d0: c480 9ebe 7498 1c3e 80f2 0f3c af11 0cbf
000000e0: 40a0 23be 0049 e13e 6abf f6bc 5057 5f3e
000000f0: abab 36bd 9328 643e 5385 edbd 4fdd 333e
00000100: 4468 333e dfc0 ac3e ebbb b4be e555 053f
00000110: d127 ac3e e060 07be 108a 083e 2c1c 853e
00000120: c315 08bf bdff 8bbe 9120 2ebf 753d 8ebe
00000130: ee74 aabe 07dd c33e a759 cebd 5243 f9be
00000140: 62a9 00be 92d9 11bd 29bf 39bd 6a37 6bbf
00000150: 0d21 88be 6cb2 da3d 715b d5bd ef69 523e
00000160: e45b 2e3d f7c9 f0bd b669 293e 4ac0 d7bd
00000170: 345f 5e3e 1b1e ecbe bdb2 3ebe d759 c0bc
00000180: 3249 bbbe 6011 e4be 048d 00bf 3d0c b3be
00000190: 7589 063e 2ede b8be 7b36 883e c15d 2abe
000001a0: fe3b 80be 3606 f6bd 6c87 7f3d 1b06 93bd
000001b0: 332f 17bf 061f 2abf 6e54 6f3e ce27 fcbe
000001c0: 0f35 cabe f750 e53e a43e a43d 30d0 63bd
000001d0: d5ac c53e fda6 aabe 7208 c33d c6fc 23be
000001e0: 90a1 6f3d 5f61 8dbd c8c4 d33e f17f 7ebe
000001f0: 21e6 4abf d80e 39be e8b4 b53e 751a 2f3e
00000200: 6f63 06be 4f6e f73d 1d73 02bf 7ac2 8dbe
00000210: ab67 cdbe 705a 27be a038 b03e 55cd 86be
00000220: 7b49 73be dd87 05be fc78 8c3e 6e07 56be
00000230: c29b dbbe a0a4 a4be 5412 b33d e2b0 99be
00000240: 80e6 673e 4485 883e e016 d63e 1204 03bf
00000250: 6f0d e1be e13d 3abd 8603 9bbc 9799 783e
00000260: dc33 35be 0f24 11bf cb7b c33e f7e3 113e
00000270: 1107 babe 0907 433f d0ab c3be b53f a73d
00000280: c224 963d 87da 7f3e 3c73 f2bb 9174 92bd
00000290: 9268 5a3e fa1f 663c ec71 203e 19e8 19be
000002a0: 00cc acbe 7c9b a53e b46e afbd 4f73 a9be
000002b0: 5048 b9be 6ceb adbc 8e3d a6bc 0093 763e
000002c0: 9a80 b73d de33 c03e 88d3 d63c ad36 d93d
000002d0: 5889 c7be e17c 0fbe 675c e53d 8ee2 cebd
000002e0: 4487 4d3d 591a aa3e ce66 7dbe 8f11 3abe
000002f0: c271 893e 0255 173e d4c7 903d e2ee 06bc
00000300: 5355 553f d661 3f3f 380d 07bb 20b0 773d
00000310: 2b2d d63e 34d5 6fbe 21ee 0b3e 36cd adbe
00000320: 1ea0 563c 4cbd 363e a6ed 19be 9e38 223f
00000330: 2770 8ebe 2f03 803e f3af 913d cfd9 38bf
00000340: 0ec3 5dbc 7856 223e 65df 433f a899 39be
00000350: b149 5f3f 026a b1be 5730 463c 0f09 04be
00000360: afbe d03e efb5 cfbd 4e2c 323e e6a1 de3e
00000370: a1f5 af3e b19e 2b3e 7020 37be 6207 5dbe
00000380: 4152 c6be 1f38 773e bbc5 493e 037b a8be
00000390: c4b8 34be c2c8 003e 18e3 76be 51aa 43bf
000003a0: 8405 4c3e c46b b83e c1e4 3b3e b7b9 183f
000003b0: db31 3abd 7e42 52be f3b3 133e d256 12be
000003c0: 1656 493f d0fc cb3d 0a57 97be b799 d8be
000003d0: 3cc4 473e 398e bdbe a4e3 b6be 9812 353e
000003e0: b422 9ebe ec64 ecbe 893d c3be 29b2 34be
000003f0: c893 9a3c 8fe9 b1bd 95dc 913e c235 0ebe

ff_2.weight f4 [1, 256]
0.5159108 1.7758226 -0.99692136 1.2388599 -1.3737193 -1.252843 1.2350248 1.8165122
1.636152 1.8006344 2.3838422 1.4809544 2.154448 1.7531354 -0.8283006 1.1576438
-1.5090072 0.78850275 1.1297259 1.7610267 0.7722249 -1.3528125 -2.744582 -0.6546558
-1.0232412 1.07364 -0.54943025 -0.7772936 0.9652782 -0.8543748 -1.740611 0.7170842
1.149779 1.0632942 1.135072 -0.86230767 1.7395837 0.48722446 1.5065005 -1.3199319
1.7733254 -1.061115 -0.777549 -1.1929197 1.351691 0.7791478 1.0045598 -0.9019537
-0.80808234 1.335086 0.63704884 -0.5205225 0.7103955 1.0509053 1.2968662 -1.503976
2.3136215 0.60457474 0.9815263 0.60000247 2.6322834 1.1496749 -0.8581221 1.4895947
0.72568697 1.0281633 -0.46354625 0.76345676 0.9410543 -0.83750045 0.7175079 -1.3099889
2.0057366 -0.60440767 -0.7825758 -0.7015264 -0.5541563 -1.0005541 -1.5670915 1.3241023
-0.9387613 0.752656 0.4886996 -2.5079482 -0.6883302 -1.4505452 2.1151028 -0.88366914
1.5502121 -0.6444589 1.1096085 -1.3772908 1.3510643 -1.342263 1.2366894 -0.92791
-0.8656662 -1.5774174 -0.6062401 -0.62062705 0.96418 -1.0247954 -0.5477739 0.9953413
-1.0282092 -1.0349159 -1.4667054 -1.7724797 -0.74774605 -0.95243716 0.9112602 -1.3892392
-0.6510504 0.96002215 1.1483629 1.6838069 1.1803954 -0.5886222 0.7470582 -0.5100654
-1.17841 1.160861 1.7392521 -0.8054656 -0.79121214 -0.88264614 0.37679416 -0.9863228
-0.85411316 0.85510576 1.2996361 -0.59200275 1.5762041 -0.66826123 0.9370484 -1.1553949
-1.5672123 1.2836323 2.2448735 -1.1774931 -0.7303385 -0.59272593 0.8232137 1.3543121
0.8669033 1.4549848 1.9337105 -0.867247 -1.0215794 0.5073383 -1.127648 1.2566836
2.0792038 -2.0842922 0.9391911 -0.42372718 -0.91542727 0.5339075 -0.6130912 2.3673732
-1.4350924 -1.9169867 -0.8419195 1.7387263 1.4158053 -0.6674632 0.5442759 -0.8398125
-0.77771336 0.8054667 0.42326334 -1.5157707 2.4784153 -0.9315847 -1.1630214 0.55588204
0.7475219 1.1435119 1.0181624 1.7245196 1.9704406 1.2006191 0.78967583 1.2178894
-0.8945114 -1.8235685 -0.6985617 1.4699183 0.837153 0.7975589 0.71478224 0.79642516
0.48466027 0.4795844 0.9764695 -1.9464842 1.3579193 -0.83794224 1.0212444 -0.9718236
-0.6151287 -1.6393133 -1.5708519 0.7184525 -0.75596994 0.71926713 -0.9653375 2.1107516
-0.52809244 -1.0325987 0.4911054 1.1618317 0.5201072 1.7887652 -1.1529326 1.0371072
0.9017149 -0.79105675 1.1395516 0.83535177 0.5245483 -0.6657554 -1.3825091 -0.9373366
1.931125 0.47969332 1.8284059 1.5077542 0.7968594 -0.91737235 -0.86618936 2.4131274
1.0459864 -1.1419872 0.6998135 1.00549 0.8749902 2.1445098 0.88843435 2.5644891
0.47855112 0.5527519 -0.38578004 -0.579472 1.2321547 -0.7306762 -1.8062937 1.3454807
-0.67054284 -0.68359864 -0.76954585 -0.9130725 1.0099753 -0.6266687 1.6163784 0.9521598
00000000: bb12 043f 284e e33f 3d36 7fbf f692 9e3f
00000010: 09d6 afbf 295d a0bf 4b15 9e3f 7983 e83f
00000020: 6e6d d13f 307b e63f df90 1840 ea8f bd3f
00000030: 7ae2 0940 be66 e03f 820b 54bf ac2d 943f
00000040: 2627 c1bf 51db 493f dc9a 903f 5369 e13f
00000050: 88b0 453f f628 adbf 3ba7 2fc0 8697 27bf
00000060: 91f9 82bf 096d 893f 76a7 0cbf b7fc 46bf
00000070: 791c 773f 4fb8 5abf 57cc debf d592 373f
00000080: f52b 933f 061a 883f 0a4a 913f 32c0 5cbf
00000090: aeaa de3f 7c75 f93e 02d5 c03f 87f3 a8bf
000000a0: 54fc e23f 9ed2 87bf 740d 47bf 98b1 98bf
000000b0: 3604 ad3f 3b76 473f 6a95 803f 70e6 66bf
000000c0: 7cde 4ebf 19e4 aa3f a215 233f f640 05bf
000000d0: 7bdc 353f 1184 863f b6ff a53f 4982 c0bf
000000e0: 6012 1440 69c5 1a3f 4f45 7b3f c399 193f
000000f0: 5577 2840 8c28 933f e4ad 5bbf 0aab be3f
00000100: 9fc6 393f db9a 833f ef55 edbe e771 433f
00000110: efe8 703f 6e66 56bf 99ae 373f b7ad a7bf
00000120: fd5d 0040 76ba 1abf e356 48bf 3c97 33bf
00000130: 30dd 0dbf 2812 80bf 7496 c8bf 2f7c a93f
00000140: a952 70bf 10ae 403f d536 fa3e 3982 20c0
00000150: 6836 30bf 77ab b9bf d85d 0740 2438 62bf
00000160: 5a6d c63f 42fb 24bf a707 8e3f 114b b0bf
00000170: adef ac3f 46cf abbf d74b 9e3f 828b 6dbf
00000180: 4d9c 5dbf d0e8 c9bf 8d32 1bbf 6ae1 1ebf
00000190: 80d4 763f 7f2c 83bf e93a 0cbf b0ce 7e3f
000001a0: 5c9c 83bf 2078 84bf 01bd bbbf 9de0 e2bf
000001b0: 496c 3fbf ecd2 73bf 5948 693f 97d2 b1bf
000001c0: 3dab 26bf 03c4 753f 8efd 923f fc86 d73f
000001d0: 3217 973f f2af 16bf 353f 3f3f a593 02bf
000001e0: 24d6 96bf 1897 943f d09f de3f fe32 4ebf
000001f0: e18c 4abf 19f5 61bf 2aeb c03e a77f 7cbf
00000200: 29a7 5abf 36e8 5a3f 7a5a a63f 7e8d 17bf
00000210: 0ec1 c93f 2b13 2bbf 67e2 6f3f fbe3 93bf
00000220: 6a9a c8bf 104e a43f 02ac 0f40 18b8 96bf
00000230: 77f7 3abf e3bc 17bf 22be 523f 195a ad3f
00000240: 60ed 5d3f f13c ba3f d383 f73f e603 5ebf
00000250: 1dc3 82bf ece0 013f c556 90bf 02db a03f
00000260: ad11 0540 0b65 05c0 d46e 703f c5f2 d8be
00000270: 7159 6abf 29ae 083f 8bf3 1cbf 0b83 1740
00000280: 1cb1 b7bf d25f f5bf 0988 57bf 958e de3f
00000290: 1c39 b53f dede 2abf aa55 0b3f f4fd 56bf
000002a0: 3918 47bf 1133 4e3f f9b5 d83e c604 c2bf
000002b0: 5b9e 1e40 567c 6ebf e3dd 94bf 494e 0e3f
000002c0: 985d 3f3f 995e 923f 2553 823f 0fbd dc3f
000002d0: 6637 fc3f e3ad 993f 3228 4a3f cde3 9b3f
000002e0: b3fe 64bf b16a e9bf f1d4 32bf 4826 bc3f
000002f0: a94f 563f d22c 4c3f f8fb 363f 85e2 4b3f
00000300: 6425 f83e 168c f53e e8f9 793f 6526 f9bf
00000310: 4dd0 ad3f 6283 56bf 23b8 823f 6ec9 78bf
00000320: 1379 1dbf 05d5 d1bf ad11 c9bf 81ec 373f
00000330: 3f87 41bf e421 383f 5c20 77bf 8e16 0740
00000340: 1131 07bf 322c 84bf 2b72 fb3e e7b6 943f
00000350: bf25 053f 42f6 e43f 4c93 93bf eebf 843f
00000360: cad6 663f b282 4abf d4dc 913f 9dd9 553f
00000370: cc48 063f f26e 2abf 0ff6 b0bf 4bf5 6fbf
00000380: 1b2f f73f 5d9a f53e 3409 ea3f 17fe c03f
00000390: fafe 4b3f ead8 6abf 96be 5dbf ae70 1a40
000003a0: e2e2 853f a32c 92bf fa26 333f e5b3 803f
000003b0: 5cff 5f3f a63f 0940 6f70 633f 9720 2440
000003c0: a704 f53e 2681 0d3f f684 c5be 4758 14bf
000003d0: 3fb7 9d3f 980d 3bbf a234 e7bf b638 ac3f
000003e0: b2a8 2bbf 5200 2fbf f500 45bf 1fbf 69bf
000003f0: df46 813f 5c6d 20bf 7de5 ce3f bfc0 733f
