runs/checkpoint_critic_2566_192021_tau1_1620.pth (torch, 356559 bytes, 7 tensors)

head.weight f4 [256, 22]
-0.0067296857 -0.31938922 -0.17728327 -0.4069468 0.9018225 0.62867165 0.5641627 0.77846277
0.39481398 0.31852478 -0.2598335 -0.035501603 -0.1456913 -0.4800769 -0.5831124 0.33509937
0.040828183 0.51672494 -0.076909415 0.6166751 2.5992675 -3.062264 0.039990123 -0.18236552
0.0595073 0.05744498 1.5759857 0.5134697 0.93942773 0.1064175 -0.17313233 -0.34648272
-0.25136942 -0.22615999 -0.2791229 -0.3065351 -0.04748139 -0.6188041 0.9796526 -0.15244839
-0.04043563 -1.5513363 -1.3012617 0.46174255 -0.00032634957 -0.17959137 -0.41324833 -0.03385401
0.040850583 0.09802655 0.105846286 -4.5563064 -4.508548 -4.474631 0.331879 0.35644385
0.10509077 -0.21116371 0.4044321 -0.19564746 0.49903685 0.063656986 -0.418132 0.1926726
0.5346841 -0.44006962 -0.030186424 -0.43535328 0.5766437 0.1250948 -0.04530346 0.022335673
-0.86882436 0.16897553 0.4196781 0.61136574 0.07452961 0.23729376 0.13481562 0.19350605
-0.16538638 -0.048628878 -0.012721661 0.06228917 0.25088778 0.20432054 3.1366954 4.221971
-0.019199943 -0.02132126 -0.6659867 0.22960988 -0.41217884 0.3082253 -0.007483692 -0.48190543
-0.8515866 -0.9318606 -0.19883908 -0.33819044 -0.14298943 0.615461 -0.39631793 -0.13122475
0.3271464 0.25369817 -1.0551347 -0.032684065 0.701913 0.1408612 -0.011140617 0.27531227
-0.5408032 -0.1655368 -1.1681098 -0.20319697 -0.93602735 -3.1039093 -2.7797523 -2.156927
0.0063999956 -0.22353408 -0.19621779 -0.5052976 -0.45407304 -0.2988302 0.3367928 -0.03456921
-0.02190312 -1.0677035 1.5100943 -0.64801574 -0.009637467 -0.19416748 -0.13999905 0.064944044
0.094111405 0.020774888 0.14500721 -0.6578808 -1.0098326 -0.63436013 0.37110415 0.48627865
0.23776045 -0.18040289 0.32030067 -0.56073374 0.4663734 0.73828995 -0.32236868 0.14888744
-0.17419702 0.059521347 0.023366546 -0.30371663 0.938483 0.11232451 1.1561348 -0.25922087
0.8317219 -0.54301184 -0.6280318 -0.5041955 -0.5206436 -0.47517404 -0.13221474 0.04044295
0.21166688 0.015423892 0.21133259 0.29796845 -0.4160831 -1.6518757 -2.9690824 -7.5115485
0.0004963918 0.21961169 0.24449684 -0.24132518 0.41921747 -0.045753993 0.5167511 0.03655524
-0.20213954 -0.34318584 0.20267501 0.39648885 -0.19304983 -0.23752472 0.6874598 -0.4921557
-1.4768865 -1.0788592 -2.3496764 -0.7603999 0.42068237 0.4143928 -0.043834604 0.3814606
-0.49302632 0.04027444 0.41431966 0.38262382 1.4113368 -0.11611749 0.06814737 -0.3835524
-0.03800577 -0.2852482 -0.30389613 -0.066079065 0.09322092 -0.10797936 -0.19050853 0.038075984
0.13133909 -0.4997463 -0.11724297 0.3432538 -0.0007768761 -0.19694564 0.18458758 -0.0727116
0.08877177 0.002282313 0.82216734 0.27418724 0.2988735 -0.43955258 0.2939499 0.4668235
0.52909905 -0.042267255 0.50810367 0.08331602 -0.42502826 -0.047769915 -0.537401 -1.8276031
-1.23444 1.62213 0.010245947 -0.07021898 0.08981364 0.20670961 0.12585025 -0.10806909
0.772037 -0.7640453 -0.4769922 -0.44052634 -0.029135626 -0.41271138 -0.19822897 -0.22515553
00000000: b284 dcbb fc86 a3be bf89 35be 555b d0be
00000010: d7dd 663f a0f0 203f f76c 103f 5649 473f
00000020: 0f25 ca3e ae15 a33e e608 85be 216a 11bd
00000030: 1a30 15be a4cc f5be db46 15bf 2592 ab3e
00000040: 743b 273d 1648 043f af82 9dbd 6bde 1d3f
00000050: 665a 2640 22fc 43c0 afcc 233d 07be 3abe
00000060: edbd 733d 6d4b 6b3d e6b9 c93f c072 033f
00000070: 567e 703f 6bf1 d93d 9a49 31be 2f66 b1be
00000080: 7eb3 80be 7c96 67be 32e9 8ebe 2bf2 9cbe
00000090: d97b 42bd f269 1ebf 83ca 7a3f 6e1b 1cbe
000000a0: d59f 25bd 3092 c6bf be8f a6bf 8569 ec3e
000000b0: e619 abb9 cde6 37be 4995 d3be 81aa 0abd
000000c0: f152 273d 25c2 c83d f0c5 d83d 43cd 91c0
000000d0: 0646 90c0 2d30 8fc0 0bec a93e cf7f b63e
000000e0: d439 d73d 4d3b 58be b911 cf3e cf57 48be
000000f0: c281 ff3e 985e 823d 6615 d6be f74b 453e
00000100: 0fe1 083f ce50 e1be 8549 f7bc a0e6 debe
00000110: ec9e 133f da18 003e 1f90 39bd 4df9 b63c
00000120: 466b 5ebf ec07 2d3e 0ce0 d63e 7782 1c3f
00000130: fba2 983d 23fd 723e 1b0d 0a3e 7326 463e
00000140: 0c5b 29be 132f 47bd 836e 50bc ee22 7f3d
00000150: 5d74 803e 6739 513e 9ebf 4840 631a 8740
00000160: 3349 9dbc eca9 aebc 1b7e 2abf da1e 6b3e
00000170: 1b09 d3be b5cf 9d3e c239 f5bb 4fbc f6be
00000180: 9401 5abf 6b8e 6ebf 799c 4bbe 4c27 adbe
00000190: d26b 12be da8e 1d3f 2fea cabe c85f 06be
000001a0: bc7f a73e bae4 813e a70e 87bf badf 05bd
000001b0: 92b0 333f eb3d 103e 2287 36bc bbf5 8c3e
000001c0: 1472 0abf 7b82 29be 9f84 95bf de12 50be
000001d0: 7d9f 6fbf 73a6 46c0 76e7 31c0 180b 0ac0
000001e0: 0eb7 d13b 1ee6 64be 51ed 48be 2f5b 01bf
000001f0: 437c e8be 4600 99be 1b70 ac3e 7298 0dbd
00000200: 2c6e b3bc 82aa 88bf c54a c13f 5ce4 25bf
00000210: 77e6 1dbc d7d3 46be e95b 0fbe 6201 853d
00000220: 7bbd c03d 1930 aa3c c57c 143e e06a 28bf
00000230: 3242 81bf 6d65 22bf 5d01 be3e 84f9 f83e
00000240: 7a77 733e 89bb 38be 73fe a33e 3f8c 0fbf
00000250: 7fc8 ee3e 9200 3d3f 820d a5be f375 183e
00000260: b460 32be a8cc 733d 336b bf3c bf80 9bbe
00000270: 6c40 703f 650a e63d 3afc 933f 99b8 84be
00000280: baeb 543f d302 0bbf b1c6 20bf f512 01bf
00000290: e648 05bf 034a f3be 4d63 07be 82a7 253d
000002a0: 34bf 583e 7eb4 7c3c 9267 583e 528f 983e
000002b0: d808 d5be aa70 d3bf 7205 3ec0 9b5e f0c0
000002c0: 4a20 023a e3e1 603e 615d 7a3e f31d 77be
000002d0: aca3 d63e 8a68 3bbd cd49 043f f3ba 153d
000002e0: abfd 4ebe 0eb6 afbe 0a8a 4f3e 9600 cb3e
000002f0: dbae 45be ae39 73be 5efd 2f3f d5fb fbbe
00000300: 9e0a bdbf 0f18 8abf 1961 16c0 91a9 42bf
00000310: ae63 d73e 4b2b d43e ea8b 33bd ce4e c33e
00000320: f26d fcbe d0f6 243d b521 d43e 45e7 c33e
00000330: afa6 b43f 02cf edbd d990 8b3d fb60 c4be
00000340: f0ab 1bbd 0d0c 92be 4698 9bbe 7654 87bd
00000350: 9cea be3d 4824 ddbd ab14 43be 90f5 1b3d
00000360: c17d 063e bfde ffbe 151d f0bd f6be af3e
00000370: 46a7 4bba 1eac 49be 8704 3d3e d2e9 94bd
00000380: f9cd b53d dc92 153b 8f79 523f 4562 8c3e
00000390: f305 993e 090d e1be 9a80 963e 7d03 ef3e
000003a0: 0973 073f 6e20 2dbd 1513 023f 97a1 aa3d
000003b0: 4e9d d9be 63aa 43bd 1d93 09bf e6ee e9bf
000003c0: 2102 9ebf f5a1 cf3f 9ede 273c f8ce 8fbd
000003d0: 37f0 b73d afab 533e e3de 003e 5453 ddbd
000003e0: 38a4 453f 7998 43bf 5238 f4be ab8c e1be
000003f0: d6ad eebc e84e d3be 89fc 4abe 2c8f 66be

head.bias f4 [256]
0.0925782 -0.2575847 0.6608182 -0.151752 -0.1877833 0.09004624 0.41911402 -0.659244
-0.03791837 -0.47758538 0.7067201 -0.8217023 0.5345847 -0.0026345563 -1.088654 -0.69442695
0.23611678 -0.07862753 0.25966215 -0.48753113 0.9434396 0.32845777 -0.025280342 0.015147925
-0.29753366 -1.0215708 0.14404124 -0.2998791 -0.3285546 0.39780286 -0.44254354 -0.9411484
-0.48153362 -0.023855735 -0.13818713 0.3161396 -0.69391423 -0.38169244 0.8227878 0.7549637
-0.2902232 0.21919708 -0.06602185 -0.91503495 -0.3831617 -0.8891604 -0.035074696 0.97270966
-0.53977185 0.5455439 0.54217535 -0.29281512 0.0075623738 0.056737926 -0.22884384 -0.49066216
-0.7610747 -0.18772396 -0.5020176 -0.08279552 0.10123324 -0.14860249 0.02080178 -0.36104238
0.26182818 -0.21542771 -0.15061466 0.17677042 0.44000784 0.018671546 -0.019428799 -0.117553696
-0.67973435 -0.09749698 0.26175877 -0.6949424 0.14857522 0.62541217 -0.8322542 0.10885942
0.2185562 0.15421326 0.17317165 -0.8825452 -0.97141486 0.21362056 -0.35872275 -0.030708587
-0.5348552 -0.56237805 -0.19114873 -0.9238095 0.23447333 0.9364141 0.14456011 -0.29215997
0.775887 -0.6336384 0.7365125 -0.0617355 0.24205862 -0.2321778 0.3762083 -0.28519708
0.6780601 -0.057657145 -1.0057325 -0.28956005 0.11050006 -0.18632235 -0.017303465 -0.40077886
-0.67621124 1.0566801 -0.1521424 -0.38326326 0.067305624 -0.6322155 0.4088486 0.11669275
-0.9096485 -0.1293334 0.024132365 -0.28075254 -0.11329821 -0.6331995 0.099706486 0.76387256
-0.86818427 -0.40910217 -0.16699347 0.4994636 0.23597747 0.041393016 -0.8329863 0.20237009
-0.34269446 -0.27969593 -0.0751893 0.04940253 0.7602813 -0.15677346 0.2540806 -0.8397523
1.3159168 0.60290134 -0.10552532 0.13003944 0.6560601 -0.13092422 0.06540819 0.4976858
-0.3527241 1.0497091 -0.5984066 0.34426644 -1.1905146 0.0014196777 -0.6444613 0.055431
-0.5768874 -0.69675285 -0.8106278 -0.455932 0.26990858 0.48580584 0.7661019 0.57807875
-0.5223957 -1.0613481 -0.43984133 -0.118782334 -0.6032822 -0.6064111 0.4725222 -0.3762338
0.033852845 0.11779374 -1.37919 0.5363911 0.9048918 -0.6605549 -0.22056654 -0.3573567
-0.04667325 0.6149013 -0.13979033 -0.5924168 -0.59209937 0.2630231 -0.27654442 -0.7426491
0.018634306 0.3336069 0.4505309 -0.84067845 -0.8273648 -0.53388846 -0.093580835 -0.4536236
-0.021890096 -0.45323995 -0.42855367 -0.6643876 0.14293686 0.47125712 0.03440335 -0.23249815
-0.01014836 -0.45391595 1.2382724 0.30218953 0.8219518 0.0849011 -0.45614937 -0.29146248
-0.112073235 0.22972696 -0.80298513 -0.49697924 0.057183824 -0.29786247 1.0002524 0.013795943
-0.22609694 1.090982 0.3075723 -0.5239551 0.9214578 -0.32544333 0.83196217 -0.36009854
-0.5003574 0.13698407 -0.75847834 0.010222288 -0.3107197 -0.28267464 -0.9180702 -0.38562405
0.45393145 -0.02386756 0.5998608 0.09540479 -0.26513022 0.8836613 0.094625086 -0.28860012
-0.81171864 0.10880091 0.55639356 0.107038245 -0.30389982 -0.53470844 -0.2900195 -0.2094881
00000000: a499 bd3d 24e2 83be 622b 293f e064 1bbe
00000010: 444a 40be 2a6a b83d 1d96 d63e 37c4 28bf
00000020: 4b50 1bbd 1286 f4be 9ceb 343f 155b 52bf
00000030: 8bda 083f 85a8 2cbb 0459 8bbf f7c5 31bf
00000040: 99c8 713e 7807 a1bd 70f2 843e ae9d f9be
00000050: 4285 713f 9e2b a83e b818 cfbc 012f 783c
00000060: 5556 98be d5c2 82bf 8c7f 133e c189 99be
00000070: 4f38 a8be d1ac cb3e 1195 e2be 1aef 70bf
00000080: 938b f6be 1a6d c3bc ed80 0dbe 0ddd a13e
00000090: 5da4 31bf 316d c3be 39a2 523f 4d45 413f
000000a0: 2398 94be 3375 603e 7736 87bd bb3f 6abf
000000b0: c52d c4be 04a0 63bf 7caa 0fbd 8003 793f
000000c0: 7d2e 0abf c4a8 0b3f 01cc 0a3f ddeb 95be
000000d0: cacd f73b 0766 683d 0a56 6abe 1238 fbbe
000000e0: cbd5 42bf b63a 40be 3a84 00bf b390 a9bd
000000f0: 5f53 cf3d 402b 18be 7f68 aa3c 8cda b8be
00000100: 580e 863e 1599 5cbe bb3a 1abe 4e03 353e
00000110: b548 e13e 12f5 983c 2529 9fbc febf f0bd
00000120: 1203 2ebf 7fac c7bd 3f05 863e bfe7 31bf
00000130: 1a24 183e 031b 203f 9c0e 55bf b0f1 de3d
00000140: 32cd 5f3e 15ea 1d3e e953 313e 7bee 61bf
00000150: a5ae 78bf 59bf 5a3e 82aa b7be 9390 fbbc
00000160: 45ec 08bf 02f8 0fbf 7ebc 43be c87e 6cbf
00000170: c719 703e d6b8 6f3f 9107 143e fe95 95be
00000180: 88a0 463f 2036 22bf 158c 3c3f 5dde 7cbd
00000190: 37de 773e 04c0 6dbe 609e c03e 5a05 92be
000001a0: 5995 2d3f e629 6cbd d8bb 80bf 3741 94be
000001b0: db4d e23d 49cb 3ebe ffbf 8dbc e332 cdbe
000001c0: 2e1c 2dbf 4b41 873f 38cb 1bbe 153b c4be
000001d0: 88d7 893d e0d8 21bf 9b54 d13e 9cfc ee3d
000001e0: b9de 68bf fa6f 04be 3db1 c53c ccbe 8fbe
000001f0: e408 e8bd 5d19 22bf ea32 cc3d 278d 433f
00000200: 5341 5ebf d775 d1be 5600 2bbe b1b9 ff3e
00000210: 14a4 713e b98b 293d 973e 55bf 1b3a 4f3e
00000220: a675 afbe 4e34 8fbe d9fc 99bd 4f5a 4a3d
00000230: cca1 423f 3989 20be da16 823e 02fa 56bf
00000240: f66f a83f be57 1a3f a91d d8bd 0f29 053e
00000250: 8ef3 273f 0011 06be bbf4 853d acd0 fe3e
00000260: 4198 b4be de5c 863f 2d31 19bf b143 b03e
00000270: c862 98bf 7b14 ba3a 6afb 24bf 9e0b 633d
00000280: e5ae 13bf 655e 32bf 4e85 4fbf eb6f e9be
00000290: 7531 8a3e 8bbb f83e 411f 443f f8fc 133f
000002a0: b9bb 05bf 41da 87bf e232 e1be 2744 f3bd
000002b0: b470 1abf c23d 1bbf 6eee f13e b7a1 c0be
000002c0: 48a9 0a3d d83d f13d 4c89 b0bf ed50 093f
000002d0: fda6 673f 201a 29bf 32dc 61be 75f7 b6be
000002e0: 732c 3fbd 2c6a 1d3f 3225 0fbe a1a8 17bf
000002f0: d393 17bf f7aa 863e 3b97 8dbe 401e 3ebf
00000300: f9a6 983c 86ce aa3e fcab e63e b436 57bf
00000310: 2ece 53bf eaac 08bf 4fa7 bfbd 5a41 e8be
00000320: dc52 b3bc 110f e8be 636b dbbe 4e15 2abf
00000330: 0a5e 123e 9d48 f13e 87ea 0c3d ff13 6ebe
00000340: 4f45 26bc ac67 e8be b67f 9e3f 96b8 9a3e
00000350: 6f6b 523f a1e0 ad3d 698c e9be 923a 95be
00000360: a786 e5bd 8b3d 6b3e 6f90 4dbf 1074 febe
00000370: 9639 6a3d 6e81 98be 4508 803f 6108 623c
00000380: f585 67be 4ca5 8b3f 1e7a 9d3e ec21 06bf
00000390: a9e4 6b3f 82a0 a6be 79fb 543f d65e b8be
000003a0: 6c17 00bf 8d45 0c3e a32b 42bf 627b 273c
000003b0: a716 9fbe bbba 90be a606 6bbf 8470 c5be
000003c0: b469 e83e e785 c3bc 7a90 193f 9663 c33d
000003d0: 26bf 87be a137 623f ccca c13d 65c3 93be
000003e0: cbcc 4fbf 03d3 de3d cf6f 0e3f de36 db3d
000003f0: c298 9bbe a7e2 08bf 707d 94be 0c84 56be

cos_embedding.weight f4 [256, 64]
0.025062308 0.21163657 -0.1716529 0.16267876 -0.29841575 0.023090713 -0.22597572 -0.03422505
-0.20080455 0.037967414 -0.12326685 0.08555979 -0.013277021 0.054546285 -0.013613751 0.115702465
0.15047874 0.15671158 0.14939088 0.16128723 0.21011275 0.24026565 0.21981646 0.18852048
0.15429129 0.1536188 0.13835843 0.06462884 0.05900739 -0.051958717 0.010252657 -0.11434326
-0.07611178 -0.15961455 -0.0963616 -0.18854763 -0.07842026 -0.18573454 -0.09928257 -0.18357742
-0.09951955 -0.13001013 -0.094040275 -0.10982089 -0.06098143 -0.114109404 -0.076932825 -0.08211974
-0.04991943 -0.035771783 -0.03489039 -0.0063170996 0.00289788 0.05009665 0.03324472 0.04525823
0.014057527 0.06035288 0.041523572 0.08033627 0.02261329 0.051917348 0.011203559 0.034900215
0.1834181 0.42427593 0.15694971 0.43406734 0.12577705 0.28122357 0.16776997 0.27895007
0.040132303 0.2800126 0.104016714 0.25532997 0.048478976 0.17477672 -0.048120886 0.22458361
0.00646386 0.09989754 -0.040153336 0.049209863 -0.074476264 0.0447468 -0.035237994 -0.0314532
-0.08790272 0.0057706703 -0.09382436 0.007336664 -0.07100306 -0.06686161 -0.024236228 -0.034780983
-0.02191313 -0.021062372 -0.03975357 0.016232328 0.0356889 -0.013901291 -0.012532018 -0.0044063414
0.06345256 0.03840771 0.046335783 -0.012474832 0.0493572 0.010128978 0.053472236 0.0050707697
0.013961481 0.024357297 0.030578066 -0.025650667 -0.017102614 -0.0011777914 -0.0017363824 0.01894971
-0.040857606 -0.006383139 -0.053437445 0.0122640375 -0.0693122 0.0057221274 -0.057255283 0.021025652
-0.5165397 -0.5724911 -0.3376538 -0.6052217 -0.2827897 -0.586467 -0.21088915 -0.54786295
-0.14324228 -0.5073306 -0.10945063 -0.46830222 -0.07457421 -0.43421268 -0.045303334 -0.34655097
0.008518078 -0.3182284 -0.0306212 -0.289495 -0.001242352 -0.21194066 0.044516694 -0.17402045
0.055052027 -0.13546978 0.07485236 -0.0954131 0.08646668 -0.05296954 0.101837024 -0.017496675
0.10101556 0.006344194 0.11231518 0.035347912 0.13642152 0.062071603 0.13760065 0.086046726
0.14781266 0.09277881 0.13420112 0.08724432 0.12719098 0.09414593 0.12516746 0.09660175
0.12529187 0.08114069 0.10102972 0.07399578 0.09555705 0.074212685 0.087050326 0.051592
0.07384673 0.03299487 0.0514672 0.03691449 0.029255765 0.014731321 0.022011522 0.014085259
0.3457319 -0.26914224 0.230662 -0.26139435 0.20312765 -0.21966001 0.17820737 -0.1760514
0.1608412 -0.16390757 0.10080021 -0.17070445 0.062710226 -0.15096258 0.03100798 -0.13603103
0.009957894 -0.10604909 -0.01327803 -0.07457122 -0.019382717 -0.03227579 -0.0142963575 -0.011579498
-0.03029586 0.008646313 -0.032769576 0.02992415 -0.039935872 0.04054854 -0.038073406 0.048274893
-0.03248177 0.05855574 -0.019767322 0.06630054 -0.019374339 0.06016674 -0.014449824 0.05397822
-0.009213122 0.045985404 -0.007758895 0.035687927 -0.010627077 0.023047233 -0.0071638427 0.02131789
-0.0053295833 0.006979733 -0.008008316 -0.004623238 -0.011328709 -0.007406626 -0.011026721 -0.011998783
-0.011988756 -0.015990915 -0.010866012 -0.011579644 -0.0016408575 -0.0096937595 -0.00045089435 -0.0040621157
00000000: 784f cd3c 42b7 583e c7c5 2fbe 4395 263e
00000010: f3c9 98be bc28 bd3c 2e66 67be 912f 0cbd
00000020: b59f 4dbe b883 1b3d 5573 fcbd f939 af3d
00000030: dd87 59bc ed6b 5f3d 360c 5fbc 6af5 ec3d
00000040: 1917 1a3e 0079 203e ecf9 183e 7b28 253e
00000050: cc27 573e 3308 763e 9117 613e 830b 413e
00000060: 89fe 1d3e 3f4e 1d3e d5ad 0d3e 205c 843d
00000070: bcb1 713d aad2 54bd c3fa 273c cd2c eabd
00000080: 7ee0 9bbd ff71 23be 3b59 c5bd a112 41be
00000090: cd9a a0bd 3231 3ebe a954 cbbd b8fb 3bbe
000000a0: e8d0 cbbd 6021 05be 3098 c0bd c6e9 e0bd
000000b0: aac7 79bd 31b2 e9bd f58e 9dbd 652e a8bd
000000c0: 5178 4cbd 6f85 12bd 3ae9 0ebd acff cebb
000000d0: 5cea 3d3b 2532 4d3d 9e2b 083d b260 393d
000000e0: 8b51 663c 9534 773d 9f14 2a3d 5887 a43d
000000f0: 823f b93c 49a7 543d 228f 373c 87f3 0e3d
00000100: f4d1 3b3e b23a d93e 6db7 203e 133e de3e
00000110: b3cb 003e 89fc 8f3e e4cb 2b3e 8bd2 8e3e
00000120: c561 243d d05d 8f3e b706 d53d 9cba 823e
00000130: e491 463d abf8 323e 681a 45bd 3ff9 653e
00000140: cace d33b 1597 cc3d d377 24bd 4890 493d
00000150: 0387 98bd 6c48 373d b755 10bd 12d5 00bd
00000160: 5706 b4bd e417 bd3b fc26 c0bd 6668 f03b
00000170: 0d6a 91bd bdee 88bd 0e8b c6bc 8176 0ebd
00000180: 2a83 b3bc ff8a acbc a4d4 22bd a9f9 843c
00000190: 862e 123d 3ec2 63bc 1853 4dbc 1263 90bb
000001a0: 6af3 813d 6751 1d3d 97ca 3d3d 3d63 4cbc
000001b0: c62a 4a3d 03f4 253c b405 5b3d b328 a63b
000001c0: b2be 643c f488 c73c da7e fa3c 5921 d2bc
000001d0: c81a 8cbc 1f60 9aba 5397 e3ba 6c3c 9b3c
000001e0: 4e5a 27bd a729 d1bb 39e1 5abd 1aef 483c
000001f0: 8ef3 8dbd af80 bb3b 8484 6abd fd3d ac3c
00000200: f23b 04bf c78e 12bf f5e0 acbe cfef 1abf
00000210: d0c9 90be b422 16bf 53f3 57be bf40 0cbf
00000220: 1bae 12be 6be0 01bf a727 e0bd 4fc5 efbe
00000230: 5dba 98bd 2051 debe fd8f 39bd 216f b1be
00000240: 698f 0b3c d5ee a2be 50d9 fabc b038 94be
00000250: 6ad6 a2ba f906 59be 2357 363d 6b32 32be
00000260: 3c7e 613d 97b8 0abe 324c 993d f267 c3bd
00000270: 7115 b13d 97f6 58bd ee8f d03d 3055 8fbc
00000280: 3fe1 ce3d f5e2 cf3b 8005 e63d f9c8 103d
00000290: 15b2 0b3e cb3e 7e3d 2fe7 0c3e 4439 b03d
000002a0: 345c 173e d102 be3d 056c 093e 26ad b23d
000002b0: 5a3e 023e 95cf c03d e62b 003e 23d7 c53d
000002c0: 834c 003e 172d a63d abe8 ce3d 198b 973d
000002d0: 6ab3 c33d d2fc 973d 7147 b23d 2252 533d
000002e0: f43c 973d a125 073d 45cf 523d a633 173d
000002f0: c9a9 ef3c a35b 713c 8251 b43c dcc5 663c
00000300: c603 b13e 03cd 89be a932 6c3e 7bd5 85be
00000310: b200 503e 8eee 60be fe7b 363e d146 34be
00000320: 8eb3 243e 63d7 27be 5770 ce3d 26cd 2ebe
00000330: 386e 803d ef95 1abe 7304 fe3c b84b 0bbe
00000340: 6f26 233c 4430 d9bd 188c 59bc ccb8 98bd
00000350: 81c8 9ebc 9e33 04bd 453b 6abc efb7 3dbc
00000360: 062f f8bc 44a9 0d3c 6439 06bd 7e23 f53c
00000370: cc93 23bd 3a16 263d dcf2 1bbd e5bb 453d
00000380: 9b0b 05bd 25d8 6f3d 14ef a1bc 94c8 873d
00000390: efb6 9ebc 6671 763d f4be 6cbc 4418 5d3d
000003a0: a2f2 16bc 315b 3c3d 543e febb 812d 123d
000003b0: 311d 2ebc 8dcd bc3c abbe eabb dba2 ae3c
000003c0: c9a3 aebb 3eb6 e43b 5035 03bc 887e 97bb
000003d0: 0d9c 39bc 48b3 f2bb 6ca9 34bc 8b96 44bc
000003e0: 7d6c 44bc 61ff 82bc 5c07 32bc 8cb8 3dbc
000003f0: 0b12 d7ba 93d2 1ebc 0466 ecb9 7f1b 85bb

cos_embedding.bias f4 [256]
1.6794955 -0.0890488 2.5766168 1.1482947 2.6479793 1.4236296 0.23577093 0.7869184
2.4700913 0.27090862 -0.22847836 0.49804616 1.7263898 -0.21638101 0.12088898 1.5646229
3.1226285 1.2896538 1.8961436 0.7844627 1.8975521 3.2165847 0.71621406 2.8695717
0.2664451 1.4374869 0.7783281 1.3174791 0.39597723 2.6394494 1.6413268 0.6922445
1.3043491 1.1984961 2.0354345 0.82618904 0.16240701 1.4279176 1.9627697 1.588934
0.16723664 0.25597113 2.0584016 0.10651751 -0.11264051 1.8759866 3.8089886 4.145714
2.5649242 2.4103785 1.4332043 0.7430924 0.2928563 2.0340621 1.9950674 1.7150404
1.4581037 0.10893992 1.7636206 2.4525642 0.011861665 0.14431074 1.0790641 2.486699
1.2310269 0.11876023 1.4103838 1.4019632 1.3690621 1.7912121 2.0138958 0.9328927
2.5563002 1.1940833 1.4968715 -0.049171064 0.03418562 2.5931003 0.8076494 1.3607973
2.2069428 0.017392904 2.1553411 0.19725052 -0.0005134672 1.4548848 1.8860234 0.4927717
2.3190029 1.8184589 0.11613993 1.2950883 2.8002467 1.0213852 0.0001938277 2.3848958
0.9409408 1.5577081 -0.227253 0.19947901 1.073045 0.33848533 1.4982039 0.6393071
2.2888482 -0.11906521 0.7730557 0.9082875 0.648796 1.0848758 1.2003136 1.895253
1.0012172 1.4126767 2.459729 0.6533312 1.8135396 0.13175602 0.8065912 0.47900167
-0.04290066 0.42022496 2.5599315 2.2448745 2.7718782 1.7396692 0.52282 1.2966636
0.34736377 1.3687391 0.00018693507 0.78353655 0.8127095 1.1577525 3.0546882 0.74252176
2.240533 0.50271404 1.1701586 0.8654793 4.147633 1.3375318 0.7174145 2.5559058
2.3616261 2.929131 1.832129 1.8825184 2.7685013 -0.010548636 2.691328 1.7978072
0.31600007 2.6510637 0.8898225 1.0546633 0.3642179 2.1132653 1.4419159 1.9007139
1.0070313 0.19652592 0.6350352 0.79634935 1.8000008 1.428661 2.8416765 1.0897282
3.092283 1.0376194 0.09395953 0.64708525 2.185725 0.49382356 3.6805022 1.4584343
0.07374111 1.8291925 1.76187 1.603733 2.1047192 1.4701449 1.562903 2.476969
1.7793051 0.9386242 1.6914594 1.6395876 -0.0719733 0.8594216 1.689846 1.9781485
1.9441377 0.57086796 1.6287237 1.7769693 0.6881377 0.5347269 0.036445424 -0.004496392
2.5837438 0.524371 1.189717 1.6334039 1.9561777 0.5864737 2.395713 2.1857314
0.014453441 1.6234049 4.609553 1.1530988 3.6374202 1.8843892 -0.016182583 0.79223716
0.24432978 0.6502279 1.6775149 2.629054 2.6333363 0.8550321 1.7765131 -0.106307164
0.235886 1.8164631 1.9432495 1.4590288 2.7230828 1.5847565 1.3470992 2.3539155
-0.10783586 1.348702 2.109792 -0.01816795 0.9616917 -0.07465206 2.8691347 0.62964153
2.1066146 2.172009 2.3118734 0.9140877 1.195457 0.6814908 1.5358696 2.078399
0.7784836 1.7261392 1.6839881 2.8093622 0.7903918 0.042075813 1.8594222 1.4108218
00000000: b5f9 d63f 385f b6bd 4ae7 2440 52fb 923f
00000010: 7e78 2940 7f39 b63f ef6d 713e 7c73 493f
00000020: fa15 1e40 89b4 8a3e 3bf6 69be e8ff fe3e
00000030: 57fa dc3f fc92 5dbe a494 f73d 9045 c83f
00000040: 25d9 4740 6013 a53f d5b4 f23f 8cd2 483f
00000050: fde2 f23f 86dc 4d40 ce59 373f 10a7 3740
00000060: 7e6b 883e 92ff b73f 8340 473f 28a3 a83f
00000070: 87bd ca3e bdec 2840 ff16 d23f f036 313f
00000080: e9f4 a63f 5268 993f 8f44 0240 2081 533f
00000090: 064e 263e 01c6 b63f 0a3c fb3f 3062 cb3f
000000a0: 1540 2b3e a60e 833e dabc 0340 da25 da3d
000000b0: 11b0 e6bd 5420 f03f 78c6 7340 b0a9 8440
000000c0: b827 2440 a443 1a40 3d73 b73f 4e3b 3e3f
000000d0: 43f1 953e 132e 0240 5e5e ff3f 7286 db3f
000000e0: 24a3 ba3f e51b df3d 52be e13f d0f6 1c40
000000f0: 6e57 423c 32c6 133e c61e 8a3f 1426 1f40
00000100: 4a92 9d3f 9038 f33d 7587 b43f 8873 b33f
00000110: 6d3d af3f 7046 e53f abe3 0040 0ed2 6e3f
00000120: 6c9a 2340 b9d7 983f 7c99 bf3f 9967 49bd
00000130: 3806 0c3d 5bf5 2540 1cc2 4e3f 9b2e ae3f
00000140: 8d3e 0d40 907b 8e3c 1cf1 0940 0afc 493e
00000150: 339a 06ba aa39 ba3f 3769 f13f 924c fc3e
00000160: 8b6a 1440 43c3 e83f c6da ed3d 74c5 a53f
00000170: 3e37 3340 c0bc 823f 3a3e 4b39 22a2 1840
00000180: 7fe1 703f fb62 c73f 03b5 68be 3a44 4c3e
00000190: 8a59 893f f34d ad3e 25c5 bf3f a1a9 233f
000001a0: 7d7c 1240 76d8 f3bd fae6 453f 8885 683f
000001b0: 7f17 263f 36dd 8a3f e0a3 993f a697 f23f
000001c0: e327 803f 97d2 b43f 336c 1d40 b740 273f
000001d0: 1122 e83f 0deb 063e c37c 4e3f b53f f53e
000001e0: 9ab8 2fbd ba27 d73e ebd5 2340 06ac 0f40
000001f0: 7466 3140 7bad de3f 88d7 053f 13f9 a53f
00000200: aad9 b13e d832 af3f 0004 4439 da95 483f
00000210: bb0d 503f 3c31 943f 0380 4340 e815 3e3f
00000220: e564 0f40 deb1 003f c2c7 953f 0d90 5d3f
00000230: 69b9 8440 3e34 ab3f 7aa8 373f f693 2340
00000240: e224 1740 e276 3b40 3483 ea3f 5df6 f03f
00000250: 202f 3140 30d4 2cbc b83e 2c40 8c1e e63f
00000260: c3ca a13e 07ab 2940 68cb 633f 35ff 863f
00000270: c57a ba3e bd3f 0740 b390 b83f 984a f33f
00000280: 67e6 803f 173e 493e ab91 223f 8ddd 4b3f
00000290: 6d66 e63f 5dde b63f 07de 3540 377c 8b3f
000002a0: f7e7 4540 b6d0 843f db6d c03d 61a7 253f
000002b0: ebe2 0b40 71d6 fc3e 598d 6b40 faad ba3f
000002c0: 9405 973d fb22 ea3f f584 e13f 1f47 cd3f
000002d0: b8b3 0640 b52d bc3f 350d c83f a986 1e40
000002e0: 45c0 e33f ad49 703f be81 d83f 02de d13f
000002f0: bd66 93bd 0e03 5c3f e04c d83f f833 fd3f
00000300: 81d9 f83f 6724 123f 057a d03f bb73 e33f
00000310: cb29 303f dde3 083f cc47 153d 7856 93bb
00000320: 0f5c 2540 2e3d 063f a648 983f 6113 d13f
00000330: 0864 fa3f 2423 163f 5d53 1940 06e3 0b40
00000340: 20ce 6c3c bbcb cf3f 7581 9340 be98 933f
00000350: 7ecb 6840 aa33 f13f 5691 84bc 0ed0 4a3f
00000360: 9631 7a3e 5675 263f cfb8 d63f 6c42 2840
00000370: 9588 2840 62e3 5a3f c864 e33f 92b7 d9bd
00000380: 198c 713e dd81 e83f 66bc f83f 75c1 ba3f
00000390: fd46 2e40 4dd9 ca3f bf6d ac3f 8da6 1640
000003a0: 0cd9 dcbd 44a2 ac3f d506 0740 f4d4 94bc
000003b0: 6d31 763f 2ee3 98bd e79f 3740 3030 213f
000003c0: c6d2 0640 3202 0b40 bcf5 1340 a701 6a3f
000003d0: bc04 993f 2e76 2e3f 6097 c43f 7d04 0540
000003e0: b44a 473f 21f2 dc3f ec8c d73f 97cc 3340
000003f0: 1e57 4a3f b057 2c3d 8c01 ee3f cf95 b43f

ff_1.weight f4 [256, 256]
-0.2411891 0.014877777 -0.7112268 -0.24806964 -0.20532064 -1.0116506 -0.14361316 -0.044438228
0.12044115 0.18722132 -0.08887724 -0.020733947 0.17351265 -0.1643723 0.21620889 -0.07517114
0.31332603 0.1535794 -0.03245818 0.07733336 0.026604814 -1.2379383 0.039697554 -0.27659413
-0.18488924 -0.24056895 -0.62779146 0.13506347 0.05802922 -0.26235852 -0.5118793 0.15594096
-0.21340543 0.24544798 -0.13161306 -0.34967324 0.13890931 -0.025158545 -0.0965669 -0.030218896
-0.20149605 -0.09140086 0.27698374 0.16010976 -0.43331206 -0.33872923 -0.4489699 -0.9809212
-0.6452369 -0.025505243 -0.34071025 -0.075710006 0.100978136 -0.43934822 0.09424958 0.09422165
0.35741055 -0.045062583 -0.1953125 -0.1669997 0.039685983 0.08404857 0.07019108 -0.5238091
0.06866586 0.06570562 0.042611614 0.047734834 -0.9923789 -0.6100391 0.1772854 0.052026216
-0.45874485 0.6941905 -0.30282128 -0.094673015 0.026988357 -2.4618762 0.108234204 -0.2639956
-0.75130016 0.0252591 0.07568982 0.12214092 -0.19320112 1.000786 -0.56828755 -0.017467871
-0.4094673 -0.1910368 -0.18251233 0.2624798 0.30868828 -1.0403545 0.91051155 0.1142801
-0.28302234 0.58105195 0.10759175 0.059182536 -0.27138162 -0.098229274 0.014297865 -1.5123675
-0.43040124 -0.018701147 0.25342706 -0.28480893 -0.16530102 -0.1551047 -0.2594557 0.03941604
0.28572088 0.15465277 -0.43779457 -0.29331613 0.017588375 0.27039555 -0.30477193 -0.53190196
-0.24074748 0.04115306 -0.72620934 -0.025000067 -0.17215356 0.52325743 0.01765624 -0.32858887
-0.035296485 -0.35820413 0.006536089 -0.47911343 0.6365359 -0.28955647 0.12651819 -0.08798202
0.114630766 -0.1790215 0.096932456 -0.08742896 -0.32816777 -0.17573822 -0.29768887 0.22503363
0.14917573 -0.79808074 0.15722059 -0.09904348 -0.15438932 0.060107805 0.050234772 -0.17028803
0.020320388 -0.35307705 0.4809597 -0.10006381 0.20430072 -1.1729867 -1.7351121 0.24598995
0.3389664 0.14146025 0.2966829 0.29630002 -0.04637936 0.47712988 -0.1423574 -0.19383027
0.54648155 -0.0013895351 0.30222404 -0.291923 0.12392917 -0.1128936 -0.14790863 -0.8602448
0.03310021 0.27402118 0.1647077 -0.40787157 0.096312724 -0.06810065 0.01571961 0.084927484
-0.5311763 0.12227639 0.07219766 0.07237508 0.07596131 -0.642617 -0.021398108 0.37115103
-0.53163403 0.15364207 -0.1396857 -0.14368054 -0.27266154 0.11815181 -0.061757743 0.084547676
1.0227605 0.109212205 0.22781998 0.027418468 -0.04508618 0.076906666 -0.19443314 -0.038927503
0.052631468 -0.30056456 -0.58556527 0.118301205 0.21510352 -0.101580605 0.010799039 0.1401839
-0.11200478 -0.11973848 -0.28465194 -0.012087728 0.28111258 -0.015693346 -0.4930773 -0.039185166
0.080921635 -0.049388945 -0.532343 0.17840256 -0.05161264 0.08500282 0.3274038 -1.9751239
0.16641216 0.13595626 -0.18867826 -0.054921966 -0.61415386 -0.038711898 -0.26584795 0.15249401
-0.35211197 -0.27596384 -1.395178 0.18852824 -1.0102032 -0.11811569 -0.19242777 0.37968063
-0.07920296 0.021299127 -0.228989 -0.25935525 -0.12966944 0.1740245 -0.031978257 -0.30068257
00000000: 47fa 76be ebc1 733c f612 36bf f805 7ebe
00000010: 933f 52be c47d 81bf 540f 13be dc04 36bd
00000020: daa9 f63d f2b6 3f3e 4505 b6bd 3dda a9bc
00000030: 4dad 313e 3651 28be dd65 5d3e 54f3 99bd
00000040: 456c a03e eb43 1d3e def2 04bd f460 9e3d
00000050: 57f2 d93c c374 9ebf e799 223d bf9d 8dbe
00000060: 9b53 3dbe b557 76be f1b6 20bf 144e 0a3e
00000070: 0cb0 6d3d db53 86be 860a 03bf fdae 1f3e
00000080: f486 5abe b756 7b3e 93c5 06be 5f08 b3be
00000090: 3e3e 0e3e 4b19 cebc dec4 c5bd 9e8d f7bc
000000a0: fb54 4ebe 6030 bbbd d0d0 8d3e d0f3 233e
000000b0: 14db ddbe eb6d adbe 62df e5be a71d 7bbf
000000c0: 3f2e 25bf 5ff0 d0bc 9371 aebe d90d 9bbd
000000d0: a0cd ce3d 40f2 e0be ec05 c13d 48f7 c03d
000000e0: 84fe b63e 8b93 38bd 0000 48be f801 2bbe
000000f0: c58d 223d a821 ac3d 57c0 8f3d 5a18 06bf
00000100: b0a0 8c3d ab90 863d 8489 2e3d 9a85 433d
00000110: 8b0c 7ebf 862b 1cbf 4e8a 353e 7119 553d
00000120: 9be0 eabe 78b6 313f 640b 9bbe ede3 c1bd
00000130: b016 dd3c 618f 1dc0 e5a9 dd3d 6e2a 87be
00000140: 3555 40bf 2cec ce3c 4403 9b3d 0525 fa3d
00000150: 84d6 45be c119 803f 4b7b 11bf c818 8fbc
00000160: b3a5 d1be 279f 43be 83e4 3abe c163 863e
00000170: 640c 9e3e 562a 85bf 4917 693f af0b ea3d
00000180: 4ee8 90be d2bf 143f 1059 dc3d 6369 723d
00000190: 88f2 8abe 6e2c c9bd 9841 6a3c 4295 c1bf
000001a0: 8d5d dcbe 2633 99bc 31c1 813e 7ad2 91be
000001b0: ac44 29be c4d3 1ebe 61d7 84be b772 213d
000001c0: 024a 923e 4c5d 1e3e 9c26 e0be 882d 96be
000001d0: 7f15 903c 4971 8a3e 110b 9cbe ba2a 08bf
000001e0: 8286 76be 1c90 283d dbe8 39bf f1cc ccbc
000001f0: 0649 30be 33f4 053f d2a3 903c cd3c a8be
00000200: 0c93 10bd 8866 b7be b02c d63b 5b4e f5be
00000210: 04f4 223f bf40 94be fc8d 013e eb2f b4bd
00000220: 89c3 ea3d 6951 37be 8684 c63d f40d b3bd
00000230: 9b05 a8be b8f4 33be ad6a 98be 376f 663e
00000240: 86c1 183e 054f 4cbf 6ffe 203e 4fd7 cabd
00000250: 3c18 1ebe 9a33 763d fac2 4d3d fc5f 2ebe
00000260: f176 a63c 84c6 b4be 5a40 f63e 41ee ccbd
00000270: 3534 513e 6e24 96bf 2718 debf cae4 7b3e
00000280: 018d ad3e f5da 103e d2e6 973e a3b4 973e
00000290: 49f8 3dbd 5e4a f43e 23c6 11be 717b 46be
000002a0: 37e6 0b3f 1021 b6ba 1cbd 9a3e ee76 95be
000002b0: 94ce fd3d c234 e7bd 5c75 17be 0139 5cbf
000002c0: 1694 073d 814c 8c3e 23a9 283e 8bd4 d0be
000002d0: 9b3f c53d 5b78 8bbd 69c6 803c 76ee ad3d
000002e0: 2cfb 07bf 0b6c fa3d 5edc 933d 6339 943d
000002f0: 9a91 9b3d 8c82 24bf 164b afbc 8207 be3e
00000300: 2b19 08bf 5954 1d3e c509 0fbe fe20 13be
00000310: 4b9a 8bbe 93f9 f13d b0f5 7cbd 5527 ad3d
00000320: d1e9 823f a6aa df3d a449 693e b29c e03c
00000330: 49ac 38bd 3e81 9d3d 7b19 47be 7272 1fbd
00000340: 1894 573d 99e3 99be 9be7 15bf e747 f23d
00000350: 1944 5c3e 7e09 d0bd 74ee 303c 5e8c 0f3e
00000360: c362 e5bd 7339 f5bd e6bd 91be 9b0b 46bc
00000370: fded 8f3e 558f 80bc a174 fcbe a080 20bd
00000380: 3eba a53d 104c 4abd a147 08bf 29af 363e
00000390: c767 53bd f515 ae3d 79a1 a73e dcd0 fcbf
000003a0: f367 2a3e 1e38 0b3e e034 41be dbf5 60bd
000003b0: 3039 1dbf 5e90 1ebd 391d 88be 6427 1c3e
000003c0: 0548 b4be 224b 8dbe 3195 b2bf 8c0d 413e
000003d0: 574e 81bf a4e6 f1bd c90b 45be 8065 c23e
000003e0: 2935 a2bd 827b ae3c 187c 6abe 36ca 84be
000003f0: 11c8 04be 7b33 323e a2fb 02bd 11f3 99be

ff_1.bias f4 [256]
0.08649452 -0.09327362 -0.15587741 0.10620293 -0.5883359 -0.81518817 0.2518259 0.10055953
-0.033963546 -0.06907442 -0.3645463 -0.28778848 0.10142778 0.16615173 -0.049690604 -0.23229952
-0.37355307 0.27472532 0.25683168 -0.1187908 -0.20526657 0.33259308 0.2973486 -0.5014613
-0.09610079 0.06800734 -0.5150177 -0.21518427 0.223563 0.018925268 0.0883516 0.04042684
0.01898184 -0.056752887 0.11406875 -0.5170858 0.30468294 0.76988447 -0.2661089 -0.5773334
0.001183036 -0.37421224 -0.5573611 -0.37376964 0.024523849 0.08448254 0.21721986 -0.32601342
0.016623957 -0.017554447 0.4909522 -0.35818362 -0.3370753 0.09752007 -0.02024921 -0.41544825
-0.0845848 0.41917053 0.032927327 0.10799022 -0.11195879 0.20433046 -0.078971885 0.08561486
0.09681187 0.33440608 -0.25488794 0.4084333 0.28780717 -0.10218559 0.29583317 0.2932312
-0.53158206 -0.18211403 -0.63191885 -0.2626425 -0.14832295 0.33739793 -0.08366969 -0.394823
-0.0853026 -0.045122508 -0.03392768 -0.8368135 -0.19367819 0.14766559 0.027009044 0.25731483
0.1096955 -0.047676515 0.06173806 -0.08874771 0.27073663 -0.367321 -0.14733712 -0.0069151083
-0.31164622 -0.44512847 -0.4694155 -0.25364438 0.09448964 -0.36961335 0.22167628 -0.12913579
-0.14781241 -0.12832265 0.13985053 -0.18697052 -0.56720895 -0.59282 0.25303656 -0.48020348
-0.29548866 0.49102145 0.07997866 -0.036066025 0.31708074 -0.33243132 0.066292174 -0.12642184
0.019178526 -0.012682835 0.3850612 -0.20868102 -0.6747583 -0.20328487 0.32601014 0.17189506
-0.046598487 0.21251473 -0.46533784 -0.21508479 -0.40075564 -0.13489905 0.33549693 -0.15853533
-0.20675157 -0.057907425 0.2305445 -0.27548435 -0.2790928 -0.19547758 0.052806474 -0.192836
0.13907765 0.21805185 0.37034062 -0.45496044 -0.35279527 -0.021411825 -0.10131547 0.2568269
-0.22324182 -0.45951077 0.38058478 0.13049795 -0.2706775 0.65461653 -0.30221966 0.22104037
0.16486743 0.26948968 0.021840194 -0.23125233 0.18059614 0.010435279 0.1438192 -0.051599227
-0.289169 0.25576654 -0.08566037 -0.2903305 -0.35829487 0.13047315 0.029683286 0.26257503
0.041338935 0.23083453 0.004641864 0.054168224 -0.3853491 -0.051353846 0.14405994 -0.026079439
0.0979687 0.28930035 -0.23904526 -0.13323286 0.2804657 0.12096216 0.086393006 0.0016809406
0.70676583 0.6210387 -0.058931466 0.08546278 0.3078571 -0.11960255 0.15732093 -0.35247332
0.042973783 0.099074244 -0.15032062 0.61010116 -0.16806951 0.13789605 0.14037298 -0.59871984
0.044815354 0.14709572 0.63854235 -0.10763199 0.74535334 -0.41187134 0.014351732 -0.116844915
0.38944095 0.010830468 0.14695598 0.28798276 0.29759082 0.19103171 -0.15554579 -0.21184723
-0.31147557 0.1274719 0.11256059 -0.2746183 -0.17648607 0.16372499 -0.18895388 -0.6781543
0.14897111 0.39209068 0.2529153 0.4733517 0.0683792 -0.2377129 -0.016988553 -0.218893
0.65995526 -0.028450994 -0.19527833 -0.35404968 0.20393816 -0.2650241 -0.25636116 0.1737363
-0.27447858 -0.419499 -0.29820588 -0.16446078 0.0136537235 -0.059121236 0.27184936 -0.13421308
00000000: 0a24 b13d 3d06 bfbd 549e 1fbe ec80 d93d
00000010: 2e9d 16bf 2cb0 50bf 53ef 803e 28f2 cd3d
00000020: 5c1d 0bbd e476 8dbd d0a5 babe 0359 93be
00000030: 5eb9 cf3d ae23 2a3e 6088 4bbd eddf 6dbe
00000040: 5942 bfbe cca8 8c3e 717f 833e 9748 f3bd
00000050: 6631 52be a449 aa3e 133e 983e c55f 00bf
00000060: 7ed0 c4bd 6f47 8b3d 33d8 03bf 4459 5cbe
00000070: b3ed 643e 2a09 9b3c aff1 b43d 9d96 253d
00000080: ce7f 9b3c b775 68bd e09c e93d bc5f 04bf
00000090: 67ff 9b3e 2617 453f 6d3f 88be 1fcc 13bf
000000a0: 1a10 9b3a bf98 bfbe 38af 0ebf bc5e bfbe
000000b0: 3de6 c83c 2f05 ad3d e26e 5e3e 3beb a6be
000000c0: f72e 883c 58ce 8fbc 165e fb3e d863 b7be
000000d0: 2295 acbe 9ab8 c73d ace1 a5bc a2b5 d4be
000000e0: cc3a adbd 859d d63e cede 063d fa29 dd3d
000000f0: a64a e5bd 013c 513e 03bc a1bd d856 af3d
00000100: 4d45 c63d 4637 ab3e ac80 82be 2b1e d13e
00000110: 765b 933e ae46 d1bd 7277 973e 6622 963e
00000120: c315 08bf 1a7c 3abe 6fc5 21bf 1479 86be
00000130: f9e1 17be 6cbf ac3e 045b abbd 3e26 cabe
00000140: 21b3 aebd 61d2 38bd c0f7 0abd 6939 56bf
00000150: 9353 46be a635 173e 1242 dd3c c5be 833e
00000160: 09a8 e03d 7348 43bd 0ce1 7c3d 5cc1 b5bd
00000170: fe9d 8a3e 8011 bcbe 8bdf 16be 2298 e2bb
00000180: 1890 9fbe e1e7 e3be 3a57 f0be addd 81be
00000190: c983 c13d f63d bdbe 1bff 623e 2c3c 04be
000001a0: 235c 17be 0367 03be fa34 0f3e 3375 3fbe
000001b0: 9b34 11bf 0dc3 17bf 028e 813e 3bdd f5be
000001c0: 4a4a 97be 2a67 fb3e dacb a33d f8b9 13bd
000001d0: 6858 a23e 7034 aabe 31c4 873d ba74 01be
000001e0: 491c 9d3c aacb 4fbc be26 c53e 7ab0 55be
000001f0: f6bc 2cbf e929 50be cdea a63e 4205 303e
00000200: 0ede 3ebd 769d 593e c340 eebe 303f 5cbe
00000210: d82f cdbe fa22 0abe 41c6 ab3e 1657 22be
00000220: afb6 53be 5630 6dbd db13 6c3e 490c 8dbe
00000230: 40e5 8ebe 462b 48be 9a4b 583d cd76 45be
00000240: 5f6a 0e3e fc48 5f3e 499d bd3e 93f0 e8be
00000250: 95a1 b4be da67 afbc 7c7e cfbd d17e 833e
00000260: 8199 64be ff44 ebbe 02dc c23e 41a1 053e
00000270: 3e96 8abe f394 273f 89bc 9abe 6858 623e
00000280: 02d3 283e 8dfa 893e 35ea b23c 69cd 6cbe
00000290: 32ee 383e bcf8 2a3c 5745 133e b659 53bd
000002a0: f60d 94be d5f3 823e b46e afbd 33a6 94be
000002b0: 6d72 b7be c19a 053e 5d2a f33c 3c70 863e
000002c0: 0453 293d e35f 6c3e c71a 983b 80df 5d3d
000002d0: 7a4c c5be 6958 52bd 7384 133e 8ca4 d5bc
000002e0: d0a3 c83d 2d1f 943e 48c8 74be 326e 08be
000002f0: 3399 8f3e 02bb f73d d1ee b03d 0253 dc3a
00000300: 9bee 343f 64fc 1e3f 1f62 71bd 1c07 af3d
00000310: 729f 9d3e 2ff2 f4bd bd18 213e 6277 b4be
00000320: 4705 303d 70e7 ca3d a6ed 19be 972f 1c3f
00000330: 6a1a 2cbe 9f34 0d3e efbd 0f3e b445 19bf
00000340: 4e90 373d 43a0 163e 8377 233f 296e dcbd
00000350: 7acf 3e3f cde0 d2be 8723 6b3c 634c efbd
00000360: ce64 c73e 4672 313c a17b 163e 7a72 933e
00000370: d35d 983e d19d 433e 6547 1fbe 7bee 58be
00000380: ba79 9fbe fe87 023e 2b86 e63d c59a 8cbe
00000390: c4b8 34be 86a7 273e 207d 41be 859b 2dbf
000003a0: e28b 183e 1cc0 c83e 1d7e 813e 275b f23e
000003b0: 650a 8c3d 036b 73be 942b 8bbc 7d25 60be
000003c0: d4f2 283f 0f12 e9bc 0bf7 47be 0046 b5be
000003d0: 2ad5 503e 3db1 87be c541 83be eee7 313e
000003e0: 7588 8cbe 93c8 d6be 71ae 98be 6868 28be
000003f0: deb3 5f3c 1c29 72bd d72f 8b3e 276f 09be

ff_2.weight f4 [1, 256]
0.5073099 1.2952929 -1.0365583 0.8421687 -1.5535747 -1.4159383 0.7099062 1.8336717
1.6096092 1.9955636 2.7014463 1.4114486 1.9321846 0.7234137 -0.7220776 1.2659672
-1.2666814 0.6671489 1.0996511 1.8457716 1.005234 -1.3608919 -2.1141474 -0.81056094
-0.7451619 0.5527716 -0.9293153 -0.7923372 0.62867707 -0.78226525 -1.7154188 0.6566767
1.0630723 1.1376445 1.1140943 -0.837797 1.7596843 0.41328326 1.5082694 -1.323265
1.1333423 -1.0213842 -0.773196 -0.87559575 0.917863 0.6498717 0.7725487 -1.0933108
-0.6736144 1.5673414 0.8135784 -0.6762315 0.9313758 1.0722064 1.3609952 -1.2741222
2.4720986 0.68127334 1.3721582 0.6438506 1.7146935 1.0366579 -0.7687018 1.3448882
0.54516983 0.77073324 -0.50028855 0.58969665 0.7916117 -0.9271186 0.5777544 -1.280821
2.0057366 -0.6400257 -0.7707999 -0.5335313 -0.68000454 -1.3753153 -1.7544878 1.3774018
-0.8515073 0.8444525 0.53961116 -2.6780024 -0.85264117 -1.3677768 2.1246912 -0.91194737
1.3093672 -0.8836188 1.0334005 -1.38811 1.3191098 -1.4244618 1.1812687 -1.3260903
-1.1624309 -2.040152 -0.63042957 -0.7329647 1.6468859 -0.7996611 -0.84176177 1.397109
-0.84015936 -0.93814456 -1.251993 -1.6167698 -0.7783269 -1.2158229 0.8176019 -1.4390873
-0.5884522 0.67653257 1.2969699 1.8398404 0.9679126 -0.45534173 0.4983484 -0.46745566
-1.0909874 1.0751477 1.3952935 -0.7491772 -0.82719356 -0.84933364 0.4763265 -0.81356555
-1.0358613 0.9948347 1.2639865 -0.45539838 1.8312979 -0.6378203 0.889133 -1.3536584
-1.6658897 0.950085 1.9264858 -1.0023085 -0.92191064 -0.58642876 0.98444813 1.3460948
0.2290056 0.9079204 1.156575 -0.7691473 -1.0432818 0.83533794 -0.9869704 1.4408275
2.211087 -2.0951164 1.108207 -0.5852062 -0.96914494 0.40958062 -0.77020156 2.5862637
-1.4191363 -1.2367839 -0.7965655 1.5915881 0.6608886 -0.6151537 0.622128 -0.9848073
-0.8667514 0.8482211 0.42326334 -1.4547793 2.4815733 -1.1366513 -1.1397692 0.80010086
0.9484949 0.9498319 0.9530369 1.9684527 1.537567 1.3965582 0.871063 1.1390764
-0.89197284 -1.5626843 -0.6020454 1.8577619 0.78689957 1.1047161 0.852272 0.9155223
0.40352058 0.39664832 0.9099713 -1.738469 1.1631311 -0.8761334 0.90403044 -0.9878048
-0.5789477 -1.3671968 -1.5708519 0.547075 -0.9084425 0.6830061 -0.8614734 2.2678196
-0.5855557 -0.88007456 0.40174615 1.1217848 0.43800247 1.3139561 -0.9568367 0.9100852
0.7082276 -1.0354468 1.229825 0.63647604 0.51653224 -0.7007224 -1.1759806 -0.92951405
2.2326205 0.53008205 1.8272105 1.4487225 0.7968594 -0.75945556 -0.9159994 2.5057552
1.0643796 -1.3445896 0.71292853 0.9969244 0.8919177 2.032969 0.7937183 2.3551419
0.39947292 0.9914708 -0.5157657 -0.6543693 1.543336 -1.1043403 -0.6981318 1.2182703
-1.0361477 -0.6643417 -0.84157526 -0.81210744 1.1493313 -0.6338804 0.7376141 0.9656026
00000000: 10df 013f 28cc a53f f1ad 84bf 5e98 573f
00000010: 89db c6bf 773d b5bf 6abc 353f c1b5 ea3f
00000020: ad07 ce3f a16e ff3f 7fe4 2c40 59aa b43f
00000030: d351 f73f a431 393f 14da 38bf 370b a23f
00000040: 9e22 a2bf 45ca 2a3f 5ec1 8c3f 3e42 ec3f
00000050: 82ab 803f b531 aebf 314e 07c0 ec80 4fbf
00000060: eec2 3ebf 7182 0d3f 9ce7 6dbf 9cd6 4abf
00000070: fbf0 203f 8942 48bf d892 dbbf f71b 283f
00000080: c112 883f 569e 913f a49a 8e3f dd79 56bf
00000090: 563d e13f dd99 d33e f90e c13f bf60 a9bf
000000a0: 5c11 913f b8bc 82bf 2cf0 45bf 0b27 60bf
000000b0: 12f9 6a3f fe5d 263f c0c5 453f 9cf1 8bbf
000000c0: fe71 2cbf a59e c83f ad46 503f 821d 2dbf
000000d0: a56e 6e3f 0f3e 893f 1735 ae3f 7016 a3bf
000000e0: dd36 1e40 ee67 2e3f e1a2 af3f 65d3 243f
000000f0: 147b db3f 35b1 843f a4c9 44bf 4c25 ac3f
00000100: 4090 0b3f c64e 453f e912 00bf 5cf6 163f
00000110: 10a7 4a3f a557 6dbf b6e7 133f f1f1 a3bf
00000120: fd5d 0040 b9d8 23bf 2453 45bf 8295 08bf
00000130: c714 2ebf 550a b0bf 0e93 e0bf b44e b03f
00000140: 62fc 59bf 0a2e 583f f523 0a3f 6464 2bc0
00000150: b146 5abf 4f13 afbf f1fa 0740 6275 69bf
00000160: 5899 a73f d734 62bf 7846 843f 97ad b1bf
00000170: 97d8 a83f c454 b6bf d033 973f 54bd a9bf
00000180: 89ca 94bf da91 02c0 d563 21bf 93a3 3bbf
00000190: 28cd d23f 97b6 4cbf b37d 57bf 78d4 b23f
000001a0: af14 57bf 3e2a 70bf 4e41 a0bf 50f2 cebf
000001b0: 6f40 47bf 16a0 9bbf 5c4e 513f 0334 b8bf
000001c0: cea4 16bf 3d31 2d3f 1c03 a63f e47f eb3f
000001d0: 1fc9 773f 8d22 e9be 8627 ff3e 5956 efbe
000001e0: 7aa5 8bbf 719e 893f fa98 b23f 14ca 3fbf
000001f0: f5c2 53bf ee6d 59bf 11e1 f33e d545 50bf
00000200: 1a97 84bf 7dad 7e3f 4fca a13f fa29 e9be
00000210: f867 ea3f 3148 23bf 389e 633f ae44 adbf
00000220: e03b d5bf c538 733f 1697 f63f a54b 80bf
00000230: 5602 6cbf 3220 16bf cb04 7c3f d64c ac3f
00000240: 7280 6a3e 796d 683f a60a 943f d6e6 44bf
00000250: 428a 85bf b5d8 553f 18aa 7cbf 096d b83f
00000260: 7382 0d40 6316 06c0 bad9 8d3f 13d0 15bf
00000270: e219 78bf 8db4 d13e ee2b 45bf 5885 2540
00000280: 42a6 b5bf ef4e 9ebf b7eb 4bbf 29b9 cb3f
00000290: ff2f 293f b67a 1dbf c843 1f3f 551c 7cbf
000002a0: 6be3 5dbf 0525 593f f9b5 d83e 3536 babf
000002b0: 19d2 1e40 ca7d 91bf f5e3 91bf 69d3 4c3f
000002c0: 90d0 723f 2f28 733f 3afa 733f 42f6 fb3f
000002d0: ffce c43f 6bc2 b23f fcfd 5e3f 41cd 913f
000002e0: 5558 64bf 0a06 c8bf a61f 1abf 24cb ed3f
000002f0: 4072 493f 5667 8d3f 7f2e 5a3f ab5f 6a3f
00000300: 409a ce3e 7d15 cb3e e1f3 683f 2786 debf
00000310: 7be1 943f 474a 60bf 8a6e 673f c6e0 7cbf
00000320: eb35 14bf 4e00 afbf ad11 c9bf 1b0d 0c3f
00000330: b08f 68bf 7dd9 2e3f 8589 5cbf f523 1140
00000340: fae6 15bf 914c 61bf acb1 cd3e a596 8f3f
00000350: dc41 e03e b72f a83f 40f3 74bf 58fb 683f
00000360: 674e 353f 8589 84bf e86a 9d3f 18f0 223f
00000370: 753b 043f 8b62 33bf 8886 96bf a2f4 6dbf
00000380: 41e3 0e40 75b3 073f 09e2 e93f bd6f b93f
00000390: fafe 4b3f ae6b 42bf f07e 6abf 4b5e 2040
000003a0: 973d 883f 831b acbf 7c82 363f 7036 7f3f
000003b0: b854 643f 2a1c 0240 1f31 4b3f a5ba 1640
000003c0: b787 cc3e 08d1 7d3f 3909 04bf bf84 27bf
000003d0: 098c c53f 065b 8dbf c4b8 32bf 48f0 9b3f
000003e0: 7da0 84bf 4c12 2abf 7a71 57bf 46e6 4fbf
000003f0: 4a1d 933f fc45 22bf 47d4 3c3f bb31 773f
