runs/checkpoint_actor_256_192021_tau1_1030.pth (torch, 288535 bytes, 6 tensors)

fc1.weight f4 [256, 19]
00000000: 0ae0 49bd 600e f13b 5cbd 6bbd 0e33 4fbd
00000010: 3024 b9bc 503e 61bd 707f 58bc 789c 70bc
00000020: 861b 54bd 6850 06bd 7001 bd3b 98fa be3c
00000030: 8469 2bbd 282b 2f3c 0032 603d 98ce 6abc
00000040: 2c79 9b3c d841 4d3c 0067 13bb 6de2 e9ba
00000050: c08d 63be 02ad 103e 728e 7fbe d6a4 8abe
00000060: feb2 8e3d f809 d63e 38ce 07bd 2243 7dbe
00000070: 8567 a5be 9bb1 8abe 667a 80be 6a08 47be
00000080: dcbc 9c3d 7bb3 013e 2577 e9be 48a3 44be
00000090: a687 e6be 53fb d8be ad98 c13c abb7 113e
000000a0: cb29 f43d 3d5e ce3d ca26 26be 4cfd 30be
000000b0: 2188 273f e47f 88bf 36ec 35bf edb4 b3be
000000c0: ff41 30be 4ba3 29be 5c11 82bd 8791 a53e
000000d0: cc55 02be 1d29 ac3e 1a59 92bf 5e2c 63bf
000000e0: 34f3 b8be 93b3 92bc 57d7 4dbe ca89 39be
000000f0: 2f8e 75be 5bea f6be 0334 a43e 5dfc c13e
00000100: d30a c3bf 6561 cdbf be1d c7bf f374 c7be
00000110: 329d babe d008 b7be f412 06be 9379 1fbe
00000120: 76dd b8be ccb2 9a3e 43e7 193e 9a8e bb3e
00000130: 8f58 17bc 7410 913e 23f7 d1bc 2935 d7bd
00000140: 1393 b43e f1bd 65bf 02e4 99be 2410 2cbe
00000150: 7b7e 55bd 8e21 fabd fb09 ca3d e88d 6e3d
00000160: 1caf 813d 1272 653e e6f4 b93e cd8e 52be
00000170: 7d08 e4be 6315 cbbd 05eb 42be bb42 7f3d
00000180: 0cee a83d d706 e2bd fbf3 ccbd 420d 39bd
00000190: 4350 01bf ce99 d33f 1ba3 7c3f c545 7d3f
000001a0: 5333 8f3f 2fa4 0fbe 0155 1bbe c198 bebd
000001b0: d528 973d 6037 7fbe e3af 3dbe 4f72 f2be
000001c0: 7696 2dbd eedf 843d 9fbe a7bd fd27 a3bd
000001d0: 8aad 2fbd 258a 803c c9d2 ab3c 117e aabd
000001e0: 9c40 853c 4d15 e5bc 1110 febc 37d1 973d
000001f0: 80eb 52bd f566 8bbd 5b45 0cbc cd09 13bd
00000200: 7a6c a1bc 4dec 633d 902d bebc c7e0 9abd
00000210: 3ff2 78bd 9b05 a437 63b3 023e f5d1 e9bd
00000220: 562a 92be b7e0 61bf e88d 19be bf89 86bf
00000230: 62be 39bf a97b 64bf 2d60 5abf e9e0 be3d
00000240: e35f 813d 4a1b 223d 8b02 643e 5c11 fb3d
00000250: fbfa bf3e d3eb 31bf 8bc4 85bf ad4d 0bbf
00000260: b3f1 cc3b 9606 883d 28d3 c2bd dd57 2f3e
00000270: 2922 37bd 0f11 75bd e615 953d 4bce 673f
00000280: b59e 7e3f 191a 893f a79f 4ebe 443f 44be
00000290: dcfb 1dbe f223 e8be f95a 9dbe 87f9 593e
000002a0: 0f22 abbf 7169 5abf a50f eebe 2031 983c
000002b0: 281a b9bd a358 913e ed8a 1a3d e967 e93e
000002c0: a88b e7bc 33bb 133f 0127 46be 9ffa 65be
000002d0: b461 85be 404d 2cbe 2724 99be d08f 70be
000002e0: 22c0 143f 1c42 04bf 0603 2abe c991 19bd
000002f0: dea0 cdbe 9722 48bd fcbe 2d3d 32ee 10be
00000300: c6bd d0be f065 413d eb19 8c3d fb30 31bf
00000310: 433d b4be 05a4 c63f ff44 b53f 5603 ab3f
00000320: d707 9d3d a368 9b3c fc09 683d 013a d3bc
00000330: b7b9 85be 913e c2be cdd1 7abe eba0 80bc
00000340: 8e2a 83be 71e0 86bd 3317 833c e8c8 46bd
00000350: a53c 84bc ec19 263d 472c ea3c 4a8d 6abd
00000360: dee6 afbc 7ad0 31bd ce8f 523d d819 a8bc
00000370: 79e3 533c 54c3 44bd d23e d43c cc14 e9bc
00000380: 9a7e 1c3c a5e4 5fbd d065 bcbc f3c3 66bd
00000390: c1ea 1f3c 0569 b4bc 5388 c83d 4116 a63d
000003a0: 7706 5dbf 6267 e6bd d34d 30bf a81c 023e
000003b0: cc07 793e fa83 763e 6b83 04bd da0f 0ebe
000003c0: a832 87bd a8e4 ad3e b0e1 2fbe c6e4 e23e
000003d0: dfb9 8ebe a14a 59bf 56fc e4bd bcd4 14bc
000003e0: 9838 22bb 47d9 e93d 098e a5be ec3f 51bf
000003f0: eed1 f8be a5a9 733f 57d9 633d b635 dcba
-0.049285926 0.00735645 -0.057553634 -0.0505858 -0.022600263 -0.054991066 -0.013213977 -0.014685743
-0.05178406 -0.032791525 0.0057679936 0.023312852 -0.041848674 0.010691442 0.054735184 -0.014331482
0.018978678 0.012527905 -0.0022491813 -0.0017843969 -0.22222042 0.14128497 -0.24956682 -0.27078885
0.06967734 0.4180448 -0.03315565 -0.2473264 -0.32305542 -0.27088627 -0.25093383 -0.19436803
0.076532096 0.12666123 -0.45598713 -0.19202912 -0.45025367 -0.42379245 0.023632372 0.1423022
0.11922034 0.10076568 -0.16225734 -0.17284125 0.6544209 -1.0664029 -0.71063554 -0.35098973
-0.17212676 -0.16566198 -0.06350967 0.3233759 -0.12728041 0.33625117 -1.1433442 -0.88739574
-0.3612305 -0.017907893 -0.20101677 -0.18118969 -0.2398002 -0.48225674 0.32070932 0.3788785
-1.5237678 -1.6045347 -1.5555952 -0.38956413 -0.36448056 -0.3574891 -0.13093168 -0.1557372
-0.3610646 0.30214536 0.15029626 0.36632234 -0.009237423 0.28332865 -0.02563054 -0.10508186
0.3526846 -0.8974295 -0.3005677 -0.16803032 -0.052122574 -0.12213431 0.09865185 0.0582408
0.063322276 0.22406796 0.36319655 -0.20562287 -0.44537726 -0.099161886 -0.19034965 0.0623195
0.08248529 -0.11036461 -0.10007473 -0.04517866 -0.50513095 1.6531312 0.9868638 0.98934585
1.1187538 -0.14027475 -0.15169145 -0.09306479 0.07380835 -0.24923468 -0.18524127 -0.47352836
-0.04237982 0.06488024 -0.08190655 -0.079666115 -0.04289011 0.015690872 0.020974534 -0.083248265
0.01626616 -0.027964259 -0.03101352 0.074129514 -0.05149412 -0.06806747 -0.0085614575 -0.03589802
-0.019705046 0.055645276 -0.023215085 -0.07562404 -0.0607779 1.9552934e-05 0.12763743 -0.11416999
-0.28547925 -0.8823351 -0.14995539 -1.0510787 -0.72556126 -0.8925119 -0.85303 0.09320242
0.06317117 0.039576806 0.22266595 0.122591704 0.3749617 -0.69500464 -1.0450605 -0.544154
0.0062543987 0.06641881 -0.09512931 0.17123361 -0.044710312 -0.05983072 0.072795674 0.90549153
0.9946092 1.0711089 -0.2017809 -0.19164759 -0.15428108 -0.45339924 -0.3073347 0.21286593
-1.3369769 -0.8531714 -0.4649631 0.018578112 -0.09038192 0.28387937 0.037730146 0.4558709
-0.028264835 0.5770752 -0.19350816 -0.22458886 -0.26051104 -0.16826344 -0.29910395 -0.2349236
0.5810567 -0.51663375 -0.16602716 -0.037492547 -0.40161794 -0.048861112 0.042418465 -0.14153364
-0.40769786 0.047216356 0.06840881 -0.69215363 -0.3520299 1.5518805 1.4161681 1.3360393
0.07667511 0.018970793 0.056650147 -0.025784494 -0.26118252 -0.3793836 -0.24494095 -0.015701732
-0.25618404 -0.065857776 0.016002273 -0.048531443 -0.016142199 0.040552065 0.028585566 -0.05726365
-0.02147239 -0.04341171 0.051406674 -0.020520136 0.012932652 -0.048037842 0.025908861 -0.0284523
0.009551669 -0.05466141 -0.022997767 -0.056339215 0.00976056 -0.022022733 0.09791627 0.08109713
-0.8633799 -0.112501875 -0.6886875 0.12706244 0.2431938 0.24073783 -0.032351892 -0.13873234
-0.06601459 0.33963513 -0.17175937 0.44315165 -0.27876183 -0.848795 -0.11180942 -0.009083923
-0.002475297 0.114183955 -0.32334927 -0.8173816 -0.48597664 0.9518073 0.055627193 -0.0016800675

fc1.bias f4 [256]
00000000: 0519 8d3d 7dd8 c0be 2856 2b3e c8d3 91be
00000010: 6de2 173e 8f46 ee3c 7c5f 263e 13bb 663d
00000020: 04b8 94be e126 7ebe f7f4 743d 5003 3f3e
00000030: 3ceb a13d 143a fd3d 811e a63d fc4f 933d
00000040: 2052 c3be 9c94 bb3e b87d 6fbe bfdb d9bd
00000050: 0fe2 3e3e 938b 91be 17f1 0fbe d6ea 84be
00000060: 478e 34be ce7d a6be 1bed fcbd 51af 3ebe
00000070: 55fe b63d 8f86 25be 75d7 0fbd f431 8d3e
00000080: 6b49 e03d 81b8 93bd 033f 5a3e 69a6 a4bc
00000090: e35c 47bd 423f 3a3d 603a 42be c6fb 81be
000000a0: 8fcf c8bc 700f a0bd 2840 d4be 55cd 41bc
000000b0: ddb0 003d d82b 413e e9b0 7c3d a674 1fbe
000000c0: 8559 ac3d d272 623e ad51 3b3e 1d11 963e
000000d0: 9cb7 59be 9264 2bbe 7b1e 21be 2722 963d
000000e0: 9109 df3e a58c 02be aaf5 f63c c1b3 34be
000000f0: 788d 5ebe 94ad 09be bd8c 5abe 5c2d 313e
00000100: d250 873d a95f c03e 5ae0 8fbd 13ec 88bc
00000110: 1fc0 3bbe 2a86 b7be 40a8 54bd 4949 d23c
00000120: bec9 793d bad7 8cbd 4264 ab3c f2af 33bc
00000130: 7978 d7bd 9f20 a6be 2b8a b93d 8986 6fbb
00000140: 0fa6 ea3c 0748 8ebd ca81 a2be b050 4cbd
00000150: d8fa 6a3e 1b3c 16bf 9575 b3bc 5df8 11bd
00000160: 1290 a7be 4b41 ee3d 8d15 7d3b a206 98be
00000170: 03f7 19be 83d6 1b3e b981 ffbd 1ee2 57be
00000180: adc8 e13d 07fc 7a3e d4e2 ae3d b73e 2dbe
00000190: f526 49bd 7f41 3d3f 50a0 d8be ca27 1ebe
000001a0: 2cfd 353e 7d56 983d 77de edbc 3de2 943e
000001b0: f3b3 a1be 20ef 873e 3e54 243e f098 97be
000001c0: 2696 aebe 93bc 0fbc eacb 753d 4643 423e
000001d0: f349 a0be 7b9d 5cbe acef 7f3e 4e56 47be
000001e0: c389 aa3c f645 83be d0e5 103e 74b6 073e
000001f0: 58ad 3dbe 40c7 85be b8e7 1abe af5d a23e
00000200: 8bd0 0abe 261c 61be d700 0cbe a6c8 44be
00000210: a84d 66bd c04f b8bd 7df7 99bc b3fc d43b
00000220: 3d94 48bd 5058 bebe e73b 0fbe 32ad b33e
00000230: ea49 f83c 0a7f 69be 4327 87be d560 9abe
00000240: e19d b63d 5eea e4bd 6439 10be 52ca 01be
00000250: 9332 8dbe d102 bcbd c605 c1bd fb54 123e
00000260: 62c9 2ebe c67b fa3d 33a9 22be f5bc 38bf
00000270: 6254 323e b678 2f3d 87ea 6ebe e40d a3bd
00000280: 9303 7ebe 435a f9bd 87e3 f53d 062d 9b3e
00000290: 8064 91be 8a5f f4be 24f3 633e 4eca d83c
000002a0: e489 c2bd 2237 13be 3767 28bf cb06 88be
000002b0: b3aa 7a3e 4100 273e 7b39 96bd 7909 acbe
000002c0: ead8 8f3d 7d0d 023e 44b4 863c 6262 c03d
000002d0: b530 9ebe c1fc fabc a3c7 2f3e 057b bebd
000002e0: 8f3e 20bd f3bf f5be c42c aebd b71f 89bd
000002f0: 639c 3fbe bc0a 34be 4cb5 67be 30b8 883c
00000300: d8ca a8be a73e ee3d 6175 82be 053e 9cbe
00000310: 39d6 f338 9da3 2cbe 288c 8bbe e346 febe
00000320: d5ac e73c 4dc6 4ebe 8ba2 1d3e 8f05 6d3d
00000330: 76fe 7f3d 1609 213e 7d01 c83d 912d 8ebd
00000340: 0ee3 81be 09df 7abe 22e3 023e e19b 6fbe
00000350: d615 17be 2372 f2be 2a6a da3d c462 b03d
00000360: f4de 593e e441 193e 6f2d 8dbd 7eeb d7be
00000370: 0fd4 19be 17bd b83d 7182 5bbe 088e ccbe
00000380: dd12 293d 6023 42bd 0c1d 9fbc fe62 9d3e
00000390: 1e42 abbd 38d6 74be 5ca2 f6bc 8f31 0cbd
000003a0: 9b0a 42be d958 2dbe 0e31 34be c08e 7bbe
000003b0: 4bce 18be a6ef 313e 14fa 393d 689a 123c
000003c0: 1407 9fbb ff83 1b3e d23c 43be 613f e43d
000003d0: e626 7e3e 544f 12b9 cc4e 863e ea52 9ebe
000003e0: d3e5 563e eb20 303e 1d71 10be c836 50be
000003f0: 50d6 523d 0180 0abe 8b3e 5bbe 1387 5cbe
0.06889538 -0.37665167 0.16732085 -0.2848189 0.14832468 0.02908638 0.16247362 0.05633075
-0.29046643 -0.24819519 0.05980393 0.18653607 0.079061955 0.12364593 0.08111287 0.0719299
-0.38148594 0.36636817 -0.23387802 -0.10637616 0.18640922 -0.284268 -0.14056812 -0.25960416
-0.176324 -0.32517856 -0.12349912 -0.18621565 0.08935229 -0.16164611 -0.035117585 0.27577174
0.10951503 -0.07212926 0.213131 -0.020098882 -0.048672568 0.045470484 -0.18967581 -0.253874
-0.024513034 -0.078154445 -0.41455197 -0.01182874 0.03141867 0.18864381 0.061692152 -0.15571842
0.08415512 0.22114113 0.18292876 0.2930993 -0.21261448 -0.16737583 -0.15734284 0.07330733
0.43561986 -0.12748964 0.030146439 -0.17646696 -0.21733654 -0.13445121 -0.2134275 0.1730246
0.06607212 0.37572983 -0.070252135 -0.016714131 -0.18335007 -0.35844547 -0.05191827 0.02566971
0.060983412 -0.06877084 0.02092183 -0.010967242 -0.10521025 -0.32446763 0.090595566 -0.0036548695
0.028643636 -0.06947332 -0.31739646 -0.049881637 0.22947252 -0.58685464 -0.021906653 -0.03563725
-0.32727104 0.116335474 0.0038617582 -0.2969256 -0.15035634 0.15218548 -0.124759145 -0.2108235
0.11024604 0.24510203 0.08539358 -0.16918455 -0.049109418 0.73928064 -0.4230981 -0.15444866
0.17772359 0.07438371 -0.029036744 0.29078856 -0.31582603 0.26549625 0.16047761 -0.2960887
-0.3409893 -0.008772987 0.06000892 0.18970975 -0.3130642 -0.21544449 0.24993771 -0.19466516
0.020817643 -0.25639313 0.14150167 0.13253194 -0.18523157 -0.26128578 -0.15127456 0.317121
-0.13556115 -0.21983394 -0.13672195 -0.19217166 -0.056226403 -0.08999586 -0.01879477 0.0064998507
-0.048969496 -0.37176752 -0.13987695 0.35093075 0.030308682 -0.22802368 -0.26397142 -0.30152002
0.08916832 -0.111775145 -0.14084393 -0.12674835 -0.27577648 -0.09180225 -0.09424929 0.1429023
-0.17069009 0.12230639 -0.15884857 -0.72163326 0.17415002 0.04283973 -0.23331653 -0.07961634
-0.24806051 -0.12175419 0.12006288 0.30307788 -0.28396988 -0.4772914 0.2226072 0.026463654
-0.09498957 -0.143765 -0.65782493 -0.26567683 0.24479179 0.1630869 -0.07335182 -0.33600977
0.07023795 0.12700458 0.01644338 0.09393765 -0.30896536 -0.0306381 0.17165999 -0.09300808
-0.03912216 -0.47998008 -0.08504632 -0.06695502 -0.18712 -0.1758222 -0.22627753 0.01668939
-0.32967257 0.11633044 -0.25480178 -0.30516067 0.00011627045 -0.16859289 -0.27255368 -0.49663457
0.028280655 -0.20192833 0.15394036 0.05786663 0.062498532 0.15726122 0.09765909 -0.06942285
-0.2536854 -0.24499144 0.12781957 -0.23399307 -0.14754423 -0.47352704 0.106647804 0.08612588
0.21276456 0.14966542 -0.068934314 -0.42171854 -0.150223 0.09020441 -0.21436478 -0.3995211
0.041277755 -0.047397017 -0.01942303 0.30739588 -0.0836222 -0.23909843 -0.030106716 -0.03422695
-0.18949358 -0.16928424 -0.17596838 -0.24566174 -0.14922445 0.17376575 0.04540451 0.008947946
-0.0048531387 0.15187071 -0.1906617 0.11144901 0.24819526 -0.00013953197 0.26231992 -0.30922633
0.20986108 0.17200057 -0.1410565 -0.20333397 0.051473916 -0.13525392 -0.21410577 -0.21535902

fc2.weight f4 [256, 256]
00000000: f405 583d 7e18 973e 7479 653e aaeb 24be
00000010: 674a e33d 3ce4 02bd 1bc6 43bd 1815 283e
00000020: e382 a0be f23b adbe 6d14 11bf f89d b6bc
00000030: 003f 113e abb9 53bf 16ff f03d 7548 39be
00000040: dd11 893d ff12 43bf e27f 0dbd f38f ee3d
00000050: 0b9d 303c 0aa9 303e 54a9 e53c a022 953d
00000060: 6c87 8cbd f398 8f3d 9848 733d e694 c2be
00000070: 48c2 aa3c 79af a63d 90e1 073e 4aac d7bd
00000080: 2e9b 063d 651a 973c 089a 793d fe4f ec3b
00000090: 4256 c7bc b8a7 8f3c b75c 57bd dc21 98bc
000000a0: 1b11 abbc 3d99 a8be 9867 46bf a05e 3d3b
000000b0: accd 23be b776 7f3e b8d5 6fbe e185 ef3d
000000c0: 3178 64bd 1128 2c3d 18d2 31bd 09ae 08bf
000000d0: 6e6d 9e3d c6d7 2ebd 198b 393d 6f0c 6dbe
000000e0: ab29 0cbe c05f 063c 00f9 22bb 7062 b23e
000000f0: 35c5 3a3d 2f67 333d 4016 7c3c 01b6 abbe
00000100: df90 a23e 2492 46bf bc74 e13e 3f7f a5bc
00000110: 8117 c63c 4cea 65be 0015 f43d db8a 453d
00000120: 1a3a 9abe c01e 9a3c 63dd 8bbe 5a95 80bd
00000130: 90ad 33bf b1dc 9f3e 3815 e2be 414c 003e
00000140: dc89 ec3e 087a 8bbc 5585 033f 3304 9cbd
00000150: f24c 48bf e960 ba3d 52ca 093d af68 243e
00000160: 9e97 8cbe a98f 043d 8e96 433d 82bb 5ebe
00000170: 746a 5dbd 85ee 59bd 229c 703e e789 283c
00000180: a2d9 5ebd 7804 4fbe 51a3 883d b25d 763d
00000190: bc70 a33c 1fcf 873d b21a 3e3e b4f4 06bd
000001a0: 28af 96bc afaf b03e ca79 b0be 37a2 b6be
000001b0: 071b b6bd 5843 0abe 85cc 79bd 8968 85bd
000001c0: f05a efbe 9dcb bcbe 0e65 0d3b cd11 e83b
000001d0: 0036 efbd 67e3 ab3c 115b 9ebe 53c5 2b3e
000001e0: 7a22 20bf 7b2c 5cbd 48d8 553c b2f5 a23e
000001f0: 86b5 a0bf 2cec 77bc dda1 09be b474 ee3d
00000200: c718 f6be b833 8f3e c121 27be b483 fa3e
00000210: d069 1d3c c4f4 70be 28f4 443d 059a c7be
00000220: 8a7b 62be 9d9e ddbc 3aea 8ebc 3cf6 253e
00000230: 5979 4e3e 5025 31be 387c 973c f717 083e
00000240: 828c 403d b15d e5bd bcd1 8d3d 3de8 0fbe
00000250: 2a0a 133e c27a 19bd c63a eb3d 8c08 a8be
00000260: 2404 1c3e 715d f9be 9c94 aabd 36ba 033e
00000270: 7471 be3c 9d98 1fbd be90 f1be 2f67 5ebc
00000280: 3665 3fbd 1590 74bd c177 b9be 1d83 af3e
00000290: 1778 f6bc 2424 7dbd 42e3 403e 20e3 fcbb
000002a0: 37dd a0bd 5fa3 6a3d 13ee 143e 9f8a 4c3e
000002b0: cf0d d23e 7c0f 88bc f08d 8f3d bc2b 8abe
000002c0: 78f3 483d 74c2 ef3d 2083 5fbe 3ed0 153e
000002d0: de95 7fbe 1625 8d3e 6df2 99bc e18d 153d
000002e0: d973 51bd ef51 3ebe 640b dfbc abcf 853e
000002f0: 1c4c 88be a67c 963c 39dc 273e 38d1 0ebe
00000300: a8d9 5d3e 6d92 f4bd dd87 af3d b968 c13b
00000310: 3b4c 923e 03ad c7bd 26ae 2b3e 6c7f 183e
00000320: 3ef8 a43d 2a5b 7c3d d0b1 7fbd 6a61 b63c
00000330: 497d 2c3c ee89 903e 8ed8 6c3d 0815 503d
00000340: c4ad 403e 371a 8fbc f274 823e 9715 2ebe
00000350: cd4b 793e 5a20 323e 25ca f7bd 5cd7 50bd
00000360: c3fa 3d3d 3049 6e3d 45ae 15bf dbc1 79be
00000370: 3678 be3d e06e 2dbd 9c37 f43d c066 7c3e
00000380: 8221 cc3e 3554 d4bd a412 23bd ec4c 66be
00000390: 0ccb 8a3d a782 2c3d 4437 ccba 97c3 233c
000003a0: 09ef 91be 9780 03bc 0a32 a1be d6cb f9bd
000003b0: dd68 94be 29c2 39bd 8975 3c3d 804c 71bc
000003c0: 57c0 333d f587 bd3d 6d9d 873c 2c2e 373e
000003d0: 2e3d ba3d 606d 5fbb 75e0 5abe 345e b8bd
000003e0: 610b 313d cf58 ffbb 1d4c a53e 5b85 aabe
000003f0: c2eb 7e3e a221 583c d2ef fa3d 40b7 cdbb
0.052740052 0.29510874 0.22409612 -0.16105524 0.110981755 -0.031955943 -0.04779635 0.16414297
-0.3134986 -0.33834797 -0.5667179 -0.022292122 0.14184189 -0.8270518 0.11767404 -0.18094046
0.0669286 -0.7620086 -0.034545787 0.1164855 0.010779629 0.17251983 0.028034844 0.07281995
-0.06861767 0.070115946 0.059395403 -0.38004225 0.020844594 0.081389375 0.13269639 -0.105309084
0.032862835 0.018445203 0.06093791 0.0072116842 -0.024333123 0.01753603 -0.052578654 -0.018570833
-0.02088218 -0.32929412 -0.7750182 0.0028895512 -0.15996426 0.2494763 -0.23421371 0.11695457
-0.055778686 0.042030398 -0.04341325 -0.53390557 0.07735716 -0.042686246 0.04529867 -0.23149274
-0.1368777 0.0082015395 -0.0024867654 0.34840727 0.045598228 0.043799575 0.015386164 -0.33537295
0.31751153 -0.7756674 0.44034374 -0.020202277 0.02418113 -0.22452658 0.11918068 0.048228126
-0.30122453 0.01881349 -0.27317342 -0.062784865 -0.7018671 0.31223062 -0.44156814 0.12529089
0.46198928 -0.017025962 0.51375324 -0.076179884 -0.7824241 0.091005154 0.033640213 0.16055559
-0.27459425 0.032363568 0.047751002 -0.21751216 -0.0540566 -0.053205986 0.2349706 0.010286785
-0.05440677 -0.20216548 0.06671775 0.06014795 0.019951217 0.06631302 0.18564871 -0.03294821
-0.018394068 0.34509036 -0.34467918 -0.35670635 -0.08891874 -0.13502252 -0.06098606 -0.06514079
-0.46749067 -0.36874095 0.0021575126 0.0070822 -0.116802216 0.020982457 -0.30928853 0.16774492
-0.6255261 -0.053753357 0.013052054 0.31828076 -1.2555397 -0.015131991 -0.13440652 0.11643353
-0.4806578 0.27969146 -0.1632147 0.48928607 0.009607747 -0.2353087 0.048084408 -0.38984695
-0.22117439 -0.027053172 -0.017445672 0.16207212 0.20163478 -0.1729939 0.01849185 0.13290392
0.047009 -0.11199511 0.06924769 -0.14053436 0.14359346 -0.037470587 0.114858195 -0.3281902
0.15235955 -0.48704103 -0.08329126 0.12864003 0.023247458 -0.038963903 -0.47180742 -0.013574406
-0.04672738 -0.05970772 -0.36224177 0.3427972 -0.03008656 -0.061802045 0.18836692 -0.007717505
-0.078546934 0.05728471 0.14543943 0.19974755 0.4102616 -0.016608946 0.07009494 -0.26986492
0.049060315 0.11707011 -0.21827364 0.1463022 -0.24959514 0.27567357 -0.018792355 0.03651226
-0.05113587 -0.18585943 -0.027227111 0.26135 -0.26620567 0.018369984 0.16392602 -0.13946998
0.2166506 -0.11941991 0.08570836 0.0059023765 0.28573784 -0.09749796 0.16765651 0.14892358
0.08055161 0.06161038 -0.062425435 0.022263248 0.010527917 0.28230232 0.05782371 0.050801307
0.18816286 -0.017468555 0.25479847 -0.17000423 0.24345322 0.17395154 -0.12099103 -0.050986633
0.046381723 0.058175266 -0.5846904 -0.24390356 0.09300272 -0.042342067 0.11924669 0.24648571
0.39869314 -0.10367624 -0.0398127 -0.22490281 0.06777009 0.042116787 -0.0015580435 0.009995363
-0.28502682 -0.008026264 -0.3148349 -0.12197082 -0.28986254 -0.04535118 0.046010528 -0.014727712
0.0438846 0.09254447 0.016554559 0.17888707 0.090937 -0.0034092292 -0.21374686 -0.09002343
0.043223742 -0.007792569 0.32284632 -0.33304867 0.24894622 0.013191612 0.12252773 -0.0062779486

fc2.bias f4 [256]
00000000: 728d 7abb 2ca8 a13d f943 bf3c 5738 983d
00000010: 5110 013f c0e0 d2bd 2d97 d83d 2865 1a3e
00000020: b8b0 00bd 841c e53c fa45 d9bd 8103 4ebe
00000030: 6b53 a2be 35b1 cebe c7da b9bd 5e71 10ba
00000040: dfee 49be eb7a 05bd 8b9f b53e 7cd3 503d
00000050: 276d 1b3e 1edd bebb 077f 63bd 3bbd b1bd
00000060: aa1f f1bb f5b3 6fbe ac4e c7ba 4309 d33c
00000070: 5068 a03d 156b 25be 6764 a3bd a15b b4bd
00000080: a82e acbe 4cb5 60bb 5038 23bd 1ff9 c6be
00000090: 761b cfbc ad2d 02ba 13e7 52be facb 96be
000000a0: f4b0 b6bc 55ca 943e 40d7 ac3d 35cf 52bd
000000b0: 28f0 bebd e03f c4bd a889 28bc fb82 03be
000000c0: fb21 403c 2645 f0bc 458b 853e c641 49be
000000d0: a3e3 98bc 4d97 b5bc f598 9bbc 9972 92bd
000000e0: 81e2 4dbd f20d bfbe 4d4b e4bd b936 183c
000000f0: 06ac 5e3c 7347 673e b902 35bc 28e7 493b
00000100: df54 7abb 7729 6cbc 2fed 1abd 6ec3 9a3c
00000110: 4163 86be 5ea0 0ebe c444 f1bd fc79 3cbe
00000120: 4a9c 8bbe 9420 aebd c848 b0be 970e 1bbd
00000130: 53d0 1c3c 5fb0 9fbd d917 d7bb 1368 d5bc
00000140: b46c a2bd 2520 5ebe 17fe 90be 1c9e 05bd
00000150: f6b2 533d cb62 8cbe fca3 e53b 3238 c13d
00000160: 84ae 05bf c064 f0bd 2ebd 72bd fba2 703b
00000170: e468 83bd 08f6 01bf 3e68 17bd 613e 313d
00000180: 02a4 4cbe d005 5dbe f4f5 c4bc b11a 093d
00000190: 5bb1 43bc 535f 8bbd fb2c fbbd e004 5c3e
000001a0: e799 faba 031f 1bbe 65d9 de3d 384e 9fbd
000001b0: ad06 d9be 6a54 51bd d62c 53bd 5338 e73d
000001c0: 0dd4 e5bd e058 eaba 80b6 bcbd bc53 bfbb
000001d0: 3e2f 73bd feb2 a1bd e0f7 363b e5cd 25bb
000001e0: 35e0 8cbd 888f 393e 5aa5 7dbd 4475 e5bd
000001f0: d756 d8bc 7be2 10be a55e 5abd 0de4 2e3d
00000200: f1af 1fbe db54 97bd 79f5 93be a94f e2bd
00000210: 8572 81bd 6c9d cebd ced5 c33e 9e02 803e
00000220: 6c78 85bd c7b3 1e3d 2acb afbd 13d6 9dbb
00000230: 2b81 3ebd 02a8 e23c 5ed5 85bd d773 e2bc
00000240: 7392 c2bc f069 233d 9f28 55bd 1fe2 833c
00000250: 256c d03c 4bbc 26be 7d83 d43e 34cb a1be
00000260: 9adf 98bd 9bdb 26bd 7e16 67bd 1478 a63b
00000270: a8d5 c2bd a23b cc3b 4965 32be c0d4 a1bd
00000280: 703f 9fbe b9d7 0dbf d057 643c 4883 6ebd
00000290: 097b b5bc ae5f 88bd bb84 03be b578 ebbc
000002a0: 1451 9e3d 73bd c53d 8f69 f9bd 7c88 7ebd
000002b0: 66b8 08bd 3d5a eebe 1611 033d fb2f 9abe
000002c0: cde5 0a3c 5a9c 84bd 3840 e3bc 3d9e c03d
000002d0: 8255 45bd fc7f 86be 44ad 3dbe bba1 4cbe
000002e0: ec9d 91bc da5d 0fbb be3e 013c 4eb4 c03c
000002f0: cd8d d63c b5e7 0abd 387a ffbd 61ce 55bc
00000300: 4ce3 db3c c350 e2bb 8cb4 213e 68d1 aabd
00000310: 1f7e 193d 2a93 a5be af1a 103d df34 bdbd
00000320: b27f 5d3c 1d5e eebe 7356 8fbd 948d 693c
00000330: 760d 40bc f4c8 643d 0188 2bbe 72eb 81ba
00000340: f8d4 44bd 476e edbc 6a72 03bf 4e77 f9bc
00000350: 1d45 223e c311 6bbd adea be3c a4c5 6ebe
00000360: 71b1 863d c4ea 3a3c a428 8abd c473 cbbb
00000370: cd5c 0bbf 0553 99bd 7d3a bb3d a9b8 24be
00000380: 5c0c 32be c04d 95bc 773b 093c 65ad 79be
00000390: b9c0 ee3d 3d42 1f3d b5c4 c53b a8dd 8e3d
000003a0: b086 1d3e 4c6d e53d 4018 d6bd c1e5 dbbd
000003b0: feba 103d 60ca b33d e69e c0be 5c48 7abd
000003c0: 88dc 2fbe 4d37 4ebc 9670 fd3b 91ff 6dbe
000003d0: e699 01be daca acbd e10b b43c 16c5 cfbd
000003e0: ba7e f43a b4e9 02be 7731 cbbd db82 d9bd
000003f0: c153 d73d 0724 aabd 64c2 a0be 31f1 a3be
-0.003823128 0.07893404 0.023347842 0.07432621 0.5041552 -0.10296774 0.105757095 0.1507765
-0.031418532 0.027967699 -0.1060905 -0.20118524 -0.31704268 -0.40369573 -0.090749316 -0.0005510057
-0.19720028 -0.032587927 0.35473284 0.050982937 0.15178357 -0.005824699 -0.055541065 -0.08678671
-0.007358511 -0.23408492 -0.0015205941 0.025761252 0.07832396 -0.1615413 -0.079781346 -0.08806539
-0.33629346 -0.003428775 -0.039848626 -0.3886194 -0.02528165 -0.00049659127 -0.2059596 -0.29452497
-0.022301175 0.29060617 0.08439493 -0.05146714 -0.0932315 -0.09582496 -0.010286726 -0.12842934
0.011726852 -0.029329848 0.26082817 -0.19653997 -0.018663233 -0.022166872 -0.018993834 -0.07150764
-0.05026484 -0.37315327 -0.11147175 0.009290391 0.013590818 0.2258585 -0.011048012 0.0030807946
-0.003819756 -0.014414183 -0.037823852 0.018892016 -0.262476 -0.13928363 -0.11780694 -0.18405908
-0.27267677 -0.085023075 -0.34430528 -0.03785571 0.009571153 -0.07797312 -0.006564122 -0.026050603
-0.0793089 -0.2169195 -0.28318855 -0.032621488 0.051684342 -0.27419123 0.007008074 0.094345465
-0.52219415 -0.117379665 -0.059262447 0.0036718238 -0.06416491 -0.5076604 -0.036964647 0.04327238
-0.19984439 -0.21584249 -0.02404306 0.03347272 -0.01194414 -0.06805291 -0.12264439 0.21486235
-0.0019119353 -0.15148549 0.108813085 -0.07778591 -0.42387906 -0.051105894 -0.05155643 0.1129004
-0.11222086 -0.001787927 -0.092144966 -0.0058388393 -0.059371226 -0.07895468 0.002791874 -0.0025299725
-0.068787016 0.18121159 -0.06192527 -0.11204007 -0.026408596 -0.14148895 -0.053312916 0.042697955
-0.1559446 -0.07389232 -0.28898218 -0.1105035 -0.06320671 -0.100886196 0.38249058 0.25001997
-0.06517109 0.038745668 -0.08583672 -0.0048167794 -0.046509903 0.027668003 -0.06534837 -0.027643127
-0.023751473 0.03989595 -0.052040692 0.016099034 0.025442192 -0.16282766 0.41506568 -0.31600344
-0.074645236 -0.040736776 -0.056417935 0.0050802324 -0.09513408 0.0062326947 -0.1742145 -0.07901907
-0.31103086 -0.5540729 0.013936952 -0.05823067 -0.022153394 -0.066588745 -0.12843601 -0.028744081
0.07730308 0.09655275 -0.12178337 -0.06214188 -0.03337898 -0.4655322 0.031998716 -0.3011473
0.00847764 -0.06475134 -0.027740583 0.094051816 -0.04817725 -0.2626952 -0.18523127 -0.1998357
-0.017775498 -0.0021876008 0.007888494 0.023523476 0.026190663 -0.03391238 -0.12474483 -0.013049693
0.026841782 -0.0069066 0.1579153 -0.08340722 0.037473794 -0.3233884 0.035181697 -0.092386
0.0135192145 -0.46556178 -0.06998911 0.014254946 -0.011721959 0.055855706 -0.167511 -0.0009912087
-0.048054665 -0.028983248 -0.51346457 -0.030452397 0.15846677 -0.057389986 0.023305262 -0.23317581
0.06576813 0.011408512 -0.06746033 -0.0062088687 -0.5443848 -0.07486538 0.09142015 -0.16086067
-0.17387527 -0.01822555 0.008375994 -0.24382551 0.11657853 0.03888153 0.006035412 0.06975871
0.1538341 0.11202487 -0.10453844 -0.107371815 0.03533458 0.08778834 -0.3762123 -0.061104164
-0.1717397 -0.012586427 0.0077343686 -0.23242022 -0.12656364 -0.08437128 0.02197832 -0.10145013
0.001865349 -0.12784463 -0.09921544 -0.10620662 0.10514022 -0.08307653 -0.31398308 -0.32019952

fc3.weight f4 [3, 256]
00000000: 5386 3dbe d8c2 8cbd 9c60 653b db09 91bd
00000010: 0b77 debd 3cf4 27bf 7d78 1abf 23dc 23be
00000020: 3e0d 253c 0ed4 323c 380b a73e 3b84 5ebe
00000030: ba4f fb3c 95a4 3dbd 03e4 b1bb f7c1 b93d
00000040: e294 3dbf 7c49 68bc 0732 2bbd 1ce2 43bf
00000050: ee86 04bf 0fa3 5e3b 27aa 0fbf 50f3 22bc
00000060: 5259 08bc 0582 a13f b9e7 883e 737a 9ebe
00000070: bc1f 2ebe e58d 303e df6a 0a3c 08cf 5c3b
00000080: f141 33bd e0e6 00be d552 dc39 48f7 88be
00000090: c52a bfbb b30f 7e3a 0b7d b0be 990d 17bf
000000a0: 9530 2a3c 2c68 dbbd a9c8 4a3e 2946 d03e
000000b0: 45d4 01bf b6f6 debe 7faf e1bb 7308 063c
000000c0: 8fb1 36bc 99df 0fbc 3ee9 e0be 8a86 0bbf
000000d0: 9633 91bb 5432 0a3c 9a50 1ebe 8a41 b73b
000000e0: ccb7 793e 6a4e 953e 023c ce3b 787f c0bb
000000f0: 32a3 acbb 7de7 8abe bdd6 febe 06c5 22bb
00000100: ed77 25bf 9649 02bc e0bc 26be f364 253e
00000110: 4ebf 58be a149 713e 6369 2a3e 2fde 193f
00000120: e9b5 b5bd f0b2 edbe a312 89be de18 2fbd
00000130: b63e c73d 52d9 a8be 88aa 43b9 9a49 73ba
00000140: 5d6b 5c3b 6378 fb3e a912 bd3d 7ba2 3e3a
00000150: 5074 063f 2d3a 4e3e f688 183f 04c0 e2be
00000160: 07fc a63d 6d49 d0bc 774a 15bb f875 523e
00000170: 8157 993e 3f2d 2d3f 0fc2 c63b 1973 003f
00000180: e393 6abe d3e0 f43e 141b f83c dc85 dcbe
00000190: d9e0 603b d472 003d cd2f ca3e 58f4 52be
000001a0: ba18 5a3e ff30 bebe 4f35 01be c9cc 64bc
000001b0: a289 09be 3a23 773a 3e01 3c3a 598a 8dbe
000001c0: 6d73 c43e 6195 033f c82b dc3a f34d 0b3b
000001d0: 8257 4dbc b1b5 3a3b ac9e c6bb 99f2 64bc
000001e0: 51a6 bb3b d433 c8be d7bc e73c 279e b2be
000001f0: b5a3 9fbe 00fe 193f 912f c7bc e798 18bf
00000200: 5bdd 003f c301 ddbc 8678 b13e 2e4b 10bc
00000210: e90c f1b8 e55d 20bf d2d4 543e de06 cf3e
00000220: efdf 22bd 2bfe 4d3e 9c73 b6bb 2cca 1abe
00000230: 2f58 1d3c 97fc 94bd ff21 eabb 1869 08b9
00000240: 17e3 feb9 fc66 bdbc 7f37 2c3b d1d0 66be
00000250: 14ab 2bbb aa98 87be 71f6 783c 2b46 5abf
00000260: 98ec 24ba 06a5 d4be ee1b 423e ea3c f6bb
00000270: 0379 97bb 9ec1 86bb f598 32be 6714 df3d
00000280: 74a8 88bf 0335 0cbc 0275 e43b f2ff d7bb
00000290: faaf 0f3f fd37 3dba 8518 c23e aa18 193e
000002a0: f27c 0fbf ce2a a33d e8a5 0c3e cbfd 96b9
000002b0: a2ec 21bf e098 093e 8b92 0d3d 560f 39bb
000002c0: f784 2eba 7b6a c3bc 2b2d ba3b 0472 27bf
000002d0: 7b72 033f 926e 87bf 4097 99be 67c6 16bf
000002e0: 55d7 adba 305c 11bc 16ac cfbb cb35 e13c
000002f0: 429a 983e a2e6 163f 4c84 fcbe 85c8 98bb
00000300: d04d 2f3b 07ad febe cebb 423e 0fa2 38bc
00000310: 12c0 f2bd 4662 723e 0613 3fbf 7065 6abb
00000320: 0bbc 6c3b 05d1 33bf eaec e4bc 0e38 65ba
00000330: a031 02bf 5b07 85be 1bb6 92be 7286 d1be
00000340: e8e1 3f3f 38f0 85bd a94b da3e c968 99bc
00000350: b0da 373e 7345 a5bb 4959 3bbb 7ed7 c93e
00000360: 9efa f13e 533f 3a3f be63 4dbb 740c 94bc
00000370: c7e1 26bf 0835 9ebb 8786 c6be 6aba 90bd
00000380: 7689 a1be 0581 1bbc 59b1 bebb edc2 4c3f
00000390: b6b7 b4be 91c0 babd d3a2 c0be 261e b7be
000003a0: e350 d6bd d455 c13d 7ffa 443f c708 58bc
000003b0: 0657 4d3c 27bb c7be 9034 e73e a2f6 12bd
000003c0: 910a 233e 4eef 52bc bb20 9d3e 8c54 613e
000003d0: 6f85 2cbf 0a7e eebb f133 2e3c e387 dbbe
000003e0: e3f1 6fbc 7086 0cbf 63b6 6f3d 03ee b23d
000003f0: cfe2 7d3e e1b1 2b3b 699d 1a3f eab9 b63e
-0.18508272 -0.06873101 0.003500021 -0.07081958 -0.108625494 -0.6560705 -0.603401 -0.16001944
0.010073958 0.010914816 0.32625747 -0.2173013 0.030677665 -0.046299536 -0.0054287924 0.09070199
-0.740553 -0.014177676 -0.041795757 -0.7651689 -0.51768386 0.0033971702 -0.56119007 -0.0099457055
-0.008322077 1.2617804 0.2673929 -0.30952796 -0.17004293 0.17241628 0.008448332 0.0033692736
-0.04376406 -0.12588072 0.00042023385 -0.2675116 -0.005833956 0.00096916704 -0.344704 -0.59005123
0.010387559 -0.107132286 0.19803108 0.40678528 -0.5071452 -0.435476 -0.006887376 0.008180725
-0.011150732 -0.008781337 -0.4392795 -0.54502165 -0.0044311984 0.008434851 -0.15460435 0.0055925297
0.24386519 0.29161388 0.0062937746 -0.0058745705 -0.005268478 -0.27129737 -0.49773207 -0.0024836673
-0.6463612 -0.007952115 -0.16282988 0.1615179 -0.21166727 0.23563243 0.16641764 0.6010465
-0.08872587 -0.4642558 -0.2677203 -0.042748325 0.09728758 -0.32978302 -0.00018660177 -0.0009280682
0.003363333 0.49115285 0.09232075 0.0007272136 0.5252123 0.2013938 0.59583986 -0.4428712
0.08153539 -0.025425637 -0.002277998 0.20552814 0.29949573 0.67647165 0.006065614 0.50175625
-0.22907977 0.47827777 0.03028635 -0.43070877 0.0034313707 0.03135951 0.39489594 -0.20601022
0.21298495 -0.37146756 -0.12617992 -0.01396484 -0.13431409 0.00094275514 0.0007171816 -0.27644613
0.38369313 0.5139981 0.0016797716 0.0021256178 -0.0125330705 0.0028489644 -0.0060613956 -0.013973855
0.0057266136 -0.39102042 0.028288288 -0.34886286 -0.31179586 0.601532 -0.024314674 -0.5960831
0.5033776 -0.02697838 0.34662265 -0.008806987 -0.0001149418 -0.6264327 0.2078431 0.40434927
-0.03976434 0.20116489 -0.005567981 -0.15116185 0.009603544 -0.0727474 -0.007145166 -0.00013009121
-0.0004861585 -0.023120396 0.0026278195 -0.22540595 -0.00261945 -0.2648366 0.015195475 -0.8526332
-0.0006291359 -0.41532153 0.18955967 -0.0075145857 -0.00462258 -0.0041124364 -0.17441161 0.10892563
-1.0676408 -0.008557561 0.006971956 -0.0065917904 0.56127894 -0.0007218121 0.37909332 0.14950815
-0.56050026 0.07967149 0.13735163 -0.0002879932 -0.632517 0.13437223 0.034563582 -0.00282379
-0.00066573865 -0.023854485 0.005681654 -0.6540835 0.5134656 -1.0580618 -0.29998207 -0.5889649
-0.0013263026 -0.008872077 -0.006337653 0.02749147 0.2980519 0.5894567 -0.49319685 -0.0046625757
0.002674926 -0.49741384 0.19016954 -0.0112691065 -0.11853041 0.23670301 -0.746384 -0.0035766028
0.0036122825 -0.70240813 -0.027945 -0.00087440095 -0.5085697 -0.25982174 -0.2865456 -0.40922886
0.7495408 -0.06539959 0.4263585 -0.018726723 0.17954516 -0.0050436794 -0.0028587154 0.3942222
0.47261518 0.72752875 -0.0031339969 -0.018072344 -0.6518826 -0.004828099 -0.3877451 -0.07066806
-0.31550187 -0.00949121 -0.0058194813 0.79984933 -0.3529641 -0.091187604 -0.37624225 -0.3576519
-0.10464647 0.094401985 0.76944727 -0.013185686 0.012532955 -0.39009973 0.4515729 -0.03587974
0.15922 -0.0128744375 0.30689034 0.22004908 -0.67391104 -0.0072782086 0.010632501 -0.4287711
-0.014645073 -0.54892635 0.058523547 0.087368034 0.24793552 0.0026198553 0.6039644 0.35688716

fc3.bias f4 [3]
00000000: 7064 3dbe 4b49 593e 5ce3 fa3c
-0.18495345 0.21219365 0.030625992
