runs/checkpoint_actor_256_192021_tau1_630.pth (torch, 288535 bytes, 6 tensors)

fc1.weight f4 [256, 19]
000000 0a e0 49 bd 60 0e f1 3b 5c bd 6b bd 0e 33 4f bd
       -0.049285926 0.00735645 -0.057553634 -0.0505858
000010 30 24 b9 bc 50 3e 61 bd 70 7f 58 bc 78 9c 70 bc
       -0.022600263 -0.054991066 -0.013213977 -0.014685743
000020 86 1b 54 bd 68 50 06 bd 70 01 bd 3b 98 fa be 3c
       -0.05178406 -0.032791525 0.0057679936 0.023312852
000030 84 69 2b bd 28 2b 2f 3c 00 32 60 3d 98 ce 6a bc
       -0.041848674 0.010691442 0.054735184 -0.014331482
000040 2c 79 9b 3c d8 41 4d 3c 00 67 13 bb 7d 6a d0 3c
       0.018978678 0.012527905 -0.0022491813 0.025441403
000050 8c 63 ee bd ec 1e 62 3e c5 02 02 be 0e 4d 6a be
       -0.11640081 0.22082108 -0.12696369 -0.22880957
000060 98 60 93 3e be d5 6d 3e 1a 3b 0e be ae c1 b7 be
       0.28784633 0.23226067 -0.13889733 -0.35889953
000070 2b 8c c6 be 54 be 52 be 08 85 39 be 55 be f0 bd
       -0.38778815 -0.20580417 -0.18117154 -0.11755053
000080 e4 2b b1 3c 66 91 e1 3d 0d 04 d6 be 10 85 6a be
       0.021627374 0.11014061 -0.41799966 -0.22902322
000090 ad 70 fe be 28 c5 e5 be bd ec 1e bb 55 1b c7 3d
       -0.4969534 -0.4487698 -0.0024249994 0.0972201
0000a0 9a 7e 03 3e cd ea 71 3d 6b 2d 57 bd f3 ed 7d be
       0.12841263 0.059061814 -0.05253355 -0.24797802
0000b0 01 bb 49 3f 93 0f 40 bf 79 dd dc be a9 3e 29 be
       0.7880097 -0.75023764 -0.4313772 -0.16527809
0000c0 ef 6b 2a be 91 fb 0d be cb 56 94 bd 9a ba 51 3e
       -0.16642736 -0.13865496 -0.07243117 0.20481339
0000d0 ae c5 30 be 53 70 51 3e d5 20 79 bf 9d 05 59 bf
       -0.17262909 0.20453005 -0.9731572 -0.8477419
0000e0 a8 e6 f2 be 7a 11 7b 3c 59 da 05 be ea f2 ff bd
       -0.47441602 0.015323991 -0.13071574 -0.12497504
0000f0 f6 82 3b be 18 c0 f3 be 41 7c a3 3e aa 02 00 3f
       -0.18311676 -0.47607493 0.31930736 0.50004065
000100 48 0a a3 bf fc 08 ab bf 09 e7 a4 bf 26 db 89 be
       -1.2737513 -1.3362117 -1.2883006 -0.2692501
000110 b0 80 85 be ba fb 70 be 2f 91 8f bd f2 bc de bd
       -0.26074743 -0.23533526 -0.070101134 -0.10875882
000120 71 b4 99 be 66 aa 68 3e d0 d8 ab 3d 4e 8d 79 3e
       -0.30020478 0.22721252 0.08390963 0.2437031
000130 05 42 0f bb 7a 65 6f 3e b2 2a 94 bd 43 4e 8e bd
       -0.002185942 0.23378554 -0.07234706 -0.06948521
000140 c5 c6 f0 3e 80 28 27 bf e9 96 0a be f2 5b b9 bc
       0.4702665 -0.65296173 -0.1353413 -0.02262685
000150 87 80 9a 3d e6 4c ae bc 63 b6 8a 3d 2b 11 d8 3c
       0.07544046 -0.021276902 0.06773069 0.026375374
000160 b3 49 6a 3d 70 07 0a 3e 3e 0f 7b 3e f3 3d f5 bd
       0.05719919 0.134794 0.24517533 -0.119747065
000170 f5 63 af be 8a 2e da bd 13 d3 c5 bd 92 b7 b0 ba
       -0.3425595 -0.10653408 -0.096594 -0.0013482443
000180 5d 97 6d 3d 63 5e 26 be 18 ae a5 bc 15 f5 e5 be
       0.05800568 -0.16246943 -0.020224616 -0.44913545
000190 5a 65 cb be b0 f8 90 3f e2 17 fa 3e 1b c1 01 3f
       -0.39725763 1.1325893 0.48846346 0.5068528
0001a0 10 3f 18 3f 84 70 71 be 6f 04 6a be a3 73 35 be
       0.59471226 -0.23578078 -0.22853254 -0.17719893
0001b0 3e ea 27 bd 08 b8 83 be 9a 05 0b be e7 f2 3b be
       -0.040994875 -0.25726342 -0.13576356 -0.18354379
0001c0 49 3f ce 3d 8f 37 14 3e f7 4b a4 bd 26 96 8f bd
       0.100706644 0.14474319 -0.08022302 -0.070110604
0001d0 8c 3f 09 bd d7 3a d0 3c a5 cd c8 3c 11 7e aa bd
       -0.03350787 0.025418682 0.024512121 -0.083248265
0001e0 aa ce bb 3c 4d 15 e5 bc 11 10 fe bc 37 d1 97 3d
       0.022925694 -0.027964259 -0.03101352 0.074129514
0001f0 c2 3e 2d bd bc 28 71 bd 80 d6 2d 3a 77 9a 39 bd
       -0.04229618 -0.058876738 0.0006631389 -0.045313325
000200 ac 41 ee bc 45 4b 85 3d a1 5f 7c bc 5c e1 8a bd
       -0.02908405 0.06508497 -0.015403659 -0.06781265
000210 8f 32 55 bd 21 55 60 3b c0 6b 14 3e 94 ed c0 bb
       -0.05205017 0.0034230428 0.14494228 -0.0058876965
000220 71 39 33 be 93 f7 69 bf c8 58 97 3c 5e 3c 41 bf
       -0.17502381 -0.91393393 0.018474951 -0.7548274
000230 bd 24 5d be aa 7f c5 be 11 f1 b7 be c5 c4 c5 3d
       -0.21596046 -0.38573962 -0.35926107 0.096566714
000240 14 ff bd 3d 88 37 8d 3d c1 31 f0 3d 5d f4 08 3e
       0.09277168 0.06895357 0.1172824 0.13374467
000250 6d 82 cb 3e 30 1b 1a bf d7 b2 52 bf bf b6 b3 be
       0.39747944 -0.60197735 -0.8230414 -0.35100362
000260 16 5a 42 3b fd 9f da bb b2 ac d2 bd f2 75 e6 3d
       0.0029655746 -0.006671904 -0.10286845 0.11252965
000270 8b 8d 9b bc 28 38 82 be dd 7c 3c be 72 67 2c 3f
       -0.018988391 -0.2543347 -0.18407007 0.67345345
000280 b3 f7 41 3f e5 cb 48 3f 96 3b d0 bd 58 ae d6 bd
       0.75768584 0.7843612 -0.10167615 -0.10482472
000290 18 74 60 bd 84 ed c0 be 98 75 39 be 2c 3c 26 3e
       -0.054798216 -0.3768121 -0.18111265 0.16233891
0002a0 4f d0 86 bf 35 c3 25 bf 84 98 a7 be 2d 72 36 3b
       -1.0532321 -0.6475099 -0.32733548 0.002783905
0002b0 7f 64 cf bc b2 ac 88 3e 23 5e 95 3d 20 6f 0c 3f
       -0.025316475 0.26694256 0.07293346 0.54857063
0002c0 b4 52 09 be cf 1b a8 3e a5 c1 02 be 6e 75 2a be
       -0.13410455 0.32833716 -0.12769182 -0.16646358
0002d0 df 9f 2b be 2b bd 76 bd 12 33 31 be 78 e3 04 be
       -0.16760205 -0.060239 -0.17304638 -0.12977397
0002e0 34 c9 07 3f c5 d9 b3 be a6 17 e2 bd 12 3e 4d be
       0.53041387 -0.35127082 -0.11039667 -0.20043209
0002f0 4e 19 d1 be bd 54 40 be 88 76 f0 ba e9 ff 0b bd
       -0.40839618 -0.18782325 -0.0018345872 -0.0341796
000300 70 0b 86 be 4e f6 da 3d c6 7b 52 3e 4a 8b 26 bf
       -0.261806 0.1069151 0.20555028 -0.6505629
000310 90 60 fc be ef 28 88 3f f4 ae 74 3f b6 62 6b 3f
       -0.4929242 1.0637492 0.9557946 0.91947496
000320 01 e1 83 3d 71 0a ff 3c b8 d5 87 3d 70 b2 64 3c
       0.064394005 0.031132909 0.066325605 0.013958558
000330 ac d8 13 be 72 e3 8d be e4 4a dc bd d1 b0 93 3d
       -0.14438123 -0.2771259 -0.10756472 0.072114594
000340 b3 e2 10 be 71 e0 86 bd 33 17 83 3c e8 c8 46 bd
       -0.14148979 -0.065857776 0.016002273 -0.048531443
000350 a5 3c 84 bc ec 19 26 3d 47 2c ea 3c 4a 8d 6a bd
       -0.016142199 0.040552065 0.028585566 -0.05726365
000360 de e6 af bc 7a d0 31 bd ce 8f 52 3d d8 19 a8 bc
       -0.02147239 -0.04341171 0.051406674 -0.020520136
000370 79 e3 53 3c 54 c3 44 bd d2 3e d4 3c cc 14 e9 bc
       0.012932652 -0.048037842 0.025908861 -0.0284523
000380 9a 7e 1c 3c a5 e4 5f bd d0 65 bc bc f3 c3 66 bd
       0.009551669 -0.05466141 -0.022997767 -0.056339215
000390 86 de ad bb e7 a2 0f 3c c9 cc 12 3d 54 cd 9c 3d
       -0.005306068 0.008766866 0.03583983 0.07656351
0003a0 65 60 af bf 57 ab 4d be ad 2e 00 bf 9c d6 1f 3a
       -1.3701292 -0.20084892 -0.5007122 0.0006097348
0003b0 e3 77 b3 3d 3d 0f 3e 3d 1a 13 c1 bc 99 88 fa bd
       0.08763101 0.04640125 -0.023568679 -0.12233085
0003c0 a6 2b 95 bd 31 a5 65 3e 7b e0 15 be fe 56 84 3e
       -0.07283716 0.22426297 -0.14636414 0.2584762
0003d0 68 b9 79 be da 74 3a bf f5 96 a9 bd b3 f6 22 bc
       -0.24387133 -0.7283455 -0.08280746 -0.009946513
0003e0 39 1c ca 3d b4 7e 31 3e de 8b 63 be 7b 43 30 bf
       0.09868664 0.1733349 -0.22221324 -0.6885297
0003f0 af 85 04 bf 65 89 47 3f f3 29 7f 3c 2f 47 50 bd
       -0.51766485 0.7794402 0.015573966 -0.050849136

fc1.bias f4 [256]
000000 05 19 8d 3d a9 6f 98 be 3c 03 16 3e d6 55 59 be
       0.06889538 -0.2977269 0.14649671 -0.2122415
000010 f8 73 23 3d 43 aa c3 bc d6 fe 29 3e 2c 58 7f 3d
       0.03990552 -0.023884898 0.16601118 0.062339947
000020 b1 59 33 be 6b 00 07 be 61 39 e4 3d 50 03 3f 3e
       -0.17514683 -0.13183753 0.11143757 0.18653607
000030 2c 86 cf 3d 85 ca 78 3e cc 2f d5 3d ad df 26 3d
       0.10133013 0.24296005 0.10409507 0.040740658
000040 51 bc bc be d5 de 61 3e 32 59 5f be e8 6e 0b be
       -0.36862424 0.2205766 -0.21811369 -0.13616526
000050 9f 9b 30 3e 49 af 4a be fe 6b 0e be a7 4a 3d be
       0.17246865 -0.19793428 -0.13908383 -0.18485509
000060 31 de 07 be 7c ce 85 be 1b ed fc bd 8f f6 54 be
       -0.13268353 -0.26134098 -0.12349912 -0.2079718
000070 55 fe b6 3d 4f 57 1d be 9c 5f 40 bd 9c 03 91 3e
       0.08935229 -0.15365337 -0.04696618 0.28323066
000080 c4 80 60 3e 81 b8 93 bd 03 3f 5a 3e 70 1a df bc
       0.2192412 -0.07212926 0.213131 -0.027234286
000090 e3 5c 47 bd 42 3f 3a 3d 52 9d 2b be c6 fb 81 be
       -0.048672568 0.045470484 -0.16759232 -0.253874
0000a0 8f cf c8 bc 0a f3 a8 3d 43 81 a0 be 55 cd 41 bc
       -0.024513034 0.08249481 -0.3134862 -0.01182874
0000b0 30 0e 2d 3d be f7 30 3d 78 25 2a 3d 28 14 0a be
       0.04224986 0.043205015 0.04153964 -0.13484251
0000c0 c7 cb 64 3d d2 72 62 3e 83 62 3b 3e 18 15 90 3e
       0.0558584 0.22114113 0.18299298 0.28141093
0000d0 f6 5d 57 be 92 64 2b be 7b 1e 21 be c5 52 68 3d
       -0.21031937 -0.16737583 -0.15734284 0.05671956
0000e0 12 3f b3 3e a5 8c 02 be aa f5 f6 3c ce b7 3a be
       0.35009056 -0.12748964 0.030146439 -0.18234178
0000f0 78 8d 5e be 9d 3f 00 be bd 8c 5a be b1 cc 55 3e
       -0.21733654 -0.12524267 -0.2134275 0.20878865
000100 6f 03 e6 3d 2b b4 8f 3e 4e 61 1c be 44 07 8f bc
       0.11231124 0.28067145 -0.15271494 -0.01745952
000110 1f c0 3b be da 39 b7 be bc 35 67 3c 49 49 d2 3c
       -0.18335007 -0.35786325 0.014111932 0.02566971
000120 06 0d 98 3d ba d7 8c bd 12 6b 01 3c f2 af 33 bc
       0.07424359 -0.06877084 0.007899063 -0.010967242
000130 62 bc 28 be c9 60 9d be 5e 09 b1 3d d2 e5 62 bc
       -0.16478112 -0.30737904 0.08644365 -0.013848739
000140 35 69 06 3d df 1d 99 bd ee 5f 92 be b0 50 4c bd
       0.032815177 -0.074764006 -0.28588814 -0.049881637
000150 d5 0c 2d 3e 05 b7 d0 be 95 75 b3 bc 91 94 22 3d
       0.16899426 -0.40764633 -0.021906653 0.039692465
000160 61 d2 73 be 4b 41 ee 3d 8d 15 7d 3b 33 1a 31 be
       -0.23810722 0.116335474 0.0038617582 -0.1729515
000170 03 f7 19 be 83 d6 1b 3e 73 af b7 bd 1e e2 57 be
       -0.15035634 0.15218548 -0.08969011 -0.2108235
000180 ad c8 e1 3d 0e 95 7f 3e 65 e3 20 3e b7 3e 2d be
       0.11024604 0.24959204 0.15711744 -0.16918455
000190 f5 26 49 bd 12 ee 07 3f 4d 8a d9 be ca 27 1e be
       -0.049109418 0.5309764 -0.42488328 -0.15444866
0001a0 2c fd 35 3e ea d1 8c 3d 33 84 f6 bb e7 de 8c 3e
       0.17772359 0.068759754 -0.0075230836 0.2751381
0001b0 c0 5a 63 be 60 c8 14 3e b5 fa 49 3d 63 46 8d be
       -0.22202587 0.14529562 0.04931136 -0.27592763
0001c0 2d b3 6c be b5 6c dd bc dc 61 78 3d 11 cd 64 3e
       -0.23115225 -0.027029375 0.0606402 0.22343852
0001d0 dc c4 80 be 50 66 14 be b4 0c 51 3e fe 3f 24 be
       -0.25150192 -0.14492154 0.20415002 -0.16040036
0001e0 5b be ef 3c f6 45 83 be d0 e5 10 3e 48 03 46 3e
       0.029265573 -0.25639313 0.14150167 0.19337189
0001f0 d5 28 25 bc 40 c7 85 be 72 63 03 be 41 48 27 3e
       -0.010080536 -0.26128578 -0.12830904 0.16336156
000200 3d 0e bc bd 2d 33 ec bd 2d 4f 02 be 23 ad 09 be
       -0.09182403 -0.115331985 -0.12725516 -0.13444953
000210 a8 4d 66 bd 71 65 32 be 7d f7 99 bc be 9e f1 3c
       -0.056226403 -0.1742151 -0.01879477 0.02949464
000220 56 69 17 bc d5 0b a7 be e7 3b 0f be 7b 1f 80 3e
       -0.009241423 -0.32626215 -0.13987695 0.25024018
000230 70 d3 b3 bb 1d a7 16 be 43 27 87 be 90 7b ad be
       -0.005487852 -0.14712186 -0.26397142 -0.33883333
000240 e1 9d b6 3d 53 82 83 bc 97 05 0e be 46 85 db 3b
       0.08916832 -0.016053354 -0.1386932 0.006699237
000250 5b 5c 6c be d1 02 bc bd 2a ab 8c bc c7 6d ef 3d
       -0.23082106 -0.09180225 -0.017171461 0.1169086
000260 02 7e 0d be fd ad 41 3e 97 f1 18 be 10 3a 07 bf
       -0.138176 0.18914028 -0.14935909 -0.5282297
000270 62 54 32 3e b6 78 2f 3d 20 45 c7 bd e4 0d a3 bd
       0.17415002 0.04283973 -0.097299814 -0.07961634
000280 93 03 7e be 43 5a f9 bd b1 61 16 3e 5e 90 44 3e
       -0.24806051 -0.12175419 0.14685704 0.19195697
000290 50 8b 90 be cd 46 9b be 00 98 78 3e 4e ca d8 3c
       -0.28231287 -0.30327454 0.24276733 0.026463654
0002a0 e4 89 c2 bd 22 37 13 be 5b 7e 18 bf 33 12 6c be
       -0.09498957 -0.143765 -0.59567803 -0.23053817
0002b0 3c 20 01 3e 41 00 27 3e 2a 67 b4 bb 9c f2 a7 be
       0.12609953 0.1630869 -0.005505462 -0.32802284
0002c0 12 6b b7 3d aa f1 50 3d 2c a1 0e 3d 2f c6 16 3e
       0.08955969 0.05101172 0.034821674 0.14724039
0002d0 5a 5a 68 be 92 57 0f bc de ff 4d 3e 05 7b be bd
       -0.22690716 -0.008748906 0.20117137 -0.09300808
0002e0 cd a0 f1 bd 89 2f d9 be d6 4d ab bd 6b bf 04 3d
       -0.117982484 -0.4241908 -0.083644554 0.032409113
0002f0 a1 ca 05 be 64 0e f7 bd 96 ab 93 be f2 1c ab 3d
       -0.13065578 -0.12063292 -0.28841847 0.0835513
000300 b1 21 a0 be 3c 96 f0 3d f8 b0 12 be 8a 67 98 be
       -0.31275705 0.11747405 -0.1432532 -0.29766494
000310 86 fe d2 bc c6 b7 f7 bd 33 f5 90 be 6f e0 de be
       -0.025756132 -0.12095599 -0.28312072 -0.43530604
000320 12 e7 36 3c 88 6e 4b be 8b a2 1d 3e 46 5c 6d 3d
       0.01116349 -0.19866383 0.15394036 0.057949327
000330 66 5b 1d 3e d2 3f 3d 3e 7d 01 c8 3d 91 2d 8e bd
       0.15366897 0.18481377 0.09765909 -0.06942285
000340 12 26 a2 be 09 df 7a be bd 32 62 3d 6b ab 55 be
       -0.3166967 -0.24499144 0.05522417 -0.20866172
000350 e8 00 c8 bd 51 8d cc be 4e 1d 06 3d c4 62 b0 3d
       -0.09765798 -0.39951566 0.03274279 0.08612588
000360 92 22 17 3e 02 50 51 3d 74 08 98 3d 08 c3 9e be
       0.14759281 0.051101692 0.07423487 -0.31008172
000370 e6 58 a0 bd 50 63 91 bd e7 c4 43 be 5c b5 7e be
       -0.07829456 -0.070990205 -0.19118081 -0.2487387
000380 dc 71 03 3e ec da b3 bc 0c 1d 9f bc 5d bd df 3d
       0.12836403 -0.021954976 -0.01942303 0.1092479
000390 e2 79 a9 bd 38 d6 74 be 17 69 f4 bc 07 6e 8c bc
       -0.082752004 -0.23909843 -0.029835267 -0.017142309
0003a0 4d 09 46 be d9 58 2d be 90 a5 12 be b2 48 63 be
       -0.19339485 -0.16928424 -0.1432097 -0.221957
0003b0 e9 46 03 be a6 ef 31 3e 14 fa 39 3d 12 92 9d 3c
       -0.12820019 0.17376575 0.04540451 0.01923469
0003c0 14 07 9f bb 5b ae 21 3e e9 b0 f0 bd 17 ef 23 3e
       -0.0048531387 0.15789168 -0.11752493 0.16009174
0003d0 80 3f 3f 3e 54 4f 12 b9 5f aa 08 3e 69 cc 65 be
       0.18676567 -0.00013953197 0.13346241 -0.22441258
0003e0 06 2a 3e 3e eb 20 30 3e 68 4d 15 bd 66 72 6f be
       0.18570718 0.17200057 -0.036450773 -0.23383483
0003f0 3f ce 99 3d 01 80 0a be 87 82 2d be 13 87 5c be
       0.075100414 -0.13525392 -0.16944323 -0.21535902

fc2.weight f4 [256, 256]
000000 f4 05 58 3d 8b 89 8b 3d fe 36 a0 3d d9 2c 3b be
       0.052740052 0.068133436 0.07822989 -0.18278827
000010 be bf 04 be 96 0a cc 3d 22 bb 41 bd 06 19 69 3e
       -0.12963769 0.099629566 -0.047297604 0.22763452
000020 c4 37 5c be 49 98 a7 be 07 0e 22 bf f8 9d b6 bc
       -0.21505648 -0.32733372 -0.63302654 -0.022292122
000030 a9 a2 76 3d 7f 86 1b bf f4 c8 e5 bd d7 15 06 be
       0.06021372 -0.607521 -0.112199694 -0.13094269
000040 54 7a 05 3d b8 17 84 bf 01 f0 f6 bc 9c 43 2c bd
       0.032587364 -1.0319738 -0.03014374 -0.042056665
000050 41 ad b1 3e 07 8a 5a 3e e7 6a f8 3c 68 63 8e 3e
       0.34702495 0.21341716 0.030324413 0.27810216
000060 d1 83 1e be c9 4a 82 3e 98 48 73 3d a4 40 c8 be
       -0.15479971 0.25447682 0.059395403 -0.39111817
000070 48 c2 aa 3c b5 78 96 3d f6 80 ec 3d fe d0 d7 bb
       0.020844594 0.07347242 0.11548035 -0.006586193
000080 b7 6e c5 bd 65 1a 97 3c 08 9a 79 3d 2d dc b1 3d
       -0.09640258 0.018445203 0.06093791 0.08684573
000090 42 56 c7 bc b8 a7 8f 3c 2a c4 a2 3a dc 21 98 bc
       -0.024333123 0.01753603 0.0012418081 -0.018570833
0000a0 1b 11 ab bc 01 6e 1c 3e e0 de 6b bf a0 5e 3d 3b
       -0.02088218 0.15276338 -0.92136955 0.0028895512
0000b0 30 38 16 be 56 36 f8 3e 2c a2 40 be 68 a5 a6 bd
       -0.14669871 0.48478955 -0.18811864 -0.081370175
0000c0 71 0b bf bd 11 28 2c 3d 18 d2 31 bd 93 02 97 be
       -0.09328354 0.042030398 -0.04341325 -0.2949415
0000d0 6e 6d 9e 3d c6 d7 2e bd 19 8b 39 3d 59 04 21 3d
       0.07735716 -0.042686246 0.04529867 0.039310787
0000e0 71 2f 97 bc c0 5f 06 3c 00 f9 22 bb d4 aa 39 3d
       -0.018455239 0.0082015395 -0.0024867654 0.04532893
0000f0 35 c5 3a 3d 2f 67 33 3d 40 16 7c 3c ff 56 aa bd
       0.045598228 0.043799575 0.015386164 -0.083173744
000100 a5 be 44 3e 66 fd 38 bf a6 72 0c 3e 48 75 ac bc
       0.1921335 -0.72261655 0.1371561 -0.021052018
000110 81 17 c6 3c d4 d9 17 bd 4d 24 1a 3e db 8a 45 3d
       0.02418113 -0.03707297 0.1505291 0.048228126
000120 ec 69 14 be c0 1e 9a 3c c2 cf 7e be 5a 95 80 bd
       -0.14493531 0.01881349 -0.24883941 -0.062784865
000130 3b c6 e8 be 54 69 94 3e a5 c9 25 be e9 74 99 3c
       -0.45463738 0.2898661 -0.16190203 0.018732505
000140 73 14 83 3e 91 48 a9 bd e1 ee bb 3e 33 04 9c bd
       0.2560154 -0.08265794 0.36705688 -0.076179884
000150 d9 43 6d bf 20 00 31 3e 52 ca 09 3d ca fd 5a 3e
       -0.9268165 0.17285204 0.033640213 0.21385875
000160 4a bc 89 bd a9 8f 04 3d 8e 96 43 3d 27 80 b2 be
       -0.067253664 0.032363568 0.047751002 -0.34863397
000170 74 6a 5d bd 85 ee 59 bd e4 5a bf 3e e7 89 28 3c
       -0.0540566 -0.053205986 0.37374032 0.010286785
000180 a2 d9 5e bd aa d8 e3 bb 9b 96 b7 3c b2 5d 76 3d
       -0.05440677 -0.0069533186 0.022410681 0.06014795
000190 bc 70 a3 3c 5a e3 9f bd 8e d4 cf 3d b4 f4 06 bd
       0.019951217 -0.07807036 0.101479635 -0.03294821
0001a0 28 af 96 bc 51 22 9e 3e 1b ca 86 be 6e b3 29 be
       -0.018394068 0.30885556 -0.2632607 -0.16572353
0001b0 02 f1 1e 3d 36 53 e2 bd 95 7e a1 3e 16 61 cf bc
       0.03880406 -0.110510275 0.31541887 -0.025314849
0001c0 6f d9 aa be 71 97 0e bd 0e 65 0d 3b a9 c2 38 bd
       -0.33369014 -0.034812395 0.0021575126 -0.045107517
0001d0 c8 dc 45 be 6f db fb 3d a1 0d 01 3d 5f c9 10 3e
       -0.19322503 0.12297713 0.03150714 0.14139317
0001e0 b3 65 02 bf 7b 2c 5c bd 48 d8 55 3c d3 1e e3 3d
       -0.5093643 -0.053753357 0.013052054 0.11089864
0001f0 4f 78 30 bf 2c ec 77 bc 0c 3b 9f bd 9d 04 0c bd
       -0.68933576 -0.015131991 -0.07774934 -0.034184087
000200 68 ed 05 bf b7 ab 8c 3e c1 21 27 be 14 13 04 3f
       -0.5231538 0.27474758 -0.1632147 0.5159161
000210 d0 69 1d 3c 66 cc 4f be 28 f4 44 3d 41 f9 d0 be
       0.009607747 -0.20292816 0.048084408 -0.40815166
000220 5d e6 c4 bd 23 f0 9f bd 3a ea 8e bc 43 29 ab bd
       -0.09614251 -0.07809474 -0.017445672 -0.083574794
000230 a0 d7 96 3d d0 ad 1d be 38 7c 97 3c 05 81 74 3d
       0.07365346 -0.15398335 0.01849185 0.059693355
000240 82 8c 40 3d 3d 30 7f be bc d1 8d 3d 8a b6 fb 3d
       0.047009 -0.24920745 0.06924769 0.12290676
000250 c0 98 25 3d c2 7a 19 bd b5 85 64 3e 85 e0 f0 be
       0.040428877 -0.037470587 0.2231663 -0.47046295
000260 45 ea 0d 3d 18 e0 af bd 9c 94 aa bd 0b ab 0c 3e
       0.034647245 -0.08587664 -0.08329126 0.13737123
000270 74 71 be 3c 9d 98 1f bd 62 57 14 bf 2f 67 5e bc
       0.023247458 -0.038963903 -0.57945836 -0.013574406
000280 36 65 3f bd 15 90 74 bd 3d eb b8 bd e9 db f4 3c
       -0.04672738 -0.05970772 -0.09029243 0.029890018
000290 17 78 f6 bc 8d 91 37 3d 5f e7 7f 3e 20 e3 fc bb
       -0.03008656 0.044816542 0.24990605 -0.007717505
0002a0 37 dd a0 bd 5f a3 6a 3d 0a 49 4e 3e 4d 81 97 bc
       -0.078546934 0.05728471 0.2014505 -0.018494273
0002b0 41 c8 2a 3e 7c 0f 88 bc e3 b7 11 3e 24 30 8e be
       0.16677953 -0.016608946 0.14230303 -0.27771103
0002c0 78 00 0b 3e 9e cf ec 3d 91 2b 50 be 2c b1 44 3e
       0.13574398 0.11563037 -0.2032912 0.1920821
0002d0 98 33 a1 bd 86 3d 79 3e 54 65 bb ba e1 8d 15 3d
       -0.07871169 0.24339876 -0.0014297166 0.03651226
0002e0 e1 10 21 bd 51 aa 50 be 6d e7 be bc ed d3 16 3e
       -0.039322738 -0.2037747 -0.023303712 0.14729281
0002f0 c1 2d b7 3c 06 09 8f 3d ae 71 54 3d 34 5b 6c be
       0.022360684 0.06984143 0.051866226 -0.23081666
000300 db 97 ec 3d 7d c5 8b be 13 fb a7 3d 64 2c 92 3c
       0.11552402 -0.2729911 0.082021855 0.017843433
000310 24 06 bd 3e c7 23 cd 3c b2 51 6d 3c 6c b4 0c 3e
       0.36918747 0.025041474 0.01448481 0.137407
000320 e2 c1 f1 3c 2a 5b 7c 3d d0 b1 7f bd 6a 61 b6 3c
       0.029511396 0.06161038 -0.062425435 0.022263248
000330 c8 44 94 bb 2a 09 74 3c 8e d8 6c 3d 08 15 50 3d
       -0.004524801 0.014894763 0.05782371 0.050801307
000340 ef d6 33 3e 37 1a 8f bc f0 f9 94 3d 7d 28 fa bd
       0.1756246 -0.017468555 0.07274234 -0.12214754
000350 cd b3 a2 3e bf d4 8d bd 81 df da bd 5c d7 50 bd
       0.31777802 -0.06925344 -0.10687161 -0.050986633
000360 bb f2 c8 bd 18 11 f6 be ad 36 3d bf a3 8b 82 bd
       -0.09811922 -0.48059916 -0.73911554 -0.0637429
000370 6c 23 18 3e 82 57 93 3d de d8 06 3e 24 bd 64 3e
       0.14857262 0.07194425 0.13168666 0.22337776
000380 50 79 a8 3e a3 25 ed bd a4 12 23 bd 25 04 b5 bd
       0.32905054 -0.11579444 -0.0398127 -0.08838681
000390 0c cb 8a 3d a7 82 2c 3d 44 37 cc ba 97 c3 23 3c
       0.06777009 0.042116787 -0.0015580435 0.009995363
0003a0 da 65 9a bd 97 80 03 bc ab e6 64 be 65 04 b4 3d
       -0.07538958 -0.008026264 -0.22353618 0.08789901
0003b0 f5 ec b8 be 29 c2 39 bd 89 75 3c 3d 80 4c 71 bc
       -0.36118284 -0.04535118 0.046010528 -0.014727712
0003c0 57 c0 33 3d 49 81 a8 bd 4e d3 14 3d d6 78 8f 3e
       0.0438846 -0.08227784 0.03633433 0.28021878
0003d0 90 a4 c7 3d 60 6d 5f bb 5d 49 a6 bd 6f 59 3c 3d
       0.09748185 -0.0034092292 -0.08119462 0.045983728
0003e0 76 2f 89 3e cf 58 ff bb fa 51 3e bd 00 95 e0 be
       0.26794022 -0.007792569 -0.046464898 -0.43863678
0003f0 69 f1 7f 3e a2 21 58 3c 35 65 85 3d 40 b7 cd bb
       0.24994434 0.013191612 0.06513444 -0.0062779486

fc2.bias f4 [256]
000000 f6 9d 03 be f3 13 d2 bc f5 93 db 3c 90 d8 1f 39
       -0.12853226 -0.025644278 0.02680395 0.00015244097
000010 53 30 ae 3e b5 e8 db bd aa b7 92 3d 81 c4 d6 3d
       0.34021243 -0.10737745 0.071639374 0.10486699
000020 b8 b0 00 bd 84 1c e5 3c f9 66 e8 bc 6d 48 30 be
       -0.031418532 0.027967699 -0.028369414 -0.17215128
000030 8f 28 e5 bd 84 ec 9c be c7 da b9 bd 26 a1 22 3b
       -0.111893766 -0.30649197 -0.090749316 0.002481529
000040 17 20 49 be 92 97 00 bd 23 04 79 3e 3a a0 d2 bd
       -0.19641148 -0.03139455 0.24317984 -0.10284467
000050 29 7e 47 3e 1e dd be bb ba 51 bc bd 3b bd b1 bd
       0.1948172 -0.005824699 -0.091952756 -0.08678671
000060 b8 94 a1 39 1c bc 07 be 70 e0 83 bc ea 34 bc 3d
       0.00030819117 -0.13255352 -0.016098231 0.0918978
000070 da 5d bd 3d 0e 80 38 be 67 64 a3 bd a1 5b b4 bd
       0.092464164 -0.18017599 -0.079781346 -0.08806539
000080 67 ea 60 be d0 bc 4b 3d 50 38 23 bd a0 bf a8 be
       -0.21964417 0.049740613 -0.039848626 -0.32958698
000090 22 e3 c7 bc ad 2d 02 ba 4c 01 33 be 71 22 8f be
       -0.024400298 -0.00049659127 -0.17480963 -0.27955964
0000a0 f4 b0 b6 bc ec 43 45 3d 44 8c 99 bd dc 6b 4b be
       -0.022301175 0.04816048 -0.07497457 -0.19865364
0000b0 9e de dd bc ca 7d ed bd a8 89 28 bc d4 e0 75 bd
       -0.027083691 -0.11596258 -0.010286726 -0.060028866
0000c0 fb 21 40 3c 26 45 f0 bc 50 5c 48 3d 33 bd 3a be
       0.011726852 -0.029329848 0.04891616 -0.18236236
0000d0 43 fe 97 bc 4d 97 b5 bc 05 db 87 bd d4 5c 8a bd
       -0.018553859 -0.022166872 -0.066335715 -0.06755987
0000e0 e9 42 62 bd 68 0a 7e be 4d 4b e4 bd b9 36 18 3c
       -0.05523959 -0.24808657 -0.11147175 0.009290391
0000f0 06 ac 5e 3c a0 27 8b 3d 23 40 31 bc 28 e7 49 3b
       0.013590818 0.06794667 -0.010818514 0.0030807946
000100 f9 f4 d4 bd 77 29 6c bc 42 26 4e bd 15 b4 37 3d
       -0.10398287 -0.014414183 -0.050329454 0.044849474
000110 b2 c2 10 be c3 54 70 bc f5 2c e6 bd 1e b3 54 bd
       -0.1413677 -0.014668646 -0.112390436 -0.051928632
000120 05 07 13 be 37 09 59 3c 33 07 c8 be 97 0e 1b bd
       -0.14358146 0.013246826 -0.39067993 -0.03785571
000130 99 9a 14 bd 8b fc 21 bd d9 17 d7 bb 13 68 d5 bc
       -0.03628025 -0.039547484 -0.006564122 -0.026050603
000140 b4 6c a2 bd 1c ed 40 be 4d 5c 85 be 1c 9e 05 bd
       -0.0793089 -0.1884045 -0.26046982 -0.032621488
000150 53 34 ad 3d 40 cb fb bd c4 f5 a5 bd 20 b1 55 bc
       0.08457246 -0.12294626 -0.08103517 -0.013042718
000160 12 1e bc be c0 64 f0 bd 2e bd 72 bd 45 61 be bb
       -0.36741692 -0.117379665 -0.059262447 -0.0058099353
000170 a3 14 f4 3d 18 0e a3 be 3e 68 17 bd fa be 5d bd
       0.11917999 -0.3184669 -0.036964647 -0.054137208
000180 ae 4d 13 be 8d 86 02 be f4 f5 c4 bc 8d 17 b6 bc
       -0.14385101 -0.1274664 -0.02404306 -0.022228027
000190 30 7e 80 bb 9b 06 54 3c 4d 24 18 be 17 4a 18 3e
       -0.0039212927 0.012941028 -0.14857598 0.14872013
0001a0 72 49 39 ba 4d 70 73 ba 16 bc cb 3c d9 7f 8c bd
       -0.0007068134 -0.00092864485 0.02486996 -0.068603225
0001b0 d2 64 8a be 6a 54 51 bd d6 2c 53 bd 95 0a 24 3e
       -0.27030045 -0.051105894 -0.05155643 0.16019662
0001c0 ae 13 b2 bd 86 bc 1f 3d 51 da ae bd bc 53 bf bb
       -0.0869516 0.03899815 -0.08537734 -0.0058388393
0001d0 22 51 4e bd fe b2 a1 bd e0 f7 36 3b fd ed d7 3c
       -0.050370343 -0.07895468 0.002791874 0.026358599
0001e0 35 e0 8c bd 1a 21 21 3d 8f df 03 3c ed 97 29 be
       -0.068787016 0.03933821 0.008048906 -0.16561861
0001f0 62 42 16 be db 47 d7 bd 38 ad 41 bd 5f bd 3c bd
       -0.1467376 -0.10511752 -0.047284335 -0.046079036
000200 b6 8d a2 bd 8d 09 d3 bd 7b 39 59 bd a9 4f e2 bd
       -0.079371855 -0.10304556 -0.053033333 -0.1105035
000210 64 58 81 bd c6 31 85 bd 1d 0d 3a 3e f8 65 a1 3e
       -0.06315687 -0.06503634 0.18169065 0.31523108
000220 7c 9e 1f bd 46 7a 9a 3d 2a cb af bd 29 b9 d9 3d
       -0.0389695 0.07542853 -0.08583672 0.106310196
000230 d7 3f 3e bd 81 e1 4b 3d b7 e7 99 bc d7 73 e2 bc
       -0.0464476 0.049775604 -0.018787248 -0.027643127
000240 f7 f4 6b bc f0 69 23 3d 9f 28 55 bd 5a 1e 12 be
       -0.014401666 0.03989595 -0.052040692 -0.1426939
000250 12 c3 b4 bd b7 e4 88 be c4 ab 84 3e b6 15 80 be
       -0.08826269 -0.26736996 0.25912297 -0.25016564
000260 9a df 98 bd 17 19 1c 3d 68 e6 ab bb 14 78 a6 3b
       -0.074645236 0.038109865 -0.0052459724 0.0050802324
000270 a8 d5 c2 bd a2 3b cc 3b da 18 50 be 93 67 3f bd
       -0.09513408 0.0062326947 -0.2032198 -0.046729635
000280 13 a1 75 be aa 9a dd be 6e 41 64 3c 48 83 6e bd
       -0.23987226 -0.43282062 0.013931615 -0.05823067
000290 cc 8f 56 bd ae 5f 88 bd d1 e7 0f be 16 67 23 bd
       -0.05238323 -0.066588745 -0.14053275 -0.039893232
0002a0 ce 51 e2 3d 68 0d e7 3d 66 ab 8f bd 20 82 76 bd
       0.11050759 0.11281854 -0.070151135 -0.06018269
0002b0 6e 28 df 3b f5 74 d9 be da 33 a5 bc 66 bc 9a be
       0.0068102395 -0.42472044 -0.020166326 -0.30221862
0002c0 17 e8 1e 3c 49 60 46 bd 38 40 e3 bc a6 7d 88 bd
       0.009698889 -0.04843167 -0.027740583 -0.066645905
0002d0 7b d9 35 bc b2 94 64 be a6 d0 40 bd 79 56 f7 bd
       -0.011099215 -0.22322348 -0.047073983 -0.1207704
0002e0 90 c8 98 ba 0f 25 09 bb be 3e 01 3c 4e b4 c0 3c
       -0.0011656452 -0.002092663 0.007888494 0.023523476
0002f0 af b8 ca bc 98 78 02 3c 17 a7 0a bd 35 85 7a ba
       -0.024746267 0.007963322 -0.033850756 -0.00095565926
000300 9a c8 11 3d 9a a3 51 bd d2 c9 11 3e 68 d1 aa bd
       0.0355917 -0.051181413 0.14237145 -0.08340722
000310 54 0c c3 3b 75 d6 3c be da 70 9f 3d 8c 26 a1 bd
       0.0059523974 -0.18441184 0.077851966 -0.0786868
000320 b2 7f 5d 3c 32 aa d4 be c3 0f 3f bd 94 8d 69 3c
       0.0135192145 -0.415361 -0.04664589 0.014254946
000330 1b db 36 3d 9e 20 e4 bb b3 7c 05 be 11 69 30 bd
       0.04464255 -0.006961896 -0.1303585 -0.04306895
000340 23 38 76 3c b4 9f 5d 3a 45 c0 89 be 4e 77 f9 bc
       0.0150280325 0.00084542786 -0.26904503 -0.030452397
000350 85 f8 7b 3d c3 11 6b bd ad ea be 3c d2 68 42 be
       0.061516304 -0.057389986 0.023305262 -0.18985298
000360 8d e7 69 bc 16 15 e7 3b a4 28 8a bd c4 73 cb bb
       -0.014276397 0.007052074 -0.06746033 -0.0062088687
000370 a6 ab b9 be 42 dc 98 bd 56 7e a6 3d 6b 27 fe bd
       -0.3626377 -0.07463886 0.081295654 -0.12409862
000380 bd dc e3 3a 49 d6 92 3c 45 a3 11 3c 61 f0 d5 bd
       0.0017384511 0.017924445 0.008889024 -0.10446239
000390 3c c4 eb 3d e7 df 04 3d 32 a6 a9 3b e1 52 0a 3e
       0.11512038 0.032440092 0.0051772827 0.13508178
0003a0 a9 c5 74 3d d1 c8 6a 3c b7 f2 1b be c1 e5 db bd
       0.059758816 0.014330105 -0.15229307 -0.107371815
0003b0 fe ba 10 3d 70 19 21 3d 85 a1 6c be 98 48 45 bd
       0.03533458 0.0393309 -0.2310849 -0.048164934
0003c0 a4 63 20 be 4d 37 4e bc 15 92 98 3c 02 cc 04 be
       -0.1566301 -0.012586427 0.018624345 -0.12968448
0003d0 d6 e3 53 be ad a3 99 bd e1 0b b4 3c 26 8e ce bc
       -0.20692381 -0.07501922 0.02197832 -0.025214266
0003e0 d4 15 e4 3b 57 80 41 be 1a 89 1f bc 3f 70 10 be
       0.00696061 -0.18896614 -0.009737277 -0.14105318
0003f0 df 46 05 3d cc 34 a8 bd d0 d8 45 be c5 fc 85 be
       0.03253829 -0.08213195 -0.19320989 -0.2616941

fc3.weight f4 [3, 256]
000000 3b 96 37 bc 90 11 ff bb 9c 60 65 3b 71 71 ca bb
       -0.011205251 -0.007784076 0.003500021 -0.006178074
000010 47 95 04 be ff 9c 08 be a0 47 12 3c ef 04 93 be
       -0.1294757 -0.1334114 0.00892821 -0.28714702
000020 3e 0d 25 3c 0e d4 32 3c 1c dc f6 3e 7a 57 3c 3e
       0.010073958 0.010914816 0.48214805 0.18392745
000030 b8 7c e7 3d 4d c0 05 be 03 e4 b1 bb 88 f8 6c bd
       0.11303085 -0.13061638 -0.0054287924 -0.057854205
000040 17 76 f8 be 7c 49 68 bc 74 5f 90 3c ec 8f 31 bf
       -0.48527595 -0.014177676 0.01762364 -0.6936023
000050 4c 6c 7e be 0f a3 5e 3b e5 05 ce be 50 f3 22 bc
       -0.24846 0.0033971702 -0.40238872 -0.0099457055
000060 52 59 08 bc 1a 75 dc 3e 95 fd 07 ba 70 5f 2f be
       -0.008322077 0.4305809 -0.0005187628 -0.1712625
000070 85 9a be be b7 ce fc 3d df 6a 0a 3c 08 cf 5c 3b
       -0.37227264 0.12344115 0.008448332 0.0033692736
000080 69 d7 7e 3d a1 58 0a be d5 52 dc 39 a5 2f d9 be
       0.06221715 -0.13510372 0.00042023385 -0.42419162
000090 72 eb ca 3a b3 0f 7e 3a cd 54 a1 be 26 fd 69 be
       0.0015481545 0.00096916704 -0.3151001 -0.22850475
0000a0 95 30 2a 3c 7f eb b9 bc 34 ff 6d bc a0 e3 5a 3e
       0.010387559 -0.022695301 -0.014526177 0.21375895
0000b0 ca 13 f4 be 87 31 be be 7f af e1 bb 58 3d d6 3b
       -0.47671348 -0.3714716 -0.006887376 0.0065380745
0000c0 8f b1 36 bc 99 df 0f bc 3c cd ab be 64 62 f3 be
       -0.011150732 -0.008781337 -0.3355502 -0.47536004
0000d0 84 61 d9 3a 54 32 0a 3c 9f 29 9d 3c 8a 41 b7 3b
       0.0016584848 0.008434851 0.019184886 0.0055925297
0000e0 b9 86 51 bb 46 f7 a3 3e 02 3c ce 3b 78 7f c0 bb
       -0.003197117 0.32024592 0.0062937746 -0.0058745705
0000f0 32 a3 ac bb 66 a1 49 be 21 77 c0 bb 06 c5 22 bb
       -0.005268478 -0.19690475 -0.0058735763 -0.0024836673
000100 47 43 bf be 96 49 02 bc 5d e8 c5 be d3 c4 51 3d
       -0.37356016 -0.007952115 -0.38653842 0.051213097
000110 93 1f 7d be e0 1a 87 3d 92 6e 19 3f de 9d 22 3e
       -0.24719076 0.06596923 0.5993434 0.15880534
000120 bd 87 08 bb 20 98 af be a7 0a b5 be de 18 2f bd
       -0.002083286 -0.3429575 -0.3535969 -0.042748325
000130 db f1 9d 3b a8 c3 af 39 88 aa 43 b9 9a 49 73 ba
       0.004820091 0.00033524376 -0.00018660177 -0.0009280682
000140 5d 6b 5c 3b e2 31 c3 3e 08 83 ad 3a 7b a2 3e 3a
       0.003363333 0.38123995 0.0013237903 0.0007272136
000150 f6 7c ed 3e 08 81 b3 3c 42 2a fd 3e d7 20 84 bb
       0.463844 0.021912113 0.49446303 -0.004032235
000160 b8 47 bc bb 6d 49 d0 bc 77 4a 15 bb 03 cb 92 3b
       -0.005745854 -0.025425637 -0.002277998 0.0044797673
000170 cd d4 07 3f 27 8d fd 3d 0f c2 c6 3b 00 5f 6a 3e
       0.53059083 0.12380438 0.006065614 0.22887802
000180 19 6e f1 be 3b 25 ad 3e 14 1b f8 3c 05 aa 0f bf
       -0.4715431 0.33817467 0.03028635 -0.56118804
000190 c6 0a c6 bb 84 a0 9e be ff ce 32 3e 70 05 0d bd
       -0.0060437648 -0.3098184 0.17461775 -0.034429014
0001a0 5e a4 f7 3d b5 dd 81 be ab 02 01 bc 18 1f 6b bc
       0.120918974 -0.25364462 -0.007874171 -0.014350675
0001b0 ba 3f 25 3c 3a 23 77 3a 3e 01 3c 3a e8 e3 02 bf
       0.010085994 0.00094275514 0.0007171816 -0.5112901
0001c0 4f e1 49 3e 09 1e 98 3e c8 2b dc 3a f3 4d 0b 3b
       0.19714855 0.29710415 0.0016797716 0.0021256178
0001d0 2c 4c a2 bc b1 b5 3a 3b ac 9e c6 bb 3f de f8 bc
       -0.019811712 0.0028489644 -0.0060613956 -0.030379413
0001e0 51 a6 bb 3b 5c 65 90 be d1 99 ac bd 0f ef 21 bf
       0.0057266136 -0.2820233 -0.08427776 -0.632554
0001f0 97 13 cc be d6 76 06 3f 91 2f c7 bc 53 f2 e0 be
       -0.39858696 0.5252508 -0.024314674 -0.4393488
000200 95 66 48 be 16 fc 05 3e bd 1d 12 3e 2e 4b 10 bc
       -0.19570382 0.13084444 0.14269157 -0.008806987
000210 b4 f3 7f 3b bf 86 da be b3 40 af 3d 12 6e 26 3e
       0.003905517 -0.42680928 0.08557262 0.16252926
000220 e1 38 9e bb f1 0b 35 3e 9c 73 b6 bb 53 e5 08 bd
       -0.004828558 0.17680337 -0.005567981 -0.033421826
000230 2f 58 1d 3c bc 61 bc bc 4f f4 13 bc 18 69 08 b9
       0.009603544 -0.022995822 -0.009030416 -0.00013009121
000240 95 ac 14 3c fc 66 bd bc 7f 37 2c 3b ce e9 09 bf
       0.00907435 -0.023120396 0.0026278195 -0.5387238
000250 08 3a 35 bc cc 62 d0 be e6 91 ce be 99 f4 51 bf
       -0.011061199 -0.40700376 -0.40345687 -0.8201385
000260 98 ec 24 ba 03 cc cb be 51 de 50 3c ea 3c f6 bb
       -0.0006291359 -0.39804086 0.012748317 -0.0075145857
000270 03 79 97 bb 9e c1 86 bb 64 04 b5 bd 16 5c b6 3d
       -0.00462258 -0.0041124364 -0.08838728 0.08904283
000280 97 48 5e bf 78 d8 19 3d 02 75 e4 3b f2 ff d7 bb
       -0.86829513 0.037559956 0.006971956 -0.0065917904
000290 4c 29 bd 3e fd 37 3d ba 3a 0e 26 3e 66 03 01 3b
       0.3694557 -0.0007218121 0.16216365 0.0019685864
0002a0 d6 da ad be b7 5a 06 3e 52 11 98 39 68 56 f6 3a
       -0.3395602 0.13120542 0.00029004604 0.0018794062
0002b0 2c 81 91 be 74 59 43 3e b4 b4 a5 3d 82 76 16 3e
       -0.28418863 0.19077092 0.08091107 0.14693645
0002c0 f7 84 2e ba bb 97 23 bd 2b 2d ba 3b 9d 16 14 be
       -0.00066573865 -0.039939623 0.005681654 -0.14461751
0002d0 c3 65 79 bb c0 08 1c bf 44 cb 84 be 0d 0c e7 be
       -0.003805504 -0.6095085 -0.2593633 -0.45126382
0002e0 55 d7 ad ba 30 5c 11 bc 16 ac cf bb cb 35 e1 3c
       -0.0013263026 -0.008872077 -0.006337653 0.02749147
0002f0 ab f6 68 3e b4 70 92 3e ea 3b e9 bd f1 4d fa bb
       0.22750346 0.2860161 -0.11388381 -0.007638686
000300 d0 4d 2f 3b f6 71 48 bf 22 e1 93 3e 0f a2 38 bc
       0.002674926 -0.7829889 0.288827 -0.0112691065
000310 88 09 0e be 7a 9e 89 3d 45 84 30 bf eb 9b 2c bc
       -0.13870823 0.0671968 -0.6895183 -0.010535221
000320 0b bc 6c 3b 75 62 ee be 2e 25 30 bc 0e 38 65 ba
       0.0036122825 -0.46559492 -0.010751052 -0.00087440095
000330 2e 64 19 3e 62 17 90 be e0 f4 37 be 18 83 32 be
       0.14979622 -0.2814284 -0.17964506 -0.17432821
000340 0e cb 28 3f 2e 01 11 3b f5 87 26 3e c9 68 99 bc
       0.65934837 0.0022125947 0.16262801 -0.018726723
000350 4e 63 51 3e 73 45 a5 bb 49 59 3b bb b0 50 b2 3e
       0.20448038 -0.0050436794 -0.0028587154 0.34827185
000360 e4 42 8b 3e 7f 71 95 3f be 63 4d bb 74 0c 94 bc
       0.2719947 1.1675261 -0.0031339969 -0.018072344
000370 70 93 0c bf 99 ca 2e 3c fe 01 64 be 60 3e b7 bd
       -0.5491247 0.01066842 -0.22266385 -0.08947444
000380 6e ba 7d be b2 f0 bc 3d f8 8c c5 bb ed 97 5f 3e
       -0.24778149 0.092255965 -0.0060287677 0.21835299
000390 e6 e3 d0 be e9 93 08 be 71 8f d5 be ab 59 cf be
       -0.40798873 -0.13337673 -0.41711 -0.404981
0003a0 0b 96 0f be 28 ef df 3d 19 89 79 3e c7 08 58 bc
       -0.1402208 0.10934287 0.24368705 -0.013185686
0003b0 06 57 4d 3c 83 c9 21 be dc 37 a0 3e aa 77 c6 bc
       0.012532955 -0.15799527 0.31292617 -0.024226982
0003c0 a5 d0 6f bd 4e ef 52 bc 87 93 3e bb 89 8c 5b 3e
       -0.05854859 -0.0128744375 -0.0029079632 0.21440329
0003d0 bc 12 0d bf 0a 7e ee bb f1 33 2e 3c 2c f9 6f be
       -0.5510671 -0.0072782086 0.010632501 -0.23434895
0003e0 8e 43 75 bc 78 0b 7e be 24 5a 6c 3d fd 54 a8 3d
       -0.01496972 -0.24809062 0.057703152 0.08219335
0003f0 bb e8 41 3e a2 dc b9 bb bc fa 0f 3f 3b d9 b1 3e
       0.18936436 -0.0056720534 0.56241965 0.34736046

fc3.bias f4 [3]
000000 69 60 8d be ea cc f7 bc bc 8c 53 3d
       -0.27612618 -0.030249078 0.051647887
