runs/modelDistributedAlgoOldState_0_5_Tau500000120.pt (torch, 586621 bytes, 39 tensors)

fc1.weight f4 [128, 19]
000000 3e dc 55 3e e5 1d 98 3d be 02 c4 3d 02 9d da 3d
       0.20884797 0.07427577 0.095708355 0.10674478
000010 f7 f2 62 be 48 57 93 3c a4 48 1c be 62 99 96 bd
       -0.22162996 0.017985955 -0.15262085 -0.07353474
000020 5d 86 26 be d4 d6 6d bd 46 a5 2e 3e d2 da 35 3e
       -0.16262193 -0.058066204 0.17055234 0.17759255
000030 8c e6 ec 3d d7 59 83 3d 74 c1 31 be 8c 12 41 3e
       0.11567411 0.0641362 -0.17358953 0.18854731
000040 8c 18 8c 3c 5d 75 b3 bc ec 53 06 bd 42 bd 38 3d
       0.017101549 -0.02190655 -0.032794878 0.045102365
000050 17 b5 ea bc 9f c9 b3 bc bc b4 06 3d f4 94 89 bd
       -0.028650803 -0.021946726 0.032887205 -0.06717864
000060 94 a8 71 bd 5e f2 cf bc 93 ad eb 3c 7a 52 0a 3d
       -0.05899866 -0.025384124 0.02876929 0.033770062
000070 db 7c 54 bd 7d a1 72 3d a0 f4 0c 3d de ac 30 bd
       -0.051876884 0.05923604 0.03441298 -0.04313361
000080 5e d6 ff bb 76 19 4b bd 1b da 13 3d 5c 3f ab 3b
       -0.007807537 -0.04958483 0.036096673 0.005226059
000090 6c bd ac bd 02 b2 2c bd e4 b2 11 3b 2d e8 ef bd
       -0.08434567 -0.04216195 0.0022231871 -0.11714206
0000a0 27 63 33 be 1a 27 7c be 65 72 54 be c5 66 fd bd
       -0.17518292 -0.24624291 -0.20746763 -0.12373117
0000b0 a6 80 3c bd ab b0 8d 3e 6d 1c b1 3e 96 16 a4 3e
       -0.046021126 0.2767385 0.34592 0.32048482
0000c0 2e 9e 7f 3c 82 5a 8a bd 4f f1 81 bd b1 af d2 bb
       0.015601678 -0.06755544 -0.06344854 -0.0064296355
0000d0 7a ab 55 be ed c4 7b be ae 93 62 be df dc b9 bc
       -0.20866194 -0.2458684 -0.22126648 -0.022688327
0000e0 96 08 41 be a7 ee 35 bd e9 b0 96 bc 40 c2 b3 bc
       -0.18850932 -0.04441705 -0.018394904 -0.021943212
0000f0 ec 37 c4 bd 76 4e 24 bb 49 10 0d be 01 12 8e bd
       -0.09580979 -0.002507118 -0.13775744 -0.06937028
000100 b1 1e b6 3d f8 43 49 3e cd 14 17 3c a5 eb a1 bc
       0.08892573 0.19654834 0.009221268 -0.019765684
000110 d9 4e b4 bd ba a7 19 be 5f 83 61 3d 7f 7a 10 3d
       -0.088041015 -0.15005389 0.055056926 0.03527307
000120 3c 3f 22 bd ec 9f bd bc a3 48 13 3e c4 7c c2 bd
       -0.039611086 -0.023147546 0.14383177 -0.094964534
000130 b8 a7 d1 bc 5b 2b 19 3d 95 70 1f 3e 3a a2 0f be
       -0.02559267 0.037394863 0.1557029 -0.14026728
000140 e8 47 f5 3c 73 e3 1d be 52 e0 0f 3e 2e e3 2b be
       0.029941514 -0.15418796 0.14050415 -0.16785881
000150 9a 5f 4e be 91 97 08 be cf 3f d2 3d d4 c4 ed bb
       -0.20153657 -0.13339068 0.10266077 -0.0072561298
000160 52 a9 40 bd 26 b1 c0 3d a1 db 99 be 7c 5a c0 bd
       -0.047036476 0.094087884 -0.30050376 -0.093922585
000170 56 8f c2 be 46 02 5b be 36 fe f2 bd 59 f1 b8 bd
       -0.37999982 -0.21387586 -0.11864893 -0.090304084
000180 d9 70 59 3c bd dc 0a 3d c3 da 00 3d 24 ef 37 bb
       0.013271534 0.03390192 0.031458627 -0.0028066123
000190 68 3f 27 be 71 46 69 be 04 89 a2 be 58 4c b3 be
       -0.16332781 -0.22780778 -0.3174516 -0.35019183
0001a0 f0 80 64 be bd 4e 97 bd d5 0f 06 bc 4f 33 04 be
       -0.22314811 -0.07388065 -0.008182486 -0.12910198
0001b0 52 5f de 3d 6d 68 0c be 8f fa eb bd 5f ec 75 bd
       0.10858025 -0.1371171 -0.115224 -0.060039874
0001c0 20 0d 79 3c af d7 51 3e 44 0b 11 be 85 b6 83 be
       0.015200883 0.20492433 -0.14164454 -0.2572519
0001d0 27 53 0d be 6e 01 cd bd a0 6e 73 3d 8f a9 53 be
       -0.13801251 -0.10010038 0.059431672 -0.2067015
0001e0 31 da 53 3e bb 09 27 3d 35 71 1c 3d 81 1f e1 3d
       0.20688702 0.040780764 0.0381939 0.10992337
0001f0 52 26 86 bc b6 b0 0e be 54 e3 20 be 09 d3 2c 3d
       -0.016375694 -0.13934597 -0.15711719 0.042193446
000200 f9 b1 e4 3c 46 18 a5 3c 4c de 37 be 8f 0c 73 bd
       0.027916895 0.020153176 -0.17955893 -0.05933815
000210 9b b5 d8 3d 09 05 a0 bc b1 c7 38 bc 0d 60 63 bd
       0.105815135 -0.019533651 -0.011278079 -0.055511523
000220 4f ac 74 3b 10 01 87 bd fd 47 8d bd a7 0e 8d bc
       0.003733415 -0.065919995 -0.06898496 -0.0172189
000230 a8 6f 3b bd 5e 20 75 bd 1c d2 d8 3c 9a 66 95 bb
       -0.04576078 -0.05984532 0.026467375 -0.00455935
000240 1b d8 42 3c 89 c9 8d bc 9f fc 68 3d e8 96 8f bd
       0.011892344 -0.017308014 0.056881543 -0.07011205
000250 8c 8d f6 3c 66 6d 86 3d fb 6b 51 bd 3e 7c 90 bc
       0.030096792 0.06563835 -0.05112837 -0.017637368
000260 50 0b ab 3c a2 0a da bd 70 6c 05 be 98 ca d3 3d
       0.020879418 -0.10646559 -0.13029647 0.10341376
000270 e3 fd 35 bc 20 9b 75 3e 32 cb 77 bd 49 fa 70 3e
       -0.011107895 0.23984957 -0.060496517 0.23532976
000280 df 24 0e 3e df 6e 9d 3d a4 2a 42 3e bb ec 1d 3e
       0.13881253 0.076871626 0.18961579 0.15422337
000290 8e 5f 8d 3d c8 77 51 bc 02 0e 65 be 80 5f dd bb
       0.06902991 -0.012784906 -0.22368625 -0.0067557693
0002a0 1c 49 56 3e 06 bc f2 bd 38 5a c6 bd ad 91 e6 bd
       0.20926327 -0.11852269 -0.096851766 -0.11258254
0002b0 09 5b 91 3d e1 f1 47 3d 1b 25 8e bd f8 59 f9 bd
       0.07097442 0.048814658 -0.06940671 -0.12175363
0002c0 c2 23 da 3d 68 db 00 bf 30 cd 30 bf 63 4f 29 bf
       0.106513515 -0.5033479 -0.6906309 -0.6613676
0002d0 f0 ce c4 be 0c 8d d5 bd 76 05 c6 3c 69 89 21 3d
       -0.3843913 -0.10427293 0.024172526 0.039437685
0002e0 d9 2c 8f 3e 6d 84 89 3d 27 c5 98 bd 64 0f 37 bd
       0.27963904 0.06714711 -0.07459479 -0.044692412
0002f0 0c 46 99 bb 20 c1 29 bd 45 2f 27 3e d1 a4 58 3d
       -0.0046775397 -0.041443944 0.16326626 0.052891556
000300 41 9c 15 3d fa e5 e7 bd 02 8d 5c be de 94 79 3c
       0.03652597 -0.113231614 -0.21538165 0.015233247
000310 86 70 50 3d 4a 7e 30 be 0d d4 1b be f2 32 05 be
       0.05088856 -0.17235675 -0.1521761 -0.13007715
000320 5c 81 83 3d 73 68 a4 3d 9b 11 97 bc a6 52 41 be
       0.06421158 0.080277346 -0.018441012 -0.18879184
000330 67 d3 b2 3d 60 f4 c2 3d ed dd 23 be ff 4f 46 3e
       0.08731728 0.09519267 -0.16002627 0.19366454
000340 26 e0 e3 3d 5a 5f fa 3c 96 4d 38 bd 58 8e 31 bd
       0.11126737 0.030563045 -0.044995867 -0.04334864
000350 21 62 9a bd 99 e4 db bc 40 8a 1d bc 25 dc bf 3c
       -0.07538248 -0.026842402 -0.009615481 0.023420403
000360 83 86 64 3e 1d 2f 05 3e 24 fa c9 bd c9 22 d0 bc
       0.22316937 0.13006254 -0.09862164 -0.025407212
000370 cb bf a3 bd 3c ef 04 be b8 4f d7 bc cd 47 62 bd
       -0.07995566 -0.12981886 -0.02628313 -0.055244256
000380 3c b3 92 bd e1 35 2b 3e a7 cc ee 3d e2 8b 89 3e
       -0.071630925 0.16719772 0.11660128 0.26864535
000390 fd 5f ac bd 8c 52 43 bd 0b e8 7a 3d 38 75 42 3d
       -0.08416746 -0.047686145 0.06125645 0.04747507
0003a0 63 97 e0 3d b5 0a 9e be 43 f7 f2 bd a0 50 78 3b
       0.10966375 -0.30867544 -0.11863568 0.0037889853
0003b0 a7 22 82 bd eb 9e 47 be 86 6a e3 3d 10 d3 c1 3d
       -0.06354266 -0.19494216 0.11104302 0.09464085
0003c0 54 21 1b 3d 58 0a ef 3c 0f b4 0a be 3e a8 a2 3d
       0.03787358 0.029179737 -0.1354525 0.07942246
0003d0 a4 50 50 3e 92 01 90 3c 73 e5 17 3e 3e 94 3c be
       0.20343262 0.017578874 0.14833622 -0.18415925
0003e0 1b b4 aa bd 70 a7 01 be 55 1b 25 bd 75 25 89 3d
       -0.08335134 -0.12661529 -0.04030927 0.066965975
0003f0 1e 6b f0 3d 22 16 9e bd 46 13 90 be 5c e6 ba be
       0.11739181 -0.07719065 -0.28139704 -0.36503875

fc1.bias f4 [128]
000000 89 23 83 3c f5 50 46 be 3b a2 32 be b3 cc e2 bd
       0.016008155 -0.1936682 -0.17444699 -0.110741995
000010 a1 43 f1 bd ad ac 1a 3d be 5f 0a be 0c bd 01 be
       -0.11780477 0.037762333 -0.13513085 -0.12669772
000020 e3 de db bd ee 3b 2e 3e 94 24 0e be 85 0d 9c 3d
       -0.10735872 0.17015049 -0.13881141 0.07619766
000030 81 dc 12 be eb 86 6a 3d 8f f7 33 be 96 68 54 be
       -0.14341928 0.057257574 -0.17574905 -0.20743021
000040 49 b8 47 be 0a 41 13 be 37 0f 80 3e 8f 9a d5 bd
       -0.19503893 -0.14380279 0.25011608 -0.1042987
000050 46 03 13 be 2b aa c2 3d ef 8a 5c bd 77 34 60 be
       -0.14356717 0.09505113 -0.053843435 -0.21895014
000060 f6 6e 43 3e 8a eb 2c be c9 d4 60 be 25 92 a1 be
       0.19085297 -0.16886726 -0.21956171 -0.31556812
000070 ea 6a f5 3d 4b bc 1c 3e e7 20 28 be 36 20 ac 3d
       0.11983283 0.15306203 -0.16418801 0.08404581
000080 f1 0d 01 3e 86 fd 0c 3e 9d 3f 1e 3e 28 55 96 3e
       0.12602974 0.13768587 0.15453954 0.29361844
000090 a3 57 dd bd be 74 16 be 8b f7 90 3c 83 95 4a 3e
       -0.10807731 -0.14692971 0.017696163 0.19783597
0000a0 b4 3a 06 3e 12 72 43 be df 6b 61 be 26 38 3f be
       0.13108331 -0.19086483 -0.22013806 -0.18673763
0000b0 a7 f2 ae bc 14 13 90 3e 37 64 55 be 26 8f a2 be
       -0.02135594 0.28139555 -0.2083901 -0.3174984
0000c0 b3 f1 ec bd 14 78 98 bc 71 fd 11 3c 89 a4 2c 3d
       -0.11569538 -0.018611945 0.008910523 0.0421491
0000d0 da 55 0c be 90 b7 14 be 47 97 4b 3e 54 45 b7 bd
       -0.13704625 -0.14523149 0.19881926 -0.0894877
0000e0 5b 7b 83 be a7 9f 74 bd 41 c9 45 bb 98 82 09 3e
       -0.2568005 -0.05972257 -0.003017977 0.13428724
0000f0 ea ed b5 bd 62 eb a8 bd f2 14 a7 bd cb 66 ec bd
       -0.08883269 -0.08248021 -0.08158292 -0.11543044
000100 4c 34 02 3e 35 63 92 3d 1e b5 24 3d 5a c1 4a be
       0.12715262 0.071478285 0.04021179 -0.1980032
000110 1e ab 23 bb 2a 9b 35 3d b9 ac 20 3e ce 67 4f be
       -0.002497382 0.04433743 0.15690888 -0.20254442
000120 97 9b c9 bd c2 89 72 3e 86 fb 98 3e 3c e9 4c be
       -0.098441295 0.23685363 0.29879397 -0.20010847
000130 9a ac 4b bd 12 54 52 bd 67 0b 84 bc da 5c 4f bd
       -0.049725153 -0.051349707 -0.016118718 -0.05062566
000140 e1 58 36 bd d7 11 03 be b6 ba 18 3e 36 99 93 be
       -0.044518355 -0.12799774 0.14914975 -0.28827828
000150 c2 ed ac 3d 78 9a 65 be 41 4b 04 bd a5 e8 a2 bd
       0.08443786 -0.22422206 -0.03229833 -0.0795453
000160 af 8f 47 be cd 7f 7f be 6a 79 07 3e 8f 1b 04 3e
       -0.19488405 -0.24951096 0.1322991 0.12901138
000170 e7 0f 74 bc ef b4 f1 3d 03 92 3d 3e 36 40 38 be
       -0.01489637 0.118020885 0.1851273 -0.17993245
000180 f7 47 0f be 99 96 03 be ac f3 3a 3e 49 cc 41 3c
       -0.13992296 -0.12850417 0.18257016 0.0118284905
000190 c0 2d 56 3e 78 dd b3 bd 35 d3 53 3d 44 60 c6 3d
       0.2091589 -0.08782476 0.051715095 0.0968633
0001a0 48 7f 38 3e f6 d4 c3 bb c0 ca 6e 3e 57 b8 4d 3c
       0.18017304 -0.0059763147 0.2331953 0.012556157
0001b0 3c ab 95 3e 1c 41 97 be fd 52 b5 bd 62 39 22 3e
       0.29232204 -0.29541862 -0.088537194 0.15842202
0001c0 a5 89 e2 bc 31 15 e2 bc cd 4a 94 bd b5 b5 9f bd
       -0.027653525 -0.027597995 -0.072408296 -0.0779833
0001d0 93 96 3a 3d 6b 37 8c bd a7 8a dd bd dd 02 74 be
       0.045553755 -0.06846508 -0.108174615 -0.23829217
0001e0 ba de 96 be cc f5 34 3c 46 4b 1a bd ab 32 5f bc
       -0.29466802 0.011044931 -0.037669443 -0.01362292
0001f0 ba bb 9e 3e 75 76 e8 bd 4c c0 3b 3e fa fc 46 3e
       0.310026 -0.11350719 0.18335074 0.1943244

fc2.weight f4 [128, 128]
000000 5d 44 5c 3a fe 1f 15 3c 4a 0f f5 b9 1a 64 5c bd
       0.0008402521 0.009101866 -0.00046741433 -0.0538064
000010 87 3e d6 3b 7d 1f 6f bd 74 c0 c3 bc 5c 01 39 bd
       0.0065382156 -0.05837964 -0.02389548 -0.045167312
000020 ad b8 36 3b 10 f9 99 bd 98 42 49 3d 50 e6 30 3c
       0.0027881071 -0.07518208 0.049135774 0.010797098
000030 49 ff 26 3c f0 43 9f bd a2 c3 2f bd ed 39 f6 3c
       0.010192701 -0.0777663 -0.04291118 0.030056918
000040 c4 f8 18 be e5 b5 74 3b fb bb e6 bc 0b 52 e8 ba
       -0.14938647 0.0037339863 -0.028165808 -0.0017724646
000050 bb 6c c0 bd 85 1b a1 bd 5c 6c 1d 3d 16 ca dd 3d
       -0.09395739 -0.07866577 0.038433418 0.108295605
000060 7f bf 86 38 28 fc 96 bc 6e 49 c1 bc f2 8b 35 bd
       6.425287e-05 -0.018430784 -0.023594584 -0.044322915
000070 26 54 1c 3c 13 f4 0c bd 0a 0a b8 3c 7b bc a2 bc
       0.009541547 -0.034412455 0.022465724 -0.019865265
000080 f2 bb 60 bc a0 f4 21 bd 52 28 2f bd a1 07 3a bd
       -0.013716685 -0.039539933 -0.04276306 -0.04541743
000090 c9 59 27 3d ce 79 4f ba 8e cc 11 3d 71 be b6 bb
       0.04085711 -0.00079145737 0.03559547 -0.0055769016
0000a0 d0 94 e6 bc 50 15 e1 bb a1 62 76 bb 37 41 14 bc
       -0.028147131 -0.0068689957 -0.0037595409 -0.009048752
0000b0 c6 45 bc bd d0 57 ae 3c 36 81 86 3b 0d 60 27 bd
       -0.09192996 0.021282107 0.0041047586 -0.040863086
0000c0 99 af 90 bb 73 6c 5e bd 44 45 49 bd 38 43 b3 bd
       -0.004415464 -0.054302644 -0.049138322 -0.08753055
0000d0 08 a9 c5 bd 08 c0 5c 3d a9 e5 7b bd 4e 0e d5 bd
       -0.09651381 0.053894073 -0.061498318 -0.10403119
0000e0 a3 49 ad 3c 22 a5 68 bd f5 c0 1e 3d d1 3f 5f 3d
       0.021153277 -0.056798108 0.038758237 0.05450422
0000f0 2f 52 f0 bd dc 76 2e ba 0d a3 8c 3c 32 01 46 3d
       -0.11734425 -0.00066552847 0.017167592 0.048340984
000100 df 58 32 bd 92 ac 0e 3b bf 1a db bd cd 88 8b 3d
       -0.043541785 0.002177034 -0.10698461 0.06813202
000110 42 41 ec bd 1a 63 1c 3d e9 af a4 bd fa c6 ea bc
       -0.115358844 0.038180448 -0.08041365 -0.028659333
000120 a0 a8 f7 bd 34 97 0a 3d 43 4c 79 bc a9 31 54 bd
       -0.120927095 0.033835605 -0.015215936 -0.051805172
000130 63 b0 aa bc 2b 77 1c bb 8a 81 c4 bd 10 9e e6 3c
       -0.02083606 -0.002387474 -0.0959502 0.028151542
000140 98 5e 57 3a eb f6 bb bd 28 c1 fd 3c cc 2f 96 3d
       0.00082156947 -0.09177955 0.030975893 0.07333335
000150 67 fa 16 bd d6 71 5a bd 73 2a e1 bd c1 56 c9 bd
       -0.036859896 -0.05333122 -0.10994425 -0.09831
000160 b8 60 2e bd 56 f8 5c bd 8c c3 c3 3c 51 aa 97 bc
       -0.042572707 -0.05394777 0.023896955 -0.01851383
000170 c3 de 92 3b ec 40 2b 3d 78 1a d5 bc 9b 9d a5 bc
       0.0044821217 0.04180996 -0.026013598 -0.020216754
000180 27 79 45 bd af 8f b1 bd 14 b5 bb bd 51 60 14 bd
       -0.048211243 -0.086699836 -0.09165397 -0.036224667
000190 ce 1a 52 3c c1 96 90 bd 46 6c 13 bc d7 32 83 bc
       0.012823774 -0.07060004 -0.008997982 -0.016015453
0001a0 ed ba 6c 3d d0 aa 3d bd 44 e8 a8 bc c0 be 3d 3d
       0.057795454 -0.046305478 -0.020618565 0.04632449
0001b0 26 70 87 3d 4f 29 89 bc 6a c3 68 3d c3 44 4e 3d
       0.066131875 -0.01674333 0.056826986 0.050358545
0001c0 99 77 69 bd 7c f6 4e bd a2 9b 09 3d df 9d 1e bc
       -0.056998823 -0.050528035 0.03359569 -0.009681194
0001d0 03 ef 36 3c 19 25 5a bb 15 76 03 3d 72 c2 56 3d
       0.011165383 -0.0033286272 0.032095034 0.05243153
0001e0 ef 9a 4d bc 95 90 cc bd 19 71 0b bd 56 95 16 bd
       -0.012549146 -0.09988514 -0.034043405 -0.03676351
0001f0 78 67 10 bd 0f d0 ba bd be bd 11 bd f8 9f 38 3d
       -0.035254925 -0.09121715 -0.035581343 0.045074433
000200 04 53 a8 3d 52 99 26 3d e8 78 2f bd 17 b0 db 3d
       0.08218959 0.04067356 -0.042839915 0.10726946
000210 99 ca 6a 3e 25 66 13 3d 20 24 bf 3d 31 f8 96 3d
       0.22928847 0.035986084 0.09333062 0.073715575
000220 ac 50 26 be f9 87 e6 be 75 ac 6c 3d 94 94 90 be
       -0.16241711 -0.45025614 0.057781655 -0.28238356
000230 7a a6 9f 3d 83 21 d7 bd a3 2d 26 3d c4 0f 88 bc
       0.07795425 -0.10504439 0.040570866 -0.01660908
000240 fa 4e bf 3c 5d da 8c 3d 14 aa 0b 3e b9 ab a4 3d
       0.023353089 0.06877587 0.13639098 0.08040566
000250 2f 61 2f 3e 1b dc a2 bd 47 7f 09 be fc 33 fe 3d
       0.17126916 -0.07952138 -0.13427459 0.12412259
000260 b7 ac 85 bd ad 5f 24 3e d2 2b 17 bc 55 b5 8b 3d
       -0.06527083 0.16052122 -0.009226756 0.06821696
000270 f3 77 2c bd 2a 80 d5 3c 86 0f 4f 3e 09 6f af 3e
       -0.04210658 0.02606209 0.20220765 0.342644
000280 75 cc 67 be 94 4c c4 bd 61 e3 e3 3c ce cc 49 3e
       -0.22636588 -0.095849186 0.027818384 0.19707033
000290 af 76 63 bd 0f 04 bd bd 71 56 df 3d b8 eb b3 be
       -0.055533107 -0.0922929 0.10905159 -0.35140777
0002a0 24 75 8a be e8 10 d5 bc 05 d7 07 3e 8c 3b 9a bd
       -0.27042496 -0.026009038 0.13265617 -0.07530889
0002b0 3b 3a fb 3d f1 0e d1 bd 38 19 24 3d 10 08 19 3c
       0.12266966 -0.10207928 0.040063113 0.009340301
0002c0 5e a5 f1 3b 42 bb b2 bd 7e 64 02 be 82 72 56 3e
       0.0073744496 -0.08727123 -0.12733647 0.20942119
0002d0 95 1a 07 3e 26 00 7b 3d a9 12 f8 bd c1 c0 b1 be
       0.13193734 0.06127944 -0.12112934 -0.34717372
0002e0 2e 30 78 bd 2f 3a 80 3d b4 e6 9b be 2c e0 17 bd
       -0.060592823 0.06261098 -0.3044945 -0.03707902
0002f0 7f c5 0a be a0 3c de 3d ad 75 94 bd 33 c4 4e 3e
       -0.13551901 0.10851407 -0.072490074 0.20192032
000300 0c c7 c5 bd 0d 95 da 3d d8 9f d8 be 1b bc a7 3c
       -0.09657106 0.106729604 -0.4230945 0.020475438
000310 15 69 df 3e 66 06 8e be 50 c4 04 3e b4 ca 12 be
       0.4363486 -0.27739257 0.12965512 -0.14335138
000320 6a ca 2e 3d 11 53 d6 3d a5 85 80 3e 1e 3d ed 3d
       0.042673506 0.104650624 0.25101963 0.11583923
000330 35 d5 ae 3d 94 e7 be 3e ef 41 77 3e 2e 5b b6 3c
       0.0853676 0.37286055 0.24146245 0.022260275
000340 9d 34 c5 3d 3a 48 61 3e 27 79 56 3d 5b 38 32 3e
       0.09629176 0.22000208 0.052361634 0.1740431
000350 e7 f9 48 3e 0b 80 5b bc 6f 96 dd 3d 55 57 c9 bd
       0.1962658 -0.013397227 0.108197086 -0.098311104
000360 0c 93 0c bc b1 02 60 3e 1b b8 6d 3d 66 c0 b1 bc
       -0.008579981 0.21876027 0.058036905 -0.021698188
000370 1e 23 ac be 23 e3 d7 3e 9b d2 d5 3d 6a 30 fd bb
       -0.33620542 0.4216548 0.104405604 -0.0077267187
000380 49 2d 2d be 6b 11 31 bc 35 b6 50 bd 3b 94 58 bd
       -0.16911806 -0.010807375 -0.050955016 -0.05287574
000390 6e 52 f1 bd 14 c8 5d bb eb ef aa 3d 80 96 96 3e
       -0.117833 -0.003384118 0.08346542 0.29411697
0003a0 87 e1 a6 be 02 fa e0 3c c7 01 de bc 8f e4 3c bc
       -0.3259394 0.027462963 -0.027100457 -0.011529102
0003b0 be 99 86 3e 5a d3 83 3e dc 2f 28 bd b2 45 dc be
       0.2628917 0.25747186 -0.041061267 -0.43021923
0003c0 b8 43 e7 bd 9d 35 78 bc 92 c8 a4 3d 23 7c 7f 3e
       -0.11292213 -0.015149501 0.08046068 0.24949698
0003d0 85 e5 4c 3e ce 60 ff 3b d5 5a 20 3e c0 ec 9e 3d
       0.2000943 0.0077935224 0.1565965 0.0776
0003e0 fd 5b 55 be 0d 81 02 be 17 20 33 be 9d eb c1 bc
       -0.20835872 -0.12744541 -0.1749271 -0.02367192
0003f0 c0 2a 1b bf 3e 62 93 bd d8 f0 3c 3e 5d ee 21 3c
       -0.60612106 -0.071964726 0.1845125 0.00988349

fc2.bias f4 [128]
000000 45 46 72 bc 73 e3 53 bd 46 a3 bc bd 6a b9 27 be
       -0.014787261 -0.051730584 -0.092108294 -0.16379324
000010 93 c7 27 3e 6a 21 84 3d e6 dc 1e bd d0 b0 d2 bc
       0.16384725 0.06451686 -0.038784884 -0.025719076
000020 f7 24 cf bd 5c 49 76 3d 73 e4 b0 3c 72 70 3f bc
       -0.10114472 0.060128555 0.021593308 -0.011684524
000030 dd 16 b8 bd d2 58 c0 bd e0 47 0b 3e 5b ba d2 3d
       -0.08988736 -0.09391941 0.13601637 0.10289451
000040 d2 37 75 be 48 ed 6d bc 0c aa c3 ba 7e b6 91 3d
       -0.23947075 -0.014521904 -0.0014927997 0.07114886
000050 79 7c cb 3d 83 6a 4d 3d 9c cf 9a bd 59 3b eb bd
       0.09935851 0.050150406 -0.075591296 -0.11485929
000060 88 cc 1a 3d 45 6c 26 bc d4 64 ed bd 39 dd 0d 3e
       0.037792712 -0.010157649 -0.11591497 0.13853921
000070 09 87 4c bd 95 c7 fa 3c b6 b8 a2 3c 2c 5b 03 bb
       -0.049933467 0.030612746 0.019863468 -0.0020043356
000080 a5 56 98 bb 7b a2 33 bd e9 45 00 3e ed bd 03 3d
       -0.0046490007 -0.043856125 0.12526669 0.03216355
000090 1f fe 12 3e 26 01 24 be ab da c1 bd d9 50 33 3d
       0.14354752 -0.16016063 -0.09465536 0.043778274
0000a0 65 96 19 3c 61 0a 11 be 31 43 49 be b2 10 50 bc
       0.009374236 -0.14164115 -0.19654538 -0.012699293
0000b0 28 3f 35 3d 8d 58 8a 3d df 2a cc bc c0 ae 68 3d
       0.044249684 0.06755171 -0.024922786 0.05680728
0000c0 fe 0a 06 be 24 ab eb 3c e2 70 8c bc bf d2 c5 3d
       -0.1309013 0.02876813 -0.01714367 0.09659337
0000d0 5f b0 e3 3d ec 36 24 bc 7b 9a af bd d2 e5 f1 3c
       0.111176245 -0.01002286 -0.08574387 0.029528532
0000e0 b2 24 0f bd bc fa 85 3d 3a 57 e2 bd fc 98 62 3c
       -0.034947105 0.065419644 -0.110517934 0.01383042
0000f0 0d 08 57 3a ba 0b 11 3e 5d 43 86 3d b6 95 b0 bd
       0.0008202799 0.1416463 0.06555817 -0.08622305
000100 4c 0b cd 37 df 2d dc 3d 28 9c 8b bd 70 bd 7c 3c
       2.4443165e-05 0.10750937 -0.06816894 0.015426025
000110 d8 99 f7 bc 23 35 56 bc 6a 7b 5f bc 26 c9 b1 bd
       -0.030224726 -0.013074192 -0.013640264 -0.08680944
000120 bc b3 1a be 16 db b6 bd ef 97 1d bc 08 0b 08 3d
       -0.15107626 -0.08928506 -0.009618743 0.033213645
000130 e5 bd df 3d 2e 06 96 3c 96 c1 0f be 97 24 55 bd
       0.109248914 0.018313494 -0.14038691 -0.052036848
000140 20 42 be bd 49 9a 6b be 3f 7d eb bd 55 62 9b bc
       -0.09289956 -0.23008074 -0.11498498 -0.018967787
000150 5a 9f 2c 3e 0b 24 fa bd 94 05 24 3d 63 95 0d 3e
       0.16857663 -0.12213906 0.040044382 0.13826518
000160 48 3e b4 bd 83 ac c9 3c bd 18 03 3c 46 59 a9 bd
       -0.08800942 0.024618393 0.008001504 -0.08268981
000170 f8 8e f1 3c 0b da 65 3d 38 97 ae bd 5f 69 3a bd
       0.029487118 0.056116145 -0.085249364 -0.045510646
000180 47 6a ed bc 9a 63 f8 3c c5 63 02 3e 13 30 18 be
       -0.028981341 0.030320931 0.12733372 -0.14862089
000190 39 41 6d 3c a2 69 a4 3d 73 41 a4 3d c2 bf 19 bd
       0.014480882 0.0802796 0.08020296 -0.03753639
0001a0 9a 4e cf 3d 6b f2 aa 39 9e 0c a1 3d e4 ce f3 3c
       0.10122414 0.00032605542 0.07863735 0.02976174
0001b0 4f 1a c5 bc 23 a7 77 bd b7 cf 4f be 23 15 e7 bc
       -0.024060396 -0.06046213 -0.2029408 -0.028208321
0001c0 be 1f c7 bc a0 00 fc bd 5f fb 02 3e a2 1f 4d bd
       -0.024307128 -0.12304807 0.12791203 -0.050078996
0001d0 ba f3 3d bd 1a a8 23 3c 8b d8 86 bc 84 d8 a2 bd
       -0.046375014 0.009988809 -0.016460678 -0.07951453
0001e0 d1 60 70 3d 99 1c 11 bd 1d 78 a3 3d aa ea 6b 3d
       0.05868608 -0.035427663 0.07981894 0.05759684
0001f0 a8 a7 ad bd 11 84 8e bc 90 01 a2 3c 26 d7 2b 3d
       -0.084792435 -0.017396959 0.019776136 0.04195323

fc3.weight f4 [4, 128]
000000 21 41 fd 3b 7b c3 25 bd 59 99 bd bb d5 0e e1 bd
       0.0077287112 -0.040469628 -0.0057861027 -0.10989157
000010 97 82 85 bd 80 bf 0b bd 3a b5 cd bd dd d8 e2 be
       -0.06519049 -0.034118176 -0.10044332 -0.4430608
000020 b7 fc a0 be ca 42 5c bf cf 7d d8 3d 88 84 0d bf
       -0.31442806 -0.8603941 0.10570871 -0.5528035
000030 a5 bd 0a be 6e 73 bd 3c 6c 8b d7 3e 37 5e d1 be
       -0.13548906 0.02312633 0.42098558 -0.40892193
000040 6c 4a 10 bc 5a 99 0c be 49 73 dc bb 68 c4 8c 38
       -0.008806806 -0.13730374 -0.0067276102 6.712304e-05
000050 02 1f 9f 3e 47 b3 9a 3e 99 64 44 3c ec 55 38 3e
       0.31078345 0.30214903 0.011986875 0.18001527
000060 6d d4 f6 bd 34 4f c7 be 22 51 74 3e 38 89 7e 3d
       -0.12052236 -0.38927615 0.23859075 0.06214258
000070 f9 ab e9 3e 2b d3 32 be bc 9b 29 bd 9e 20 81 3c
       0.45639017 -0.17463367 -0.041408285 0.015762623
000080 51 e5 54 3d 05 db d9 3d 4e a7 79 be d5 93 d1 3c
       0.051976506 0.10637478 -0.24380228 0.025583187
000090 82 a9 51 be 67 be d5 3e af e5 fa 3b 30 29 c8 3c
       -0.20474818 0.41746828 0.007656775 0.024433702
0000a0 9e cf 8b be 21 4b bd 3d 3a a1 a4 be 8e 60 54 bc
       -0.27306837 0.09242845 -0.32154256 -0.012962474
0000b0 4a 90 03 be fe 83 74 3e 0d dc 92 be 95 9e 0c bd
       -0.1284801 0.23878476 -0.2868351 -0.034330923
0000c0 c1 ec ab bd e6 64 88 3e 9f 21 ec 3d 12 a8 de bd
       -0.083947666 0.2663948 0.1152985 -0.108719006
0000d0 89 97 75 3d 3c 26 00 bf 08 72 00 be e3 d6 03 3d
       0.05995897 -0.5005834 -0.125435 0.032187354
0000e0 7f ad 2e 3e b5 5e ab bd 9b 3e 8b be 0a 80 57 3c
       0.17058371 -0.08367673 -0.27196202 0.0131530855
0000f0 3d 4e 77 3d 23 5d 47 3d 2a 5d 19 3e 9b c9 b9 3c
       0.06037735 0.048672806 0.14976946 0.02267914
000100 12 71 84 3e 6e a2 9c bd 0c 57 d7 be c4 3b d0 3e
       0.25867516 -0.076481685 -0.420586 0.40670598
000110 b7 9e 2a 3d 96 96 18 3d a5 7a 15 be 41 7d 44 be
       0.04165527 0.037252985 -0.14597566 -0.19188406
000120 c7 9d 8c 3e 6b 93 6c 3e a3 d9 64 3c b6 85 d2 be
       0.27464125 0.2310311 0.013967904 -0.41117638
000130 a5 3a 56 3e 03 a2 98 be 2d a2 98 be f0 31 21 3d
       0.20920809 -0.29811105 -0.2981123 0.039354265
000140 55 a3 a3 3e 81 8c fa bc d7 80 79 3e 1e 99 bf be
       0.3196055 -0.030584576 0.24365555 -0.37421507
000150 d1 32 a7 3e e1 2d d1 3d 6e 29 b8 bc 94 04 b5 3a
       0.32655957 0.10213829 -0.022480693 0.0013810568
000160 0e 03 c4 be 7a 71 ac 3d 45 6f 9b bd ee f1 d8 3e
       -0.3828358 0.084200814 -0.07589582 0.42372078
000170 85 1f 15 bf 62 66 7e be 20 40 80 be 6f 07 6a be
       -0.5825122 -0.24843743 -0.25048923 -0.22854398
000180 55 f0 d0 3e f2 26 82 3d 78 ee 80 be cd a9 bd 3b
       0.4080836 0.063550845 -0.25181937 0.005788064
000190 4f b6 00 bc 75 25 d2 3c 9e 16 52 3e e1 18 b9 bb
       -0.007855966 0.025652627 0.2051644 -0.0056487177
0001a0 53 0b e6 bd d7 05 0e 3c a3 5e 6c 3d e8 cb ae be
       -0.11232629 0.0086683845 0.05770744 -0.34139943
0001b0 44 9e d2 be a1 60 02 3e d1 64 fd bc 86 5f f6 3b
       -0.41136372 0.12732174 -0.030931862 0.0075187115
0001c0 ec e6 1e 3d d7 bf 1a bf 96 9f 8e be 98 87 93 3a
       0.038794443 -0.60448974 -0.2785613 0.001125562
0001d0 44 1d 87 be a0 a7 bb 3c b1 c3 81 3e 7a 65 fb 3b
       -0.26389515 0.022907078 0.25344613 0.007672009
0001e0 fe 3a 05 3e 52 76 0b be 28 b1 79 3e fb 3b 0e bd
       0.13010785 -0.13619354 0.24383986 -0.03472517
0001f0 e0 e5 dc 3c 5a 5f 04 3f 5f 2d a7 3d 84 51 f0 be
       0.026965082 0.51707995 0.08162951 -0.4693719
000200 e2 d5 68 bc 74 4a 8d be a4 94 4a 39 2f 8d d6 bc
       -0.01421115 -0.27595866 0.00019319594 -0.026190368
000210 79 7a d1 3e d6 06 8d 3e 4b 05 ea be 17 3e 02 3d
       0.40913752 0.27544278 -0.45707163 0.031797495
000220 96 48 8b 3e f5 4f f9 3d 52 95 23 be 65 22 45 be
       0.27203816 0.12173454 -0.1597493 -0.19251402
000230 a8 6c d6 be 9c 7f 4b 3c 7a 49 35 3e 65 91 5f be
       -0.41879773 0.012420561 0.1770381 -0.21832807
000240 eb 30 0d 3e 07 0e 36 be 54 0e 26 3b e0 6e b1 3a
       0.13788192 -0.17778789 0.002533813 0.0013537072
000250 9a 26 ff bb 3a d2 02 bc 15 11 00 bc aa b4 bf bb
       -0.007786584 -0.007984692 -0.007816573 -0.0058503943
000260 f2 3e 3a bd da 3a 9c 3e a2 b2 04 be 01 b3 85 be
       -0.045470186 0.3051365 -0.12958768 -0.26113132
000270 fd 57 ee be a9 2a 8a 3c fd 69 8b bd 91 8d ff 3b
       -0.46551505 0.016866045 -0.06807325 0.0077988585
000280 d5 76 de 3e 7a 3b f5 bd a0 5f 87 3e 5b d1 34 3e
       0.43450037 -0.11974235 0.26440144 0.17657988
000290 60 97 bb 3e 4e cc 78 be 1a 4a 09 3b 5e 12 3b 3e
       0.36638927 -0.24296686 0.002094871 0.18268725
0002a0 d2 74 a4 3e f6 d3 05 bf b0 86 c0 be 96 78 62 ba
       0.32120377 -0.5227655 -0.37602758 -0.00086391845
0002b0 85 ed dd 3d d4 a4 83 3d dd 7f 95 3e a6 d0 1f 3e
       0.10836319 0.06427923 0.29199114 0.15606937
0002c0 43 eb 85 3a 73 27 90 bd 8d 56 40 be 1f 50 65 3d
       0.0010217208 -0.07038774 -0.18783017 0.055984613
0002d0 21 b3 b0 be ba 5c bc bd a6 68 18 be e8 48 1f bd
       -0.34511665 -0.09197374 -0.1488367 -0.03888789
0002e0 ea 02 0c be 69 2d 29 3e 76 ab 91 bd 59 36 83 bc
       -0.13672987 0.16521229 -0.07112782 -0.016017126
0002f0 02 d6 c5 be d6 94 07 be 20 2c 47 3e 2d e1 05 3b
       -0.38639838 -0.1324037 0.19450426 0.0020428405
000300 c6 5d a8 3d b1 fd 5d 3d 1d 16 d5 3a 6b f6 67 3d
       0.08221011 0.054197017 0.0016257201 0.056631487
000310 91 f1 28 bd f4 7f 90 3d cf 75 5f 3e 28 8e c4 be
       -0.041246 0.07055655 0.21822284 -0.38389707
000320 c0 d9 21 3d 9a 0f 46 be 44 29 25 3d a8 85 83 3d
       0.039514303 -0.19341889 0.040322557 0.06421977
000330 b7 5b 74 3e 24 06 16 bd e4 aa f0 bd f0 ec 19 be
       0.23863111 -0.03662695 -0.11751345 -0.1503179
000340 d3 3f 53 3e c9 7c 14 bf e1 24 65 bc e5 21 1b be
       0.20629816 -0.5800291 -0.013985843 -0.15149648
000350 67 61 36 3d 97 21 65 be 47 13 c2 be c7 fc cc be
       0.044526484 -0.22376095 -0.37905332 -0.40036604
000360 57 11 ad bd bb 68 dc 3e fd 45 b6 be 2c 66 99 bd
       -0.08450573 0.43048653 -0.35600272 -0.07490191
000370 a2 af f2 be 0b 11 ee 3e 5f 98 5b be 60 94 01 bd
       -0.47399622 0.46497378 -0.21444844 -0.031635642
000380 de de d1 bc 50 5c 18 3f ba f9 11 bd 9e 33 8c be
       -0.025618967 0.5951586 -0.03563855 -0.2738313
000390 f8 9b 43 3c 73 aa 87 bc 05 e5 15 3e 19 4a 72 3d
       0.011939041 -0.016560769 0.14638145 0.059152696
0003a0 73 e1 d1 bd c8 a4 88 bc 03 3e 25 bc a9 56 bd 3d
       -0.10248079 -0.016680136 -0.0100855855 0.09245045
0003b0 8c f6 d1 bd 33 a9 46 be 87 71 b4 3e b7 1a 50 bb
       -0.10252103 -0.19400482 0.35242864 -0.0031754205
0003c0 bb 70 9b bb e0 60 33 be 1c d0 41 be 30 48 5d 3b
       -0.004743663 -0.17517424 -0.18927044 0.003376495
0003d0 cd a8 34 bd ac f8 36 3c 43 4b 1a bf 63 d7 80 bb
       -0.044106293 0.011167686 -0.6027109 -0.003931926
0003e0 dd 4f d0 bd 39 b2 80 be 42 37 2a be 3b d9 12 3e
       -0.10171483 -0.25135973 -0.16622642 0.1434068
0003f0 ff e7 b5 3e af d0 f8 3c 81 2a f2 3d f7 a7 91 3d
       0.3552856 0.030372946 0.11824513 0.07112115

fc3.bias f4 [4]
000000 15 df 87 bc 13 cf 0e 3d 40 fc 54 be f3 4e 8a 3d
       -0.016585866 0.03486545 -0.2079935 0.067533396

head.weight f4 [128, 23]
000000 0f 66 94 be 50 1c 66 be 8a 78 9b be de ad 0f be
       -0.28984115 -0.22471738 -0.30365402 -0.14031169
000010 9c 1e dd bd 99 f2 f0 bd 93 4b cd 3d 93 7a a3 3e
       -0.10796854 -0.11765022 0.1002418 0.31929454
000020 d8 8e 90 3e d1 26 be 3e 47 bc 92 3b e4 9c 44 3e
       0.2823398 0.3713899 0.004478011 0.19200474
000030 6a a1 c8 bd 66 b5 04 3c 47 28 08 be 93 1c 66 3d
       -0.09796412 0.008099889 -0.13296615 0.056179594
000040 41 34 d3 be a9 8d 62 3e 24 67 88 3e 17 1e 30 3c
       -0.41250804 0.22124352 0.2664119 0.0107493615
000050 54 d6 90 3c 81 05 d2 bc a5 99 c8 b9 71 8f a5 be
       0.017680325 -0.02563739 -0.00038261447 -0.32336
000060 00 ac 55 be 28 8c 79 be c7 f7 c4 3c a4 97 14 3e
       -0.20866394 -0.24369872 0.02404393 0.14510971
000070 2b d3 52 bd 2e e8 11 be 27 b9 12 bf 9f 0b b2 bd
       -0.051470917 -0.14248726 -0.5731377 -0.08693623
000080 f6 48 cd bd 13 d0 f4 bd 53 ca 0a be 47 c9 97 bd
       -0.10023682 -0.119537495 -0.13553743 -0.074114375
000090 33 53 fa 3c 80 1d 1a be be 90 17 bd 10 d1 26 bc
       0.03055725 -0.15050316 -0.03700327 -0.01018168
0000a0 2e 1b 9f 3d dc 89 7c be 72 c1 f6 bb 07 8e 8f 3d
       0.07768856 -0.24661964 -0.0075303847 0.070095114
0000b0 46 e9 b9 3d 1c 95 88 bc e3 62 a8 3d 1b dd f4 3d
       0.090776965 -0.016672663 0.08221986 0.11956235
0000c0 36 bc 62 3e ee 9e ac 3e 86 35 d3 3d 14 e7 61 bd
       0.2214211 0.33715004 0.10312943 -0.055152014
0000d0 e3 5b 71 bd d1 94 cb 3e 7d c5 00 3b 62 e2 bd be
       -0.05892552 0.39761975 0.0019648962 -0.3708678
0000e0 b5 e4 7c bd f6 10 2b 3e d7 4d df 3d 1e 29 ff bc
       -0.06174155 0.16705689 0.10903519 -0.031147536
0000f0 fc 7f 59 3d 69 20 07 bd aa 4f 7e bd 4d 07 16 bd
       0.05310057 -0.032989893 -0.062087692 -0.036628056
000100 5f 87 fe bd 4b 35 31 bd a6 75 ed bc 24 c9 d3 3c
       -0.12428164 -0.043263715 -0.028986763 0.025852747
000110 56 27 bc 3c 6d 96 29 be 00 e2 3c bd 96 d4 40 3e
       0.022967976 -0.16561289 -0.046113968 0.18831095
000120 28 8a 9e 3c 11 13 b0 3c c3 44 d6 3d ac 7e ab 3d
       0.019352987 0.021493467 0.10462334 0.0837377
000130 28 2a 64 3b d0 df e7 3d ac 26 81 be 72 b2 97 3d
       0.0034815166 0.11321986 -0.25224817 0.074070826
000140 6d 01 7a be 22 9d 86 be e0 ac 3a be 02 4a 12 bd
       -0.24414606 -0.26291758 -0.18230009 -0.03571511
000150 6e f2 1c 3e 8a db 2d 3e 65 5a ae be 1d be b7 be
       0.15326855 0.16978279 -0.3405334 -0.35887232
000160 89 1e 81 bc ae 36 3e bc 73 34 56 3c 13 54 37 3c
       -0.01576163 -0.011609716 0.013074028 0.011189478
000170 bb 0e 91 be e0 cd 22 3c a0 f2 a4 bd 26 a6 c8 be
       -0.2833155 0.00993678 -0.080540895 -0.3918926
000180 df f4 b6 bd 59 95 e9 3d a2 e0 6a 3d f8 0a 71 bf
       -0.08933424 0.11405439 0.057343133 -0.9415736
000190 23 79 24 bf 9c 8a ad be 27 c6 3e 3c 20 60 e1 bd
       -0.6424734 -0.33894813 0.011643923 -0.110046625
0001a0 7c 0b a2 bc 8c 24 9a 3b b3 15 7f bd d6 a1 bf bc
       -0.019780867 0.0047040638 -0.062276553 -0.0233926
0001b0 c2 6a 0c be ae 1a dd bd 90 f9 36 3d 22 0a 57 3d
       -0.137126 -0.10796104 0.044671595 0.052499898
0001c0 fc 1d 93 bc ae b3 32 3b d3 53 6d bc 8c b4 96 bd
       -0.017958634 0.0027267742 -0.014485317 -0.07358655
0001d0 4e 73 f3 3d 19 21 1f 3e c5 d5 6c 3d bc d2 4b 3e
       0.11887227 0.1553997 0.057821054 0.19904608
0001e0 e5 3b aa bc 48 34 18 be c3 e1 f1 bd c5 38 6a be
       -0.020780513 -0.14863694 -0.11810639 -0.22873218
0001f0 49 88 19 bf 90 1c fc bd cc 44 1f 3d eb 09 05 bd
       -0.5997358 -0.12310135 0.03888397 -0.03248016
000200 9f 60 c4 bb 9a 2a 37 3c b5 93 93 3d 55 8a c3 3d
       -0.0059929634 0.011179591 0.07205907 0.09547869
000210 05 44 a3 3d a5 aa 19 be 17 2d fc bc db bb 11 bd
       0.07971958 -0.15006502 -0.03078322 -0.035579544
000220 8b 3b 18 bd d6 04 6d 3d 4e 98 99 3d 29 15 29 3d
       -0.03716616 0.05786594 0.07499753 0.041279946
000230 fd 5b c0 bd dc 19 97 3d c8 2f 81 3d 2d b0 15 3d
       -0.09392545 0.07377979 0.06307942 0.036544967
000240 8f 89 cd bc 3a 02 fd 3e 11 75 76 3e b7 58 9e be
       -0.025090007 0.4941576 0.24068095 -0.3092706
000250 f7 5d d6 3c b3 46 09 3e 8a 33 59 be f2 3a b4 3c
       0.026167853 0.13405876 -0.21211067 0.022000764
000260 02 19 35 bd b0 13 fe 3c ca d3 5a 3d 29 8d 1a be
       -0.044213302 0.031015247 0.053424634 -0.15092911
000270 80 66 be 3c 10 8e fb 3b b4 9d af bb c0 60 aa bc
       0.023242235 0.0076768473 -0.005359376 -0.020798087
000280 e3 61 09 3d c5 e9 08 be c8 00 e9 3d fd 0f 5c be
       0.033540618 -0.13370426 0.11377102 -0.21490474
000290 d9 7d 42 3d a7 3e 97 be 99 8c 03 3e 71 c7 3c be
       0.0474833 -0.29539987 0.12846602 -0.18435456
0002a0 10 8c 98 bd f7 40 de bd 86 93 84 bc c7 79 af bc
       -0.0744859 -0.10852235 -0.016183626 -0.021420373
0002b0 33 72 64 be bb ed a1 3d 8a aa 2e bd c8 0b 4c bb
       -0.22309189 0.079066716 -0.042643107 -0.0031134952
0002c0 3f 32 9e bd e9 ea fd 3d a0 36 ca 3d 7e 29 84 be
       -0.077244274 0.12398321 0.098737 -0.25812906
0002d0 33 f8 4f bd e9 39 cc 3d e7 3f 22 bd 6c c9 9b bd
       -0.05077381 0.09971983 -0.039611723 -0.076067775
0002e0 88 13 5f 3d b1 8a 07 bd 24 a1 24 3e 0d 06 ee bd
       0.054461986 -0.03309125 0.16077095 -0.11622248
0002f0 05 8a 3d be d1 0b fd bc f7 ea 0e 3e 15 c3 54 bf
       -0.18509682 -0.030889424 0.1395682 -0.8311017
000300 ad 25 63 bf a3 e1 6e bf 54 da 69 3d 29 4b c1 3d
       -0.88729364 -0.93313044 0.05709298 0.09438164
000310 03 6e 73 bd 8f 7f 5a 3d 57 0c f4 bc af 0e a4 3c
       -0.059431087 0.053344306 -0.02979104 0.020026533
000320 3b 72 0e be a3 51 a4 3d fb b0 53 3d f7 6c 75 bd
       -0.13910763 0.080233835 0.051682454 -0.05991837
000330 8f 2b 27 3d 9c 63 a6 bc 59 4c e3 3b 11 5f da be
       0.040813025 -0.02031117 0.0069365916 -0.42650655
000340 56 31 65 be 05 17 6b be a4 bc b5 be 37 ae f9 bd
       -0.22382101 -0.22958 -0.35495484 -0.12191432
000350 d2 b1 e5 3d 83 21 e3 3d 84 24 7f bf af ef 26 bf
       0.11215557 0.11090376 -0.99665093 -0.6520948
000360 4c 87 29 be d6 05 ce bd 66 80 e4 bc 6a 11 e8 3c
       -0.16555518 -0.10059707 -0.027893256 0.028328616
000370 fe 04 4b bd 28 84 34 bd ba e1 4f 3d 60 b3 51 3d
       -0.049565308 -0.044071347 0.05075238 0.051196456
000380 89 29 95 bc 37 60 71 3d 81 24 09 3c 03 06 5c bc
       -0.018208282 0.05892965 0.00837052 -0.013429168
000390 30 06 de bc da 67 f3 ba 49 5d 56 3e bd a5 5e 3e
       -0.02710256 -0.0018570379 0.20934023 0.21742912
0003a0 2d 5b 4b 3e 86 c6 a0 3e 7a 71 f1 3d ff d7 e5 3d
       0.19859 0.3140146 0.11789222 0.112228386
0003b0 0e 87 c5 bd 77 fd 91 3e c1 24 db 3d d5 db 89 3d
       -0.096449 0.2851369 0.107003696 0.06731383
0003c0 f7 e8 20 bc ed 61 4b 3d f7 ba 80 be 4a 96 3a bc
       -0.009821168 0.049653936 -0.25142643 -0.011388371
0003d0 fe 55 35 3d 62 d6 5e 3d ab 66 11 bd e6 5c 8f 3d
       0.04427146 0.05440367 -0.035498302 0.07000141
0003e0 d9 24 55 bd 00 d9 ca bb 78 c2 cc 3c e5 ca 37 3d
       -0.052037094 -0.006190419 0.024995074 0.04487123
0003f0 95 fe 65 bd 0b 16 64 3d 6b 74 df 3d 53 28 78 3c
       -0.05615099 0.055685084 0.10910877 0.015146333

head.bias f4 [128]
000000 73 0f 9d 3d e2 7a cc 3d a2 0f 7c 3e 35 ce 3d be
       0.07668962 0.099843755 0.24615338 -0.18535693
000010 94 31 39 be 0b 11 22 be 7b 99 43 3e 59 9f 9d bc
       -0.18085319 -0.15826814 0.19101517 -0.019241022
000020 8d 93 cd 3d 67 9c 44 be 2b 26 5b bd 31 68 a2 3e
       0.10037909 -0.19200288 -0.053503197 0.31720117
000030 a4 d3 53 bc 44 51 52 bb a9 5b ba be d1 21 e9 3d
       -0.012928877 -0.0032091895 -0.36398056 0.11383403
000040 23 43 a0 bd ef db eb bd f2 68 0d 3d 91 16 cd bd
       -0.07825305 -0.115165584 0.03452391 -0.1001407
000050 c9 31 49 be 10 f0 d3 3d cd d9 68 bc cb e4 b2 3d
       -0.19647898 0.10348523 -0.014212084 0.08735045
000060 e9 e6 0f 3e 59 25 2b 3d 37 13 3e bd d7 8f 11 be
       0.14052929 0.041783664 -0.046405043 -0.14215027
000070 02 19 32 3d eb 2c e3 bd 1d 1b 3e 3d 20 a7 71 3d
       0.04348088 -0.11092552 0.046412576 0.058997273
000080 ec 1f 3b 3d d5 95 66 3e 30 a3 d5 bd 05 ff ef 3d
       0.04568474 0.22518094 -0.10431516 0.11718563
000090 ff 8d c3 bd 22 86 58 be ce 40 cd be 95 89 9f 3e
       -0.09548568 -0.21144918 -0.40088505 0.31159654
0000a0 61 cf 6d be d7 7f 8f 3e 1d 98 71 3e 9e ae 9c bc
       -0.2322364 0.28027222 0.23593183 -0.019126233
0000b0 6f 14 ba 3d e1 0d 55 3e 0d 59 a2 bc ee 7c 6e be
       0.09085929 0.20806076 -0.019817853 -0.23289844
0000c0 af 46 57 3e af 39 6c 3e 3c a2 14 3e 03 6f 90 3e
       0.21023057 0.2306888 0.14515013 0.28209695
0000d0 30 97 06 3e 4b 40 7e be 29 b5 c4 be bd 57 d7 3d
       0.13143611 -0.24829213 -0.38419464 0.105147816
0000e0 58 cd 4c 3e 64 3e 8e 3d 56 0b 4c bd f8 da d1 3c
       0.20000207 0.06945494 -0.0498155 0.025617108
0000f0 ac 16 13 3e 90 47 34 be e3 49 49 3b f0 b4 60 be
       0.14364117 -0.17605424 0.0030714206 -0.21944022
000100 82 72 8b be 7f 05 9e 3e 59 14 00 3d f7 35 4f 3e
       -0.272358 0.30863568 0.031269405 0.2023543
000110 7f 0d f6 3d 3b fb 66 3e 3f 7c f2 3d 25 da 50 3e
       0.12014293 0.22556774 0.11840104 0.20395716
000120 94 f0 7b 3e 91 5f 71 be 64 49 9a bd ab de 6d 3d
       0.24603492 -0.23571612 -0.075335294 0.05807368
000130 b7 dd b7 3d c6 0c 42 be 53 7f 94 3c c7 ec 23 3e
       0.089778356 -0.18950185 0.01812712 0.16008292
000140 55 ed 89 3e 4d c8 db 3c 57 d8 60 bd c6 db c1 3d
       0.26938882 0.02682891 -0.054893818 0.094657466
000150 31 cf ce bd dd 15 b0 3e 39 f5 20 3e fb cd 53 3e
       -0.100981124 0.3439168 0.15718545 0.20684044
000160 a0 fe df 3d 7d 2d 50 bd 0d 25 91 3e 1b 3f 96 be
       0.10937238 -0.05082463 0.2834858 -0.2934502
000170 e9 12 6c 3b 8d 50 ae be 88 b5 b7 be 4d 67 9d 3e
       0.0036022014 -0.3404583 -0.35880685 0.30742875
000180 f6 e4 7b 3d d3 cb c5 3d e0 64 57 3c e6 60 e2 3d
       0.06149765 0.09658017 0.013146609 0.11053638
000190 c7 9d da 3d 7c 7b 0f be b5 91 0f bc 0d 4e 79 be
       0.10674625 -0.1401195 -0.008762767 -0.2434618
0001a0 bd f0 fe 3d 15 19 42 3e 22 17 a9 3e 9e e5 80 3d
       0.12448261 0.1895488 0.3302546 0.06293796
0001b0 a5 8f 25 bd d9 c3 80 3e dc 88 b6 bd 36 fa 82 3e
       -0.040420193 0.2514942 -0.089128226 0.2558152
0001c0 3b 5c ec bd ca bd 29 3e bd 4d 0e 3e 3c 00 bc 3e
       -0.11541029 0.16576305 0.13896842 0.3671893
0001d0 c4 0a b5 be 59 64 e3 bd 78 0f 3b be c8 86 dd 3d
       -0.35359776 -0.11103124 -0.1826762 0.10816723
0001e0 d8 b3 5b 3a fd b9 c4 3e e7 e1 e4 bd 04 6d c8 bd
       0.0008380986 0.38423148 -0.111759 -0.09786418
0001f0 bf c7 c4 bb c2 c0 89 3d 14 0c 25 be 31 c1 96 3e
       -0.006005257 0.06726219 -0.16117889 0.29444268

cos_embedding.weight f4 [128, 64]
000000 51 e5 a3 bc 96 33 e7 ba 75 39 11 3a 1a f7 f0 ba
       -0.020006808 -0.0017639275 0.0005539873 -0.0018384189
000010 93 44 fd 3b 1f 61 e2 3b ae c1 6a 3b 7c 61 e7 bb
       0.007729122 0.0069085504 0.0035821008 -0.0070611816
000020 0e 1b d3 3a e2 88 9b bb 9d ed 21 3b 90 6d cc ba
       0.0016106085 -0.0047465423 0.002470828 -0.0015596617
000030 6d 84 6e ba 57 1b 41 3b e6 74 5d 3b 8c 2d e5 3b
       -0.00090987125 0.0029465759 0.00337916 0.006993955
000040 3f 25 6f 3b d6 c9 6d 3b 67 8d ad 3b 8e 3f b5 3b
       0.0036490706 0.0036283634 0.0052963975 0.005531258
000050 2c d0 e0 ba bf 9a 4d bb 9b d3 08 3b e8 bc fb ba
       -0.0017151884 -0.0031372753 0.002087808 -0.0019206079
000060 28 fb 9e b8 6d 0e c2 3a 01 18 bd b9 0e d1 3e 3b
       -7.5808086e-05 0.0014805325 -0.00036066773 0.0029116306
000070 80 87 c8 3a 0e b1 f4 37 55 34 47 3b 1a 10 54 ba
       0.0015299171 2.9169514e-05 0.0030396183 -0.00080895575
000080 92 a8 b4 39 ab c9 00 3b 2b a2 f8 39 86 c4 81 3a
       0.0003445787 0.0019651453 0.0004742307 0.0009900487
000090 f4 f6 b6 ba a9 9b d0 ba 2a d6 03 bb 44 d4 2c bb
       -0.0013959096 -0.0015915531 -0.0020116665 -0.0026371637
0000a0 97 a1 9a ba b0 11 f4 3a 9b 3c 42 3b 34 8a a2 3a
       -0.0011797425 0.0018620994 0.0029638174 0.0012400807
0000b0 22 a7 30 b9 c0 69 22 bb 42 8d 37 ba f9 dd 62 b8
       -0.0001684693 -0.002478227 -0.0007001945 -5.4089327e-05
0000c0 46 08 d3 ba 31 5d 60 bb 5b 47 99 ba f1 b4 d3 b9
       -0.0016100488 -0.0034235234 -0.0011694239 -0.00040379868
0000d0 38 52 95 39 91 b9 a0 38 5c f3 3d 38 3d 00 a8 3a
       0.00028480752 7.663959e-05 4.5287758e-05 0.0012817454
0000e0 63 a8 2c 3a 8a c8 54 ba b6 c3 d1 39 0f 3a 00 3a
       0.0006586371 -0.0008117041 0.00040009402 0.0004891464
0000f0 a7 c0 7e ba 3f 1d 05 bb 58 e0 41 ba 35 eb 85 b9
       -0.00097180385 -0.0020311621 -0.00073957955 -0.0002554298
000100 35 46 87 bd 5f 49 44 bd 08 00 e9 bc 1b 9a 13 bc
       -0.06605188 -0.047921535 -0.028442398 -0.00900891
000110 68 f9 c0 3b 27 d8 80 3c e2 00 9e ba d6 d4 1f 39
       0.0058891065 0.01572807 -0.0012054706 0.00015242709
000120 72 ca 57 bc 90 73 0c bd 88 5c 02 bd ab 8d bd bc
       -0.013170825 -0.034289896 -0.031826526 -0.023138842
000130 30 25 98 bc 57 b2 b4 bb 7e ae e8 3b 73 d2 05 3d
       -0.01857242 -0.005514424 0.007100879 0.032671403
000140 d3 99 2a 3d 8d df 22 3d 1f d4 a0 3c 3f 5e 72 3c
       0.041650604 0.039763976 0.019632397 0.014792978
000150 11 c5 2c b9 14 f7 81 39 59 a9 f1 bb 8f 19 1a bc
       -0.00016476611 0.00024788885 -0.007374924 -0.009405508
000160 b7 03 e2 ba ed 49 60 3b 6f d1 27 3c 39 b3 81 3c
       -0.0017243539 0.003422375 0.010242804 0.01583253
000170 95 5c 65 3c 31 3a bc 3a 30 72 9c bb 59 0a 23 bc
       0.013999124 0.0014360604 -0.0047743544 -0.009951198
000180 15 ba 9f bc 55 62 aa bc c8 84 d1 bc 90 e6 ad bc
       -0.01949791 -0.020798841 -0.02557601 -0.021228105
000190 5c 4a a7 bc 8d be 6b bc 92 59 14 bc 36 c1 96 bb
       -0.0204212 -0.014388693 -0.009054558 -0.0046006693
0001a0 d9 32 ae bb 22 ae 02 bc e6 21 1e bc 22 79 61 bc
       -0.00531612 -0.007976087 -0.009651637 -0.0137617905
0001b0 49 2e 5f bc 66 30 85 bc a6 cd 74 bc 0b 7e 2c bc
       -0.013621875 -0.01625843 -0.0149416085 -0.010528098
0001c0 68 59 00 bc 41 11 3e bb 05 67 d4 ba 66 41 2d ba
       -0.007833816 -0.0029001983 -0.0016205019 -0.00066091714
0001d0 e9 0f c7 ba 1d cb 16 3b 4b 5e b1 b8 98 0d 60 ba
       -0.0015187237 0.0023009249 -8.457581e-05 -0.00085469475
0001e0 82 0b ab ba 90 ab a2 ba 06 8c 87 bb 36 5f 69 b9
       -0.0013049694 -0.0012410749 -0.004136565 -0.0002225608
0001f0 c8 c7 3b bb 1c f8 cb b9 46 a6 03 bb 76 f4 c2 3a
       -0.0028653014 -0.00038904033 -0.002008812 0.001487388
000200 ec 20 a5 bc 68 0b 25 bd ca 57 53 bb c1 10 04 bd
       -0.0201573 -0.04029408 -0.0032248371 -0.03224254
000210 23 12 5b bb b6 29 f8 3c 63 a8 20 bc b8 1f 84 3c
       -0.0033427558 0.030293327 -0.0098057715 0.016128406
000220 e8 f7 11 3d 21 be 5f 3d 06 6f 9f 3c 9c b2 28 bc
       0.035636812 0.05462468 0.01946212 -0.01029649
000230 c7 a9 8a bd 60 1f 5b bd 29 2c d2 3c 2b 49 42 3c
       -0.06770664 -0.05349672 0.025655823 0.011858265
000240 22 8b 80 3b d5 c3 89 3b bb c7 3c 3c fc 82 cd 3c
       0.003922836 0.004204253 0.011522229 0.025086872
000250 19 48 0e 3d 2f c9 12 3b fa eb de 3b 62 16 12 3c
       0.034736726 0.0022397747 0.006803033 0.008916469
000260 bd 91 9a bb 74 99 15 bd f4 e5 34 bd 81 e7 be bc
       -0.0047170804 -0.036523297 -0.044164613 -0.023303749
000270 d5 ca c4 3b 85 ba 71 3b fe 4f cd bb 3c e6 93 bc
       0.006005625 0.0036884856 -0.0062656393 -0.01805412
000280 a6 ad 55 3b eb 46 03 3c fc 8f 8a ba 7a 61 80 3b
       0.0032604723 0.008012514 -0.0010571475 0.00391787
000290 fb 56 ff 3b 48 72 80 3b 8c b5 92 bb 74 f3 c7 bc
       0.0077923513 0.0039198734 -0.0044772085 -0.02440808
0002a0 fb fa 83 bc 45 3f c0 3b cb ad 88 3b af be 1f bb
       -0.016110888 0.0058669173 0.0041711084 -0.002437513
0002b0 6b f1 d5 ba 2f dd ab 3b c5 3b 90 3c f6 32 23 3c
       -0.0016322559 0.005244873 0.017606625 0.0099608805
0002c0 25 02 d2 3a f6 c8 bb 3a dd f6 36 ba a7 f5 78 bb
       0.0016022368 0.0014326859 -0.00069795345 -0.0037988217
0002d0 ba 67 3c bc e4 b4 19 bc 11 e6 10 bb 8b bc d9 3a
       -0.01149934 -0.009381507 -0.0022109787 0.0016611976
0002e0 e4 a9 1d bb 69 02 48 bb 95 3e 6e ba b1 38 a5 ba
       -0.0024057562 -0.0030519015 -0.0009088305 -0.0012605396
0002f0 37 71 57 3b ea ee c6 ba 55 46 ee b8 32 ad 2d ba
       0.0032873878 -0.0015177403 -0.00011361825 -0.00066252344
000300 9a 8c 5c 3d 77 f7 1d 3c 55 fa 69 bb de dd 3c bc
       0.053845026 0.00964152 -0.0035702188 -0.011527507
000310 f3 f4 05 3d f9 3f 75 3c 37 fb ca 3c c2 b3 03 bb
       0.032704305 0.014968866 0.024777992 -0.0020096158
000320 27 0d 21 3c b5 c9 ba 3b 33 8d f0 3c 1e 13 9a 3c
       0.009829796 0.005700315 0.029364204 0.018807944
000330 2a 40 a2 3c 0b 7d 06 3b d0 4d 03 3c fc 81 62 3c
       0.019805986 0.0020521309 0.008014157 0.013824936
000340 a0 5e 8c 3c 33 0d e0 3b 86 09 c6 3b c7 02 6c 3c
       0.017134964 0.006837511 0.0060436158 0.014404959
000350 a9 4f df 3c 12 c3 b8 3c c0 80 80 3c 4b 82 0c 3b
       0.027259665 0.022553954 0.015686393 0.0021439965
000360 9c 34 27 bc fb 03 0c bc c8 27 8e 3b 46 ec 50 3c
       -0.010205414 -0.008545871 0.0043382384 0.0127516445
000370 71 2b 68 3c f4 2d de 3b b3 15 1a 3b e5 47 f7 3a
       0.0141705135 0.0067803804 0.002351147 0.0018866031
000380 d9 37 9c 3b 05 90 31 3b 4d 7a 12 3b 3d eb 5d bb
       0.0047673997 0.00270939 0.002235073 -0.0033862137
000390 d6 c6 6b bb af 19 58 ba 38 d1 66 3b 12 5c 8c ba
       -0.003597667 -0.0008243573 0.003521992 -0.0010708591
0003a0 bc 6e 37 3b 98 5d 5b 3a 26 98 23 3a 41 b0 70 3a
       0.0027989587 0.00083681336 0.00062406284 0.00091815373
0003b0 1c 0e 30 39 f6 08 c2 bb a5 07 b1 bb d1 79 a6 bb
       0.00016789924 -0.0059214784 -0.0054025226 -0.0050804396
0003c0 b9 a4 54 bb 13 16 75 bb 3e 8c e4 ba e7 10 2f bb
       -0.0032446815 -0.003739719 -0.0017436815 -0.0026712955
0003d0 3e 15 59 bb 86 e6 a4 3a ad 93 26 bb 64 88 a8 bb
       -0.0033124234 0.0012580908 -0.0025417611 -0.005143212
0003e0 b4 82 90 bb 3e 68 e1 b9 9d 64 8f 3b 29 c3 73 3b
       -0.0044101123 -0.0004299301 0.0043760077 0.0037195182
0003f0 3a 76 2b bb b3 19 46 ba 16 f2 18 bb 5c b3 0b 3b
       -0.0026162998 -0.000755693 -0.0023337654 0.0021316623

cos_embedding.bias f4 [128]
000000 ce 86 94 3e 73 3b 12 3e 5c 29 82 3d 75 6a e6 3e
       0.29009098 0.1428049 0.06355545 0.45003095
000010 91 db a9 bd 98 f4 03 3e df 59 67 bc e9 ca 54 3e
       -0.08293832 0.12886274 -0.014120548 0.20780529
000020 ce f4 2e 3c 66 5f f1 3d 8c 8f 34 bd 97 a3 01 3c
       0.010678483 0.11785774 -0.04408221 0.007912538
000030 9c 0f 26 3e 2b 8c a1 3e 6a 2b b1 3e 45 4d 97 3e
       0.16216892 0.31552252 0.34603435 0.2955114
000040 a5 48 69 3e 23 90 46 3f b3 6b 87 3e a1 5d 95 3e
       0.22781618 0.77563685 0.26449355 0.29172996
000050 9f ff ce bd ce 6e 56 3b 2d 92 96 3e 24 73 13 be
       -0.101073496 0.0032719853 0.29408398 -0.14399391
000060 b6 55 14 3f fa d2 0c 3f 63 1f 64 3d fc c5 37 3b
       0.57943285 0.55009425 0.055693995 0.0028041592
000070 9e f8 02 3e 50 04 b0 3e e4 80 59 3d b2 81 f5 3e
       0.12790152 0.3437829 0.053101435 0.47950512
000080 55 f4 ac bd 35 a1 a3 3d 3b 0d bd 3e 3b 5a 08 3e
       -0.0844504 0.07989732 0.36924157 0.1331567
000090 b1 25 76 3d 2e 21 9b 3d 38 65 5b bd f9 4f f2 bd
       0.06009454 0.07574688 -0.053563327 -0.1183166
0000a0 43 de 2e 3e 10 8b ca 3d 24 83 24 bd 2d 0d e9 bd
       0.17076974 0.09889805 -0.040164128 -0.11379466
0000b0 80 19 01 3f d5 5a c0 3e 3b 2c f2 bd 60 92 6d 3e
       0.50429535 0.375693 -0.118248425 0.23200369
0000c0 05 4c ce bd 7b c9 d0 3e 4a 5b 78 3d 99 1b 01 3e
       -0.10073093 0.40778717 0.060633935 0.12608184
0000d0 63 e3 26 3e 17 bd fd 3d bd c3 78 3e e2 e8 65 bd
       0.16297679 0.12389582 0.24293418 -0.056130297
0000e0 2f 1a dd bb 47 9e 02 3d 5e bd 7c 3c 7d 10 0c be
       -0.006747506 0.031889226 0.015426008 -0.13678165
0000f0 bc 68 3b 3e fb 24 d8 3d 90 f1 1f 3d 7e fe 3d 3e
       0.18301672 0.105539285 0.03904873 0.18554112
000100 b1 6f 3d 3e c8 4f fa bd db 7c 8e 3e ca ef 9e 3d
       0.18499638 -0.12222248 0.27829632 0.0776058
000110 ba ce 9b 3e 12 6c c4 3d 43 3c 04 3c a8 0c 25 3e
       0.30431157 0.09590925 0.008071008 0.16118109
000120 84 c7 0e 3d 11 a3 dd 3d 49 91 4a 3e 2e 92 69 3d
       0.03485824 0.10822118 0.19781984 0.057024173
000130 18 c0 60 3e 0e 4a c0 3e 5b a9 9d bd 2f 9e 12 bd
       0.21948278 0.375565 -0.076983176 -0.035795387
000140 d6 b9 d4 bd 4e 03 0d 3e a1 f7 b1 3e f3 c4 3b 3d
       -0.10387008 0.13770792 0.34759238 0.045842122
000150 a5 34 49 3e 7a cb 1e bc 32 5b d0 3e fe c0 30 bd
       0.19648989 -0.009692067 0.40694577 -0.0431528
000160 e2 2a 04 be bf fb eb bd b6 0d b7 bc 74 aa cd 3e
       -0.12906983 -0.11522626 -0.022345405 0.40169108
000170 13 79 34 bd 3c bb 2e 3e dc 3f 8f 3e 9b f7 20 3e
       -0.044060778 0.17063612 0.27978408 0.15719454
000180 9d ce d2 3d 0a c2 12 3e a0 fc 62 3d a0 b7 23 3d
       0.102933146 0.14331833 0.055416703 0.03997004
000190 30 fe c4 bc 05 80 de bd 12 bb e7 3e 50 80 21 3d
       -0.024046987 -0.108642615 0.4525991 0.03942901
0001a0 47 54 27 3f 99 0d 9c 3e 24 60 e7 3d f7 9f 0b be
       0.6536297 0.30479124 0.11297634 -0.1363524
0001b0 d8 c4 cc 3d 22 44 85 3d 4b bb ba bd 47 a5 06 3e
       0.099984825 0.06507136 -0.091177545 0.13148986
0001c0 a1 3e 45 3e e3 8a 44 be ce 72 35 3d 61 60 26 3c
       0.19262172 -0.19193606 0.04429894 0.010154814
0001d0 9a 42 ba 3e 47 d4 a8 3c 50 6e 40 3d 7b 58 24 3f
       0.36378938 0.020609034 0.046980202 0.6419751
0001e0 4c 77 75 3d e1 b4 4b bd e5 74 b9 3d 0a b7 93 3e
       0.059928223 -0.049733046 0.09055499 0.28850585
0001f0 95 45 4a 3d 7d 97 7c 3e ac 88 d1 bd bf 72 c4 bc
       0.049382765 0.24667163 -0.10231146 -0.023980496
